log/mujoco_ddpg_halfcheetah_v3_4/mujoco_ddpg_halfcheetah_v3_4_s4/pyt_save/model.pt (torch_old, 581120 bytes, 11 tensors)

weight f4 [256, 17]
000000 5f ca 0b 41 7c 6b 11 c0 b6 11 0f c0 6b b5 34 3f
       8.736907 -2.2721853 -2.235456 0.7058932
000010 04 88 a3 3e ac 75 d7 3f 87 84 9b be 2a 27 bd be
       0.3193971 1.6832786 -0.30374548 -0.36943942
000020 33 14 df bf 4c 40 02 3f 89 1c d6 3e 0a e5 81 bd
       -1.7428039 0.5087936 0.41818646 -0.06342514
000030 f3 a8 a3 bd 5b fa f3 bd b1 a7 06 3d ca b6 ad bd
       -0.07991209 -0.11912986 0.032874767 -0.0848213
000040 aa 4d 79 3e bd e8 68 c1 c3 26 91 bf 56 39 cc c0
       0.24346033 -14.556821 -1.1339954 -6.381999
000050 ab 37 0e c0 cf 23 14 3f 23 9a 94 3e e7 75 7f 3e
       -2.2221477 0.5786714 0.29023847 0.2494732
000060 c0 2d 41 3e 3a a4 88 bd 05 6b 16 40 60 45 97 3f
       0.18865108 -0.06671949 2.350282 1.1818047
000070 71 f8 67 3f 00 d0 fd 3e 13 9f 6d 3e 0c ce 86 3d
       0.90613467 0.49572754 0.23205213 0.06582269
000080 3a 70 2b bd 26 46 16 bd e8 1b 7e 41 f5 d0 63 c0
       -0.041855074 -0.036687993 15.881813 -3.5596287
000090 49 74 3b 3f 75 0f 6a 40 82 43 49 40 be e2 8f c0
       0.7322431 3.6571934 3.1447453 -4.4964285
0000a0 df b4 fa 3e 63 08 a8 40 72 de 3c bf 21 d9 ba bf
       0.4896612 5.251024 -0.73776925 -1.4597512
0000b0 2d 7b 29 3f 64 d2 98 3e d1 08 86 3d 11 ed 43 be
       0.66203576 0.29848015 0.0654465 -0.19133402
0000c0 4e 82 29 3e 14 aa bd 3e 3e 34 3a 3f 6a 11 54 41
       0.16553614 0.37043822 0.72735965 13.2542515
0000d0 5e ad 83 40 d9 f2 e0 c0 b6 62 50 c0 fe e5 4c bf
       4.114913 -7.0296445 -3.2560248 -0.8003844
0000e0 11 8e 5f 40 06 14 fb 3f aa 98 a3 3e ff ba 6d bd
       3.493046 1.9615486 0.3195241 -0.05803966
0000f0 b9 b6 9f 3f dc a8 1c 3f 89 a8 de bd 64 18 33 bb
       1.2477638 0.6119516 -0.10871989 -0.002732777
000100 29 80 74 bd fe 0b 6e 3e 1b 27 df 3d 14 f3 38 3d
       -0.059692536 0.23246762 0.10896131 0.045153692
000110 2f 49 2f 41 56 79 80 c0 da c0 57 c0 ee 82 b1 c0
       10.955367 -4.0148115 -3.3711457 -5.5472326
000120 42 ff b6 be 90 d4 e3 3e af 5e 10 40 88 6a f9 be
       -0.3574162 0.4449811 2.255779 -0.4871409
000130 51 68 50 bf 2b 25 9e 40 b9 97 9d bf c3 a3 51 be
       -0.81409174 4.942037 -1.2311927 -0.20472626
000140 2d bf 3b be 11 38 2c be b1 2f 0a 3f 7a ee ae be
       -0.18334647 -0.16818263 0.5397902 -0.34166318
000150 69 bf 96 bd cb e8 46 41 7e bc d0 bf a5 95 46 c1
       -0.07360727 12.431834 -1.6307523 -12.411534
000160 50 31 8b 40 e5 df 73 3f 99 0d 14 40 d1 4e ed bf
       4.3497696 0.9526351 2.31333 -1.8539678
000170 98 94 05 c0 f1 1b 8c bf ac 9d 6c 40 c2 6f be 3e
       -2.0871944 -1.0946027 3.6971235 0.3719464
000180 a8 ae 14 bf d0 a9 a9 3d 8a b7 b8 3e d2 12 b8 be
       -0.58079004 0.08284342 0.3607753 -0.3595186
000190 dc 75 81 be e4 9c 89 be 93 77 4b 41 db 2d 2b 40
       -0.25285232 -0.2687751 12.716693 2.6746738
0001a0 9d 0e 11 c1 51 f7 fc c0 d4 7e 51 3f fe b8 79 3f
       -9.066068 -7.90519 0.8183415 0.975479
0001b0 3c 4f 9f 3f 01 40 eb 3f 0c 81 f3 be c4 e5 26 3f
       1.2446055 1.8378907 -0.47559392 0.65194345
0001c0 9a 62 03 3e 27 8c 36 bc be b7 ec bd 18 1c 46 bd
       0.12830582 -0.011141813 -0.115584835 -0.048366636
0001d0 ce 3f 9f 3b 21 2b 7e bd b5 01 87 bd 7f 40 fb 40
       0.004859901 -0.06205285 -0.065921225 7.851623
0001e0 ca 20 0d 3e aa 93 05 40 b2 fb 89 c0 0b 03 87 bf
       0.1378204 2.0871377 -4.3119745 -1.0547804
0001f0 43 48 4d bf 8c e6 33 40 57 bb 59 40 1e 72 25 c0
       -0.8018839 2.8109465 3.4020593 -2.5850902
000200 d4 7c 2d 3d 5e 97 b0 3f c1 00 d2 bd 96 81 b4 3e
       0.042355374 1.3796194 -0.1025405 0.35255116
000210 72 d1 ad 3e 04 8f 17 3c b5 9f a4 bc 0c 97 f2 bd
       0.33948857 0.009250406 -0.020095685 -0.11845216
000220 b2 cc 8d 41 70 a8 9d bf 91 ee b3 3e df 9a 9b bf
       17.724949 -1.2317028 0.3514295 -1.2156638
000230 71 d5 d0 3e bd c5 fa c0 88 85 0d c0 e2 bc 3a bf
       0.40787843 -7.836638 -2.211275 -0.7294446
000240 aa 49 a7 be 0f 0a 40 40 87 46 df bf f7 19 95 be
       -0.3267339 3.000614 -1.7443398 -0.29121372
000250 7b cf 0c be b1 bd 07 be ff 2a d8 be 89 5d aa be
       -0.13751023 -0.13255955 -0.42220303 -0.33274487
000260 8b e5 f1 bd 2c 93 a9 c0 0a ab ba be 79 c9 28 c0
       -0.1181136 -5.2992153 -0.36458617 -2.637297
000270 bb 50 88 c0 4c 6b 23 40 76 05 83 40 fe 82 5d c0
       -4.259855 2.553424 4.0944166 -3.4611201
000280 d2 4d 90 bf 46 f8 4b c0 8d 74 5a bf fc 7e 25 3f
       -1.1273749 -3.1870284 -0.8533409 0.6464689
000290 0e e1 74 3c d0 69 3f 3f c9 5c a7 bd 42 95 f7 be
       0.014946235 0.7477083 -0.08171994 -0.48356062
0002a0 fe 75 61 be 1e 83 cb be b3 dd c1 40 36 60 c9 bd
       -0.22017667 -0.39748472 6.058313 -0.09832804
0002b0 38 b5 84 40 76 c6 0d 3f 19 20 ed be 9e 18 10 bf
       4.1471214 0.5538095 -0.4631355 -0.5628756
0002c0 5c eb 1a bf 16 f2 23 3f e5 e6 09 c0 08 dd 0b 40
       -0.6051538 0.6404127 -2.1547177 2.1853657
0002d0 fe 07 f9 bd 90 a2 3f 3f d7 d6 e2 3e 18 21 d9 be
       -0.121597275 0.74857426 0.44304535 -0.4240806
0002e0 4e 90 2c be af 9c d2 be 4e 91 f1 3e 94 99 44 3f
       -0.16851923 -0.41135165 0.4718117 0.7679684
0002f0 0b 53 47 3f 8e 33 2d 40 cf 89 12 3f 5d 5a 9c 3f
       0.7786109 2.7062716 0.5724153 1.2215077
000300 21 08 68 40 1b 3e 68 40 6f d7 b2 bf 3c 76 05 c0
       3.6254961 3.6287906 -1.3971995 -2.0853415
000310 60 30 0a 3f c0 f1 c1 3e 5f 98 30 be 2e 42 8c bd
       0.53980064 0.37879753 -0.17245625 -0.0684856
000320 4f f6 5a 3e 1e b5 db 3e 64 14 f9 be 77 a9 9f 3e
       0.21383022 0.4291162 -0.4864837 0.3118398
000330 f5 ea 96 3f aa f0 0c c0 23 7e 80 40 5d 07 fa bf
       1.1790453 -2.202189 4.0153975 -1.9533497
000340 24 95 bf 3f f1 59 5a c0 9a 73 02 3d b8 d5 2a bf
       1.4967389 -3.4117396 0.031848527 -0.6673236
000350 14 66 25 c0 b7 bf 17 bf 50 5b 8c 3f ef ea 9d bd
       -2.5843554 -0.5927691 1.0965366 -0.07710826
000360 c3 25 43 3d 73 87 49 3e 58 47 18 3d 46 e5 6b bd
       0.047643434 0.19680576 0.037177414 -0.0575917
000370 a8 3a db be 67 f2 f8 bf 4c a8 98 bf 29 13 07 41
       -0.4281819 -1.9448975 -1.192636 8.442178
000380 63 c5 41 c0 ac 6c 45 bf ba 0d f8 3f 60 5e e5 be
       -3.0276725 -0.77118945 1.9379189 -0.44798565
000390 53 02 41 40 e8 e9 20 bf 8d da d8 be 1d f1 b5 bf
       3.0157669 -0.6285691 -0.4235424 -1.4214207
0003a0 77 83 0d 3f 35 82 cb be 14 d1 f8 bc c1 fd 1d bf
       0.55278724 -0.39747778 -0.030373134 -0.6171532
0003b0 aa d0 ee bc c9 9a 60 be e5 9e 2b 41 5f c8 11 c0
       -0.029152233 -0.21934046 10.726293 -2.2778547
0003c0 e1 43 0c bf 0f 36 d1 bf a4 87 88 3e b6 c0 af 3f
       -0.54791075 -1.6344622 0.26665986 1.3730686
0003d0 09 64 c9 3f 70 98 ef be 74 73 5e c0 10 ad d9 3f
       1.5733653 -0.46795988 -3.4757967 1.700594
0003e0 3f ca a1 bf 13 5d 66 3e 2b bf 0e 3e 98 72 5f 3e
       -1.2639846 0.22496442 0.13940112 0.21821058
0003f0 95 25 37 3d a6 d5 93 be ff 4f 95 3e f3 07 51 41
       0.044713575 -0.28873938 0.29162595 13.064441

bias f4 [256]
000000 12 b1 aa c0 1b 88 ce c0 d1 28 12 c0 2d 9a 1d c1
       -5.334115 -6.4541144 -2.2837412 -9.850141
000010 f8 ce 63 c0 c8 50 9a c0 3e 90 2b c0 d3 4d a7 c0
       -3.5595074 -4.822361 -2.6806788 -5.22825
000020 8a 77 f8 bf 82 b6 36 40 0d 6e 97 c0 ab c1 86 c0
       -1.941148 2.8548894 -4.732184 -4.211141
000030 ac 14 49 c0 0a ce a5 c0 12 4c 51 c0 79 40 64 c0
       -3.1418867 -5.1814013 -3.270268 -3.566435
000040 69 b9 34 40 25 6e c0 c0 7c 2f 31 c0 b3 1f 82 c0
       2.8238165 -6.0134454 -2.7685232 -4.0663695
000050 ce f2 53 c0 a7 8c cf c0 37 31 ac c0 82 50 f1 bf
       -3.3116946 -6.4859195 -5.3810077 -1.8852694
000060 b7 d5 48 c0 f6 6e 36 c0 c3 d1 3f c0 25 59 5f c0
       -3.138044 -2.8505225 -2.9971778 -3.489816
000070 29 61 ac 40 9f 1b 8a c0 5b 1c b7 c0 36 06 b7 c0
       5.3868604 -4.3158717 -5.7222114 -5.719508
000080 62 7a 4c bf 5e 1d fd bf 9a 87 96 c0 4e 83 bd c0
       -0.7987424 -1.9774587 -4.704053 -5.9222784
000090 ac 15 83 c0 08 31 2d 40 3a 14 b5 c0 80 5a c8 c0
       -4.0963955 2.7061176 -5.658719 -6.2610474
0000a0 a6 59 4c c0 37 ca 66 c0 b7 f2 42 c0 f7 8e 88 c0
       -3.1929717 -3.6060922 -3.0460641 -4.267452
0000b0 e2 14 1a c0 06 93 0e 40 a1 38 56 c0 27 ae 23 bf
       -2.4075246 2.2277236 -3.3472064 -0.6393761
0000c0 94 82 e2 bf 55 f6 4c 3e f1 66 cc c0 1b 2b a2 c0
       -1.7696099 0.20015843 -6.387566 -5.067762
0000d0 80 4a 20 c1 b2 b2 55 c0 cc 99 ba bf ac d3 a0 c0
       -10.018188 -3.3390317 -1.4578185 -5.025839
0000e0 52 1b 79 c0 b0 c4 ab c0 da a7 28 bf 3e 05 83 bf
       -3.8922925 -5.3677597 -0.6588112 -1.0235975
0000f0 96 de 8f 3f 13 dc 5d c0 5a c7 b0 c0 42 29 8b 3f
       1.1239803 -3.4665573 -5.524335 1.0871966
000100 ad f4 d9 c0 ef 1e 58 c0 96 dd 15 3e 68 ee 12 3f
       -6.8111176 -3.376888 0.1463531 0.5739503
000110 ff 7b 18 c0 62 9f 96 c0 a7 2b 81 c0 b1 e8 dc 3e
       -2.3825681 -4.706956 -4.0365787 0.4314628
000120 75 fa 55 c0 93 29 52 c0 55 b2 52 3f be 3f 94 c0
       -3.3434117 -3.2837875 0.82303363 -4.632781
000130 41 8a 8c c0 57 53 b1 c0 19 4d df c0 18 1f 78 c0
       -4.3918767 -5.5414233 -6.9781613 -3.8768978
000140 29 36 b6 c0 79 e2 a3 bf 90 ea 92 c0 fe 4b c4 c0
       -5.6941113 -1.2803489 -4.591133 -6.1342764
000150 31 63 7f c0 bb eb c4 c0 7a ab 40 3f cd f9 da c0
       -3.9904292 -6.1537757 0.7526165 -6.8429933
000160 c4 e0 e3 c0 8c 30 0d c0 76 da 66 c0 f8 c5 a9 40
       -7.121187 -2.206088 -3.6070838 5.305416
000170 9f 14 ab 3f 88 95 9f c0 de 44 83 c0 f4 74 09 3e
       1.3365668 -4.9870033 -4.1021566 0.1342352
000180 5a 66 34 c0 97 76 69 3e e3 fa 81 3f 39 3c 79 c0
       -2.818747 0.22799145 1.015469 -3.8943007
000190 40 be 3b 40 2b 08 d6 c0 d5 64 c3 c0 ef 14 84 bf
       2.933487 -6.688497 -6.1060586 -1.0318888
0001a0 d6 f1 a7 bf f2 ee cc bf 82 7b a9 c0 e5 7b 70 40
       -1.3120677 -1.601042 -5.2963266 3.757562
0001b0 e2 f6 51 c0 8e 4f b3 40 ca 09 07 c0 61 97 c1 c0
       -3.2806935 5.6034613 -2.1099725 -6.049729
0001c0 bc ae 69 c0 81 22 b1 c0 62 dd eb 3f 14 89 63 c0
       -3.65129 -5.535462 1.8426936 -3.5552416
0001d0 8b df 86 40 e7 3e cd c0 2f 37 cb c0 c2 84 7c c0
       4.214788 -6.4139285 -6.3504863 -3.945603
0001e0 91 c5 1b 3f 65 64 a2 c0 2f 30 4b c0 ab ec 8e bf
       0.6084834 -5.074755 -3.174816 -1.1165975
0001f0 59 22 45 c0 e4 e0 87 c0 07 9c 54 bf e1 28 7f c0
       -3.0802214 -4.2462025 -0.8305058 -3.98687
000200 87 f7 b5 bf 27 f9 c5 c0 93 45 9f c0 fd 2b 38 c0
       -1.4216164 -6.186664 -4.977243 -2.8776848
000210 2d 7c eb 3f ca e7 ae 3f 6b ab ad 3f c1 17 7e c0
       1.839727 1.3664486 1.3567938 -3.9701998
000220 ac df c1 c0 50 be a5 c0 d3 8a bb c0 73 03 a2 3e
       -6.0585537 -5.1794815 -5.8606963 0.31643257
000230 9a 73 8e c0 21 5d ae c0 39 58 fd be ef 9b 8c c0
       -4.4516115 -5.4488683 -0.4948137 -4.394035
000240 21 d6 81 3f f7 02 9f c0 e5 80 0f c0 90 b3 29 3e
       1.0143472 -4.969112 -2.242242 0.16572404
000250 e9 5b 93 c0 bb 56 da 40 c0 01 ac c0 f8 1c 0f c0
       -4.6049695 6.823087 -5.3752136 -2.236143
000260 c9 8c a8 bf c2 de 50 40 51 16 5f bf 52 21 8f c0
       -1.3167964 3.263596 -0.8714343 -4.4728174
000270 30 fa 91 c0 0f 7e d9 40 03 c7 37 bf af 44 a7 bf
       -4.5617905 6.796638 -0.7178804 -1.3067836
000280 a2 c0 f8 bf 05 96 68 40 ae 80 3a 41 92 0e a3 bf
       -1.9433787 3.6341565 11.656416 -1.2738822
000290 fc 83 fe bf e3 02 c0 c0 5e 84 c8 c0 c9 7d dc 3c
       -1.9884028 -6.0003524 -6.266158 0.026915448
0002a0 7a 1c 34 40 19 46 4e c0 56 48 6a be 1b b1 86 c0
       2.814238 -3.2230284 -0.22879156 -4.2091193
0002b0 0c ab 16 c0 74 c2 83 c0 26 8b c0 c0 c2 23 26 c0
       -2.3541899 -4.117487 -6.016986 -2.5959325
0002c0 dc 93 cd c0 cb 52 a8 c0 f8 f8 08 41 3d af 45 40
       -6.4242992 -5.2601066 8.560783 3.0888207
0002d0 f1 c7 02 c0 b2 da 5b c0 bb 9b b5 c0 f9 6e ea bf
       -2.0434535 -3.435223 -5.67526 -1.8315116
0002e0 54 f7 20 c0 b1 f4 e3 c0 30 a6 33 bf 5f 56 9f 40
       -2.5150957 -7.1236196 -0.70175457 4.9792933
0002f0 84 5e 94 c0 2f fd 98 c0 1d 0e 9c c0 6b ce 67 c0
       -4.6365376 -4.780906 -4.876723 -3.6219738
000300 7a 7c 8e c0 ab ab 13 c0 bc 89 35 c0 3b c7 f0 bf
       -4.452695 -2.3073528 -2.8365316 -1.88108
000310 81 9b ea bf f4 00 57 c0 83 52 0c c0 30 ab 31 c0
       -1.8328706 -3.3594332 -2.192536 -2.7760735
000320 8e 35 a6 c0 57 e3 3d c0 a5 54 84 c0 95 6c 45 40
       -5.1940374 -2.9670007 -4.1353326 3.0847523
000330 c3 79 a4 c0 30 a7 07 c0 77 52 7c bf c7 eb 74 c0
       -5.1398635 -2.1195793 -0.9856333 -3.8268907
000340 86 ec 88 40 59 7d 14 c0 03 24 a4 c0 25 ae 7b bf
       4.2788725 -2.3201506 -5.129396 -0.983126
000350 14 ed a8 c0 70 16 85 c0 8e ce 92 c0 87 44 ad 40
       -5.27894 -4.158989 -4.587714 5.414615
000360 00 d7 1d c0 46 b9 f9 bf ba 07 86 c0 10 4f 79 c0
       -2.4662476 -1.9509666 -4.188443 -3.8954506
000370 e1 35 30 41 3f fe bc c0 cd a1 77 c0 86 c4 9d c0
       11.013154 -5.906036 -3.8692505 -4.9302397
000380 fb 36 ae 3f 2c 56 89 c0 2a 14 78 40 86 0f f5 bf
       1.3610529 -4.291769 3.8762307 -1.9145362
000390 b0 78 17 40 ab 39 a9 c0 18 d4 e0 bf 06 f0 6e bf
       2.3667412 -5.2882895 -1.7564726 -0.93334997
0003a0 94 d5 af 40 b5 a7 9c be b6 52 96 3f 31 f6 55 c0
       5.4948215 -0.305967 1.1743991 -3.3431513
0003b0 c5 ff 81 c0 83 ce 78 c0 03 fc 88 c0 5e 9f 5f c0
       -4.062472 -3.8876045 -4.280763 -3.494102
0003c0 3b b4 3b c0 28 69 ce c0 e0 d7 4b 3f 26 eb a6 c0
       -2.9328754 -6.4503365 0.79626274 -5.2162046
0003d0 a8 89 a3 c0 74 33 91 bf 48 fb b9 c0 55 34 8b c0
       -5.1105537 -1.1343827 -5.811924 -4.350138
0003e0 ac 37 90 c0 4c 74 93 c0 7e b4 96 c0 5e 23 6c c0
       -4.506796 -4.6079464 -4.7095327 -3.6896586
0003f0 02 89 62 c0 c8 b1 ff bf 17 a0 d8 c0 d0 de 3e bf
       -3.5396123 -1.997613 -6.769542 -0.74558735

weight f4 [256, 256]
000000 ee 8f a4 3e 74 f4 76 3f 8a a6 1a c0 f6 f4 cc be
       0.3214106 0.96466756 -2.4164147 -0.4003064
000010 c9 fb 13 3e 2e b7 ba 3e 7c 35 f8 bd b9 3e c7 3f
       0.14451517 0.3646788 -0.12119576 1.5566016
000020 17 84 d9 bf d0 cd b3 3e a2 1f a3 3f e3 a3 ae bd
       -1.6993436 0.3511796 1.2744029 -0.08527353
000030 e8 d2 d3 bf c5 a3 39 3e cf 9d 10 3f bd 2c 56 3e
       -1.6548738 0.1812888 0.56490797 0.20915504
000040 ad 9a 92 bf 95 4a ef 3f 80 58 6e 3e f3 ff c9 bf
       -1.1453453 1.8694636 0.23275948 -1.5781235
000050 db ad 54 3f 91 a1 88 3e c0 02 3f 3f 38 80 a5 be
       0.8307778 0.26685765 0.7461357 -0.32324386
000060 0a 8c 7b 3f 2c d3 03 bc 84 19 42 bf e1 4d f0 3d
       0.9826056 -0.008045953 -0.75820184 0.11733604
000070 52 20 a7 bf c5 ff 8b bf 2a c7 21 3d b6 c4 f3 bf
       -1.3056738 -1.093743 0.03949658 -1.9044406
000080 61 23 d9 be b0 71 ad 3c d4 6b 89 3d f6 36 0a c0
       -0.42409804 0.021172374 0.0671002 -2.1596045
000090 03 53 17 3f 27 fa 1e c0 c4 10 c4 3f 4a e5 85 3f
       0.5911104 -2.484018 1.5317616 1.0460598
0000a0 eb 42 1b bf 9a fd 18 bf 56 e7 19 3e df bf 80 3f
       -0.60648984 -0.59761965 0.15029654 1.0058554
0000b0 68 74 8a bf 11 89 1b c0 81 29 09 bd 40 ae 66 3e
       -1.0816774 -2.4302409 -0.033486847 0.22527409
0000c0 7b d2 13 c0 09 d9 e3 bf 3d b5 66 3f f8 6d c9 be
       -2.3097217 -1.7800609 0.901203 -0.39341712
0000d0 c0 b7 18 40 44 d0 d4 bf ac 08 12 be 22 e9 c9 3e
       2.3862152 -1.6626058 -0.1426112 0.3943568
0000e0 2b a9 b4 3e f8 83 ac 3f 4a 8c 1f bf 6e 1a 93 be
       0.35285315 1.3477774 -0.6232344 -0.28731102
0000f0 16 e1 22 c0 4a 30 52 3f 2f 70 f1 be 06 6d a8 bf
       -2.5449882 0.82104933 -0.47155902 -1.3158271
000100 b0 87 4f 3f 84 c8 4f 3e 50 27 16 3f 06 50 13 c0
       0.8106642 0.20291334 0.58653736 -2.3017592
000110 d7 a6 84 bf 0f 2a aa be 24 6f 1c c0 2a c5 96 bf
       -1.0363415 -0.33235213 -2.4442835 -1.177892
000120 88 4a 96 be 6c b3 bb 3e d6 17 6d bf 74 94 84 bf
       -0.29353738 0.36660326 -0.92614496 -1.0357804
000130 dc 6d 70 3f 6e 39 96 3f 9a ee 62 3e a5 a3 f1 3e
       0.9391763 1.1736276 0.22161332 0.47195163
000140 d0 df 52 bf 45 4f d7 be 26 f0 10 3f 23 d5 a7 3e
       -0.8237276 -0.42052665 0.5661644 0.32779798
000150 fa 02 58 3f 01 eb 0f 3f 19 0e 40 bf 94 8a c4 be
       0.8437954 0.5621796 -0.7502151 -0.38386977
000160 21 52 fa 3e e4 25 58 bf 77 fb b1 3f 59 9b a1 be
       0.48890784 -0.84432817 1.3904866 -0.31563833
000170 1a b4 09 3f 95 d1 59 bf f8 bb 7c 3f 02 0a 21 bf
       0.5379044 -0.8508542 0.9872432 -0.62905896
000180 0a 59 7a 3f b4 cc c6 bf e8 2c 82 3e 4d b5 82 be
       0.9779211 -1.553122 0.25424886 -0.25528947
000190 11 ca 09 be 0e ab e2 3e e5 e1 4a bf 8f 06 6f be
       -0.13455988 0.4427113 -0.7925094 -0.23342346
0001a0 0a 67 d2 bd 96 8b ff 3b be 74 3b 3f 0e 38 bb bf
       -0.102735594 0.0077986224 0.7322501 -1.4626482
0001b0 cd 36 19 3f 76 68 4e c0 71 c3 32 be a9 1d ff 3e
       0.59849244 -3.2251258 -0.17457367 0.49827316
0001c0 ee c3 0e c0 20 66 0a be 11 44 00 c0 19 9d 99 bf
       -2.2307086 -0.1351552 -2.0041544 -1.2001067
0001d0 9f 8d 5c c0 c4 79 91 3f 55 1d db 3e 12 f7 31 bf
       -3.4461439 1.1365285 0.42795816 -0.69517624
0001e0 99 5f 61 bf 30 f3 80 3e cf d4 73 3f 70 c6 24 bf
       -0.88036495 0.25185537 0.95246595 -0.6436529
0001f0 59 b3 cd bf 7e 34 4e bf 2e 90 ce 3d 88 5f 82 3e
       -1.6070358 -0.80548847 0.10086094 0.2546351
000200 8b 5c af be f5 37 6b 3f bd a5 3e bf e6 ef 19 c0
       -0.34250292 0.9188226 -0.74471647 -2.4052672
000210 d4 c6 30 3e 30 4b 99 bf 07 44 31 bf 53 c5 88 bf
       0.17263347 -1.197607 -0.69244426 -1.0685219
000220 fe f6 25 3c 45 a4 9d 3b 6c 37 c1 3c 7c f0 2f 3f
       0.010129688 0.004810842 0.023585998 0.68726325
000230 da 5e 5b be 2b 8c 7b bf fc 5c 4f bf 2a 3b dd be
       -0.21422902 -0.98260754 -0.8100126 -0.432092
000240 ed 8f 4d bf 27 53 f4 3e 9d d6 95 be 37 5f 74 bf
       -0.8029774 0.4771969 -0.292653 -0.95457786
000250 b9 94 5f 3f 3b 42 a2 bf 44 62 e6 bd 83 85 f0 bf
       0.8733631 -1.2676462 -0.112492114 -1.8790745
000260 42 b6 a5 bf a3 bc 18 c0 78 de f3 3f ba e3 ec be
       -1.2946246 -2.3865135 1.9052267 -0.46267492
000270 b9 de 93 be 09 7a c5 bf b4 7f 84 bf c7 4e e7 3f
       -0.2888086 -1.5427867 -1.0351472 1.8070916
000280 a3 5c ce 3e a4 d3 20 c0 dd 6f c7 bf fa 89 fa be
       0.4030505 -2.5129175 -1.5581013 -0.48933393
000290 34 53 26 c0 14 89 84 3f 8f 13 f8 3f a5 93 be 3e
       -2.5988283 1.0354333 1.9380969 0.3722202
0002a0 24 1c 54 bf 09 7a 96 3e b3 cf 2b bf 7f e9 e6 be
       -0.8285544 0.2938998 -0.671138 -0.45100018
0002b0 65 d9 2e bf 1e b9 fd be 11 22 b5 3d af d7 49 bf
       -0.6830047 -0.49555296 0.08844388 -0.7884473
0002c0 14 fe bd be 60 1f be 3f 4f c3 27 c0 9a 56 04 bf
       -0.3710791 1.4853325 -2.6212957 -0.51694643
0002d0 19 3a 58 bf 1a 0e cc be 6d 26 83 be 4b d4 b9 bf
       -0.8446365 -0.3985451 -0.25615254 -1.4517912
0002e0 4c 4d c2 3e 84 19 dc 3e 19 68 e9 bf 53 65 4b bf
       0.37949598 0.42988217 -1.8234893 -0.79451483
0002f0 66 60 94 bd 86 eb 5b 3e 13 d2 45 3f e1 f8 f9 bf
       -0.07244949 0.21476564 0.7727367 -1.9529077
000300 40 70 13 bf 18 25 81 bf e8 3c 5b 3f 6c 05 ce bf
       -0.57593155 -1.0089445 0.8563981 -1.6095405
000310 2a 6d c7 bf e9 8c c8 bf 65 4c 79 be b5 f9 58 3f
       -1.5580189 -1.5668002 -0.24345548 0.8475602
000320 63 24 e3 be 70 4c d3 be 33 72 d7 be 97 4c 8c bf
       -0.44363698 -0.41269255 -0.42079315 -1.0960873
000330 2a 0b 07 40 23 2e 8c 3b d1 e8 1e bf 2d 47 a4 bf
       2.1100564 0.004277961 -0.62074 -1.2834221
000340 e2 43 8b bf e6 05 15 3f 64 be ce be b2 6c b0 bf
       -1.0880091 0.58212125 -0.40379632 -1.3783171
000350 18 af 8d bf c5 ef ba 3d 22 af 3f 3f 60 35 16 bf
       -1.1069059 0.09127764 0.74876606 -0.58675194
000360 5c 40 86 be 60 bf 10 bf 65 4c f5 be 51 34 04 bf
       -0.26220977 -0.56542015 -0.47909847 -0.5164233
000370 72 ff cf bf cd 33 bf bf df 3d a8 3f 9d 99 15 3a
       -1.6249831 -1.4937683 1.3143882 0.0005706789
000380 5b 07 ac bf fb b8 56 bf 7f a4 18 c0 02 03 1f 3f
       -1.3439745 -0.8387601 -2.38504 0.62113965
000390 ec 7c 0b bf 33 14 b1 3f 0a 86 91 be b0 7d 8b 3e
       -0.5448749 1.3834289 -0.28422576 0.2724433
0003a0 41 0a 13 bf 7f 15 69 bf 7f d8 bc bf ca 9f 3e bf
       -0.5743752 -0.91048425 -1.4753569 -0.7446257
0003b0 d2 6d 5a be c9 11 6f be 8e 5f c4 bd 4c ec 46 be
       -0.21330956 -0.23346628 -0.09588538 -0.19426078
0003c0 d7 34 19 c0 7b a8 3c bf 19 0b ed 3d bd e2 5c 3f
       -2.39385 -0.7369458 0.11574382 0.86283475
0003d0 a6 90 d9 3e 2a ab 7a 3e 02 72 5d bf b8 d9 27 3e
       0.4249317 0.24479356 -0.8650209 0.16391647
0003e0 a2 d5 10 bf 94 a7 13 bf fc 10 5e 3d 1f 50 75 bd
       -0.5657598 -0.5767758 0.054215416 -0.059890863
0003f0 1e 3a e9 3e 7d 5d 10 c0 2a b9 ea be 63 85 15 be
       0.45552152 -2.255706 -0.45844394 -0.14601664

bias f4 [256]
000000 c3 50 0a c0 96 c0 c0 bd 98 1e 71 bf b0 f5 b4 bd
       -2.1611793 -0.09411733 -0.9418731 -0.08835924
000010 e5 d0 a0 bc 66 55 81 bd 5e c9 a1 bf 56 d7 0c be
       -0.019630859 -0.063151166 -1.2639577 -0.13754019
000020 36 7e 2f be aa 5e 62 bf e6 ab 2b bf ee 91 91 be
       -0.1713799 -0.88425696 -0.6705917 -0.28431648
000030 82 1c f5 bd 29 c2 fa bc f8 90 17 c0 90 ee 7d 3f
       -0.11968328 -0.03061016 -2.3682232 0.9919214
000040 11 1d b2 be ea ee fc 3f f1 6b 31 3f e1 49 8d bf
       -0.347878 1.9760411 0.6930533 -1.1038171
000050 ef 0c 83 bf 1e 8f 3b bb 3f 88 b3 3f f6 46 64 bf
       -1.0238322 -0.002861924 1.4025954 -0.8917078
000060 30 4e f7 be 17 fb f8 bd 31 11 95 bf 0b 29 ec bf
       -0.4830184 -0.121572666 -1.1645871 -1.8450025
000070 96 13 1b 3f 09 ae 8f bd 18 41 f3 bf 1c 0f 21 c0
       0.6057676 -0.070156164 -1.900424 -2.5165472
000080 0b e5 8b bd d5 d7 c7 bf 9d 68 98 bc 24 5b 4b bf
       -0.06830796 -1.5612742 -0.018604571 -0.79435945
000090 db 4b 9e 3e ad a1 55 40 54 13 66 bf 53 1f 51 c0
       0.30917248 3.337993 -0.8987324 -3.2675369
0000a0 6c d1 84 3f 8f 5a 8e be fe a9 c6 bc 94 8f 09 c0
       1.037641 -0.27803466 -0.02425098 -2.1493883
0000b0 3c 55 3f 3f 7d 2b 89 bd 82 d8 e9 bf 75 69 0f bd
       0.7473943 -0.06697748 -1.8269198 -0.03501268
0000c0 8f eb c4 bf 63 60 63 bd 89 55 13 c0 40 95 37 40
       -1.5384387 -0.055511843 -2.3020957 2.8684845
0000d0 c3 46 a7 bf 49 25 ad be fd 41 f1 3f a8 4a bf bc
       -1.306847 -0.3381751 1.8848263 -0.023351029
0000e0 03 06 e6 bc 4b 30 10 3c b2 f5 e6 be da c9 f5 3b
       -0.028079038 0.008800576 -0.45109326 0.007500869
0000f0 93 ca 4e 3f 31 69 04 c0 27 b8 42 be 00 fd d5 bd
       0.80777854 -2.0689204 -0.19015561 -0.104486465
000100 8d dd 16 3f c1 7b c3 c0 bf ca b9 bd 66 a0 01 be
       0.5893181 -6.1088567 -0.09071874 -0.12658843
000110 bf f9 28 bf a7 12 38 bd 0e 0d 06 bd 09 cb e4 3f
       -0.6600608 -0.044939663 -0.032727294 1.7874461
000120 a0 db b9 bf e7 6d 91 bd 9e d2 b5 bc 3c c1 47 bd
       -1.4520149 -0.0710104 -0.022195157 -0.048768267
000130 52 81 7e bd a1 6d 62 bd ba 31 a7 bd 6c 8e f3 bd
       -0.06213505 -0.05528033 -0.081637815 -0.11892399
000140 5d c2 dc bf 60 f5 dd bf ca a1 1c 3f d0 c2 8c 3e
       -1.7246815 -1.7340508 0.6118437 0.2749238
000150 da 8e 33 bf 09 ad b4 be 69 e6 11 be ac 4b 03 3e
       -0.7013985 -0.35288265 -0.14248051 0.12821835
000160 a6 a7 e2 bd d0 3e 77 bd 3c 93 45 c0 af be 98 be
       -0.11067133 -0.060362637 -3.0871115 -0.2983298
000170 7a ae f9 bf b4 9b 11 c0 89 45 0a bf f4 61 26 c0
       -1.9506371 -2.2751284 -0.5401235 -2.5997286
000180 5e 6d a5 be ce ba e3 bd a0 2e b6 be 1f 15 2c c0
       -0.32310003 -0.111196145 -0.35582447 -2.6887891
000190 bc 31 16 bc 14 fe b7 be 83 64 88 bd 87 06 05 bd
       -0.009167131 -0.35936034 -0.06659796 -0.032476928
0001a0 5f 4f b2 bd a1 f9 c7 b9 b8 37 df 3d c0 10 c0 3b
       -0.08706545 -0.00038142226 0.108992994 0.0058613718
0001b0 3e 46 1c 3a 1d 78 0f bf 60 2f 01 c0 cf ef a5 3f
       0.00059613946 -0.56042653 -2.0185165 1.2963809
0001c0 bf 79 45 bf 5f 68 57 c0 62 a9 0e c0 f7 65 96 bd
       -0.77138895 -3.3657453 -2.2290883 -0.07343667
0001d0 9a e9 18 c0 b2 a4 24 bd 19 83 01 3b 05 2f 8e be
       -2.389258 -0.04019613 0.0019761978 -0.27770248
0001e0 4e ce 3d c0 f9 78 cb bd 5d eb 0e c0 8c 23 ad bc
       -2.9657168 -0.09935183 -2.2331154 -0.021135114
0001f0 ef 84 86 bc 71 3a 86 bf 94 d4 82 bd da 60 b2 bc
       -0.01642081 -1.0486585 -0.06388202 -0.021774698
000200 3b 9a 3b 3f 81 80 b4 bd 2b 9e 65 bf 51 d7 33 c0
       0.7328221 -0.08813573 -0.8969447 -2.8100169
000210 57 f4 c8 bf 64 b0 23 bd b8 b7 90 bd 49 83 c1 bf
       -1.5699567 -0.03996314 -0.070662916 -1.511819
000220 66 ce 18 c0 64 e0 17 3f 38 86 42 bd 01 fe 39 bf
       -2.3875976 0.5932677 -0.047491282 -0.72653204
000230 58 cd 8c bf b9 47 d9 bd 1d 31 11 3e 86 e9 0f 40
       -1.1000166 -0.10609383 0.14178891 2.2486281
000240 8d ff f5 bf 89 bb 12 be 5a 4d c0 be f5 d3 c8 bd
       -1.9218613 -0.14329351 -0.37559015 -0.098060526
000250 2c a6 80 bc ba ac 31 bf a0 2f 27 bd 3e 4c c3 be
       -0.015704237 -0.69404185 -0.040816903 -0.38144106
000260 79 c4 32 bd be 53 df bf a0 d1 50 bf 8c d6 10 3f
       -0.043644402 -1.7447431 -0.8156986 0.5657737
000270 dd 53 8b bd e7 4d e3 bf 16 48 12 c0 89 cf 2b bf
       -0.06803105 -1.7758149 -2.2856498 -0.6711355
000280 e9 d2 34 c0 0b 43 2b bf 07 ff cf 3d 23 7c 57 be
       -2.825373 -0.66899174 0.101560645 -0.21043448
000290 18 4a d3 be 75 52 34 c0 33 11 ac be f5 bb 97 bf
       -0.41267467 -2.8175328 -0.33606872 -1.1854235
0002a0 66 d5 8e be ac 75 81 bd ce df 09 bd 8a c4 e1 3e
       -0.27897185 -0.06321272 -0.033660702 0.4409526
0002b0 c4 60 0e c0 d2 9b fa 3e 59 ad 9d bf ae 21 b8 be
       -2.224656 0.48947006 -1.2318527 -0.35963196
0002c0 be 50 03 3e 43 10 a7 3c 1a 42 9a bf 4f d2 e5 bd
       0.1282377 0.020393496 -1.2051423 -0.11221754
0002d0 88 17 0e c0 e3 c3 f0 bf 72 ab f9 bf cd 86 e5 bd
       -2.2201862 -1.880978 -1.9505446 -0.11207352
0002e0 6e 9b 8e bf bf 3c 4b bd 58 29 46 bf ae 15 a9 be
       -1.1141183 -0.04961848 -0.77406836 -0.33024353
0002f0 27 02 1a bd df 39 6a c0 49 66 44 be 0a 4a 38 c0
       -0.03759971 -3.6597822 -0.19179644 -2.879519
000300 6f 3a 07 c0 94 64 14 be a2 80 52 bf b3 7c 6f be
       -2.1129415 -0.14491493 -0.8222753 -0.23387413
000310 1d 2a e9 bb 44 9c f0 3a 0f 46 05 be 97 73 bb 3d
       -0.007115616 0.0018357118 -0.13015006 0.091529064
000320 b6 b5 c6 3c 4e 3c 7c bd 03 3a 94 c0 9a 0f c3 bc
       0.024256568 -0.06158095 -4.6320815 -0.02381115
000330 28 06 81 be 4a 6b 10 be bd 3d cf bf 6d 92 1f c0
       -0.2520001 -0.14103428 -1.6190716 -2.4933121
000340 4f 5f 58 c0 78 fc 02 c0 48 89 09 40 58 1a f8 bc
       -3.3808172 -2.0466595 2.149004 -0.030286
000350 8e c0 a0 bf 49 55 c2 be 74 10 18 3f a9 43 31 bc
       -1.2558763 -0.37955692 0.59400105 -0.010819354
000360 24 a8 8e bf ec 70 65 3f 26 82 41 bf 74 78 bc bd
       -1.1145062 0.8962543 -0.75589216 -0.09202662
000370 10 f9 05 be 7b 09 cb bd e0 42 8c bd 37 c3 e1 be
       -0.13083291 -0.09913918 -0.06848693 -0.4409425
000380 57 eb e1 bf f1 b3 e1 ba 89 84 a0 bd 7e 53 20 c0
       -1.7649945 -0.0017219764 -0.07837779 -2.505096
000390 4a 02 94 3f 70 86 24 be 48 f8 58 be db bd cc bd
       1.1563199 -0.16066909 -0.21188462 -0.099971496
0003a0 ed fa 09 c0 58 c2 a3 bc 6c ad c2 bd 2e 48 e4 bd
       -2.1559403 -0.019990131 -0.09505734 -0.1114658
0003b0 6a 02 39 c0 e2 01 91 be 86 26 85 be 93 d9 08 bf
       -2.8907723 -0.2832175 -0.26005954 -0.5345699
0003c0 a6 13 ca 3f d0 ea c5 bf de 7e f2 bd f1 a1 c1 bd
       1.5787246 -1.5462284 -0.11840604 -0.09454716
0003d0 f9 ec b7 bd 99 ab 6d 3b 96 d0 d2 bf 67 30 3e 3e
       -0.08980746 0.003626561 -1.6469905 0.18573152
0003e0 00 b5 dd be fa ca 26 c0 fe fa 95 3d cf 7b 43 c0
       -0.43302155 -2.6061387 0.073232636 -3.0544317
0003f0 11 a8 75 bd 6a 3b ed be a0 71 ba bf 9c c9 56 bf
       -0.059974734 -0.46334392 -1.4565926 -0.8390138

weight f4 [6, 256]
000000 87 7f 95 3f f9 1a 70 3d ce f9 e1 bf c3 2a bd bd
       1.1679543 0.058619473 -1.7654359 -0.09236672
000010 04 44 41 be 50 a9 4c bd 67 89 fd 3e 02 cb ab 3d
       -0.18873602 -0.049966156 0.49518892 0.0838833
000020 04 9e fb bd e9 2a d5 3c 11 b0 0a 3f c9 48 93 be
       -0.122859985 0.026021438 0.54174906 -0.28766468
000030 7e ac 5f 3c 1e cd 08 bd 35 d3 ea 3f 17 c9 4c 3f
       0.013651965 -0.03339874 1.8345705 0.7999434
000040 f3 1c 71 3f 7b 4d 5a be 29 f0 a9 3d 86 3d 2d 3e
       0.941848 -0.21318619 0.0829776 0.16918
000050 4d 52 18 bf 0d 10 51 3d 3e 3c d1 bd 71 d0 1d 3f
       -0.5950058 0.051040698 -0.102165684 0.6164618
000060 7b fb 02 bf 9b 38 30 3e 53 16 9b 3f dc 64 28 c0
       -0.5116498 0.17209093 1.2116188 -2.631156
000070 35 58 ef bd dc d4 3b 3c da c9 2e 3f ad 77 13 be
       -0.11686746 0.011464324 0.6827675 -0.14401121
000080 d9 bb db bc 4a ca ec 3e 0c f4 50 bd da 61 69 bd
       -0.026822971 0.46248084 -0.05101399 -0.056978084
000090 6d b4 94 3f 50 2e 27 3f de 11 8b bf a1 bb 25 3d
       1.1617562 0.6530504 -1.0864828 0.04046214
0000a0 51 b0 a1 bf 1b ba f4 bf 9c c2 1e 3c cc db 12 bd
       -1.2631932 -1.9119295 0.009689953 -0.035854146
0000b0 f5 93 22 bf 75 33 b0 3f a8 1e 89 3e bb 21 33 3d
       -0.63507015 1.3765703 0.267812 0.04373334
0000c0 ee d5 62 be ed a1 15 bc ba b7 1f bf 96 01 62 3e
       -0.2215192 -0.009132844 -0.6238972 0.22070917
0000d0 56 fe ab bf ad b6 07 3f 72 93 f7 3f ef 1f 5f bc
       -1.3436992 0.53013116 1.9341872 -0.013618453
0000e0 01 7c 8a 3b 0e 8b 04 3d 8e 5c 12 3c 36 fc 31 bd
       0.004226208 0.032359175 0.0089332 -0.043453418
0000f0 42 cc 10 40 3f bc d4 bf f1 c3 af be 3d 87 a9 3d
       2.262467 -1.6619948 -0.3432918 0.08277748
000100 db 58 59 3f 78 78 db 3e 6d c6 8e bc 3c 1b c5 bb
       0.8490121 0.42865348 -0.017428601 -0.0060152095
000110 2d 6c 36 3e 0a a6 ad 3d d1 28 64 bd 73 83 6b 3e
       0.17814703 0.08478935 -0.055702988 0.22999363
000120 bc 03 db 3f 34 3e 8d 3b 3b 58 e1 be f2 a8 41 3d
       1.7110515 0.0043103937 -0.44012627 0.04728026
000130 28 b2 d6 bc 1d d9 a7 bc 20 7a 75 bc 38 2a 84 bc
       -0.026207998 -0.02048927 -0.01498273 -0.016133413
000140 79 ac 0a 3d 06 3a 06 40 b5 e1 65 bf 8c 9d 3e bf
       0.03385589 2.0972915 -0.89797527 -0.7445915
000150 bd 74 21 3f da 66 9e 3f 10 78 20 bc 2a 8c 64 be
       0.63068753 1.2375138 -0.00979425 -0.22319093
000160 d5 4d 90 be 9e fc dc bd b3 a7 64 3f bb 8e 6d 3d
       -0.2818438 -0.107903704 0.8931839 0.057997447
000170 53 37 ca 3d 12 de fb 3f 4f b1 93 bf 14 2e 02 40
       0.098738335 1.9677145 -1.1538485 2.0340624
000180 30 68 90 bf 0f dc 8b be 81 0c 43 3d 1d ee ab 3f
       -1.1281796 -0.2731633 0.047619347 1.3432041
000190 5e f2 0f 3c 49 12 39 bf 57 89 67 3d ab 0c 5b bc
       0.008785812 -0.72293526 0.05652746 -0.0133697195
0001a0 f8 54 e8 3c ea cd 9c 3a 9e a4 2a bc 5e 08 2c 3d
       0.028360829 0.0011963223 -0.010415224 0.042000167
0001b0 80 c9 da bc 1e 44 e2 3e 73 08 fe bd 1b 87 a0 bf
       -0.02670741 0.44192594 -0.12403955 -1.2541231
0001c0 66 a5 b3 3e 3f 14 89 3e 48 ac 0e bd 8a 91 4c bc
       0.35087126 0.2677326 -0.03483227 -0.012485871
0001d0 ed 10 ec bf 98 ab ad 3d 1b 23 d0 bc 12 89 80 3f
       -1.8442665 0.084799945 -0.025407365 1.004183
0001e0 57 6f 57 3e c2 01 ff 3c fd 97 1f 3f b2 ef 18 3f
       0.21038567 0.031128768 0.6234129 0.59740746
0001f0 f6 18 c7 bc 52 6e 40 bf b9 9e 3f 3d f5 6b 6b bc
       -0.024303894 -0.75168335 0.04678223 -0.014369001
000200 f8 d2 2f 3d 35 c7 6d bd c4 f7 ac be 23 cd 6f bf
       0.042925805 -0.058051307 -0.3378278 -0.9367239
000210 93 59 f5 3d 8b 35 a1 bc f4 ce d9 bc b1 2a ac 3d
       0.119799756 -0.019678852 -0.02658794 0.0840658
000220 d4 07 ce 3e df 32 be bc 89 1f e0 3c a4 de eb 3e
       0.40240347 -0.023217617 0.027358787 0.460683
000230 22 bc 8a 3f 9e 86 25 3c 79 a7 1a bf b0 7f 90 3e
       1.0838664 0.010102896 -0.60411793 0.28222418
000240 02 88 76 bd 9d f0 41 3d 07 80 82 3d 68 63 84 bc
       -0.0601883 0.047348607 0.063720755 -0.016160682
000250 47 0a 74 bd 1c 1c 72 3d 59 1b 98 3d 70 02 61 3d
       -0.059580114 0.05910884 0.07427091 0.054933965
000260 e8 f2 b1 bd c1 1a 6f be ee 5a 03 c0 ae dc 55 bd
       -0.08688909 -0.2335005 -2.052425 -0.05221241
000270 11 36 7f bd d9 79 b8 3e 64 a2 c3 3f d8 4b d2 bd
       -0.06230742 0.36030462 1.5283933 -0.10268372
000280 34 3e 48 bf c2 e8 11 40 6d 0b 13 be 76 af b9 3d
       -0.78219914 2.2798314 -0.14359827 0.0906667
000290 5e 0d 62 be 18 12 16 40 f3 eb 9c bf 2e 7c 46 3f
       -0.22075412 2.3448544 -1.2259506 0.77533233
0002a0 e7 bd 3a 3c be 32 54 be 38 12 b1 3d f5 d2 02 3f
       0.011397815 -0.20722482 0.08646053 0.51103145
0002b0 d7 3b bd bf ec 4d 5a bf e6 53 e1 3d 9f 6c c8 bd
       -1.4783887 -0.8527515 0.110023305 -0.09786343
0002c0 1b ab 52 be 1d 66 93 be 2a 23 57 3e 9a f5 4c 3c
       -0.20573084 -0.28788844 0.21009508 0.012509728
0002d0 56 30 a1 3f f5 f9 cf bf 17 c4 7a 3d 4f a2 83 3c
       1.2592876 -1.6248156 0.061222162 0.016068606
0002e0 de 48 97 be c8 37 f0 bc 3d aa a0 3e 2c f4 a8 3e
       -0.2954778 -0.029323474 0.31379882 0.32998788
0002f0 77 1f 65 bd fb 48 9e 3f a4 dd 35 bd 35 08 2e 3e
       -0.05593821 1.2366022 -0.044400826 0.16995318
000300 92 f0 af be 8b d7 ad 3e 3e 1f b9 3e c4 67 d8 3e
       -0.34363228 0.3395351 0.36156648 0.42266667
000310 c6 15 c1 3b 27 8c 02 bc ab 09 3b 3d 47 f6 3c 3f
       0.005892488 -0.007967985 0.045663517 0.7381329
000320 2a a7 e2 3e 68 21 09 3c 3e 75 15 40 08 81 83 3d
       0.4426816 0.008369781 2.335281 0.06421095
000330 e9 8a d8 bf 69 41 da bb f0 3d 72 be 9e 04 c1 bf
       -1.6917392 -0.0066606295 -0.2365644 -1.5079534
000340 64 29 5e be 3a a2 2c c0 6f 24 1f be 46 e8 5f 3c
       -0.21695477 -2.6974015 -0.15541242 0.013666218
000350 8f d9 61 3f 0f 7b 1a 40 8c cf 06 c0 28 be 2c bd
       0.88222593 2.413761 -2.1064177 -0.042173535
000360 21 3b e1 be 39 36 2c be ac 1e 90 be d1 fc 22 bc
       -0.43990424 -0.1681756 -0.281484 -0.009947971
000370 10 12 81 bd 4e 6f 25 3c d8 c9 b5 bc d9 c0 7a bf
       -0.06302273 0.010097338 -0.022190973 -0.9795051
000380 3f cb da bf 9c cd aa bd c4 16 af 3c e4 ce 03 c0
       -1.7093276 -0.08339998 0.02137316 -2.0595026
000390 d8 68 09 3d 62 04 47 bd 12 02 08 bd e5 aa d1 3e
       0.033547252 -0.048588164 -0.0332051 0.40950695
0003a0 05 ac 97 3c ac 2d 59 3c 52 a9 40 3d 4d a6 37 bc
       0.018514642 0.013255518 0.047036476 -0.011209083
0003b0 2d b4 00 c0 12 4d 47 3f 3e 83 f8 3b 73 e4 9e bc
       -2.010997 0.77851975 0.0075840047 -0.019396042
0003c0 7d b7 5a 3f ed ad e9 bf bf 1f 2a 3d ee 3d 53 bf
       0.8543623 -1.8256203 0.04153418 -0.8251637
0003d0 90 6d 21 bb 63 aa 96 3c 91 39 43 3f 4e 29 a6 bd
       -0.0024631955 0.018391794 0.76259714 -0.08113347
0003e0 15 5b f4 be 20 ba bc 3e 79 69 c5 bf 34 a1 0e bf
       -0.4772574 0.36860752 -1.5422813 -0.55714726
0003f0 62 65 71 3c 3a 4b d8 3e e5 04 12 3e cc 09 ba 3f
       0.014733644 0.42244893 0.1425968 1.453424

bias f4 [6]
000000 30 10 a4 bf 12 e9 4f bf 61 2c f1 3f e0 94 27 3f
       -1.281744 -0.8121501 1.8841668 0.6546154
000010 6c 7a 18 40 36 47 b1 3f
       2.382472 1.3849857

weight f4 [256, 23]
000000 9e 73 f7 3f 46 51 89 40 ad 94 b4 3e 3f 55 3b 3f
       1.9332159 4.291171 0.3526968 0.7317695
000010 82 c4 a1 3d 51 c3 8f 3f 01 61 e9 3e 36 0d a2 3e
       0.07898809 1.1231481 0.4558182 0.31650704
000020 d0 89 8f 3d 09 8f 46 bf 5a 5c 55 3f 72 98 48 3d
       0.070087075 -0.77562004 0.8334404 0.04897351
000030 a4 fd 63 3d 52 19 89 3d 93 d2 58 3d 31 ba 75 3d
       0.055661812 0.066942826 0.052935194 0.05999202
000040 ec b1 3c bc ae eb bd 3e 4d 38 5d 3d 53 f7 1f 3e
       -0.011517029 0.37093872 0.05400877 0.1562169
000050 d0 1f d6 bd 79 2f 88 be 3b 32 04 3e dc db 9e 40
       -0.104552865 -0.2659872 0.12909786 4.9643383
000060 ea 3a 9c bf 48 6c ef 3f ba a9 2d 40 38 4c f8 3f
       -1.2205479 1.870492 2.7134843 1.939826
000070 01 b9 27 40 3e c3 82 40 77 57 7a 3f 5b c5 de bf
       2.6206667 4.0863333 0.9778971 -1.7403978
000080 c5 6c 23 3f 04 6f 52 bf df 74 f4 be 53 1e 6a be
       0.63837844 -0.82200646 -0.47745416 -0.2286313
000090 a5 fb b2 be fd 02 4c be 74 ea 90 be b3 4d a1 3e
       -0.34957615 -0.19923015 -0.28303874 0.31504592
0000a0 23 09 b2 be 87 07 45 bf e5 61 b0 b9 6d 35 2d 40
       -0.34772596 -0.7696461 -0.00033642273 2.7063859
0000b0 4d d7 0d bf 5e a3 1b bf 41 e0 35 40 47 73 b7 c0
       -0.5540665 -0.60796154 2.8418124 -5.732822
0000c0 de 2f b5 be 34 47 34 3f ea f8 90 bf b5 66 82 bf
       -0.35388082 0.7042115 -1.1325963 -1.0187594
0000d0 ee fe f3 c0 07 fb 83 c0 7f 92 75 be e8 b1 e3 3f
       -7.6248693 -4.124393 -0.23981665 1.7788668
0000e0 7e df 07 bf 34 f0 fe bb 43 39 a0 bb 48 36 6a 3d
       -0.53075397 -0.0077800993 -0.0048896386 0.057180673
0000f0 85 29 aa bb 20 54 a4 be f2 d3 5b bb ad 73 2a bf
       -0.005192938 -0.32095432 -0.0033543077 -0.6658276
000100 2d d4 a1 3e 3a 87 54 be eb 9a 58 be 65 34 29 bf
       0.3160719 -0.2075471 -0.21152847 -0.6609557
000110 1e 59 bd 3c 98 87 c2 40 c2 7e 4d c0 a6 70 3b bf
       0.023113783 6.079052 -3.2108617 -0.7321876
000120 46 b9 ff 3f 87 b7 4b 40 f2 ab 71 40 ff 91 be be
       1.9978416 3.1830766 3.7761197 -0.3722076
000130 01 67 42 3f 3d 36 24 be 95 f2 c6 3f e1 62 85 3f
       0.7593842 -0.16036315 1.554278 1.04208
000140 9e 63 c3 bb f9 8e 08 3f ae ea 81 3d c4 3b 91 bd
       -0.005962803 0.5334316 0.0634359 -0.070914775
000150 45 37 25 bd 45 42 e9 3c e3 12 fa be b9 08 ac bf
       -0.040335912 0.028473983 -0.48842534 -1.3440162
000160 5e dc bf be fc bf 5e bc f0 a1 68 3f dd ce 69 3e
       -0.37472814 -0.013595577 0.90872097 0.22832818
000170 e1 11 cc 3d 2f 00 11 be 70 40 b8 c0 19 50 fe bf
       0.09964348 -0.14160226 -5.757866 -1.9868194
000180 54 af e6 bf c7 fe 58 3f 5f c9 bb 3f 1b 29 bb 3f
       -1.8022256 0.8476376 1.4670829 1.4621919
000190 5b 22 13 be 28 73 28 c0 72 28 b0 3f 7e a5 d7 3e
       -0.14368574 -2.6320286 1.3762343 0.42118448
0001a0 77 8b 54 3d 0a 3d a2 3d 1d f6 47 be 3f 21 50 be
       0.051890817 0.079217985 -0.19527479 -0.20325182
0001b0 fa 75 7e 3d 28 12 0b bf 98 5c bc be 89 05 98 bd
       0.06212423 -0.5432458 -0.36789393 -0.07422931
0001c0 cc 23 0c bc 9b d4 87 bf 47 75 90 bf b0 c5 cf be
       -0.0085534565 -1.0611757 -1.128579 -0.4058051
0001d0 fc 1b 1b 3d 0c f8 71 3f 39 80 4b 3e 88 4a 79 3f
       0.037868485 0.94519114 0.19873132 0.9737935
0001e0 07 54 e4 3f 49 e8 c2 40 1f 24 87 bc be de 1f bf
       1.7838143 6.090855 -0.016496716 -0.6244925
0001f0 ab e4 5f 40 31 6a f3 be 74 9a 3d 3e 6d 4a f3 3d
       3.4983318 -0.47541955 0.1851595 0.1187943
000200 9c 73 7e 3d 1c 11 92 3e aa 00 42 3e 34 6f 43 3c
       0.062121972 0.28528678 0.18945566 0.011928368
000210 11 5e e4 be de 92 af bf f4 b9 a4 bf 01 2a 8f c0
       -0.44603017 -1.3716695 -1.2869248 -4.4738774
000220 cd c5 44 c0 6f 83 3e 3f 8b fa 51 c1 3b 67 a5 c0
       -3.0745728 0.744193 -13.123668 -5.1688514
000230 3f 09 a0 3f c5 5d a9 3e 1c e2 b4 bc d2 2d 97 bf
       1.2502822 0.33079353 -0.022080474 -1.1810858
000240 b6 ff a3 c0 47 58 6b c0 6d 87 c2 be c5 ed 3c c0
       -5.1249647 -3.677263 -0.37993947 -2.9520123
000250 91 35 39 3f 77 bc 88 bd 56 18 96 bd c0 ee c4 bc
       0.7234736 -0.06676572 -0.073288605 -0.024039626
000260 88 7a 6e 3d 36 22 81 bd 25 85 31 3c 24 46 58 bf
       0.058222324 -0.06305353 0.010834967 -0.84482026
000270 fd 89 07 bf 1b 9d 74 bf 04 eb 96 c0 03 64 c0 3f
       -0.5294493 -0.95552224 -4.7161884 1.5030521
000280 0e ed a6 3e e7 cf 5e 41 7a 3f 20 c0 7f f1 1e 3f
       0.32602733 13.925757 -2.5038743 0.62087244
000290 00 46 67 bf e2 b8 e6 3e 0c 70 91 bf 2a 81 94 c0
       -0.90341187 0.4506293 -1.1362319 -4.640767
0002a0 b0 60 32 be bb df 34 bf e2 f1 a2 3f 55 bb d8 3e
       -0.17419696 -0.70653886 1.2730067 0.42330423
0002b0 3b b7 9f 3d c2 05 66 3d aa 51 85 3c 4e 1e 3d 3e
       0.0779862 0.056157835 0.016274292 0.18468592
0002c0 70 a2 3f be 9f 3e 2a 3e b3 0e be bf 1c eb f4 bd
       -0.18714309 0.1662545 -1.4848236 -0.11958906
0002d0 24 39 b5 bd 94 7e 91 40 ba 0c 78 3f dc 30 59 40
       -0.08848789 4.5467014 0.9689442 3.3936071
0002e0 ea af 02 41 3f 14 25 c0 f4 34 58 c0 8e 8e ad 3f
       8.167948 -2.5793607 -3.378232 1.3559129
0002f0 78 7b f9 be a4 b8 e8 c0 d1 12 5b 40 cf c0 d7 3f
       -0.48727012 -7.272539 3.4230235 1.6855716
000300 d1 6a 74 bf f2 a6 52 bf 7b 3a 8c 3e 79 2d 6c 3e
       -0.9547549 -0.8228599 0.27388367 0.23064221
000310 80 74 d1 bd 2c 0d f0 3d 3e be 0f bf 2f 3c 05 be
       -0.10227299 0.11721262 -0.5614966 -0.1301124
000320 af 5e 0a 3c 8b 45 81 3f b6 ad 15 be 9b 6c e8 3e
       0.008445426 1.0099348 -0.14617047 0.4539536
000330 a9 7c ab 3e cc 51 b5 3e e9 d7 77 3e 17 e8 f9 40
       0.33493546 0.3541397 0.24203457 7.8095813
000340 ea 2c 34 c0 62 0c 12 c0 c8 af d4 bf 52 9f d5 bf
       -2.8152413 -2.2820058 -1.6616144 -1.6689246
000350 de 7d 13 41 f4 85 a9 40 f8 1c b3 3f b7 db 26 bf
       9.218229 5.2976017 1.3993216 -0.6517901
000360 a3 a3 85 40 26 34 9d bf 97 a0 ee bd ce 54 f6 bd
       4.176225 -1.228154 -0.11651724 -0.12027894
000370 f9 3b 9a bd 9c 60 ab 3e fe 65 e3 3c ad 49 0a bb
       -0.0753097 0.33472145 0.027758595 -0.0021101043
000380 c5 e7 5e 3f c0 ef 64 3f 7d de 22 3f 35 19 a3 bf
       0.870724 0.8942833 0.6362074 -1.2742068
000390 b7 39 99 bf 12 db a8 be 80 12 17 c1 16 5c 2a bf
       -1.1970738 -0.32979637 -9.442017 -0.6654676
0003a0 d9 bd 40 c0 c4 ca da bf e9 a0 ad 3e 1c 0c e7 bf
       -3.0115874 -1.7093129 0.33911827 -1.805057
0003b0 4a cd d9 3f 89 b4 2a 40 9c 48 48 bf b3 af e5 be
       1.7015774 2.667269 -0.78235793 -0.4486061
0003c0 89 cf 07 c0 a8 fd 71 3d 61 74 36 bd b4 d0 a8 bd
       -2.122042 0.059079796 -0.04454458 -0.08242932
0003d0 fe 08 b0 bd f8 82 0a bd 1c c2 02 be 6c f2 03 3f
       -0.08595465 -0.033816308 -0.1276936 0.5154178
0003e0 51 90 4b bd 7c 11 4f bf f7 f1 96 bf 0d ab 9e bf
       -0.049698178 -0.80886054 -1.1792592 -1.239595
0003f0 be cb ec be 65 43 1f 41 86 85 e2 bf 24 eb c8 3f
       -0.46249193 9.953954 -1.7696998 1.5696759

bias f4 [256]
000000 48 17 d2 40 f3 3f 9f c0 09 97 3e 40 18 15 c3 bf
       6.565342 -4.9765563 2.9779685 -1.5240812
000010 d3 40 91 c0 b2 8f c0 c0 68 04 d9 bf 82 39 48 c0
       -4.539163 -6.017541 -1.695447 -3.12851
000020 b3 4f 05 c0 a6 5e 72 3f e1 c1 a6 c0 50 fc a6 c0
       -2.0829895 0.9467567 -5.211167 -5.2183
000030 37 76 b4 c0 42 ef 97 c0 d7 6f 67 c0 a3 b5 ec bf
       -5.6394305 -4.7479563 -3.6162012 -1.8492931
000040 04 15 19 be 73 9f d0 bf f3 c0 a8 c0 c8 dc 8b c0
       -0.14949423 -1.629866 -5.2735534 -4.370701
000050 8a 00 b3 c0 22 d3 0a 40 33 74 b5 be 71 8b 3c bf
       -5.593816 2.1691365 -0.35440215 -0.7365027
000060 35 3c 85 3e d1 52 14 c0 e3 49 06 c0 64 38 f7 c0
       0.26022497 -2.3175547 -2.0982597 -7.7256336
000070 dd 3d 02 bf 8a 28 7f c0 6e 09 79 c0 62 f5 ef 3e
       -0.50875646 -3.9868493 -3.8912005 0.468669
000080 79 4b 33 c0 21 a1 de 40 11 a9 d5 bf 16 9c ba be
       -2.8014815 6.957169 -1.669222 -0.3644721
000090 cc 5d 39 c0 2a b7 a0 c0 d9 93 8f c0 9e 37 ff c0
       -2.89635 -5.022359 -4.486798 -7.975539
0000a0 83 ea 48 c0 7c 44 ad c0 e2 ae 3a c0 e8 26 1d c0
       -3.1393135 -5.41461 -2.916924 -2.4554996
0000b0 bc 2c fc bf 73 b9 33 be d6 68 c3 c0 3a 2f c4 bf
       -1.9701152 -0.17551212 -6.1065474 -1.5326912
0000c0 0b 90 c6 bf 90 05 7a c0 88 22 78 c0 20 da 9e c0
       -1.5512708 -3.9065895 -3.8771076 -4.9641266
0000d0 cb ab 0e c0 81 f4 9c c0 c5 72 e7 40 ad 4b c2 c0
       -2.2292354 -4.9048467 7.23276 -6.071738
0000e0 53 01 70 c0 e5 85 92 40 a3 dd c7 c0 9d b0 01 40
       -3.7500808 4.5788445 -6.2458053 2.0264046
0000f0 85 75 bf bf 78 fa eb 40 e6 c5 38 c0 a3 43 a0 c0
       -1.4957739 7.374325 -2.8870788 -5.0082564
000100 94 ef d9 c0 4c da d3 c0 f0 f4 34 c0 26 29 ab c0
       -6.8104954 -6.6203976 -2.8274498 -5.348773
000110 6b 34 a5 c0 2a aa c1 3f a8 64 12 c1 10 09 76 c0
       -5.1626487 1.5130055 -9.149574 -3.8443031
000120 b0 e2 94 c0 fa 6f bd c0 03 f5 ad c0 1d 86 a7 c0
       -4.652672 -5.919919 -5.4361587 -5.2351213
000130 de 72 c1 c0 36 47 7b c0 12 69 1d c0 25 0f a1 c0
       -6.045272 -3.9262214 -2.459538 -5.0330987
000140 f0 c5 94 c0 3a 7f e5 bf 80 ed 81 c0 dc 4e 3b 40
       -4.6491623 -1.7929451 -4.0602417 2.9266882
000150 59 af b8 c0 cf 42 e9 c0 ba 92 87 c0 06 ae 93 bf
       -5.7714047 -7.2894053 -4.236661 -1.1537483
000160 73 29 a4 c0 3a 0e ba c0 07 62 ba c0 85 fe 32 40
       -5.1300597 -5.8142366 -5.824466 2.7967846
000170 c7 fd 84 c0 b8 f2 91 be 1c 2b ea bf 5f 83 27 c0
       -4.1559787 -0.28505492 -1.8294406 -2.6173933
000180 47 11 4f c0 e7 07 a6 c0 51 21 00 c1 9c b6 a2 c0
       -3.2354295 -5.1884646 -8.008134 -5.084791
000190 cf 1e eb 40 87 56 9c 3e d4 c7 46 c0 ad e1 15 3f
       7.347511 0.30534765 -3.1059465 0.5854748
0001a0 25 39 be c0 dc 31 f8 bf f4 28 0d 40 f6 13 76 c0
       -5.9444757 -1.9390216 2.2056246 -3.8449683
0001b0 9c a5 0e c0 3b 8a 5f c0 ec 83 9f bf 7d 79 32 40
       -2.228858 -3.492812 -1.2462134 2.788665
0001c0 7f 66 a0 c0 d0 42 a2 c0 f0 cb 18 c0 04 c4 00 41
       -5.0125117 -5.070656 -2.3874474 8.047855
0001d0 f3 cc ec bf 85 f6 0c 40 97 79 ac c0 cc 06 9f be
       -1.8500046 2.2025464 -5.3898425 -0.31059873
0001e0 a6 9d 50 3f a7 44 73 3f 56 cf 11 c1 80 ad cc 3f
       0.8149055 0.9502663 -9.113119 1.5990448
0001f0 62 e8 d0 c0 bc d7 2e 40 ce 44 b5 40 5d c4 93 be
       -6.528367 2.7319174 5.664649 -0.2886075
000200 bb f1 99 c0 9c a3 4c 40 0b 10 f8 40 fb 2b 19 3f
       -4.810758 3.197486 7.7519584 0.59832734
000210 f6 e5 66 c0 31 66 ca 3c e9 d6 c7 c0 66 b1 de c0
       -3.6077857 0.024706932 -6.244984 -6.959155
000220 73 21 14 3e 85 7d fb 40 0c e0 20 c0 c0 2e af c0
       0.14465885 7.859072 -2.5136747 -5.474457
000230 b0 2f 8c c0 a2 ca 97 c0 72 ba 84 c0 7a 9e df 40
       -4.380821 -4.7434855 -4.1477594 6.9880953
000240 62 a2 aa bf 7d 5f d1 3f 2c ae 5f c0 b3 29 2f bf
       -1.3330805 1.6357266 -3.4950056 -0.68423
000250 9f 6c b7 c0 45 88 8a c0 11 fc 00 41 2e c7 f9 40
       -5.7320094 -4.3291345 8.06154 7.805564
000260 96 21 f3 40 1b 8f 9f c0 ab eb 5b 40 28 c3 06 bf
       7.59785 -4.986219 3.436259 -0.52641535
000270 40 e6 66 c0 ff 4a bd c0 e9 cd ff 3d 66 82 af c0
       -3.6078033 -5.915405 0.12490446 -5.484668
000280 a0 97 93 c0 1a 39 2e c0 22 b8 ac c0 82 87 a1 c0
       -4.612259 -2.7222352 -5.397477 -5.0477915
000290 57 54 9d c0 f4 53 eb 3f f2 0f 9e 40 a3 e8 9d c0
       -4.9165454 1.8384995 4.9394464 -4.934648
0002a0 a2 08 8b c0 3b af a6 c0 33 18 47 c0 5e 5a 26 c0
       -4.344804 -5.2088904 -3.110852 -2.5992656
0002b0 3a c8 a9 c0 4c 6f 7a c0 8e 88 18 c0 d8 45 6b c0
       -5.3056917 -3.913043 -2.3833346 -3.676138
0002c0 69 74 01 c0 98 a6 95 c0 13 c8 8c c0 e5 68 70 c0
       -2.02273 -4.676586 -4.399423 -3.7564023
0002d0 ee f8 84 c0 ce 1a ae c0 89 2f 72 c0 c1 c2 25 c0
       -4.155387 -5.440772 -3.7841513 -2.5900118
0002e0 e6 52 fe 3f 03 a1 ee 40 0a 2e 07 40 b7 d8 8c bf
       1.9869049 7.4571548 2.112185 -1.1003636
0002f0 05 d4 2c c0 14 68 a0 c0 6e 0d 32 c0 19 66 f7 c0
       -2.7004406 -5.012705 -2.7820697 -7.731213
000300 6d 43 26 c0 00 18 4b c0 9e e5 fb bf ae ff 80 3f
       -2.5978653 -3.1733398 -1.9679449 1.0078027
000310 fc f6 97 c0 df bb 42 c0 f4 1f 6b c0 7c a9 93 c0
       -4.7488995 -3.0427167 -3.6738253 -4.614439
000320 03 a5 bb c0 0f a9 a5 c0 ce 28 99 c0 18 bc 49 40
       -5.863893 -5.176887 -4.786231 3.1521053
000330 18 cf 61 c0 e7 04 10 41 4a fb 8f be 24 57 da c0
       -3.528265 9.001197 -0.28121406 -6.8231373
000340 87 0c 0a c1 88 ec 74 40 11 7e 70 40 30 2e 64 c0
       -8.628058 3.8269367 3.7576945 -3.565319
000350 51 e2 88 c0 91 0a f8 3e 83 8c a7 40 6f 7b 6a c0
       -4.2776265 0.48445562 5.2359023 -3.6637838
000360 52 45 e6 c0 c2 a6 ac c0 2e 6d 0f c1 c5 2e 8e c0
       -7.195962 -5.395356 -8.964155 -4.443209
000370 ac 38 ea c0 ac b6 4d c0 4f 93 5e c0 6e 3f a2 c0
       -7.319418 -3.2142744 -3.477741 -5.070243
000380 55 b4 6e c0 fa e0 19 41 92 b5 41 c1 73 ed 61 c0
       -3.7297566 9.617426 -12.106829 -3.5301178
000390 04 fc 00 c0 84 f8 83 c0 ac 59 e9 c0 6b b5 f0 bf
       -2.0153818 -4.1240864 -7.2921963 -1.8805364
0003a0 05 2a 2d c0 31 0d da 40 7b 0b cf c0 43 ce fc 40
       -2.7056897 6.8141103 -6.4701514 7.9001784
0003b0 27 62 54 c0 62 af 95 c0 c6 d2 b1 c0 0d 1b 8d bf
       -3.3184907 -4.677659 -5.556979 -1.102388
0003c0 9e 99 a9 c0 21 a8 df c0 25 a2 29 40 38 56 38 40
       -5.300002 -6.9892735 2.6505215 2.8802624
0003d0 9a 52 7c c0 a5 c6 cc c0 3e 0b b3 3e 4c cd 04 c1
       -3.9425416 -6.3992486 0.34969515 -8.300121
0003e0 4b 27 61 c0 86 2d 26 c0 2d 8e f2 bd cf 60 5c 3e
       -3.5180233 -2.5965285 -0.11843524 0.21521305
0003f0 b8 1e 8f bf de 3a 3a 40 a1 26 a0 c0 4a 13 cf bf
       -1.118125 2.909843 -5.0047154 -1.6177762
