log/mujoco_ddpg_walker2d_v2_0/mujoco_ddpg_walker2d_v2_0_s0/pyt_save/model.pt (torch_old, 581120 bytes, 11 tensors)

weight f4 [256, 17]
0	0x402b7cb2	2.6794858
1	0xc00ffeb3	-2.2499206
2	0xbf84f30e	-1.0386674
3	0xc09381a5	-4.6095757
4	0xbeb0b26a	-0.3451112
5	0x40b1d17e	5.556823
6	0x4099e63b	4.8093543
7	0x3dddc938	0.10829395
8	0x3dbd78c0	0.09251547
9	0x3ff1f953	1.8904213
10	0x3e0d2a3b	0.13785641
11	0x3f2652a9	0.6496988
12	0xbdeaf0d3	-0.11471715
13	0x3b6952f8	0.0035602432
14	0xbdd7322e	-0.10507618
15	0x3ddcc266	0.10779266
16	0xbe036623	-0.12831931
17	0xbef3e334	-0.4763428
18	0x3fbdd9f8	1.4832144
19	0x3f47d201	0.78054816
20	0xbf13d697	-0.57749313
21	0xbf469401	-0.77569586
22	0x3f8ceb67	1.1009339
23	0xbe5269b4	-0.20548135
24	0xc0c26d77	-6.0758624
25	0xbe67ebf0	-0.22648597
26	0x3e8b092c	0.27155435
27	0xbf12ac60	-0.57294273
28	0xbea2aa05	-0.3177034
29	0x3de205f5	0.110362925
30	0x3dc9c599	0.09852142
31	0x3f849189	1.0356914
32	0x3f88b224	1.0679364
33	0xbe0f5a47	-0.13999282
34	0xc07312d5	-3.7980244
35	0x3e9b303a	0.3031023
36	0x3ff30731	1.898657
37	0xbf9fc7f6	-1.2482898
38	0xbfd5adc5	-1.6693655
39	0x3f2ded44	0.67940164
40	0x40a002a3	5.000322
41	0xbfdaf12e	-1.7104852
42	0xbfdee44b	-1.741342
43	0xc029b95e	-2.651939
44	0xbeb8afc3	-0.36071596
45	0xbd4d8884	-0.05017902
46	0x3e056a76	0.13028893
47	0xbcdd5867	-0.027019693
48	0xbe544a72	-0.20731524
49	0x3f2f1148	0.68385744
50	0xbf92b2f2	-1.146086
51	0xbfdb907f	-1.7153472
52	0x3ee46462	0.44607836
53	0xc012ad27	-2.2918184
54	0x3fe0ec3d	1.7572094
55	0xbf485c7c	-0.7826612
56	0xbdffa550	-0.12482703
57	0x40ba5748	5.8231544
58	0xc05b1af0	-3.4235191
59	0xbf2987df	-0.6622295
60	0x3fe5f677	1.796584
61	0x3f0256aa	0.5091349
62	0xbdbe5325	-0.09293202
63	0xbee40fc1	-0.4454327
64	0xbd4a41a1	-0.049378995
65	0x3e725418	0.23664892
66	0x3f14ba9a	0.5809723
67	0xbe5dedff	-0.2167282
68	0xbfe1d614	-1.7643456
69	0x410a174e	8.63069
70	0x4003eb6d	2.0612442
71	0xbeefa402	-0.46804816
72	0x3d69462e	0.056951694
73	0xbfbd78c7	-1.4802483
74	0x3ff66e09	1.925233
75	0x3f4120d8	0.7544074
76	0xbfdf3570	-1.7438183
77	0xbfd59a02	-1.6687624
78	0x3fc07eb0	1.5038662
79	0x3ac5aab4	0.0015080781
80	0x3f1795ec	0.5921314
81	0xbf679a73	-0.90470046
82	0xbe8c56fe	-0.2741012
83	0xbed77f91	-0.42089513
84	0x3f670cd3	0.90253943
85	0xbfe2d1d6	-1.7720287
86	0xbf7e1219	-0.99246365
87	0x4069fe92	3.6561627
88	0x40bdfa96	5.936839
89	0x3d15c8d8	0.036568493
90	0x4052647b	3.2873828
91	0x409d7028	4.919941
92	0xc09142f4	-4.539423
93	0x3ef8a288	0.48561502
94	0xbfc850ed	-1.5649697
95	0xbe433c8b	-0.19066064
96	0x3fa7f734	1.3122315
97	0xbeb0d423	-0.34536847
98	0xbde5b5be	-0.11216305
99	0x3e8af5f7	0.2714078
100	0xbf77d47d	-0.96808606
101	0x3f09a241	0.53763205
102	0xc03ab662	-2.9173818
103	0xc01bc32d	-2.4337876
104	0x4031fe8a	2.7811608
105	0xbfffd9a5	-1.9988295
106	0xbf4e8f05	-0.8068698
107	0x4096b103	4.709108
108	0x3ecc8b1b	0.3994988
109	0xbed3d51b	-0.41373524
110	0xbf8babca	-1.0911801
111	0x4081c224	4.054949
112	0xbfcfbd59	-1.6229659
113	0x3ecdb830	0.40179586
114	0x3ebf86a9	0.37407425
115	0x3f3559b4	0.7084
116	0x3eb78458	0.35843158
117	0xbf2f1a81	-0.68399817
118	0xbe903f6f	-0.28173396
119	0xc03f75bd	-2.9915612
120	0xc025d571	-2.5911524
121	0x40a3d656	5.119914
122	0x3f043fed	0.51660043
123	0x3ece1e6a	0.4025758
124	0xc02ac3d0	-2.6682014
125	0xbf61d976	-0.88222444
126	0x3e53b84b	0.20675771
127	0xc02977a3	-2.647927
128	0x3fbee660	1.4914055
129	0x3f4a8798	0.7911315
130	0xbec12a58	-0.37727618
131	0x3f511800	0.81677246
132	0x3ef98291	0.48732427
133	0x3f2d72fb	0.6775357
134	0xbe20cb1d	-0.15702482
135	0x3ed111b1	0.4083381
136	0xc04de81e	-3.2172923
137	0x3fcfaf9b	1.6225466
138	0x3fe7f6de	1.8122213
139	0xbf0825f1	-0.53182894
140	0xbe915865	-0.28387752
141	0xc004bef0	-2.074154
142	0x402bddec	2.68542
143	0xbf9e2eaf	-1.2357997
144	0xbf9f7b98	-1.2459593
145	0xbfbe3894	-1.4861016
146	0x3eaf7ee3	0.34276494
147	0x3f49ccd3	0.7882816
148	0x3f80145d	1.0006214
149	0x3e35ebd8	0.17765749
150	0x3f05a95d	0.5221155
151	0xbf6184f8	-0.8809352
152	0x3f845e55	1.0341288
153	0xc07ba494	-3.93192
154	0x3e7661ab	0.24060695
155	0x3eb4ab0a	0.35286742
156	0x400ba355	2.181844
157	0x3f7bc672	0.9834968
158	0xc0155b7a	-2.3337083
159	0x4001108c	2.016635
160	0x3f842a1f	1.0325354
161	0x3fc125a9	1.5089618
162	0xbf6c8c41	-0.9240151
163	0x3c39d0b5	0.011341264
164	0xbe58a3cf	-0.21156238
165	0x3d9ef7ab	0.07762083
166	0xbf0edd70	-0.55806637
167	0x3f9e223c	1.2354198
168	0x3e2348e7	0.15945779
169	0x3d9ae08b	0.075623594
170	0xc0893466	-4.2876463
171	0xbe12eb7f	-0.14347647
172	0x40c8eb04	6.2786884
173	0xc03a2cbd	-2.9089806
174	0x3fa73de4	1.3065763
175	0x3faa9c7d	1.3329006
176	0xbfc6a4c5	-1.5519034
177	0x3eba2d4f	0.36362693
178	0xbfeba0c1	-1.8408433
179	0xc03026f9	-2.7523787
180	0x3cacd5ff	0.021098135
181	0x3f86cf79	1.0532066
182	0xbe187e9b	-0.14892046
183	0x3e064f80	0.13116264
184	0xbf2f8ad8	-0.68571234
185	0xbe0e6416	-0.13905367
186	0xbea2c47f	-0.3179054
187	0xbf3e9a70	-0.744544
188	0x40364a29	2.8482764
189	0x4093f088	4.6231117
190	0xbf310be9	-0.691588
191	0xbec356c6	-0.3815214
192	0xc02e9cb4	-2.7283144
193	0x4071a7fa	3.7758775
194	0xc01fe364	-2.4982538
195	0x3eb953d3	0.36196765
196	0x3ed7a713	0.42119655
197	0x3ca9fe50	0.020751148
198	0x3f65c621	0.89755446
199	0x3f059cef	0.52192587
200	0xbf0269e7	-0.50942844
201	0xbe396fa6	-0.18108997
202	0x3f5b16fc	0.85581946
203	0x3e4a226c	0.19739693
204	0xc025de41	-2.5916903
205	0xbfd58409	-1.6680919
206	0x3fbcdc80	1.4754791
207	0x4013a7c2	2.3071141
208	0xbf74e19a	-0.9565674
209	0xc047505e	-3.1142802
210	0x40317c0d	2.7731965
211	0x3fd5bda8	1.6698503
212	0xbe47042c	-0.19435185
213	0x3f841cad	1.0321251
214	0xbf1a24bd	-0.6021231
215	0x3dc94639	0.09827847
216	0xbef7b6a3	-0.48381528
217	0xbcd085a4	-0.02545435
218	0x3f0237e3	0.50866526
219	0x3ef35af2	0.47530323
220	0xbf110d54	-0.5666096
221	0xbfa948b1	-1.3225309
222	0x3fbde0dd	1.4834248
223	0x3ac19eb0	0.0014772024
224	0xbfa87a6b	-1.3162359
225	0x409dda10	4.932869
226	0x407b6d24	3.9285364
227	0x4088849e	4.2661886
228	0x3ffb9c45	1.9657065
229	0xbf863c7e	-1.0487211
230	0xbf019393	-0.50615805
231	0x3f09c528	0.5381646
232	0xbd4088bd	-0.047005404
233	0xbde6c070	-0.11267173
234	0xbe517b8a	-0.20457283
235	0xbf273995	-0.6532224
236	0x3e0d5c23	0.13804679
237	0xbdaf2af5	-0.08553115
238	0xc0652868	-3.5805912
239	0x3eb38f88	0.35070443
240	0x4055d83d	3.3413231
241	0x40154894	2.3325548
242	0xbd53f6b7	-0.051748957
243	0x3f727fc5	0.9472621
244	0x408a2c3e	4.3179007
245	0xc0215d26	-2.5213103
246	0x3f6b9c53	0.92035407
247	0x3f79e6d5	0.97617847
248	0x3fa8b161	1.3179132
249	0xbf13cda4	-0.5773566
250	0x3deae19d	0.114688136
251	0xbd3a07ff	-0.045417782
252	0xbf3e6b64	-0.74382615
253	0xbf970520	-1.1798439
254	0x3d39301c	0.045211896
255	0xc02f03f4	-2.7346163

bias f4 [256]
0	0x3e6293e4	0.22126728
1	0xbffef87b	-1.991958
2	0xc00a4cb8	-2.1609325
3	0xc0461aa6	-3.0953765
4	0xc0018af8	-2.024107
5	0xbfee7d42	-1.8631976
6	0xc02c2530	-2.6897697
7	0xc022b49b	-2.5422733
8	0xc045ab55	-3.0885823
9	0xc01dd79c	-2.4662848
10	0xbf5e74d4	-0.86897016
11	0xbf8ba9f9	-1.0911247
12	0xbf5235d6	-0.821134
13	0xbfa65dca	-1.2997372
14	0xc086ecf7	-4.2164264
15	0xc01d5fec	-2.4589796
16	0xc01e49ea	-2.4732614
17	0xbfa3e2c4	-1.2803578
18	0xc0178bf6	-2.3679175
19	0xc07406eb	-3.8129222
20	0x4102275f	8.134612
21	0xc0325c9e	-2.786903
22	0xc033fbf0	-2.812252
23	0xc04e1fbf	-3.2206876
24	0xc0679d5f	-3.6189802
25	0x3ffa4694	1.9552789
26	0xc06bc085	-3.6836255
27	0x40260541	2.5940707
28	0xbfaabba9	-1.3338519
29	0xc0398e3b	-2.899306
30	0x408abac9	4.335301
31	0xc0834a92	-4.102853
32	0xc004b6ae	-2.07365
33	0xbfd0106b	-1.625501
34	0xbf8028b4	-1.0012422
35	0xc044f591	-3.0774882
36	0xbf6c0746	-0.921986
37	0xc04f1789	-3.2358115
38	0x40554811	3.3325236
39	0xc047f140	-3.1240997
40	0xc04d92ce	-3.2120852
41	0x3e13c91e	0.14432189
42	0xc023940c	-2.555911
43	0xc01902da	-2.390799
44	0xbf96e491	-1.1788503
45	0xc0356d59	-2.834799
46	0xbf98ad7f	-1.1927947
47	0x4020c639	2.5120986
48	0xc03180b9	-2.7734816
49	0xbf3f289d	-0.74671346
50	0xbf330da1	-0.6994267
51	0xbf524e2b	-0.82150525
52	0x3e009c0d	0.12559529
53	0xbe13a396	-0.14417872
54	0xc0202afc	-2.5026236
55	0xc0692ac5	-3.6432354
56	0xc05001ca	-3.2501092
57	0x3d5aa172	0.053376622
58	0xbfad6a7d	-1.3548123
59	0xc03440dd	-2.816459
60	0xc04a5b48	-3.1618214
61	0x3faa55eb	1.330747
62	0xbfa79ce4	-1.3094754
63	0xc0399e44	-2.9002848
64	0xbd6db767	-0.058036234
65	0xbf999af1	-1.2000409
66	0xc0946071	-4.6367726
67	0xc039f687	-2.9056718
68	0xbf072cdd	-0.5280283
69	0xc01f79e8	-2.4918156
70	0xc005d970	-2.0913963
71	0xc021d9a8	-2.5289097
72	0xbeb45506	-0.35221118
73	0xc0167af7	-2.3512552
74	0xbef995e8	-0.48747182
75	0x3f578d2c	0.84199786
76	0x3f62fab2	0.8866378
77	0xbf99fa7c	-1.2029567
78	0xc029da87	-2.6539629
79	0xbf9fa88b	-1.247331
80	0xbfbcecfb	-1.4759821
81	0xc0954807	-4.6650424
82	0xc01de342	-2.4669957
83	0xbedde88f	-0.4334149
84	0xc0300add	-2.750663
85	0xc040ecb6	-3.0144477
86	0xc0353a64	-2.831689
87	0xbfef7bd4	-1.8709664
88	0xbf8808e6	-1.0627716
89	0x40518d7b	3.2742603
90	0x3fc98a03	1.5745243
91	0x401b627c	2.427886
92	0xc03e39c6	-2.9722762
93	0xbe4af9ac	-0.19821805
94	0xbf92cbe5	-1.1468474
95	0xbfe962a7	-1.8233231
96	0xc0734732	-3.8012204
97	0xc049ee5d	-3.1551735
98	0xbff08ee9	-1.8793613
99	0xc09dcbba	-4.931119
100	0xc01286e9	-2.2894843
101	0xc04a4793	-3.1606185
102	0xc01e9eee	-2.4784503
103	0xbf97486c	-1.1818976
104	0xbfecf134	-1.8511109
105	0x3c88890d	0.016666913
106	0xc08a09e5	-4.313708
107	0x40bd7a36	5.9211683
108	0xbf081e8e	-0.5317162
109	0x3ee48cdf	0.44638726
110	0x401af8a2	2.4214253
111	0xc0c8786c	-6.2647
112	0xc023dbf4	-2.5602999
113	0x406eb20b	3.7296169
114	0xbf5b42d3	-0.8564884
115	0xc084415e	-4.1329794
116	0x404b2cb3	3.1746032
117	0x405375b2	3.3040586
118	0xc082bdf6	-4.0856886
119	0xbfe1aa04	-1.763001
120	0xbf0c0e04	-0.54708886
121	0xc0530e52	-3.297749
122	0xbfab11b3	-1.3364776
123	0xc0544c1a	-3.3171449
124	0x4013dd1c	2.3103704
125	0xc0248af3	-2.5709808
126	0xc02a7ba7	-2.6637971
127	0x40141f0d	2.3143952
128	0xc004b18a	-2.0733361
129	0xc0055b4e	-2.0836978
130	0xbfb72122	-1.4306986
131	0xc00c5116	-2.192449
132	0xbc2abbb5	-0.010420729
133	0xbfcb0b8b	-1.5862898
134	0xc04e5969	-3.2242072
135	0xc08248a4	-4.0713673
136	0xc068d96c	-3.6382704
137	0xc02e8f04	-2.727479
138	0xc0110b22	-2.2663045
139	0xc035a3d9	-2.8381255
140	0xbfbff9c4	-1.4998097
141	0xc08c0a25	-4.3762383
142	0xbfb59d2a	-1.4188588
143	0x408339c3	4.100801
144	0xc027279d	-2.6117928
145	0xbfae4c8f	-1.3617114
146	0xc0201fa3	-2.501931
147	0xbf966477	-1.174941
148	0xbf64ad83	-0.8932726
149	0xbf8a6f45	-1.0815207
150	0xbfbb7269	-1.464429
151	0x406abab0	3.6676445
152	0x40b0763c	5.514433
153	0xc0864299	-4.1956296
154	0x3eaf05bb	0.3418406
155	0xbe47295a	-0.19449368
156	0xc02d0590	-2.7034645
157	0x3fe9a437	1.8253239
158	0xc01040f4	-2.2539644
159	0xbe3f2fdc	-0.186706
160	0xc046bca3	-3.1052635
161	0xbfb58718	-1.4181852
162	0x4036760f	2.8509557
163	0xbfa72dcd	-1.3060852
164	0xc02edc86	-2.7322097
165	0xbf92639b	-1.1436647
166	0xc05b7b6a	-3.4294076
167	0xc0181d5c	-2.376792
168	0xc040b009	-3.0107443
169	0x4014a9f7	2.3228738
170	0x40eda566	7.4264402
171	0xbfbfddb7	-1.4989537
172	0xbdad143b	-0.08451124
173	0xbf0d9c33	-0.55316466
174	0xbfe20505	-1.7657782
175	0x3ea16874	0.31525004
176	0xc04bdfd9	-3.1855376
177	0x406f81c1	3.7422945
178	0xc0243a5b	-2.5660617
179	0xc01cc139	-2.4492934
180	0xc06bc001	-3.683594
181	0x401ac346	2.4181685
182	0xbf5165b3	-0.81795806
183	0xbdd4a132	-0.10382308
184	0x3f8a015e	1.0781667
185	0xc04514c6	-3.079393
186	0xc016d6bb	-2.356856
187	0xbe435f18	-0.19079244
188	0xc0709c2a	-3.7595315
189	0xc003542b	-2.0520122
190	0xc059feb8	-3.4061718
191	0xbf4222a1	-0.7583409
192	0xc09ba93c	-4.8644085
193	0x4088e705	4.2782006
194	0xc01f40ee	-2.488338
195	0xc027ad4b	-2.619952
196	0xc09bfa38	-4.8742943
197	0xc01299bd	-2.2906334
198	0xbeb34cd8	-0.35019565
199	0xbe58479e	-0.2112107
200	0xbfd51c7b	-1.6649317
201	0xbff9f691	-1.9528371
202	0xc06e27dd	-3.721183
203	0xc007ba27	-2.1207368
204	0xc011d8c5	-2.2788556
205	0xc040ed18	-3.014471
206	0xc073c8a5	-3.8091214
207	0xc036934f	-2.852741
208	0xbfa8dcd8	-1.3192396
209	0xbfa510e5	-1.2895781
210	0xc014e410	-2.3264198
211	0xbfd46dbd	-1.659599
212	0xbca0f3ea	-0.019647557
213	0xbf6217fa	-0.88317835
214	0xc0794e93	-3.8954208
215	0xc09919fd	-4.7844224
216	0xbfc2c166	-1.521527
217	0xc01bd244	-2.4347086
218	0x409d47d7	4.9150195
219	0xbf97b9ab	-1.1853536
220	0xbff98fab	-1.9496969
221	0xc0071de5	-2.1111996
222	0xc0603fe6	-3.5039
223	0xc024b3cd	-2.5734742
224	0xbff80fa0	-1.9379768
225	0xc03e1a69	-2.970362
226	0xbe92d6e2	-0.28679568
227	0xc0535143	-3.3018348
228	0xbfa76d0b	-1.3080152
229	0xbed9d1e0	-0.42542934
230	0xc07d41ee	-3.957149
231	0xbfb59958	-1.4187422
232	0xc0043efa	-2.0663438
233	0xbf6769de	-0.90395916
234	0xc02a9b5f	-2.665733
235	0x405d18c5	3.4546368
236	0x400af5b3	2.1712463
237	0x3e5e902c	0.21734685
238	0xc0392591	-2.8929179
239	0xc051b043	-3.2763832
240	0xc0514efb	-3.2704456
241	0xbfacbf87	-1.349595
242	0xbfd336b9	-1.6501075
243	0xbfcab1c9	-1.5835506
244	0xc00179a5	-2.0230496
245	0xc04f3841	-3.2378085
246	0xc0747d9c	-3.8201666
247	0xc030894a	-2.7583795
248	0xbd32d8a6	-0.043663643
249	0xc0439c46	-3.0564132
250	0xbfe4cc1e	-1.7874792
251	0xc0731469	-3.7981207
252	0xbffb0426	-1.9610641
253	0x4033c677	2.8089883
254	0x3f3850a6	0.7199806
255	0x3eccb71d	0.39983454

weight f4 [256, 256]
0	0x400ba159	2.1817229
1	0xbf9a92ee	-1.2076089
2	0xbf003f41	-0.5009652
3	0xbe893d2e	-0.2680449
4	0xbf6f91d7	-0.9358191
5	0x3e4ea2c7	0.20179282
6	0x3f5f69d3	0.8727085
7	0xbe8e355b	-0.27775082
8	0x400c7227	2.1944673
9	0x3f992dca	1.1967099
10	0x3f01522f	0.5051603
11	0x3cbf0cf6	0.02332161
12	0xbf9555ee	-1.1666849
13	0xbe34c756	-0.17654166
14	0x3f5b7689	0.85727745
15	0x3eafc319	0.34328535
16	0xbcf64b78	-0.030065283
17	0xbdbe06b2	-0.09278621
18	0xbdc52ac4	-0.096272975
19	0xbfc580a6	-1.5429885
20	0x3da5f8ba	0.081040815
21	0x3e26addc	0.1627726
22	0x3e104de9	0.1409222
23	0xbf06795b	-0.52528924
24	0x3f46eefc	0.7770841
25	0x40164608	2.3480244
26	0xbf4b0eb5	-0.79319316
27	0x3f9b200d	1.2119156
28	0x3fc6aa62	1.5520747
29	0xbec81abd	-0.390829
30	0xbf5ddd45	-0.86665756
31	0xbed0cada	-0.40779763
32	0x3fadde7f	1.3583525
33	0x3fd94561	1.6974298
34	0x3fad02f3	1.3516525
35	0xbfce0392	-1.609484
36	0x3ebcedc4	0.3690015
37	0xbed6cafe	-0.41951746
38	0xc08dcbed	-4.4311433
39	0xbf8a2778	-1.0793295
40	0xbe4a78ce	-0.19772646
41	0xbf1ea975	-0.6197732
42	0xbf70a41c	-0.9400041
43	0x3f56d95a	0.839254
44	0x3f734dae	0.95040405
45	0xc0210cd5	-2.5164082
46	0x3e91c377	0.2846944
47	0xbed35618	-0.41276622
48	0xbf8d6634	-1.1046815
49	0xbfdd7645	-1.7301718
50	0xc03378e6	-2.804254
51	0xbf9faa88	-1.2473917
52	0xc021ed21	-2.5300982
53	0x3f5b59ac	0.85683703
54	0xbef02aca	-0.46907645
55	0xbf0938bc	-0.53602195
56	0xbdc1386e	-0.09434591
57	0xbd8dd2e6	-0.06924991
58	0x3eb0b325	0.34511676
59	0x3e3774c3	0.17915635
60	0xbe8051eb	-0.25062498
61	0x3ffac0fa	1.9590142
62	0xbec12b7f	-0.37728497
63	0xc0293d13	-2.6443527
64	0x3f39ac83	0.72528857
65	0xbf9a57ce	-1.2058046
66	0xbfaf5447	-1.3697594
67	0xbf4e314b	-0.80543965
68	0xbf533499	-0.8250213
69	0xbfd0ad76	-1.6302936
70	0x3ef8d1ac	0.48597467
71	0x3f4452d8	0.7668891
72	0xbf1eb2d4	-0.6199162
73	0x4001d42b	2.0285747
74	0xbe76b91f	-0.24094056
75	0xbfaec285	-1.3653113
76	0x3eca0433	0.3945633
77	0x3cfebafa	0.031095017
78	0x3ff7429a	1.93172
79	0x3f1ea0e1	0.6196423
80	0x3f543fe2	0.8290998
81	0xbf5a722b	-0.85330456
82	0xbfa1d3c0	-1.2642746
83	0xbf97fee0	-1.1874657
84	0x3f96b175	1.1772906
85	0xbda5fb67	-0.08104592
86	0xbe223d87	-0.15843783
87	0xbfe07d84	-1.7538304
88	0x3f997e45	1.1991659
89	0xbe9f6441	-0.31131175
90	0xbf852e98	-1.0404844
91	0x3f944bf8	1.1585684
92	0xbfbf1636	-1.4928653
93	0xbba6f2e5	-0.0050948733
94	0xbd000b71	-0.03126091
95	0xbd437dae	-0.04772728
96	0x3f099a35	0.53750926
97	0x3f6efcfe	0.93354785
98	0x3f35ad02	0.70967114
99	0x3fa095b4	1.2545686
100	0x3f53f05e	0.82788646
101	0x3f819d52	1.0126135
102	0xbf537a0f	-0.8260812
103	0xbeff4dde	-0.49864095
104	0xbf03e615	-0.5152295
105	0x3f263efc	0.64939857
106	0xbfdcd2f9	-1.7251884
107	0xbf551e04	-0.83248925
108	0x3dda078e	0.10645972
109	0xc03293b6	-2.7902656
110	0xbf98bc64	-1.1932492
111	0xbf3d4c55	-0.739446
112	0x3ee71354	0.45131934
113	0xbfcfa2bf	-1.6221541
114	0x3fb0b312	1.3804648
115	0x3f2b7bea	0.6698595
116	0x3d3a3583	0.04546119
117	0x3f75a8b0	0.9596052
118	0xc01f5fdf	-2.4902265
119	0xbefe0fdf	-0.49621484
120	0xc044f8e5	-3.0776913
121	0xbfff1422	-1.9928019
122	0x3f0907cc	0.5352752
123	0x3e84ea9f	0.25960252
124	0xbf042fcb	-0.51635426
125	0xc006c382	-2.1056828
126	0x3fe1cee1	1.764126
127	0xbffd1a64	-1.9773679
128	0x3f1395af	0.57650274
129	0x3f99af1d	1.2006565
130	0xbe763a3b	-0.2404565
131	0xbd7754e8	-0.060383707
132	0xbea47a66	-0.32124633
133	0xbfdc378a	-1.7204449
134	0xbff22fe4	-1.8920865
135	0xbfa5c1c2	-1.2949755
136	0xbf945ec3	-1.1591419
137	0xbf6be5aa	-0.92147315
138	0xbd8028c8	-0.062577784
139	0x3f14a466	0.5806335
140	0xbf8c183a	-1.0944893
141	0xbf0728ab	-0.5279643
142	0xc01ef150	-2.4834785
143	0xbecdf63d	-0.40226927
144	0x3ebc790e	0.36811107
145	0x3e3d46e1	0.1848407
146	0xbfb2b262	-1.3960688
147	0x3ec8bd6a	0.3920701
148	0xc097e903	-4.747194
149	0x3ef502bb	0.47853646
150	0xbfb18be7	-1.387082
151	0xbee7b35b	-0.45254025
152	0xc00b7882	-2.1792302
153	0xbf8450f6	-1.0337207
154	0xbf4a7a7e	-0.7909316
155	0x3f9a9466	1.2076538
156	0xc0383995	-2.8785145
157	0xbff587c0	-1.9182053
158	0xbe9f2e1c	-0.31089866
159	0xbeafedcd	-0.34361115
160	0xc008a30d	-2.1349518
161	0xbf221fab	-0.6332957
162	0x3eb4b677	0.3529546
163	0x3f038224	0.51370454
164	0xbfb1954d	-1.3873688
165	0xbf2f182e	-0.6839627
166	0xbdd567b5	-0.10420171
167	0xbe8e9a26	-0.2785198
168	0x3f7201a9	0.94533783
169	0x3dc23170	0.09482086
170	0x3ddafe93	0.106930874
171	0xbf80d365	-1.0064512
172	0xbf75b072	-0.9597236
173	0xbfad828c	-1.3555465
174	0xbfbf581e	-1.4948766
175	0x3fa54b2d	1.2913567
176	0xbf5f8c71	-0.8732367
177	0xbef6042c	-0.48050058
178	0x3f0611a9	0.523707
179	0x3e7144b4	0.23561364
180	0x3eb3fa4a	0.35151893
181	0xbea3670c	-0.31914556
182	0x3f1ad200	0.60476685
183	0xbf9eadec	-1.2396827
184	0xbfd76b8b	-1.6829695
185	0xbd051380	-0.0324893
186	0xc0240069	-2.562525
187	0x3f268eef	0.6506185
188	0x3f72ca8d	0.9484032
189	0xbf766849	-0.96252877
190	0xbf1feb5a	-0.62468493
191	0x3f389fe4	0.72118974
192	0x3fd431a3	1.6577648
193	0x3eaf1e0d	0.34202614
194	0x3f32f41e	0.69903743
195	0x3e0912d8	0.13386095
196	0x3f260deb	0.6486499
197	0x3fa6b260	1.3023186
198	0xbf7a61e2	-0.9780561
199	0xc02facb0	-2.744915
200	0x3e4c2361	0.19935371
201	0xbf900ee4	-1.1254544
202	0xc00a674f	-2.1625555
203	0xbcfcca0e	-0.030858066
204	0x3f8e60e5	1.112332
205	0x3f96f666	1.1793945
206	0xbfd14c97	-1.6351498
207	0x3e8ac4c6	0.2710325
208	0x3ede67c0	0.4343853
209	0xbf90199a	-1.1257813
210	0xbf32a768	-0.6978669
211	0x3d8dbde0	0.069209814
212	0xc04e4cdb	-3.223441
213	0xbf9a537d	-1.2056729
214	0xbe183187	-0.14862643
215	0x3f60520a	0.8762518
216	0x3eff7724	0.49895585
217	0x3f8bb3aa	1.0914204
218	0xc00ded27	-2.2175996
219	0x3fa6f639	1.3043891
220	0xbeb499eb	-0.3527368
221	0xbec7bfcd	-0.3901352
222	0xbf8558df	-1.0417746
223	0x3dc065f4	0.09394446
224	0xbf272004	-0.65283227
225	0xbfa0e291	-1.2569143
226	0xbf091c64	-0.53558946
227	0xbf8ba5db	-1.090999
228	0xbf757042	-0.95874417
229	0xbf11458b	-0.5674674
230	0xbfd9fc81	-1.7030183
231	0x3eb1ad58	0.34702563
232	0xc0477ffa	-3.117186
233	0x401c3d40	2.4412384
234	0xbfa46734	-1.2843995
235	0xbfdd79ce	-1.7302797
236	0xbf7aa6c5	-0.9791072
237	0x3f3477b6	0.70495164
238	0x3f2721b9	0.6528583
239	0xc04ad4a8	-3.1692295
240	0x3f0f0bea	0.55877554
241	0x3e4244ea	0.18971601
242	0xbf5ffd1f	-0.8749561
243	0xc06cf2f6	-3.7023292
244	0xbfdd0b1a	-1.7269013
245	0xbd7e56ae	-0.062094383
246	0x3d785057	0.060623493
247	0x3f05459a	0.5205933
248	0x3eb91ed1	0.36156324
249	0xbfaebbdc	-1.365108
250	0xbfb19021	-1.387211
251	0x3f2f81b9	0.68557316
252	0x3e68bb36	0.22727665
253	0x3fa3859f	1.2775153
254	0xbebcb6b0	-0.3685813
255	0xbf34b1fe	-0.70584095

bias f4 [256]
0	0xbeab863b	-0.33500847
1	0x3d95c07c	0.07312104
2	0xbe85d8e0	-0.26142025
3	0x3e32bb94	0.17454368
4	0xbd5f141a	-0.05446253
5	0xbc922244	-0.017838605
6	0xbe06ce98	-0.13164747
7	0x401b673c	2.428176
8	0xbf7bd93b	-0.9837834
9	0xbfa50847	-1.2893151
10	0xbf41778a	-0.7557303
11	0xbda26ca6	-0.07930879
12	0xbf1573f2	-0.58380044
13	0xc03bcf47	-2.9345262
14	0xbf9f77e3	-1.2458462
15	0xbfe8e7f2	-1.8195784
16	0xbd0404b1	-0.032231037
17	0xbcf80648	-0.030276433
18	0x408ae4f8	4.3404503
19	0xbd38e3ba	-0.045139052
20	0xbda2e00b	-0.07952889
21	0xbe34ae5c	-0.17644638
22	0xbdada039	-0.08477826
23	0xc06e23ff	-3.720947
24	0xbf9a0b01	-1.2034608
25	0xbfc193b8	-1.5123205
26	0xbdc9fb7e	-0.098624215
27	0xbf62ca61	-0.88590056
28	0xbf714a58	-0.94254065
29	0xbeb75417	-0.35806343
30	0xbe842f53	-0.25817356
31	0xbebb9989	-0.36640576
32	0xbfc8ae28	-1.5678148
33	0xbfc086c8	-1.5041132
34	0xbcbf95ba	-0.023386825
35	0xbe9d3d0a	-0.30710632
36	0x3f18c9d4	0.59682965
37	0xbdcd019a	-0.10010071
38	0xbeec42d6	-0.46144742
39	0xbce7acf2	-0.028280709
40	0xbd7a194a	-0.061059274
41	0xbfb03ca2	-1.3768504
42	0xbd8597fb	-0.065231286
43	0xbfe9aab9	-1.8255225
44	0xbec23432	-0.37930447
45	0xbd910bd2	-0.07082333
46	0xbd9141e9	-0.070926495
47	0xbec0d7ea	-0.3766473
48	0xbf26889f	-0.6505222
49	0xbfe0650b	-1.7530836
50	0xc09d0255	-4.9065347
51	0x3fa35e57	1.2763165
52	0xbf9d6681	-1.2296907
53	0xbe4532a2	-0.19257596
54	0xbea0cd15	-0.31406465
55	0xbd43dc38	-0.04781744
56	0x3e91a828	0.28448606
57	0xbff504b0	-1.9142056
58	0xbfa1aefc	-1.2631526
59	0xbfb7f8aa	-1.4372761
60	0xbda4b605	-0.0804253
61	0xbf42d007	-0.76098675
62	0xbe2d14e8	-0.16902506
63	0xbfa2fb1d	-1.2732884
64	0xbf0ab2bb	-0.5417897
65	0xbf7d09c4	-0.98843026
66	0xbf9484df	-1.1603049
67	0xbdcecda9	-0.1009782
68	0x3e46e191	0.19421984
69	0xbf6af8cd	-0.9178589
70	0x3c474822	0.012163194
71	0xbe871665	-0.26384273
72	0xbf68f207	-0.90994304
73	0xbf518942	-0.81850064
74	0xbf32b621	-0.69809157
75	0xbd740b42	-0.05958105
76	0xbe0cb879	-0.13742246
77	0xbdb901ac	-0.09033522
78	0xbfa255d1	-1.2682439
79	0xbd4c5bbd	-0.049892176
80	0x3f4c0451	0.79694086
81	0xbe84bdc7	-0.2592604
82	0xc006389e	-2.0972056
83	0xbe8e9d13	-0.27854213
84	0xc0351926	-2.82966
85	0x3eb92181	0.36158374
86	0x3edf8198	0.4365356
87	0xbe31a584	-0.17348295
88	0xbe037955	-0.12839253
89	0x3e30f3a0	0.17280436
90	0xbdaa9c39	-0.08330578
91	0xbed9f319	-0.4256828
92	0xbeaab93a	-0.33344442
93	0x3f3cf57f	0.738121
94	0xbf366e02	-0.7126161
95	0xbf18e9b5	-0.5973161
96	0xbdbba2ff	-0.091619484
97	0x3ecfb608	0.40568566
98	0xbf226573	-0.6343605
99	0x40063910	2.0972328
100	0xbda533dc	-0.08066532
101	0x3e352fec	0.17694062
102	0xbf407c7a	-0.75189936
103	0xbd2cbf52	-0.042174645
104	0xbea11bf2	-0.31466633
105	0xbeda70b1	-0.42664102
106	0xbf8eef72	-1.1166823
107	0xbd900abb	-0.07033297
108	0xbde256fa	-0.11051746
109	0xbf863935	-1.0486208
110	0xbd1fdb99	-0.039027784
111	0xbe9cb856	-0.30609387
112	0x3f6ac402	0.91705334
113	0x3be52f09	0.0069941324
114	0xbe8c8619	-0.27446058
115	0xbfc790e8	-1.5591097
116	0xbefa17e1	-0.48846343
117	0xbd6f86de	-0.05847823
118	0xbfc2b1b1	-1.5210477
119	0xc0061a09	-2.095339
120	0xbe38e0c1	-0.18054487
121	0xbff0d984	-1.881638
122	0xbce37e54	-0.027770199
123	0xbef7493c	-0.4829806
124	0xbd89636d	-0.06708417
125	0xbfdcc370	-1.7247143
126	0xbe18da0d	-0.1492693
127	0xbd37e465	-0.04489555
128	0x3f9157d8	1.1354933
129	0x3f4844d4	0.78230023
130	0xbd83c217	-0.06433504
131	0xbee420ae	-0.44556183
132	0xbf8db18f	-1.1069812
133	0xbd836ec4	-0.06417611
134	0xbfbe3c14	-1.4862084
135	0xbffb70ba	-1.9643776
136	0xbdd00d64	-0.10158804
137	0xbda9bc5b	-0.08287879
138	0x3e799332	0.24372557
139	0xbfa378f4	-1.2771287
140	0x3da3dffa	0.080017045
141	0xbf05086e	-0.5196599
142	0xbde214dc	-0.11039135
143	0xbfc56be3	-1.542355
144	0xbfbaf476	-1.4605854
145	0xbff430fc	-1.9077449
146	0xbfa41ff5	-1.2822253
147	0xbf48bbf9	-0.78411824
148	0xbd5dfa0d	-0.054193545
149	0xbeadaa41	-0.33918956
150	0xbfe0384c	-1.751718
151	0xc022fc24	-2.5466394
152	0x40910ef0	4.5330734
153	0xbf6c0dfd	-0.92208844
154	0xbbdda73a	-0.0067643197
155	0x3dd688e2	0.10475327
156	0xbdba332c	-0.090917915
157	0x400d3e5f	2.2069318
158	0xbfb5dbe0	-1.4207726
159	0xbe898132	-0.2685638
160	0xbf9414fc	-1.1568904
161	0xbecfe828	-0.4060681
162	0xbff8b8d4	-1.9431405
163	0x3fb64933	1.4241089
164	0x3fba4201	1.4551393
165	0x3ec802d3	0.39064655
166	0xc03e7f75	-2.9765294
167	0x3e5c7194	0.21527702
168	0xbf3ac121	-0.7295094
169	0xbeb1e824	-0.34747422
170	0xbffb76a7	-1.9645585
171	0xbfdd8adf	-1.7308005
172	0xbe3f5805	-0.1868592
173	0xbe6bbd43	-0.23021416
174	0xbea9cb54	-0.3316294
175	0xbdf0c623	-0.117565416
176	0xbf85a131	-1.0439817
177	0xbd806590	-0.062693715
178	0x3eeac2f8	0.45851874
179	0x3e70c69d	0.23513265
180	0xbf89b7c9	-1.0759212
181	0xbe989660	-0.29802227
182	0xbfaaa176	-1.3330524
183	0xbe0681b6	-0.13135418
184	0xbd350591	-0.04419476
185	0xbda4afc2	-0.08041336
186	0xbfa14e04	-1.2601933
187	0xbe8e1d6b	-0.2775682
188	0xbd0db884	-0.034599796
189	0xbddd0fde	-0.10794042
190	0xbdf7dd13	-0.121027134
191	0xbcf33f3e	-0.029693242
192	0xbf3b2968	-0.73110056
193	0xbfa31d6d	-1.2743355
194	0xbe1e9d9b	-0.15489809
195	0xbd376e40	-0.044782877
196	0xbea3326a	-0.318744
197	0x3f9e370c	1.2360549
198	0xbf18ce8b	-0.5969016
199	0x3b5e7dd9	0.0033949523
200	0x3fac246e	1.3448617
201	0xbe38a47d	-0.18031497
202	0x3fcfedfa	1.62445
203	0x3c866f2e	0.016410436
204	0xbdbf06d2	-0.09327473
205	0xbdc6d2e4	-0.09708193
206	0xbfbbeef9	-1.4682304
207	0x3ea2d93c	0.31806362
208	0xba99608b	-0.0011701746
209	0xbf915097	-1.1352719
210	0xbe5d6981	-0.21622278
211	0xbf389f28	-0.72117853
212	0xbff0cf84	-1.8813329
213	0x3e6da459	0.23207225
214	0x3f7fda68	0.99942636
215	0xbc45a5c5	-0.012063448
216	0xbc639310	-0.013890043
217	0x3f2ae22c	0.6675136
218	0xbdf4dd7a	-0.11956306
219	0xbdd737b8	-0.105086744
220	0x4085ce9f	4.1814723
221	0xc022a8be	-2.5415492
222	0xbcfd5a3c	-0.030926816
223	0xbf4e8231	-0.80667406
224	0xbf2d6b1d	-0.67741567
225	0x3faae51c	1.3351169
226	0xbe429a5a	-0.19004193
227	0xbf192698	-0.59824514
228	0xbf7da2aa	-0.9907633
229	0xbfe089f0	-1.7542095
230	0xbf1ddc5f	-0.61664385
231	0xbf2c4ab6	-0.673015
232	0xc01c9c20	-2.447029
233	0xc027314f	-2.6123846
234	0xbc6f5283	-0.014607075
235	0xbd947bc6	-0.072501704
236	0xbd9e0ffb	-0.07717892
237	0xbdbe31eb	-0.09286865
238	0xbf2b5c8c	-0.6693809
239	0xbe5ea817	-0.21743809
240	0xbec64d0e	-0.38730663
241	0xbd73e99c	-0.05954896
242	0xbe5bbfde	-0.2145991
243	0xbdc05969	-0.09392054
244	0xbe0b59d9	-0.13608493
245	0xbeca44d4	-0.39505637
246	0x401d8ea7	2.4618318
247	0xbf1ce6b3	-0.6128952
248	0xbd14121a	-0.036150075
249	0xbf76b052	-0.96362793
250	0xbe00ee5e	-0.1259093
251	0xbe969ad5	-0.29415002
252	0xbd342517	-0.043980684
253	0xbd8b3b86	-0.067984626
254	0xbeb057e4	-0.34442055
255	0x3f6b9400	0.92022705

weight f4 [6, 256]
0	0xbf6fd1df	-0.9367961
1	0x3e6f7e1a	0.23387948
2	0x3ad85918	0.0016506044
3	0xbeaadb30	-0.33370352
4	0xbcd16ead	-0.02556547
5	0xbb720315	-0.0036928107
6	0x3c9ef46a	0.019403655
7	0x3f032ab0	0.5123701
8	0xbf764944	-0.96205544
9	0x3c055757	0.008138499
10	0x3f076ec1	0.5290337
11	0x3ca67584	0.020319708
12	0xbf8a20cd	-1.079126
13	0xbfe43bb1	-1.7830716
14	0x3f9fb851	1.2478124
15	0xbf5306ca	-0.82432234
16	0x3d57d2d3	0.052691292
17	0xbcc04eae	-0.023475017
18	0x3dd2caec	0.102926105
19	0x3c818158	0.015808746
20	0x3d350984	0.044198528
21	0x3ef51e5b	0.47874722
22	0xbc996194	-0.018723287
23	0xbf457c53	-0.7714283
24	0x3eaf5106	0.34241503
25	0x3f73c21f	0.9521808
26	0x3cefee23	0.029288357
27	0x3fec724a	1.8472378
28	0xbd23c758	-0.03998503
29	0x3f28a1a8	0.6587167
30	0x3e8c6cf1	0.27426866
31	0x3f35c2e1	0.71000487
32	0xbf5be853	-0.85901374
33	0x3e2cb162	0.16864541
34	0xbc4dd106	-0.012562042
35	0xbe71b1f3	-0.23603038
36	0xbe321c00	-0.17393494
37	0xbd320f03	-0.043471348
38	0x3f5452d5	0.8293889
39	0x3efaabb7	0.48959133
40	0xbc85335c	-0.016259842
41	0xbefff1f7	-0.49989292
42	0x3c61fe9e	0.013793616
43	0x3e45d93d	0.19321151
44	0xbe755910	-0.23959756
45	0xbc9abe85	-0.018889675
46	0x3c62781d	0.013822583
47	0x3c186f3e	0.009303866
48	0xbd13f8c1	-0.036125902
49	0x3ecf75cb	0.40519556
50	0xbe7157d8	-0.23568666
51	0x3ed10c5c	0.40829742
52	0xbf11ddcf	-0.5697908
53	0x3a9a956c	0.0011793799
54	0x3d8d19b6	0.068896696
55	0xbcab6b0f	-0.020925073
56	0xc009dca0	-2.154091
57	0x3e8a8621	0.27055457
58	0xbe9ff207	-0.3123934
59	0x3e290342	0.16505149
60	0xbd2d2167	-0.042268183
61	0x3f57317c	0.8405988
62	0x3da44817	0.080215625
63	0x3e59c4b4	0.21266443
64	0xbdb43c1b	-0.08800527
65	0xbb3278da	-0.0027232678
66	0x3f17107b	0.5900952
67	0xbbe220f0	-0.006900899
68	0x3e36869f	0.17824791
69	0x3d399595	0.04530867
70	0xbf4ffd8f	-0.81246275
71	0x3f18f59e	0.5974978
72	0x3d15e785	0.036597747
73	0x3e8efa4e	0.27925342
74	0x3f058ff5	0.52172786
75	0xbda444a1	-0.080209024
76	0x3d92f9dd	0.07176564
77	0xbcd49f78	-0.025954947
78	0xbf0c99e9	-0.5492235
79	0x3c83a78f	0.01607111
80	0xbef8dc6b	-0.48605666
81	0x3d630be3	0.055431258
82	0x3f46f4b0	0.77717113
83	0x3e4b5d30	0.19859767
84	0xbe32cfef	-0.17462133
85	0x3dd3b4d0	0.103372216
86	0x3e92d603	0.28678903
87	0x3eb88be3	0.36044225
88	0x3d4a1dc2	0.049344786
89	0x3f0b6002	0.5444337
90	0xbe854a7e	-0.26033396
91	0xbda6c6ca	-0.08143385
92	0x3f998dab	1.1996359
93	0x3f6a59b3	0.9154312
94	0x3c39050e	0.011292709
95	0x3f63f475	0.89044887
96	0xbbc151a6	-0.005899626
97	0x3f984086	1.1894691
98	0x3eb3ecfa	0.35141736
99	0x3e756ff8	0.23968494
100	0x3c798070	0.015228376
101	0x3d2caf2b	0.04215924
102	0xbe99ee20	-0.30064487
103	0xbc9dc603	-0.019259458
104	0x3e16cdbb	0.14726917
105	0x3fc57e97	1.5429257
106	0xbee8b504	-0.45450604
107	0xbbaf110d	-0.005342609
108	0x3b8738cf	0.004126645
109	0xbeb5c7a7	-0.35503885
110	0xbc8878e7	-0.016659213
111	0x3e4c9880	0.19980049
112	0x3d780b86	0.060557865
113	0xbd4bae26	-0.049726628
114	0x3ec59d72	0.38596684
115	0x3f826d58	1.0189619
116	0xbe9b0af4	-0.30281794
117	0x3b93c292	0.0045092786
118	0x3f31f08b	0.69507664
119	0xbee2503a	-0.44201833
120	0x3da22092	0.079163685
121	0x3e9897ee	0.29803413
122	0x3cab6e24	0.020926543
123	0xbfb389ad	-1.402639
124	0x3d271d25	0.04079928
125	0x3e18ccc9	0.1492187
126	0xbccbcaac	-0.024876915
127	0x3ceb6c96	0.028738301
128	0xbf683784	-0.9070971
129	0xbf73d71d	-0.9525011
130	0xbd8b02d0	-0.06787646
131	0xbeb747ae	-0.35796875
132	0x3eb81d94	0.35960066
133	0xbd0b242e	-0.03397005
134	0xbf89d400	-1.0767822
135	0x3f239926	0.6390556
136	0x3bc1a2ab	0.005909284
137	0x3c8b6d37	0.017019851
138	0xbca778ca	-0.020443339
139	0xbdad37a2	-0.08457877
140	0xbfa35c63	-1.2762569
141	0xbe901c5f	-0.28146645
142	0x3d6d3886	0.057915233
143	0xbe0f813a	-0.1401414
144	0xbfaa6279	-1.3311301
145	0xbd42689c	-0.047463045
146	0x3fa04555	1.2521158
147	0xbf59a373	-0.8501503
148	0x3b25963c	0.0025266549
149	0x3d887a43	0.066639446
150	0x3f170c29	0.5900293
151	0xbd02b1ec	-0.03190796
152	0x3eb8cf04	0.3609544
153	0x3fc8840e	1.56653
154	0x3d40d547	0.047078397
155	0x3eefad21	0.46811774
156	0x3c3677c9	0.011136957
157	0xbdba292a	-0.09089883
158	0x3e87e6b7	0.2654321
159	0xc013c856	-2.3091025
160	0xbee4bba4	-0.44674408
161	0xbe34c50b	-0.17653291
162	0x3e8fe1a6	0.28101844
163	0xbeab32dc	-0.3343724
164	0xbf625ac9	-0.8841978
165	0xbca5d4af	-0.020243017
166	0xbf8c5c0f	-1.0965594
167	0x3f9eed77	1.2416219
168	0xbd8d4714	-0.06898323
169	0xbf8d9653	-1.10615
170	0xbfacca71	-1.349928
171	0xbf306191	-0.68898875
172	0xbe035857	-0.12826668
173	0x3fb81064	1.4380002
174	0x3df9764c	0.121807665
175	0xbb68f35b	-0.0035545442
176	0xbce0f55f	-0.027460752
177	0x3c8734e8	0.01650472
178	0x3f21725e	0.63065135
179	0xbf621cba	-0.88325083
180	0x3f8c4d13	1.0961021
181	0xbc83c694	-0.0160859
182	0xbe17dbf8	-0.14830005
183	0xbf099167	-0.5373749
184	0x3d3cb3d7	0.046069946
185	0xbd0263dc	-0.031833515
186	0x3e352377	0.1768931
187	0x3e0dcfe7	0.1384884
188	0xbbc8ac20	-0.0061240345
189	0x3f35c813	0.71008414
190	0x3c993e06	0.018706333
191	0x3b0aa646	0.0021156236
192	0x3f860d48	1.0472803
193	0x3fd1732b	1.6363271
194	0x3dae6bdc	0.08516666
195	0x3d3ee383	0.04660369
196	0x3d71b349	0.05900887
197	0xbe532445	-0.20619304
198	0xbe178e84	-0.14800459
199	0xbd6825ad	-0.056676555
200	0xbf04bade	-0.51847637
201	0xbf19c691	-0.60068613
202	0x3f0d967c	0.55307746
203	0x3d5898e3	0.05288018
204	0xbd269fa4	-0.04067959
205	0x3d71a352	0.058993645
206	0x3f73af30	0.9518919
207	0xbf12520f	-0.5715646
208	0xbb640fc6	-0.003479944
209	0x3f414efd	0.7551115
210	0xbcd0ec43	-0.025503283
211	0x3cf9c8dd	0.030491287
212	0xbf68f53b	-0.9099919
213	0xbd29ed79	-0.041486237
214	0x3fa7aa47	1.309884
215	0xbcbf2cf2	-0.023336861
216	0xbcb59729	-0.022166805
217	0xbf05bca5	-0.52240974
218	0xbca36793	-0.019946849
219	0x3d2a26e8	0.04154101
220	0x3f0ec2b1	0.55765826
221	0xbf6eded4	-0.9330876
222	0x3f41b237	0.7566256
223	0x3ee193ca	0.44058067
224	0x3e4bc056	0.19897589
225	0x3e813a55	0.25239816
226	0x3db680f5	0.08911315
227	0xbf07b144	-0.5300486
228	0x3e633b30	0.22190547
229	0x3f73bdb2	0.9521133
230	0x3dd4b3ca	0.103858545
231	0x3ce0bf6c	0.027435027
232	0x3fb35201	1.4009401
233	0xbf3258f8	-0.69667006
234	0x3c11ab90	0.008891001
235	0x3c079cef	0.008277162
236	0xbcadba56	-0.021207016
237	0xbcc80941	-0.024418475
238	0xbeedb4fc	-0.46427143
239	0xbddd6193	-0.108096264
240	0x3e68b854	0.22726566
241	0x3f4541c4	0.77053475
242	0x3dcc0d16	0.099634334
243	0x3c7b6ce0	0.015345782
244	0xbcae9ada	-0.021314073
245	0x3eb2e7ff	0.34942624
246	0x3e659812	0.22421291
247	0x3dd4f6d4	0.10398641
248	0xbd025eeb	-0.031828802
249	0x400c988a	2.1968102
250	0x3d3945df	0.04523265
251	0x3eaa38ca	0.33246452
252	0xbcf593e7	-0.029977752
253	0xbe21197e	-0.15732381
254	0x3f8418d9	1.0320083
255	0x3d12d63c	0.03584884

bias f4 [6]
0	0x3fca46f5	1.5802904
1	0xc036f1fb	-2.8585193
2	0xc04097c4	-3.009263
3	0x3da307d1	0.07960475
4	0x3fe65554	1.799479
5	0x40a9ef94	5.3104954

weight f4 [256, 23]
0	0xbfe3eb54	-1.7806191
1	0x3fa0363f	1.2516555
2	0x3f4f4c5b	0.80975884
3	0x3fd41e4d	1.6571747
4	0xc05d333a	-3.4562516
5	0x3f745857	0.95447296
6	0xbf610a1d	-0.87906057
7	0x401df723	2.468209
8	0xbe57a791	-0.21060015
9	0xbf21715c	-0.630636
10	0x3c9b18e9	0.018932777
11	0xbe80ff86	-0.2519495
12	0x3e65fc96	0.22459635
13	0x3e27750c	0.16353244
14	0x3e9141e0	0.2837057
15	0x3e37cda7	0.17949544
16	0xbe19cbf6	-0.15019211
17	0x3eff631a	0.49880296
18	0xbf033cc8	-0.5126462
19	0x4048f1c4	3.1397562
20	0x3fa8580d	1.3151871
21	0x3e78e628	0.24306548
22	0xc09a1b71	-4.81585
23	0xc057c369	-3.371302
24	0x4094e979	4.6535
25	0xc062707d	-3.5381157
26	0x3f2e0f72	0.6799232
27	0x3fca10bb	1.5786356
28	0x3f7d5554	0.98958325
29	0xbdf8f566	-0.12156181
30	0xbfa4d06b	-1.2876104
31	0x3ddb2d4e	0.107020006
32	0x3f95aef2	1.1694014
33	0xbb429da0	-0.0029696003
34	0x3eaf9038	0.34289718
35	0x3e26fceb	0.16307418
36	0x3b4195a1	0.0029538649
37	0xbdf00e5e	-0.1172149
38	0xbdced0b5	-0.100984015
39	0xbc2f04be	-0.010682283
40	0xbf77d09d	-0.96802694
41	0x3e84c8c6	0.25934428
42	0xbf3d2c09	-0.7389532
43	0x3f83afb7	1.0287999
44	0x40041ee1	2.0643847
45	0x3defb4eb	0.11704429
46	0xbbc6a83d	-0.006062536
47	0x40bf4bec	5.978018
48	0xbe87a862	-0.26495653
49	0x3f9b533f	1.213478
50	0xbf81231c	-1.008884
51	0x3f4380c4	0.76368356
52	0x40615263	3.5206535
53	0x40369e66	2.8534179
54	0x3d4863b6	0.048923217
55	0x40622f39	3.5341322
56	0xbea96911	-0.33087972
57	0x3e77e4d7	0.24208389
58	0x3e001458	0.1250776
59	0x3dc70932	0.09718551
60	0x3e909ba7	0.28243753
61	0x3b406d84	0.0029362151
62	0x3ddef38d	0.108862974
63	0x3ea2fb1e	0.31832212
64	0xbdbb8d46	-0.09157805
65	0xbe8cbf32	-0.2748962
66	0xbd34a78c	-0.044105098
67	0xbed1369f	-0.40861985
68	0xbdc7d139	-0.09756703
69	0x3f982b18	1.1888151
70	0x3f50f955	0.8163045
71	0x412fe2be	10.992857
72	0x40a7e151	5.2462544
73	0x3fc89a6f	1.5672129
74	0xc0f95a24	-7.7922535
75	0xc029e926	-2.6548553
76	0xbe48b966	-0.19601974
77	0x3d135f8d	0.035979796
78	0xbea75828	-0.32684445
79	0x3eb2bc31	0.34909204
80	0x3dba70c3	0.09103539
81	0x3e534d0e	0.20634863
82	0x3c3fc3eb	0.011704425
83	0xbeb321ed	-0.3498682
84	0x3d1005ec	0.035161898
85	0xbd777004	-0.06040956
86	0x3d83c0d0	0.064332604
87	0x3e9b6433	0.30349883
88	0xbe684031	-0.22680737
89	0x3ea91b2f	0.33028552
90	0xbe109b22	-0.14121678
91	0x3e893fff	0.26806638
92	0xc01cea07	-2.451784
93	0xc10c345a	-8.762781
94	0xbf4c3df2	-0.7978202
95	0xbfaa09b6	-1.3284214
96	0x3e95dd48	0.29270387
97	0xc00ea13a	-2.2285905
98	0x3b93ac1e	0.004506602
99	0xbf598143	-0.8496286
100	0x3f0a42a5	0.5400794
101	0x3d94043d	0.07227371
102	0x3e5eb96c	0.2175042
103	0xbe8675ce	-0.26261753
104	0xbe25b04e	-0.16180536
105	0xbd36d7d4	-0.044639423
106	0xbe63944d	-0.22224541
107	0x3da5f826	0.08103971
108	0xbc9f6d81	-0.019461395
109	0x3dcd86d7	0.10035484
110	0x3eb62a6b	0.35579237
111	0x3e32c3bc	0.17457479
112	0xbe42ea54	-0.19034702
113	0xbe5948f0	-0.2121923
114	0x3e422c46	0.18962201
115	0xc0868d63	-4.204759
116	0xbf93642f	-1.1514949
117	0x3f5886b7	0.8458056
118	0xc030117d	-2.7510674
119	0x3fad057d	1.35173
120	0x3f93bba9	1.1541644
121	0xc00c6cdf	-2.194145
122	0x3f364a07	0.71206707
123	0x3fa364ab	1.2765096
124	0x3c90998a	0.017651338
125	0x3ea8343e	0.32852358
126	0xbe880a18	-0.265702
127	0x3e0304b6	0.12794766
128	0xbdd53288	-0.10410029
129	0xbea038ca	-0.31293327
130	0x3e04cda9	0.12969078
131	0xbda50552	-0.080576554
132	0x3ecd533c	0.40102565
133	0x3ee803a5	0.4531528
134	0x3f80a7fc	1.0051265
135	0x3f311cc4	0.6918452
136	0x3f0cca94	0.5499661
137	0x3f888149	1.0664455
138	0x3f2bf5fe	0.6717223
139	0xc10d6b65	-8.838719
140	0xbd8e9047	-0.069611125
141	0xc041ac41	-3.0261385
142	0x3daebe9c	0.085324496
143	0x40baa229	5.832295
144	0x40869bb9	4.206509
145	0x4000ab23	2.0104454
146	0xbf06dd8f	-0.5268182
147	0x3f922904	1.1418767
148	0xbe502852	-0.20327881
149	0x3e04ef7c	0.12981981
150	0xbe453931	-0.19260098
151	0x3d58798f	0.052850302
152	0x3e28df0a	0.16491333
153	0x3e69b25a	0.22821942
154	0xbc80f766	-0.015742969
155	0xbcd9f643	-0.026606685
156	0xbe547d11	-0.20750834
157	0xbdd8734c	-0.10568866
158	0xbdd041ca	-0.10168798
159	0x3e268c56	0.16264471
160	0x3f072dc5	0.52804214
161	0xbfde82c8	-1.7383661
162	0x3fe4b2e3	1.7867092
163	0x3fe046e5	1.7521635
164	0x3e840dc0	0.2579174
165	0x401903ac	2.390849
166	0x4084212d	4.12905
167	0xbf84946d	-1.0357796
168	0x3fb898ac	1.4421592
169	0xc0255a63	-2.5836418
170	0xbebcec64	-0.36899102
171	0x3ebf8ff3	0.37414512
172	0x3f433252	0.7624866
173	0xbd6278f5	-0.055291135
174	0x3eca3ab4	0.39497912
175	0xbf5d703a	-0.8649937
176	0x3eb554d2	0.35416275
177	0xbddd0870	-0.10792625
178	0x3fbca61b	1.4738191
179	0xbfb6abc9	-1.4271175
180	0xc00472af	-2.0694997
181	0xbf99a4f2	-1.2003462
182	0x3fe67bd7	1.8006543
183	0x3ec55386	0.38540286
184	0xc0c05c4e	-6.0112677
185	0x3f200f44	0.62523293
186	0x402daec0	2.713791
187	0x404b8ede	3.180595
188	0xc00531b6	-2.081159
189	0xc04974ac	-3.147746
190	0x3e9a16c4	0.30095494
191	0x40c35b65	6.1049066
192	0xbe9e7581	-0.30949023
193	0xbfcb905d	-1.5903431
194	0x3eccf833	0.4003311
195	0xbdfb2a91	-0.12263978
196	0xbe89a526	-0.2688381
197	0xbdea67ae	-0.114455566
198	0xbe467aee	-0.19382831
199	0xbcacc49d	-0.021089846
200	0x3e9c8612	0.30571038
201	0x3fb69def	1.4266948
202	0xbebd5d93	-0.36985454
203	0xbe5f4e16	-0.21807131
204	0x3f6762b0	0.9038496
205	0x3fb73da4	1.4315686
206	0x3f7b5034	0.98169255
207	0x3ea3a5b5	0.31962362
208	0x40856ba4	4.1693897
209	0x3ff04a28	1.8772631
210	0xbf88f760	-1.0700493
211	0x3f623ce0	0.8837414
212	0xbfc6f346	-1.5542991
213	0xbdefda4c	-0.11711559
214	0xc04f2d88	-3.237154
215	0xbf14302a	-0.5788599
216	0x3fd88e64	1.6918454
217	0xbeedadea	-0.46421748
218	0xbe9b24a2	-0.30301386
219	0x3e99484b	0.29937968
220	0x3d90a121	0.07061983
221	0x3eaa5d22	0.3327418
222	0x3d4d0e60	0.050062537
223	0x3d8a7cd6	0.06762092
224	0x40345725	2.8178189
225	0x3e11cc79	0.14238156
226	0xbdb06188	-0.086123526
227	0x3f5c636f	0.86089224
228	0x3f1301fa	0.5742489
229	0xbf64bf68	-0.8935456
230	0xbef793b7	-0.48354885
231	0x402173a4	2.5226831
232	0x403b22c5	2.9239972
233	0x3fb070b8	1.3784399
234	0xbeaa589a	-0.33270723
235	0x3e815d69	0.2526658
236	0x3f1d337c	0.61406684
237	0x4093ac9f	4.614822
238	0xbfdd54af	-1.7291468
239	0x3ff42d09	1.9076244
240	0x3e8feb15	0.2810904
241	0x3f0e801f	0.5566425
242	0x3e65dd01	0.22447588
243	0x3ca4bfdb	0.020111015
244	0xbdb3e48f	-0.087838285
245	0x3c95f0d3	0.01830331
246	0xbf194839	-0.5987583
247	0x3fb5c871	1.4201795
248	0x3efb7f15	0.49120393
249	0x3f6f61c4	0.93508554
250	0x3f111ce5	0.56684715
251	0x4014b9d1	2.3238413
252	0x3f072631	0.5279265
253	0xbdfce43e	-0.12348221
254	0x4035cd8b	2.8406703
255	0x40253c36	2.5818

bias f4 [256]
0	0x3d9d59fd	0.076831795
1	0x40939657	4.612102
2	0x3fa68d9f	1.3011969
3	0x3d848f29	0.06472618
4	0xc0caa49b	-6.3325934
5	0xc0a6daeb	-5.2142234
6	0x3f95eb89	1.1712505
7	0xbdea13b8	-0.11429542
8	0xbeb42b81	-0.3518944
9	0x3f992e47	1.1967248
10	0x3fc6f3f1	1.5543195
11	0x3f31dc7a	0.69477046
12	0xbda669f8	-0.08125681
13	0xc0c06b9d	-6.0131364
14	0xc07454a7	-3.8176668
15	0xbd9caaeb	-0.076497875
16	0x3c5cea77	0.013483635
17	0xc04e6ea2	-3.2255025
18	0xc003a9d0	-2.0572395
19	0xc01dce23	-2.4657066
20	0xbf58a332	-0.84624016
21	0xbf7e347e	-0.99298847
22	0xc0aad2e6	-5.3382444
23	0xc0b1b80b	-5.553716
24	0x403c9d62	2.947106
25	0xc0183353	-2.3781326
26	0x3fb5333a	1.4156258
27	0x3fe0bc9a	1.7557557
28	0x409105a8	4.5319405
29	0xbe8c2cb4	-0.27377856
30	0x3ec4e0a0	0.38452625
31	0xc0903789	-4.506779
32	0xbf5d7a6c	-0.86514926
33	0xbfea8358	-1.8321333
34	0x40467ad7	3.1012475
35	0xc02c62ba	-2.6935258
36	0xc075fa3f	-3.8433988
37	0x3f88bb63	1.0682186
38	0xbea14ad1	-0.31502393
39	0xc0108ca4	-2.258584
40	0x408fe418	4.4965935
41	0x3fada534	1.3566041
42	0x3f95e8f3	1.1711715
43	0x40f63ca3	7.694902
44	0xbf996fb9	-1.198722
45	0xc054e083	-3.326203
46	0xc0a2dbd4	-5.0893345
47	0xc0175609	-2.3646262
48	0xbe15a8c5	-0.14615162
49	0xc02160a8	-2.5215244
50	0x3fac1797	1.3444699
51	0xc0b75649	-5.729283
52	0xc0283b06	-2.6286025
53	0xbea98f23	-0.33117017
54	0xbf4dd6c2	-0.8040582
55	0xc0d8a784	-6.7704487
56	0xc05ce40b	-3.4514186
57	0xbef9cb5c	-0.48787963
58	0x3fa1abcf	1.2630557
59	0x40f38212	7.6096277
60	0xbd86093a	-0.065447286
61	0xbf65307d	-0.8952711
62	0xbeb04b98	-0.34432673
63	0xc0b835f4	-5.756586
64	0xc08796a2	-4.237138
65	0x3fe28821	1.7697793
66	0xbf38f0dd	-0.7224253
67	0xbfa417e0	-1.2819786
68	0xbe570c8b	-0.21000879
69	0xbfff2829	-1.9934131
70	0xc0603d21	-3.503731
71	0xc0a5cfde	-5.1816244
72	0xc06a8f51	-3.6649973
73	0xbfdc5372	-1.7212965
74	0xbffb55b7	-1.9635533
75	0xc0d58521	-6.672501
76	0xbfe9ea57	-1.827464
77	0xbf8e4842	-1.1115801
78	0x3ef1b838	0.4721086
79	0x41045db4	8.272877
80	0xbbc57617	-0.0060260403
81	0xbde2ca14	-0.110736996
82	0xc0403aa4	-3.0035791
83	0x3efc08f5	0.49225584
84	0x4070ab64	3.7604609
85	0x40d9a4c3	6.8013625
86	0x403a8d79	2.9148848
87	0xbf9c051e	-1.2189062
88	0x40fdbf56	7.9296064
89	0x410ec8fb	8.9240675
90	0xbf9871e0	-1.1909752
91	0x3ffa49c2	1.9553759
92	0x3fa2ca1a	1.2717927
93	0xc0033abb	-2.0504596
94	0xc05f39aa	-3.4878945
95	0xbfe20f61	-1.7660943
96	0xc08f5aa0	-4.4798126
97	0xc05eebed	-3.4831498
98	0xc04c6bb3	-3.1940734
99	0xc02541b8	-2.5821362
100	0x4107d84b	8.490306
101	0xbfb4a8eb	-1.411405
102	0xc0504a5f	-3.2545393
103	0xc0136a8b	-2.3033779
104	0xbf491f80	-0.7856369
105	0x40e9d706	7.307498
106	0xc084208a	-4.128972
107	0xc00496b6	-2.0716987
108	0x3fa632ad	1.2984215
109	0x3f1096db	0.5648019
110	0x40ea7c77	7.3276935
111	0xc024f247	-2.5772874
112	0xc0a1c8ed	-5.055777
113	0xc104c9c6	-8.299261
114	0xc0c24e98	-6.072094
115	0x3fc1884e	1.5119722
116	0x3f4c822f	0.79886144
117	0xbea2d325	-0.31801715
118	0xbfcb80cd	-1.5898682
119	0xc02b98d0	-2.681202
120	0xbf166bcb	-0.5875823
121	0xbdccb7e4	-0.09996012
122	0x40c8defd	6.2772202
123	0x40f93fed	7.7890534
124	0xbf7b19e9	-0.9808641
125	0xbf155433	-0.583316
126	0xc09cdab3	-4.9016967
127	0xc0a7b62b	-5.2409873
128	0xbff18843	-1.8869709
129	0x405bd25d	3.4347146
130	0xc06c3519	-3.6907408
131	0xc087eb8e	-4.247504
132	0xc00b3077	-2.174833
133	0xc0a124a8	-5.0357246
134	0x3f31a9b1	0.69399554
135	0xc1033360	-8.200043
136	0xbf1aafad	-0.6042431
137	0xbf963767	-1.1735657
138	0x41136f9f	9.214751
139	0x3f63f4f9	0.89045674
140	0xc061d944	-3.5288858
141	0x3e9eee4e	0.31041187
142	0x4087b297	4.2405505
143	0x3fd4acd7	1.6615247
144	0xc06b513e	-3.6768336
145	0xbf56d1cc	-0.83913875
146	0xc071bc03	-3.7771003
147	0xbed828cc	-0.42218626
148	0xc07cda33	-3.9508178
149	0xc00402b6	-2.0626655
150	0x4055e94d	3.3423645
151	0xc08584bb	-4.1724524
152	0x412ed932	10.928026
153	0xc0aad495	-5.33845
154	0xbf956377	-1.1670979
155	0x410f99a3	8.975009
156	0xbfc2e2df	-1.5225486
157	0xc0639eb5	-3.5565617
158	0x4049b991	3.151951
159	0x3fc56602	1.5421755
160	0xc0835bd4	-4.1049595
161	0xc0bfc26d	-5.9924836
162	0xc065293f	-3.5806425
163	0xc09607c3	-4.6884475
164	0x3f7a5d14	0.97798276
165	0xc0316b5a	-2.7721772
166	0xbfd3c02f	-1.6543025
167	0xc0828dbd	-4.079802
168	0xc0c98afb	-6.2982154
169	0xbf401d1e	-0.7504443
170	0xbf5a0b3a	-0.8517338
171	0xc0c8f6e0	-6.280136
172	0xc0904329	-4.5081983
173	0xc07e80a4	-3.9766016
174	0xc055ffc4	-3.3437357
175	0xbee2859a	-0.44242555
176	0xc086fcc7	-4.2183566
177	0x3fd35ad5	1.6512095
178	0x3f24b8ac	0.64344287
179	0xbfdf3907	-1.7439278
180	0xc04f3756	-3.2377524
181	0x409705e7	4.7194705
182	0x3fc4dec6	1.5380485
183	0x3fbbf20e	1.4683244
184	0xc09d2446	-4.910678
185	0x4113acb7	9.229667
186	0x3e7ad9a7	0.2449709
187	0x403a4c94	2.910924
188	0xc0bef454	-5.967325
189	0x40e8cd6f	7.2750773
190	0xc0b4ec78	-5.653866
191	0x3ff170f4	1.8862596
192	0xc08604e4	-4.188097
193	0xc005365d	-2.081443
194	0xbf87b477	-1.0601948
195	0xbfc2a772	-1.520735
196	0x410ad3bc	8.676693
197	0xbfcfd6e8	-1.6237459
198	0x405502d6	3.328298
199	0xbecd3b5d	-0.40084353
200	0xbf1e5d14	-0.61860776
201	0x3f6dbaf7	0.9286341
202	0x4086df8c	4.2147884
203	0xbfe7cf4e	-1.8110139
204	0x4058322a	3.3780618
205	0xc0a74433	-5.227075
206	0xc00445cf	-2.0667608
207	0xc0851331	-4.1585927
208	0xbd5fba2a	-0.0546209
209	0xc0e6dad2	-7.2142115
210	0xc0d744d7	-6.7271533
211	0xbf84b540	-1.0367813
212	0xc0248517	-2.5706232
213	0xc000f2bb	-2.014815
214	0xbf017b26	-0.50578535
215	0xc081c106	-4.0548124
216	0x400026dc	2.0023718
217	0x4046f948	3.108965
218	0x4114a095	9.289205
219	0x4025545a	2.5832734
220	0xbfa41144	-1.2817769
221	0xbf388356	-0.720754
222	0xc0ba20df	-5.8165126
223	0x4100946a	8.036234
224	0xc00b40e2	-2.1758351
225	0xbfb98539	-1.4493781
226	0xbff3520f	-1.9009417
227	0xbfdaf33b	-1.7105478
228	0xbf83d65a	-1.029979
229	0xc05a54a7	-3.4114168
230	0xc0ecb0fc	-7.3966045
231	0xbfeac271	-1.8340589
232	0x3ff9f458	1.9527693
233	0xbf2f60ec	-0.68507266
234	0x3dd40108	0.10351759
235	0xc0679d0b	-3.6189601
236	0xbfe7f4dc	-1.81216
237	0xbe8e69e0	-0.2781515
238	0xbf2607b9	-0.64855534
239	0xbff9c9f8	-1.9514761
240	0x40bbfc25	5.8745294
241	0xc0568983	-3.352143
242	0x40b378d8	5.6085014
243	0xbf4f043f	-0.80865854
244	0xbf5cf3f0	-0.8630972
245	0xbead32c5	-0.33827797
246	0x3ff9a794	1.9504266
247	0x3fe5c90a	1.7951977
248	0xc04bdb76	-3.1852698
249	0xc096b40f	-4.70948
250	0x408c81bc	4.3908367
251	0xbe97275c	-0.29522216
252	0xc0957b86	-4.6713285
253	0x3fc28ce5	1.5199248
254	0xbfa37b16	-1.2771938
255	0xc0833b1e	-4.1009665
