log_classic/classic_ppo_acrobot_v1_1/classic_ppo_acrobot_v1_1_s1/pyt_save/model.pt (torch_old, 42196 bytes, 11 tensors)

weight f4 [64, 6]
000000 bb 85 9a 3e dd 12 f4 3a 3a e9 83 be ee 84 d7 3d
       0.30180153 0.0018621344 -0.25763875 0.10523401
000010 82 f2 b9 be e1 13 87 3e 46 b0 3a be 75 73 ad 3e
       -0.3631783 0.26382354 -0.18231305 0.3387715
000020 75 36 8a 3c 50 e0 fe bd e8 ce f3 3d b4 2e 31 3e
       0.01687167 -0.12445128 0.119046986 0.17302972
000030 80 71 53 3e 2e c9 a4 be 1f 08 fd bd 61 d1 80 be
       0.20648766 -0.32184738 -0.123550646 -0.25159743
000040 93 14 69 bd 1b 4f 24 3e e3 31 65 3f 5e 1e 1f 3e
       -0.056904387 0.16045801 0.89529246 0.15538928
000050 fd 38 af be 39 3f 55 bf 6a 3c 98 be 8c 48 ac 38
       -0.34223166 -0.83299595 -0.29733592 8.215112e-05
000060 e1 97 e6 be 02 c8 9b 3e df 5a 81 3e 18 5d 01 3f
       -0.4503775 0.3042603 0.25264642 0.50532675
000070 dc b6 b4 be 07 fb 29 3e 9c b7 9b 3e f3 cd eb 3e
       -0.3529576 0.16599666 0.3041352 0.46055564
000080 49 66 36 3f 1b 58 23 bf c6 9e 2e bf fd be 52 be
       0.71249825 -0.63806313 -0.6821102 -0.20580669
000090 c7 a1 14 3f ec 92 76 be c8 33 92 3e 58 0e 9e bd
       0.5805935 -0.24079484 0.2855513 -0.077175796
0000a0 9f 07 21 3f 48 bf 4e 3e a2 ba 2b 3f 51 c9 b5 be
       0.62902254 0.20190156 0.67081654 -0.35505155
0000b0 ba f0 bf be b8 b9 b7 3e 80 8d 8d bd be b2 67 bd
       -0.37488347 0.3588388 -0.069117546 -0.056566946
0000c0 26 1f 2e bf 6c 00 3a be 1d f3 56 bf 03 45 d3 bd
       -0.6801628 -0.18164223 -0.8396471 -0.10315897
0000d0 cc 8f 46 3e d0 99 06 be 3d 1b f3 3e a8 81 32 3f
       0.19390792 -0.13144612 0.4748172 0.6972909
0000e0 e9 2e d0 3b 42 5d fb be 8b a3 49 3e fd 3f 2c 3e
       0.0063532484 -0.49094588 0.19691293 0.16821285
0000f0 fc 86 9d be 18 a7 ab 3e 01 42 58 3e 52 dc 16 3f
       -0.30767047 0.3352592 0.21118928 0.5892993
000100 a1 1f d7 bb bb c9 26 be c2 23 b5 3e 42 b3 88 bd
       -0.0065650498 -0.16287892 0.35378844 -0.06674816
000110 a6 d2 fb be d2 69 4e bf 13 3e 1e be 98 36 28 3e
       -0.4918415 -0.8063022 -0.15453367 0.16427076
000120 11 45 d5 3e ba 99 8d 3e 6c 81 d6 3b d5 96 e2 3c
       0.41654256 0.27656347 0.00654619 0.027659813
000130 25 19 81 3e 96 95 60 3e 0d 24 65 bf fe bc 62 3e
       0.25214496 0.21932063 -0.89508134 0.22142407
000140 27 72 54 bf 43 b0 ad 3d 92 f3 df bc 97 05 f3 bd
       -0.8298668 0.08480885 -0.027337823 -0.118663006
000150 b4 91 16 3f 50 5b 0c bf 82 d9 43 bf d2 89 bf 3e
       0.58816075 -0.5482683 -0.76503766 0.37409836
000160 3c 1a 9c 3d 38 89 38 bc 17 aa 30 3e f6 68 ca be
       0.07622191 -0.011263184 0.17252384 -0.39533204
000170 20 80 0a 3c b7 70 8e 3e 26 4e be be d3 5c dd be
       0.008453399 0.2782037 -0.37168998 -0.43234882
000180 25 55 37 3e 45 6e d3 3e 51 2d 55 be 37 05 9e bd
       0.17903574 0.41295066 -0.20818068 -0.077158384
000190 f5 55 42 3f da 20 aa bd c8 b5 84 be fb a3 ca 3e
       0.7591241 -0.08307047 -0.25919938 0.39578232
0001a0 08 ef 49 bf 4f cd d6 be d0 ed 1c 3f 6c 86 9a bd
       -0.7888036 -0.41953513 0.61300373 -0.0754517
0001b0 b7 0a 52 3f ad 6e 53 3e 9c 6c b8 3d b8 52 16 3f
       0.820476 0.20647688 0.090050906 0.5871997
0001c0 b1 21 e7 3e 6f 0d a3 be 1e f5 61 3e 6f 5b 2c 3e
       0.45142892 -0.31846187 0.22066161 0.16831754
0001d0 5f ba 0b 3f f5 8d d5 3e f1 48 20 bf a6 1f 10 3e
       0.54581255 0.41709867 -0.626113 0.14074573
0001e0 3e fd e9 be ee da c6 bd 5f 46 41 3f 1e 36 1c bf
       -0.4570102 -0.09709726 0.75498 -0.61020076
0001f0 44 e9 9f 3d 49 62 99 3c ec d3 22 bf 5c 8d 05 bf
       0.07808164 0.018723624 -0.6360462 -0.5216882
000200 ed 7c f5 3e 7f 0a 54 3f 66 ff 46 3e 4b 8e 36 bd
       0.47946873 0.82828516 0.19433364 -0.044569295
000210 28 ca 38 3f 64 03 f4 3e 58 78 c4 3e 20 10 1b 3f
       0.72183466 0.47658837 0.38373065 0.6057148
000220 ea c0 e8 3d 5a 0e ae 3c 10 33 3c bf 16 17 c1 be
       0.113649204 0.021247078 -0.73515415 -0.37712926
000230 c3 a1 8f be 38 f9 bf 3c 21 86 b6 bd d4 89 5b 3e
       -0.28053102 0.023434266 -0.08912302 0.21439296
000240 c3 04 26 bd 9f 02 3f 3e 68 72 78 3d c6 eb 92 be
       -0.040531885 0.18653344 0.06065598 -0.28695506
000250 6e 68 dd 3e d3 79 9e 3e d2 20 d7 3c a4 f5 cf 3e
       0.43243736 0.3095232 0.026260767 0.40617096
000260 b4 40 e8 3e 92 80 dc be e7 28 54 bf 62 f3 92 be
       0.45361865 -0.4306684 -0.8287491 -0.2870131
000270 1b 34 29 bf 52 43 91 be 21 90 ba 3e ae c3 92 bd
       -0.6609513 -0.28371674 0.36438087 -0.07166229
000280 3c 5c 27 be 53 bd 25 3e 41 31 d8 3e 85 f0 01 be
       -0.16343778 0.16185503 0.42225078 -0.12689407
000290 a2 99 ad be 3c 5e 1c 3f 38 43 e9 be ea aa 65 be
       -0.33906275 0.6108129 -0.45559096 -0.2242848
0002a0 b4 d7 fd be 27 3d e0 be 10 b8 87 be db b8 00 3f
       -0.4957863 -0.43796656 -0.26507616 0.5028207
0002b0 89 2d 42 3e 7c bf bd 3d 1a 43 02 3f 68 43 1e 3f
       0.18962683 0.09265038 0.5088364 0.61821604
0002c0 44 26 d0 3d 64 ac 49 be 78 55 7b be 0e d4 c0 3e
       0.101635486 -0.19694668 -0.24544322 0.37661785
0002d0 a7 3f 9c be 7f 55 c3 bd 6d d3 ba be 51 fe 0c be
       -0.30517313 -0.095377915 -0.3648943 -0.13768889
0002e0 fb e5 1d bf 9b b7 ca 3e df de 01 bf 7b 56 b2 be
       -0.6167905 0.39593205 -0.507307 -0.34831604
0002f0 af c9 24 3e 74 ee 88 be 02 57 3c 3c 22 8a e7 be
       0.16092561 -0.26744425 0.011495354 -0.45222574
000300 b1 bd e9 bd e3 37 72 3e 08 9c dd 3e 87 47 a7 be
       -0.11413134 0.23654132 0.43283105 -0.3267176
000310 b4 ce ce 3e e1 36 eb 3e 35 19 5c 3f 7b cf ed be
       0.40392077 0.45940307 0.8597596 -0.46447358
000320 77 c3 d9 3e ec ae c7 be d8 32 07 3f ad ae 43 be
       0.4253194 -0.39000642 0.52811956 -0.19109602
000330 5e ee 16 3f 4f 69 89 3c a5 b8 21 bd 15 61 e8 bc
       0.5895747 0.016773848 -0.03948273 -0.028366605
000340 48 89 ea 3d c5 b3 c6 3e 7d 79 3b 3e a6 38 bd 3e
       0.114519656 0.38809028 0.18308063 0.36957282
000350 b2 3d 61 bf 19 7c 4f bd 31 6d b0 3e a2 be 05 3f
       -0.87984765 -0.050655458 0.34458306 0.5224401
000360 00 6f 04 3f 3b ca d9 be 75 e5 9b be 91 0f 12 3f
       0.5173187 -0.42537102 -0.304485 0.57055
000370 ee 39 1e be 1c 4d 46 3e c8 e3 ff bc cf 4d 40 bf
       -0.15451786 0.19365352 -0.031236544 -0.75118726
000380 79 33 c8 3d ee 64 92 be 61 25 11 bf 51 a4 a7 3d
       0.09775443 -0.28592628 -0.5669766 0.08185638
000390 7a f7 db bd f4 10 4b 3f a9 2e 99 be 55 da f6 be
       -0.10740562 0.79322743 -0.2991841 -0.4821345
0003a0 b5 b1 de 3e b2 a5 c4 bc 1a e8 ce 3c 88 7f 15 3e
       0.43494955 -0.024004791 0.025257159 0.1459943
0003b0 88 46 04 bf 3f fb ec 3e 84 ec 5e 3d 3a e5 a2 be
       -0.5167012 0.46285436 0.054424778 -0.3181551
0003c0 84 f8 ac b8 0a 91 18 bd 66 77 f1 3e 8a d0 2e bd
       -8.247889e-05 -0.037247695 0.47161406 -0.042679347
0003d0 b2 df 0b bf 43 30 3e 3d 64 a6 84 bf d6 be be bd
       -0.54638207 0.046432745 -1.0363278 -0.09313743
0003e0 ba 73 b5 be 73 f6 8d 3e e4 38 8c 3e 6f fb 8c be
       -0.35439855 0.27727088 0.27387154 -0.2753558
0003f0 75 21 1b 3d cb 50 cc 3e c5 78 2b be 0b 24 04 bf
       0.037873704 0.3990539 -0.16745289 -0.516175

bias f4 [64]
000000 f0 a7 d8 be c7 44 f4 3e d6 a0 6f 3e a5 92 58 3e
       -0.42315626 0.47708723 0.23401198 0.2114969
000010 57 42 b1 be 6f 0c 57 be df c6 8c 3d 2d 90 6c 3e
       -0.34620926 -0.21000837 0.06873869 0.23101874
000020 3d ae 78 3d 1c 30 b5 be 07 28 f2 3e 5c 8c b9 b9
       0.06071304 -0.35388267 0.47296163 -0.00035390526
000030 1d 5b d3 3e 31 83 85 3e dd 04 05 3f 5e ee 41 3e
       0.4128045 0.26076654 0.51960546 0.18938586
000040 90 ff d9 be 11 42 76 3e 1a 0e c7 3d b7 f6 93 be
       -0.4257779 0.2404864 0.097194865 -0.28899166
000050 93 ce 42 be c8 fe e7 be dc 32 2d be 82 58 09 bf
       -0.19024114 -0.4531157 -0.16913933 -0.5365068
000060 49 ec 84 3e f1 92 59 be 8c 67 ee bd c9 39 06 3f
       0.2596152 -0.2124746 -0.11640844 0.52431923
000070 ca 2e a5 3e a5 5e ed be 11 d2 a2 3e b3 55 82 3e
       0.3226226 -0.4636127 0.31800893 0.25456008
000080 3a 67 66 be 6d 5f 00 3f 50 46 c0 be 43 d3 77 3e
       -0.22500315 0.5014561 -0.37553644 0.24201684
000090 20 9d 17 bf a3 f2 11 3f 16 27 0f 3e b4 2d 3a 3f
       -0.5922413 0.5701086 0.13979754 0.7272599
0000a0 ff 91 00 3e 1f e6 5b 3e 0f dd b9 3b 2d 0b f2 be
       0.12555693 0.21474503 0.005672104 -0.4727415
0000b0 2d 9c b3 3d de 8c 1a bd 53 ca 4c be f8 fe 58 bd
       0.087700225 -0.037731998 -0.19999056 -0.052977532
0000c0 2a 04 e0 3d 3a d4 16 3e e4 08 d4 3d f9 16 f9 be
       0.10938294 0.14729396 0.10353258 -0.4865034
0000d0 aa a4 04 3e 81 69 8b 3d 59 7b cb 3e c9 c5 da 3e
       0.1295344 0.06807233 0.39742544 0.42729023
0000e0 1b 10 b8 be e2 34 c8 3e 68 fc b5 be 4c 32 de 3e
       -0.35949787 0.39102846 -0.35544133 0.43397748
0000f0 91 b1 8b 3d 3a 0a b4 3e ae 9b 03 bf 6d 29 01 3f
       0.068209775 0.35164052 -0.51409423 0.50453836

weight f4 [64, 64]
000000 11 83 81 bd 93 d2 b7 bd 43 c7 92 3e 52 73 00 be
       -0.06323827 -0.08975711 0.2866765 -0.12543991
000010 cb bd 7d 3d c0 1c 93 3d fe aa 97 3e 07 2d 91 3e
       0.06194858 0.07183218 0.29622644 0.28354666
000020 00 06 f1 bd c4 6f 70 bc 2a 4a 34 3d cb 17 36 be
       -0.117687225 -0.0146750845 0.04401604 -0.17782514
000030 27 ed bf 3e 61 be 5d be 16 f6 5f 3e ce 5d 03 be
       0.3748562 -0.21654655 0.21871218 -0.12828752
000040 97 66 f1 bd f7 8e f0 bd d8 71 12 be 31 67 3a 3d
       -0.117871456 -0.117460184 -0.1430124 0.045508567
000050 82 4e b0 bd 6b 47 c5 3d 23 2f b7 3d 9a 93 9d bc
       -0.08608724 0.096327625 0.089445375 -0.019235421
000060 6d 10 a3 3e 9e 09 8a 3d 5d 9d 35 3e 8c a8 b4 b9
       0.3184847 0.067401156 0.1773581 -0.00034457853
000070 f3 78 92 3d 9b 5d 1c 3e a3 d1 ee 3d d0 7e bc be
       0.071519755 0.15270083 0.11661079 -0.368155
000080 6e 8e c5 3e 50 32 dd 3d 4d 63 1a 3f 3b 52 db 3e
       0.38585228 0.10800612 0.6030777 0.42836174
000090 62 6f bc 3e 1d 8d 01 3e e8 a3 30 be b8 30 2f bd
       0.36803728 0.12651487 -0.17250025 -0.04277107
0000a0 47 fa 32 3e 4e 8c 1d 3d 96 df 9b 3e af 57 a7 3e
       0.17478286 0.038463883 0.3044402 0.32684085
0000b0 98 95 2d 3e e6 86 bc ba 98 63 26 3c 03 fb 5a 3e
       0.16951597 -0.0014383465 0.010155581 0.21384816
0000c0 41 03 b8 3e 1a 21 a5 be 06 53 eb be 6c 40 d7 bd
       0.35939983 -0.32251817 -0.4596178 -0.10510334
0000d0 bb bd 33 bd b9 eb a4 be 96 8f 9a be 30 23 e5 bd
       -0.043882113 -0.32211092 -0.30187672 -0.11188352
0000e0 65 0a 02 bf 94 c2 85 be c8 67 91 be 3c 56 03 be
       -0.5079711 -0.26125014 -0.2839949 -0.12825865
0000f0 bd 6c f6 3d 41 f7 86 3d 45 34 d2 3d 54 9b 38 3e
       0.12032459 0.06590129 0.10263876 0.18028003
000100 3c 47 62 be ff 37 90 3e 93 85 9a 3e 81 f6 19 bf
       -0.22097486 0.28167722 0.30180034 -0.6014176
000110 93 02 a2 bd 54 96 0c bf 84 e0 ff 3d ab dc 4f 3e
       -0.07910647 -0.5491688 0.12493995 0.20299022
000120 57 95 42 3d 65 24 df be 91 33 68 3e 21 35 95 be
       0.047505703 -0.43582454 0.22675921 -0.29142097
000130 ff 42 92 bc 52 bc 2c bd b6 62 0a 3f aa 1f d0 3d
       -0.017854212 -0.042171784 0.5405687 0.101622894
000140 5c 06 ad be 8b 19 45 3d 05 38 46 3c b2 1d bb be
       -0.33793914 0.048120063 0.012098317 -0.36546093
000150 66 db 55 be 2e 5b 0f 3e c6 00 05 be 14 74 1b 3c
       -0.20884475 0.13999626 -0.12988576 0.009488124
000160 36 0f 35 3e 1c 15 d1 be 0a 61 6b 3c 5d a7 69 3e
       0.17681584 -0.40836418 0.014366398 0.2281775
000170 bf c9 48 3f ae c9 e6 be 3d fd 2c bb 36 d5 28 3e
       0.7843284 -0.45075744 -0.002639606 0.16487584
000180 35 49 1d be 8c 58 0e 3e f4 82 83 be a4 96 8a 3d
       -0.15359958 0.13900965 -0.25685847 0.06767014
000190 cd b0 b4 bd 07 d6 c1 3e 47 86 49 be 90 19 11 3e
       -0.088227846 0.37858602 -0.19680129 0.14169908
0001a0 be 66 3b bd cd 56 63 3e 5b 83 27 be bb f9 31 bd
       -0.04575228 0.2220108 -0.16358702 -0.043451052
0001b0 9a 93 81 3e f2 3b aa bd 55 2a f3 3d 83 3b 8e be
       0.25307924 -0.08312215 0.118733086 -0.2777978
0001c0 41 7f ba bd 6f a9 ec 3c 5d f4 e2 3d 1c e2 9b be
       -0.09106303 0.028889386 0.11081765 -0.30445945
0001d0 30 d8 1b 3d 7d e3 04 be 64 96 db bd 00 40 6d be
       0.03804797 -0.12977405 -0.10722044 -0.23168945
0001e0 6e d4 4f 3e a3 d9 0f be aa 51 a0 bd 3d f8 1e bd
       0.20295879 -0.14047866 -0.07828076 -0.038810957
0001f0 01 f9 b7 3e 01 c7 81 3e 3b 54 43 be 15 9c ee bc
       0.35932162 0.2534714 -0.190751 -0.02912716
000200 7a 84 62 3e 8c 19 5e be e9 6f 83 3e 09 6b 3d be
       0.22120848 -0.21689433 0.25671318 -0.18497862
000210 0c 07 ac 3e 67 67 b3 bd c0 6e fe 3d 82 0c 39 3d
       0.33599126 -0.08759957 0.12423468 0.045177944
000220 55 82 6b be ad d2 26 be df 61 b5 be 0d 0b d8 3d
       -0.22998936 -0.16291304 -0.35426232 0.10548983
000230 13 ac 0f bd 8e c4 8c be 54 24 c5 bd 90 55 ae 3e
       -0.035076212 -0.2749371 -0.0962607 0.34049654
000240 3b 36 1a be 62 c6 be be 95 9f a4 be 04 d7 f2 3e
       -0.1505975 -0.3726073 -0.32153 0.4742967
000250 1f e3 ac 3d 2a 68 01 3e 52 9b eb bc ce 93 98 3e
       0.084417574 0.12637392 -0.028760586 0.29800266
000260 2a 15 3b bd f3 c7 67 be e9 18 c3 3e d9 fa 16 3d
       -0.04567448 -0.22634868 0.38104942 0.03686032
000270 00 15 27 3d ef 7e 2b bd dd 12 a9 3e bf f8 65 3e
       0.04079151 -0.0418691 0.33022204 0.2245817
000280 18 fd 88 be 5e b6 d5 bd 9a de bc bc 31 71 4a be
       -0.26755595 -0.104351744 -0.023055363 -0.19769742
000290 19 34 65 3d 15 08 95 3e d8 fb c8 be 58 ed cf bd
       0.055957887 0.2910773 -0.39254642 -0.101526916
0002a0 9e 55 ba 3e 5d 3f 25 be 33 12 73 be 07 ab 2c 3e
       0.36393446 -0.16137452 -0.23737411 0.16862117
0002b0 1f f5 68 3d 69 0d aa 3e a8 7d bd 3d 35 68 02 3d
       0.05687439 0.33213356 0.09252483 0.03183766
0002c0 99 3a 5f be 0f 92 bd 3e 44 b8 3a 3e 2e 83 e9 3d
       -0.21799697 0.37025496 0.18234354 0.11401974
0002d0 e0 2a 3c 3e 58 f9 15 3e 41 20 3e 3e 62 bd 65 bd
       0.1837573 0.14645898 0.18566991 -0.056088813
0002e0 85 a9 48 3e f7 4c b7 be e5 45 0c 3e 7c 1f e7 bd
       0.19595917 -0.35800907 0.13698538 -0.11285302
0002f0 b3 eb 86 3d 4c c5 88 3e 7f f0 b6 3d 7c 67 70 be
       0.06587925 0.26713026 0.0893259 -0.23476976
000300 10 d4 5a bc d0 4c ba bd 7c b4 3b 3d 27 d4 54 be
       -0.013356224 -0.09096682 0.04582642 -0.20784055
000310 75 97 6e 3d d3 22 a0 3e 7d 0b e7 bc 73 b1 9c 3e
       0.05824991 0.3127657 -0.02820372 0.30604133
000320 e0 f5 f7 bd c1 73 c5 be 4b 50 01 3e 31 8c 47 be
       -0.12107444 -0.38564876 0.12628286 -0.19487073
000330 a1 6d 8d ba 32 b1 6b 3d 3d 6b 93 3d 93 90 44 3d
       -0.0010790118 0.057542033 0.071981885 0.04798944
000340 a7 51 66 be 26 2a 01 be 2c cd 95 3d d6 31 59 3e
       -0.22492085 -0.12613735 0.07314524 0.21210417
000350 c5 7b 4b be 8d b1 ef 3e 0f 7e 96 bd e3 d2 84 be
       -0.19871433 0.46815148 -0.073482625 -0.25942144
000360 8a 33 22 3e b9 34 c2 3d a0 12 1f 3d f0 82 d2 3d
       0.15839973 0.09482712 0.03883612 0.102788806
000370 93 5f f8 bd c2 68 b6 bd c1 8d cb 3d 87 60 f6 3b
       -0.12127604 -0.089067 0.09939147 0.007518831
000380 13 98 41 be 56 ee 61 3e 32 67 94 bb 8d 72 51 3e
       -0.18905668 0.22063574 -0.0045289034 0.20453854
000390 78 cb 65 3d d6 a1 04 bc c8 ae 2e be 09 b1 c2 3c
       0.056102246 -0.008095225 -0.17058861 0.023766058
0003a0 b8 3b 91 3e a9 1d c8 3d 39 8f e2 bc 63 9a b1 3d
       0.28365874 0.09771282 -0.027656185 0.08672025
0003b0 82 d5 f7 3c 17 be 47 3e 81 28 08 be 29 1f a8 3c
       0.030253176 0.19506107 -0.13296701 0.02052267
0003c0 c4 bd ad 3c 7a c3 94 bc 55 01 fc 3d 65 87 e4 bd
       0.021208651 -0.018159617 0.123049416 -0.11158637
0003d0 bd ed 5d be 56 2a 25 bd eb d5 5e bd dc 10 0c be
       -0.21672721 -0.040323578 -0.054403227 -0.13678306
0003e0 45 ac 2b bc 0d be 53 bd 18 27 05 bd 94 97 91 3e
       -0.010478084 -0.05169492 -0.032507986 0.28435957
0003f0 2f 18 12 be 82 76 6c 3d f8 e6 3c bd 0f e0 03 3e
       -0.14267038 0.057730205 -0.046118706 0.1287844

bias f4 [64]
000000 f1 72 2f bd 9f 82 b7 3e 3e 45 4c be 0e 11 e7 3d
       -0.042834226 0.35841843 -0.19948289 0.1128255
000010 64 19 c6 3e 71 7d 76 3d 9a e6 2c 3e 06 7f 21 be
       0.38691247 0.060178224 0.16884843 -0.15771112
000020 82 de 49 be 7f 7e 92 3e 6f 75 8d 3d 42 95 04 bd
       -0.19713786 0.28612134 0.06907164 -0.032368906
000030 e1 dc 70 bd 47 8f 40 bd a0 eb ad bc 0f 10 4a 3e
       -0.058804397 -0.04701164 -0.021230519 0.19732688
000040 72 2f a0 bd b4 76 a7 3d 5c 3a 37 3e e3 e7 1f 3e
       -0.078215495 0.08176938 0.17893356 0.15615802
000050 19 31 17 3c b7 5c 35 3e c9 2b 31 3d d2 1c 53 3e
       0.009228014 0.17711149 0.043254647 0.20616463
000060 fc 51 a6 3e 43 ca 63 3d 64 c6 26 be a8 1e c6 bd
       0.32484424 0.055612814 -0.16286618 -0.09673816
000070 65 41 09 3e 63 20 ac 3d b9 61 ed bd 59 11 8d bd
       0.13403852 0.08404615 -0.11590905 -0.068880744
000080 45 6a c4 3c 3c 37 8d be c9 0a 4a bd 8c f9 81 bd
       0.023976455 -0.27581203 -0.04932669 -0.063464254
000090 a0 12 1a 3d 22 af 43 bd ce 5c 87 3e d0 44 8f bd
       0.03761542 -0.04777444 0.26437992 -0.06995547
0000a0 01 64 62 bd 95 15 40 3e e2 72 f2 bd 12 d3 4a bd
       -0.055271152 0.18758233 -0.118383184 -0.0495177
0000b0 5a 68 79 3d 1d 39 32 3e d7 65 25 be 30 e2 8a 3d
       0.060890533 0.174046 -0.1615213 0.06781423
0000c0 77 94 6d 3d 9d d6 4f be 76 03 88 3c d2 44 2a bc
       0.058002915 -0.20296712 0.016603213 -0.010392385
0000d0 56 db 15 be 7b 19 cb 3d 82 5c 5d 3c 05 9b 44 be
       -0.14634451 0.099169694 0.013510825 -0.1919976
0000e0 b3 bd 84 be 8d 8a 3d be 24 91 bb 3d 9a 5b 20 bd
       -0.2592598 -0.18509884 0.09158543 -0.039149858
0000f0 39 71 07 3e 49 aa 17 bd 3e 85 f7 3e bc 48 50 3d
       0.13226785 -0.03702763 0.48343843 0.050850615

weight f4 [3, 64]
000000 f3 c2 8e be 26 66 23 3f 8e e6 02 3f ff 0e 15 be
       -0.2788311 0.6382774 0.5113305 -0.14556502
000010 b3 8b 89 3e 27 44 e8 3e b4 f2 05 3f 4f 2c 07 bf
       0.26864395 0.45364496 0.5232346 -0.52801985
000020 4b 0e e6 3e c0 54 0a 3f 39 25 86 3e 39 05 86 3e
       0.4493278 0.5403557 0.26200274 0.2617586
000030 2f 0f 0a 3f 20 2b 29 be f3 09 ab be 70 1d e9 3e
       0.5392942 -0.16520357 -0.33406028 0.45530272
000040 83 8b a9 3e 64 89 c0 3e a6 71 b8 3e 75 c8 38 3e
       0.33114251 0.3760482 0.36024207 0.18045218
000050 b1 73 59 bd fa 88 69 3e 51 07 da be 11 65 af bd
       -0.053088848 0.22806159 -0.42583707 -0.08564199
000060 01 16 b2 3e 9d 13 02 3f 01 ef b1 bc c2 8a 1c 3e
       0.34782413 0.5081118 -0.021720411 0.15287307
000070 16 90 09 bf ce 3a d0 3d 6f 6b 89 be cf 72 d0 bd
       -0.5373548 0.10167466 -0.26839778 -0.10178148
000080 5a 27 d1 be 9e 0b 6a be 4d 76 02 3e 61 ff 08 bf
       -0.40850335 -0.22855994 0.1274044 -0.5351468
000090 41 b1 d0 be 61 b9 cd be 77 34 05 3f 7c 5f d1 3e
       -0.40760234 -0.40180495 0.5203318 0.4089316
0000a0 7c 19 d1 be 2a 13 eb be c1 d1 10 3f 89 24 b2 3e
       -0.40839756 -0.4591306 0.5657006 0.347935
0000b0 26 c1 e6 3e b3 97 ce 3e fa 71 ed be ac e8 bb bd
       0.45069236 0.40350112 -0.4637602 -0.09175238
0000c0 5c a0 12 3f ed 26 55 bd a8 aa 41 3f 9b 79 fc 3e
       0.5727594 -0.052039076 0.75651026 0.49311528
0000d0 44 c6 8e be 23 5c ec 3e 64 9d 81 be b7 62 df be
       -0.2788564 0.46164045 -0.25315392 -0.4363
0000e0 62 88 c6 be 76 77 95 3e 1c 8a d8 be 6f 3a 41 3e
       -0.38775927 0.29192704 -0.4229287 0.18869947
0000f0 65 36 f5 3e 3a 7e 06 bf 0c 46 1d 3f c6 e3 46 3e
       0.47893062 -0.52536356 0.6143501 0.19422826
000100 5d ab 48 3c 95 f8 cd be 8b a4 61 be 43 2f 80 be
       0.012247887 -0.40228716 -0.22035424 -0.25036058
000110 6e 99 9e 3e 09 1f 1a be 6c 53 00 3e 1a 15 e4 be
       0.30976433 -0.15050901 0.12531823 -0.4454735
000120 a9 b9 32 3e 7a 5d 9c be ba 3d 03 bf 98 36 28 bf
       0.17453636 -0.30540067 -0.5126606 -0.65708303
000130 2c 9d 12 be 2c 53 10 bf ee 53 ec 3d 54 4d 91 be
       -0.14317769 -0.5637691 0.11539446 -0.2837931
000140 44 89 d5 3d b8 4f a1 3e cd 32 2a 3e 7a dc e1 be
       0.10426572 0.31506133 0.16620941 -0.44113523
000150 20 01 5b be 6d 8b d8 be 3f 87 d8 bd 9a a7 3b 3f
       -0.21387148 -0.42293873 -0.10572671 0.73302615
000160 17 89 89 3d 44 b0 8e 3e 9c 69 bd 3e 6f 5f ca 3e
       0.06715601 0.27868855 0.36994636 0.39525935
000170 a2 45 ff 3b f2 6c 98 be 9c aa 09 3d 8d f9 00 bf
       0.0077902833 -0.2977062 0.03360997 -0.50380784
000180 71 07 df 3d 3c 36 55 3e 73 86 53 be e7 ef 82 be
       0.10890091 0.2082147 -0.20656757 -0.25573656
000190 c3 8c 1a 3e cb 98 cf bd c2 40 97 be d4 e9 00 be
       0.15092759 -0.10136565 -0.29541594 -0.12589198
0001a0 c6 06 43 bd 15 51 0c 3e f6 78 0c 3e f8 26 71 3e
       -0.04761388 0.13702805 0.13718018 0.23550022
0001b0 19 00 ee 3d e0 0a ba 3e 5b 87 60 3e 66 35 b7 be
       0.116211124 0.36336422 0.21926634 -0.35782927
0001c0 58 38 89 3e 20 8b 01 3f 73 ad e9 3d 1c d5 e9 3c
       0.268008 0.5060291 0.11410036 0.028544001
0001d0 1a 54 e8 3e da c2 b2 be e3 1c b7 3e 71 68 53 be
       0.45376664 -0.34914285 0.35764226 -0.2064531
0001e0 55 04 b8 3d f5 a7 50 be d2 09 7c be 65 a8 e4 3e
       0.08985201 -0.2037657 -0.24613121 0.44659725
0001f0 09 e3 be be c9 ba 78 be 79 7a 3a 3e 1e cd 94 3e
       -0.3728259 -0.24290003 0.18210782 0.29062742
000200 0e 72 e2 3e 38 0a 9f be d6 c6 99 be dc dd e4 3e
       0.44227642 -0.31062484 -0.30034512 0.44700515
000210 f3 38 e7 be ad 37 9b be 9d a7 69 bf 37 31 61 3f
       -0.45160636 -0.30315915 -0.9127138 0.8796572
000220 e4 51 f8 be 20 21 80 3c 4d 66 85 bd 92 1c bb 3e
       -0.48499978 0.015640795 -0.06513653 0.36545235
000230 3a fd b2 be 28 55 03 3f e3 9f bd 3e 9d db a8 3d
       -0.34958822 0.51301813 0.37036046 0.08245013
000240 7d 8f fe be 27 cc 11 bf 09 01 06 bf 82 8e 47 3e
       -0.49718848 -0.56952137 -0.5234533 0.19487956
000250 7a 0c c5 3e a6 d3 97 3e 3e ea 85 3e b1 e9 d0 be
       0.3848608 0.29653662 0.26155275 -0.40803292
000260 d5 1f d2 be f4 52 31 bf b7 ae b9 be 94 ac b2 be
       -0.4103991 -0.692672 -0.3626611 -0.34897292
000270 ff b8 cf 3e cd 05 99 3e bc 55 de 3e 7a cb 2d 3f
       0.40570828 0.29887238 0.43424785 0.67888606
000280 52 38 9f 3e 52 84 1d 3d 30 5a 56 3e 4b 19 63 3f
       0.31097656 0.03845627 0.20932841 0.8871047
000290 64 76 c6 3e 27 21 fa 3e 4f 61 97 be 0d 20 68 be
       0.387622 0.48853418 -0.29566428 -0.22668476
0002a0 da 93 0e 3e e2 72 8e 3e 91 2d 19 bf 0a 64 32 bf
       0.13923588 0.27822024 -0.59835154 -0.696839
0002b0 80 28 ce be 38 29 5e bf 52 fe 7a 3e 75 87 e5 3e
       -0.40265274 -0.86781645 0.24511078 0.44829908
0002c0 f1 0a 2e bf 37 f9 b8 be 01 01 28 bf 14 65 ea be
       -0.67985445 -0.36127636 -0.6562653 -0.4578024
0002d0 6f c2 ca bc 28 1e 30 bd dd 7a 31 be 1c f5 44 3f
       -0.024750916 -0.04299751 -0.17332025 0.7693651
0002e0 0a 84 99 3e 26 8b a0 be a2 9a 2d 3f 60 79 c1 be
       0.2998355 -0.31356162 0.67814076 -0.37787914
0002f0 81 ac 96 be 41 33 72 3f fd 9d 2b bf 71 77 ae be
       -0.29428485 0.9460946 -0.67037946 -0.34075502

bias f4 [3]
000000 41 d5 4a 3e 09 86 ab 3d ff d6 8a bc
       0.19807912 0.083751746 -0.016948221

weight f4 [64, 6]
000000 15 11 3b bf b8 26 54 3e c1 5e 87 3e 17 57 1f bd
       -0.7307294 0.20717895 0.2643948 -0.038901415
000010 42 30 58 3f b7 27 48 3e 72 ec 17 3f 89 e7 29 3e
       0.84448636 0.195464 0.5934516 0.1659223
000020 f4 0b 55 bf 10 41 d3 bf b6 c0 87 3e 72 39 25 be
       -0.83221364 -1.650423 0.26514214 -0.16135195
000030 cd 7a c0 be 43 6c b8 3e eb 50 ad bf 89 af be bf
       -0.3759369 0.36020097 -1.3540319 -1.4897319
000040 52 40 0e be 16 b2 87 3e b7 94 b4 3e a0 e8 07 bf
       -0.13891724 0.26503056 0.3526971 -0.5308933
000050 b7 4c 71 3e ea aa 8c be 22 31 34 bf 37 90 51 be
       0.2356442 -0.27474147 -0.7038747 -0.2046517
000060 fc 5e 9d 3d 3b db 94 be cb c9 de 3f 5b 64 dd be
       0.076841325 -0.2907351 1.7405332 -0.43240628
000070 9d 70 59 3f ab 98 21 3e d5 34 3f 3f 8b 48 a9 bf
       0.8493746 0.15780894 0.7468999 -1.3225263
000080 99 44 18 be e6 e1 80 bf d5 b6 ee be 15 81 48 3e
       -0.14869918 -1.0068939 -0.46623865 0.19580491
000090 f7 6d 20 3f b0 a5 e4 3d 68 da 69 be ea 8a 28 bf
       0.62667793 0.11164415 -0.22837222 -0.65836966
0000a0 79 24 36 3f c1 a7 11 3e a6 93 62 bf dd 06 82 be
       0.711494 0.1422415 -0.88506544 -0.2539586
0000b0 04 00 b0 bf 69 fe 55 bd 5b 51 ec 3e fa ae c5 3c
       -1.3750005 -0.052244578 0.4615582 0.024131287
0000c0 0e 7b 8d 3f d1 1f dc be 22 0e 7b 3f 09 fa c4 bd
       1.1053178 -0.42993024 0.9806844 -0.09618003
0000d0 c6 ea 0c 3f 73 eb 07 be 61 15 1c bf 92 ba d8 3f
       0.55045736 -0.1327341 -0.6097012 1.6931937
0000e0 cf b4 45 3e 84 f7 52 3f 19 39 d3 3e 18 b9 7c 3d
       0.19307254 0.8240893 0.412545 0.061699957
0000f0 f1 08 ca 3e a8 d8 c0 3f a2 b4 2e bf d0 93 b3 bf
       0.39459947 1.5066118 -0.68244374 -1.4029484
000100 e5 94 4f 3f a6 9b e3 3e 07 ca 27 bf 31 83 3b 3f
       0.8108657 0.44454688 -0.65542644 0.7324706
000110 e0 a4 c8 3c 5f cb 14 bf da ee 7d bf 7c eb 29 bf
       0.024492681 -0.5812282 -0.99192584 -0.66374946
000120 c0 ec df 3f ff a8 d4 3e 0a 0c 66 be 46 ba 1c 3f
       1.7494125 0.41535184 -0.2246553 0.6122173
000130 fb 6d 9f 3e 00 fc 5a 3e 5f 5a a0 be ae ff c3 bf
       0.31138596 0.21385193 -0.31318948 -1.5312402
000140 b4 85 8c bf 46 07 8b bd d9 14 86 3e d0 97 3e 3d
       -1.0978303 -0.06788497 0.2618778 0.0465315
000150 87 16 8b bf 98 56 bf 3e dc 09 4d bf 26 a6 46 be
       -1.086625 0.37370753 -0.8009317 -0.19399318
000160 57 02 59 be a9 70 af bd 94 a9 2b bf 0f 6c 8c bf
       -0.21192299 -0.0856641 -0.6705563 -1.0970477
000170 5f 8a d8 3d 18 ad 2b bf 5c 3f 0f 3f 03 6c 03 3d
       0.10573267 -0.67060995 0.55956054 0.03208543
000180 a3 2a 0f 3f 3d fe e3 3f a6 f0 02 3e 2c 87 b4 3f
       0.55924433 1.7811962 0.12787113 1.4103751
000190 be 52 f8 3e 83 24 27 be db c2 3e bf 65 b1 3c 3e
       0.48500627 -0.16322522 -0.74516076 0.18427046
0001a0 48 48 e7 bf f7 cb fd 3e 5b 2c 1d 3f 0c 9a 18 3f
       -1.8068933 0.49569675 0.61395806 0.59610057
0001b0 63 a2 98 3f 05 7f ca 3e 8f 1a 6f be 26 39 ef 3e
       1.1924556 0.39550033 -0.23349975 0.46723288
0001c0 0a 01 d3 be cb 78 d7 3c 7a 30 12 be 25 79 e1 3f
       -0.4121173 0.026302716 -0.14276305 1.7615095
0001d0 72 69 5b 3f 7a bc c2 3e ed 41 d7 3e 29 ff 9d 3c
       0.8570777 0.3803442 0.42042485 0.019286709
0001e0 2b 0f 1a bf 45 8c c5 3f 57 4a dd 3e 8e 39 fd 3e
       -0.60179394 1.5433432 0.4322078 0.49457973
0001f0 09 94 60 3f 51 8c d9 3e 3d 3b c4 be 7f 34 f0 be
       0.87725884 0.42489865 -0.38326445 -0.4691505
000200 04 91 ce bf 31 2b f1 3e 6c 54 1c bf 9c 37 5d 3d
       -1.6138005 0.47103265 -0.6106632 0.05400811
000210 2f 83 de bf 28 f2 d6 3d bd d4 ae bf 55 db 9e 3e
       -1.7383784 0.104954064 -1.3658673 0.31026712
000220 78 cb 06 bf eb df 2c bf 04 ea 3d 3f 74 cc 74 3f
       -0.5265422 -0.6752917 0.74185205 0.9562447
000230 82 26 c5 be 00 9c 6d bf db 75 cb 3e a4 ec d9 be
       -0.38505942 -0.9281616 0.39738354 -0.42563355
000240 38 25 f8 be f0 c8 66 3c 63 95 e1 bf d2 c3 8a 3d
       -0.48465896 0.014085993 -1.7623714 0.06775631
000250 c4 e4 d8 3c 49 d8 91 3e d4 0f 64 3f f9 85 85 be
       0.026476271 0.28485325 0.8908665 -0.26078776
000260 f5 76 20 bf d8 76 08 3e bc 96 43 bf 17 a4 e8 be
       -0.62681514 0.13326585 -0.7640188 -0.4543769
000270 23 a7 4d bf ef 1d 9c 3f 0f ec 17 bf 1c 9f 64 3f
       -0.80333155 1.2196635 -0.5934457 0.8930528
000280 14 2a 35 bf 86 9a 28 3d d0 28 3b 3f e0 b3 d9 be
       -0.7076733 0.04116299 0.7310915 -0.42520046
000290 55 5b 61 bf 70 80 a3 be 08 ff b2 be dd 5a bb be
       -0.88029987 -0.31933928 -0.34960198 -0.3659276
0002a0 df e7 84 3d b1 61 ee bf d6 e7 2b bd 9f 53 bd bf
       0.064895384 -1.8623563 -0.041969143 -1.4791144
0002b0 25 64 8b 3d 4e d7 c6 3c e1 b3 07 bf 7b ef c3 bf
       0.068062104 0.024272587 -0.5300885 -1.5307459
0002c0 87 80 3d bf bb f9 2c bf 92 32 95 be e9 42 59 3c
       -0.7402424 -0.6756856 -0.29140145 0.0132605815
0002d0 21 f9 a4 be 0d 62 ec bf a3 ab 28 bf c7 34 98 bf
       -0.3222132 -1.8467423 -0.65886897 -1.1891106
0002e0 8c 11 b4 bc 82 65 1c 3d 06 0f 86 3f 54 15 fa be
       -0.021981023 0.038182743 1.0473335 -0.48844397
0002f0 0c ac 35 bd 3a 4c c4 bf c7 37 b0 be 1f 56 b8 3e
       -0.04435353 -1.5335763 -0.34417555 0.36003205
000300 07 fe 58 bf 98 99 7f bf c3 3e 50 3f 18 91 22 40
       -0.84762615 -0.9984374 0.81345767 2.5401058
000310 9c 6c 3e be ae a2 f0 be 0a a3 b6 3d c4 90 80 bd
       -0.18596119 -0.46999115 0.08917816 -0.06277612
000320 1f 56 8f 3f f9 ef 82 bf 60 93 0d 3f b6 05 1f 3e
       1.1198157 -1.0229484 0.55303 0.15529522
000330 69 f8 c7 3e 68 b6 20 3f 70 2b 57 3f a4 56 71 3f
       0.3905671 0.6277833 0.84050655 0.9427283
000340 48 e2 57 bf 18 4d 19 be ca b7 70 3f ac 01 5d 3f
       -0.8432965 -0.14970815 0.9403044 0.86330676
000350 08 be 07 3f 4b 62 80 be d6 fd 72 3f 50 80 20 3f
       0.5302434 -0.25074992 0.9491857 0.6269579
000360 fc 67 5a bf 8d dc d2 3f 25 e2 5c 3e ba 2a a2 3f
       -0.8531492 1.6473557 0.21570642 1.2669289
000370 1e 28 59 bd 51 76 fa 3e 15 09 b6 3c 70 54 b1 bf
       -0.053016774 0.48918393 0.022221128 -1.3853893
000380 43 98 5d 3f b7 60 8f 3f ff ed 18 3f 2d 4a ef 3d
       0.8656046 1.120139 0.59738153 0.1168407
000390 d7 79 69 3e c2 6f 1e 40 8c 9e 9b bf 82 7a 4a 3f
       0.22800384 2.4755712 -1.215776 0.7909318
0003a0 fa 4c 13 bf 3c d1 1c 3c 81 37 47 3f 65 21 81 bf
       -0.5753933 0.00957137 0.7781907 -1.0088316
0003b0 ee 44 0e 3e f0 69 28 40 e7 1f ac 3e 19 6a 2e bf
       0.13893482 2.631466 0.3361809 -0.6813064
0003c0 bd 27 90 be cc 78 ac bf 5e 73 5a 3e e0 fa de bf
       -0.28155318 -1.3474364 0.21333072 -1.7420311
0003d0 9f 08 c4 3c af d9 99 bc b4 58 17 3d 9d f7 19 c0
       0.023929892 -0.018780557 0.03694983 -2.405738
0003e0 f1 3d 3c bf 68 a6 f2 3f b6 e5 20 3e 34 de 3c bf
       -0.73532015 1.8957033 0.15712628 -0.73776555
0003f0 07 a4 2e 3e a7 58 04 3f 73 98 43 3f 1a 0a 15 be
       0.17054759 0.5169777 0.76404494 -0.14554635

bias f4 [64]
000000 a3 c6 1f bf 34 0f 03 3f 78 5f 71 3e 76 08 5c 3f
       -0.6241247 0.51195073 0.23571575 0.8595041
000010 a1 8a 93 be c2 78 51 3f 93 81 e5 3e 3b e0 c8 3e
       -0.28816703 0.81824887 0.4482542 0.39233574
000020 d8 06 37 3f 3a f6 35 bf 5e e3 07 bf a2 5c 83 bc
       0.7149482 -0.71078837 -0.5308131 -0.016035382
000030 30 56 77 be b7 d1 41 3f 7e b1 2c 3f 77 f6 a2 be
       -0.24153972 0.75710624 0.6745833 -0.31828663
000040 06 aa 3e 3f 20 bb b2 be 99 fe b2 be 56 9a 2b bf
       0.74478185 -0.3490839 -0.34959868 -0.6703237
000050 c2 12 ba 3e 39 ad b5 bd 96 32 70 3e a3 ac 6f 3f
       0.36342436 -0.0887093 0.23456797 0.936228
000060 43 1b 96 bf 11 95 29 3d 23 ba 47 be 34 8d 81 bf
       -1.172707 0.041401926 -0.195046 -1.0121217
000070 78 e7 65 bf 8f 97 83 bf 2b 15 3c bf c2 9f e0 3e
       -0.8980632 -1.0280627 -0.734698 0.43871886
000080 c5 67 30 3f e3 c4 3e bf e6 be fc 3d e2 25 1c 3f
       0.6890834 -0.74519175 0.123410985 0.60995305
000090 2b da 59 be ef a0 f8 be a4 a1 dd 3e 02 93 d2 be
       -0.2127463 -0.48560283 0.43287385 -0.41127783
0000a0 b9 17 82 3f 70 82 b6 3e 4d 4d 04 3f 55 fb 56 3f
       1.016349 0.3564639 0.5168045 0.8397725
0000b0 39 ce b9 be 42 7c d1 be 06 5d 49 bf eb 53 ff be
       -0.36290148 -0.40915114 -0.7865757 -0.49868712
0000c0 da 8b 1e bf 2f 97 05 bf 1d 7c 37 be 02 01 d7 3e
       -0.61932147 -0.5218381 -0.17918439 0.41992956
0000d0 6c d4 c7 be 66 1d b3 be 4a b9 9c 3e 89 45 97 3e
       -0.39029253 -0.34983367 0.30610114 0.2954524
0000e0 33 52 18 3f 45 8b e1 3e 02 eb 5d be a7 e4 54 3f
       0.59500426 0.44051567 -0.2167168 0.83161396
0000f0 11 6f 61 bf 7c 64 1b bf db ae 30 3f 9d cd b1 bf
       -0.880601 -0.607002 0.6901681 -1.3890873

weight f4 [64, 64]
000000 c3 91 17 bf ca 4d f8 3e 2b 83 03 3f d8 3a b4 3e
       -0.5920679 0.48496848 0.5137202 0.35201144
000010 62 bc f0 bb fa 7f 98 bd 67 c3 04 be 6c b8 c5 be
       -0.0073466757 -0.074462846 -0.12965165 -0.38617265
000020 19 61 58 3e 8d c6 28 3e 3c 5e 00 be f8 40 3e 3f
       0.2113079 0.16481991 -0.12535948 0.74317884
000030 25 e1 33 bf 69 28 3a bf 8c 27 4f be 26 05 06 bf
       -0.7026542 -0.7271791 -0.2022993 -0.52351606
000040 b2 65 61 3f 31 ef b4 bf 79 b9 22 3f 09 dd 4a be
       0.880458 -1.4135495 0.6356426 -0.1981088
000050 06 d3 56 bf 54 ce 0f 3f db da c4 3f c9 3c ab 3e
       -0.83915746 0.56174207 1.5379289 0.33444813
000060 32 a4 3d bd ee 04 81 3f b0 7d f6 be 9a fb 12 3e
       -0.046299167 1.007963 -0.48142767 0.14353791
000070 d9 2a 4c bf 69 de 2c be 0c fe a4 be cb 84 c5 bc
       -0.7975288 -0.16881718 -0.32225072 -0.024111172
000080 25 76 67 be 47 2a 0d 3f 70 c9 a4 3d 94 3b 19 bf
       -0.22603662 0.55142635 0.08046234 -0.59856534
000090 3a cc 3b bf c4 23 97 be ae 20 85 3f 69 d9 1c 3e
       -0.733585 -0.29519475 1.0400598 0.1531731
0000a0 a3 50 2d 3f 9d 23 b2 3e 34 04 6c bd 09 d2 5b 3d
       0.67701167 0.34792796 -0.057621196 0.053667102
0000b0 b0 88 14 3e 87 22 43 be b2 a0 2a bd 0a dd e0 be
       0.14505267 -0.1905614 -0.041657157 -0.4391864
0000c0 b8 31 90 3e 6d d8 91 3d b9 6b ff 3d f1 75 26 3f
       0.28162932 0.07121358 0.12471718 0.65023714
0000d0 05 e7 f8 3e b6 d8 cd be c0 20 3f bf 71 c7 6b bd
       0.48613754 -0.402044 -0.7465935 -0.05756325
0000e0 e9 d5 04 3f 04 3c 1a 3e 18 5e 08 be c7 70 96 be
       0.518889 0.15061957 -0.13317144 -0.29382917
0000f0 75 7a d1 bd 6b 01 72 bd 4d d0 98 3e 24 38 02 be
       -0.10228435 -0.059083384 0.2984642 -0.12716728
000100 2b 5f 39 be e3 9e 2b be 4d de 4c 3f d8 e7 7f 3c
       -0.1810271 -0.16759829 0.80026704 0.015619241
000110 25 50 fa 3e 8f d9 d9 3e fa bb 3e 3e f9 d2 53 be
       0.4888927 0.42548797 0.18626395 -0.20685948
000120 68 38 61 3e d4 b6 5e be 86 a5 2a bf 42 f7 9e be
       0.21994174 -0.21749431 -0.6665882 -0.31048018
000130 fc 47 c9 3e f0 25 cf 3e e8 c0 75 bf 64 5f c0 bc
       0.39312732 0.40458632 -0.95997477 -0.023482986
000140 82 13 cf 3d a0 e1 26 be 00 79 a4 3e 1b 12 56 be
       0.10111143 -0.16297007 0.32123566 -0.20905344
000150 e2 18 c1 3e c6 24 a8 3e ed 12 af be b6 b4 c5 be
       0.37714297 0.32840556 -0.34194127 -0.38614434
000160 e3 1f 90 3e 7b 75 f8 be 2f 40 e0 be d2 e1 a0 be
       0.28149328 -0.4852713 -0.43798968 -0.31422287
000170 b9 6b 11 3d 71 ca 47 3e e4 03 43 3e 9e 96 1e 3f
       0.035503123 0.19510819 0.19044453 0.61948574
000180 27 0d 0c 3e f0 3f ea 3c 9b 7d 12 3e 6e 1b 50 3e
       0.13676892 0.02859494 0.14305727 0.20322964
000190 39 b6 28 3f 8a df 00 3f 24 84 4b 3f d3 6d 81 3d
       0.6590305 0.50341094 0.79498506 0.063197754
0001a0 b9 93 d5 3e dd a3 c9 3d 62 9a 75 3e 5c 08 f5 3d
       0.41714266 0.098457076 0.23984674 0.11964485
0001b0 47 28 d7 3e 26 0e 11 be 3a 83 ff be ed ff f8 3d
       0.42022917 -0.14165553 -0.49904805 0.12158189
0001c0 20 e3 13 bf df 06 94 be c1 fd fb 3e f4 b7 41 bc
       -0.5776844 -0.28911492 0.49217036 -0.011823643
0001d0 29 38 bc 3d 27 a2 e5 be 52 0f eb be b3 68 15 3f
       0.09190399 -0.44850275 -0.45910126 0.58362883
0001e0 02 de 41 bd d4 c0 27 3f 4a fd e0 3e 40 b5 21 3f
       -0.047330864 0.6552861 0.43943244 0.6316719
0001f0 d6 c8 9a 3e e0 d9 90 be 04 06 09 3f c9 e3 a3 3d
       0.3023135 -0.28291225 0.53524804 0.08002431
000200 f8 38 7a 3e 92 19 2c 3c d8 bf 68 be f8 c4 7f 3d
       0.24435794 0.010504143 -0.22729433 0.062443703
000210 71 7c 0b 3f 2c dc 13 3e fc 72 b6 bc d2 fc 68 be
       0.5448676 0.14439458 -0.022271626 -0.22752693
000220 7f d3 7a be 89 54 65 be 4d 78 f7 be 10 e9 7c 3b
       -0.24494742 -0.22395529 -0.4833397 0.0038591065
000230 28 c4 d9 3d e1 35 1b 3f b3 d9 a5 be a1 7e b7 3e
       0.10633117 0.6062909 -0.32392654 0.35838798
000240 0e 11 83 3f 9a a4 0a 3f 34 39 0d bd 0d 95 88 be
       1.023958 0.5415741 -0.03447838 -0.26676217
000250 e2 20 0f be 9f 97 06 3e 78 6a 03 3e f3 36 97 3d
       -0.13977388 0.13143776 0.12833583 0.073835276
000260 92 a9 4b 3b 1b d9 d6 be 5c 6f 34 be 59 f6 db bc
       0.0031076414 -0.41962513 -0.17620605 -0.026850866
000270 bb 97 25 bf 84 64 9f bd c1 9f af be 6b cb c6 bd
       -0.6468465 -0.07782844 -0.3430157 -0.09706768
000280 51 ad 5c 3f 11 71 dd 3e 1e ec 27 3e 03 2d 3c 3e
       0.8620196 0.43250325 0.16398665 0.18376546
000290 29 c1 94 be 84 1d 69 3f 83 47 7d be dd d8 9c 3e
       -0.2905362 0.9106066 -0.24734311 0.30634204
0002a0 ba f1 01 3f c1 f1 7d 3f 22 13 32 3e c9 db 38 bd
       0.5075947 0.9919701 0.17390111 -0.04513148
0002b0 ab ac 92 3c d7 6f a6 be d0 4f 41 bf 4f 11 26 3e
       0.0179046 -0.32507202 -0.7551241 0.1621754
0002c0 f4 b0 7a be 7a 60 9c bd 5f e3 e7 be 91 61 e5 3d
       -0.24481565 -0.07635589 -0.45290658 0.1120025
0002d0 15 ea 04 3e 26 8a fa be 6f 27 72 3d 66 72 5b 3f
       0.1297992 -0.48933524 0.059119638 0.85721433
0002e0 30 45 0d 3f df 1b 6f 3f c7 42 ba 3c b4 be 64 3e
       0.55183697 0.934019 0.02273692 0.22338372
0002f0 b9 4b b0 be c8 06 52 be bf a0 8b 3d c7 7d 32 3e
       -0.34432772 -0.205104 0.06817769 0.17430793
000300 1d e2 43 3d 7c e7 d0 be 1b 12 26 bf cf 2e 74 3e
       0.04782306 -0.4080161 -0.64871377 0.23845981
000310 87 1c 8d be 06 66 58 bf 03 29 fd bd 53 3e d2 3e
       -0.27560827 -0.84530675 -0.12361338 0.41063175
000320 51 36 3d 3d be 43 34 3f d8 3f ef be b9 22 b3 be
       0.04619438 0.70415866 -0.46728396 -0.3498743
000330 28 37 54 bd e2 65 7d 3f d8 ba 7b 3f 5d 86 d6 3e
       -0.051810414 0.98983586 0.98331976 0.41899386
000340 48 37 ae be 14 35 4d 3f 11 db 09 bf b9 37 ee 3e
       -0.3402655 0.80159116 -0.53849894 0.46526888
000350 fc bf 22 bd f5 7a 50 3d 2b 1d 1e bf 59 54 54 bf
       -0.03973387 0.05089851 -0.61763257 -0.82941204
000360 2f 9b cf be 8a f6 91 3e 80 aa a0 be a0 86 14 3e
       -0.40548083 0.28508407 -0.3138008 0.1450448
000370 e5 cc 42 3e d7 1a 1a 3e 47 16 31 be ec 71 4e bf
       0.19023474 0.15049301 -0.17293654 -0.8064258
000380 53 a0 b1 3d f3 a8 47 bf ac 2e e3 be c1 97 0c 3e
       0.086731575 -0.7799217 -0.44371545 0.13729765
000390 b4 21 25 3f e1 6e 05 3e 1e ef 6e bf 83 98 64 3e
       0.6450455 0.13030578 -0.93333614 0.22323804
0003a0 8a 30 97 be 91 98 61 bf 78 c2 b2 be 91 64 3b be
       -0.2952922 -0.8812342 -0.34913993 -0.18300082
0003b0 00 f4 a1 be 2a b2 9c 3e a9 f3 d3 bd 91 b2 31 3f
       -0.3163147 0.30604678 -0.10349209 0.69413096
0003c0 04 a4 76 bf e9 b8 39 3f 1d d5 73 be 70 6f d2 bd
       -0.9634402 0.72547776 -0.23811765 -0.10275161
0003d0 c9 b2 12 bf cf 3d c3 be 8b ce 96 3e d6 44 47 3e
       -0.57304054 -0.38133094 0.29454455 0.19459853
0003e0 19 95 aa be 5e 65 4d 3f 32 d0 f2 3e a4 ef 0c 3e
       -0.33316877 0.802328 0.47424465 0.1376329
0003f0 c5 a1 9d 3e 65 95 a1 3e a1 eb 9f 3e 05 cb ed bd
       0.30787483 0.3155929 0.31234458 -0.116109885

bias f4 [64]
000000 ca 54 0a bd 3a d0 da 3d 9c 2c b9 3e be 79 12 bd
       -0.033772267 0.10684247 0.36166847 -0.035760634
000010 45 08 95 3e b5 9c 5c 3e a5 0b b9 3d 55 5c d2 be
       0.29107872 0.21544154 0.09035424 -0.4108607
000020 6b 24 5d 3e e8 35 ba bd 22 bc 7e bd 31 43 29 3e
       0.21595924 -0.09092313 -0.062191136 0.16529538
000030 5f 80 9f 3e f2 dd cd 3d cf 10 17 3d 97 9b 11 bf
       0.31152627 0.10052098 0.036881264 -0.56878036
000040 67 17 d6 3e 5c e3 9a bc da dd 80 be 91 65 89 be
       0.4181473 -0.018907242 -0.2516926 -0.26835302
000050 dd 78 35 3d 4d 72 a7 be 4e 2a d5 3e 3e 92 51 be
       0.044304717 -0.32704392 0.41633838 -0.20465943
000060 eb eb 39 be c7 d4 05 bf 7e 01 0a bd aa 64 a5 3e
       -0.18156402 -0.522778 -0.03369283 0.32303363
000070 ce f8 8b be 76 45 69 3e 92 51 17 bd d5 70 aa 3e
       -0.2733826 0.22780403 -0.036943026 0.3328921
000080 20 3e ac 3e f1 5b cd 3e ad 17 5d 3e 2e ec 1b 3e
       0.33641148 0.40109208 0.21591063 0.15226814
000090 aa 13 41 bd f1 ec a6 be 3d be b2 be 2b da 8e 3e
       -0.047137894 -0.32602647 -0.34910765 0.27900824
0000a0 2e 80 be bd 05 c1 15 be c0 d3 d8 be c2 61 6b 3e
       -0.09301792 -0.14624412 -0.42349052 0.2298651
0000b0 d6 ee eb be 3d bd 80 3d f1 85 32 be 25 8f e6 bd
       -0.46080655 0.06286094 -0.17433907 -0.112577714
0000c0 fd c3 ec bd 65 c5 28 3e 5e 9e 51 3e 6f 21 f7 bd
       -0.11560819 0.1648155 0.20470569 -0.12066924
0000d0 77 3c ac bd 88 28 8d bd 97 15 9d 3e d7 01 fd 3d
       -0.0840997 -0.06892496 0.30680534 0.123538665
0000e0 15 03 0d 3e 10 e7 05 bf 2e 82 c7 3e 58 db 85 be
       0.13770707 -0.523057 0.38966507 -0.26143909
0000f0 6a 9b a1 be 18 e0 d2 3e 1b 5c ce 3c 59 a6 a8 be
       -0.31563884 0.41186595 0.025190404 -0.32939413

weight f4 [1, 64]
000000 a0 7c ed bf 01 25 b1 bf 2a 2c 9f bf c1 59 d1 3f
       -1.8553658 -1.3839418 -1.2435353 1.6355516
000010 33 44 ae bf c5 fe d0 bf c5 00 dd bf c6 48 b1 3f
       -1.3614563 -1.632775 -1.726586 1.3850334
000020 ff 04 c0 bf 91 5f bb 3f ba 25 d2 bf d3 33 be bf
       -1.5001525 1.463854 -1.6417763 -1.4859565
000030 2b a4 b9 bf 31 8c 01 40 d1 31 05 c0 db ab ac 3f
       -1.4503225 2.0241816 -2.0811656 1.3489946
000040 05 f0 c0 3f d8 4c ee 3f 63 34 88 3f b2 a6 93 3f
       1.5073248 1.8617201 1.0640987 1.1535246
000050 28 19 04 40 a9 53 d3 bf 8f 08 d4 bf 3c 35 8f 3f
       2.0640354 -1.6509906 -1.6565112 1.1188121
000060 f0 71 a9 3f 55 e2 cb 3f e4 2a d0 3f bb b5 92 bf
       1.3237896 1.5928446 1.6263089 -1.146171
000070 fb da d9 3f 86 9b cc bf 3b a8 eb 3f c7 e5 c9 3f
       1.7019953 -1.5984962 1.8410715 1.5773247
000080 a4 48 cb bf 0b d6 cf 3f 36 64 05 c0 f0 0b cc 3f
       -1.5881543 1.6237196 -2.0842414 1.5941143
000090 e7 4d 87 3f 29 02 b8 3f dc 9c cd 3f 56 ea b6 bf
       1.0570649 1.4375659 1.6063495 -1.4290264
0000a0 d1 56 c9 3f a9 6f bb bf d9 c4 ab 3f 16 b4 cf bf
       1.5729619 -1.4643451 1.3419448 -1.6226833
0000b0 94 5b b2 3f 58 45 b9 bf 8a 67 cc bf 24 34 a7 bf
       1.3934197 -1.4474287 -1.5969098 -1.3062787
0000c0 95 38 d6 bf db 9b e7 3f c9 db b7 bf 21 da cd bf
       -1.6736017 1.8094438 -1.4363948 -1.6082193
0000d0 0a 14 bc 3f 3c b7 ad 3f 47 4d b5 3f 09 dc a8 bf
       1.4693615 1.3571544 1.4164208 -1.3192149
0000e0 03 47 dc 3f 19 a2 b5 3f 75 bb ae bf 09 e6 c1 3f
       1.7209171 1.4190093 -1.3650957 1.5148326
0000f0 7c e7 96 3f a0 f4 d2 3f 83 71 d8 bf d0 6a ae 3f
       1.1789393 1.6480904 -1.6909641 1.3626347
