log/mujoco_ppo_swimmer_v2_3/mujoco_ppo_swimmer_v2_3_s3/pyt_save/model.pt (torch_old, 43116 bytes, 12 tensors)

log_std f4 [2]
-2.1530094 -2.8851523
00000000: e8ca 09c0 56a6 38c0

weight f4 [64, 8]
-0.3792095 -0.27307847 -0.09375876 -0.41288438 -0.03450465 -0.38853303 0.16540189 0.23662245
0.07408294 0.35503927 -0.06155032 0.31503314 -0.2920377 -0.041583657 -0.29315802 -0.1414454
-0.23670891 0.32006183 0.25728598 0.49941328 0.24160393 -0.24234182 0.43040833 -0.6391873
-0.2643047 -0.11246898 -0.29846337 0.03418253 -0.3613409 -0.49504372 -0.15147477 0.5118943
-0.266303 -0.33304942 -0.27641624 -0.32446706 -0.040651012 -0.36026752 -0.19540046 0.0069573764
0.008360306 0.004684539 -0.033822734 -0.45815203 0.27215254 -0.14852954 -0.286001 -0.04601622
0.059930228 0.23335034 0.14357749 -0.1208828 0.0014118725 0.27488157 0.2726041 0.20756206
-0.057262633 0.23317689 0.09868691 -0.25360367 0.4513528 0.076056376 -0.26495183 -0.23089018
-0.3083513 -0.26919094 0.056292623 -0.2614576 0.16498747 0.033654045 0.077823944 0.38056374
-0.085975096 -0.07623685 0.12644075 0.00042638375 0.023869345 0.13451552 0.023928918 0.5144146
-0.32852367 -0.28099108 -0.59367555 -0.1765146 0.54173034 -0.216975 -0.031651344 -0.4355316
-0.24208619 -0.094386205 -0.19427204 0.028459419 -0.3693548 0.3934595 -0.12952459 0.07327904
-0.2873046 0.14543383 -0.1445449 -0.18112805 0.08308431 0.26833683 0.1912509 -0.42050284
0.087139376 -0.20038599 -0.16706991 -0.3010258 0.2583321 -0.36828205 0.1754171 0.31918827
-0.30557784 -0.24734874 -0.16821717 -0.33832893 0.40172377 0.1472831 0.085450396 0.4120327
0.073225915 -0.28728285 -0.50132847 -0.30707777 -0.28005487 -0.0034557672 -0.02151537 -0.14958243
0.037909225 -0.06689159 0.2729484 -0.13687633 0.32485652 -0.09970483 -0.28787524 0.048451502
0.031298533 0.36402506 -0.44076362 0.24879025 -0.32064548 -0.17268352 0.05363307 0.52005357
-0.110090464 0.007689493 0.041963972 -0.6853951 0.32033396 0.33063328 -0.55516285 0.43386295
0.12775314 0.2485437 0.46411666 -0.3198266 0.13401419 0.0071184435 0.28773522 -0.20842004
-0.29699826 0.0058849202 -0.022735637 0.33119625 -0.2601239 -0.67134947 0.3805863 -0.053937644
0.027303973 -0.13481052 0.04282568 0.040576655 -0.28926677 0.13000612 0.15581541 0.14520277
-0.090081826 0.18468498 0.14209718 -0.50055337 0.33816764 0.06822675 0.26138985 0.45445526
0.031769466 0.0046281344 0.24844578 0.5247122 -0.2048598 -0.13467465 0.48775834 -0.32417643
-0.11508081 -0.019438187 0.024658449 -0.13453394 0.14139658 0.04897579 -0.27849722 0.5620385
-0.120524764 0.09673207 0.55858356 0.32569382 -0.17132851 -0.40354857 0.43619534 -0.20528163
0.14601807 -0.17085241 -0.14346148 -0.13786924 0.35849237 0.1498398 -0.20208673 -0.5133506
-0.0028453576 -0.049443904 -0.04982837 0.21548758 -0.19783854 -0.5936746 0.13907337 0.45498258
0.2607133 -0.023095457 -0.22677922 0.2807984 0.28175882 -0.45690274 0.04127812 0.6245289
0.3365013 0.30626816 0.17078665 0.5862578 -0.42381728 -0.009220395 0.22865744 0.22941083
0.08429959 0.23496786 -0.4963791 -0.17865804 0.13216186 0.37184063 0.060890123 0.3796438
-0.024651978 -0.14212632 0.44404685 0.41667536 0.118307926 -0.32821447 -0.037539534 -0.42785907
00000000: bf27 c2be f1d0 8bbe 9804 c0bd 9565 d3be
00000010: bf54 0dbd cded c6be 1d5f 293e 284d 723e
00000020: ccb8 973d b5c7 b53e 301c 7cbd 064c a13e
00000030: f785 95be a053 2abd cf18 96be 10d7 10be
00000040: d263 72be 25df a33e fdba 833e 19b3 ff3e
00000050: 0567 773e 7428 78be 7b5e dc3e c7a1 23bf
00000060: f252 87be 2356 e6bd 31d0 98be fb02 0c3d
00000070: ad01 b9be 5f76 fdbe 341c 1bbe 810b 033f
00000080: de58 88be 7485 aabe 6e86 8dbe 8c20 a6be
00000090: ad81 26bd fc74 b8be 0f17 48be b4fa e33b
000000a0: aaf9 083c c380 993b b589 0abd e792 eabe
000000b0: 9457 8b3e 2118 18be b96e 92be 817b 3cbd
000000c0: 6679 753d 64f3 6e3e fa05 133e 6791 f7bd
000000d0: 940e b93a 47bd 8c3e c492 8b3e 268b 543e
000000e0: 398c 6abd ecc5 6e3e 5d1c ca3d 57d8 81be
000000f0: b717 e73e 72c3 9b3d c4a7 87be 7a6e 6cbe
00000100: 39e0 9dbe 65d3 89be 1893 663d c5dd 85be
00000110: 7af2 283e d3d8 093d 2962 9f3d 40d9 c23e
00000120: b613 b0bd 1122 9cbd af79 013e 428c df39
00000130: a589 c33c 70be 093e 9406 c43c adb0 033f
00000140: 4134 a8be 10de 8fbe 1ffb 17bf 3ec0 34be
00000150: d7ae 0a3f b22e 5ebe d7a4 01bd fffd debe
00000160: 71e5 77be 8e4d c1bd 40ef 46be ba23 e93c
00000170: 131c bdbe 8673 c93e 18a2 04be 5213 963d
00000180: 9719 93be 9bec 143e 9403 14be a279 39be
00000190: 1b28 aa3d 7263 893e 47d7 433e 264c d7be
000001a0: 2176 b23d fc31 4dbe 6014 2bbe 0e20 9abe
000001b0: 1b44 843e 778f bcbe 8aa0 333e a56c a33e
000001c0: b374 9cbe fd48 7dbe 1f41 2cbe 7339 adbe
000001d0: bdae cd3e 62d1 163e 9e00 af3d f3f5 d23e
000001e0: 78f7 953d bd16 93be 1057 00bf 4c39 9dbe
000001f0: 5a63 8fbe 277a 62bb 0041 b0bc 232c 19be
00000200: b446 1b3d 75fe 88bd e5bf 8b3e 4f29 0cbe
00000210: 9853 a63e 0c32 ccbd 6264 93be 1575 463d
00000220: e432 003d 7e61 ba3e c5ab e1be dfc2 7e3e
00000230: a52b a4be f3d3 30be 5aae 5b3d 3b22 053f
00000240: 1c77 e1bd 24f8 fb3b 6ae2 2b3d 0e76 2fbf
00000250: d002 a43e c448 a93e 271f 0ebf 4923 de3e
00000260: b8d1 023e 3d82 7e3e b3a0 ed3e 50c0 a3be
00000270: 043b 093e d541 e93b 0852 933e 106c 55be
00000280: 2810 98be 4ad6 c03b 1640 babc 8e92 a93e
00000290: f62e 85be 8fdd 2bbf 35dc c23e b8ed 5cbd
000002a0: 95ac df3c c50b 0abe fb69 2f3d b533 263d
000002b0: c61a 94be 5320 053e 138e 1f3e 09b0 143e
000002c0: d27c b8bd 0f1e 3d3e ec81 113e 4424 00bf
000002d0: 4f24 ad3e 77ba 8b3d e4d4 853e 5cae e83e
000002e0: b320 023d 9ba7 973b 9268 7e3e 8a53 063f
000002f0: c4c6 51be 27e8 09be 76bb f93e 74fa a5be
00000300: 7daf ebbd d53c 9fbc 8400 ca3c 44c3 09be
00000310: 44ca 103e d79a 483d 3097 8ebe c1e1 0f3f
00000320: b0d5 f6bd 771b c63d 55ff 0e3f 57c1 a63e
00000330: be70 2fbe eb9d cebe ff54 df3e 5935 52be
00000340: c385 153e eff3 2ebe 91e7 12be 982d 0dbe
00000350: 508c b73e 9b6f 193e d3ef 4ebe f26a 03bf
00000360: 2e79 3abb b185 4abd d518 4cbd c7a8 5c3e
00000370: 3096 4abe 0ffb 17bf 4069 0e3e 7af3 e83e
00000380: 377c 853e af32 bdbc d038 68be cfc4 8f3e
00000390: b142 903e 28ef e9be 3f13 293d 20e1 1f3f
000003a0: e649 ac3e 2ecf 9c3e b2e2 2e3e fe14 163f
000003b0: 94fe d8be 2411 17bc 2d25 6a3e acea 6a3e
000003c0: 43a5 ac3d 6a9b 703e 6725 febe 22f2 36be
000003d0: 7055 073e e561 be3e ec67 793d ac60 c23e
000003e0: f2f2 c9bc 9089 11be 1c5a e33e 7956 d53e
000003f0: 6d4b f23d ba0b a8be 0ec3 19bd 5810 dbbe

bias f4 [64]
-0.1909849 -0.29023233 -0.3341733 -0.26268533 0.25564346 -0.020849189 0.34724703 0.2738913
-0.26941204 -0.38774562 -0.25388563 -0.31223747 0.26398382 0.030586848 0.37586114 -0.062150396
0.08043065 -0.16952091 -0.31097764 0.25902092 -0.33540708 0.38050202 -0.26255482 0.26527736
-0.018800903 0.043110274 -0.02678921 0.37024966 0.034318987 0.16121173 -0.08225708 0.24207331
-0.0074191038 0.2876543 0.04058277 0.057314236 -0.42743045 -0.10083123 -0.29033256 -0.14490242
-0.14306112 0.3902136 -0.32952407 0.089910835 -0.22986975 0.005228837 0.19939208 -0.34467024
-0.077550575 0.055961173 0.0580924 0.11181985 -0.20669541 -0.14961396 0.23944135 0.040382773
-0.13996258 -0.21241492 -0.35427326 -0.3810085 -0.0629507 0.042318836 0.15337524 -0.33720213
00000000: 8c91 43be 5599 94be c318 abbe b17e 86be
00000010: b3e3 823e ebcb aabc 5dca b13e 7b3b 8c3e
00000020: 60f0 89be 9886 c6be 4cfd 81be 97dd 9fbe
00000030: e328 873e 4591 fa3c df70 c03e 6a91 7ebd
00000040: d3b8 a43d e496 2dbe 7638 9fbe 649e 843e
00000050: 7aba abbe 29d1 c23e 966d 86be 6fd2 873e
00000060: 5a04 9abc 6694 303d 0c75 dbbc 5d91 bd3e
00000070: 1192 0c3d b014 253e 6676 a8bd 11e2 773e
00000080: f41b f3bb 6d47 933e 1e3a 263d 55c2 6a3d
00000090: 2ad8 dabe 9b80 cebd 78a6 94be 4d61 14be
000000a0: 9d7e 12be 14ca c73e 61b7 a8be 2c23 b83d
000000b0: fa62 6bbe aa56 ab3b 702d 4c3e 9e78 b0be
000000c0: d6d2 9ebd 8b37 653d 4cf2 6d3d ce01 e53d
000000d0: f6a7 53be 6734 19be 1d30 753e 6868 253d
000000e0: 5a52 0fbe 4c83 59be 4e63 b5be 8c13 c3be
000000f0: 4cec 80bd 8456 2d3d 660e 1d3e c2a5 acbe

weight f4 [64, 64]
0.10270616 -0.20091575 -0.05786096 -0.13790894 0.09903227 0.089785114 -0.08095593 0.033764403
0.02536713 0.018734993 0.113922425 -0.029482601 -0.0711976 0.11543644 0.18981732 -0.10613246
0.054588787 -0.07091406 0.015801642 -0.06466286 0.054821774 0.14099976 0.012699821 0.1596563
-0.0033785324 0.09364176 0.02761737 0.0563847 0.010757083 0.10777166 -0.0565668 -0.011731165
0.06637379 0.17247084 -0.10185994 -0.050793286 -0.0050619952 -0.045754973 -0.024626803 -0.12052871
0.08804827 0.20997353 0.114628054 -0.114388414 0.17367817 -0.09355045 0.11163376 0.047660887
0.11072163 0.008164165 -0.12616171 0.11137337 -0.088194035 0.14356792 0.050757073 0.07998752
0.10806412 0.05174676 -0.052078813 -0.0987767 -0.07765801 -0.18362457 0.090559 0.13872024
0.05687362 -0.2157893 -0.019400394 -0.021521332 -0.08710568 0.023187412 -0.08077729 -0.124277845
0.07722264 0.05769277 -0.07433016 0.03547152 0.07665516 0.04503262 -0.033292517 0.04569844
-0.1752921 0.00910332 -0.18447277 -0.027225185 -0.064594865 0.035328265 0.011486858 -0.024280462
0.07300339 -0.012531889 0.005678854 -0.16231203 0.008808987 0.06035332 0.027822483 -0.07912028
-0.058241427 0.050206166 -0.118765056 -0.10760954 0.06730791 0.12646745 -0.045339458 0.04080404
-0.12636012 0.18389894 0.023354307 0.031996403 0.091811284 0.08414664 -0.09835733 0.07841256
0.16867188 0.07360024 0.0515063 0.13463761 -0.034953993 -0.08798508 0.0891583 0.099321626
-0.11978868 -0.06701474 -0.09865049 -0.065469034 0.06341766 -0.17742312 0.12755835 -0.078861706
0.03182818 0.083167866 0.14534119 0.13860965 -0.0763793 0.055566017 0.0928687 -0.11688372
0.07475913 0.0286063 0.11660544 -0.10940574 -0.07284029 -0.0814544 0.020656073 -0.0024077112
0.18209296 0.08625219 0.108634494 -0.09505018 -0.008144674 -0.015818773 0.047390338 0.08133593
0.060909804 -0.06809338 0.026338482 0.0043451074 0.124980316 -0.11467488 0.095423214 0.023982693
-0.089220054 -0.14194846 -0.10135966 0.038339626 0.065861225 -0.03712856 -0.08456964 -0.0033501831
0.034144334 -0.008467509 -0.055028006 -0.01336208 -0.006617881 0.11627091 0.019377613 -0.058597397
0.0689488 -0.09573591 0.031117342 -0.07215426 -0.002449395 0.045137107 -0.061802287 -0.002689063
-0.067073375 -0.10425213 0.16198845 0.060010277 -0.055680774 -0.09275141 0.07612027 -0.05469123
0.15149485 0.121930264 0.055873055 0.010396383 0.03232505 -0.054771934 0.07643458 -0.0017604093
-0.07309793 0.082251385 0.07830578 -0.08367555 0.016624246 0.16185272 -0.0353634 -0.07950547
-0.08095421 -0.065329395 -0.013188692 -0.10730819 -0.12049144 0.009126338 0.027677545 -0.027972814
0.016748512 -0.035692915 0.10994297 0.099144295 0.045128394 -0.05816551 -0.10107195 -0.0068432367
-0.045018353 -0.0116998525 -0.042265937 0.11006488 0.06680225 -0.06281273 0.11828966 -0.03906935
0.06101895 0.12555966 0.008185079 -0.14158775 0.042878207 -0.1296729 0.06187579 0.052064463
0.18262184 0.12702471 -0.045813557 -0.14000614 0.057777416 0.11630499 0.04457535 -0.03003902
-0.032502864 -0.12819673 -0.019991215 0.11126733 -0.09334478 -0.13638186 0.064307 0.110587314
00000000: 9b57 d23d dcbc 4dbe 9dff 6cbd 0038 0dbe
00000010: 6ed1 ca3d 42e1 b73d 39cc a5bd 8b4c 0a3d
00000020: bace cf3c 217a 993c 2950 e93d 7f85 f1bc
00000030: 0cd0 91bd f169 ec3d 795f 423e fa5b d9bd
00000040: 7e98 5f3d 643b 91bd 7272 813c f66d 84bd
00000050: cc8c 603d 3e62 103e e912 503c f17c 233e
00000060: 5e6a 5dbb 40c7 bf3d d33d e23c a5f3 663d
00000070: 7a3e 303c 63b7 dc3d 97b2 67bd 1334 40bc
00000080: fbee 873d 329c 303e f29b d0bd 9f0c 50bd
00000090: 18df a5bb 9169 3bbd 26be c9bc c2d7 f6bd
000000a0: a752 b43d 4d03 573e 1dc2 ea3d 7944 eabd
000000b0: b1d8 313e 6197 bfbd 3ea0 e43d 1038 433d
000000c0: 06c2 e23d fdc2 053c 8930 01be b917 e43d
000000d0: 139f b4bd 7803 133e a6e6 4f3d 7fd0 a33d
000000e0: b950 dd3d 69f4 533d 9850 55bd 704b cabd
000000f0: 2a0b 9fbd 1408 3cbe ff76 b93d ae0c 0e3e
00000100: 50f4 683d dff7 5cbe 93ed 9ebc 814d b0bc
00000110: 7664 b2bd 87f3 bd3c 906e a5bd 6285 febd
00000120: e726 9e3d 414f 6c3d 693a 98bd 964a 113d
00000130: 61fd 9c3d 2074 383d bc5d 08bd 4a2e 3b3d
00000140: c67f 33be 1726 153c 6ee6 3cbe 5a07 dfbc
00000150: 504a 84bd 5fb4 103d 6033 3c3c d2e7 c6bc
00000160: cd82 953d 8d52 4dbc ae15 ba3b 2035 26be
00000170: 9253 103c 0b35 773d faeb e33c d009 a2bd
00000180: 908e 6ebd fba4 4d3d 183b f3bd 6462 dcbd
00000190: bbd8 893d af80 013e deb5 39bd 2322 273d
000001a0: 8c64 01be 0150 3c3e 8851 bf3c a90e 033d
000001b0: 8e07 bc3d 1355 ac3d 916f c9bd c496 a03d
000001c0: 52b8 2c3e b9bb 963d 45f8 523d 71de 093e
000001d0: eb2b 0fbd 8631 b4bd a098 b63d 2369 cb3d
000001e0: c453 f5bd 063f 89bd 4509 cabd a114 86bd
000001f0: 1ee1 813d 68ae 35be a89e 023e 3f82 a1bd
00000200: 445e 023d ea53 aa3d 52d4 143e b0ef 0d3e
00000210: c06c 9cbd 3199 633d f231 be3d bb60 efbd
00000220: 511b 993d c257 ea3c d5ce ee3d 1e10 e0bd
00000230: 4a2d 95bd 91d1 a6bd ed36 a93c b1ca 1dbb
00000240: 9476 3a3e fda4 b03d c37b de3d aba9 c2bd
00000250: 3d71 05bc 5f96 81bc 5f1c 423d 7493 a63d
00000260: 8f7c 793d 8b74 8bbd cdc3 d73c 6761 8e3b
00000270: aef5 ff3d aada eabd 3f6d c33d 5a77 c43c
00000280: 01b9 b6bd f05a 11be a795 cfbd 030a 1d3d
00000290: 40e2 863d 1e14 18bd d932 adbd bf8e 5bbb
000002a0: eeda 0b3d 4fbb 0abc 0c65 61bd a0ec 5abc
000002b0: cfda d8bb 711f ee3d cdbd 9e3c d303 70bd
000002c0: 0735 8d3d 3011 c4bd cce9 fe3c 9dc5 93bd
000002d0: 0786 20bb b0e1 383d 6524 7dbd fe3a 30bb
000002e0: c45d 89bd 2482 d5bd 4de0 253e 56cd 753d
000002f0: 8611 64bd 74f4 bdbd f2e4 9b3d e903 60bd
00000300: 7721 1b3e 93b6 f93d 25db 643d 9755 2a3c
00000310: 4667 043d 8958 60bd bc89 9c3d 89bd e6ba
00000320: 5eb4 95bd 6a73 a83d c85e a03d 165e abbd
00000330: 922f 883c b8bc 253e 36d9 10bd c4d3 a2bd
00000340: 52cb a5bd 6bcb 85bd 6215 58bc 65c4 dbbd
00000350: 37c4 f6bd a386 153c 05bc e23c 3e27 e5bc
00000360: 2d34 893c bc32 12bd c829 e13d 2a0c cb3d
00000370: 8dd8 383d f53e 6ebd cffe cebd 3b3d e0bb
00000380: 2a65 38bd bdb0 3fbc 0c1f 2dbd b269 e13d
00000390: 9ecf 883d f6a3 80bd d941 f23d 2f07 20bd
000003a0: 02ef 793d b692 003e b61a 063c 61fc 10be
000003b0: 0fa1 2f3d f9c8 04be 7871 7d3d 8c41 553d
000003c0: 3801 3b3e c412 023e ffa6 3bbd c55d 0fbe
000003d0: 03a8 6c3d 5031 ee3d a494 363d 6414 f6bc
000003e0: b921 05bd 0146 03be 9ec4 a3bc 20e0 e33d
000003f0: 8c2b bfbd b0a7 0bbe 63b3 833d 9a7b e23d

bias f4 [64]
0.024076344 -0.117704496 0.06863691 0.09276872 -0.15217023 -0.09769569 -0.04009206 0.100211576
0.03147548 -0.044509556 -0.04425898 -0.024533061 0.064561404 -0.022607641 0.090735264 -0.056360733
-0.11312792 0.08541458 0.09224588 0.05197047 0.048077967 -0.048577305 -0.031106934 0.06974817
-0.017301446 0.014530651 -0.04998507 0.08980566 0.06517531 -0.043673597 0.026887693 -0.057199206
-0.0016154895 -0.16229574 -0.0023546682 0.10397361 -0.042883318 0.007399156 0.117527895 0.03516819
-0.06346418 0.08758457 -0.07234162 0.16954668 -0.0060397857 0.04931857 0.000100074554 0.04965825
0.060492218 -0.19411354 0.026119191 0.03681178 -0.00053024315 0.0726743 0.07806149 0.06362565
-0.06415184 0.16258016 0.059758764 -0.13193576 -0.07926837 0.04426441 0.031266175 0.16713367
00000000: c13b c53c 0e0f f1bd 8291 8c3d 87fd bd3d
00000010: 83d2 1bbe ae14 c8bd 9237 24bd ba3b cd3d
00000020: 6fec 003d a74f 36bd e748 35bd 8ff9 c8bc
00000030: c538 843d a933 b9bc 69d3 b93d 83da 66bd
00000040: 9caf e7bd d7ed ae3d 68eb bc3d fdde 543d
00000050: 67ed 443d fff8 46bd f8d3 febc 21d8 8e3d
00000060: c3bb 8dbc f811 6e3c 25bd 4cbd 08ec b73d
00000070: a27a 853d 16e3 32bd 9443 dc3c b749 6abd
00000080: d5be d3ba db30 26be c750 1abb 1ef0 d43d
00000090: 6ba6 2fbd 9f74 f23b 77b2 f03d 850c 103d
000000a0: 82f9 81bd 8a5f b33d d827 94bd a59d 2d3e
000000b0: 65e9 c5bb 4502 4a3d 1edf d138 7366 4b3d
000000c0: b0c6 773d b3c5 46be eaf7 d53c f3c7 163d
000000d0: 0400 0bba 43d6 943d b4de 9f3d 2a4e 823d
000000e0: 0a62 83bd 6a7b 263e 9bc5 743d 2b1a 07be
000000f0: 7557 a2bd 994e 353d f610 003d 1725 2b3e

weight f4 [2, 64]
0.32062867 0.07301709 -0.10142648 0.10086006 -0.21553594 -0.23442334 -0.26409742 0.0153002
0.22053862 0.18974143 0.1287069 0.10945535 0.18860829 -0.1402539 -0.29097086 0.2574395
-0.09916775 0.15443407 0.112585045 -0.24852972 0.31602913 -0.22459765 0.0278076 -0.1581362
-0.04127423 0.014358482 0.12643597 0.2844203 -0.1839382 0.18266317 -0.06899885 -0.110711485
0.3087061 -0.2870322 -0.074156314 0.12601966 0.0030346105 0.21233965 -0.029188562 -0.16440476
-0.18254103 0.20693061 -0.0595354 0.3073523 0.060477883 0.2588401 0.091384254 -0.23051736
0.19832408 -0.2085608 -0.08323538 0.25167248 0.24270158 -0.16506785 -0.018374844 0.04825309
0.065452226 0.21235709 -0.015531132 0.010182685 -0.17780888 0.17299433 0.049984735 0.13367024
0.036433708 0.2046573 -0.14149809 -0.09604624 -0.08020394 0.10259357 -0.060987823 -0.20673065
0.011151804 0.2551937 -0.0753032 0.17412698 0.19830061 -0.23028502 0.17677696 0.15195087
0.101243556 -0.09490205 0.1799029 0.18505397 -0.056903075 0.005228681 -0.23747198 0.12274748
0.20524138 -0.13682406 -0.29920602 0.3190895 -0.16256195 -0.059665937 -0.16838025 -0.063359454
-0.07211009 0.07628212 0.19934265 0.3301703 -0.10728475 -0.048908636 -0.25813293 0.06677203
0.13043293 0.06565036 0.1880361 -0.15058577 0.23077239 0.02958155 0.099084415 -0.26685447
-0.115459986 0.06485736 -0.19206823 0.20399031 -0.18199527 -0.106410764 -0.14648063 0.17631523
-0.19211005 0.10962244 -0.22087519 0.23848005 -0.21209563 0.19258611 0.24560685 -0.052926004
00000000: 7129 a43e fc89 953d b0b8 cfbd b88f ce3d
00000010: 74b5 5cbe ac0c 70be c737 87be b1ad 7a3c
00000020: e0d4 613e 944b 423e becb 033e 202a e03d
00000030: 8822 413e b89e 0fbe 22fa 94be 1ccf 833e
00000040: 7618 cbbd f723 1e3e fd92 e63d 937e 7ebe
00000050: 92ce a13e edfc 65be c4cc e33c 75ee 21be
00000060: 2b0f 29bd d73f 6b3c 6e78 013e 8a9f 913e
00000070: 4c5a 3cbe 0e0c 3b3e 454f 8dbd b4bc e2bd
00000080: ba0e 9e3e e2f5 92be 44df 97bd 4c0b 013e
00000090: 51e0 463b 916f 593e da1c efbc b959 28be
000000a0: 09ec 3abe 9ee5 533e 64db 73bd 485d 9d3e
000000b0: a8b7 773d b186 843e ab27 bb3d be0c 6cbe
000000c0: 7815 4b3e f690 55be 5077 aabd 37db 803e
000000d0: c386 783e 8c07 29be d786 96bc 08a5 453d
000000e0: d10b 863d 2374 593e 4a76 7ebc 47d5 263c
000000f0: 8813 36be 6d25 313e cbbc 4c3d dae0 083e
00000100: 833b 153d af91 513e e0e4 10be e4b3 c4bd
00000110: f741 a4bd 941c d23d 5ece 79bd 33b1 53be
00000120: 0eb6 363c c0a8 823e 9038 9abd 584e 323e
00000130: 510f 4b3e d6cf 6bbe 0505 353e 0299 1b3e
00000140: c858 cf3d 025c c2bd 7738 383e ca7e 3d3e
00000150: 3313 69bd 5b55 ab3b db2b 73be 0863 fb3d
00000160: cc2a 523e 9b1b 0cbe 8831 99be b35f a33e
00000170: a476 26be 4564 74bd df6b 2cbe 9ac2 81bd
00000180: 74ae 93bd cd39 9c3d 7b20 4c3e 150c a93e
00000190: 1bb8 dbbd 6c54 48bd 002a 84be c6bf 883d
000001a0: 3690 053e b273 863d 898c 403e 2833 1abe
000001b0: 994f 6c3e 0255 f23c c5ec ca3d 26a1 88be
000001c0: 4976 ecbd f0d3 843d 89ad 44be d6e2 503e
000001d0: f85c 3abe e3ed d9bd 05ff 15be fb8b 343e
000001e0: 7fb8 44be bb81 e03d 1b2d 62be 1d34 743e
000001f0: 992f 59be 4b35 453e 5d80 7b3e f0c8 58bd

bias f4 [2]
0.10457816 -0.10792681
00000000: 132d d63d bb08 ddbd

weight f4 [64, 8]
0.48168796 -0.056238893 -0.28351185 0.43991596 0.39435562 0.009610021 -0.31493464 -0.1547258
0.16683687 0.45592892 0.26145294 -0.095177636 0.40211552 0.17102796 -0.14819323 0.0899308
-0.41483253 -0.0782962 0.62479305 1.0211663 -0.25194058 -0.27795544 0.042030934 0.054957733
-0.3336343 -0.23486371 0.07174531 -0.44446713 0.36937994 0.46331245 0.6871192 0.10355242
0.6071194 -0.062494326 0.14465323 -0.57206255 -0.93977404 -0.31811708 -0.0026137189 -0.20174721
-0.385728 -0.20554979 0.041051228 -0.58026844 0.024305746 -0.22780916 0.19198321 -0.078525156
0.24676326 0.29228532 0.018215999 -0.94162947 -0.48626736 -0.13122344 0.48607504 -0.3254761
-0.007030064 -0.16172007 -0.3197197 0.19396278 -0.26984918 0.3679718 -0.42800456 0.11675896
-0.010810554 0.045045733 -0.4449496 -0.24509552 0.40702835 -0.15353374 0.08297254 0.06996586
0.08677963 -0.17629316 0.117112145 0.8038882 0.27801347 -0.45230213 0.75738084 -0.3724478
-0.43844333 -0.06967138 0.51536846 0.15025926 -0.42086855 -0.23358127 0.05626919 0.31545746
0.12478267 -0.1531713 -0.57804537 0.8214807 0.22994891 -0.5801588 0.1274875 0.56864387
0.43170777 -0.17664503 -0.15789738 0.010981129 0.85513306 -0.0068099843 -0.06119221 0.19942287
-0.2872782 0.25622883 0.09209773 0.15265116 0.746365 -0.12244368 -0.18889414 0.09686083
0.22795396 0.22560851 0.21558659 0.41959128 -0.04416988 -0.33318692 0.16677897 0.12865153
0.22913404 0.3698198 0.07727156 -1.0977098 0.14992283 0.42049178 0.08288079 0.08039397
-0.12427403 0.008755194 -0.10829926 -0.634731 0.6969881 0.16238385 0.17054419 -0.2882283
-0.14615959 -0.020871073 0.080099374 0.27801812 -0.9861786 -1.0688777 0.07911254 -0.033637635
-0.0054178587 0.3540046 -0.04087247 -0.17025578 -0.2200615 0.2184375 -0.22424732 -0.2599048
-0.43355054 0.00567313 0.499337 0.7082172 -0.27673703 -0.47689572 -0.13810377 0.09339369
0.42875758 0.49241287 -0.12390417 0.35357252 0.75241244 -0.14494269 0.09629324 0.029899476
-0.24082927 -0.2180652 0.59901613 -0.07030261 0.11988436 0.13852553 0.3538856 -0.5468329
0.16824725 0.38775042 0.001781413 -0.48621267 0.116011985 -0.21202083 -0.15657598 -0.23779915
0.21290633 0.13824326 0.13832918 0.40687492 -0.8136883 0.18456079 0.0068227225 0.1311356
-0.19173549 0.009494651 0.52632666 -0.7358949 0.04287232 0.31890765 -0.06033667 -0.50059
0.16098869 0.3211205 0.1855629 -0.29019403 0.3277179 0.17193793 -0.08151417 -0.28378707
-0.36679804 -0.3073842 -0.023130665 -0.36682484 0.448537 0.170984 0.61773354 0.073115416
0.2563005 -0.26896513 -0.5387406 -0.9535375 0.33665487 0.090212524 0.017182931 0.07197275
0.055903725 -0.36777553 0.22694002 0.11249619 -0.4011345 -0.24355625 -0.002617592 0.03248146
-0.42141375 -0.038094718 0.22819053 0.35386616 -0.3189336 0.104325615 0.28423372 0.13140382
0.071023315 0.40604958 0.2861473 -0.4454383 0.34090933 0.25819984 -0.1675385 0.29753032
-0.09857059 -0.21527489 0.42930397 -0.41813326 0.5096201 -0.06917632 0.3952393 0.056838144
00000000: ce9f f63e c15a 66bd 7728 91be aa3c e13e
00000010: fbe8 c93e 5973 1d3c 1d3f a1be 7170 1ebe
00000020: 49d7 2a3e 846f e93e 29dd 853e 7eec c2bd
00000030: 16e2 cd3e f421 2f3e f7bf 17be a42d b83d
00000040: ee64 d4be c259 a0bd 70f2 1f3f 94b5 823f
00000050: 5bfe 80be 2d50 8ebe a128 2c3d 5c1b 613d
00000060: 1dd2 aabe 1d80 70be 35ef 923d 3291 e3be
00000070: 5e1f bd3e 4a37 ed3e 0be7 2f3f 4b13 d43d
00000080: 2d6c 1b3f 0dfa 7fbd fa1f 143e b172 12bf
00000090: 0895 70bf 3ee0 a2be ed4a 2bbb d296 4ebe
000000a0: 247e c5be a57b 52be 5525 283d 798c 14bf
000000b0: d81c c73c ce46 69be 3f97 443e ccd1 a0bd
000000c0: 82af 7c3e 6ca6 953e b839 953c a10e 71bf
000000d0: 09f8 f8be 705f 06be d4de f83e cea4 a6be
000000e0: 735c e6bb f299 25be 4db2 a3be 2e9e 463e
000000f0: ac29 8abe cd66 bc3e 6a23 dbbe 521f ef3d
00000100: c01e 31bc e081 383d 6fd0 e3be 52fa 7abe
00000110: 0566 d03e f337 1dbe 82ed a93d 434a 8f3d
00000120: 85b9 b13d 3286 34be 7ed8 ef3d 9ecb 4d3f
00000130: c857 8e3e 2594 e7be b6e3 413f 7ab1 bebe
00000140: a57b e0be deaf 8ebd 30ef 033f 90dd 193e
00000150: 157c d7be ee2f 6fbe 867a 663d a483 a13e
00000160: 0e8e ff3d f0d8 1cbe c8fa 13bf 8f4c 523f
00000170: ba77 6b3e 4a85 14bf 158c 023e a592 113f
00000180: cd08 dd3e 6fe2 34be daaf 21be 31ea 333c
00000190: 00ea 5a3f 4a26 dfbb afa4 7abd 8235 4c3e
000001a0: 2116 93be 6d30 833e bc9d bc3d 9650 1c3e
000001b0: c711 3f3f c1c3 fabd 776d 41be f95e c63d
000001c0: c36c 693e eb05 673e bbc2 5c3e abd4 d63e
000001d0: 7aeb 34bd 7a97 aabe 1bc8 2a3e 3abd 033e
000001e0: 1da2 6a3e 0559 bd3e 8d40 9e3d c181 8cbf
000001f0: 5f85 193e b34a d73e 67bd a93d 98a5 a43d
00000200: 6283 febd f271 0f3c 01cc ddbd bb7d 22bf
00000210: d06d 323f f447 263e 23a3 2e3e a992 93be
00000220: dcaa 15be d0f9 aabc 240b a43d 6458 8e3e
00000230: 3376 7cbf fcd0 88bf c105 a23d 9ec7 09bd
00000240: 4b88 b1bb 1740 b53e e469 27bd 8857 2ebe
00000250: cd57 61be 14ae 5f3e 17a1 65be 3e12 85be
00000260: 56fa ddbe aae5 b93b 19a9 ff3e b94d 353f
00000270: 7ab0 8dbe ad2b f4be 136b 0dbe 3145 bf3d
00000280: 1d86 db3e 8a1d fc3e 78c1 fdbd 7507 b53e
00000290: 1a9e 403f db6b 14be 6435 c53d bfef f43c
000002a0: f39b 76be 7c4c 5fbe 1f59 193f d1fa 8fbd
000002b0: ee85 f53d a3d9 0d3e 7e30 b53e 3efd 0bbf
000002c0: 0249 2c3e 3987 c63e 4d7e e93a def0 f8be
000002d0: b197 ed3d fd1b 59be 7455 20be 9f81 73be
000002e0: 1e04 5a3e a48f 0d3e 2aa6 0d3e e951 d03e
000002f0: e04d 50bf 81fd 3c3e 2591 df3b 6948 063e
00000300: 4f56 44be 748f 1b3c 58bd 063f 9c63 3cbf
00000310: e39a 2f3d dd47 a33e 9623 77bd ab26 00bf
00000320: 38da 243e e869 a43e 3304 3e3e 5094 94be
00000330: a4ca a73e 7f10 303e e7f0 a6bd 8a4c 91be
00000340: f4cc bbbe 7661 9dbe 857c bdbc 77d0 bbbe
00000350: a4a6 e53e 6e16 2f3e c923 1e3f 89bd 953d
00000360: d239 833e ccb5 89be e7ea 09bf 091b 74bf
00000370: 075e ac3e 58c1 b83d 38c3 8c3c 7366 933d
00000380: 4efb 643d 134d bcbe f762 683e 6764 e63d
00000390: 8061 cdbe cf66 79be e88b 2bbb 480b 053d
000003a0: 8bc3 d7be 3509 1cbd c7aa 693e f22d b53e
000003b0: 444b a3be aba8 d53d 1587 913e b98e 063e
000003c0: ac74 913d bbe5 cf3e e681 923e 7d10 e4be
000003d0: ab8b ae3e c532 843e 368f 2bbe e555 983e
000003e0: 61df c9bd 0571 5cbe bbcd db3e 9015 d6be
000003f0: 7676 023f 51ac 8dbd ce5c ca3e 1dcf 683d

bias f4 [64]
0.5105282 -0.40033367 -0.24412875 -0.39648658 -0.3818173 -0.6159435 0.048255976 -0.059916183
0.087517746 0.10334086 -0.24212603 -0.39506143 0.44750455 0.34382296 0.43865433 -0.096854426
-0.30941516 -0.25687566 -0.19408707 -0.47615254 0.41935906 0.07946464 0.045205846 0.47530222
0.114775494 -0.3791159 -0.21813378 0.24011841 0.040332213 -0.31381693 -0.574748 0.043715857
-0.30647248 -0.56909114 0.4811464 0.6963587 0.46718398 -0.405124 -0.29033193 -0.51262236
0.3010344 0.18989548 0.04180682 0.28576955 -0.43339354 -0.42460334 -0.4637376 -0.2751
0.16236123 -0.47526276 0.14995468 0.100224875 0.14449434 -0.5827387 0.24126048 -0.40910867
-0.3433553 0.4334984 -0.753851 0.38384384 -0.06264552 -0.2077602 0.37523836 -0.9078586
00000000: fab1 023f 89f8 ccbe e3fc 79be 4a00 cbbe
00000010: 8f7d c3be 79ae 1dbf 0fa8 453d ac6a 75bd
00000020: 813c b33d 5fa4 d33d e3ef 77be 7e45 cabe
00000030: 511f e53e 9009 b03e 4d97 e03e 9d5b c6bd
00000040: aa6b 9ebe 3585 83be c3be 46be 44ca f3be
00000050: 3bb6 d63e 5bbe a23d c429 393d d05a f33e
00000060: 6a0f eb3d 7b1b c2be 765e 5fbe 9ae1 753e
00000070: 6433 253d 9dac a0be af22 13bf 660f 333d
00000080: f6e9 9cbe f5af 11bf d258 f63e 9044 323f
00000090: bd32 ef3e 6a6c cfbe 63a6 94be 383b 03bf
000000a0: 2e21 9a3e f673 423e a13d 2b3d 6350 923e
000000b0: c2e5 ddbe 9c65 d9be 046f edbe e8d9 8cbe
000000c0: 0642 263e a455 f3be b88d 193e b342 cd3d
000000d0: 53f6 133e 5d2e 15bf fd0c 773e b176 d1be
000000e0: 44cc afbe 81f3 dd3e 61fc 40bf 2e87 c43e
000000f0: 4b4c 80bd 17bf 54be 3e1f c03e 6c69 68bf

weight f4 [64, 64]
-0.32287216 0.20498894 0.19825305 0.18903784 0.13052359 0.24734768 0.16759908 0.0076470445
-0.14517264 0.1533993 0.11227243 0.11301641 -0.21235833 0.07486396 -0.20176524 -0.12673233
0.15040419 0.14337805 0.100045174 0.15892948 -0.23701307 0.14629042 0.12971716 -0.19944026
0.14062776 0.032624703 0.24458805 -0.24137206 -0.005332734 0.19205368 0.19246416 0.10493388
0.28487217 0.3136237 -0.35569713 -0.06974865 -0.23665313 0.0076987837 0.064284034 0.08012809
-0.20117047 -0.11918818 0.107522525 -0.27408952 0.13373826 -0.07110919 0.2064112 0.0030925176
0.06475351 0.14550975 -0.13659696 -0.12279699 -0.07626312 0.11358425 -0.06308664 0.03432596
0.113358214 -0.10012514 0.22781646 0.029808493 0.034810603 0.048878636 0.019300573 0.2809281
0.05241392 0.05282545 -0.22838281 -0.047433417 -0.25531733 -0.18107213 -0.21848863 -0.1262382
-0.19939752 -0.032886334 -0.18011999 -0.06126966 0.1480659 0.1317377 0.25565317 0.018290408
-0.47955465 -0.043180075 -0.46722588 -0.30426875 0.021279769 -0.020984383 -0.37677488 0.3425615
-0.06189441 -0.19444123 0.032093108 0.17992443 0.08271529 -0.05081011 0.09241895 0.30710995
-0.22059384 -0.23305374 0.35488603 0.09453703 0.20412724 -0.13699824 -0.27810258 -0.18711253
0.054492705 0.56749207 -0.04446576 0.39950097 0.04170676 0.04785006 -0.29172015 -0.20990235
-0.39752555 -0.17970024 0.18827495 0.1307928 0.4347089 -0.05572151 0.06317301 -0.22666427
-0.24115454 0.25786522 -0.09761934 0.220871 -0.26525012 -0.115753055 0.34784693 -0.1310448
-0.3504324 0.23115185 0.17274629 0.28238627 0.15880716 0.38258788 -0.015332461 0.10558961
-0.2533923 0.0055277008 0.17639855 -0.064546436 -0.26378235 0.018604618 -0.3070376 -0.40060362
0.09820927 0.06466944 0.23599623 0.30495158 -0.6689795 0.04242186 0.022995934 -0.16651677
0.13899598 0.104240045 -0.002859172 -0.19469713 -0.038243078 0.23729615 0.4231945 0.008099441
0.22653472 0.37491432 -0.44144478 -0.32315263 -0.24873267 0.05119544 0.13339595 0.22132768
-0.26211834 0.58872724 0.1339763 -0.40050396 0.1133144 0.035391115 0.19996662 0.048526593
-0.36400437 0.3961629 -0.13011603 -0.056259435 0.016433332 0.15006623 -0.05095294 0.288171
0.08917878 -0.28511354 0.17556833 -0.049360067 -0.25134215 0.17306459 0.093437925 0.09002271
-0.3015267 0.47962612 0.20311105 0.26144433 0.25884262 0.5047322 -0.055755544 -0.11472739
0.3079928 -0.040890582 0.26989385 -0.2070387 -0.39481568 -0.06306891 -0.19238468 0.2210909
0.3723755 0.14667086 0.4768145 0.35862613 -0.24345505 0.07369986 0.62479997 -0.4235574
0.5593943 0.31181243 0.18194889 -0.27703232 -0.31092614 0.18501776 0.4176222 -0.036993124
0.10719675 0.40617263 -0.51188827 -0.11136227 -0.20191011 0.39486822 0.32875475 0.16655035
-0.32291687 -0.6608618 -0.036230203 -0.2773275 0.12959723 -0.081321366 0.46583927 0.17155886
-0.055029772 0.32105947 -0.11631822 0.020271141 -0.26388988 -0.013398163 0.044180773 0.12470688
-0.03746743 -0.20449217 0.24065296 -0.118425496 -0.04370385 0.36238024 -0.01971906 0.28024977
00000000: 804f a5be 9fe8 513e d902 4b3e 2393 413e
00000010: faa7 053e b648 7d3e 189f 2b3e 0f94 fa3b
00000020: 23a8 14be b514 1d3e 16ef e53d 2675 e73d
00000030: 7674 59be 4752 993d 8c9b 4ebe 1fc6 01be
00000040: 8e03 1a3e b2d1 123e 7ce4 cc3d 69be 223e
00000050: 8eb3 72be 28cd 153e 93d4 043e 113a 4cbe
00000060: b900 103e 7ba1 053d 4a75 7a3e 3d2a 77be
00000070: 37be aebb b8a9 443e 5315 453e 93e7 d63d
00000080: c4da 913e 4993 a03e ef1d b6be 61d8 8ebd
00000090: 3355 72be 1446 fc3b 59a7 833d 321a a43d
000000a0: a2ff 4dbe ef18 f4bd c534 dc3d 7655 8cbe
000000b0: aff2 083e b2a1 91bd 755d 533e d6ab 4a3b
000000c0: 7d9d 843d 8200 153e 13e0 0bbe fd7c fbbd
000000d0: d72f 9cbd dc9e e83d 9133 81bd 6199 0c3d
000000e0: 5a28 e83d 690e cdbd b848 693e f130 f43c
000000f0: 9095 0e3d f734 483d 3c1c 9e3c cfd5 8f3e
00000100: fbaf 563d 805f 583d 2fdd 69be 8b49 42bd
00000110: f4b8 82be f96a 39be 7cbb 5fbe 9644 01be
00000120: dd2e 4cbe d2b3 06bd 6071 38be e5f5 7abd
00000130: 969e 173e 3fe6 063e f9e4 823e c4d5 953c
00000140: 3088 f5be 97dd 30bd 3b38 efbe 1dc9 9bbe
00000150: e952 ae3c 71e7 abbc a3e8 c0be 3964 af3e
00000160: fe84 7dbd 9a1b 47be 1074 033d 1c3e 383e
00000170: a266 a93d 431e 50bd 2546 bd3d 843d 9d3e
00000180: 5ae3 61be a4a5 6ebe 9fb3 b53e a19c c13d
00000190: bb06 513e 4449 0cbe 7663 8ebe 6d9a 3fbe
000001a0: be33 5f3d 2947 113f bb21 36bd 648b cc3e
000001b0: b5d4 2a3d 6dfe 433d 585c 95be a4f0 56be
000001c0: 7888 cbbe 5703 38be 26cb 403e 8cee 053e
000001d0: 2a92 de3e 3d3c 64bd da60 813d ae1a 68be
000001e0: 37f1 76be e906 843e a6ec c7bd 022c 623e
000001f0: ddce 87be f00f edbd fe18 b23e 9c30 06be
00000200: e06b b3be 12b3 6c3e 67e4 303e ef94 903e
00000210: 589e 223e 8fe2 c33e 0135 7bbc 5e3f d83d
00000220: a3bc 81be b721 b53b d2a1 343e ec30 84bd
00000230: 7b0e 87be b668 983c 0834 9dbe eb1b cdbe
00000240: f121 c93d 6971 843d ffa8 713e 9d22 9c3e
00000250: 3e42 2bbf 8bc2 2d3d f861 bc3c 5f83 2abe
00000260: f654 0e3e ce7b d53d f260 3bbb af5e 47be
00000270: c6a4 1cbd c3fd 723e f3ac d83e 85b3 043c
00000280: b8f8 673e c5f4 bf3e 0d05 e2be 4374 a5be
00000290: c7b3 7ebe 4fb2 513d f398 083e b9a3 623e
000002a0: 6034 86be d4b6 163f 1531 093e db0e cdbe
000002b0: 6111 e83d 46f6 103d 0dc4 4c3e d2c3 463d
000002c0: c85e babe ddd5 ca3e 233d 05be 4b70 66bd
000002d0: 329f 863c f6aa 193e 08b4 50bd 268b 933e
000002e0: 5da3 b63d 67fa 91be 2fc8 333e c82d 4abd
000002f0: ebaf 80be d837 313e 625c bf3d d45d b83d
00000300: b561 9abe 8e91 f53e 58fc 4f3e 08dc 853e
00000310: 0587 843e 2136 013f ed5f 64bd 32f6 eabd
00000320: 3bb1 9d3e e27c 27bd 872f 8a3e f401 54be
00000330: 4825 cabe 462a 81bd 7d00 45be a765 623e
00000340: 00a8 be3e e330 163e 0821 f43e d89d b73e
00000350: 484c 79be f4ef 963d e4f2 1f3f 84dc d8be
00000360: 7734 0f3f e1a5 9f3e cf50 3a3e 2ed7 8dbe
00000370: b631 9fbe 4c75 3d3e 94d2 d53e 1a86 17bd
00000380: f889 db3d dcf5 cf3e 1c0b 03bf e711 e4bd
00000390: 86c1 4ebe 2b2c ca3e 8b52 a83e 2d8c 2a3e
000003a0: 5c55 a5be 3d2e 29bf 1f66 14bd dffd 8dbe
000003b0: 23b5 043e d18b a6bd 7c82 ee3e 20ad 2f3e
000003c0: e666 61bd e861 a43e 3f38 eebd aa0f a63c
000003d0: 931c 87be f883 5bbc e6f6 343d 5266 ff3d
000003e0: 7377 19bd 6566 51be bb6d 763e 1189 f2bd
000003f0: cf02 33bd e789 b93e de89 a1bc e67c 8f3e

bias f4 [64]
-0.21725623 0.0285232 -0.12863503 -0.18838915 0.10525563 0.24411602 -0.08237097 -0.11221344
0.21488869 -0.23983422 0.20891201 0.17471796 0.23592591 -0.03652483 0.08214444 0.15171073
-0.24286486 -0.032664537 -0.13234296 0.26267448 -0.057443608 0.03856231 0.1761292 -0.15887858
0.2540751 0.17048085 0.030377556 -0.07382012 0.24121708 -0.15723492 -0.15111832 -0.17563094
-0.17052923 0.3668338 -0.037816077 -0.097069405 -0.32228792 -0.12589076 0.04444902 0.113509364
-0.32998675 -0.047758672 -0.02460763 -0.16531691 0.12409826 0.2464573 0.54181015 0.23340325
-0.024960417 0.041022923 0.12717319 0.04758627 0.066551216 0.23558985 -0.057722595 -0.36859295
-0.20519732 -0.3143534 0.020930393 -0.22749715 0.03973836 -0.11987172 -0.14941214 -0.3426637
00000000: 6b78 5ebe 7ca9 e93c e7b8 03be 16e9 40be
00000010: 4490 d73d 8df9 793e 1cb2 a8bd 29d0 e5bd
00000020: c80b 5c3e 1a97 75be 08ed 553e 44e9 323e
00000030: 9096 713e 0f9b 15bd 583b a83d 0f5a 1b3e
00000040: 91b1 78be 40cb 05bd ea84 07be 457d 863e
00000050: fd49 6bbd 83f3 1d3d 375b 343e 11b1 22be
00000060: 2216 823e 8892 2e3e 5ada f83c 012f 97bd
00000070: 9c01 773e 3102 21be c3be 1abe 99d8 33be
00000080: 379f 2ebe a4d1 bb3e 08e5 1abd 53cc c6bd
00000090: ec02 a5be 82e9 00be 2d10 363d 9977 e83d
000000a0: 06f4 a8be 999e 43bd f195 c9bc d648 29be
000000b0: 3b27 fe3d 4d5f 7c3e 12b4 0a3f 4301 6f3e
000000c0: ca79 ccbc a707 283d b039 023e d2e9 423d
000000d0: 014c 883d 773e 713e 876e 6cbd 37b8 bcbe
000000e0: 3f1f 52be eef2 a0be 3776 ab3c 03f5 68be
000000f0: b1c4 223d 4e7f f5bd 7fff 18be 9e71 afbe

weight f4 [1, 64]
-0.43998846 0.374458 -0.48729154 -0.4652648 -0.9051953 0.63790125 -0.61577255 -0.48923114
0.5923418 -0.53473145 0.5044958 0.53034914 0.6419711 -0.5377003 -0.65991867 0.701793
-0.73843735 0.7267719 -0.54794025 0.5894464 -0.58185273 -0.61791325 0.64816725 -0.43053198
0.51821107 0.45691767 0.6342576 -0.47332984 0.37460604 -0.5683715 -0.5455187 -0.6355158
-0.71738654 0.50856787 -0.57834494 -0.64675313 -0.59444124 -0.5432291 -0.5850928 0.448778
-0.48551786 -0.66407335 -0.648199 -0.4115783 0.79559624 0.5330486 -0.35762236 0.63520825
0.6101754 0.43025562 0.40850383 0.43828833 -0.48975882 0.62993425 -0.6635713 0.3305509
-0.5099757 -0.37091127 0.6972549 -0.59570414 -0.63200694 -0.43875602 -0.6619386 -0.69631994
00000000: 2b46 e1be f5b8 bf3e 477e f9be 3037 eebe
00000010: e1ba 67bf 7f4d 233f 45a3 1dbf 817c fabe
00000020: b6a3 173f 29e4 08bf a326 013f f6c4 073f
00000030: 3858 243f baa6 09bf 6ef0 28bf b5a8 333f
00000040: 3b0a 3dbf b90d 3a3f d045 0cbf f6e5 163f
00000050: 4df4 14bf 902f 1ebf 4aee 253f b06e dcbe
00000060: 7ba9 043f 1df1 e93e b55e 223f 4a58 f2be
00000070: 5dcc bf3e cb80 11bf 1da7 0bbf 2ab1 22bf
00000080: a5a6 37bf 8131 023f 6a0e 14bf 9d91 25bf
00000090: 4d2d 18bf 1011 0bbf a4c8 15bf 3bc6 e53e
000000a0: cc95 f8be b600 2abf 5ff0 25bf 64ba d2be
000000b0: 32ac 4b3f e075 083f 471a b7be 029d 223f
000000c0: 7434 1c3f 774a dc3e 6a27 d13e 5467 e03e
000000d0: abc1 fabe 5f43 213f cfdf 29bf f83d a93e
000000e0: c48d 02bf 15e8 bdbe 4c7f 323f 1180 18bf
000000f0: 35cb 21bf a1a4 e0be cf74 29bf 0642 32bf
