log/mujoco_sac_walker2d_v2_2/mujoco_sac_walker2d_v2_2_s2/pyt_save/model.pt (torch_old, 878218 bytes, 18 tensors)

weight f4 [256, 17]
1.7697066 3.929211 -1.829249 -1.1314516 0.6814331 -0.47545752 -1.9076731 0.7437856
0.26700646 0.11808649 -0.0040075835 -0.1638307 -0.10160162 0.07490159 0.11071456 -0.030710375
0.043161314 -4.184903 -0.2878438 5.4681463 0.057051808 -0.18621048 -1.8230796 1.0254608
-1.6188073 1.3365462 -0.9849262 -0.16609107 0.02430023 -0.15295364 -0.11859441 -0.075172745
-0.10644678 -0.008019265 -3.3681085 3.6196618 7.291134 1.53264 1.2760812 1.1042858
1.3115904 -0.13976762 -0.9402282 1.6892488 0.48201957 -0.03820481 0.08354467 -0.06709136
-0.06568032 -0.21545172 -0.019211346 2.3175774 0.9611693 -0.14863484 0.8761723 -0.3447898
1.2656705 0.5719372 0.7271004 0.20765711 0.4497537 -1.0084345 0.5127923 0.24264763
-0.049032334 0.30579922 0.15770927 -0.03387095 -6.1993213 3.0300722 -3.597928 -1.7736675
-1.9505725 -2.8139386 -1.6556947 -0.7993152 0.12117301 -1.8511822 0.19324258 -0.4025194
-0.22158648 0.017803585 0.05890828 0.16648437 -0.044710692 -3.2973952 3.819973 -0.7053287
-1.0563457 -0.35778728 -2.1778197 -4.102712 -2.6428015 -0.24749601 0.0503289 0.20103839
-0.14513077 -0.1484879 -0.02638562 -0.07223887 -0.12119553 -0.0659966 -2.5727594 -0.17919561
0.9363851 2.4521291 -0.41134146 4.345963 -3.052283 -1.5947741 -0.89338505 -0.57709605
0.85811293 0.27278292 0.08668687 -0.009721912 -0.5672345 -0.33890527 -0.21018535 -4.34336
8.114911 -3.5492249 -2.259292 -0.17155121 -1.9712065 -1.7029532 -0.069421805 0.82064897
-0.81820637 0.25435442 -0.15823264 -0.07388857 -0.05719156 -0.16208588 -0.123125635 0.018984796
-0.652539 -9.106435 4.695221 3.238799 0.53719795 -1.1381491 -0.6855882 -0.2523338
-1.3161227 -0.6571958 0.030355873 0.27542192 0.2815876 -0.024839828 -0.07158403 -0.04916061
0.044297166 -1.5642304 -0.37457797 -0.39120394 1.5005472 0.08920648 2.073406 -0.5844762
-0.7496051 0.30318996 0.766699 -1.514593 1.1520319 0.6476114 0.14187318 0.3554472
0.16320713 0.043480195 -1.6061524 -1.1356698 2.258118 2.566115 0.8847399 2.6466184
1.4054787 -1.5150448 0.11072482 0.04769765 0.848269 -0.7877409 0.58114886 0.04580411
-0.122580215 -0.08447466 0.0021306514 3.126493 2.5210445 0.2564602 -0.6967972 -0.063809745
-0.31285968 2.3886497 0.1867576 0.060801998 0.21621667 0.47546294 -0.17557181 -0.12485253
-0.008329601 -0.15289783 0.09996969 -0.02228179 -2.7633567 -3.1496425 4.1195846 2.105307
0.18792008 4.7358694 1.7578026 -1.0884485 0.2850499 -0.21870008 -0.16789266 -0.12901407
-0.18425284 0.017530529 0.3088479 0.3715704 0.14128989 -3.5734549 -3.2975461 5.732495
1.123898 0.4004952 0.9587056 4.9711037 0.9833374 -2.1092005 -0.1706984 1.00415
-0.30243358 0.051368788 0.35811743 -0.1043623 -0.31943232 0.09952395 -2.59356 -4.105783
0.0117024835 -0.78357196 0.42414564 -3.8858833 1.3835294 -0.83622724 -1.4313583 0.5789693
0.77772224 -0.0804429 -0.06822462 0.021411788 0.110542476 0.044157464 -0.013400298 -0.3363822
00000000: bf85 e23f 3178 7b40 d524 eabf 68d3 90bf
00000010: 6672 2e3f 2b6f f3be a22e f4bf bc68 3e3f
00000020: 12b5 883e 54d7 f13d 0c52 83bb 3cc3 27be
00000030: 8314 d0bd 0166 993d 51be e23d 5394 fbbc
00000040: ebc9 303d baea 85c0 4360 93be 0efb ae40
00000050: 28af 693d f6ad 3ebe ac5a e9bf 4d42 833f
00000060: 1435 cfbf f213 ab3f 2024 7cbf c713 2abe
00000070: 4711 c73c e19f 1cbe a0e1 f2bd 2bf4 99bd
00000080: c500 dabd 3c63 03bc 178f 57c0 8aa8 6740
00000090: f850 e940 8c2d c43f a156 a33f 3d59 8d3f
000000a0: 32e2 a73f 3e1f 0fbe ccb2 70bf 4e39 d83f
000000b0: 45cb f63e a67c 1cbd 7819 ab3d 3267 89bd
000000c0: 6783 86bd 609f 5cbe 1d61 9dbc 3053 1440
000000d0: 310f 763f bb33 18be d44c 603f 4a88 b0be
000000e0: 7e01 a23f 7a6a 123f 4023 3a3f 11a4 543e
000000f0: 1e46 e63e 6214 81bf 5b46 033f 9f78 783e
00000100: 21d6 48bd b791 9c3e 8a7e 213e 44bc 0abd
00000110: d760 c6c0 b4ec 4140 7444 66c0 8907 e3bf
00000120: 5cac f9bf 9217 34c0 ceed d3bf ec9f 4cbf
00000130: 8e29 f83d 8af3 ecbf 62e1 453e 0617 cebe
00000140: 91e7 62be d3d8 913c cf49 713d e17a 2a3e
00000150: 8f22 37bd 8608 53c0 707a 7440 6c90 34bf
00000160: 5636 87bf e52f b7be 6661 0bc0 6b49 83c0
00000170: a923 29c0 986f 7dbe ad25 4e3d 02dd 4d3e
00000180: 299d 14be 360d 18be a826 d8bc f9f1 93bd
00000190: 5d35 f8bd 3a29 87bd 17a8 24c0 0e7f 37be
000001a0: efb6 6f3f afef 1c40 599b d2be 2112 8b40
000001b0: 9b58 43c0 8f21 ccbf e2b4 64bf 91bc 13bf
000001c0: 4aad 5b3f 34aa 8b3e e388 b13d a848 1fbc
000001d0: 4836 11bf fe84 adbe d43a 57be cefc 8ac0
000001e0: add6 0141 8026 63c0 3d98 10c0 1fab 2fbe
000001f0: 7f50 fcbf 5ffa d9bf 052d 8ebd 0d16 523f
00000200: f975 51bf be3a 823e bd07 22be e452 97bd
00000210: b241 6abd d7f9 25be 4b29 fcbd 0186 9b3c
00000220: cc0c 27bf f5b3 11c1 403f 9640 7c48 4f40
00000230: ce85 093f dfae 91bf b582 2fbf e531 81be
00000240: b576 a8bf fc3d 28bf e1ac f83c 1a04 8d3e
00000250: 402c 903e e57c cbbc a69a 92bd a35c 49bd
00000260: f270 353d b438 c8bf afc8 bfbe e24b c8be
00000270: ee11 c03f e3b1 b63d afb2 0440 3ba0 15bf
00000280: 1fe6 3fbf b73b 9b3e 6346 443f 2fde c1bf
00000290: c875 933f dcc9 253f 3447 113e 2dfd b53e
000002a0: c51f 273e 4a18 323d 6796 cdbf a15d 91bf
000002b0: 0185 1040 3a3b 2440 507e 623f 3262 2940
000002c0: bae6 b33f fdec c1bf b2c3 e23d 9c5e 433d
000002d0: 2828 593f 63a9 49bf 2cc6 143f 179d 3b3d
000002e0: 560b fbbd 0d01 adbd 66a2 0b3b 7618 4840
000002f0: cb58 2140 c04e 833e 4d61 32bf afae 82bd
00000300: 252f a0be a3df 1840 623d 3f3e 840b 793d
00000310: e767 5d3e e16f f33e 19c9 33be afb2 ffbd
00000320: e178 08bc 4091 1cbe e9bc cc3d 4d88 b6bc
00000330: d6da 30c0 be93 49c0 a3d3 8340 5abd 0640
00000340: 1f6e 403e 3e8c 9740 adff e03f 4852 8bbf
00000350: 0ff2 913e eaf2 5fbe 0eec 2bbe 441c 04be
00000360: c7ac 3cbe 2f9c 8f3c 5021 9e3e 7a3e be3e
00000370: 4cae 103e 7cb3 64c0 ff0a 53c0 9970 b740
00000380: e4db 8f3f b50d cd3e bb6d 753f 4813 9f40
00000390: 00bc 7b3f 24fd 06c0 90cb 2ebe fd87 803f
000003a0: 93d8 9abe 1468 523d 2b5b b73e e7bb d5bd
000003b0: a28c a3be 36d3 cb3d e3fc 25c0 9362 83c0
000003c0: c6bb 3f3c 2c98 48bf 9e29 d93e 50b2 78c0
000003d0: 7e17 b13f fd12 56bf c036 b7bf 5537 143f
000003e0: ce18 473f 3fbf a4bd 59b9 8bbd c667 af3c
000003f0: 1864 e23d 75de 343d ec8c 5bbc 4a3a acbe

bias f4 [256]
-4.8796945 -1.4464494 -3.5411253 -3.3465283 -3.6078117 -3.4603198 -2.5932653 -3.3499377
-0.8476165 -2.3832154 -5.808951 -2.5708728 -3.6109111 -3.7203355 -2.1175315 -1.6568271
0.64790136 1.3216844 -2.9222527 -0.39618552 -4.087233 -4.2657394 -3.3838806 -3.251084
-2.7338865 1.7464322 -4.1534715 -2.8020341 2.1795669 -2.6575015 -1.1353548 4.1544085
-1.0642028 -5.530339 -1.988606 -1.1862729 -2.2392888 -3.6936617 -0.1840474 0.22058898
-1.7936257 -3.3644564 -3.2643836 -2.2171657 -1.6947045 -4.986992 -1.782823 0.7436962
-1.0055249 -2.8872187 -2.1721196 -3.6907897 -2.102936 -0.9775707 0.8064306 -2.350898
-2.6860127 -4.033818 1.5820576 -1.1881593 -2.7996554 -2.3556914 3.2813337 -3.1115844
0.488847 -0.8539604 -3.8507328 -3.5165622 -4.469209 -2.4655085 -2.1242874 -1.4804978
-1.1389704 -4.1999745 0.45372313 -1.7631645 -2.1965895 0.37943125 -2.8399665 -4.2954926
-1.4665384 -2.4457417 0.61325556 -1.3537347 -1.1831839 0.000437068 -3.4497387 -1.9326441
-0.4516381 -2.2372634 -5.7568674 -2.9097521 -2.5365007 0.46953365 -3.653699 -2.3603332
-4.685431 -2.8456094 -2.7759626 -3.7871923 -1.7486562 -2.5762482 -3.9719815 -4.113345
-3.9004369 -0.5014718 -1.9652271 -0.9882456 -2.9073267 -3.2023656 -2.0900784 -2.3104975
-2.683972 1.1488187 -3.4098268 -3.3319073 -1.4033808 -0.936303 -1.7551913 -4.5260663
-3.2811341 -1.7493355 -1.0056847 -5.738829 -1.771834 -3.8647683 -4.6386027 -2.4188414
-1.4298036 -2.4080462 0.4981287 0.346144 0.36351326 -3.1575902 -1.4211533 -4.738048
-0.26383087 -2.9078436 -4.5789437 -2.0143623 -3.4937305 -0.3153856 -0.9194325 -1.2320458
-1.6619804 -2.785395 -0.23525696 -4.3112626 -1.6823053 -2.9055533 -2.6214757 -1.486164
-3.7909713 -0.70554686 -3.2134237 -3.258516 -3.0417507 -4.8545156 -1.6467832 -0.43189207
-0.6150528 2.8634026 -3.0000935 -3.0673754 -1.4395913 -1.4982063 -2.6738226 -0.39988893
-3.0547998 -2.6786063 -1.2254499 -3.2387862 -2.9838555 -2.8969827 -2.5880227 1.1448423
-3.2936432 -1.32232 -4.1563683 -5.3931584 -1.3304492 -2.4971733 -3.6536481 -3.3652203
2.0626106 -1.825312 -1.5855308 0.22369322 -5.844539 -2.6167574 -0.057752844 -2.3127832
-2.8905575 1.0059539 -0.6084664 -1.54206 -3.664881 -1.8062384 -4.104095 -1.7643386
-1.3302778 0.22593807 -3.1106277 -2.6649687 0.15588608 -4.102695 -0.72245026 -3.7386644
-1.4914299 -2.9021828 1.7901881 -3.325829 -4.113794 -2.434784 -3.2421045 -2.4621804
-2.7373781 -2.01225 -1.0834165 0.85314274 -3.1634157 -0.95943445 -3.4655292 2.3067067
-3.2846463 -2.850941 -4.3833213 -2.4892619 -2.487131 -2.635905 -4.5975904 -3.7801993
-3.038128 -3.6157763 3.728251 -3.1496904 -1.7119615 -2.2514753 -1.5665867 -2.3182695
-1.7717035 -3.4456303 -3.704765 -4.6898823 -0.32604545 -2.5664537 -1.6839724 -4.14209
-3.05669 -2.8077142 0.4380499 -2.0568962 -1.280954 -7.1244903 -1.2285634 -3.6493835
00000000: 7526 9cc0 4125 b9bf cca1 62c0 852d 56c0
00000010: 63e6 66c0 e175 5dc0 0ff8 25c0 6165 56c0
00000020: 65fd 58bf 9a86 18c0 ede2 b9c0 2e89 24c0
00000030: 2b19 67c0 fa19 6ec0 a385 07c0 e912 d4bf
00000040: dddc 253f f42c a93f 3006 3bc0 d4d8 cabe
00000050: 9dca 82c0 f080 88c0 8091 58c0 c311 50c0
00000060: fff7 2ec0 178b df3f 3de9 84c0 8754 33c0
00000070: 067e 0b40 8114 2ac0 4e53 91bf eaf0 8440
00000080: cc37 88bf 89f8 b0c0 a48a febf cad7 97bf
00000090: 8250 0fc0 f464 6cc0 ec76 3cbe 14e2 613e
000000a0: 8795 e5bf 4153 57c0 a9eb 50c0 0be6 0dc0
000000b0: 14ec d8bf 7095 9fc0 8b33 e4bf e062 3e3f
000000c0: 0ab5 80bf 31c8 38c0 0204 0bc0 e635 6cc0
000000d0: 8196 06c0 1342 7abf 3c72 4e3f 1d75 16c0
000000e0: a2e7 2bc0 0915 81c0 dd80 ca3f 9b15 98bf
000000f0: 8e2d 33c0 a6c3 16c0 5f01 5240 3324 47c0
00000100: 274a fa3e 269d 5abf 6872 76c0 5b0f 61c0
00000110: c303 8fc0 e4ca 1dc0 53f4 07c0 f480 bdbf
00000120: c8c9 91bf 3166 86c0 664e e83e 60af e1bf
00000130: ec94 0cc0 d044 c23e 03c2 35c0 ad74 89c0
00000140: 88b7 bbbf 0887 1cc0 51fe 1c3f 2e47 adbf
00000150: 9272 97bf 4626 e539 85c8 5cc0 e260 f7bf
00000160: 1c3d e7be 532f 0fc0 4238 b8c0 6139 3ac0
00000170: 0756 22c0 b766 f03e 34d6 69c0 b30f 17c0
00000180: 0def 95c0 771e 36c0 5fa9 31c0 5c61 72c0
00000190: f7d3 dfbf 40e1 24c0 f234 7ec0 86a0 83c0
000001a0: c2a0 79c0 7560 00bf 908c fbbf aafd 7cbf
000001b0: a411 3ac0 8ff3 4cc0 d8c3 05c0 31df 13c0
000001c0: 32c6 2bc0 7e0c 933f 9a3a 5ac0 f83d 55c0
000001d0: fba1 b3bf 8eb1 6fbf 1caa e0bf 89d5 90c0
000001e0: 1afe 51c0 3aea dfbf 47ba 80bf 7da4 b7c0
000001f0: 75cb e2bf 5d58 77c0 6f6f 94c0 4cce 1ac0
00000200: ce03 b7bf 6e1d 1ac0 ba0a ff3e c939 b13e
00000210: 691e ba3e f515 4ac0 5ae8 b5bf 179e 97c0
00000220: d714 87be 1c1a 3ac0 b586 92c0 50eb 00c0
00000230: 4899 5fc0 397a a1be ee5f 6bbf adb3 9dbf
00000240: c6bb d4bf e943 32c0 33e7 70be ddf5 89c0
00000250: c855 d7bf 96f4 39c0 42c6 27c0 9f3a bebf
00000260: 469f 72c0 b89e 34bf bca8 4dc0 878b 50c0
00000270: 0bac 42c0 3158 9bc0 cbc9 d2bf f520 ddbe
00000280: 1a74 1dbf fd41 3740 8801 40c0 e14f 44c0
00000290: 8744 b8bf 39c5 bfbf e91f 2bc0 3ebe ccbe
000002a0: d781 43c0 496e 2bc0 8bdb 9cbf 4648 4fc0
000002b0: 7df7 3ec0 2a68 39c0 2aa2 25c0 318a 923f
000002c0: 0dcb 52c0 c841 a9bf f800 85c0 c194 acc0
000002d0: 294c aabf b0d1 1fc0 5fd5 69c0 c55f 57c0
000002e0: d001 0440 d3a3 e9bf acf2 cabf d60f 653e
000002f0: 7706 bbc0 f478 27c0 3f8e 6cbd a404 14c0
00000300: e5fe 38c0 19c3 803f 74c4 1bbf 3962 c5bf
00000310: 698d 6ac0 d232 e7bf bf54 83c0 d9d5 e1bf
00000320: 8b46 aabf 4f5c 673e 8614 47c0 d98e 2ac0
00000330: 9aa0 1f3e 4749 83c0 80f2 38bf 4746 6fc0
00000340: 2de7 bebf 5dbd 39c0 e224 e53f 62da 54c0
00000350: 33a4 83c0 80d3 1bc0 a47e 4fc0 5d94 1dc0
00000360: 3431 2fc0 b4c8 00c0 64ad 8abf 9067 5a3f
00000370: 6775 4ac0 7f9d 75bf 3bcb 5dc0 15a1 1340
00000380: a537 52c0 d175 36c0 2b44 8cc0 1150 1fc0
00000390: 282d 1fc0 abb2 28c0 761f 93c0 c9ee 71c0
000003a0: b070 42c0 e168 67c0 aa9b 6e40 8794 49c0
000003b0: 8e21 dbbf 2c18 10c0 ea85 c8bf 875e 14c0
000003c0: 2ec7 e2bf 3585 5cc0 df1a 6dc0 8413 96c0
000003d0: 6eef a6be c740 24c0 688c d7bf 008c 84c0
000003e0: cfa0 43c0 97b1 33c0 1448 e03e 30a4 03c0
000003f0: 4df6 a3bf d3fb e3c0 9141 9dbf 808f 69c0

weight f4 [256, 256]
-0.09948701 -0.024566928 -0.16524948 -0.023355192 -0.04945847 0.06909753 -0.00058498833 0.018957071
0.00326775 -0.11862537 -0.09175405 -0.117999345 -0.042712413 -0.08037066 -0.068984315 -0.02903511
-0.008563461 0.037143264 -0.022780158 -0.10209813 -0.00892944 0.01350268 -0.050035182 -0.010246244
-0.072143085 -0.024676917 0.029601738 -0.002005465 0.033678655 -0.018730313 -0.050838638 -0.10238214
0.014971961 -0.06352982 -0.08408672 -0.03676242 -0.04868354 -0.008747114 0.010688094 -0.009684323
-0.04904539 0.031733647 -0.12656088 0.058743726 -0.023773909 0.0035220368 -0.017298017 -0.11787366
0.018983357 -0.06909131 -0.1310232 -0.1002545 0.008702986 0.045529038 -0.015170742 -0.095973626
-0.07145013 -0.009015728 -0.098619714 -0.08937639 -0.05487505 0.05778266 -0.09129449 0.03596891
-0.025962304 0.05366195 -0.15400624 -0.07645023 -0.038989983 -0.056227677 0.035862513 -0.010660066
0.00015899792 -0.077558145 0.00015556159 -0.027783567 0.012515551 -0.10296357 -0.025139049 -0.13051295
-0.041173864 -0.095332995 -0.05210165 -0.063152015 -0.0025079213 -0.06191859 -0.019990526 -0.025137752
0.0043772394 -0.07072268 -0.01087639 -0.10756762 -0.04555497 -0.017623618 -0.04568388 -0.058961418
0.045214605 -0.088576235 -0.1379362 -0.05334819 -0.00016120807 -0.06875576 0.004520673 -0.017272748
-0.08280048 -0.04709366 -0.039343774 -0.03939805 0.013639412 -0.025940705 -0.030070556 -0.028205182
0.011283609 -2.8766367e-06 -0.006910657 -0.11508531 -0.02377895 0.03846125 -0.081826076 -0.11282978
-0.07060936 -0.027373955 -0.052449603 -0.036024235 -0.05408728 -0.122789115 0.0006505763 -0.12829855
-0.03701848 0.023283493 -0.054856263 -0.060835667 -0.102091044 -0.055368904 -0.10004081 -0.026008915
-0.03433056 -0.07132899 -0.07222991 -0.025575284 0.0086335465 -0.028110804 0.03398111 -0.053821247
-0.12074661 -0.0561888 -0.019275041 -0.10209209 -0.12709205 -0.03456481 -0.0068860697 0.023153907
-0.06224006 -0.09203409 -0.0046357857 -0.0064345207 -0.0034375973 0.01880465 -0.011054028 -0.030388067
-0.023323601 0.03269471 -0.014721186 -0.023783648 -0.020352522 -0.05017214 -6.560312e-05 -0.00833748
-0.025845652 -0.0069686063 -0.12408152 0.038670294 -0.030529374 0.014567618 -0.100967005 -0.12256936
-0.10934087 0.031757087 -0.010303503 -0.05071505 -0.054490432 -0.03582558 -0.015811475 -0.06315464
0.027587922 0.011463557 -0.09431676 -0.002160296 -0.004920209 0.01829038 0.0057948446 -0.121926546
0.052088995 -0.058411457 -0.07096738 -0.060019795 -0.04603559 -0.0478937 -0.0585609 0.016541246
-0.099887304 0.0037276838 -0.050304066 -0.011478901 -0.08215837 -0.057131957 -0.06462804 -0.05912864
-0.010318991 -0.021352267 -0.06992484 -0.05018324 0.028347874 0.049787372 -0.07370961 -0.09673083
-0.06072803 -0.08400759 -0.012534866 -0.04921992 -0.10235685 -0.06034902 0.0042118276 -0.08613978
-0.1101374 -0.032835748 -0.12582223 -0.02402552 -0.120575145 -0.0236116 -0.01639262 -0.026391502
-0.036674634 -0.069792636 -0.038174078 -0.059755247 -0.094175026 -0.032925304 -0.04031231 -0.013512797
0.012385443 -0.06563239 -0.04668167 0.0044422145 -0.07252743 -0.02473086 -0.007485902 -0.07308319
-0.15223354 -0.058662727 -0.016983878 -0.035921693 -0.055732936 -0.057190012 -0.008485411 0.056089193
00000000: d8bf cbbd 9540 c9bc 2937 29be 6353 bfbc
00000010: f794 4abd 0183 8d3d e759 19ba dc4b 9b3c
00000020: bf27 563b dcf1 f2bd 8ce9 bbbd a4a9 f1bd
00000030: 36f3 2ebd 5f99 a4bd a647 8dbd 0adb edbc
00000040: c24d 0cbc 8923 183d 749d babc d318 d1bd
00000050: c94c 12bc 583a 5d3c b1f1 4cbd dddf 27bc
00000060: c1bf 93bd 3f27 cabc 587f f23c 1f6e 03bb
00000070: a1f2 093d 5070 99bc 2d3c 50bd baad d1bd
00000080: f54c 753c ec1b 82bd a935 acbd 3194 16bd
00000090: 6468 47bd 0e50 0fbc 1e1d 2f3c ffaa 1ebc
000000a0: d2e3 48bd 24fb 013d 2d99 01be 439d 703d
000000b0: 80c1 c2bc f9d1 663b 92b4 8dbc bf67 f1bd
000000c0: fc82 9b3c bf7f 8dbd f22a 06be 3b52 cdbd
000000d0: f896 0e3c a87c 3a3d b48e 78bc d28d c4bd
000000e0: 7254 92bd b4b6 13bc 22f9 c9bd f80a b7bd
000000f0: a9c4 60bd 83ad 6c3d 9bf8 babd 2354 133d
00000100: e6ae d4bc a2cc 5b3d d0b3 1dbe f091 9cbd
00000110: f6b3 1fbd fe4e 66bd 92e4 123d 8fa7 2ebc
00000120: aeb8 2639 ced6 9ebd 3f1e 2339 5d9a e3bc
00000130: 070e 4d3c 90de d2bd 68f0 cdbc 30a5 05be
00000140: eda5 28bd f23d c3bd 8a68 55bd d855 81bd
00000150: f05b 24bb 599e 7dbd 2cc3 a3bc b0ed cdbc
00000160: f26e 8f3b 0dd7 90bd e332 32bc 6a4c dcbd
00000170: d997 3abd 685f 90bc 051f 3bbd 8781 71bd
00000180: f332 393d 7567 b5bd 263f 0dbe a283 5abd
00000190: f609 29b9 d2cf 8cbd 2722 943b 947f 8dbc
000001a0: 4c93 a9bd 48e5 40bd f026 21bd da5f 21bd
000001b0: d777 5f3c 9a81 d4bc 8756 f6bc 8e0e e7bc
000001c0: e3de 383c 3e0c 41b6 cb72 e2bb d9b1 ebbd
000001d0: 13cc c2bc 8b89 1d3d 6e94 a7bd 4d13 e7bd
000001e0: a49b 90bd 583f e0bc 65d5 56bd 268e 13bd
000001f0: a08a 5dbd dc78 fbbd 708b 2a3a b260 03be
00000200: b1a0 17bd 06bd be3c f6b0 60bd d22e 79bd
00000210: 1c15 d1bd 81ca 62bd 32e2 ccbd a610 d5bc
00000220: 349e 0cbd ef14 92bd 46ed 93bd 4283 d1bc
00000230: b873 0d3c a148 e6bc c72f 0b3d ab73 5cbd
00000240: 004a f7bd 3a26 66bd b1e6 9dbc a815 d1bd
00000250: 6b24 02be d593 0dbd 8aa4 e1bb 43ad bd3c
00000260: 6fef 7ebd 5e7c bcbd cae7 97bb acd8 d2bb
00000270: 5049 61bb 360c 9a3c f41b 35bc 65f0 f8bc
00000280: 2311 bfbc e3ea 053d 2131 71bc edd5 c2bc
00000290: 55ba a6bc 4d81 4dbd 6894 89b8 ed99 08bc
000002a0: 43ba d3bc e858 e4bb 741e febd be64 1e3d
000002b0: bd18 fabc 05ad 6e3c cac7 cebd a505 fbbd
000002c0: 1bee dfbd b813 023d 06d0 28bc 96ba 4fbd
000002d0: 5c31 5fbd d8bd 12bd 1187 81bc 3857 81bd
000002e0: 1100 e23c a5d1 3b3c 2529 c1bd c193 0dbb
000002f0: b439 a1bb b5d5 953c aee2 bd3b a0b4 f9bd
00000300: 455b 553d da40 6fbd 5957 91bd 51d7 75bd
00000310: d18f 3cbd 2f2c 44bd 8edd 6fbd 8281 873c
00000320: b791 ccbd 284c 743b a30b 4ebd 0012 3cbc
00000330: a642 a8bd 3303 6abd b55b 84bd df30 72bd
00000340: fc10 29bc f3ea aebc c134 8fbd f18c 4dbd
00000350: cd39 e83c d8ed 4b3d 10f5 96bd d01a c6bd
00000360: f4bd 78bd 2c0c acbd 0a5f 4dbc d49a 49bd
00000370: 78a0 d1bd 8930 77bd 5f03 8a3b 0e6a b0bd
00000380: b88f e1bd c77e 06bd 8bd7 00be 2bd1 c4bc
00000390: 1af0 f6bd 1d6d c1bc d149 86bc fe32 d8bc
000003a0: 2438 16bd 71ef 8ebd 6c5c 1cbd ebc1 74bd
000003b0: d6de c0bd afdc 06bd 851e 25bd c764 5dbc
000003c0: 50ec 4a3c 466a 86bd 4735 3fbd ff8f 913b
000003d0: 4389 94bd 5f98 cabc 4c4c f5bb a4ac 95bd
000003e0: 1ce3 1bbe 5448 70bd c621 8bbc a022 13bd
000003f0: 3848 64bd 1340 6abd 6506 0bbc c8bd 653d

bias f4 [256]
-0.06099371 -0.11405731 -1.8176577 -0.068746984 -0.103716426 -2.2058585 -0.17063037 -0.081347294
-0.09418232 -0.14058715 -0.12382868 -0.8749264 -0.07148545 -0.08667629 -3.5894392 -0.08240612
-2.2538867 -0.12813888 -0.5478408 -2.6118896 -0.06963288 0.07745591 -0.13124076 -0.07908307
2.0038583 -0.8844051 -0.20386423 -0.10019262 -0.029223932 -0.059627805 -0.68805134 -0.12052204
-0.09544272 -0.1487824 -0.50391704 -0.06518379 -0.08089664 -0.16577068 -0.6683304 -0.32065633
-0.093197845 -0.17643891 -1.1748983 0.74195266 0.5433967 -0.5567962 -1.2144403 -2.8554251
-0.8066779 -2.630191 -0.13793984 -3.0917153 -1.5582238 1.7881924 0.19998111 -0.118449375
-0.9999292 -0.83988965 0.7511441 -0.14315026 -0.08897942 0.96249056 -0.14748453 -0.12806451
-1.0873067 -2.0632775 -0.13738969 0.32930878 -0.16084689 -0.17683727 -0.1551343 -0.36095476
-0.0733322 -0.52919084 -2.0054908 -4.209262 -0.99991214 -1.8593907 -1.3871877 -0.14387175
-2.630079 0.52196217 -0.1927591 -0.19845864 -0.08728411 -0.12517743 -3.106939 -2.1143503
0.8758905 -0.09914735 -0.09647226 1.6915796 1.6262476 -0.101060264 -0.18669944 -0.11824645
-0.55622053 -0.46565542 -0.13603257 -0.101113096 -0.0796307 0.8184616 -0.36444563 -0.6246739
-0.20272222 -0.033037145 -0.596692 -0.27831632 -0.43382585 -0.13507442 -0.13041703 -0.13944094
-0.928875 -1.5922816 -0.4059066 -2.6315794 -0.059757527 -0.3893952 -0.5226902 -0.55453676
-0.17079063 -0.17182581 1.5139478 -0.11524336 -0.22106127 -2.15165 2.026763 -0.09382892
-1.0073608 -1.5093651 -0.089863725 -0.2348052 -0.053675793 0.38284993 -0.15304846 -0.0748992
-1.6889472 -0.08833465 -1.4948819 -2.1007745 -1.4980018 -0.14314696 -1.008429 -0.1684555
-1.207858 0.35926893 0.48732245 -0.14443617 -0.058214854 -1.0559593 -0.11358689 1.9545761
-0.084369294 -0.12841323 -0.14819756 1.2141415 1.3953577 -0.7166799 0.49018615 -0.18025716
-0.079267904 -0.028588187 -0.044141594 -0.15393128 0.14102311 0.19088961 -0.02656367 -0.1348588
0.96747243 -0.14297429 1.8255048 -0.15592137 0.120944284 -0.49984294 -1.6441038 -0.059743874
-0.102797575 -0.851657 -1.4555196 -4.038469 -0.15236934 -0.16748703 0.3032336 -0.7433286
-0.06545504 -0.1279152 -0.12042236 -0.07456563 -0.116355136 -0.16665046 -0.12965253 -0.12890722
-1.729366 -0.16450244 1.0607648 -0.09548939 -0.5409114 -1.3809867 -0.10070733 -1.8859166
-0.15108816 -0.9431396 0.71055627 -0.045534108 -1.719402 0.17422825 -0.14544252 -1.8351591
-0.4055074 -0.15087844 -1.4364654 0.6431138 -0.11283999 -2.3990822 -0.13346027 -0.1045324
-1.2024755 -0.57822806 -1.8405832 -1.3793498 -0.81378615 -0.54129654 1.4093249 -2.3679912
-2.5768466 -0.41156498 -0.10509283 -0.0751403 -0.12205976 0.26305982 -0.1470764 -2.2759287
-0.048893347 -0.5602804 0.8389978 -0.114224434 -0.27218258 -0.0032043552 -0.7019679 -0.07190872
-0.13792773 0.03894106 0.9966628 -0.07562018 -1.738542 -1.801021 -0.12482148 -0.1329287
-0.19903015 -0.15052247 0.32965326 -0.9264315 -0.09030565 -0.1773187 -0.1257474 -0.054726142
00000000: 8ad4 79bd e196 e9bd 02a9 e8bf 38cb 8cbd
00000010: 4769 d4bd c92c 0dc0 bab9 2ebe 6999 a6bd
00000020: a9e2 c0bd 14f6 0fbe e499 fdbd 2dfb 5fbf
00000030: f766 92bd 5783 b1bd 5fb9 65c0 8ac4 a8bd
00000040: ae3f 10c0 d736 03be 4b3f 0cbf 3329 27c0
00000050: af9b 8ebd 34a1 9e3d fa63 06be 4ef6 a1bd
00000060: 373f 0040 5f68 62bf c9c1 50be ca31 cdbd
00000070: 0767 efbc 493c 74bd 2224 30bf 42d4 f6bd
00000080: 7977 c3bd 6a5a 18be b500 01bf 147f 85bd
00000090: 23ad a5bd cabf 29be b317 2bbf 112d a4be
000000a0: 83de bebd 67ac 34be 1163 96bf 9cf0 3d3f
000000b0: 0c1c 0b3f 328a 0ebf c872 9bbf 49bf 36c0
000000c0: 7182 4ebf 0d55 28c0 1a40 0dbe aade 45c0
000000d0: e173 c7bf 7de3 e43f d9c7 4c3e 9695 f2bd
000000e0: 5cfb 7fbf 0203 57bf fb4a 403f fb95 12be
000000f0: d83a b6bd c865 763f 2f06 17be 5823 03be
00000100: de2c 8bbf bd0c 04c0 e2af 0cbe 299b a83e
00000110: 0cb5 24be d414 35be 87db 1ebe 10cf b8be
00000120: 312f 96bd 0d79 07bf f659 00c0 46b2 86c0
00000130: 3efa 7fbf 8400 eebf 5e8f b1bf 1e53 13be
00000140: 3753 28c0 509f 053f a462 45be be38 4bbe
00000150: 03c2 b2bd 832e 00be 17d8 46c0 8451 07c0
00000160: 5c3a 603f c40d cbbd 4093 c5bd ae85 d83f
00000170: e228 d03f aff8 cebd 232e 3fbe 322b f2bd
00000180: 7864 0ebf 636a eebe 1f4c 0bbe 6214 cfbd
00000190: 6c15 a3bd b386 513f 9e98 babe a1ea 1fbf
000001a0: 6a96 4fbe f551 07bd cfc0 18bf 7a7f 8ebe
000001b0: 6c1e debe f350 0abe 0b8c 05be 9bc9 0ebe
000001c0: c1ca 6dbf e2cf cbbf fdd2 cfbe cc6b 28c0
000001d0: 4fc4 74bd cf5e c7be 06cf 05bf 1ff6 0dbf
000001e0: bde3 2ebe 1bf3 2fbe 0bc9 c13f b604 ecbd
000001f0: e35d 62be a2b4 09c0 7cb6 0140 6029 c0bd
00000200: 33f1 80bf e032 c1bf 790a b8bd c670 70be
00000210: 26db 5bbd e804 c43e bcb8 1cbe c064 99bd
00000220: 6c2f d8bf cce8 b4bd 4a58 bfbf 1773 06c0
00000230: 86be bfbf 1e95 12be 3414 81bf 997f 2cbe
00000240: 179b 9abf 19f2 b73e 5482 f93e 13e7 13be
00000250: b372 6ebd ad29 87bf 3ea0 e8bd 8d2f fa3f
00000260: cfc9 acbd c27e 03be 1ac1 17be fd68 9b3f
00000270: 159b b23f 5578 37bf aef9 fa3e 5595 38be
00000280: 3657 a2bd c631 eabc d1cd 34bd 29a0 1dbe
00000290: 5d68 103e 9178 433e 0e9c d9bc 6d18 0abe
000002a0: 46ac 773f da67 12be 24aa e93f daa9 1fbe
000002b0: a3b1 f73d 6aeb ffbe fe71 d2bf feb5 74bd
000002c0: 8987 d2bd 3106 5abf 774e babf 233b 81c0
000002d0: b506 1cbe b881 2bbe 6f41 9b3e c84a 3ebf
000002e0: 4b0d 86bd 34fc 02be 00a0 f6bd ddb5 98bd
000002f0: 9a4b eebd 6ba6 2abe a2c3 04be 4100 04be
00000300: dd5b ddbf 5473 28be 24c7 873f f18f c3bd
00000310: 2b79 0abf 2cc4 b0bf a53f cebd b765 f1bf
00000320: dbb6 1abe 9971 71bf 04e7 353f f981 3abd
00000330: 5d15 dcbf e468 323e e2ee 14be 7ee6 eabf
00000340: aa9e cfbe e17f 1abe 19de b7bf 1ba3 243f
00000350: a718 e7bd 908a 19c0 cfa9 08be 1515 d6bd
00000360: b8ea 99bf c106 14bf 3b98 ebbf 898e b0bf
00000370: 4a54 50bf 6992 0abf c264 b43f 2b8d 17c0
00000380: 0eeb 24c0 a5b8 d2be e93a d7bd 28e3 99bd
00000390: 78fa f9bd c7af 863e 329b 16be d1a8 11c0
000003a0: 6444 48bd 896e 0fbf 8fc8 563f 80ee e9bd
000003b0: 845b 8bbe 2900 52bb 2bb4 33bf e144 93bd
000003c0: ed3c 0dbe a980 1f3d 4b25 7f3f c1de 9abd
000003d0: 8b88 debf db87 e6bf 67a2 ffbd 761e 08be
000003e0: 8fce 4bbe 9022 1abe 50c8 a83e 9d2a 6dbf
000003f0: 2bf2 b8bd 0993 35be edc3 00be 8528 60bd

weight f4 [6, 256]
0.0022264624 0.026370807 -0.08410658 0.01922451 -0.03276158 -0.3118276 0.06845078 0.022965504
-0.020662282 0.074858524 -0.10283435 -0.22706367 0.032971207 -0.033368915 -0.050149735 0.005827018
0.086104505 0.036117718 -0.058554266 -0.14916292 0.06523766 0.13215287 0.027146308 -0.08386954
0.008170382 0.10473143 -0.13492607 -0.017110495 -0.12536627 0.09614912 -0.34522736 0.059188552
0.017774986 0.06624796 -0.013277079 0.05864023 -0.03645871 0.03218221 0.046119716 -0.6735517
0.047620382 -0.017100029 -0.44704473 -0.011791727 -0.014501157 0.02671844 -0.026363134 0.09667719
-0.26452833 -0.42054224 -0.0806416 -0.5730262 -0.035006635 0.04709408 -0.011411848 -0.1255685
-0.14978005 0.23059684 -0.00021506037 0.010845966 -0.0045880848 -0.027890265 0.019188654 0.033967253
-0.048083562 -0.55446213 -0.037230056 0.17522056 -0.05680591 -0.022449711 0.012240109 -0.04036716
0.003508894 -0.23922832 -0.07343364 0.1814736 0.10388639 0.1277713 0.0023026504 0.11706108
-0.08940299 0.0590813 -0.04447489 -0.117015705 -0.036279514 0.09778833 -0.008289912 -0.08238438
0.014174256 -0.0032604786 0.014907391 -0.0105721 -0.02088305 0.033323523 -0.0838811 0.044270575
-0.103209555 -0.06545377 -0.2549209 0.0073497477 -0.05191139 -0.03619954 -0.7608773 -0.06990956
-0.14377993 -0.006607106 0.08850663 -0.04732398 0.3005615 0.048604205 -0.031138776 -0.06585582
-0.0808651 -0.17122053 0.10343498 -0.09076004 -0.016979888 0.09619983 -0.32118872 0.07130423
-0.06946534 -0.13870393 -0.05078648 -0.24340595 -0.23497272 0.07539275 -0.068161614 -0.041387025
-0.0033804874 0.008120286 0.15731925 0.07699627 -0.029082194 -0.027961284 -0.052007116 -0.04353128
-0.24831524 -0.01844829 -0.7303383 -0.08643254 -0.18328413 -0.003194787 0.021710934 -0.15469122
0.1485021 -0.0026696061 0.032759313 0.011034886 -0.1430172 -0.2261301 -0.0007666639 -0.012130307
0.06392069 -0.03447343 0.027628535 0.040699426 -0.04085065 -0.21194564 0.06810152 -0.031471785
-0.04666776 -0.047022223 -0.013456747 0.018826604 0.048283402 0.048068684 0.04326549 0.1563474
0.038570713 0.088928 0.030063774 0.02601119 -0.005807389 0.121909566 0.0045867716 0.02069449
0.047365163 0.08791855 -0.13438706 0.03408426 -0.081053995 -0.008470387 -0.043571446 0.06158394
-0.019274361 -0.0026865366 -0.03907037 -0.01900066 -0.013888759 -0.018068118 -0.08389819 0.02643566
-0.08073425 -0.09799746 0.0050654677 -0.020504564 -0.0024930572 -0.067843325 -0.014191449 -0.39234862
0.046736978 0.017889231 -0.20715073 -0.008943682 -0.08333395 0.045098644 0.10046478 -0.73787385
-0.26967618 -0.09607194 0.059938908 -0.08439562 0.034073204 -0.096879214 0.039847407 0.03971977
-0.17846736 0.0411787 -0.079383634 0.039090715 0.07063722 -0.18585613 0.031552367 -0.10958347
0.0020709273 -0.2430063 -0.050214685 -0.038479287 0.009424443 0.03605267 -0.023165245 0.12406235
0.051718775 0.0070253843 -0.1718336 0.017932119 -0.05076736 -0.1414796 -0.071420066 -0.041893616
-0.03580708 -0.028325316 -0.022833494 -0.044622857 0.094779916 0.018093703 -0.021495482 -0.059837
0.06690572 0.09876967 -0.0060524573 0.040015053 0.01776698 -0.0512075 0.10512223 0.044472557
00000000: d7e9 113b 9707 d83c 1240 acbd b87c 9d3c
00000010: 0231 06bd dea7 9fbe ec2f 8c3d 2722 bc3c
00000020: f243 a9bc 6d4f 993d d19a d2bd 6183 68be
00000030: d10c 073d d8ad 08bd cf69 4dbd 92f0 be3b
00000040: 8f57 b03d 2cf0 133d 99d6 6fbd 2abe 18be
00000050: 539b 853d 1553 073e ef61 de3c cbc3 abbd
00000060: 11dd 053c 6f7d d63d 0f2a 0abe 4f2b 8cbc
00000070: 0460 00be d4e9 c43d a4c1 b0be b26f 723d
00000080: d99c 913c 03ad 873d 1b88 59bc bd30 703d
00000090: ba55 15bd 7ed1 033d 07e8 3c3d e26d 2cbf
000000a0: 970d 433d 5c15 8cbc 0ce3 e4be 1632 41bc
000000b0: 4396 6dbc a1e0 da3c 80f7 d7bc b1fe c53d
000000c0: 4270 87be 5051 d7be 6c27 a5bd d8b1 12bf
000000d0: 1e63 0fbd b9e5 403d c2f8 3abc 0795 00be
000000e0: f15f 19be 9421 6c3e d481 61b9 47b3 313c
000000f0: a557 96bb 207a e4bc 8631 9d3c 3f21 0b3d
00000100: 45f3 44bd 3bf1 0dbf 8b7e 18bd 056d 333e
00000110: 50ad 68bd 75e8 b7bc bd8a 483c 0958 25bd
00000120: 79f5 653b 45f8 74be 6064 96bd 37d4 393e
00000130: 63c2 d43d 7bd6 023e 10e8 163b b8bd ef3d
00000140: ea18 b7bd 3cff 713d 4d2b 36bd eea5 efbd
00000150: d499 14bd 3f45 c83d 69d2 07bc 24b9 a8bd
00000160: 233b 683c c1ad 55bb 213e 743c 9a36 2dbc
00000170: ee12 abbc 3f7e 083d dbc9 abbd 1055 353d
00000180: 885f d3bd a00c 86bd fe84 82be 27d6 f03b
00000190: 0aa1 54bd f845 14bd dbc8 42bf be2c 8fbd
000001a0: 0c3b 13be 6c80 d8bb f742 b53d cad6 41bd
000001b0: 32e3 993e 3415 473d bf16 ffbc 6bdf 86bd
000001c0: 9a9c a5bd 6f54 2fbe b8d5 d33d 66e0 b9bd
000001d0: 6819 8bbc 6b04 c53d d972 a4be f407 923d
000001e0: d843 8ebd 6708 0ebe 7c05 50bd 693f 79be
000001f0: b09c 70be 8467 9a3d 5198 8bbd 7185 29bd
00000200: 2b8b 5dbb f30a 053c 4c18 213e 38b0 9d3d
00000210: c83d eebc 100f e5bc 6a05 55bd db4d 32bd
00000220: 5a46 7ebe de20 97bc 73f7 3abf 8b03 b1bd
00000230: d6ae 3bbe a25f 51bb 21db b13c 6067 1ebe
00000240: ef10 183e 8ff4 2ebb a12e 063d abcb 343c
00000250: 1a73 12be a68e 67be f2f9 48ba 32be 46bc
00000260: dae8 823d 0334 0dbd 3d55 e23c 71b4 263d
00000270: 0353 27bd 4708 59be cf78 8b3d 8fe8 00bd
00000280: b126 3fbd 609a 40bd b079 5cbc 403a 9a3c
00000290: d1c4 453d abe3 443d 2837 313d 8819 203e
000002a0: 53fc 1d3d e21f b63d 4e48 f63c 6b15 d53c
000002b0: e94b bebb b9ab f93d a14c 963b 7e87 a93c
000002c0: f901 423d a40e b43d c39c 09be f09b 0b3d
000002d0: a3ff a5bd 61c7 0abc f977 32bd 713f 7c3d
000002e0: 44e5 9dbc 9b10 30bb 4108 20bd 46a7 9bbc
000002f0: ad8d 63bc 9703 94bc d0d2 abbd 998f d83c
00000300: 0058 a5bd e4b2 c8bd 39fc a53b 30f9 a7bc
00000310: 8f62 23bb 71f1 8abd 4083 68bc ebe1 c8be
00000320: 466f 3f3d 708c 923c 521f 54be 8588 12bc
00000330: fdaa aabd 5bb9 383d 7bc0 cd3d 4de5 3cbf
00000340: ff12 8abe 5ec1 c4bd 8082 753d 9cd7 acbd
00000350: 5890 0b3d 9c68 c6bd 0937 233d 33b1 223d
00000360: 26c0 36be ffaa 283d e393 a2bd 961d 203d
00000370: 3faa 903d 1251 3ebe 0e3d 013d 4c6d e0bd
00000380: 65b8 073b a5d6 78be eaad 4dbd 759c 1dbd
00000390: fb68 1a3c f7ab 133d 0ac5 bdbc 6714 fe3d
000003a0: 11d7 533d 3235 e63b 26f5 2fbe 61e6 923c
000003b0: 6ff1 4fbd 07e0 10be af44 92bd a498 2bbd
000003c0: 72aa 12bd 7e0a e8bc 4f0d bbbc 75c6 36bd
000003d0: f91b c23d 3f39 943c 4b17 b0bc a417 75bd
000003e0: de05 893d c147 ca3d b153 c6bb d3e6 233d
000003f0: 0f8c 913c f5be 51bd 534a d73d db28 363d

bias f4 [6]
0.8646537 0.54061 0.31479412 0.49453565 0.12867752 0.22760966
00000000: f259 5d3f 6b65 0a3f b22c a13e c733 fd3e
00000010: 0ac4 033e 8212 693e

weight f4 [6, 256]
0.027156718 0.09308579 0.047966417 0.0345023 0.05224204 0.13016796 0.050298326 0.099675596
0.081378065 0.050098483 0.08507244 0.22904107 0.14988151 0.026928963 -0.020484414 0.0760197
0.0117073525 0.057720073 -0.009317222 0.008267684 0.0068035163 -0.00980083 0.04233111 0.11057448
-0.024110438 -0.021991532 -0.05624158 0.011283044 -0.044668358 0.028603945 0.2307128 0.017461749
-0.027170137 0.0127433175 -0.043955598 0.07078273 0.09796486 0.041104253 0.17442723 0.06711805
0.02687481 0.01948448 0.38565946 -0.004667245 -0.011673633 0.09264435 0.0165267 0.26994994
0.17414233 0.08124825 -0.03163806 0.3961324 0.2122221 -0.00710567 0.011381892 -0.07065057
0.57515883 0.09308925 -0.026508046 -0.0044925986 0.04712347 0.035553414 -0.04470358 0.038945556
0.026661279 0.18011577 0.06957569 -0.008937657 0.042693466 0.022164404 -0.0131250825 0.1884272
-0.071800075 0.15990332 0.20736066 0.2797756 0.018188473 0.093733646 0.24212813 0.02142933
0.03494496 -0.039095134 0.018830605 0.061679486 0.04768362 0.007475327 -0.01515257 0.21592912
0.017700538 0.058273774 0.032605417 -0.005788585 0.01395059 0.07116108 0.05511979 0.09228247
0.3395573 -0.015693761 0.0056375433 0.0308213 0.08974336 0.007403249 0.48125997 0.007297323
0.08380437 0.017477252 -0.0028271019 0.5639961 0.056868583 0.09320373 -0.027956065 0.0052964436
-0.02735865 0.31223306 0.1321461 0.072454415 -0.0074796863 0.20611575 0.22685696 0.038970936
0.012960527 0.15165989 0.010894755 0.0261881 0.15711725 0.21986486 0.029561134 0.041422702
0.00782638 -0.048375964 0.3162467 0.048106153 -0.038582988 0.0028383639 0.022685261 0.049900524
0.61791635 0.020046078 0.33781043 0.31857818 0.15610525 -0.03984577 0.012308011 0.018527664
0.024967086 0.024367467 -0.013879848 0.09234939 -0.0009694624 -0.006546385 0.10291408 0.039768036
0.04185181 0.02893756 0.030627413 0.0042840885 -0.028634427 -0.003737463 0.012993047 0.11676031
0.03462794 -0.036896 0.03650131 -0.020984191 -0.00249123 0.0019721347 0.057674997 0.065383136
-0.03411759 -0.050814234 -0.0054432456 0.028558603 0.012078811 -0.03556703 0.054183345 0.02617709
-0.0426519 -0.021842342 0.20612101 0.30327404 0.017492348 0.076521546 -0.022612033 0.0040619434
0.060925875 -0.005142569 -0.039821006 -0.028239317 -0.015070804 -0.07563054 -0.063173726 0.0023084066
-0.01739582 0.043080013 0.0046529206 0.024870632 0.01540554 0.0006202552 0.006634547 0.36451995
-0.06334288 0.03484833 -0.0047834255 -0.0034875502 0.102321446 0.018159844 0.13563026 0.50416887
-0.048571374 0.034023922 -0.0016043741 0.07829337 0.07565347 0.5240047 0.035320505 -0.00012997809
0.26416102 0.121294774 0.08218336 0.011576397 -0.01587186 0.27325892 0.004397705 -0.018473154
0.060209673 0.045200855 0.057187263 0.029763645 0.03556545 -0.035422347 0.01686595 0.22219655
-0.016959038 -0.046765104 -0.0077848225 -0.01989558 0.016955739 -0.006384467 0.06927594 0.025523663
0.10308595 0.0048248353 -0.01843639 0.059259556 0.10173945 0.063501105 -0.030151734 0.022246985
0.035342462 0.018408462 0.009638923 0.014702989 -0.05686886 0.020630293 0.019223271 -0.081125244
00000000: c477 de3c c3a3 be3d 6f78 443d 4952 0d3d
00000010: c0fb 553d c04a 053e 9e05 4e3d b822 cc3d
00000020: 8ba9 a63d 1134 4d3d 763a ae3d be89 6a3e
00000030: 8a7a 193e 219a dc3c eece a7bc 37b0 9b3d
00000040: 32d0 3f3c e26b 6c3d 43a7 18bc 2e75 073c
00000050: 08f0 de3b a993 20bc 6363 2d3d df74 e23d
00000060: 4183 c5bc 9627 b4bc 925d 66bd 84dc 383c
00000070: 2bf6 36bd d252 ea3c fa3f 6c3e f10b 8f3c
00000080: e893 debc 59c9 503c c90a 34bd 89f6 903d
00000090: cda1 c83d ef5c 283d 0d9d 323e 3075 893d
000000a0: 9028 dc3c eb9d 9f3c 2875 c53e b0ef 98bb
000000b0: c442 3fbc 52bc bd3d 0163 873c e136 8a3e
000000c0: 5e52 323e 7c65 a63d e996 01bd ded1 ca3e
000000d0: c050 593e aed6 e8bb 1d7b 3a3c 3fb1 90bd
000000e0: 9c3d 133f 94a5 be3d 6727 d9bc a636 93bb
000000f0: 8a04 413d 75a0 113d 1a1b 37bd 6085 1f3d
00000100: c168 da3c 4570 383e b37d 8e3d 406f 12bc
00000110: 58df 2e3d 2092 b53c 960a 57bc 0ff3 403e
00000120: eb0b 93bd b2bd 233e 5a56 543e bf3e 8f3e
00000130: feff 943c 6df7 bf3d 70f0 773e 908c af3c
00000140: 7222 0f3d 3822 20bd a442 9a3c a1a3 7c3d
00000150: e64f 433d 96f3 f43b 7c42 78bc 861c 5d3e
00000160: b800 913c 7bb0 6e3d 428d 053d 2cae bdbb
00000170: 0491 643c e6bc 913d 4ac5 613d 97fe bc3d
00000180: 74da ad3e 3490 80bc 24bb b83b f37c fc3c
00000190: 5ecb b73d f496 f23b b567 f63e 621e ef3b
000001a0: a0a1 ab3d 742c 8f3c e646 39bb 0c62 103f
000001b0: 08ef 683d 99e1 be3d 1e04 e5bc ca8d ad3b
000001c0: 3f1f e0bc 03dd 9f3e 4f51 073e fb62 943d
000001d0: 2818 f5bb 0210 533e 314d 683e fd9f 1f3d
000001e0: 6458 543c bb4c 1b3e ea7f 323c 6d88 d63c
000001f0: 58e3 203e 4124 613e 312a f23c daaa 293d
00000200: 383a 003c e025 46bd 16eb a13e f50a 453d
00000210: 3209 1ebd d803 3a3b 71d6 b93c 7e64 4c3d
00000220: c42f 1e3f ac37 a43c 7df5 ac3e ae1c a33e
00000230: 0eda 1f3e 5135 23bd 8aa7 493c 54c7 973c
00000240: c687 cc3c 489e c73c 4d68 63bc ad21 bd3d
00000250: 8523 7eba 0f83 d6bb 9ec4 d23d cfe3 223d
00000260: ce6c 2b3d 760e ed3c 57e6 fa3c 8a61 8c3b
00000270: bf92 eabc 39f0 74bb cae0 543c 0820 ef3d
00000280: 07d6 0d3d 4320 17bd 6682 153d 0ae7 abbc
00000290: e743 23bb ee3e 013b 9e3c 6c3d 98e7 853d
000002a0: e3be 0bbd 9622 50bd 415d b2bb bbf3 e93c
000002b0: 35e6 453c bcae 11bd 5bef 5d3d 5671 d63c
000002c0: c2b3 2ebd b6ee b2bc 6311 533e bc46 9b3e
000002d0: 1d4c 8f3c 54b7 9c3d df3c b9bc 0d1a 853b
000002e0: 698d 793d ff82 a8bb 5a1b 23bd 2456 e7bc
000002f0: 89eb 76bc 2fe4 9abd 3a61 81bd a348 173b
00000300: ae81 8ebc ab74 303d 8777 983b 7fbd cb3c
00000310: 8567 7c3c 9f98 223a 9d66 d93b 5ca2 ba3e
00000320: e9b9 81bd 1fbd 0e3d 48be 9cbb 628f 64bb
00000330: e88d d13d f4c3 943c a9e2 0a3e 3611 013f
00000340: c7f2 46bd ab5c 0b3d dd49 d2ba 4658 a03d
00000350: 35f0 9a3d 2c25 063f 3cac 103d ba4a 08b9
00000360: 1d40 873e 6569 f83d c04f a83d eeaa 3d3c
00000370: b405 82bc 98e8 8b3e a01a 903b 0355 97bc
00000380: 6b9e 763d 8824 393d 313d 6a3d e3d2 f33c
00000390: 14ad 113d 0617 11bd 762a 8a3c 7e87 633e
000003a0: aeed 8abc c48c 3fbd d317 ffbb 0efc a2bc
000003b0: c3e6 8a3c ca34 d1bb 8be0 8d3d 0017 d13c
000003c0: ba1e d33d a719 9e3b ea07 97bc 26ba 723d
000003d0: c65c d03d de0c 823d c500 f7bc 4f3f b63c
000003e0: 42c3 103d 58cd 963c 93ec 1d3c cee4 703c
000003f0: 52ef 68bd dc00 a93c 1f7a 9d3c fe24 a6bd

bias f4 [6]
-0.593823 -0.61928034 -1.1014446 -0.59105927 -0.5866796 -1.043122
00000000: c904 18bf 2889 1ebf 23fc 8cbf a94f 17bf
00000010: a230 16bf 0685 85bf

weight f4 [256, 23]
-2.541916 -2.3313117 3.042087 7.850971 1.2242674 -4.121683 -1.4065806 -0.6457595
-0.24329217 -1.3923203 2.2518525 -1.862298 -1.0839597 -0.06444013 0.18860282 -0.02654452
-0.06936488 -0.2907251 -0.74259764 -1.9778963 0.4173492 -0.40403092 -0.5150292 -1.3914021
7.6131063 1.2092043 2.7166865 0.5642397 2.1920571 0.95191467 -3.5146601 -0.8620456
3.5098207 1.0758175 0.013717941 0.19816305 0.116273805 -0.59844905 -0.20572652 -0.028130794
-0.18495938 0.1615199 1.3594922 -0.05758545 0.2619806 0.5087321 -4.648964 1.0713228
-1.6132523 0.6743735 -0.7320147 0.733789 0.89856577 -1.5478821 0.16144307 0.24156462
-1.2232198 0.20466733 0.07209153 -0.033222854 0.9423243 0.6285678 -1.3302993 0.18276666
0.07130791 0.59681964 -0.1339487 0.2396777 0.44913042 0.18528028 -0.46462178 -1.1152724
1.3969287 -0.032238048 1.392946 -0.010103676 -1.4831573 -0.8618633 2.358893 1.0276319
0.884676 0.5008019 0.04712117 -1.6336178 -0.863634 -0.03553202 0.14347367 0.3929304
-0.25554398 -0.105032936 -0.3247191 0.94102144 -3.3983643 -1.1731706 -1.367149 -2.511991
-0.5126687 3.4518476 -3.7272332 -1.838635 -0.6366828 -1.0225875 0.76200545 -0.21961233
0.01325195 -0.055326723 0.24956337 0.44064957 0.12048461 -0.5682778 -0.11934225 -0.33855882
0.40021956 0.3154442 -0.12820825 -0.95608574 -1.8228737 -1.210784 -3.7159944 -1.5844363
0.22832252 3.3752987 -0.3278156 -0.9134492 -0.3324611 0.32471213 0.29470292 0.49427348
-0.09080994 0.21257333 0.21102655 0.3366638 -1.6654948 2.5594604 -0.70234156 -0.06363003
0.6334784 0.63409996 -3.2086678 -6.2914414 1.3242698 -1.184234 0.17359798 -1.3522931
0.34988397 -0.46670455 0.2415156 1.1315209 -1.171375 0.64316833 0.13351591 -0.04268695
0.00847811 0.16999519 -0.13599013 0.42851177 -0.7201717 -0.32099536 0.60793364 -0.17553602
-0.8127488 -0.34214306 -3.755928 0.7891653 1.2566003 0.004817956 1.6453221 2.3610566
0.5810388 2.6465888 1.9064388 -0.7251555 0.056806624 -0.07692236 0.14138104 0.49189705
-0.043875806 -0.0004822106 0.20099595 0.26075888 0.44236812 -0.14658153 0.17049922 0.20562886
-3.1562939 -5.6445994 6.972806 4.890396 0.7506278 2.3786316 1.7173511 -1.0077415
-0.38669255 -0.20071663 1.7324926 -1.4149237 1.038456 -0.0041824817 -0.25821963 -0.15217091
-0.001690213 -0.038590223 -0.22188514 0.5157748 -0.0931671 -0.30696929 0.14220612 0.24002184
3.1578703 -0.6298847 5.3392706 -2.5979311 2.519049 -2.641054 3.2107134 -2.1950572
-0.45835245 0.33863583 0.18191007 -0.07961358 -0.09214625 -0.39380053 0.12931801 -0.3153307
0.3365077 -0.84919864 -0.015894527 -1.1888398e-05 0.5935065 -1.0432203 -3.7675898 -4.573824
1.9588062 1.3746597 3.0665576 -1.834453 -0.59917045 -2.4094818 -0.67274654 -0.22901627
-0.10866516 -0.46973112 -0.17585431 0.107101545 0.669171 0.2324786 0.059824992 0.20497751
0.6965646 0.40464303 -1.1429373 0.72727376 0.5287998 -6.330553 11.89027 -7.2952304
00000000: c0ae 22c0 3634 15c0 8eb1 4240 283b fb40
00000010: cbb4 9c3f d4e4 83c0 d50a b4bf 7f50 25bf
00000020: 9521 79be 8d37 b2bf 5a1e 1040 c85f eebf
00000030: 31bf 8abf 30f9 83bd 1921 413e e573 d9bc
00000040: 2d0f 8ebd ecd9 94be e11a 3ebf b52b fdbf
00000050: cbae d53e 24dd cebe f4d8 03bf 7719 b2bf
00000060: 919e f340 35c7 9a3f 31de 2d40 0372 103f
00000070: aa4a 0c40 aeb0 733f 31f0 60c0 05af 5cbf
00000080: e7a0 6040 63b4 893f 37c1 603c 41eb 4a3e
00000090: f620 ee3d f533 19bf f9a9 52be 8d72 e6bc
000000a0: fe65 3dbe 7965 253e d703 ae3f b9de 6bbd
000000b0: 5222 863e 443c 023f 50c4 94c0 1b21 893f
000000c0: 0d7f cebf bea3 2c3f 5165 3bbf 99d9 3b3f
000000d0: 6808 663f 0021 c6bf 5551 253e b75c 773e
000000e0: 7792 9cbf 5094 513e b9a4 933d b014 08bd
000000f0: 2a3c 713f d2e9 203f 3f47 aabf 2f27 3b3e
00000100: e209 923d 2cc9 183f d929 09be 126e 753e
00000110: 6cf4 e53e 1dba 3d3e e8e2 edbe 3fc1 8ebf
00000120: 8fce b23f 0b0c 04bd 0e4c b23f e389 25bc
00000130: 19d8 bdbf 13a3 5cbf 1af8 1640 7189 833f
00000140: 207a 623f 8e34 003f 2102 413d 631a d1bf
00000150: 1e17 5dbf 068a 11bd c3ea 123e 2c2e c93e
00000160: a9d6 82be 821b d7bd 9541 a6be c8e6 703f
00000170: cd7e 59c0 742a 96bf bdfe aebf 76c4 20c0
00000180: 423e 03bf 12eb 5c40 fd8a 6ec0 6458 ebbf
00000190: a5fd 22bf 26e4 82bf ca12 433f 0ee2 60be
000001a0: b51e 593c 469e 62bd 8a8d 7f3e d29c e13e
000001b0: a3c0 f63d a77a 11bf b669 f4bd 9557 adbe
000001c0: 94e9 cc3e e781 a13e 0649 03be 09c2 74bf
000001d0: ed53 e9bf f8fa 9abf dad2 6dc0 cfce cabf
000001e0: 61cd 693e e504 5840 72d7 a7be cfd7 69bf
000001f0: 5738 aabe ab40 a63e 4de3 963e 6a11 fd3e
00000200: 90fa b9bd d3ac 593e 5817 583e 335f ac3e
00000210: ef2e d5bf 33ce 2340 a8cc 33bf 7650 82bd
00000220: a42b 223f 6054 223f d05a 4dc0 7d53 c9c0
00000230: ac81 a93f fb94 97bf abc3 313e f117 adbf
00000240: fe23 b33e e6f3 eebe de4f 773e add5 903f
00000250: 9eef 95bf aea6 243f 65b8 083e 83d8 2ebd
00000260: c5e7 0a3c 3813 2e3e ff40 0bbe e565 db3e
00000270: 2c5d 38bf 8159 a4be 8aa1 1b3f b7bf 33be
00000280: 4e10 50bf 602d afbe 2061 70c0 bd06 4a3f
00000290: 47d8 a03f f2df 9d3b ea99 d23f 8d1b 1740
000002a0: f5be 143f b661 2940 3006 f43f caa3 39bf
000002b0: 10ae 683d 7889 9dbd 31c6 103e eed9 fb3e
000002c0: 1eb7 33bd 36d1 fcb9 e2d1 4d3e 3082 853e
000002d0: 137e e23e 7819 16be 5997 2e3e 5f90 523e
000002e0: b800 4ac0 8fa0 b4c0 3a21 df40 207e 9c40
000002f0: 2529 403f 803b 1840 29d2 db3f acfd 80bf
00000300: 91fc c5be a988 4dbe 51c2 dd3f 381c b5bf
00000310: 20ec 843f 330d 89bb 5d35 84be b1d2 1bbe
00000320: 238a ddba c810 1ebd dc35 63be d109 043f
00000330: 64ce bebd 142b 9dbe 7b9e 113e 49c8 753e
00000340: 8c1a 4a40 2040 21bf 4edb aa40 8144 26c0
00000350: 1938 2140 0707 29c0 547c 4d40 d17b 0cc0
00000360: 2cad eabe ad61 ad3e a246 3a3e 720c a3bd
00000370: 2cb7 bcbd 39a0 c9be f16b 043e 0773 a1be
00000380: bd4a ac3e 1565 59bf 3d35 82bc 4874 47b7
00000390: 0bf0 173f 3e88 85bf 3120 71c0 c45c 92c0
000003a0: 29ba fa3f d9f4 af3f 7b42 4440 5bcf eabf
000003b0: 3c63 19bf f334 1ac0 1e39 2cbf 3e83 6abe
000003c0: d78b debd 9980 f0be 2713 34be 0e58 db3d
000003d0: ca4e 2b3f df0e 6e3e 0d0b 753d a0e5 513e
000003e0: 0f52 323f 5f2d cf3e c54b 92bf 9d2e 3a3f
000003f0: 6c5f 073f e493 cac0 8c3e 3e41 8772 e9c0

bias f4 [256]
1.4037318 2.4921236 -6.4073873 -2.236452 -2.33904 -2.8361673 -3.1275103 0.798497
-6.3860793 -0.08995928 -2.8226178 -4.166586 -2.6882935 -3.3002276 -5.053126 1.6781245
-3.0357394 0.10562327 5.5230517 0.19778265 5.740489 -2.9309282 3.7366254 -0.3670331
4.920191 -0.3323719 -2.3148077 -1.6131804 5.699285 -1.0910563 0.27333158 -5.3339148
-1.795255 -1.2737861 0.18489367 0.9779286 -0.0054471456 -4.260817 -3.3803494 -0.98657763
-1.6739504 -2.3453019 1.6701608 -3.3557978 -0.54646367 -6.5987034 -1.082752 -4.562633
-1.3670785 -3.544279 -2.6561744 3.4004514 -2.5511246 -1.9068365 0.50559616 0.9804327
0.06921442 -0.79402167 -2.3220572 -0.7660773 -1.9198542 -1.7661682 -3.0476043 -4.009951
2.059407 -1.5289326 -6.390585 -2.8678129 1.8477114 -2.4951727 -0.65013874 -1.158944
-3.2928886 0.48125654 -4.6316624 4.3717685 -1.1230892 -3.0071223 -1.9186602 -3.94481
-4.420995 -1.9918901 -2.6465857 -2.5975695 -0.20506702 0.74390954 5.3338437 -3.5459628
-2.1974094 5.4585166 -2.5908484 -3.7899277 -4.445299 -1.2788851 -1.4482037 5.6924434
-3.1482108 3.397776 -1.6492563 5.42403 0.16337155 0.50802803 -2.4104645 4.3025
-4.0196276 -3.836647 -1.307864 0.13491207 -1.4616909 -2.8508875 -3.3206189 -7.4887915
-3.1688116 -0.8399363 -3.6090133 5.7536454 -5.7229056 -1.5224537 -2.3196585 -3.7569454
-5.3444138 -2.8434253 -4.6316648 -5.761335 -1.9550059 -6.3975706 -4.010126 -0.27210096
-2.683877 -4.4303794 -0.5686272 -4.593952 1.7323468 -2.1335914 -2.3682697 -0.85174906
-2.6131094 4.2839518 -4.496394 -1.6768507 -3.8787203 -7.1313972 -5.4211645 -4.1132665
-2.8394687 -2.0895696 -1.8847239 -2.2290545 -2.713408 -4.4699097 -3.7966013 3.5425456
-1.6554939 -5.135827 4.433833 -1.7973616 1.1839038 -3.6377165 -2.164508 -0.5494083
-4.563874 -2.9511514 -0.09229875 -0.55514324 3.5285745 0.7690214 -2.500143 -0.38968304
-3.2466102 -2.2954137 -4.1823573 4.578668 -4.637385 1.6151177 -2.5905576 0.7061406
-2.021489 -0.3434096 -6.845313 -2.7973955 -1.8397748 4.3795 -2.9486094 4.760291
-3.0856283 -6.463784 -1.920435 -3.30514 -4.7357135 -0.5108927 -1.890991 -3.566801
-3.599044 -3.5402236 -1.6299493 -1.0752715 -1.9449427 -3.342164 -2.9922774 -2.7662437
2.506426 -1.3543515 2.946092 -5.660558 -3.1132839 -2.632035 -7.1439524 -4.750612
-2.271468 -0.6216599 -1.6837962 -2.366499 -3.3777552 4.8061137 5.4642296 -0.016719153
0.7038279 -5.177503 -5.427879 -3.0954077 -2.653995 0.9130543 4.5925484 5.469792
-4.2053795 -3.521842 -3.121081 0.041107666 -0.9932827 -2.8191488 -4.117878 -2.708935
-2.3335512 -1.1667607 -1.8090353 0.07730872 -4.682468 -5.6214323 -3.3840418 -3.299893
4.8202777 -7.528046 -0.6115066 0.11216508 2.14219 -2.836922 -2.4190326 -0.020057654
5.905331 -1.7555044 -4.388716 1.5048102 -0.26074898 -0.5606825 -2.744289 -3.6511433
00000000: 7cad b33f f47e 1f40 5109 cdc0 0822 0fc0
00000010: d5b2 15c0 c483 35c0 2129 48c0 4d6a 4c3f
00000020: c35a ccc0 923c b8bd c5a5 34c0 ac54 85c0
00000030: 000d 2cc0 ee36 53c0 35b3 a1c0 c9cc d63f
00000040: 8e49 42c0 0351 d83d d7bc b040 8987 4a3e
00000050: 16b2 b740 5494 3bc0 df24 6f40 c3eb bbbe
00000060: 3472 9d40 a62c aabe cf25 14c0 b27c cebf
00000070: 8b60 b640 bca7 8bbf 1ef2 8b3e 6eaf aac0
00000080: eaca e5bf 6c0b a3bf c454 3d3e 8759 7a3f
00000090: f87d b2bb 9d58 88c0 a557 58c0 5a90 7cbf
000000a0: 0244 d6bf 6d19 16c0 d4c7 d53f 64c5 56c0
000000b0: 0be5 0bbf 9428 d3c0 9e97 8abf 1701 92c0
000000c0: 6efc aebf 78d5 62c0 c3fe 29c0 ffa0 5940
000000d0: a045 23c0 3813 f4bf c06e 013f a3fd 7a3f
000000e0: 4ac0 8d3d 0145 4bbf 969c 14c0 a41d 44bf
000000f0: c8bd f5bf cd11 e2bf f30b 43c0 8551 80c0
00000100: 53cd 0340 10b4 c3bf ac7f ccc0 3f8a 37c0
00000110: cf81 ec3f e9b0 1fc0 7e6f 26bf 4758 94bf
00000120: b0be 52c0 4267 f63e 9436 94c0 87e5 8b40
00000130: 63c1 8fbf b174 40c0 a896 f5bf c477 7cc0
00000140: cb78 8dc0 41f6 febf a961 29c0 943e 26c0
00000150: 17fd 51be db70 3e3f d9ae aa40 0ef1 62c0
00000160: 5ba2 0cc0 2bac ae40 76d0 25c0 2d8e 72c0
00000170: e43f 8ec0 82b2 a3bf bd5e b9bf 7f28 b640
00000180: 497c 49c0 2975 5940 d51a d3bf a791 ad40
00000190: df4a 273e 200e 023f 0d45 1ac0 14ae 8940
000001a0: caa0 80c0 a08b 75c0 1668 a7bf 6426 0a3e
000001b0: b018 bbbf f174 36c0 0585 54c0 2ea4 efc0
000001c0: cfcd 4ac0 1106 57bf 13fa 66c0 dd1d b840
000001d0: 0b22 b7c0 c3df c2bf 4975 14c0 cb71 70c0
000001e0: 7005 abc0 aefa 35c0 9936 94c0 db5c b8c0
000001f0: a23d fabf e6b8 ccc0 f452 80c0 d150 8bbe
00000200: a4c4 2bc0 abc5 8dc0 8d91 11bf a801 93c0
00000210: 8abd dd3f c38c 08c0 bb91 17c0 3a0c 5abf
00000220: 2f3d 27c0 2216 8940 76e2 8fc0 0ba3 d6bf
00000230: f43c 78c0 6834 e4c0 2e7a adc0 e19f 83c0
00000240: dbb9 35c0 82bb 05c0 a23e f1bf d4a8 0ec0
00000250: 7aa8 2dc0 8009 8fc0 84fb 72c0 11b9 6240
00000260: 39e7 d3bf b258 a4c0 f6e1 8d40 f20f e6bf
00000270: 298a 973f 59d0 68c0 4d87 0ac0 06a6 0cbf
00000280: 410b 92c0 aadf 3cc0 2107 bdbd de1d 0ebf
00000290: 2ad4 6140 96de 443f 5802 20c0 8984 c7be
000002a0: 76c8 4fc0 0fe8 12c0 dfd5 85c0 7384 9240
000002b0: 7565 94c0 2dbc ce3f b2cb 25c0 a1c5 343f
000002c0: 1360 01c0 62d3 afbe ce0c dbc0 8708 33c0
000002d0: be7d ebbf dd24 8c40 04b6 3cc0 4e54 9840
000002e0: ef7a 45c0 52d7 cec0 d0d0 f5bf 6a87 53c0
000002f0: f78a 97c0 ddc9 02bf fe0b f2bf 7846 64c0
00000300: bd56 66c0 0693 62c0 2ea2 d0bf 7fa2 89bf
00000310: e2f3 f8bf 04e6 55c0 7981 3fc0 230a 31c0
00000320: 4969 2040 645b adbf c58c 3c40 4b23 b5c0
00000330: 0b40 47c0 4373 28c0 429b e4c0 0305 98c0
00000340: bb5f 11c0 1a25 1fbf a286 d7bf b874 17c0
00000350: 242d 58c0 afcb 9940 f8da ae40 9bf6 88bc
00000360: 112e 343f 1bae a5c0 2fb1 adc0 291b 46c0
00000370: 0edb 29c0 edbd 693f 28f6 9240 8908 af40
00000380: 7892 86c0 dc65 61c0 cbbf 47c0 8360 283d
00000390: c647 7ebf ef6c 34c0 a8c5 83c0 315f 2dc0
000003a0: e758 15c0 6a58 95bf 788e e7bf 0954 9e3d
000003b0: c7d6 95c0 c6e2 b3c0 2494 58c0 7231 53c0
000003c0: b73f 9a40 c1e5 f0c0 b28b 1cbf ceb6 e53d
000003d0: a419 0940 2190 35c0 6ed1 1ac0 f34f a4bc
000003e0: 79f8 bc40 5eb4 e0bf 5d70 8cc0 9f9d c03f
000003f0: e480 85be e388 0fbf 6ea2 2fc0 55ac 69c0
