log/mujoco_sac_hopper_v3_1/mujoco_sac_hopper_v3_1_s1/pyt_save/model.pt (torch_old, 847474 bytes, 18 tensors)

weight f4 [256, 11]
000000 a3 a5 3b be 97 75 21 bf b7 cd 2f 40 34 6c 5f 3f
       -0.18324904 -0.6307005 2.7469308 0.8727448
000010 38 ac b4 bf 4f ae ee bf 00 7f d9 bf b1 ae 15 3f
       -1.4115057 -1.8646945 -1.6991882 0.5846968
000020 c7 e1 f7 be 98 1f c1 3e 5b 00 ee 3d 84 64 9d bf
       -0.48414442 0.37719417 0.116211616 -1.22963
000030 12 86 00 40 de 22 32 40 ba a5 93 3e 41 3d 81 40
       2.008183 2.7833781 0.28837377 4.0387273
000040 fe 29 2a bd ba 28 d5 3f dd 76 11 3f bc af 03 bf
       -0.041543953 1.6653054 0.56821996 -0.51440024
000050 f5 1f 70 bf 07 14 c7 bb da 83 98 bf 21 45 37 40
       -0.9379876 -0.0060753855 -1.1915238 2.8635943
000060 73 ed 48 40 dc 4c 90 3e 1a 8c 85 3f 87 80 bf bf
       3.1394928 0.2818364 1.0433381 -1.4961098
000070 4e 4c 9e bd c9 c9 28 bd 8d ec a0 3e e9 34 a3 3e
       -0.07729398 -0.041208062 0.31430474 0.31876305
000080 0b b6 14 3c fd 0a 76 bf 95 31 0a c0 e4 da 0e 40
       0.009076606 -0.96110517 -2.1592762 2.23211
000090 e4 51 22 40 c9 35 df 3f 01 20 83 bf 20 4e 8b 3f
       2.5362482 1.7438289 -1.0244142 1.0883217
0000a0 8d 38 c0 3e 87 b3 e7 be ba de 42 bd 2e 45 a9 3b
       0.37543145 -0.45254156 -0.04757569 0.0051657176
0000b0 27 e0 62 bf b6 37 9d bf b5 8b 4b bf 4f 86 24 41
       -0.8862328 -1.2282627 -0.7951005 10.28279
0000c0 a0 21 ec 3f 20 7e 54 bd f0 62 c7 be ba 5e 93 be
       1.8447762 -0.051878095 -0.3894267 -0.28783208
0000d0 18 74 19 3e 6d 88 86 3f c5 25 37 3e e3 19 bd bf
       0.14985693 1.0510384 0.17885502 -1.4773525
0000e0 b0 6a d1 40 b5 d9 67 c0 cd 77 e4 3f 74 94 1e c0
       6.5442734 -3.6226628 1.784906 -2.4778109
0000f0 c2 d8 6e bf 61 c0 67 3e 84 06 7f bf 70 0d 96 3f
       -0.93299496 0.2263198 -0.9961932 1.1722851
000100 bd 19 1f 3f 6d 3c 41 3e 8e 8a 81 bf b8 80 95 c0
       0.6214865 0.18870707 -1.0120409 -4.6719627
000110 27 8c 69 bf a7 fa d1 bf a9 f6 7b 3f 56 e5 b6 bf
       -0.9122948 -1.6404618 0.9842325 -1.4288738
000120 69 16 78 3f 35 54 29 3d 61 51 d1 3d e7 81 d4 bc
       0.96909195 0.04134007 0.102206 -0.025940849
000130 63 60 a7 3d d9 ee c6 bf 97 76 4c 40 31 15 24 c0
       0.08172681 -1.554164 3.1947381 -2.5637934
000140 0f 3d 9e be 0b 65 90 bf 2a 69 b6 3e cc 86 23 bf
       -0.3090596 -1.1280836 0.3562711 -0.6387756
000150 2e b1 7a 3f ef 0a 4e bf 52 12 e9 be 24 42 7c bc
       0.97926605 -0.80485433 -0.4552179 -0.0153966285
000160 4f 60 30 bf 4e b8 1c bf 79 6e 95 40 e2 31 7c be
       -0.68896955 -0.61218727 4.6697354 -0.24628404
000170 c7 03 1f c0 10 4c b7 bf d4 1e 3d bf 97 70 a2 be
       -2.4846056 -1.4320087 -0.73875165 -0.31726524
000180 f3 23 d0 3e c4 cc ff 3d 66 97 37 be d6 9d 1e bf
       0.40652427 0.12490228 -0.17928848 -0.6195959
000190 34 86 fc 40 9d e7 20 40 ce a6 ad 40 2b a4 6c 3f
       7.891382 2.5141366 5.426612 0.92438
0001a0 79 0b c1 bf 37 05 a6 3f 44 5a 85 3e a0 b0 0a bf
       -1.5081626 1.2970341 0.2604543 -0.5417576
0001b0 c6 57 15 3e ad 81 15 3d 10 c6 ed be 3b 0e 69 40
       0.14584264 0.03650062 -0.46440172 3.6414936
0001c0 80 17 78 40 bf f4 18 be 2a 9a e3 be 93 eb ba bf
       3.8764343 -0.14937113 -0.44453555 -1.4603142
0001d0 78 1a 02 bf a9 73 1d bc 4e dc ef bd 32 fe 8e 3e
       -0.5082164 -0.009610095 -0.11711942 0.2792831
0001e0 ce 19 2b be 53 78 2b 3f 45 c6 45 40 7c 3d 57 40
       -0.16709062 0.66980475 3.0902264 3.3631277
0001f0 2a d0 b0 3f 38 28 b2 3e 81 ba e8 bf b2 93 a8 3e
       1.3813527 0.3479631 -1.8181916 0.32925183
000200 3f 04 2c 3f d9 f0 e1 be e3 86 85 be 40 75 5f be
       0.6719398 -0.44129065 -0.26079473 -0.21822071
000210 40 ad 92 3f 8f f3 18 c0 6e 71 2f 40 bd 29 26 40
       1.1459122 -2.3898656 2.7412982 2.5962975
000220 e5 79 3f 40 21 cf 84 bf b3 81 ab 3d b3 b5 a8 be
       2.9918149 -1.0375711 0.083743475 -0.32951126
000230 52 a7 d0 3e 99 a6 b9 3e 67 78 94 3e 3b 19 44 bd
       0.40752655 0.36259916 0.2899811 -0.047875624
000240 90 da 31 40 be eb 37 c0 73 54 7e bf 59 65 e4 3f
       2.778965 -2.8737636 -0.9934761 1.7843429
000250 09 72 03 c0 01 cc 8f 3f bd 75 ce 3f 55 ab b0 bf
       -2.0538352 1.1234132 1.6129681 -1.3802286
000260 91 52 47 bf 44 73 84 bd 80 1f ec be ba 38 b7 3f
       -0.7786036 -0.06467298 -0.46117783 1.4314187
000270 12 46 67 bf e9 c5 82 3e a4 fd cb 3f 56 d7 8f bf
       -0.90341294 0.25541618 1.593678 -1.123759
000280 e1 5f 8f 3f 5c 11 6a bc a4 1a 70 3e 43 ef ff 3d
       1.1201135 -0.014286365 0.23447663 0.124968074
000290 81 a1 9c 3d 59 74 b1 bf af 3b b7 bf 09 c5 90 3f
       0.07647992 -1.3863631 -1.4315089 1.131013
0002a0 9c e9 2e c0 f9 fb 90 bf 22 10 bc bf db 3d cf bf
       -2.7330084 -1.1326896 -1.4692423 -1.6190752
0002b0 02 14 e9 bf 86 7f c8 3f 9d c8 18 bd 4f bb c0 3d
       -1.8209231 1.5663917 -0.037300695 0.09410726
0002c0 ee 1f 5e bf 7b e9 92 41 ca 7c 54 3f 9b c6 13 40
       -0.8676747 18.364004 0.83002913 2.308997
0002d0 78 1e 4d be c0 8c da 3e 56 62 4d 3c 2b b0 93 be
       -0.20031154 0.4268551 0.012535652 -0.28845343
0002e0 44 fa 3e 3f d6 7a 54 3e 8f 1e fa 3d 10 4f 49 c0
       0.74600625 0.20749983 0.1221286 -3.1454506
0002f0 d5 de 22 41 14 77 c3 3f 62 90 de 3f ea b1 10 c0
       10.179402 1.5270715 1.7387812 -2.260859
000300 b4 f7 c6 3e 2e 3b cb be 58 ee 90 3c 56 e8 3f 3e
       0.38860857 -0.39693588 0.017691776 0.18740973
000310 0d a5 f3 3d f4 26 43 3e b5 ef 30 3f 43 c7 b0 c0
       0.11896715 0.19057828 0.69115764 -5.524324
000320 ff b6 82 40 f2 ad 3e 40 1b a7 a2 3f 0d d3 8b bf
       4.0848384 2.9793668 1.2707247 -1.0923783
000330 17 90 d5 bc 45 8d 76 3f 49 cc 4b bf 1e a2 db be
       -0.026069684 0.9630931 -0.7960859 -0.42897123
000340 49 58 82 be 00 24 92 be 6c 45 a7 bf 2a 0f 50 40
       -0.2545798 -0.2854309 -1.3068061 3.2509255
000350 6b 3e 6b 40 2f a7 ee 3f c6 bf a6 bf 59 69 6f 3f
       3.6756847 1.864477 -1.3027275 0.9352012
000360 65 4c 2b 3f 8e 59 b7 be a3 c0 8d be 07 c1 09 bd
       0.66913444 -0.35810512 -0.27686033 -0.03363135
000370 ac ff d1 bf 7a fd b1 40 2f 33 5c c0 c8 a0 88 bf
       -1.640615 5.562192 -3.440624 -1.0674067
000380 09 15 f2 3f cc e9 b7 be 79 e1 1c bf 84 82 19 3f
       1.891267 -0.3592056 -0.61281544 0.59964776
000390 44 cc b2 be 98 ee 7f be 17 20 2c 3e a4 97 ba bf
       -0.34921467 -0.2499336 0.16809116 -1.4577527
0003a0 f8 20 41 3f 5a 8a 11 bf fe c5 00 c0 6b b3 da 3f
       0.7544093 -0.5685173 -2.0120845 1.7086004
0003b0 71 46 78 bf 79 bc fd bd f9 b9 10 3e e8 04 81 3d
       -0.96982485 -0.12389464 0.14133443 0.06299764
0003c0 ae 94 c8 bc 8e 4a 39 3e 58 c6 28 bf b7 8d ff be
       -0.024484958 0.18094847 -0.6592765 -0.49912807
0003d0 45 ef 1a 40 2d 12 27 c0 1b 6f 0a c0 38 bb de bd
       2.4208539 -2.6104844 -2.1630313 -0.10875553
0003e0 cb 93 ea 3e be 71 38 3f 19 df 34 bf 0f e0 e8 3c
       0.45815882 0.72048557 -0.7065292 0.028427152
0003f0 08 66 6c be 18 0d 23 bf 44 f9 96 bf d8 a0 4a 3f
       -0.23085797 -0.63691854 -1.179482 0.7915168

bias f4 [256]
000000 e5 b6 69 be 66 ab 4d bf c4 5f b2 bf ab 58 11 bf
       -0.22823675 -0.8033966 -1.3935475 -0.5677592
000010 31 57 fe be 67 6f 82 bf 77 f6 40 bf 87 f2 e2 bf
       -0.49675897 -1.0190247 -0.75376076 -1.7730263
000020 e8 63 da bd 04 55 6a bf 6a a8 9c be 18 38 16 3f
       -0.10663587 -0.91535974 -0.3059724 0.5867934
000030 45 31 16 be b5 a0 0d 3f 1d 57 29 bf 06 f2 b2 bf
       -0.14667232 0.55323344 -0.6614855 -1.398011
000040 ad c8 30 bf c2 46 27 c0 ec 0f c0 3f e2 39 2f bf
       -0.69056207 -2.6136937 1.5004859 -0.684477
000050 1a 09 b1 be 07 11 a5 bf 8f 75 53 bf 59 da 82 be
       -0.34577256 -1.2895821 -0.82601255 -0.2555721
000060 e8 e0 73 3e 95 29 62 3e cd 19 4d c0 67 cb 2b c0
       0.23816264 0.22086175 -3.2046998 -2.6842897
000070 8d 16 13 c0 e0 a0 dc bf c0 a8 89 bf fa b8 90 bf
       -2.2982514 -1.7236595 -1.0754623 -1.130645
000080 d4 b3 12 bd 89 af bf be 55 31 83 be 50 47 53 c0
       -0.03581603 -0.3743861 -0.25623575 -3.3012276
000090 5c 96 96 bf 9a 45 6b bf cd 14 3d 3f 80 18 5d bf
       -1.1764636 -0.9190308 0.73859864 -0.8636551
0000a0 53 9f 8f be 82 17 0d bf a3 91 86 3e 6d 3b f7 be
       -0.28051242 -0.55113995 0.26282987 -0.48287526
0000b0 ba ed 3d c0 df 6a 24 c0 18 60 3d c0 a4 5a 30 bf
       -2.9676347 -2.569023 -2.95899 -0.68888307
0000c0 c6 be 03 c0 1f 58 33 be 8f 88 10 c0 7e 92 95 bf
       -2.058519 -0.17514084 -2.2583349 -1.1685331
0000d0 2e ff 07 bf d8 24 0a bf 81 dc f1 be ba 50 41 bf
       -0.5312375 -0.5396247 -0.47238544 -0.75513804
0000e0 5d 6b 26 bf 43 d8 1a 3f ab 67 87 bf ba a4 46 bf
       -0.65007573 0.6048624 -1.0578512 -0.775951
0000f0 b0 03 3c bf d9 45 95 bf 15 ac 3d bf 23 e2 39 be
       -0.73443127 -1.1661941 -0.740907 -0.1815267
000100 b7 e4 a1 bf 8a 83 c7 bf 1b d7 c1 be d8 0b a3 bf
       -1.2647923 -1.5587018 -0.37859425 -1.273799
000110 bd 42 39 be 8b e1 6c bf 7b 9e 23 bd 08 7f 5f c0
       -0.18091865 -0.9253165 -0.03994606 -3.4921284
000120 24 8a 76 bf 24 ff 00 c0 41 d2 b3 3e 69 ac a1 be
       -0.96304536 -2.0155725 0.35121349 -0.3157685
000130 01 7e 0b bf 7f d7 6f bf c3 b3 63 be 81 0c b1 bf
       -0.5448914 -0.93688196 -0.22236542 -1.3831941
000140 4c 8e 4d 3f b7 f2 93 bf d1 68 bc 3f 61 62 79 bf
       0.8029525 -1.1558446 1.4719487 -0.9741574
000150 50 2d 6e 3e 07 cd 81 bf c2 a8 83 bf a6 c7 50 3f
       0.23259473 -1.0140694 -1.0285876 0.8155464
000160 7f 43 67 c0 16 7d 49 3f 47 48 e1 bf 5a ec dc be
       -3.6134946 0.7870649 -1.7600182 -0.43149072
000170 30 ee 8c bf b2 81 a9 bf ca 9d 0d c0 00 c3 6e bf
       -1.1010189 -1.3242705 -2.2127557 -0.93266296
000180 42 51 86 bf 0b 78 0b c0 4a f3 6f bd a7 81 74 c0
       -1.0493548 -2.1792018 -0.058581628 -3.8204134
000190 e6 64 5d c0 35 71 3c bf 06 24 0f bf 18 a7 6a bf
       -3.4592834 -0.7361024 -0.5591434 -0.91661215
0001a0 65 2c b1 c0 57 79 8c bf 1e 8c 26 bf 21 2a e3 be
       -5.5366693 -1.097453 -0.6505755 -0.4436808
0001b0 65 9a 46 3f 37 0d 68 bf d9 d2 95 bf 58 c6 f1 bf
       0.7757934 -0.90645164 -1.1704971 -1.8888655
0001c0 75 de b5 bf 27 2d 32 3d a5 40 08 c0 58 c7 e0 3b
       -1.4208513 0.043500092 -2.1289456 0.006859701
0001d0 76 7e 8e bf 2f 68 05 c0 31 5d 95 bf d6 07 96 bf
       -1.1132343 -2.0844839 -1.1669065 -1.1721141
0001e0 a2 3e 5c c0 c6 74 f5 bf 2e 95 a8 bf e8 c1 ca be
       -3.4413228 -1.9176261 -1.3170526 -0.39601064
0001f0 ab ba ad bf c2 50 71 bf 03 03 1d bf 97 a7 f2 be
       -1.3572592 -0.9426385 -0.6133272 -0.47393486
000200 95 c4 53 be 2e 0d 9b be a6 d5 c9 bf 8c 79 03 c0
       -0.20680459 -0.30283493 -1.5768325 -2.0542936
000210 96 03 b3 bf 53 c0 1a bf 05 66 23 3f a8 fc 9f bf
       -1.3985469 -0.60449713 0.63827544 -1.249898
000220 ea 46 8e bf d3 fb 18 bf bf 71 e7 be a1 be 76 bf
       -1.1115391 -0.59759253 -0.4520397 -0.96384627
000230 d0 c2 d6 bf 67 f3 f2 bf 51 88 7b c0 a0 90 5d bf
       -1.6778202 -1.898053 -3.930195 -0.86548805
000240 32 b5 f5 be a5 2c a9 bf df 56 4e bf 75 ec bd bf
       -0.47989804 -1.321675 -0.80601305 -1.4837786
000250 9f 32 87 3e c6 97 b4 bf 72 ba ce bf 69 cb 3b bf
       0.26405808 -1.4108818 -1.6150649 -0.73357254
000260 84 37 fc be 70 7d 8e bf e9 60 ad bf 6a 5b 80 bf
       -0.49261105 -1.113203 -1.35452 -1.0027897
000270 8a 43 63 bf 14 15 64 3d 51 34 a2 bf f5 8d 2a c0
       -0.8877493 0.055684164 -1.2672216 -2.6649144
000280 cc cc 84 bf 69 58 7c bf df b0 9c bf e7 a3 89 bf
       -1.0374999 -0.98572403 -1.2241477 -1.0753144
000290 76 43 a0 bf 55 3f e4 bf 56 7b 94 bf 70 a0 12 c0
       -1.2520587 -1.7831827 -1.1600139 -2.2910423
0002a0 73 b2 75 bf 4c db 41 c0 f1 8d da be f1 34 ba bf
       -0.95975417 -3.0290098 -0.42686418 -1.4547406
0002b0 9a d5 8a bf a6 4c 76 bf b1 01 8d bf a2 5e 80 bf
       -1.0846436 -0.96210706 -1.1016141 -1.002888
0002c0 01 f2 07 3f 12 35 4c bf a0 9e b5 bf 6a 89 18 c0
       0.53103644 -0.7976848 -1.4189034 -2.383387
0002d0 16 d2 00 bf 9a f4 b4 3e ca 1f 1c bf c1 45 ef bf
       -0.50320566 0.35342866 -0.60986006 -1.8693162
0002e0 5a 5b 27 bf e1 b7 d4 bf 85 cf 9c bf 40 73 40 bf
       -0.65373766 -1.6618615 -1.225083 -0.7517586
0002f0 bb ee 19 bf f3 d0 ee be 8f 30 fa bf d0 34 3f 3e
       -0.601299 -0.4664379 -1.9546069 0.1867249
000300 1e 96 b3 bf 93 e8 4d c0 6c d0 47 be dc 2a 05 bf
       -1.4030187 -3.2173202 -0.195131 -0.52018523
000310 e1 a2 35 c0 05 c7 b1 bf 8b b7 7f c0 7c d2 99 bf
       -2.8380663 -1.3888861 -3.9955776 -1.201736
000320 c5 f1 2a bf 19 59 49 bf 7d 1a f4 3e d2 d4 c4 be
       -0.6677516 -0.7865158 0.4767646 -0.3844362
000330 19 fe 6f bf 11 a2 a8 bf eb ab 09 bf 4f f6 f8 bf
       -0.937471 -1.3174459 -0.5377795 -1.9450167
000340 f9 9d a8 bf 18 c9 cf bf 6e 5a 8e bf 89 55 f2 bf
       -1.317321 -1.6233244 -1.1121347 -1.8932353
000350 11 03 80 c0 91 fe f4 bf f6 e8 36 c0 b5 83 b6 bd
       -4.0003743 -1.9140188 -2.8579688 -0.0891184
000360 93 4e 0b bf ba ba 20 c0 2f 20 54 bf 38 a1 ea bf
       -0.5441677 -2.511397 -0.8286161 -1.833045
000370 bb bd 00 c0 2a 55 a6 bf b3 68 97 bf 97 a7 6b bf
       -2.0115802 -1.299474 -1.1828827 -0.92052597
000380 8e 0a 90 bf dd 01 0d c0 69 36 bf bf 0f c1 4a bf
       -1.1253221 -2.2032387 -1.493848 -0.79200834
000390 17 17 a9 bf b2 79 98 bf 59 4e c7 bf b9 ec 01 c0
       -1.3210171 -1.1912138 -1.5570785 -2.0300734
0003a0 1d 11 5c bf 18 dd 81 bf ea 9b 3f bf 01 5a be 3f
       -0.8596361 -1.0145597 -0.7484728 1.4871217
0003b0 ba 09 19 3f ee 07 36 3f fe 6d ed 3f 82 ff a8 3f
       0.59780467 0.7110585 1.8549192 1.3202975
0003c0 c0 e3 ee be ba 88 80 bf dc 0e 9f bf 61 76 38 c0
       -0.46658134 -1.0041726 -1.242641 -2.8822253
0003d0 2b 4a dc bf 93 6c e8 bf 3c ef 6c c0 b9 f5 9f bf
       -1.7210134 -1.8158134 -3.7021017 -1.2496864
0003e0 d5 f1 ba bd 49 33 e6 3e 7c 51 a5 bd ec cc a6 be
       -0.09128157 0.44961002 -0.080721825 -0.32578218
0003f0 2f 48 11 3e ee d2 c5 bf 36 3c bb 3e ce ad ce bf
       0.14187692 -1.5454996 0.36569375 -1.6146791

weight f4 [256, 256]
000000 fe 08 c6 be 52 f9 5f c0 fa 4c 18 be e3 0f 2f 3e
       -0.38678735 -3.4995923 -0.14873114 0.17095904
000010 a5 30 fe 3d ef 90 79 3f 10 5e 22 bf c9 f4 97 bc
       0.12411622 0.97486776 -0.6342478 -0.01854934
000020 ff 5e 0d 3d 29 0e 37 be 56 d4 04 bf 37 89 9e be
       0.034514423 -0.17876495 -0.518865 -0.30964062
000030 f3 b1 39 be dd 6f ab 3d 32 25 85 bf de 5a 74 3e
       -0.18134288 0.083709456 -1.0401976 0.23862788
000040 d6 13 9c be b3 0b 82 3e ef 37 6e be 38 2e cc 3e
       -0.30483884 0.2539955 -0.23263524 0.39879012
000050 02 2d b5 3c 4d 86 46 be cc 2f 1c bf eb 8f 49 3f
       0.022116188 -0.19387169 -0.6101043 0.78735226
000060 63 67 8a bd 0d 68 5c 3f a1 c3 ff 3d b2 d3 34 3f
       -0.06758001 0.8609627 0.12488485 0.7063552
000070 9b f3 dd be 72 db 96 bf 39 e3 5c bf 83 3d 40 3f
       -0.4334992 -1.1785719 -0.86284214 0.7509386
000080 d7 ed 58 3e 79 37 de be 74 9e 2b bf c7 11 d4 bf
       0.21184479 -0.43401697 -0.67038655 -1.6567925
000090 9c a0 dd 3c 17 98 03 3d 4a e2 50 be 82 dd 33 be
       0.027054124 0.032127466 -0.20398822 -0.17564967
0000a0 47 ba 8f be a7 fe 01 3f b7 2e 9d be 6f 72 1a 3f
       -0.28071806 0.50779194 -0.30699703 0.6033086
0000b0 dd 98 86 bf 35 18 2c c0 6d 2c 60 bf 45 26 5b 3e
       -1.05154 -2.6889775 -0.8756779 0.21401317
0000c0 c0 62 4f bf ea 3b 14 be 93 19 8b 3f 33 db 22 bf
       -0.81010056 -0.1447598 1.086718 -0.6361572
0000d0 26 4c f4 3e 79 37 1e 3f ee d8 87 3e 53 b9 e4 be
       0.47714347 0.61803395 0.26532692 -0.4467264
0000e0 f9 21 85 bf d2 fb b0 bf 9a 16 10 3f ea a8 e3 bd
       -1.0400993 -1.382685 0.5628449 -0.11116202
0000f0 b6 fe 6d 3f 3b c4 11 bf 52 23 e9 be 86 9d 4c 3f
       0.92966783 -0.5694005 -0.4553476 0.7992786
000100 c2 ff 9e bf 70 87 6d be be 38 c9 3e 96 cf 33 be
       -1.2421801 -0.23196197 0.39301103 -0.17559657
000110 7d 03 c2 be 3a 54 a6 3e 1f b9 91 bf 8b be bd bf
       -0.37893286 0.32486135 -1.138462 -1.4823774
000120 b3 85 47 be 3c a0 a5 bf e1 9c b7 be 08 d5 80 3f
       -0.19484596 -1.2939525 -0.35861877 1.0065012
000130 d0 d0 1a bf 95 92 af bf b9 c7 d4 bf 06 1e 0f bf
       -0.6047487 -1.3716608 -1.662345 -0.5590519
000140 2b fe ee 3f e2 a1 a6 3d 2e 8e ce bf 7a 0c 40 3f
       1.8671316 0.081363454 -1.613714 0.7501904
000150 ef b2 39 3e 19 1f 36 3e f3 60 0b be 00 7c 6f bf
       0.18134664 0.177853 -0.13611202 -0.93548584
000160 af a1 9f bf 43 a0 88 be 76 e6 a2 3e 69 d2 9c bf
       -1.2471217 -0.2668477 0.31816453 -1.2251712
000170 50 c7 e7 be b3 3c 20 be d9 13 72 be 95 f2 de bf
       -0.4526925 -0.15648155 -0.23640384 -1.741778
000180 c1 6c ac bf a0 18 a0 bf 9b 06 cd bf cb 41 13 bd
       -1.3470689 -1.2507515 -1.6017641 -0.035951417
000190 9f 88 87 bf 33 b6 63 bd c1 69 d9 be f5 67 0c 3f
       -1.0588568 -0.05559368 -0.42463496 0.54846126
0001a0 30 29 2b 3f c4 17 1b 3f a6 d4 4f bd de a8 38 bf
       0.6685972 0.6058314 -0.050739907 -0.7213267
0001b0 80 5a 51 be ce 4a f9 3f 2b 48 de be 84 81 a7 3e
       -0.2044468 1.9475954 -0.43414435 0.32716
0001c0 86 e5 40 3f 95 6a ad be b9 6d 4b bf 11 55 83 bf
       0.75350225 -0.33870378 -0.794643 -1.0260335
0001d0 0e 1d ee 3e 0a a9 4f be 85 d0 00 3f 41 41 5e be
       0.46506542 -0.20279327 0.50318176 -0.2170458
0001e0 3a f4 aa bf 5d dd 7b be de 3c df bd 70 c3 af bf
       -1.3355782 -0.24596162 -0.10900281 -1.3731518
0001f0 e6 ca 01 3f a4 a5 21 be e9 9e 1c 3f 3b 7b 61 bd
       0.50700223 -0.15785843 0.6117998 -0.055049162
000200 d9 d2 4d 3e 21 56 bc bf 45 d4 ef 3e f4 58 5e bf
       0.20099963 -1.4713784 0.46841636 -0.8685448
000210 44 be 94 be fc 72 a3 bf 9b d9 68 bf 2e 8e 9e 3d
       -0.2905141 -1.2769465 -0.9095704 0.077419624
000220 7e 8b b0 bf cd 4b 81 3e 8c d0 7b 3d b2 0e 18 be
       -1.379257 0.25253144 0.061478183 -0.14849356
000230 12 9e b0 bd 60 02 15 3e 3f 72 b3 bf 17 c8 80 3d
       -0.086238995 0.14551687 -1.401924 0.06288164
000240 77 4c cc be bb 05 00 3f 3c c7 93 bf bd 03 0d 3f
       -0.39902088 0.50008744 -1.1545177 0.5508383
000250 a4 36 80 bf 40 ef ae 3d c0 f5 c9 3e 2b 72 d5 bf
       -1.0016675 0.08541727 0.39445305 -1.6675466
000260 e2 02 df bd 0a b5 21 bc 08 45 61 3e 4f 8a 7a bf
       -0.10889222 -0.009869823 0.2199899 -0.9786729
000270 97 58 8d bf 7b c1 aa be 2e 33 f6 be 54 d8 a9 bf
       -1.104266 -0.3335074 -0.48085922 -1.3269143
000280 bd e6 d9 be 65 58 0c 3d 07 20 56 be 2a 7f 66 3f
       -0.42558852 0.034263987 -0.20910655 0.90037787
000290 47 9a ad be 8c c1 9a 3e e3 71 3a bf f7 a9 8b be
       -0.33906767 0.3022579 -0.7283003 -0.2727811
0002a0 e1 6c b8 3e 4b c8 8c 3f dc f8 52 bf 28 62 00 3e
       0.36020568 1.0998625 -0.8241098 0.12537444
0002b0 26 18 4b 3f d0 e0 83 3e d5 44 2a 3e e5 78 97 ba
       0.7933372 0.25757456 0.1662782 -0.0011556415
0002c0 48 d5 12 bf 76 e6 1b 3f f7 33 b0 be e5 98 3f bf
       -0.5735669 0.6089853 -0.34414646 -0.74842674
0002d0 75 22 27 3f f9 95 3f bf 6b 87 86 bf 52 c9 95 3d
       0.6528695 -0.74838215 -1.0510076 0.073137894
0002e0 b9 15 0f bf 64 76 61 3f a3 7f ab be a1 c2 d8 bf
       -0.5589252 0.88071275 -0.33495817 -1.6934396
0002f0 f2 8b 48 bd e2 83 9f 3e 19 2a e8 be 53 5b 94 be
       -0.048961587 0.31155306 -0.45344618 -0.28975925
000300 ad 4f 8b 3f 9a ea 26 c0 21 4c db bf 23 d3 6d 3f
       1.088369 -2.608069 -1.7132608 0.92900294
000310 44 69 91 3f 52 e3 35 be 97 25 bf 3e 31 6e 87 3e
       1.136025 -0.17762497 0.37333366 0.26451257
000320 f1 e9 7b 40 e6 02 b7 be ec 83 c2 bf 39 33 67 3f
       3.9361537 -0.357444 -1.5196509 0.90312535
000330 38 6e e4 be 8a e9 0d 3e 7f 85 e6 bd 49 b2 90 bf
       -0.4461534 0.1385862 -0.11255931 -1.1304408
000340 b2 fe 84 3f ba 9f 7e bf 32 9e fc be 62 57 99 bf
       1.0390227 -0.99462473 -0.49339443 -1.1979792
000350 a7 64 a4 bf 93 21 b3 3c 77 ac cd bc 13 08 e1 be
       -1.2843217 0.021866595 -0.025106652 -0.43951473
000360 2c c3 16 bc 4f 64 1f be b6 57 47 3d 27 31 e4 3e
       -0.009201806 -0.15565608 0.048667632 0.4456875
000370 21 00 50 bf 13 7d 2d be 5e 97 3e be 9c a8 ca be
       -0.81250197 -0.16942243 -0.1861243 -0.39581764
000380 e7 a9 90 be a4 1e 90 bf 68 00 e4 3d 28 11 f2 3e
       -0.28254625 -1.1259351 0.1113289 0.47278714
000390 26 90 5d 3c 68 2c 06 3f 54 c6 80 be 3b 62 a2 bd
       0.013523137 0.5241151 -0.25151312 -0.07928892
0003a0 9a 8b ba bd c5 3f b7 bd e4 38 2c bf b9 eb 54 be
       -0.09108658 -0.0894771 -0.6727431 -0.20793046
0003b0 ae e0 d0 bf 60 50 25 c0 8f b3 2c 3f c0 9f d8 3d
       -1.6318567 -2.5830307 0.67461485 0.10577345
0003c0 63 20 e1 3c c3 0a e1 bf cd 03 d3 3e be 0d 27 bf
       0.027481264 -1.7581409 0.41213837 -0.65255344
0003d0 00 2b 86 3f 5b d5 83 bf aa 4d 46 3f 73 01 8d bf
       1.0481873 -1.0299486 0.77462256 -1.1016067
0003e0 80 ce 0a 3f 90 6a c5 bf 87 89 2b bf da dd 5d bf
       0.54221344 -1.5423145 -0.67006725 -0.86666644
0003f0 e8 af be be ee b2 f1 bf 4d dc a5 3d c4 90 4b be
       -0.3724358 -1.888273 0.0809866 -0.19879442

bias f4 [256]
000000 c5 77 dd be d4 3d 06 be 3f 3d 8b be d5 8e b8 3b
       -0.4325544 -0.13109523 -0.27195165 0.0056322613
000010 ba 94 fd bd ae d6 ca bd c5 2f 32 bf 0e cb ca bd
       -0.12381883 -0.09904228 -0.6960414 -0.09902011
000020 2a e6 d9 bf 3d 66 3c c0 d8 16 b7 bd c2 d9 6b c0
       -1.7023365 -2.9437401 -0.08939904 -3.685166
000030 bf 57 e8 bd 0c 34 2e be e2 a1 a8 bc 40 07 96 bd
       -0.11344861 -0.17012042 -0.020585004 -0.073256016
000040 f2 61 81 bf ac d0 35 be b3 98 a9 3e 42 60 e9 bf
       -1.0108016 -0.17755383 0.33124313 -1.82325
000050 b5 35 2d bf 5c 29 90 bf b9 08 c7 bd b8 20 93 3d
       -0.67660075 -1.1262622 -0.097184606 0.07183975
000060 66 86 d0 3f e4 de 07 be 34 47 51 c0 61 46 39 be
       1.6291015 -0.1326862 -3.269971 -0.18093254
000070 50 fd 8e 3b b2 89 62 be e9 fe ec 3e e1 e1 a8 be
       0.0043636933 -0.22122839 0.4628823 -0.32984832
000080 f6 60 b5 be cb 3d 09 bf 77 a7 2f be f2 b7 69 bd
       -0.35425538 -0.53609914 -0.17153727 -0.05706019
000090 e7 20 3b be ff a1 c4 bf 81 fc 0d bf 0d 09 dc bd
       -0.1827427 -1.5361937 -0.55463415 -0.10743914
0000a0 0b 93 60 3e 0f e0 a9 bd 9f 26 f0 bd 2f bc e8 be
       0.21931092 -0.08294689 -0.117261164 -0.45456073
0000b0 e7 3a 7c be 36 cc cb bd f9 e0 1d 3f 1d 4b 79 be
       -0.24631844 -0.099510595 0.61671406 -0.2434506
0000c0 2c 26 04 be 54 29 cd bd e2 08 75 be e5 58 b0 bd
       -0.12905186 -0.10017648 -0.2392917 -0.08610705
0000d0 0b f7 c2 3f c6 da 1e be 90 d6 e9 bd 3f e5 2c be
       1.5231642 -0.15513143 -0.11417878 -0.16884325
0000e0 18 be 21 be 28 b9 0a be 1c 3c a8 3f 06 19 9d be
       -0.15795171 -0.13547194 1.3143344 -0.30683154
0000f0 a2 c7 27 3f a1 ae 00 be 47 38 9b bd 5a a5 60 3f
       0.6553899 -0.12566616 -0.075790934 0.87752306
000100 2a e5 f6 bd 90 58 e7 bd 50 70 ca 3f 8c 29 e2 be
       -0.12055428 -0.11296189 1.5815525 -0.44172323
000110 7d 61 06 3d bb 06 3b 3f 74 ac 6a bf bc 71 95 be
       0.032807816 0.73057145 -0.9166939 -0.29188335
000120 61 69 cb bd a0 05 74 3c d8 ea 7d be 2d fa 13 be
       -0.09932209 0.014893919 -0.24796617 -0.14450903
000130 d9 26 8a bf ae aa 64 be fd 1a 8b bd 6a 96 31 bf
       -1.0793105 -0.22330734 -0.06792257 -0.6937014
000140 6b 58 8f bf 4b 16 cf 3e 9f 5b e7 bd 32 ce 0d be
       -1.1198858 0.40446696 -0.11296772 -0.13848189
000150 67 90 9f be 9d 44 b7 bd be fa 2b be fc 13 24 3f
       -0.31164858 -0.08948634 -0.1679487 0.64092994
000160 3b 0b 15 be 59 61 0f 3f bd 42 7c be b6 5c 88 bd
       -0.14555065 0.56007916 -0.24634834 -0.06658308
000170 15 8b 7d be e8 84 e9 bd 35 55 eb be b6 bb 0c bf
       -0.24760087 -0.11402303 -0.45963445 -0.54973924
000180 ce bf 91 be 2c 83 42 be d8 f6 ff bd 55 b5 7e bf
       -0.28466648 -0.1899535 -0.124982536 -0.9949544
000190 dd 78 ad bd 39 6e e2 3e ce 6c 24 be d7 5a 5f be
       -0.084703185 0.44224718 -0.1605713 -0.21811996
0001a0 c6 48 07 be 91 09 c9 3e 54 5a 1d be 66 c7 cb bd
       -0.13211355 0.3926511 -0.15366489 -0.099501416
0001b0 14 cf fe bd 16 c4 cc bd 6d ec ee 3e 4a 45 2d bf
       -0.12441841 -0.09998338 0.46664754 -0.6768385
0001c0 e7 a8 42 bf e5 55 db bd 85 15 d7 bd f4 0d 9a be
       -0.76038975 -0.107097425 -0.105021514 -0.3008877
0001d0 c0 1b 87 3e e5 d9 0f bd c8 01 25 be 69 48 a8 bd
       0.2638836 -0.03511991 -0.1611396 -0.08216936
0001e0 83 25 9e bd 0d 69 98 be 60 0a ec bd 0e 93 72 bd
       -0.077219985 -0.29767647 -0.115254164 -0.059222274
0001f0 f9 37 4e 3e 41 30 13 be 48 c7 ce be ba 40 d8 bd
       0.2013854 -0.14373876 -0.40386415 -0.105592206
000200 3f 6e 55 bf 1e de 0c be fd 9e b1 bd b6 a2 df bd
       -0.8337135 -0.13756606 -0.08672903 -0.109197065
000210 43 42 f7 bd e4 32 a2 3f 30 ee e9 bd 8f fc bf 3c
       -0.12073185 1.267178 -0.11422384 0.023435859
000220 84 4b 6c bd fb fd 93 be 36 84 1a be fb cd c2 bd
       -0.057689205 -0.2890471 -0.15089497 -0.09511944
000230 6d 3a 11 bf 64 cb 81 be a2 32 c3 bd 85 ff 21 be
       -0.56729776 -0.25350487 -0.09531142 -0.15820129
000240 ec 93 2c be b1 13 1e bf d2 1b 1b bd c2 9a 06 3d
       -0.16853303 -0.61748797 -0.03786833 0.032862432
000250 57 4e 58 bf a0 de db bd 0e 89 2e be c7 42 25 be
       -0.8449454 -0.10735822 -0.1704447 -0.16138755
000260 76 47 13 c0 e3 18 6c bf 2f 1e b1 bf 43 2c e9 be
       -2.3012366 -0.92225474 -1.3837336 -0.45541582
000270 0a f8 4a bf 49 fb f0 3f ed ef 0c bf 92 f8 b9 bf
       -0.7928473 1.8826686 -0.550536 -1.4528983
000280 47 b6 be 3e b7 0b d5 be 03 e6 09 be 33 a3 48 3e
       0.37248442 -0.416105 -0.13466649 0.19593506
000290 87 54 30 bf 25 bb 27 be 74 6e 1b be 8b dc 35 3f
       -0.6887898 -0.16379984 -0.15178853 0.71039647
0002a0 b3 34 05 be c8 67 ad bd 39 1d c7 3e 05 30 0a be
       -0.13008384 -0.0846706 0.38889483 -0.1349488
0002b0 40 d0 1c be 62 32 4b be 5e 28 e0 bf ea c1 18 be
       -0.15313816 -0.19843438 -1.7512319 -0.14917722
0002c0 84 f1 46 be 9b b0 af 3f 1d e1 9f 3c 15 0c b1 bb
       -0.19428068 1.3725771 0.019516522 -0.0054030516
0002d0 dc 4f b1 bd 9a f0 cb 3e 32 d8 be bf 82 f3 b4 bd
       -0.0865781 0.39832002 -1.4909728 -0.08835508
0002e0 92 68 c8 3e 72 4e 88 bf 01 d7 df bd 9f fd 40 be
       0.3914228 -1.064894 -0.109296806 -0.18846749
0002f0 5a ed 61 bd 4d 79 cb bd 4e b0 ae 3e e2 a1 53 3e
       -0.055157997 -0.09935246 0.34118885 0.20667222
000300 82 43 05 be 21 e9 1d c0 05 3c 04 be 78 57 a4 bd
       -0.13014033 -2.467354 -0.1291352 -0.08024496
000310 38 c6 4e 3f bf bd 80 bf c7 dd 2d 3f 43 a4 ce 3f
       0.8077121 -1.0057906 0.6791653 1.6143879
000320 8c 64 3e bf 85 14 37 c0 b3 1f d2 bd 75 d4 30 be
       -0.7437217 -2.8606274 -0.102599524 -0.17268546
000330 e8 21 1d bf 7d 1e c3 be e8 f8 7e bf 05 67 81 be
       -0.6137986 -0.38109198 -0.9959855 -0.2527391
000340 ce 6c 48 be 7f ee b9 bd 2d 72 12 be ec 35 02 be
       -0.19572756 -0.09078693 -0.14301367 -0.12715882
000350 f7 71 02 be e8 79 71 3e 3a 21 b8 bd 0a 5b 2f be
       -0.12738787 0.2358166 -0.089907125 -0.17124572
000360 25 ad f7 bd d6 00 6f be 97 02 5f bf af 3a 98 bf
       -0.120935716 -0.23340163 -0.87113327 -1.1892909
000370 34 78 09 be a8 16 87 3f 11 50 00 be 79 77 18 3e
       -0.1342476 1.0553789 -0.12530543 0.14889325
000380 95 28 6c bf 3d 94 21 be 7f 3a 83 bf dc de ca bd
       -0.92249423 -0.15779205 -1.0252227 -0.09905788
000390 57 ba 2c be bf 1c 66 bd c3 e2 56 be 38 69 01 3f
       -0.16867958 -0.05617976 -0.2098494 0.50551176
0003a0 36 5a 12 be 8c f7 d6 bd b4 50 48 be b5 7e 3f be
       -0.14292225 -0.104964346 -0.19562036 -0.18700679
0003b0 c5 a3 ac be e9 3b 05 be ce 94 23 be 46 5d 47 bd
       -0.33718696 -0.13011135 -0.15974733 -0.048672937
0003c0 8e 71 25 bf 82 c6 58 be 7a 0e 47 c0 ca 97 69 be
       -0.64626396 -0.21169475 -3.1102586 -0.22811809
0003d0 6e 37 7b 3f c8 ab 8a bd 11 00 a5 3d 86 d3 0d be
       0.98131454 -0.06771046 0.08056653 -0.13850221
0003e0 aa 6e 36 bc 59 27 84 3e a2 e3 12 be 11 6b d8 bd
       -0.011134783 0.2581127 -0.14344648 -0.10567296
0003f0 4e 3e 25 be d6 92 27 be ea a3 12 be 0d 06 0a bf
       -0.16137049 -0.16364607 -0.14320341 -0.5391548

weight f4 [3, 256]
000000 c2 de 48 be 90 ed 1b 3d 7e 75 56 3d ed fa 6a 3d
       -0.19616225 0.038068354 0.052358143 0.057368208
000010 29 ed ce bd 67 97 ca 3b 9d 40 1d bf d1 38 e0 bc
       -0.101038285 0.0061825993 -0.6142672 -0.027370842
000020 cc cc f5 3c 89 49 58 3d c4 f1 de bb b2 52 91 be
       0.030004881 0.052804504 -0.006803723 -0.28383404
000030 88 e1 f6 bc ed 13 17 3b 88 7b 07 bd a8 6d 4a 3c
       -0.030136839 0.0023052648 -0.033076793 0.012355246
000040 25 bb 49 3e 1b ec 84 3d a5 b6 48 bd 15 63 b8 be
       0.19700296 0.06490346 -0.04900231 -0.36013094
000050 d1 22 dc bd 50 f4 f7 bd 30 e9 23 bd c3 9c 31 be
       -0.10748828 -0.12107146 -0.040017307 -0.17344956
000060 1a 59 58 3d 16 1b a2 3b f9 0c d8 3d 07 f3 0f bd
       0.05281935 0.0049470766 0.10549349 -0.03514388
000070 07 28 5b bf b6 a0 a7 be a7 64 49 bd 3e a2 0f be
       -0.8560795 -0.327398 -0.049168255 -0.14026734
000080 bf 5f c2 bd 2a 68 4d 3d 47 71 38 3d e1 84 f0 bb
       -0.09490918 0.050148167 0.045029905 -0.007340059
000090 8b 55 d5 3c 4c 5e 9e 3d 92 5a 58 bd 16 4e 00 bd
       0.026041767 0.077328295 -0.05282075 -0.03132447
0000a0 98 26 c2 3d 1a 7f b6 be 65 23 cf bb 8b cb 15 bf
       0.094800174 -0.35643846 -0.006321358 -0.58513707
0000b0 15 a4 89 bd ac dc 08 bd d7 6d 7c be 5f 95 56 bb
       -0.06720749 -0.033413574 -0.24651276 -0.003274284
0000c0 5c 79 30 3d 3f 46 32 bd 59 a4 d4 bd c9 6e 26 bd
       0.043084487 -0.043524023 -0.10382909 -0.040632997
0000d0 84 50 77 3e b3 dd 81 3c 6e 4e 05 3c bc 63 16 bd
       0.24151808 0.015852785 0.008136375 -0.036716208
0000e0 78 a7 39 3d 2d f0 d8 3d c6 51 56 3d 9d 36 20 bd
       0.045325726 0.10592685 0.05232408 -0.039114583
0000f0 74 b9 89 bd 9a 14 d0 bc bf f5 fd 3d ea 65 b8 bd
       -0.067248255 -0.025400449 0.12400388 -0.090038136
000100 ac b7 3b 3d ac 45 6f ba 0f 54 a4 3c 82 71 42 bf
       0.04582946 -0.00091275084 0.020059614 -0.7595445
000110 47 43 8c 3d b2 d7 47 bb f1 2b 81 be 56 d2 bc 3d
       0.0684877 -0.0030493555 -0.25228837 0.09219806
000120 92 bb 08 bc 0e c5 4c bb 9f 5e f5 bd 6b c6 9c 3c
       -0.0083455015 -0.0031245383 -0.11980938 0.019137582
000130 bb aa b9 3e c1 28 6a 3d aa 5c b4 3d e2 9b 59 3e
       0.3626307 0.057167772 0.08806737 0.21250871
000140 9a 90 a3 3e a3 63 c5 bd 22 d9 6e bd e8 da 24 3b
       0.3194626 -0.09638145 -0.058312543 0.0025154892
000150 92 60 e5 be 0b e2 b7 3d d7 e5 24 bf 08 1c 94 3c
       -0.4480024 0.08978661 -0.6441321 0.018079773
000160 a3 ff 18 bc 97 82 1e 3c b0 0f b0 3d 98 91 3c 3d
       -0.009338292 0.00967469 0.08596742 0.046037287
000170 3e 50 00 bd 1f a7 35 3a 8f da 0d be 15 e6 d4 bd
       -0.031326525 0.0006929505 -0.13852905 -0.10395447
000180 ed 76 6b be 62 e1 b2 bd bf 2f 53 bd b1 3b c9 3c
       -0.22994585 -0.087343946 -0.051559206 0.024564596
000190 d1 ae 12 bc 5b 5e be 3c b5 ca 99 bd 25 48 4c 3d
       -0.008952812 0.023238352 -0.075093664 0.04987349
0001a0 c2 58 ce 3d 84 85 e0 bb 13 96 4c 3d 16 f4 fe 3c
       0.10075523 -0.006851854 0.04994781 0.031122249
0001b0 6d 34 f3 bc 46 13 1c bd b8 7f 74 3c a5 a2 7a 3e
       -0.029688084 -0.038104318 0.014923029 0.24476106
0001c0 30 86 81 3e 1d 59 8d bd 6d 8d 87 3d bf 44 50 be
       0.2529769 -0.06901763 0.06618772 -0.20338725
0001d0 f5 a1 22 3d 2b 65 7a bd 3c b5 1a bb a7 7d 5e bc
       0.039705236 -0.061131638 -0.002360656 -0.013579763
0001e0 d3 17 99 bc 97 20 1b bf 19 a9 52 bb 6b a6 e8 bd
       -0.018688118 -0.60596603 -0.0032144247 -0.11359867
0001f0 aa ae ce bc dc e8 85 3c 61 ca 72 be 8e 51 c9 bc
       -0.02522977 0.016346388 -0.23710014 -0.024575021
000200 61 b2 45 bf e7 3a e1 3c 20 ec 21 bc 4b f8 d5 bb
       -0.7722531 0.027493907 -0.009882957 -0.006529843
000210 54 20 59 3c 3f 5d 3e bd 58 f3 0b bd 96 6c 30 3c
       0.0132523365 -0.046475645 -0.034167618 0.010768076
000220 31 43 1c bd 95 ec f7 bd 97 1f ea bc 2b 77 89 bc
       -0.038150016 -0.12105671 -0.028579516 -0.016780457
000230 bd cc 23 3d b8 3c be 3c c5 29 f1 bc c0 82 27 3d
       0.039990176 0.023222312 -0.029438863 0.040896177
000240 70 9b 7b 39 d9 91 c5 be 05 35 db bc 5b 43 f7 3d
       0.0002399513 -0.38587835 -0.02675868 0.12073394
000250 7b 6b 9b be 89 66 44 3c 02 17 6b bc 9c bf f5 bc
       -0.3035544 0.011987337 -0.014348747 -0.029998593
000260 49 63 08 bc 07 b3 7a bd 86 8d 29 bf 12 eb 54 bf
       -0.008324453 -0.06120589 -0.6623157 -0.8317119
000270 b6 98 78 bf 94 90 2a bd 83 18 1e bf 87 8c 39 bc
       -0.9710802 -0.041641787 -0.6175615 -0.011325008
000280 84 4e de 3d f6 0c 07 bd f7 15 98 3d 1e a3 f2 3d
       0.108548194 -0.032971345 0.074260645 0.118475184
000290 2f c5 5e bd 34 0e 49 3e 6b 86 a1 bc 1b 2f 88 3e
       -0.054387268 0.19634324 -0.019717416 0.2659844
0002a0 bc 1c 9d bd 7b be be bd ce da 5b bd 80 15 9e 3b
       -0.07671496 -0.09313675 -0.053675465 0.0048243403
0002b0 56 1e 50 3d de 31 2f 3d da e8 cf 3c e2 fd 40 3d
       0.05081018 0.042772166 0.025379587 0.04711712
0002c0 36 62 d9 bc b9 75 32 3d 18 97 25 bd d9 fc 9e 3e
       -0.026536088 0.0435693 -0.040427297 0.31052282
0002d0 54 79 21 bc f8 7d 68 3e 1c 08 52 bd a6 2d bb 3c
       -0.009855587 0.22704303 -0.051277265 0.022848915
0002e0 4d 3a a1 3d 77 6b 4d bf 71 be b8 bc ee fc 8b 3d
       0.07872448 -0.80242103 -0.022551747 0.06835352
0002f0 5e 58 3e 3c 2c 2d 95 bc 80 f3 35 be 5c aa ad 3d
       0.011617748 -0.018210016 -0.17768669 0.08479759
000300 57 ae aa bd da 07 61 be 2c 83 fa bc 9b d8 f7 bc
       -0.08334034 -0.21975651 -0.030580126 -0.030254653
000310 a0 a2 a2 3c a1 0b 73 be 50 1e b6 3d cf 98 75 bc
       0.019852936 -0.23734905 0.088925004 -0.014990046
000320 8a 1b 2a bc 10 36 9a 3c 1e 7d 02 bd 9b 1d 98 bc
       -0.010382542 0.018824607 -0.031857602 -0.018568804
000330 ff c9 e6 bd 1a a5 05 be 35 1e a6 be b4 f7 8f bc
       -0.112689964 -0.13051262 -0.3244492 -0.017574169
000340 be 81 08 3d 7f 0f f5 bc 32 79 a4 3d 1c 7a 68 3c
       0.033326857 -0.029914616 0.08030929 0.014189269
000350 df c9 23 3c 3a 67 ab 3d 6b ac 4c bd 0d 91 02 3d
       0.00999686 0.08369298 -0.049969118 0.031876612
000360 e9 66 83 3c 00 60 73 bd f0 01 8c be d8 31 06 be
       0.016040282 -0.059417725 -0.27345228 -0.13104951
000370 0c 76 cf 3a fd 9d 07 bc 92 a9 89 3d 00 49 4f 3e
       0.0015828027 -0.008277413 0.06721796 0.20242691
000380 4c 12 f0 be 2d b3 ea 3d 57 1f ff bd fa 61 0e 3d
       -0.4688896 0.11459956 -0.124571495 0.034761406
000390 0c 5d 7a bd 4a 55 fd bb 01 ef 8f 3d 58 2c 00 be
       -0.061123893 -0.0077311145 0.07028008 -0.12516916
0003a0 e6 30 0d 3d 7b 12 51 bb 15 55 82 bd 2a 7d 38 bd
       0.03447046 -0.0031901884 -0.06363884 -0.04504124
0003b0 b7 ac ed 3c 8e 46 94 bd 73 38 69 3d 29 f4 82 3d
       0.02901302 -0.0724002 0.0569386 0.06394226
0003c0 3d 07 64 be 67 3a c5 3b 4c f9 23 bd ed 22 64 3d
       -0.22268386 0.006018925 -0.04003267 0.05569737
0003d0 41 77 9d 3d af 4d 87 3d d0 b2 11 3f 12 e7 81 3d
       0.076887615 0.06606614 0.5691347 0.06342901
0003e0 27 f8 20 3d fa 70 7d 3c 90 75 60 3d b3 3a 98 3c
       0.039299157 0.01546883 0.054799616 0.018582677
0003f0 46 a1 68 3c 7e 42 11 3d e2 33 41 ba 1e 1d fa 39
       0.014198607 0.035463803 -0.0007370097 0.0004770541

bias f4 [3]
000000 d2 f0 87 3c 61 a1 9f 3e 24 b6 4e bc
       0.016594324 0.3117781 -0.012616668

weight f4 [3, 256]
000000 dd f1 42 bd 8a fd 07 3b 3c 14 79 3d 3d f0 2b bd
       -0.04759394 0.0020750486 0.060810313 -0.041977156
000010 56 a5 53 3d b6 11 8f bd e2 38 1c 3f b3 fd ef ba
       0.05167135 -0.069858 0.61024296 -0.0018309861
000020 49 86 a2 3b eb 02 f8 3e 71 b3 55 3d c2 a6 22 3a
       0.0049598557 0.48439726 0.05217308 0.00062046584
000030 ad 26 d5 3c 57 52 b5 bc bc f0 5e bb 58 66 b2 3a
       0.026019419 -0.02213399 -0.0034018 0.0013610823
000040 96 9b 10 3c ef 25 09 3d bb 32 9e 3c da 96 58 3e
       0.008826157 0.033483442 0.0193113 0.21151295
000050 e2 59 35 3f 72 02 c7 bc 26 8f d7 bc b1 cf 82 bc
       0.70840275 -0.024293158 -0.026313376 -0.015968176
000060 8e 6c a3 bc e4 65 f1 bc a8 d3 23 bd b1 a5 e0 3d
       -0.019949224 -0.02946753 -0.039996773 0.10969103
000070 a7 05 e2 3d 6d 7a ef 3e dd 32 39 bb 20 d9 c5 3e
       0.11036234 0.4677309 -0.0028259077 0.38642216
000080 db 61 ee bc 23 4a cc bc 87 d9 9e 3d 69 b4 9b b9
       -0.029099395 -0.024937695 0.07756334 -0.0002969832
000090 d5 2f 69 3d b8 4e df bc dc 71 c6 bb a0 2b c2 3d
       0.05693038 -0.027259216 -0.0060560536 0.09480977
0000a0 d2 23 74 3d 27 59 7c 3d 0e 78 82 bc 4c 87 6d 3f
       0.059604473 0.06160846 -0.015926387 0.9278457
0000b0 17 72 12 3e 98 bc a0 3d e5 f1 5a 3d 9c 9d 0b bc
       0.14301334 0.078484714 0.053453345 -0.008521464
0000c0 81 c9 b7 3c 16 ac b1 bc 00 56 36 bd 02 eb f2 3c
       0.022434952 -0.021688502 -0.04451561 0.029653076
0000d0 ec bb 0d 3c c0 ce bd bd 11 e7 11 3d 1c 27 4d 3d
       0.008650761 -0.0926795 0.035620753 0.050086126
0000e0 2a 3e 40 3d 40 8f e5 3c 62 5f 20 bd 9b e6 60 3c
       0.046934284 0.028022408 -0.039153464 0.013726856
0000f0 86 10 e1 3c fa 20 fb 3c 74 e4 c0 3c b0 56 95 3c
       0.0274737 0.030655373 0.023546435 0.018229812
000100 94 64 d4 3c 2f 33 5f 3d ac 71 45 bc 57 ce 81 3f
       0.025926866 0.05449217 -0.012051027 1.0141095
000110 28 11 3c 3a b2 81 84 bb eb 10 98 bd 0e 1c 11 3d
       0.00071741873 -0.004043781 -0.07425102 0.035427146
000120 86 93 82 3d 82 c3 c1 bb 41 19 fb bc ec 27 be 3d
       0.06375794 -0.005913199 -0.03065169 0.09284958
000130 52 8a 46 3d a6 94 80 3d f8 7f 24 bb d6 12 9b 3d
       0.048471756 0.062783524 -0.002510069 0.07571952
000140 e5 2d e1 3d db 8c 09 bd ba 01 f0 bc 65 02 f2 3d
       0.10995082 -0.033581596 -0.029297698 0.11816863
000150 f7 0a 3e 3f 60 0b da 3d df a9 86 3c a4 f2 3a 3d
       0.7423548 0.10646701 0.016438423 0.045641556
000160 83 e3 d1 39 79 b0 01 3d 43 f8 1b 3c ea 7f 1b 3d
       0.00040033096 0.031662438 0.009519639 0.037963785
000170 c1 71 bd 3d a3 9b 2f 3c 81 1a 1f 3c 9a 40 f4 3a
       0.092502125 0.010718259 0.009710909 0.0018634975
000180 c0 1b 86 3f 38 a2 43 3d 38 05 d4 3b bd 64 23 bc
       1.0477219 0.047762126 0.0064703487 -0.009972748
000190 ce 39 84 bc 25 48 ac 3c b5 d9 82 3d e3 e0 bf 3d
       -0.016140845 0.021030495 0.063891806 0.093690656
0001a0 6a e9 92 3c 40 70 9c bc 93 01 8a bd 4e ad e4 3c
       0.017933566 -0.019096494 -0.067385815 0.02791467
0001b0 29 99 b1 3d 82 a3 bd bd b3 16 fb 3c b1 ec 6b bd
       0.08671791 -0.09259702 0.030650472 -0.057598773
0001c0 51 c4 dc 3b c6 97 d6 3d fd f7 bf bb b8 b0 43 bd
       0.00673727 0.10478167 -0.00585842 -0.047775954
0001d0 15 15 bb 3b 01 2c f5 bb 2a a7 7b 3d 5d 33 8d bb
       0.0057093003 -0.0074820523 0.061438717 -0.0043091015
0001e0 69 29 b9 3d 8a ef b9 3e 15 ec 2a 3d 1f bd 86 3d
       0.090411015 0.36315566 0.04172905 0.06579041
0001f0 b5 59 a6 3a ea 2a b5 3d e2 d7 32 3f 56 ff 2f 3d
       0.001269153 0.08846076 0.6986066 0.042968117
000200 d6 68 5d 3f a3 a4 0b 3d f1 94 2c 3d 7f be 06 3e
       0.8648809 0.034092557 0.04213423 0.13158606
000210 43 1c a5 3a 64 21 22 bd fd 70 b9 bc 35 9b 82 3e
       0.0012596924 -0.039582625 -0.022636885 0.2550904
000220 52 b1 f2 3d b0 3b 1b 3e e4 bd d0 3c 43 c1 11 bc
       0.118502274 0.15159488 0.025481172 -0.008896175
000230 56 b8 b3 3c 8a 2f 98 3c e4 90 94 3d 9f 0f 10 bd
       0.021938484 0.018577356 0.07254198 -0.035171147
000240 61 ea 94 bd 6a ca 8b bd 3d c2 0d bd 9d eb 83 bc
       -0.07271267 -0.06825717 -0.03460907 -0.01610356
000250 bb cc 85 3e 46 2e d9 bb 3f 65 46 bd c7 43 dc 3d
       0.2613276 -0.0066278307 -0.0484364 0.10755115
000260 d6 99 c0 3b 8a 48 85 3d a6 3b 97 3e 52 c7 12 3f
       0.0058777137 0.06507976 0.29537696 0.5733539
000270 12 27 aa 3f 1a ec 55 3c 98 0f e5 3e fc 80 35 bc
       1.3293173 0.013056779 0.4473846 -0.011078116
000280 32 b8 0c 3d 21 be 86 bb cc 8b e9 3c dc 88 fa 3c
       0.03435535 -0.0041120206 0.028509043 0.030582838
000290 77 da dc bb f5 71 18 bd f9 72 47 bd d2 4b 0b bd
       -0.00673991 -0.037218053 -0.04869363 -0.034007855
0002a0 a2 aa 4d bd f3 f6 d2 3c 06 8b 3c bd c7 04 25 bc
       -0.050211556 0.02575252 -0.04603102 -0.01007194
0002b0 70 0e a9 bc 0a c7 22 3e 63 0e c8 3b 1e 9c 84 3d
       -0.020636767 0.1589624 0.0061052307 0.064750895
0002c0 54 75 a6 bb 2f e3 40 3c dd 16 84 bd 7a 65 4d 3e
       -0.0050799046 0.011772915 -0.06449673 0.20058241
0002d0 1c fc f1 3c 88 25 5c bd a5 cc 97 bc b0 ac d6 3d
       0.02953916 -0.05374673 -0.0185302 0.10482156
0002e0 9b f0 a0 bd 10 28 82 3f bd 98 d6 3d 93 08 27 3d
       -0.07858392 1.0168476 0.10478351 0.04077966
0002f0 a2 f4 99 3b 28 bb 9f 3c 53 04 95 3c 19 71 4a 3b
       0.004698352 0.019498423 0.018190539 0.0030890165
000300 c9 c3 52 3c d5 3d c4 bc db 89 86 3d 4f 48 7a bd
       0.012864062 -0.023955265 0.065692626 -0.061104115
000310 a6 29 00 3d f6 5a cf 3c e2 24 e5 bc 75 f4 1f 3a
       0.03128972 0.025311928 -0.027971689 0.00061017956
000320 74 32 a9 bd c5 37 ce bc e9 c3 8d bc 90 52 b0 3b
       -0.08261576 -0.025173077 -0.017305331 0.005380936
000330 e3 f2 f9 bc 56 eb 44 bd 4e fa 84 3b 74 d7 8d 3d
       -0.030511325 -0.048075996 0.004058159 0.0692586
000340 9a f5 6c 3d 87 46 95 bd 4e 7f 44 3d 88 0b 60 3d
       0.05785141 -0.07288843 0.04797297 0.054698497
000350 49 c4 48 3d 87 2e 16 3d ff aa 2e 3e 47 4b 6f 3d
       0.049015317 0.036665466 0.17057417 0.0584214
000360 7f a4 a8 bc c5 25 92 3c 5e de 4a 3e dc 2c 9f 3c
       -0.02058625 0.017840276 0.19811389 0.01943057
000370 60 6b c5 3d d4 d3 67 bb fd 43 fa 3c 60 4b 07 3f
       0.09639621 -0.0035374062 0.030549997 0.5284939
000380 a8 a9 ec 3e 14 ee a8 3d ff b3 eb bc 6d 94 05 3e
       0.46223187 0.08248535 -0.028772352 0.13044901
000390 7b a7 c2 3b df 8b 8b 3d 87 f8 b5 3c bc 64 95 3d
       0.0059403754 0.06813788 0.022213234 0.07294604
0003a0 2d be 6f 3d 4c ea 04 3c 2e 77 7d bd 59 81 64 3d
       0.058530975 0.008112501 -0.061881237 0.055787418
0003b0 e8 e6 2b 3e cb 5c ed bc af a1 aa 3d 22 b9 03 3d
       0.16787302 -0.028974911 0.0833162 0.03215898
0003c0 cd 0b 53 3e df 66 d5 3c 8f 9b ea 3d fc bf bf 3c
       0.2060997 0.02605003 0.11455452 0.023406975
0003d0 dd 3c 89 bc 8a 08 c9 3c 1f af f9 bc 34 6f a7 3d
       -0.016752655 0.024540205 -0.030479012 0.08175507
0003e0 59 00 21 bd 33 41 45 bb cc 24 f1 3a a1 d4 69 3d
       -0.039306972 -0.0030098676 0.0018397807 0.057087544
0003f0 45 45 8b 3d b5 fe 31 3c ea 38 47 bd f7 62 dd bb
       0.068003215 0.01086395 -0.04863826 -0.0067561823

bias f4 [3]
000000 f1 15 73 be af c4 93 be 82 84 e2 be
       -0.23738839 -0.28860995 -0.4424172

weight f4 [256, 14]
000000 6e 32 c9 bf 24 b3 e2 3f 9f 4b c6 40 ca 1a ed bf
       -1.5718515 1.7710919 6.196731 -1.85238
000010 aa 41 ac 3f 6c c6 ed be 2a 47 08 3f 08 40 e7 3d
       1.3457539 -0.46440446 0.5323359 0.1129151
000020 66 8a 92 bd c5 6b b7 be d3 b5 a8 3d 51 60 b6 3e
       -0.07155304 -0.3582441 0.08237805 0.3562036
000030 61 22 bc 3e a4 d9 a4 3d 12 f7 8c bf 1f 36 44 40
       0.3674498 0.08049324 -1.10129 3.0658033
000040 38 77 97 40 60 b2 83 bd 19 c0 8a be 29 0a 96 be
       4.733303 -0.06430507 -0.27099684 -0.29304627
000050 7c c6 c8 be 39 50 9b 3e d1 dc cc bd ce a6 19 3e
       -0.39213932 0.30334643 -0.10003055 0.15005037
000060 af 8a 07 be 0a 3a 37 3f c7 54 ed bb 77 96 fc 3e
       -0.13236497 0.71572936 -0.0072427723 0.49333546
000070 0a e4 e0 bf b7 f2 ad c0 1e 3b f0 40 86 88 8a be
       -1.7569592 -5.4358783 7.5072165 -0.27057284
000080 45 9a 68 3f ce d1 3d 3f b9 ef 10 3d fb 3e 52 bf
       0.90860397 0.7414826 0.035384867 -0.8212735
000090 12 90 c7 3e 40 73 ea be d1 3d f2 3c e7 65 ed 3d
       0.38977104 -0.45791054 0.029570492 0.11591702
0000a0 b1 f2 c7 bf bc 1a 96 be 7d 53 9f bd 43 fc fe bf
       -1.5620939 -0.29317272 -0.07779596 -1.9920734
0000b0 2c ce 3b c0 3a cb 2a c0 5c c0 8b bf 07 6d 6a be
       -2.9344587 -2.668654 -1.0918078 -0.22893153
0000c0 4e 33 2e bf 01 92 2d c0 d3 51 16 40 bb 36 ae 3f
       -0.68047035 -2.7120364 2.3487442 1.3610452
0000d0 d4 81 55 3e 91 a2 81 bd 3c 2e 34 3e 8b 85 70 3e
       0.20850307 -0.06329835 0.17595762 0.23488443
0000e0 c6 9d 4d bf e5 25 3e c0 43 6a 1a c0 42 ca 4a 40
       -0.8031887 -2.971063 -2.4127357 3.1685948
0000f0 a6 7b 6c c0 d4 22 00 bf 3c 09 84 bf 8d ed fd be
       -3.695047 -0.50053144 -1.0315318 -0.495953
000100 7d f2 d1 3d 3c f4 09 3e 06 40 a0 3b ea 48 05 bf
       0.10251329 0.13472074 0.0048904447 -0.52064383
000110 f6 26 7b 3d 63 d1 0a bc de 32 01 c0 49 99 13 bf
       0.061316453 -0.008472773 -2.0187297 -0.5765577
000120 2a 4b 64 3f 67 43 70 40 e5 47 cb 3f 50 04 25 bf
       0.8917719 3.754114 1.5881315 -0.64459705
000130 3e c7 37 bc 71 17 3c 3f 64 8f 0c bf 9a b8 90 be
       -0.011216937 0.7347327 -0.54906297 -0.2826584
000140 3d bd 71 be 30 f1 a0 3d f2 64 2b be 49 69 a1 be
       -0.23607345 0.07858503 -0.16737726 -0.3152564
000150 66 ec 81 be dd a3 bb 40 89 1a 37 40 ed 7f 0c bf
       -0.2537567 5.863753 2.8609946 -0.548827
000160 2a 7e 84 bf 59 5c 80 bf 32 8f cd 3d 32 66 8e 3e
       -1.0351002 -1.0028182 0.10037078 0.27812344
000170 fb 89 93 be d6 38 ad bd 07 ce 2c bd 65 15 e2 bd
       -0.28816208 -0.08458106 -0.04218867 -0.11039237
000180 b4 61 a9 be e0 81 ef be 79 4b 63 3f ad 0b 0d be
       -0.33082354 -0.46778774 0.8878704 -0.13773985
000190 70 a5 84 3f 83 36 b7 3f 85 7d 4e 40 f5 49 0f c0
       1.0362988 1.4313511 3.226411 -2.238889
0001a0 a2 5d f3 3e a2 00 a1 3f 92 b6 82 bf f0 b5 cf be
       0.47532374 1.2578318 -1.0211966 -0.40568495
0001b0 fd 82 44 3e da ad bd bd 3c e0 27 3d 59 f6 1d 3f
       0.19190593 -0.09261675 0.04098533 0.6170402
0001c0 32 9f bc bf 53 4a b1 3f 5a 76 ca bf 23 4b 9d 40
       -1.4736083 1.3850807 -1.5817368 4.915422
0001d0 8f e7 01 40 39 5a 4e 3c dd 5a f8 be db d8 ab 3e
       2.0297582 0.012594753 -0.48506823 0.33563885
0001e0 25 6c de be e5 e2 5c 3e 92 ff c7 3d 88 19 49 be
       -0.43441883 0.21570928 0.09765543 -0.19638646
0001f0 e7 6d d7 3e 52 c1 f4 3b 80 bb c0 bf 1b e1 24 c1
       0.42076036 0.0074693346 -1.505722 -10.304957
000200 fd 70 0a 40 ac ba 0f 40 47 a2 7c be ac b7 84 bf
       2.1631463 2.2457685 -0.24671279 -1.0368552
000210 e6 54 2d 3f 72 12 d6 3e f6 a0 77 bf 4c 28 cb be
       0.6770767 0.41810948 -0.9672998 -0.39679182
000220 9d 7e e1 be 82 43 83 bf 70 4b c1 be 4d af 0b be
       -0.4404191 -1.0254977 -0.37752867 -0.1364109
000230 eb fb 7b bf 5b 98 cb bf 42 ed 85 40 a8 2e 8d 40
       -0.9843127 -1.590587 4.185212 4.4119453
000240 40 8b 20 3e 44 30 45 bf e1 7a 72 3f 6e dd f0 be
       0.1567812 -0.7702677 0.9471875 -0.47043937
000250 19 0d c7 3e 0f 1b 20 3f 65 1d bd 3c 6b 42 5e 3e
       0.3887718 0.6254129 0.023085305 0.21705024
000260 8b c4 c7 3f ad 09 63 3e 2d 38 1b 3f 1c 13 0e 41
       1.5606855 0.2217166 0.6063259 8.879665
000270 cb 3f 02 40 66 1b bd 3f 15 25 35 be 0f 7f 17 3f
       2.0351436 1.4773986 -0.17689927 0.5917825
000280 68 be c9 bd 95 d4 b6 bd 26 14 5c 3e 32 91 02 3e
       -0.0985077 -0.089272656 0.21492061 0.127507
000290 8d d1 03 3c 2f 98 c1 3e 3e 53 1a bd bb 44 98 3d
       0.008045566 0.3781142 -0.037677042 0.07434984
0002a0 a8 ad 6c bf fd ce 53 bd 83 01 82 40 5f 61 04 3f
       -0.9245248 -0.05171107 4.0626845 0.51711076
0002b0 db e2 06 c0 f0 4e 28 bf e1 90 51 be 8b ca 50 3f
       -2.1075962 -0.6574545 -0.20465423 0.81559056
0002c0 81 61 09 bf 9f 65 95 be 33 56 10 be 30 43 16 3f
       -0.53664404 -0.29179093 -0.14095382 0.5869627
0002d0 5e 96 08 3e 7e ee 20 3f 7a 64 6f bf 4c 68 1a c1
       0.1333861 0.6286391 -0.9351269 -9.650463
0002e0 da 56 73 3f ea e7 53 be a8 e2 e4 be 53 69 11 bd
       0.950544 -0.20693937 -0.44704175 -0.035500836
0002f0 9d 92 ef bd d9 7c 27 be 2c 82 a9 bc cd 85 f3 3c
       -0.11697886 -0.1635622 -0.020691954 0.029726887
000300 e3 5c d9 bb 22 1f aa bd 20 4d d8 be 84 d2 02 3e
       -0.0066333874 -0.08306719 -0.42246342 0.12775618
000310 30 ff 23 bf b4 55 25 40 ab a2 86 3e ca c9 86 3f
       -0.6406126 2.583356 0.2629598 1.0530331
000320 79 e3 c6 bf cd ce 61 be 66 47 79 bd bc e4 0f be
       -1.5538169 -0.22051544 -0.060859106 -0.14052099
000330 f8 7b 12 3d 86 f1 1b 3e c8 4f 9c bb fe ac ac 3d
       0.035762757 0.15228853 -0.004770253 0.08431433
000340 c6 b0 91 3e 02 ed 3e be 30 88 81 bf a5 05 0b c0
       0.2845518 -0.18645099 -1.0119686 -2.1722195
000350 f3 6f b1 40 47 83 a1 3e c4 48 cc 3d 06 6d 65 bf
       5.5449157 0.3154547 0.099748164 -0.8961948
000360 24 4c 3e 3f fc 99 d3 be ce bc 43 3e 5d 34 9e 3e
       0.7433493 -0.41328418 0.19114992 0.30899325
000370 74 c3 2b 3d 91 d6 30 bf 2d 72 a5 be ca 66 0e 3f
       0.041934446 -0.690774 -0.32313672 0.55625594
000380 9f 80 63 bf 3f ad d5 40 2b bc 7c 40 29 04 c3 bf
       -0.88868135 6.677398 3.9489849 -1.5235645
000390 05 26 42 3f 6f c9 f2 bf 31 67 69 be c3 a3 51 3f
       0.75839263 -1.8967723 -0.2279327 0.81890506
0003a0 cd 48 89 be 83 6f 5d bd 6e 52 59 be 03 93 21 3e
       -0.26813355 -0.054061424 -0.2122285 0.15778737
0003b0 b3 f9 85 3d a5 42 77 be c0 f3 bb bf 6f e4 9f 40
       0.06541767 -0.24146517 -1.4683762 4.996635
0003c0 21 c6 8e 3e bc 5a d1 40 99 10 17 c0 c1 0d 0b c0
       0.27885535 6.542326 -2.360388 -2.1727145
0003d0 92 ef 5f 3f 27 1c e8 3f 91 c9 ba bf c4 d2 d5 3c
       0.8747493 1.8133591 -1.4592763 0.026101477
0003e0 c3 fb e7 be 19 45 8e be 7d d6 ee 3e 81 db 3d 3e
       -0.45309266 -0.27787092 0.46648017 0.18540765
0003f0 42 92 13 c0 92 19 29 3f 5a d6 12 c0 af 1f 2a c0
       -2.3058019 0.6605464 -2.294333 -2.6581838
