log/mujoco_ddpg_hopper_v3_1/mujoco_ddpg_hopper_v3_1_s1/pyt_save/model.pt (torch_old, 562676 bytes, 11 tensors)

weight f4 [256, 11]
00000000: fae0 a0bf 5f9f b43f 5502 63bf 1b02 dd3f
00000010: 8b14 aec0 382e 57bf 8c63 bebf a44a d8bb
00000020: 146c 14be cb31 453e 5403 9b3d b46c b23e
00000030: 4d76 5d40 6076 ccbf fd32 dcbf cd80 9d3f
00000040: 6a12 68bf e29e 043e 439a 0040 9c64 babf
00000050: f5fc d0be 6303 493f 2b85 19c0 7370 bd40
00000060: b9ab 8040 841e 13bf 6bc8 603e 646b afbe
00000070: 68d9 8c3c cfbd 203e 894c a33e 0eac 9a3e
00000080: a4bf 24bd 479d 72c0 78a1 3040 936f a1bf
00000090: 5d22 5cbd 9899 c5bf 04a0 c73e d4d7 c3be
000000a0: 3d7a d6bf 0076 ba3f 0955 b9bd bbda 03be
000000b0: a3e7 88bf 0e1f 43bf f301 9940 ebd5 3141
000000c0: a52f dcbe 9cd9 16c0 22a4 133f 2ba8 273c
000000d0: ca84 6a3f 00ae 393f 9eb3 dc3d 9c3f f4bf
000000e0: ede4 98bd 1c90 3a40 a427 0f3f e117 0540
000000f0: a0d3 2ac0 9d74 ba3f 8dbc bf3e 431e c43e
00000100: 7444 993e 44bc 4c3e 4c1c a6bf 337b 8141
00000110: 5bc8 dbbf 7f73 49bf f183 eabf 5367 ec3f
00000120: 4b56 b13f 91a0 cebe 13c2 233f e8e8 433e
00000130: 13f3 aa3e 5057 4e3f 2b23 8540 2bbb 86c0
00000140: 7f71 61c0 8007 69c0 eb04 b2bf 1d2e 11bf
00000150: 4adc e33f efac c1bf 749b 42bf 9782 59bd
00000160: f4d3 3ac0 8dbd 19c0 623f b1bf b431 aabf
00000170: cb4e 71c0 b7cc 52bf 8b93 e0be d464 dc3d
00000180: ce5a 3a3e f242 20bf 6bd1 f8be d6be a2bf
00000190: 7e13 3341 44a0 43c0 306c 11c0 14e2 69bf
000001a0: a74d 8d3f f9c6 c1be 1edd c23f c4fd 46bf
000001b0: 1b11 16bf 5df2 a33e e685 07c0 d684 c440
000001c0: 8b64 1740 a9b6 ad3e 5df3 e3be 1006 d7bf
000001d0: b32f 0d40 3775 de3e af7f cdbe 4f3a 163e
000001e0: bdd4 c3bd 3a42 05c0 f891 5640 b496 4240
000001f0: 63db 9140 ef05 2d3e 3a30 c1bf 54b8 f13f
00000200: c1a7 a7bf 5f56 bc3f 5c27 1dbf 43e7 173f
00000210: 442d 6ec0 52c0 f33f d438 4dbf f588 38c0
00000220: 768b 2c40 f16f 99bf 1457 e3bd d984 32bf
00000230: a1a0 393f 2f5f 913e 88bd 6cbf 3b64 7ebf
00000240: 1961 fd3f c0bf 1540 79b9 6e40 80f8 9e3e
00000250: 0161 4dbf 3cec 0cbe 1157 a1be 77dd 833e
00000260: 3b2c 633e ec95 093d 4c62 4ec0 4880 c440
00000270: fe20 9cc0 208f 74c0 0def 35be 3868 7a40
00000280: 4756 91bf dbeb 873e 1c28 2cbf 57c5 64bf
00000290: c78f 543e 4477 0ac0 8a08 0d40 2ebc 0b40
000002a0: 25f4 3c40 1cab c9bf c9e3 e1bf df62 993f
000002b0: 479c a2be 1c4f f73e 1b52 c13e 3018 053f
000002c0: bbbb 28c0 3115 4d40 631f 4fc0 a311 0b40
000002d0: d3a6 2d40 f2d4 b1be 45a7 56bf 099d c63f
000002e0: 1dbe 91bf 4d2f 54bf 1ff4 cebe 1ff6 f5bf
000002f0: 494b c140 c832 1e40 5adf 063f 17fb 803f
00000300: d416 f7be a9a0 ae3f 85a4 eb3e dd02 bdbe
00000310: bc9c a1bf c877 893e 41b8 e4bf cecb 883f
00000320: 1cdd 5b40 8cff 41bf 2e57 d7bf d998 5dbf
00000330: 0ef2 2840 b939 e23d cac7 603f 9322 453f
00000340: 189e 6bbd 4d90 cfbf bc90 2f41 da7c 35bd
00000350: 800e 6440 7506 15c0 6863 48be 7a98 96bf
00000360: 89df a53e e049 d0bc 64a5 063e 1b1c 313e
00000370: d635 15c0 7b7e c63f 2fb7 3040 56b1 8840
00000380: 2ad1 f23f a3f7 01c0 f04f 1740 84cd 87be
00000390: fc51 bf3e 8d40 1b3f 2363 9a3e b38f 27bf
000003a0: 68e4 8dc0 265a 90bf 58e4 aa40 e8e8 163f
000003b0: eec9 ddbf 8c3b c03f 6ecc 5f3e 2732 7abf
000003c0: b2c8 103e 60da af3e f9b0 a7bf 679a 93bf
000003d0: ff1a 3a40 4dbb 9040 30ee 76bf 0a2e 98be
000003e0: 4528 e8be c315 9b3e 6748 e4bd 29e4 743d
000003f0: 15d8 b73b fc7f efbe 486e 223f 80a5 2b3f
-1.2568657 1.4111136 -0.88675433 1.7266268 -5.4400077 -0.840549 -1.4874129 -0.0066006947
-0.14494354 0.19257276 0.07568994 0.3484856 3.4603455 -1.5973625 -1.720306 1.2304932
-0.906531 0.12951234 2.0094154 -1.4561954 -0.4081799 0.7852079 -2.398753 5.9199767
4.020962 -0.5746844 0.21951453 -0.3426162 0.017193511 0.15697406 0.3189433 0.30209392
-0.040221825 -3.7908494 2.7598553 -1.2612175 -0.05374371 -1.5437498 0.3898927 -0.382506
-1.6756054 1.4567261 -0.09049422 -0.12876408 -1.069569 -0.7621926 4.781488 11.114726
-0.430051 -2.3570318 0.5767232 0.010232965 0.9160887 0.7253113 0.10776447 -1.9081912
-0.07465539 2.9150457 0.5591986 2.0795825 -2.6691666 1.4566838 0.3744854 0.38304338
0.29935038 0.19993693 -1.2977386 16.185156 -1.7170519 -0.7869186 -1.8321515 1.8469032
1.385446 -0.40356877 0.6396801 0.19131815 0.33388576 0.8060198 4.160543 -4.2103477
-3.5225523 -3.6410828 -1.3907751 -0.5671099 1.7801602 -1.51309 -0.7601845 -0.053103056
-2.9191866 -2.4021943 -1.3847468 -1.3296418 -3.7704341 -0.8234362 -0.43862566 0.10761419
0.18198702 -0.6260215 -0.48597273 -1.2714489 11.192259 -3.0566568 -2.2722282 -0.9136059
1.1039323 -0.37847117 1.522373 -0.77730966 -0.5861985 0.32020846 -2.1175475 6.1412153
2.3655117 0.3392842 -0.4452161 -1.6798725 2.2060363 0.43448803 -0.40136477 0.1467068
-0.09562061 -2.0821671 3.3526592 3.0404482 4.5580306 0.16896795 -1.5092843 1.8884377
-1.309807 1.4713858 -0.6138818 0.5933725 -3.7215128 1.9043067 -0.8016484 -2.8833592
2.696012 -1.1987287 -0.11100593 -0.6973396 0.72510725 0.28392932 -0.924767 -0.9937169
1.9795257 2.3398285 3.7300704 0.31048965 -0.8022614 -0.13761991 -0.3151174 0.25754902
0.22184841 0.033590242 -3.2247496 6.1406593 -4.8790274 -3.8212357 -0.17766972 3.912611
-1.1354455 0.2654713 -0.672487 -0.89363617 0.20757972 -2.1635294 2.2036462 2.1833606
2.9524014 -1.5755343 -1.764764 1.1983298 -0.31759855 0.48302543 0.37757954 0.5199003
-2.6364582 3.2044184 -3.2362907 2.1729515 2.7133071 -0.34732777 -0.83848983 1.5516673
-1.1386143 -0.82884675 -0.40420625 -1.9215735 6.04044 2.4718494 0.5268456 1.0076627
-0.48259604 1.364278 0.46023956 -0.36916247 -1.2625957 0.26849198 -1.786873 1.0687196
3.4353704 -0.7578056 -1.682348 -0.8656135 2.6397738 0.11046166 0.87804854 0.7700588
-0.057523817 -1.6215912 10.972836 -0.04430852 3.563385 -2.328519 -0.1956917 -1.1765282
0.32397106 -0.025425851 0.13149029 0.17295878 -2.331411 1.5507349 2.7611806 4.2716475
1.8970082 -2.0307395 2.364254 -0.26523983 0.37367237 0.6064537 0.3015376 -0.6545364
-4.4341316 -1.1277511 5.340374 0.58949137 -1.7327249 1.5018172 0.21855327 -0.97732776
0.14139059 0.34346294 -1.3100883 -1.1531495 2.9078977 4.522864 -0.96457195 -0.29722625
-0.45343223 0.3029004 -0.11146622 0.059787903 0.005610476 -0.46777332 0.63449526 0.6704941

bias f4 [256]
00000000: 762e 83bf 5076 c2bd c420 0ec0 ddb2 36c0
00000010: e565 66bf a80d 13c0 bb09 a03e ef72 09c0
00000020: b88c 3fc0 a5e5 07bf 34bf c1bf 5325 1cc0
00000030: 99dc 89bd 36e3 45bf b3cf e2be 4b72 23c0
00000040: 90ad 30c0 9d4f 01c0 d3f4 cbbf 5ec4 d4bf
00000050: 8349 fdbf 6db6 77bf 7744 7fbf 03cf 65bf
00000060: a8bf 0ec0 b59d 8540 1413 63bf 0a3b 61be
00000070: 92e7 e5bf 9ac5 54c0 aa5a 8ec0 f0dc 23c0
00000080: 66df 6fc0 6af2 9bc0 6db4 06bf 0544 3bbe
00000090: 4e9f 3dbf 3f56 3abf 6e25 1ec0 90d2 8bbf
000000a0: 345b f43d 2515 02c0 642d 41bf df34 aa3f
000000b0: f317 2bbe 041e 03bf a769 46bf 3698 42c0
000000c0: 41ee f4bf 6b88 4f40 42ab d7bf 0954 bb3e
000000d0: 7a40 bcbf d837 c9bf e16c 8f40 5cca 5f3e
000000e0: 2f7f b5bf 63a3 19c0 cde3 f8bf 6db3 c9be
000000f0: 48cc 0ac0 39b8 2fbf 9002 aabf 2376 18c0
00000100: 20a5 fcbe ff26 adbf 7793 043f b25e fdbf
00000110: 7d19 10c0 72bb c93f 9940 ddbe 9f62 c7bf
00000120: 2dc6 10c0 8c2b 7bbe 2b59 55c0 545a c8be
00000130: 1cb0 d0bf 8530 d7bf 7701 14c0 dda6 d9bf
00000140: 9718 56be abd9 9bbf 64ec fe3f 660d 3bc0
00000150: 278d 50be b597 02bf 93c1 25bf d52a d53f
00000160: b8f4 e2bf 1674 1bc0 8072 25c0 f085 66bf
00000170: 299e cbbf 6130 ddbf dd98 75bf 85d2 e0bf
00000180: 63c2 41bf 97be f9bf ac21 cc3f 63be 1fc0
00000190: ffd6 adbf 36c1 f53e 26e6 57bf 24cc 39c0
000001a0: c740 e7bf de20 0ac0 c505 1fc0 5578 48c0
000001b0: fbdd f73f 01e7 9d40 ff4e 59bf 7592 e7bf
000001c0: c204 ca3f e6cf 8bbf d35e 42c0 3296 c0be
000001d0: 6c7f 08c0 d26f 2dc0 f3b7 91bf 3017 e7bf
000001e0: 1337 f7be 4bc3 a13d 4526 7b3e 401b 36bf
000001f0: 79d6 88bf 3084 26c0 071c ec3e 033f 17c0
00000200: 2593 5b3f faea 94bf 7c6a 0fc0 a0e3 12c0
00000210: b27d 04c0 26b5 1a3f 9bfb d33f dba8 73c0
00000220: 4cb0 a8bf 6991 0cc0 af22 0ebf 5ce4 12c0
00000230: 0a9f 04c0 0530 05c0 1495 fbbf 9fe0 b5bf
00000240: 91ff db3f 031e 60bf 202b 06c0 6ee6 2bc0
00000250: b10b c2bf beff 87bf 1200 91bf b99b 60c0
00000260: 1d92 13c0 6c68 dd3f edfd 03c0 86dd 2a40
00000270: 56d4 0cc0 306d d3bf 421f 35bf b380 86bf
00000280: b863 83bf 776a 11bf 0866 e7bf 58a0 5c40
00000290: be81 13c0 47af 74be cd2e fabe 7882 dabf
000002a0: d50b 31c0 2a17 febf d2b7 4bbf f8fb 05be
000002b0: 30eb dcbf d41a dabf d657 26c0 f9a1 e0bf
000002c0: 7d97 2ac0 17a7 b3bf 1c26 37c0 28f1 65bf
000002d0: 12fd 753e 7780 0bbf 0c7e 0dbf 57d8 5bc0
000002e0: 6273 f4bf a459 28c0 ace7 5d3f a6dd a6bf
000002f0: bd29 293f dd69 b4ba 4568 22c0 1a1e 7b3e
00000300: 6f4e 13c0 fe01 4ebf d5d9 e2bf e564 8fbf
00000310: 1541 0dc0 7504 4d3f 23b4 32c0 b9d7 35c0
00000320: 4d61 013e eada a1bf e30f 45bf b763 253f
00000330: 1bfc dabf 8ec2 05c0 4e19 e8bf b990 cfbf
00000340: 6754 3d3e 59be 00bf 3511 fa3e b3e5 71bf
00000350: 8de4 c6bf 73f0 ccbf 2d67 d8bf 5465 1d3f
00000360: 73ac 96be 6793 b1bf 33b9 8ebf dd0d 2ac0
00000370: c502 bdbf 8ba8 05c0 bd74 97bf e3a3 babf
00000380: 7416 0cc0 29c0 a0bf 3cfb ccbf 95d4 193f
00000390: 0f59 2ec0 3b00 09bf 34a3 d7bf 3536 e4bf
000003a0: f7d5 c6bf 5534 20c0 5447 05c0 8094 1abe
000003b0: 4e74 91bf 4c51 d4bf c348 1ac0 33b9 06bf
000003c0: af09 0ec0 4d2e 5d3f d864 bfbf f212 e6bf
000003d0: 4103 04c0 59aa 65bf b26c 9fbf 8273 8dbf
000003e0: 9e01 23bf a969 d4bf 860c 1f3f aec0 a5bf
000003f0: da2e 89be 1c55 5ec0 3157 b8bf 7c28 37c0
-1.0248554 -0.094952226 -2.2207499 -2.854667 -0.8999923 -2.2977085 0.31257424 -2.14764
-2.9929638 -0.53084785 -1.5136476 -2.439778 -0.06731529 -0.7729982 -0.44299087 -2.553851
-2.7605934 -2.0204842 -1.593409 -1.6622427 -1.9788059 -0.96762735 -0.99713844 -0.89769
-2.2304478 4.1755013 -0.88700986 -0.21995178 -1.7961295 -3.3245606 -4.4485674 -2.56036
-3.7480102 -4.8733416 -0.5261906 -0.18287666 -0.74071205 -0.7278785 -2.4710345 -1.0923634
0.11931458 -2.0325406 -0.75459886 1.3297385 -0.16708355 -0.51217675 -0.7750496 -3.0405402
-1.9135209 3.2427013 -1.6849139 0.3658755 -1.4707177 -1.5720167 4.482041 0.21854538
-1.4179438 -2.4005973 -1.9444519 -0.39394704 -2.1687183 -0.68640476 -1.3282032 -2.3822105
-0.4934473 -1.3527526 0.51787513 -1.9794524 -2.2515557 1.5760329 -0.43213347 -1.5576972
-2.2620957 -0.2452833 -3.3335674 -0.39131415 -1.6303744 -1.6811682 -2.3125894 -1.7004048
-0.20907818 -1.2175802 1.9915891 -2.9226928 -0.20366345 -0.51012737 -0.64748496 1.6653696
-1.7730932 -2.4289603 -2.5851135 -0.9004812 -1.5907642 -1.7280389 -0.95936376 -1.7564245
-0.75687236 -1.9511288 1.5947776 -2.4959953 -1.3581237 0.4799897 -0.84335554 -2.9030848
-1.8066643 -2.158256 -2.4847271 -3.1323445 1.9364618 4.9344487 -0.84886163 -1.809157
1.5782702 -1.092282 -3.0370376 -0.3761459 -2.1327772 -2.70995 -1.1384262 -1.8053951
-0.48284206 0.07898577 0.24526317 -0.7113533 -1.0690452 -2.601818 0.46115133 -2.363221
0.857714 -1.1634209 -2.2408743 -2.2951431 -2.0701718 0.6043266 1.6561159 -3.8071811
-1.3178802 -2.1963751 -0.5552167 -2.295188 -2.072207 -2.0810559 -1.965487 -1.4209174
1.7187368 -0.87545794 -2.0963821 -2.6859393 -1.5159818 -1.0624921 -1.1328146 -3.5095046
-2.305793 1.7297492 -2.0623734 2.6697707 -2.20046 -1.6517696 -0.7075082 -1.0508026
-1.0264807 -0.5680308 -1.8078012 3.4472866 -2.3047938 -0.23894988 -0.4886383 -1.7071066
-2.7663472 -1.9850819 -0.7957736 -0.130844 -1.7259274 -1.7039437 -2.599111 -1.754943
-2.665496 -1.4035367 -2.861701 -0.898211 0.2402232 -0.54492897 -0.5527046 -3.4350793
-1.9097712 -2.6304712 0.8668163 -1.3036392 0.6607931 -0.001376446 -2.537614 0.24523202
-2.3016622 -0.8047179 -1.7722727 -1.1202666 -2.2070973 0.80084926 -2.7922447 -2.8412917
0.12634774 -1.2644932 -0.76977366 0.6460528 -1.7108186 -2.0899997 -1.8132722 -1.6216041
0.18489228 -0.5029045 0.48841253 -0.9449112 -1.5538498 -1.6010879 -1.6906487 0.6148274
-0.29428443 -1.3873109 -1.1150268 -2.6570961 -1.476647 -2.088412 -1.1832501 -1.4581264
-2.1888704 -1.2558643 -1.6014171 0.6009 -2.7241857 -0.53515977 -1.6846681 -1.7829043
-1.5534047 -2.503194 -2.0824785 -0.15095711 -1.1363618 -1.658731 -2.410691 -0.5262634
-2.219341 0.86398774 -1.495265 -1.7974532 -2.0626986 -0.89713055 -1.2455046 -1.1050875
-0.6367434 -1.6594745 0.62128484 -1.2949426 -0.26793557 -3.4739447 -1.4401609 -2.861846

weight f4 [256, 256]
00000000: 373e 8d3c 3764 e8bd 97c8 8abd 4916 5dbc
00000010: 34e8 9cbc b0ca 773c 9750 95b7 66f3 81bc
00000020: b128 8cbc 7cdc 7b3c 54e7 acbd 52db 34bd
00000030: cbb8 813c dcd2 9bbd 9c14 02bb 249b ae3c
00000040: faa0 44bc 9601 6fbd b1de 67bd 3af7 0fbc
00000050: dd0d 78bd a2c0 c93b ed0a 29bb abf3 04bc
00000060: a95c d03c 1e36 b2bd 2c67 a5bd 26e9 2e3c
00000070: d591 27bd 3e90 a3bd 0e07 69bd dccc d43c
00000080: bdf0 ebbc 5b2c 2cba 3719 b1ba 9c97 30bc
00000090: 28bc 22bc ae78 64ba fff3 3fbd aa55 16bd
000000a0: b308 773c 13fc 4ebb eca3 0dbc 381a e3bc
000000b0: f1f3 85bd 38bb 30bd 1ae8 b93c 0416 ccbc
000000c0: 5f3d b6bd 409c 37bc bfea 97bd ff0b ffbc
000000d0: 4cbb 2fbd 52ac a9bd 2a41 04be b966 76bd
000000e0: b44e 8ebd 2386 ca3c 53e4 63bc 3b1d 52bd
000000f0: 501b 3abd 4eea af3c 1cc3 ca3c 5990 5bbc
00000100: bb7f babc 7c6c 7fbd 4c76 243c f74e 1ebd
00000110: fdc3 53bc f8bb 08bd 0073 b93c 240d d7bb
00000120: 773f 07bd 7e99 67bd 8616 1cbd 9fb1 93bd
00000130: ceca d1bc eefa 96bd 45e9 e03c ba6d b93b
00000140: 68aa 07bd 29f5 d23c f708 2cbd 880d 1e3d
00000150: dbca 1fbd a640 46bb 3d7c 86bb 7bee 61bd
00000160: a7a3 9dbd 300e 47bd e430 f03c 2fd3 4c3c
00000170: 69fa 22bd fd51 7ebd 1ba7 203d b813 91bc
00000180: 54e8 97bd f74d 22bd 8806 23bd f09b a3bc
00000190: 91ad 78bd 4ec8 c8ba e258 c8bd 5cd3 e63b
000001a0: 6778 83bd 9895 1d3d b5f1 dd3c 9ee9 103d
000001b0: c643 02be 11a1 42bd 0945 0dbd fa96 9cbd
000001c0: 1317 2a3c 6d89 78bd 118f a2bc 5180 f03b
000001d0: a81d 82bd 41e9 5bbc ace4 49bd a3c5 903c
000001e0: 88fb 0f3d b29b 04bd d574 8abd ad54 b93c
000001f0: ee0e 84bd 7492 ec3c 3e52 883c 3c86 1fba
00000200: 53f0 52bd 2dd1 b23c bce8 f83c 73b1 fbbc
00000210: 54c2 5fbd 81c5 63bd 7f11 033d 1508 da3c
00000220: 4253 99bd faf0 043d e9f7 8abd edd5 963c
00000230: 6650 92bd 3fb8 81bd 6b5b f0bc 77a9 febc
00000240: 63e5 ebbd 6fde 4bbd 3f3d a93c 4088 d6bc
00000250: 228b 7abd 9529 153d 2f0d babd 5036 1ebd
00000260: 1146 173d e1fd 39bd 326e 4cbd f3f2 adbd
00000270: dd53 0ebd 9943 a9bd 3d18 efbc 3b9d b937
00000280: 0392 603c fa1f 05bd 0b2a e83b c25c debd
00000290: a43e 97bc eef8 403d 0489 383c 7c23 c7bd
000002a0: acd6 5abc 1e05 fd3b 0184 ccbc 06ed 0a3c
000002b0: 04cb a4bd ac38 42bb 4647 b8bd 43a0 163c
000002c0: 08af 98bd b37e 16bd 6cec 01bd 976e 03bd
000002d0: 5e0b 8abd 11d2 8cbd fd7f 82bd 6385 a23c
000002e0: 6385 cfbb 9ce4 d0bc 0ec8 dbbc 8015 12bb
000002f0: c05f 4bbc 437e 39bd 1a43 0cbc a05f c9bc
00000300: a7ad 043d 4e07 9bbd 3ba9 9fbd 2a3f 4cbd
00000310: cfe4 f739 f430 b6bd cb04 49bd c885 6ebd
00000320: 084f 57bd 3ab5 9abd 62da 123b 59d3 d33c
00000330: f955 283d e173 85bd e58e 20bd e398 583c
00000340: d9d7 e5ba e809 acbc 9010 2bbb b189 aabd
00000350: cdd4 273c 9771 1d3d 6b15 b5b9 3b68 2fbd
00000360: 8277 e43b ee82 c83c c83b 8fbd bd41 59ba
00000370: c6d7 66bd 56de 7fbc ac1e adbd a6e9 f6bc
00000380: dc4d d0bc d8bb bdbd 2bb5 8cbd a6d2 2fbc
00000390: d72b 4abd 05a4 bc3c a5a9 3ebd a795 9e3c
000003a0: 78cc a3bc 64a9 64bd a85b b6bc 43a6 3ebd
000003b0: 21b7 83bc f294 9cbb 6bc5 a3bd 1847 3ebd
000003c0: db85 c03a 56ea 59bd 0f09 b5bc 75ae 8b3c
000003d0: 43ad 8abd 4785 dd3c 3f4a 86bd cf92 1dbd
000003e0: 875c 35bc a5e0 1ebd 3c52 a7bd 65c9 9dbd
000003f0: 7e58 03bd 95b1 2fbd 9ec4 c3bc e30e 353c
0.01724158 -0.113472395 -0.06776541 -0.013494083 -0.019153692 0.015124008 -1.7799712e-05 -0.015863132
-0.017109247 0.015372392 -0.0844256 -0.044154473 0.015835186 -0.076085776 -0.001984871 0.021314211
-0.01200127 -0.05835112 -0.05660886 -0.008786971 -0.060560096 0.006156997 -0.0025793866 -0.008114736
0.025434809 -0.08701728 -0.08076319 0.010675704 -0.04091056 -0.079864964 -0.056891493 0.02597659
-0.028801316 -0.0006567889 -0.0013511543 -0.010778334 -0.009932555 -0.00087154924 -0.046863552 -0.03670279
0.015077758 -0.0031583353 -0.008645039 -0.027722463 -0.06540669 -0.043147296 0.022693682 -0.024912842
-0.08898424 -0.0112066865 -0.07417821 -0.03113365 -0.04290323 -0.082848206 -0.12915483 -0.060156558
-0.06948605 0.024722164 -0.013909417 -0.051297408 -0.045436203 0.02147403 0.024751239 -0.013401114
-0.022765985 -0.062359318 0.01003797 -0.038649525 -0.012925145 -0.033382386 0.022637844 -0.006562846
-0.03301951 -0.056542866 -0.038107418 -0.07211613 -0.0256094 -0.0737208 0.027454982 0.0056588324
-0.033121496 0.025751667 -0.042000737 0.038587123 -0.039011817 -0.0030250936 -0.004104166 -0.055159073
-0.0769723 -0.048597515 0.029320188 0.012501522 -0.03978959 -0.06208991 0.039221864 -0.017709598
-0.0741736 -0.039625134 -0.03980115 -0.019971818 -0.0607124 -0.0015318485 -0.09782578 0.007044239
-0.06419449 0.03847274 0.027092794 0.035379045 -0.12721166 -0.047516886 -0.034489665 -0.07645984
0.010381478 -0.060677934 -0.01984361 0.0073395153 -0.06353313 -0.013422311 -0.049290344 0.017672366
0.03515199 -0.032375045 -0.06760565 0.022623384 -0.0644816 0.028878428 0.016640779 -0.0006085371
-0.051498722 0.021828258 0.030384414 -0.030724263 -0.054628685 -0.055608276 0.031999107 0.026615182
-0.07486583 0.032456376 -0.06785566 0.018412555 -0.07144241 -0.0633397 -0.029340466 -0.031086667
-0.115183614 -0.049772676 0.020659087 -0.026188016 -0.061167844 0.03641661 -0.09084546 -0.038626015
0.036932055 -0.045408133 -0.049909778 -0.084936045 -0.034747947 -0.08264846 -0.029186362 2.2126935e-05
0.013706687 -0.0325012 0.00708509 -0.10857536 -0.018462487 0.047112398 0.011263136 -0.09723565
-0.013356846 0.0077215573 -0.024965288 0.008479362 -0.08046535 -0.002963583 -0.08997969 0.009193483
-0.074552596 -0.036741924 -0.03171961 -0.03208789 -0.06740449 -0.068760045 -0.06372068 0.019838994
-0.0063330396 -0.025499634 -0.026828792 -0.0022290647 -0.012412965 -0.04528643 -0.00856092 -0.02458173
0.03239217 -0.07569753 -0.0779595 -0.049864925 0.00047281987 -0.08896056 -0.049076837 -0.058233052
-0.052565604 -0.075540975 0.0022407998 0.025857614 0.041097615 -0.06516243 -0.039198775 0.013220045
-0.0017535641 -0.021000817 -0.0026102401 -0.08327044 0.010243607 0.038438406 -0.00034538968 -0.04282401
0.0069722543 0.024476495 -0.06993824 -0.0008287689 -0.05635812 -0.015616974 -0.08453116 -0.03014071
-0.025427751 -0.09264344 -0.068704925 -0.010731375 -0.049358215 0.02302743 -0.046548504 0.01935847
-0.01999496 -0.055825606 -0.022260502 -0.04654528 -0.016078534 -0.004778498 -0.07996639 -0.04645452
0.001468833 -0.053201996 -0.022099046 0.017050961 -0.06771328 0.02704109 -0.0655713 -0.038470086
-0.0110694235 -0.038788456 -0.08169982 -0.077044286 -0.032066815 -0.042893965 -0.023897465 0.011050913

bias f4 [256]
00000000: e9a2 5a3b c6a8 3bbf 5fd0 d9bf fef4 40bd
00000010: d537 4abd 777b 06c0 5933 98bd e39d a7bd
00000020: afc1 243f 4869 4b40 f10d 503a 5f90 cb3f
00000030: f987 c8bd aba8 23c0 e226 85c0 3854 23bd
00000040: a95a 06be 484f 06be 1a4c e4bd 6c2c 8abf
00000050: 1340 08be 7107 2dc0 8365 b7bd eff2 c53f
00000060: 86f2 823f 9d7a bfbd 6b65 b6bd a565 aabd
00000070: 055f 4abf 923b 3440 ad76 48bd 3b41 a6bd
00000080: 5d65 7dbd 7885 b5bf f55b 913e 1001 acbd
00000090: 2407 3c3e df3e ab3e 026a e6bf 17f5 10bf
000000a0: 1bdf adbd 4a3a 25bf 2b2f 38c0 20c5 28c0
000000b0: 7b3d fdbc f9dc 03be 2934 eabd 4a22 073e
000000c0: 1a2b 6abc 74c7 80bd 134c 1abe a218 15c0
000000d0: bddf 05be cef8 2f40 9dbd 9ebd ec8a 91bd
000000e0: af72 28bf 9dc7 f6bf 189d 08bf 5c66 d3bd
000000f0: 3c0d b5bd c463 07be 7609 30c0 27a1 cabd
00000100: 61b0 04c0 e3e5 12bd a620 b4bd 6458 80bd
00000110: c9c6 05be d256 22c0 3d78 3dbf e9cd 8cbd
00000120: 1a9e 81bd 2b85 efbc 44e1 26bf 2ec0 f5bd
00000130: 1326 1abe 8a54 b2bf 6f4e a0bd 5c8c 39bf
00000140: 05ec c6bd eb1c eabd de81 99bd 3c45 c0bd
00000150: d4b2 f2bd 8767 25c0 cca4 d63d 00ac a5bd
00000160: f8c1 55c0 a5e9 94bd a9e8 30bd 2f3c b1bc
00000170: f683 2dbf dcad 87bd 51e4 cabc 05dc db3c
00000180: 1a2d 48c0 e4ae 99bd f423 18bd f4a9 5b3f
00000190: 4a96 f03f e720 4c40 d895 933f 1595 2dbd
000001a0: 6416 2dbf 9aec ee3e 9bfe 0640 73bc 86bd
000001b0: dba7 61bf 8a88 cebd ba27 8bbc 6700 e2bf
000001c0: eb56 82bd 2220 5fbf 13e3 5fbd f2b7 b3bd
000001d0: d9de 4ac0 1001 f4bd bbec 673f e56c 4fbd
000001e0: d1a6 5ac0 8a9c abbf 0782 77bd 5dbd 00be
000001f0: cf7c 51bd 4544 14be 0065 afbe 2a23 90bf
00000200: d6fe b23e be24 fabc 9c71 20bf 2ead bebe
00000210: a8cc b8be 3641 c2bd 2441 963f efbe 02bf
00000220: 7122 cdbf 4f6d 5ac0 744a c2bd 2c9f 7ebf
00000230: dbe9 00be 8a96 07be b716 a9bd 1e0b 11c0
00000240: d34e 83bd a6dd febf ca24 debc 3a5a d8bc
00000250: a312 c2bd 6a6b 20bd 146e e63e 6d46 273e
00000260: 4e62 25c0 8918 b8bf e55f 0fbf ebbd 163f
00000270: 0598 183e f271 e8bf e38f 62bd b807 2fbe
00000280: 7cd8 a23e 063e ddbd 0359 06be 7bd9 29bf
00000290: 61c8 dbbc d64d f9bd 71f4 0fbe 8e21 393f
000002a0: be70 59bd fd48 90c0 fcc4 d1bd 6fe6 b3bd
000002b0: 22cf 90bf dc90 f3bb ac16 28bf a2f7 d8bd
000002c0: 2d30 90bd e331 43bd d3f7 afbd f74e 41c0
000002d0: 3fe6 96bd 87d2 3ec0 70a3 86bd 4beb 71bc
000002e0: 59cf 9fbd 9506 0dbe 86ea b53f 512f bbbd
000002f0: 91f3 60bf cb96 fe3e ae1f 50be 740e 13be
00000300: bae8 a9bd 8f51 86bd 03c0 f0bd 410a 61bd
00000310: 4626 6bbd 44e5 08be df40 22bf 24e3 12be
00000320: f3b3 f9bd f305 8cbd f25a 88bd 26f6 babf
00000330: 113b 7dbd c316 bcbd 80cf 93bf ff69 cfbd
00000340: 0289 09be db06 e2bd 74c5 3f40 a156 04be
00000350: 92a9 0d3f cedc 583f e899 97bd 48ce 99be
00000360: 7f8a cabf 0358 f5bd 3755 0c3e 35ce f0bd
00000370: bed6 92bd 1c88 0fbd f10d a5bd 36c2 98bf
00000380: facb bbbf 5572 bfbf ce45 b9bb 3cf8 58bd
00000390: 4804 6bbf e1d8 11bf b95a afbd 82c8 c4bf
000003a0: 9c8f efbd 94bb ab3f e9bc 29be 972c cbbd
000003b0: 6391 85bd bee7 9cbd d0b5 28be 1a77 c6bf
000003c0: a981 803f ab4b e8bd 4698 dfbf 0310 1abe
000003d0: 49d5 163f 2cab 2bc0 3797 cebf 3dcf 12be
000003e0: 0ca0 e2bd e385 0bbe 27b4 38bd bc31 47bd
000003f0: 3e1f 02be 2adb 74bd d35d 9fbf 1d67 53bd
0.0033361262 -0.733044 -1.7016715 -0.047108643 -0.04936965 -2.1012857 -0.07431669 -0.081844114
0.6435804 3.1783009 0.0007936648 1.5903434 -0.0979156 -2.5571697 -4.1609964 -0.03987524
-0.13120522 -0.13116181 -0.11147328 -1.0794806 -0.13305692 -2.7035792 -0.08954909 1.5464762
1.0230262 -0.093495585 -0.08906063 -0.083201684 -0.7905124 2.816136 -0.048941303 -0.081179105
-0.061864246 -1.4181356 0.2839047 -0.0839864 0.18362099 0.33446404 -1.8001101 -0.5662398
-0.084898196 -0.6454207 -2.877879 -2.6370316 -0.030913105 -0.12877263 -0.1143573 0.13196674
-0.014292503 -0.06288043 -0.15068083 -2.3296285 -0.1307363 2.7495608 -0.077510096 -0.07106575
-0.65799993 -1.9279667 -0.53364706 -0.10322258 -0.08840415 -0.13221651 -2.7505774 -0.098940186
-2.0732653 -0.03586377 -0.0879529 -0.06266859 -0.13064112 -2.536549 -0.74011594 -0.06875212
-0.063289836 -0.029238304 -0.6518748 -0.11999546 -0.15053587 -1.3932049 -0.0782746 -0.72479796
-0.09712986 -0.11431297 -0.07495473 -0.093882054 -0.11850515 -2.5844438 0.10480651 -0.08089447
-3.339964 -0.07271127 -0.043190632 -0.021635143 -0.6777948 -0.06624958 -0.024767073 0.026838312
-3.1277528 -0.07504061 -0.037143663 0.858062 1.8795865 3.1895082 1.1530104 -0.042378504
-0.6761229 0.46664888 2.10929 -0.065789126 -0.8814675 -0.100846365 -0.016986717 -1.7656373
-0.063642345 -0.87158406 -0.054659914 -0.08775319 -3.1698515 -0.11914265 0.905956 -0.05064096
-3.4164317 -1.3407147 -0.060426738 -0.12572236 -0.051144417 -0.14479168 -0.34256744 -1.1260731
0.3496005 -0.030535098 -0.62673354 -0.372415 -0.3609364 -0.09485094 1.1738629 -0.5107259
-1.6026136 -3.4129217 -0.09486857 -0.99461627 -0.12589209 -0.1324102 -0.08256286 -2.2663035
-0.06411519 -1.9911392 -0.027117152 -0.02641021 -0.09476211 -0.039164938 0.45005858 0.16335459
-2.584125 -1.4382488 -0.560057 0.5888354 0.14901741 -1.8159773 -0.055313002 -0.17092788
0.3180579 -0.10802846 -0.13119893 -0.66347474 -0.026828947 -0.12173049 -0.14058091 0.72316825
-0.053086035 -4.5089097 -0.1024265 -0.08784186 -1.1313212 -0.00743304 -0.65659595 -0.10594107
-0.07040439 -0.047654998 -0.085921906 -3.0204446 -0.07368135 -2.9815996 -0.06574142 -0.014765571
-0.0780322 -0.13772042 1.4212196 -0.09139884 -0.8787165 0.4972442 -0.20324585 -0.14360982
-0.08296342 -0.06558525 -0.11755373 -0.05494142 -0.057409547 -0.13368708 -0.63380235 -0.1434446
-0.12192526 -0.06837072 -0.066579714 -1.4606369 -0.06182391 -0.09184029 -1.1547699 -0.10127639
-0.1343117 -0.11036464 2.9964266 -0.12923671 0.5533687 0.8471192 -0.07402402 -0.30040193
-1.5823516 -0.119796775 0.13704382 -0.11758081 -0.07169865 -0.035041913 -0.080593 -1.1934268
-1.4671624 -1.4956766 -0.0056540733 -0.05297111 -0.9180341 -0.56971556 -0.08562226 -1.537369
-0.11697313 1.3416619 -0.1657597 -0.09920614 -0.06521871 -0.07661389 -0.16475606 -1.5505097
1.0039569 -0.113425575 -1.7468345 -0.1504517 0.589192 -2.6823225 -1.6139897 -0.14336868
-0.11065683 -0.13625292 -0.04509368 -0.048631415 -0.1270723 -0.059779324 -1.2450508 -0.05161201

weight f4 [3, 256]
00000000: 881d e9ba 99c2 37bd 3338 09bf 0e9e 2fbc
00000010: 58f2 03bd ef7f d23d 7a1d 0aba 4e58 acbc
00000020: 0960 843d 089e f83e db5b 063b 1fdf 533d
00000030: 5730 43bf dbbb a43f eb07 8dbe e88a be3c
00000040: b5e0 053d 4604 afbd 9849 173d 3c15 bebf
00000050: 11b4 4c3d 18c6 d4bd e73b 773a 20cb 38bf
00000060: 18c2 ab3f 8c70 f43d b6ed 7a3d 9b2c 11bc
00000070: fd4c 0fbd 3b1d 4bbe dd88 0a3d 0b39 35bd
00000080: d12f 5abc dc9d 993f ecb6 29bf 00c4 28bd
00000090: a308 ebbe d16f 19bf d129 803d db9c 1a3f
000000a0: f39d b03c 9a57 f7bd 9b4a 3e3e 8f6a 0a3e
000000b0: 0991 aa3d c8f1 793d bd57 deb8 0ea3 1dbe
000000c0: 969a aebc 68d4 5dbc 1338 f13c 6e96 753e
000000d0: e56f c13c 89f2 b7bf 9967 893c e2b9 36bc
000000e0: 0f5a a7bf 2c6f ebbe 31d7 7d3f ec34 63bd
000000f0: 1cf1 fb3c ae79 de3b 19ba 173e 949e 20bd
00000100: 3820 55be ed83 073d b11a b4bc bf86 393d
00000110: e350 54bd 071e e7bd 152a 283f 0e12 2a3c
00000120: 4fc7 203d a5bd b13d 7323 6dbe 5ed5 0a3d
00000130: 47da ecbc 5c09 b2bf 2973 913d 2c78 20bf
00000140: f129 a13c 0f39 88bb 2a77 013d 8b9b 6f3d
00000150: 2126 89bc 19d9 02bf c9a6 903e bdb7 6f3d
00000160: 3016 c33e 498f 5dbc a398 9dbe 200e 4b3d
00000170: 063c eebe f35f f9bc 3b68 a53d f4eb 67bf
00000180: 5441 e43e b030 593c 536e 763e 6d68 d33e
00000190: 8d3c 4e3f a25e 5dbc 05a5 4e3f c38b b33a
000001a0: f3c9 613e ebbf bcbd c047 ba3e fbd8 b53c
000001b0: bb8f ccbc 29a6 26bc 8c50 56bd 84c4 5bbe
000001c0: a449 0c3d eb55 153e 99a3 823d 3df6 d9bc
000001d0: 671e b0bd e049 4dbd a0fc c73e 82d6 653b
000001e0: 533b 84be 22e7 923c 8cd3 e2bc d221 a4bc
000001f0: 6121 5fbb b5d0 40bd 6141 c2be de0d d9bf
00000200: da28 953f 6155 a1bc 6350 eabd 3ebd 4c3f
00000210: 1132 ee3e f517 ba3b 2cf8 3f3e f18b c73d
00000220: 0359 8c3d a256 113e 8193 1f3d 0bc3 cb3f
00000230: f936 47bc 4a31 90bc 4496 8e3c bc6f 373d
00000240: 2e7d 523d c738 92bd cb02 62bc 44ca 9b3d
00000250: f2a5 7e3b d053 02bd f77a 473d f41e d83e
00000260: 7f8b a1be 42b4 103f 202c efbd 63b3 4fbe
00000270: af78 0f3e bdd5 e9be 52b6 02bc eb64 39bd
00000280: b74c 9dbd d334 823c 3a78 c43a e854 863e
00000290: d17c 1ebd cb83 143c f028 8cbd 73fa a0be
000002a0: ed36 04bd 543f a13e e8d1 c53c 0b22 db3c
000002b0: 6970 a13f 6bf0 9fba 3d6c 0f3e f01f a03c
000002c0: 7f85 ccbc dbc1 8f3c 64c5 23bc 1180 393f
000002d0: 3514 94bc 238d 53bd 3a66 e33c d455 f7bb
000002e0: 71de 8b3c 8a20 963c 341c a2be 2ffc b23d
000002f0: 6435 993e cd9d e93d fb7e c8bd 1967 54bd
00000300: 4baf 873d aadc 09bc 2684 473d 55ea 043c
00000310: 5373 9e3c f20e 283c 6ec6 46be 7d40 733c
00000320: 44c2 be3c 4c64 353c d9e2 01bd d557 ac3f
00000330: 0dca 3bbd f9e4 d3ba 8de9 d33e b11d 743c
00000340: 5d03 e23c 14cd 3a3d b055 a93f b7a8 ebbc
00000350: 6708 993f 698f 0bbe 235f 6b3c 8318 843f
00000360: 2d02 d8bf 6277 d7bc 74be 663e ff3e c63c
00000370: 3c07 23bb 2134 b7bb 6747 493d ba37 363d
00000380: 7537 173f fc69 3f3f 30b9 04bd 0709 b7bb
00000390: 2d2d d2be d1cc 2cbe 23a2 be3c 2eec 31bf
000003a0: a9b4 cebc d6e1 8d3e 2021 0c3d c1f0 073d
000003b0: 83dd f23c 49b2 8c3d b430 2c3d 7502 58bf
000003c0: ea3a 77bf 5352 873c 02f7 13be 064c e23b
000003d0: 4c97 91be dffd 593c 2cac 6abe 322a 0abc
000003e0: 4a1d 91bc 8853 b13c 7c54 813b 325b 12bd
000003f0: e225 6e3d 3211 a13d 3859 d53f 53e3 d03c
-0.001778529 -0.044863317 -0.5360138 -0.0107188355 -0.03221354 0.10278308 -0.00052686746 -0.0210382
0.0646363 0.48558068 0.0020501527 0.051726457 -0.76245636 1.2869829 -0.27545103 0.023259595
0.032685 -0.08545737 0.03693542 -1.485023 0.049976412 -0.10389346 0.00094312284 -0.72184944
1.3418608 0.11935529 0.061261855 -0.008860732 -0.03498553 -0.1983537 0.03382193 -0.044243854
-0.013317064 1.20013 -0.6629474 -0.041202545 -0.45905027 -0.59936243 0.06257976 0.6039559
0.021559691 -0.120772555 0.18583147 0.13517211 0.083284445 0.061021596 -0.000106021274 -0.15394232
-0.021313947 -0.013539411 0.029445684 0.23983166 0.023612926 -1.4370891 0.016773032 -0.011152716
-1.3074359 -0.45983255 0.9915648 -0.055470392 0.030754618 0.0067894077 0.14817084 -0.039213732
-0.20813072 0.0330848 -0.021985384 0.04529452 -0.051834952 -0.11285024 0.6568921 0.010380281
0.039252575 0.0867875 -0.23158054 0.03389489 -0.028912676 -1.3909106 0.07102043 -0.6268337
0.01967332 -0.0041571925 0.031607784 0.058497947 -0.016741814 -0.51112515 0.28252247 0.058524836
0.38102865 -0.013522931 -0.30780515 0.049574018 -0.4653017 -0.03044126 0.08076521 -0.9059441
0.4458109 0.013256237 0.24065523 0.41290608 0.80561143 -0.013511332 0.8072055 0.0013698268
0.22049694 -0.09216293 0.36382866 0.02219819 -0.02497088 -0.010171452 -0.05232291 -0.21461684
0.034249917 0.14583556 0.0637886 -0.026606673 -0.08599549 -0.05011928 0.39059925 0.0035070484
-0.2582651 0.017932478 -0.027688764 -0.020035658 -0.0034046995 -0.04707404 -0.37940505 -1.6957357
1.1653092 -0.019694032 -0.11441114 0.7997626 0.46522573 0.0056791254 0.18747014 0.097434886
0.06852915 0.14193204 0.03895903 1.5918897 -0.012159103 -0.017601628 0.017405637 0.044784293
0.051388912 -0.07139736 -0.013794611 0.076069385 0.0038856235 -0.03181821 0.048701253 0.42211115
-0.3155174 0.5652505 -0.11678338 -0.20283274 0.14010881 -0.45670882 -0.007978039 -0.04526226
-0.07680648 0.01589433 0.0014989444 0.26236653 -0.038693253 0.009064625 -0.06843746 -0.31441078
-0.032278944 0.31493628 0.024147943 0.026749631 1.261243 -0.0012202387 0.14006133 0.019546479
-0.024966 0.017548492 -0.009995792 0.7246104 -0.018076042 -0.05164827 0.027758706 -0.0075480733
0.017073842 0.018326063 -0.31662142 0.087395065 0.29923546 0.11407051 -0.097898446 -0.051856134
0.06625231 -0.008414427 0.04871001 0.00811251 0.0193421 0.0102574695 -0.19411632 0.014846918
0.023285992 0.011071276 -0.03171048 1.3464304 -0.045846988 -0.0016166262 0.41389123 0.014899657
0.027589494 0.045605734 1.3229275 -0.028766973 1.1955689 -0.13628925 0.014365944 1.031998
-1.6875664 -0.026302043 0.2253359 0.02419996 -0.0024876138 -0.005590931 0.04914036 0.04448674
0.59068996 0.74771094 -0.03240317 -0.005585793 -0.4105009 -0.16875006 0.023270672 -0.69501007
-0.02523263 0.27711362 0.034211278 0.033188585 0.02964664 0.06869943 0.042038634 -0.8437875
-0.9657427 0.016518747 -0.14449695 0.0069060354 -0.28435743 0.0133051565 -0.22917241 -0.008432912
-0.017714161 0.021646276 0.003946839 -0.035731502 0.058141597 0.07864608 1.6667852 0.025499022

bias f4 [3]
00000000: 0ae3 3cbe 2c5b 5140 98d7 c93e
-0.18445984 3.2711897 0.39422297

weight f4 [256, 14]
00000000: 3075 e9be 7bdf 1dc1 1330 34be d987 0a3e
00000010: a858 913f dadb 33be 888b 12bd 957a 87be
00000020: 1163 8ebe 6a20 063e cb29 19be 8eb3 f73e
00000030: 0182 0fbe 372c 6fbf 7bf9 0cc0 90be 9e40
00000040: a5b4 923f 19e0 883f 8cb3 c1bf 149f 1c40
00000050: 2d0e 5ebf e04d 833f 9f78 77bf 0b65 1bbf
00000060: f61b c8bd 2da2 313e 66c0 593e 1816 303e
00000070: 9b08 c0bf ef7f b540 24a8 3c3f 4869 44c0
00000080: 024d 4b3e 46e6 553e 4a30 9a3d c713 b4be
00000090: 4b46 9b3e 21c4 a0bb eecf 2f3e a7fe ffbc
000000a0: 4064 263f eb4a 43bf bcf1 91bf ce80 2240
000000b0: db54 5dbf e5bc 5dc0 b3b0 f8bf 4e43 783e
000000c0: c08f 0f3f bf1a aabf 6fe4 983f fd3b f53e
000000d0: 59e1 ac3e bbf4 cbbd db0c 7dbd 1a2d 9b3e
000000e0: 3398 6a3f 5880 1e41 3eec aebf 4af0 8fbf
000000f0: 87a8 3fbf e27b 2abf c900 993d 6984 533f
00000100: a6ea 87be 8add 38bd d35a 063e 49f0 00bf
00000110: 0dbd 99be 3b20 633e 5956 c6bf 0aed bb40
00000120: 55bf 54bf 2ade 6dbf eeca f6bd af6b acbd
00000130: c3d5 f5be 0a57 893d 51d5 3bbe 3b9d a2bd
00000140: e17c 9c3d a12f 953d 755f 09bf 9164 19be
00000150: 9b27 c93f 0000 abc0 23ca 5041 5727 8340
00000160: 2b8a 503f 1177 70be 04a9 393f c700 11bf
00000170: 7d1d 983f 762b 0e3f fd41 80be 12f1 253e
00000180: 5a4c e83e 534e 593e 9948 f8bf d69f e240
00000190: 58e3 67c0 f521 d2bf 1c66 0d40 ddcf 5f3f
000001a0: f9ed 183f 1239 f6bf f776 d13f 5cf1 713f
000001b0: 940f 7f3d 843e 9a3c e0b6 f53d 74eb 9bbd
000001c0: 8c02 903d ec9e 55c1 d804 8cbf c934 2fbf
000001d0: dcb5 7cbe 3b9f af3e 6d72 9dbe 17f1 a6bc
000001e0: 5e1f 2bbe 58e0 43be 9c29 b63c 5cf0 70bd
000001f0: 0e3a 223e 59a0 f53d 1078 343f d074 4941
00000200: 07b5 87c0 f936 4ec0 6231 1ec0 21c2 8b3f
00000210: c726 42be f518 013f 7282 aabe 55f0 63be
00000220: e7e0 c83c e598 553e 543b 643d 8024 653e
00000230: 0f9c 313f d43f 5ec1 a247 1dc0 46bc c6bf
00000240: 51d3 bf3e b51a 4b3e cf80 12be e27e 083f
00000250: 7fa0 45be d07b 00be 0eef 843c 598c 1f3f
00000260: 2d96 54be 059c f3be 4602 ffbf 44ef 13c0
00000270: d912 3d3f ae31 88c0 af9c 963f 90ca 70bf
00000280: 86b5 81bf f4a6 04be f8eb 4f3f 92d5 143e
00000290: c01e 88be 0f10 753e de74 f2be ab03 6dbe
000002a0: 3217 6fbf 7192 8a40 49cf 98c0 9f14 ebbf
000002b0: cc00 38bf 2bf2 0fbd 0e10 423e d424 7e40
000002c0: 9b02 86be b03a 09be b185 9c3d c920 fb3f
000002d0: 8449 573f 33eb 77bd 5ad8 5cc0 ff51 2d40
000002e0: 9533 8bbf 8f74 4c41 a3fe 73be e0fd f8bf
000002f0: 550b 8e3e 1c37 afbe aec9 b3be 9e23 103f
00000300: fba5 2c3e 226b fcbe f25f 82be c91e 1abf
00000310: 6bae 80bf 4a79 9f40 cdad 42c0 f990 233f
00000320: e74f b9bf efa8 173e 3d8e 5e3f 5e06 e1be
00000330: 050d 223f 46f3 ec3e 2c44 663e e5d1 b3bd
00000340: 9e47 92be f578 cc3e 66c1 c53e da9b 23c1
00000350: d4ec 883f 8a68 0e40 ce90 8bbe 16a5 a53d
00000360: 1715 ac3f 1229 333f c04b 163e 172e fa3e
00000370: 09b5 dc3e 179f 823f 4f60 ee3e b800 97bd
00000380: 141a 02bf c3dc 0941 0138 05bf e3ce 1ec0
00000390: 67de c33f 09a8 61be 600e 563e 811f 8bbf
000003a0: cfe1 923f ec48 223f 61ed 693e 627d 283e
000003b0: fb0a 853d d32e 563e 0ab9 b2be 1afb 8040
000003c0: ea74 03c0 5fdc 863d ccff 123f 10b9 39bf
000003d0: 2d54 f23e c87a bfbc 29a2 8c3d d4bb db3e
000003e0: c6f6 44bd fef6 f03e d747 bcbe f4b9 0940
000003f0: 834f 9c3f e9f4 4fc1 d903 06bf 65fe a2bf
-0.4559722 -9.867061 -0.17596464 0.13528384 1.1355181 -0.17564335 -0.0357776 -0.2646071
-0.27809957 0.13098302 -0.14957349 0.48379177 -0.14014436 -0.9342684 -2.202727 4.960762
1.1461378 1.0693389 -1.5132918 2.4472094 -0.8674038 1.025814 -0.9666843 -0.60701054
-0.09770958 0.17347021 0.212648 0.17195928 -1.5002626 5.671867 0.7369406 -3.0689259
0.19853595 0.20888624 0.07528742 -0.3517134 0.30327067 -0.004906193 0.17169163 -0.031249357
0.6499672 -0.7628619 -1.1401896 2.5391116 -0.86457604 -3.4646542 -1.9428924 0.24244425
0.5607872 -1.3289412 1.1944712 0.4789733 0.33765677 -0.09958788 -0.061779838 0.30307847
0.9163849 9.906334 -1.3665845 -1.1245205 -0.7486653 -0.6659528 0.07470853 0.82623917
-0.2654621 -0.04513315 0.13120584 -0.50366646 -0.30027047 0.22180264 -1.5495101 5.8726854
-0.8310445 -0.9291712 -0.120504245 -0.084189765 -0.4801465 0.067060545 -0.18343093 -0.079401456
0.07641006 0.07284475 -0.5366128 -0.1497977 1.5715212 -5.34375 13.04935 4.098552
0.8146083 -0.2348292 0.7252352 -0.5664181 1.1883999 0.55535066 -0.25050345 0.16205242
0.45370752 0.21221285 -1.9397155 7.082011 -3.623251 -1.6416613 2.2093573 0.8742655
0.5973812 -1.9236166 1.636443 0.9450891 0.062270716 0.018828638 0.11997771 -0.076132685
0.07031736 -13.351299 -1.0938978 -0.6843992 -0.24678749 0.3430117 -0.30751362 -0.020378632
-0.16711184 -0.19128549 0.022236638 -0.058822975 0.15842459 0.119934745 0.704957 12.591019
-4.240848 -3.2221053 -2.471764 1.0918618 -0.18960105 0.50428706 -0.33302647 -0.22259648
0.024521304 0.20859106 0.055720642 0.22377205 0.6937875 -13.890583 -2.4574971 -1.5526206
0.3746591 0.19834407 -0.14306949 0.5331861 -0.19299506 -0.1254723 0.016227271 0.6232353
-0.20760413 -0.4757997 -1.9922569 -2.3114786 0.73856884 -4.2560644 1.1766566 -0.94059086
-1.0133522 -0.12954313 0.81219435 0.14534596 -0.2658596 0.23931907 -0.47354788 -0.2314593
-0.9339477 4.330376 -4.7753034 -1.8365668 -0.71876216 -0.03514306 0.18951437 3.9709978
-0.26173863 -0.13401294 0.07642687 1.961938 0.8409655 -0.060527038 -3.450705 2.7081296
-1.0875117 12.778457 -0.23827605 -1.9452477 0.2774302 -0.34221733 -0.35114807 0.5630435
0.16860192 -0.49300486 -0.25463825 -0.60203224 -1.0053228 4.983556 -3.041858 0.63893086
-1.4477509 0.14810537 0.8693579 -0.4395017 0.63301116 0.46279353 0.22486943 -0.087802686
-0.28570265 0.39936033 0.38624114 -10.22555 1.0697274 2.2251306 -0.27258915 0.08088128
1.3443936 0.69984543 0.14677334 0.4886329 0.4310687 1.02048 0.46557853 -0.07373184
-0.5082104 8.616397 -0.5203858 -2.4813774 1.5302247 -0.22036757 0.20903921 -1.0868989
1.1475161 0.6339252 0.22844459 0.1645408 0.06496235 0.209163 -0.349068 4.030652
-2.0540109 0.06585001 0.57421565 -0.7254801 0.47329846 -0.023373976 0.06866867 0.4291674
-0.048086904 0.4706344 -0.3677356 2.1519747 1.2211765 -12.9972925 -0.5234962 -1.2733885

bias f4 [256]
00000000: fb36 e1bf 677b 02c0 2de9 5ebf bd70 6abf
00000010: 39fa d43f 9883 3f40 73ab 7fbf d959 b3be
00000020: c4ac 3a40 33d7 5ec0 a455 b03f 3ce8 01c0
00000030: 7c9a 4abd 9cde 5fc0 23eb 1dbf cd30 a4bf
00000040: 62d6 cb3d 5704 053f 96b9 6340 de97 7abf
00000050: 4813 86bf c9eb 23c0 4ae4 87c0 3937 4ac0
00000060: dcb8 56c0 9430 2cbe 3e37 afbf 7bc8 24c0
00000070: f542 f6be 64c5 fbbf 2986 86bf 738c 96bf
00000080: 8984 8ebf 975d 22c0 508e efbf 95c9 11c0
00000090: 11ec 16bf d17e 6cbf fc61 febf b1da 5e40
000000a0: 5fca 6940 81c8 4b3e 05d7 1d40 62ed 8a40
000000b0: 5e11 edbf 05d1 b6bf d92b 0b40 a074 cfbf
000000c0: 0230 2bc0 2128 053f e92e 27c0 94ff 3940
000000d0: a307 fabf 4733 e73e aea1 00c0 6c30 39c0
000000e0: fb01 aebf 7ded 2f3e d723 23c0 d53f 0dc0
000000f0: 9312 d4bf 13ba 443f 6614 0cc0 1f90 abbf
00000100: 5bac 57bf 205e afbf c233 4bbf 9725 a4bf
00000110: 9c6e a63f af1a 83bf b776 e6be c8af 343c
00000120: 60f5 8cbf 1011 15bf 0322 fdbf 9e81 6ebf
00000130: 0f9b e1bf 1949 0940 fc40 0fc0 2e03 25bf
00000140: aab8 32c0 907e 7c40 e6a3 1340 d351 5e40
00000150: 3cfc 2a40 ae4f 97be 4c9f e5bf 24ff 2940
00000160: cff5 bebf bc98 78c0 ffa1 f33f daed 2440
00000170: a0ab 9abf d48c 26c0 666a 2840 b96c 2740
00000180: 459f eabf 0da4 1fbf 53b3 11c0 109f b3bd
00000190: 136a 8f40 27b6 d33e 40aa 86be a159 eabf
000001a0: 2dee 47b9 e093 833d 5d83 a03f 82d5 27c0
000001b0: 8d5a 1fbd d794 8abf 8d57 1340 7e4b da3f
000001c0: e7cc f6bd 9492 b4c0 ceca 793f ee79 36c0
000001d0: 3036 efbe 3514 6940 c7c5 c7bf 9d67 5abf
000001e0: b4cb 44c0 1577 86c0 e8c1 eebf ce4a eebf
000001f0: 081e 50c0 6206 8d40 d714 2c40 a8c0 0840
00000200: 1875 9ec0 5ef8 0b40 5054 8740 4b6e 85bf
00000210: af18 b9bf 90b7 d2bf f0eb d0bf 6dda f23f
00000220: 6f08 9cbf 01ae 53c0 cba0 c9bf ed2c 613f
00000230: 5641 23c0 268a 5340 1a12 5a40 6901 04c0
00000240: f56e 1140 dd39 9dbf d86f bfbf b27b 2ac0
00000250: 3919 a4bf 98f8 8040 beac 1dc0 9aac 79bf
00000260: f0e3 8a3f 3e41 7a40 8ccf a8be 1f4f 3640
00000270: 6627 eabe c8f9 dcbf 623b 2b40 8253 5d3f
00000280: cf3c 91bf 7333 2340 bd3b 653f 0b73 96be
00000290: f772 8ec0 0308 05c0 53cd 8abf 19fe 45bf
000002a0: c02c 61c0 a044 1540 3c3a 8ebf c030 fabf
000002b0: 49ea 65bf cfb3 16c0 67dc 9ec0 8852 cfbf
000002c0: 0f36 0ec0 cba1 a5be bf24 9ebd 9f0f 6bbe
000002d0: 0844 b3bf 4933 2840 3eb2 e03f 1ef7 6cbe
000002e0: 977b 743f f4ac 903f ca96 d3bf fa0c 54c0
000002f0: ae08 8640 8c18 18c0 45ef 4a3f a88c 70bf
00000300: 8df8 283d 5db6 4240 2e7b 923f 861d a5c0
00000310: 5375 29bd 8f1b 9dbf aaa3 c1be 964a 1fc0
00000320: 5a0c febf 2609 8bc0 62e1 ebbf 113f abbf
00000330: 1714 a6bf 8802 1dc0 a91a f5bd 4b4a 683f
00000340: 243d d5bf e889 513e 6d1b 80bf 7fb4 17c0
00000350: f6ea 9cbe 2691 3740 395d 2dbc bdc8 3fbf
00000360: f849 0f40 7e87 acbf 4197 d9bf 96ea 9f3f
00000370: 6ab7 c7bf ad92 1fbe 63ba 153e 4ad4 9d3e
00000380: bc8a 14bf a3ca b3bf 8ca5 64bf 9ab1 ccbf
00000390: 9dfb d33e 8aa1 10c0 8188 7a3f 4cd4 95c0
000003a0: 80e1 94c0 234b 24bd 7977 1c40 1c37 05bf
000003b0: 36b8 363f e7be 48c0 b18c 03c0 cad4 a8bd
000003c0: 525d 30c0 a003 16c0 0de3 f2bf d186 d3bf
000003d0: fc71 63bd f767 a140 8ea4 81bf bd8d a9c0
000003e0: 3736 3abf c973 abbf 11c0 44be acba efbf
000003f0: adf0 d3bf 6939 9dbf 0f02 563e c8ad 62c0
-1.7594904 -2.038782 -0.8707455 -0.91578275 1.6638862 2.9924068 -0.99870986 -0.35029486
2.9167948 -3.4818847 1.3776135 -2.0297995 -0.049463734 -3.497962 -0.61686915 -1.2827393
0.09953 0.5195975 3.5582023 -0.9788798 -1.0474634 -2.5612662 -4.2466173 -3.1596205
-3.355033 -0.16815406 -1.3688734 -2.5747364 -0.4809796 -1.9669614 -1.0509692 -1.1761612
-1.1134197 -2.5369623 -1.8715305 -2.2779286 -0.5895396 -0.92381006 -1.9873652 3.4820979
3.6529768 0.19900705 2.4662488 4.3414774 -1.8520925 -1.4282538 2.1745512 -1.6207466
-2.6748052 0.52014357 -2.6122382 2.9062243 -1.953358 0.4515631 -2.0098681 -2.8935804
-1.3594354 0.17180438 -2.5490625 -2.207021 -1.6568168 0.76846427 -2.188745 -1.3403357
-0.8424737 -1.37006 -0.7937585 -1.2823972 1.3002505 -1.0242518 -0.45012447 0.011028238
-1.1012383 -0.5822916 -1.9776005 -0.9316653 -1.7625445 2.1450865 -2.2383413 -0.64457977
-2.792521 3.9452248 2.3068786 3.4737442 2.6716452 -0.29552978 -1.7939239 2.6561975
-1.4918765 -3.8843222 1.9033812 2.5770173 -1.2083626 -2.6023455 2.631494 2.616011
-1.8329855 -0.62359697 -2.27657 -0.08770573 4.4816985 0.4134991 -0.26301765 -1.8308603
-0.00019066846 0.06424689 1.2540089 -2.6224065 -0.038904715 -1.0826672 2.3022187 1.7054288
-0.12050801 -5.642893 0.9757508 -2.851192 -0.4672103 3.6418583 -1.5607232 -0.8531435
-3.074933 -4.2020364 -1.8652925 -1.8616579 -3.251833 4.407029 2.688772 2.1367588
-4.9517937 2.1870341 4.229042 -1.0424284 -1.4460658 -1.6462269 -1.6322002 1.8972908
-1.2190074 -3.3074954 -1.5752195 0.87959176 -2.5508628 3.305307 3.4073548 -2.062586
2.2723973 -1.2283283 -1.4956007 -2.6637998 -1.2820197 4.030346 -2.4636683 -0.97528994
1.0850811 3.910232 -0.32970846 2.8485792 -0.45733184 -1.7263727 2.6754994 0.8645555
-1.1346682 2.5500152 0.8954428 -0.29384646 -4.451534 -2.078614 -1.084391 -0.7734085
-3.5183563 2.3323135 -1.1111522 -1.9546127 -0.89810616 -2.3547246 -4.9644046 -1.6197062
-2.2220495 -0.3235 -0.077218525 -0.22955178 -1.4005136 2.6281302 1.7554395 -0.23141143
0.95501083 1.1302781 -1.6530392 -3.313292 4.1885595 -2.3764982 0.79271346 -0.93964624
0.04125266 3.0423806 1.1443841 -5.159854 -0.041371655 -1.2274035 -0.37820178 -2.4889274
-1.9847519 -4.3448668 -1.8428156 -1.3378621 -1.2974881 -2.4532795 -0.11967976 0.9073836
-1.6659284 0.20462763 -1.000837 -2.3703916 -0.3064801 2.8682342 -0.010581308 -0.7491568
2.2388897 -1.3478849 -1.6999284 1.2493465 -1.5602849 -0.15583296 0.14621882 0.30826026
-0.5802419 -1.4046215 -0.89315104 -1.59917 0.41402903 -2.2598596 0.9786454 -4.682165
-4.652527 -0.04011072 2.444792 -0.52037215 0.71374834 -3.1366518 -2.0554621 -0.08243711
-2.7556958 -2.3439713 -1.897554 -1.6525518 -0.055528626 5.043941 -1.0128343 -5.298552
-0.72738975 -1.339471 -0.19213893 -1.8728843 -1.6557823 -1.2283145 0.20899223 -3.5418568

weight f4 [256, 256]
00000000: 3f63 01be 8a1c cbbd f15d 5ebe 9033 83be
00000010: d335 8bbe 27be 64be 4871 e8be 6580 3dbe
00000020: d4f7 543e b01e 12bf 436b a3bc 6691 dbbe
00000030: 90e2 8bbe 7d9f 5ebd 4a74 3bbe 88cb bdbe
00000040: 19b4 adbe d1a8 58be 6d67 9a3e 15d9 3fbe
00000050: a41d b23d 7e76 75be a3f6 a1be c313 d53e
00000060: 8b5f f8be 60e3 0dbf 00a9 c4bc 70a9 3bbe
00000070: 5df6 dbbe b20c 0cbe 7c1e 2abf 77a6 093c
00000080: 953f 84be 1bc8 853d dc67 79be 2981 93be
00000090: 067a cfbe 7bd2 23bf e5fa 41bd 447b 8b3e
000000a0: 6da6 4d3d b743 babe 64ad c1bd 19c2 e4be
000000b0: 4e76 4a3e 00dc 81be acfa 94be 4af8 d9be
000000c0: c942 11be 5248 85be baca 14bf 3bd8 c63e
000000d0: 4ef8 debe 61de f1be 9e85 99be 3b03 c0be
000000e0: e474 8c3e ddd3 dfbd b3e5 42be a079 50be
000000f0: 47f4 4a3c f546 9ebf e712 a6be 2aeb 18be
00000100: 8a7d 8bbe baa5 1cbe 7a22 62be 06ec a13c
00000110: 51de 79be a9d9 b33c 682e d9bd de58 bcbe
00000120: 0e26 41be 37f5 a0be dece bcbe 5ccb 90bc
00000130: 662f 4ebe 2606 15bf a129 42be 5412 04be
00000140: 6f1b 74be e571 18be 63d0 2ebe a612 77be
00000150: 6850 a5be e940 a7be 0277 bf3d fa14 fd3e
00000160: 2b52 67be 8a1a 23bf 8d65 a3be 3339 463e
00000170: b767 a4be 6203 b03e 3553 8cbd 1313 653d
00000180: 7704 013e 5bb8 03bf bb22 11be baf1 e0bd
00000190: 3391 54bd eb68 e83b 0e77 c8bd e4ff 4abe
000001a0: c37e 2abf a709 65be 510e a3be 2406 c1be
000001b0: 3c4c e5be f8a5 8fbe 6b3d 0abc b776 bebd
000001c0: db59 26bf 2571 9fbe 3222 11bf 08a6 f7be
000001d0: c3b7 83bd 940f 5abe 7366 48bf 6c3c 8f3e
000001e0: 851c 7bbe 36e7 5fbf 0b00 4ebe f385 9fbe
000001f0: b1c7 16bf ba2c bfbd f199 0ebe 4db0 11be
00000200: 3eda b93e 37b2 7dbe b556 53be bcc2 cc3e
00000210: dd08 a43c e7b6 0abd 7977 98be f1cc 58be
00000220: a056 99be 398a c13d 341b bb3d 2bf2 c83b
00000230: 32b7 60be 752e 63bd 5f6f dabd 25fd d4bd
00000240: 962a 53be 0be8 193d e084 16be bc42 083e
00000250: f3ad b8be 7eb5 ea3d 6acf 1bbe b9c1 19be
00000260: 541f 22bf 2658 33be 2b42 f5be 073b 713d
00000270: 1b62 68be f75f 97be 2266 133e 81d9 8abe
00000280: b99a 853d 1967 88bd 019e 85be 2b15 96be
00000290: 6ff3 a8bf 1d5b aa3d 8805 e7bd 2d67 43be
000002a0: c1a1 0abf d04f 28bf 6cb6 9cbe 12f4 67be
000002b0: dd76 80be b0a9 7a3c b3dc 99bf 1065 c5be
000002c0: cfb7 39be f7f6 98be 617b acbe 4237 e6bd
000002d0: e2e3 abbe 24a9 93be dd87 4d3d d53d 57be
000002e0: 68ce 20bf 96c6 88be e373 59be 9ee6 b5bc
000002f0: 742e 29be b203 0ebe 473e eebe c44a 21bf
00000300: 94fd 1fbf 3e2b 81be 3a78 ddbe 39b6 f83c
00000310: 42cf c9be 4a2e 96bd dddb 17bf e8dd 11be
00000320: dcce bbbe e1d2 cd3e 48b0 5b3d 008a 10c0
00000330: 61c7 8ebe c08a dcbe f34e 47bc 2b3f c5be
00000340: 1d1d 9ebb 2643 b83d e25a 383e c11a a53d
00000350: 7231 60be b507 95bd 101e 923c a112 01bf
00000360: a508 fabe 05aa 17bf 5b45 bebd 1a54 f6be
00000370: 3634 4abe 882a d1be b353 4abe d262 aabe
00000380: cf54 afbd 7190 a13d 0a91 95be 4803 66bd
00000390: e7d1 9bbe 589c 0fbe f113 b6be b6c9 333e
000003a0: 575c 26bf 7ad3 a33d fc14 b2be c61f f7bd
000003b0: 9bab 94be 8a57 3fbf 12a2 c2be 19f1 91be
000003c0: 9903 bebe 30f5 acbe d0c8 4dbe c583 1c3d
000003d0: 83f3 ffbe 4f50 813d 8d88 49bd a0c0 0d3e
000003e0: 9680 bfbe 1021 31be e613 97be a43e 613e
000003f0: daf7 2fbd 4503 e1be bb2f 16bf fc02 4dbf
-0.12635516 -0.09917553 -0.21715523 -0.25625277 -0.27189502 -0.22338162 -0.45398927 -0.1850601
0.20797664 -0.57078075 -0.019948607 -0.42884368 -0.2732129 -0.05435132 -0.1830608 -0.37069345
-0.33926466 -0.21158148 0.30157033 -0.18735154 0.0869706 -0.23970982 -0.3163348 0.4161664
-0.48510394 -0.5542507 -0.024006367 -0.18326354 -0.42961398 -0.13676718 -0.66452765 0.008401505
-0.2582976 0.06532308 -0.24356025 -0.2880948 -0.40522784 -0.6399304 -0.047358412 0.27242482
0.050207544 -0.36379787 -0.094569 -0.44679335 0.19771692 -0.2536316 -0.29097497 -0.42572242
-0.14185633 -0.2603174 -0.58121836 0.38836846 -0.43548816 -0.47239974 -0.29984754 -0.37502465
0.2743293 -0.109290816 -0.19032936 -0.20358896 0.012387342 -1.2365404 -0.32436296 -0.14933458
-0.27244216 -0.15297595 -0.22083464 0.019765865 -0.24401213 0.021954374 -0.106045544 -0.3678655
-0.18862173 -0.31437084 -0.36876577 -0.017675094 -0.20135269 -0.58212507 -0.18961193 -0.12897617
-0.2383859 -0.14887197 -0.1707168 -0.24128208 -0.32287908 -0.3266671 0.09348871 0.49430066
-0.22589938 -0.6371237 -0.31913415 0.19357757 -0.32110378 0.3437758 -0.06851808 0.055926394
0.1259936 -0.5145318 -0.14173405 -0.10983606 -0.051896285 0.0070925853 -0.09788333 -0.19824177
-0.66599673 -0.22366963 -0.3184686 -0.37699997 -0.44784725 -0.28056312 -0.008437495 -0.09299987
-0.6498086 -0.3114101 -0.566928 -0.4836886 -0.06431534 -0.21295005 -0.78281325 0.27975786
-0.24522598 -0.87462175 -0.20117204 -0.31156883 -0.58898455 -0.09334703 -0.13925911 -0.1422741
0.36299318 -0.24775015 -0.20638545 0.3999232 0.020023758 -0.033865836 -0.2977865 -0.21171929
-0.29948902 0.09450192 0.09136048 0.0061323843 -0.21944883 -0.055464227 -0.106657736 -0.10399846
-0.20621714 0.03757481 -0.14699125 0.13306707 -0.36070213 0.11460398 -0.15215841 -0.15015306
-0.6332905 -0.17514095 -0.47902045 0.058894183 -0.22693674 -0.29565403 0.1439443 -0.27119067
0.06523652 -0.06660289 -0.2609711 -0.29313025 -1.319929 0.0831816 -0.11280352 -0.19082327
-0.54153067 -0.65746784 -0.30607927 -0.22651699 -0.25090685 0.015299246 -1.2020477 -0.38553667
-0.18136524 -0.2987592 -0.3368788 -0.11241008 -0.33572298 -0.28839982 0.050178397 -0.21019681
-0.6281495 -0.2671401 -0.21235614 -0.022204693 -0.16521627 -0.13868597 -0.4653189 -0.6300471
-0.62496305 -0.25228304 -0.43255788 0.030360328 -0.39415938 -0.07333048 -0.5931986 -0.14244807
-0.3668126 0.4019995 0.05363491 -2.2584229 -0.2788649 -0.43074608 -0.012164819 -0.38524756
-0.004825248 0.089971825 0.18003419 0.080617435 -0.21893862 -0.072768606 0.0178366 -0.5041905
-0.4883472 -0.59243804 -0.09290572 -0.4811104 -0.1974648 -0.4085276 -0.19758491 -0.3327852
-0.08561098 0.07888878 -0.2921222 -0.056155473 -0.3043358 -0.14024484 -0.3556209 0.17557415
-0.6498465 0.0799932 -0.34781635 -0.12066607 -0.29037175 -0.7474295 -0.38014275 -0.28504255
-0.3711212 -0.33780813 -0.20096135 0.038211603 -0.49990472 0.06314146 -0.04920249 0.13843012
-0.3740279 -0.17297769 -0.2950737 0.21996552 -0.04296098 -0.43947807 -0.5866658 -0.8008268
