log/mujoco_ppo_halfcheetah_v2_1/mujoco_ppo_halfcheetah_v2_1_s1/pyt_save/model.pt (torch_old, 48781 bytes, 12 tensors)

log_std f4 [6]
000000 0a c6 c4 bf d5 6b c7 bf 23 f3 ca bf ce 0e ce bf
       -1.5372937 -1.5579783 -1.585545 -1.6098268
000010 09 1d d1 bf 7b 1f c5 bf
       -1.6336986 -1.5400232

weight f4 [64, 17]
000000 20 54 3d 3e b7 78 d8 be 68 77 14 be e9 94 cf 3e
       0.18489122 -0.42279598 -0.14498675 0.40543297
000010 4a b4 95 be df 9b 08 be ef 6d 64 3c b7 10 54 3e
       -0.29239112 -0.1334071 0.013942226 0.20709501
000020 5a d5 bc 3c b7 d4 88 3d db a8 14 3e e8 15 c5 bd
       0.023050953 0.06681197 0.14517538 -0.09623319
000030 57 2c 12 3d 38 7f 45 bd 75 b5 10 3c c2 4e 87 3c
       0.035686817 -0.04821703 0.008832325 0.016517047
000040 c7 67 2d 3d 73 ce 99 bc eb 6a 84 3d 99 f6 25 3d
       0.042335298 -0.0187752 0.064657055 0.040518377
000050 5e 82 94 bd 10 37 1d be 8b b3 08 be ab f4 1d bd
       -0.07251428 -0.15353036 -0.1334974 -0.03856341
000060 73 95 d7 bc 71 65 be bd 07 92 9c 3e 35 17 4d 3e
       -0.02631638 -0.09296692 0.3058016 0.20028384
000070 b7 d1 9d be 74 76 f0 3d 55 3c c9 3d 2b 62 66 3e
       -0.30824062 0.11741343 0.098259605 0.22498386
000080 0a 18 93 3e 9f fa 0d be af 0e eb be be 71 89 bb
       0.28729278 -0.13865136 -0.4590964 -0.0041944673
000090 57 af 7c 3e 77 3c bd bd bb 90 57 3e 83 93 8f 3c
       0.24676262 -0.092400484 0.21051304 0.017526394
0000a0 4f 2f 95 3e 75 1a 45 be b6 fc 85 3e 13 02 41 be
       0.29137656 -0.19248374 0.26169366 -0.18848448
0000b0 c3 c3 51 be af f7 d3 bc 43 03 df bd 45 91 01 3e
       -0.20484833 -0.02587494 -0.10889294 0.12653072
0000c0 39 41 06 be a7 25 c9 bb a9 24 77 be b5 31 db bd
       -0.13110818 -0.0061385217 -0.24135078 -0.1070284
0000d0 d3 9a bf 3e fc 51 5b bd 43 45 c1 3e 22 a0 a4 3d
       0.3742281 -0.053544983 0.37748155 0.080383554
0000e0 fe 55 ae be 76 cf c7 be 8c 5d bc 3d c7 7f 2b 3d
       -0.34049982 -0.39025468 0.0919753 0.041869905
0000f0 50 fc c0 bd 43 50 45 3e 89 b0 69 3e a2 51 35 3e
       -0.09423125 0.19268899 0.22821249 0.17706922
000100 5d 8d b1 bd 29 bb ba bd 9e a7 dd bb ac fb bd bc
       -0.08669541 -0.09117729 -0.0067643663 -0.023191296
000110 24 2f 0b 3d 02 93 93 be 13 2e 8f 3e b8 26 02 be
       0.033980504 -0.28823096 0.2796484 -0.12710083
000120 70 dc 0a 3e 74 65 2d bd b4 58 9b 3d 41 f6 80 3d
       0.13560653 -0.04233308 0.07585278 0.06296969
000130 0a b1 ce 3d 0e 2a 0f 3e c4 2f b2 3a b4 64 48 3e
       0.10092361 0.13980886 0.0013594558 0.19569665
000140 ed 4c 9c be ce 45 f1 bd 45 eb 98 3d 2b 90 0e bd
       -0.3052744 -0.11780892 0.07466749 -0.034805458
000150 e8 08 7f 3d 06 f9 8f bd 60 8d da bd ea c3 dc 3e
       0.062264353 -0.07029919 -0.106714964 0.4311822
000160 aa 0a 6e be 16 91 50 3e f0 ce a5 3e 88 4e e2 be
       -0.23246256 0.20367846 0.32384443 -0.4420054
000170 b5 d3 a5 bd d9 84 8e be bf 31 45 be 86 4d a2 be
       -0.080970205 -0.2783573 -0.19257258 -0.3169977
000180 39 5e 86 3c 67 f0 e8 3d 23 76 15 be 4b 70 7c bd
       0.01640235 0.11373978 -0.14595847 -0.06163053
000190 be d8 24 3e fd 81 c6 bd 66 ef 8a 3e e1 de 77 3e
       0.16098306 -0.09692762 0.27135772 0.24206115
0001a0 1b 5b f1 be 6e 29 27 be 97 c9 3b 3e f7 d4 b6 be
       -0.4713982 -0.16324398 0.18338619 -0.35709354
0001b0 0c 12 a0 3e 83 6c c0 3e a3 b6 45 bd bd 96 0e 3f
       0.3126377 0.37582788 -0.04826988 0.5569876
0001c0 d8 57 ab 3e a7 97 91 bd 7f 3d 8e bd 4e 48 40 3e
       0.33465457 -0.071090035 -0.06945323 0.18777582
0001d0 ee ea 45 3e 53 f2 fd 3d 8c 92 6f bd f5 e9 10 3e
       0.193279 0.12399735 -0.058489367 0.14151748
0001e0 7c 28 69 be 7b 33 8a be c3 73 df 3e 71 a9 92 be
       -0.2276935 -0.269924 0.43643007 -0.286449
0001f0 24 2e 00 be ad fe 91 3d 08 e6 2c 3d 59 32 95 3d
       -0.12517601 0.07128654 0.042211562 0.07284994
000200 c9 43 16 3f 21 70 a5 bd bf b0 77 bd 8d 15 52 3c
       0.5869718 -0.080780275 -0.060471293 0.012822521
000210 76 6f 4d 3e af 1e 7a 3e 54 44 1e 3e a9 55 22 3e
       0.2006205 0.24425767 0.15455753 0.1585299
000220 e6 b5 cc 3d c0 29 ca 3e 92 2c 87 bd d8 30 04 bf
       0.09995632 0.39484978 -0.06600298 -0.5163703
000230 1a 81 3a bd 5e 59 86 3e 68 e2 05 be d8 df 3d 3e
       -0.045533277 0.26240057 -0.13074648 0.18542421
000240 e7 71 f6 bc 63 58 ae bd cd fd df 3e 14 90 b6 3d
       -0.03008361 -0.08512952 0.43748322 0.089141995
000250 be 92 84 3e 6b 7c af 3d 2f a8 ac bc ac 8c 0a 3e
       0.25893205 0.08568653 -0.02107629 0.13530225
000260 78 c9 30 bd 67 56 10 be 16 93 d5 be 60 5b fd 3d
       -0.043160886 -0.1409546 -0.4171378 0.12370944
000270 72 30 81 bd 64 47 2e 3e a4 61 25 3e a7 63 44 be
       -0.06308068 0.17019421 0.16150528 -0.1917864
000280 6e 56 d9 be e3 5a 0f 3e f2 1b 98 bd 7e 17 d2 3d
       -0.42448753 0.13999514 -0.07427205 0.10258387
000290 96 17 ec bd 05 8c 07 3d 8e 6b 28 3c 23 d8 2e 3d
       -0.11527936 0.033092517 0.010279549 0.042686593
0002a0 17 06 70 be 23 d4 55 be 71 39 65 be 99 9f 5d bd
       -0.23439823 -0.20881705 -0.22385193 -0.054107282
0002b0 6c c9 a4 3e 35 a1 e9 3d bf 1a 86 3e d3 e1 6b 3e
       0.32184923 0.11407701 0.2619228 0.23035364
0002c0 86 b8 8f 3e 34 f1 06 3e 43 54 cb be ad a0 78 3e
       0.28070468 0.13177949 -0.39712724 0.24280043
0002d0 2c c0 05 be e6 e7 1a be 1b 1c 01 be 08 9d d0 3d
       -0.13061589 -0.15127525 -0.12608378 0.10186201
0002e0 d4 14 b9 bd c2 7b 41 3e bf e6 91 be 61 a4 fb bd
       -0.09037176 0.18894866 -0.28496358 -0.12287212
0002f0 d0 7d da bd cf e7 c4 3d b3 15 8f 3c d9 80 c1 bd
       -0.10668528 0.096145265 0.017466402 -0.09448404
000300 a2 1b 93 be 0f 34 b5 bd 2f 30 6c 3e de ac 15 be
       -0.2873202 -0.0884782 0.23065256 -0.14616725
000310 da a4 75 3e 34 fc e4 3d 4a eb 48 3e c7 e1 9f bd
       0.23988667 0.111809164 0.19621006 -0.078067355
000320 f5 b9 e6 3d d9 e2 94 be 5c eb 27 3e 11 8a 15 be
       0.11265937 -0.2907932 0.16398376 -0.1460345
000330 93 64 50 3e df b9 8d 3e 36 37 28 be 2c 2f cc bd
       0.20350866 0.2768087 -0.16427311 -0.09969935
000340 9d d3 81 bd 46 8e 55 3c c8 99 7f 3b 2b 69 2e 3e
       -0.0633919 0.013034409 0.0039001573 0.17032306
000350 bd a2 f0 be d3 b2 1c 3e df 31 ae 3e da 55 5c 3e
       -0.4699916 0.15302591 0.34022424 0.21517125
000360 0c 5c e6 3d 1d 21 76 be db 2c bd bd a1 1a 25 3e
       0.11248025 -0.24036069 -0.09237071 0.1612344
000370 0a 3c 72 be c0 03 81 3e e8 5f 2a be 87 39 df be
       -0.23655716 0.25198174 -0.16638148 -0.43598577
000380 92 dd fe 3d ce 16 42 be 37 0a 27 be fb 0b c3 3e
       0.12444605 -0.18954012 -0.1631249 0.38095078
000390 65 47 9c 3e b6 07 60 3e 0e ef 38 3e 1f 66 4c be
       0.3052322 0.21877941 0.18059942 -0.19960831
0003a0 56 68 8d 3e 81 94 4f bd 2c a9 b5 3a cf 24 8c 3d
       0.27618665 -0.050678734 0.0013859621 0.06842958
0003b0 81 9a 95 bc 6c aa 2f 3e 1c 4f ff 3d 30 6d c1 be
       -0.01826215 0.17154855 0.12466261 -0.37778616
0003c0 d8 8e a0 bd 49 0d 48 bd 57 a7 2a 3e 52 fa 61 bd
       -0.07839745 -0.048840795 0.16665398 -0.055170365
0003d0 fb f4 86 bd b4 7b 22 be 82 45 bf be b0 90 40 bd
       -0.06589695 -0.15867501 -0.37357718 -0.047012985
0003e0 f8 09 75 bd fb be 2f 3d 07 95 95 3e 25 6d 26 be
       -0.05982396 0.042906743 0.2921526 -0.16252573
0003f0 7d 30 15 bd 21 c9 2e 3e a3 ff ee 3d 26 64 39 be
       -0.036423195 0.17068912 0.116698526 -0.1810461

bias f4 [64]
000000 c0 4c 51 be 54 8e 6d 3e 0a 16 a6 3e ef c6 1c be
       -0.20439434 0.23198825 0.3243869 -0.15310262
000010 d3 87 98 be 62 eb 8d be 98 49 d0 3d 61 d9 b0 bd
       -0.29791126 -0.27718645 0.10170287 -0.08635212
000020 1c 59 90 be 83 2f bc bd b9 3f 21 3e c8 e3 99 3d
       -0.28192985 -0.0918875 0.15746965 0.07514149
000030 45 41 72 bb 2e bf 4e 3c bb 4c 3a be f6 c0 81 3d
       -0.0036965173 0.012618823 -0.18193333 0.063356325
000040 85 b7 84 3c a6 01 a8 bd 67 1c 3f 3e 43 19 f4 3d
       0.01620079 -0.082034394 0.18663178 0.11918881
000050 76 7f be 3e c2 60 50 3e ff e3 25 be c9 8f 8b 3e
       0.3720662 0.2034941 -0.16200255 0.27258137
000060 94 03 8c be 73 d7 8b bd 9a b9 3b bd 61 95 e2 3e
       -0.2734648 -0.06828203 -0.0458313 0.44254592
000070 52 27 83 be 26 67 be be 10 aa 3c be 23 7e 11 be
       -0.25615937 -0.3718807 -0.18424249 -0.14208274
000080 88 81 ee bd 2c d2 81 3e 4d 63 bf 3e 79 b6 47 3e
       -0.116458 0.2535566 0.37380448 0.19503202
000090 24 09 b6 3d 9e 78 46 3e bb e9 15 be d0 50 e4 3c
       0.08888462 0.1938195 -0.14639942 0.027870566
0000a0 86 ee 2e 3c ec 3c 84 3e 01 88 a9 3e 53 3e 6f 3e
       0.010676986 0.2582773 0.33111575 0.23363619
0000b0 24 2c ae be 3d e2 3f 3e 32 fd 27 be e4 ea a1 3d
       -0.34018052 0.18738647 -0.1640518 0.0790613
0000c0 f2 ee b8 3e 3f cd 26 3d 12 38 a7 bc 4a 53 11 3d
       0.361198 0.04072308 -0.020412479 0.03547982
0000d0 7d bb 44 be cf 8b c1 3e dc 18 d3 3e 41 b5 8c be
       -0.19212146 0.37801978 0.41229904 -0.27482036
0000e0 58 ac 6a 3d 93 b7 d6 ba 55 b0 98 be 34 82 38 be
       0.057293266 -0.0016381614 -0.2982203 -0.18018419
0000f0 91 8f ce bd 32 e6 4e be 58 b9 90 be 10 ef 02 be
       -0.10085977 -0.20205 -0.28266406 -0.12786508

weight f4 [64, 64]
000000 a5 78 82 bc 51 6c af bc 04 c8 00 bd 74 4b 4a bd
       -0.015926668 -0.021413954 -0.03144075 -0.049388364
000010 b2 21 10 3e 5f b4 02 bd cc 38 35 bd e9 6b d5 bc
       0.14075354 -0.031910297 -0.04424362 -0.026052432
000020 ec 14 b9 bd 84 42 e0 bc 7a 30 dd 3d b6 de 5a bd
       -0.09037194 -0.027375467 0.10800262 -0.05343505
000030 c0 3e 8a bc b8 0b 2f 3e 6c bf 36 bd f1 d9 57 3d
       -0.016875625 0.17094314 -0.044616148 0.05269808
000040 14 40 d0 bd d5 7f d4 bb bc 00 94 bb 9d 83 94 bd
       -0.10168472 -0.0064849653 -0.004516689 -0.07251666
000050 c0 71 03 3e ab c0 86 bc e5 24 f7 3b 2c 0f b1 bd
       0.12836361 -0.016449293 0.00754224 -0.08645472
000060 c0 b8 d9 3d 06 37 1a 3e b9 5d 21 bd 9a 75 da bc
       0.106309414 0.15060052 -0.03939602 -0.026667405
000070 01 f0 bd bd 36 35 1a 3e 89 b5 cf 3d 11 10 8f 3d
       -0.09274293 0.15059361 0.10142047 0.06985486
000080 44 68 6f 3c e2 3e e4 3d 9d d1 c8 3d a7 33 ab 3d
       0.014612261 0.111448064 0.098056056 0.08359461
000090 72 b1 50 3d db 63 ad 3d dc 9f 44 3e b3 b5 72 3d
       0.050950475 0.084663115 0.19201607 0.059255313
0000a0 b2 92 ab bc c0 27 97 bd 67 ec 5a 3c 65 bf 3a 3e
       -0.020943973 -0.073806286 0.013362027 0.18237074
0000b0 bf a4 4c 3d e7 14 9d bd cd 51 23 bd 4c 92 78 3d
       0.0499618 -0.076700024 -0.039872933 0.060686395
0000c0 a1 3d 6b 3d 83 52 55 3e 33 7b 3a 3d a0 90 96 3c
       0.05743182 0.20832257 0.04552765 0.01837951
0000d0 f8 47 9a bd 62 db 00 be 4f 4b b1 bd 35 f7 52 3c
       -0.07533258 -0.12583688 -0.08656942 0.012876322
0000e0 08 70 f2 bd f9 19 35 be 52 e3 bc 3d fb d3 02 ba
       -0.118377745 -0.17685689 0.092230454 -0.0004990694
0000f0 85 40 29 be 72 1a 9b 3c 06 f7 1d 3e 1c 26 8e bc
       -0.16528518 0.018933509 0.15426263 -0.017352156
000100 a7 72 f1 3d f5 9f 28 3d 50 02 c9 3d 84 96 c3 bd
       0.11789446 0.041168172 0.09814894 -0.09550193
000110 b5 f7 80 bd c7 79 0a be 70 8e e6 3c 71 bf 01 3e
       -0.06297246 -0.13523017 0.028144091 0.12670685
000120 34 7a a9 3d 24 07 dd bd f5 e0 ee 3b db c8 ce 3b
       0.082752615 -0.107923776 0.0072900006 0.006310565
000130 f5 83 44 bd c7 a4 bf bd a3 56 fa 3d 86 63 36 3d
       -0.047977407 -0.09357601 0.12223556 0.044528507
000140 08 99 ea 3d 4d 11 92 3d ba 7b 09 3d c3 08 8d bd
       0.1145497 0.07132206 0.03356526 -0.06886437
000150 dc 01 6f bd a0 4c 85 bd 30 19 13 3d b5 3b 27 3d
       -0.058351383 -0.06508756 0.035912693 0.040828425
000160 ad b6 e7 3d a6 76 44 bd 3a 8b 58 3d c5 8c 99 bd
       0.113141395 -0.047964714 0.05286715 -0.07497553
000170 bd 9f 7b bd 4d 63 7c bc 8c 9a 3d 3e e8 89 08 3e
       -0.061431635 -0.0154045345 0.18515986 0.13333857
000180 22 52 09 be a5 30 d5 3d 81 31 61 3e 05 83 c8 3c
       -0.13410237 0.10409669 0.2199154 0.024476537
000190 77 8e 6e 3d 28 45 ca bd 99 e3 83 3d bf e6 18 3b
       0.058241334 -0.09876472 0.06439895 0.0023330895
0001a0 89 e2 9e 3c 6b 41 28 bd 00 d9 bc 3d ea 1e 13 bd
       0.01939513 -0.041078012 0.09221077 -0.035918154
0001b0 d3 8e 74 bc 79 85 5b bd 7e d1 a2 bd f8 f9 c2 bd
       -0.01492663 -0.053594086 -0.07950114 -0.09520334
0001c0 4b 41 03 3e ac a8 42 bc ee ca 28 3e ee 65 ad 3d
       0.12817876 -0.011881035 0.16483662 0.08466707
0001d0 ad 59 f9 bd d8 7c e3 bc 53 2c 87 bd 64 5f fe 3c
       -0.121753074 -0.027769491 -0.06600251 0.031051345
0001e0 be 57 be 3d b9 b6 68 bd b9 92 85 3c 8c 3f ab 3c
       0.09294079 -0.056814883 0.016305314 0.020904325
0001f0 d5 ab 8b bd de 1b c6 bd 29 ff 12 3e aa f5 de bd
       -0.06819884 -0.09673284 0.14355148 -0.108867005
000200 f1 f2 b9 bc 14 44 28 bc 2e a5 bb 3c 74 d1 9d 3d
       -0.022698851 -0.010270137 0.022905912 0.07705966
000210 0b 0a 49 3d b2 b5 ea 3d b1 b5 d5 3c ab 64 15 3d
       0.049081843 0.11460437 0.026087614 0.036472958
000220 2e 70 9c 3d 60 37 53 3c c9 cc f2 3d fa 97 4f 3c
       0.07638584 0.01289162 0.11855466 0.012670511
000230 81 e1 fd 3d 31 ee a9 3c 38 79 63 3d b6 f6 f2 3d
       0.12396527 0.020743461 0.055535525 0.118634626
000240 e1 b3 16 be 1f b4 c7 3c f5 6e 39 3e af 3e 39 bd
       -0.14717056 0.02437788 0.18108733 -0.045225795
000250 0d 95 d5 bd f2 c1 af bd 9b 60 1e 3d cb f1 be 3b
       -0.1042882 -0.08581914 0.03866635 0.005827164
000260 f4 b7 25 3d 22 57 4c 3d 70 28 e0 3c 56 af c9 3d
       0.040458634 0.049887784 0.027363032 0.09847896
000270 61 e0 e7 3c c4 f5 78 3d 1b c8 56 be 87 cf f2 bd
       0.028305234 0.060781255 -0.20974772 -0.11855989
000280 25 4f 02 3e ff 26 c0 bd 37 81 4e 3d 97 d0 ab 3d
       0.12725504 -0.09382438 0.050416198 0.08389395
000290 0f 68 a0 3d e2 41 07 3d 92 7b f3 3c ed 73 7e bd
       0.078323476 0.033021815 0.029722009 -0.062122274
0002a0 fe 09 13 be 76 c5 be bd b3 25 0b be 3c 0f c6 3d
       -0.1435928 -0.093150064 -0.135886 0.096708745
0002b0 dc 4a bf bc c4 55 b2 3d 7d 0e 5a 3d c5 bd 96 bd
       -0.023351125 0.08707765 0.053236473 -0.073604144
0002c0 14 18 56 bd a2 04 27 be f9 75 9a bd 24 2d 31 3c
       -0.052269056 -0.16310361 -0.07542033 0.010813985
0002d0 7c d8 77 bc 0d 05 d3 3c c2 51 b1 bd 4e 4b 9c 3d
       -0.0151272975 0.025759244 -0.08658172 0.07631551
0002e0 82 d0 9a 3d 00 84 6b 3d 32 a4 0b be c1 da 4d bc
       0.07559301 0.057498932 -0.13636854 -0.012564362
0002f0 4d 25 e1 bd 7a 3b 81 3d 1e 42 02 be 36 79 47 3d
       -0.10993443 0.063101724 -0.12720534 0.04869958
000300 af c7 42 be 0c d4 0c be 80 21 6d 3d d1 26 ee 3d
       -0.19021486 -0.13752764 0.057893276 0.116284974
000310 d7 08 07 bd 59 0f 5d 3d f5 da ee bd 73 66 5a be
       -0.032967415 0.053969715 -0.116628565 -0.21328144
000320 b0 ab 4b 3a 92 00 0e 3c 94 d7 fb 3d 1c 39 fb 3c
       0.0007769419 0.008667128 0.12296978 0.03066688
000330 5c ea 12 be c7 c9 d1 3d f1 47 52 3d e9 3b 7c 3c
       -0.14347214 0.10243564 0.05133814 0.015395143
000340 3b 92 47 3d 67 b9 ac 3e db c2 a1 3d a7 c6 23 3e
       0.04872344 0.337352 0.07898494 0.15993749
000350 ed 4e 52 3d 08 be a7 bd 53 13 c0 3d f1 ca c4 3d
       0.0513448 -0.081905425 0.09378686 0.096090205
000360 9e b5 89 3b e7 44 9a bd a7 4e 41 bd 34 ae 39 bd
       0.0042025587 -0.07532673 -0.04719415 -0.04533215
000370 73 4c 34 bd 28 36 a8 3a 27 9b 93 bc a5 26 0e 3e
       -0.04401822 0.0012833523 -0.018018318 0.13881929
000380 5d c5 88 3e 53 36 f6 bc 55 d0 cb bd b1 c3 1b 3e
       0.26713076 -0.0300552 -0.099518456 0.15211369
000390 35 2a e7 3d 92 c1 3b bd f5 56 e7 ba c8 21 e0 3d
       0.11287347 -0.0458389 -0.0017649817 0.10943943
0003a0 ef 6c 0d 3d 3d 96 9a bd bd e6 bf 3d 90 4e 93 3d
       0.034527715 -0.07548187 0.09370182 0.07192719
0003b0 3d c5 ec 3c 38 58 8a 3b 93 94 7f bd f9 fc 13 bc
       0.028902644 0.0042219423 -0.06239755 -0.009032481
0003c0 fd a5 f4 bd 5d 6f 48 3e 55 8a 1c 3d 37 c5 42 3e
       -0.11945722 0.19573732 0.03821786 0.19020544
0003d0 4c a3 50 bd 61 79 02 be 50 c4 e1 bc 95 85 8e bd
       -0.050936982 -0.12741615 -0.02755943 -0.069590725
0003e0 07 25 cd bc 82 9f d2 bd cf 0e 48 bd 3d 56 ab bd
       -0.02504207 -0.1028433 -0.048842248 -0.08366058
0003f0 07 84 0b be bd ee c4 bd b9 59 e9 3d 1d d2 88 bd
       -0.13624583 -0.09615848 0.11394066 -0.06680701

bias f4 [64]
000000 02 d0 85 bc b4 50 30 3e 0d 1c 66 be d9 60 38 3e
       -0.016334537 0.17218286 -0.22471638 0.18005694
000010 00 37 bd bc 56 8e c4 bd 78 b6 73 bc 77 42 1e 3e
       -0.023097515 -0.09597461 -0.014875047 0.15455042
000020 11 cc 01 be 7f 92 29 3c 8a 4f 00 3e b3 2c c4 bd
       -0.12675501 0.010349869 0.12530342 -0.09578838
000030 59 04 3a 3d b7 68 bf bd c1 d1 45 3e fa bb e1 bd
       0.045414302 -0.09346145 0.19318296 -0.11022182
000040 17 dc 27 3e d7 38 f3 3c 76 06 2b be 39 2e c1 bd
       0.16392551 0.02969019 -0.16701683 -0.094326444
000050 73 8f 1c be 8f ce 6a 3d 66 8a e5 3d 5a 98 a3 3d
       -0.15289097 0.057325896 0.11208038 0.07988043
000060 ec 2d 98 3c 2b 53 a6 3d 6a aa d8 3c 73 d8 47 be
       0.018576585 0.08121332 0.026448447 -0.19516163
000070 b0 9f 29 3e dc 9b da b9 37 66 f7 bd 72 54 7c 3d
       0.16564822 -0.00041696324 -0.12080043 0.06160397
000080 a1 ba d0 bd 20 2d 2a be d3 1b a2 3d d8 60 f6 bc
       -0.10191847 -0.16618776 0.07915463 -0.030075476
000090 8d 18 a2 3d ba 59 06 be c4 5d 3c 3e ec 49 cd 3d
       0.07914839 -0.13120165 0.18395144 0.10023865
0000a0 36 f5 cf bd e5 f6 de 3c c9 44 17 3e d5 62 4c 3d
       -0.10154192 0.027217338 0.14772333 0.04989894
0000b0 f5 38 b4 3d f2 43 0a 3e 54 5b ab bd fd 34 1c bc
       0.08799926 0.13502482 -0.08367029 -0.009534118
0000c0 53 e4 9c bd 41 33 d5 ba f6 f2 b4 bd 52 72 58 bc
       -0.07660737 -0.0016265885 -0.088354036 -0.01321085
0000d0 90 79 3a bd 86 ba 39 be 5e af 8e 3e 5c ca bc bc
       -0.045526087 -0.1813756 0.2786817 -0.023045711
0000e0 8e 13 05 3e 86 c3 69 be 87 eb f4 3d a1 db e3 3d
       0.12995741 -0.22828493 0.11958986 0.11125875
0000f0 25 30 f7 3c 66 00 b7 bd e6 39 77 3d 4b 06 0a bd
       0.030174324 -0.08935623 0.06035795 -0.033697408

weight f4 [6, 64]
000000 10 6f c3 3c f9 d1 3a 3d 08 bf 89 bd 65 53 34 be
       0.02385667 0.0456104 -0.067258894 -0.17609937
000010 fc e3 c5 3d e3 eb 23 3e 5c 58 10 3d aa f0 47 3d
       0.09662625 0.16007952 0.035240516 0.0488135
000020 28 47 23 3d e7 35 95 3d b3 1a d6 bc 2e 50 0f be
       0.03986278 0.07285672 -0.026135778 -0.1399543
000030 d1 84 23 be 8d ef 78 bd fb d5 04 3e 83 28 42 3c
       -0.15968634 -0.06077533 0.12972252 0.011850479
000040 c3 5c cc bc 5d 4d 32 3e fd 4d d0 3c d4 5c 8c 3c
       -0.024946576 0.17412324 0.025427813 0.017134108
000050 c1 1f 54 bd 62 2f 1f 3e b6 27 b3 bd b6 b8 0c 3e
       -0.051788095 0.15545419 -0.08747809 0.13742337
000060 06 42 52 3a 5f bc d0 bd ea 84 0f bd 4c b4 85 bb
       0.00080207025 -0.10192179 -0.035038866 -0.004080331
000070 dd 7b 75 bd 10 1f 99 bd 2a f3 24 3d 06 2c 8f bd
       -0.05993258 -0.07476628 0.04027096 -0.06990819
000080 f0 06 0e 3e a1 6d 07 3e 29 bb b5 3d 13 79 7f 3b
       0.13869834 0.13225414 0.088735886 0.0038982078
000090 1f 5e 30 be 38 24 30 bd 35 09 40 bc 07 ea 9f bd
       -0.17223404 -0.04300329 -0.011720945 -0.07808309
0000a0 5e ec 26 be 52 8a 9b bd ca 05 10 bd 1f eb 15 bc
       -0.16301104 -0.07594742 -0.03516177 -0.0091502955
0000b0 3f b3 b6 3c 72 bf d6 3b c9 01 0a bd 1d 59 db bd
       0.022302268 0.006553584 -0.03369311 -0.107103564
0000c0 d0 61 49 be 5a 1f d6 3d 10 17 d7 3d 6a 71 36 be
       -0.19666219 0.104551986 0.10502446 -0.17816702
0000d0 7d 31 f6 bd 0a 9d 1f 3d 43 b1 bf bd f4 34 b0 3b
       -0.12021158 0.038968123 -0.09359982 0.0053774063
0000e0 70 8d b0 3c 6c 3b 97 3d ca 7d e0 bc da b7 19 bd
       0.021551818 0.07384381 -0.02740373 -0.03752885
0000f0 39 81 a5 3c eb fa 13 3e 21 8f 01 3e a2 36 da bd
       0.02020322 0.14451186 0.12652256 -0.10654952
000100 ca fb 7e 3d 58 a1 12 3e 55 19 24 bd 35 d6 b9 bc
       0.062251844 0.1431936 -0.04006322 -0.02268515
000110 f0 2d 80 3e cb 4d 6e bd 8f 86 3b bd b9 ea f5 3d
       0.25035048 -0.058179658 -0.045782622 0.120076604
000120 df ea 26 3d 26 61 0b be bd 93 eb 3d cb 27 0f 3e
       0.040751334 -0.13611278 0.11502788 0.13980024
000130 5f b4 c1 bc 8b bb 03 be 84 12 cc 3c 86 08 13 3e
       -0.023645578 -0.1286451 0.024911173 0.1435872
000140 90 e8 e2 3d 2d db 0c be 0d bf 34 3e 28 cc 13 3e
       0.11079514 -0.13755484 0.17651005 0.14433348
000150 13 78 8f 3c 81 81 be bd ac c6 d9 3b 44 11 e5 3d
       0.01751331 -0.09302045 0.006645998 0.11184934
000160 43 30 ae 3d 77 6c 06 3e a8 23 2f be bc c5 b8 bd
       0.08505299 0.13127314 -0.17103446 -0.0902209
000170 80 df 3e be 38 d4 d5 3d 58 d2 13 3d 22 7a 3a 3d
       -0.18639946 0.10440868 0.03608927 0.04552663
000180 22 3c 14 be ea a1 a6 bc 34 a0 c7 3c 5e 62 84 bd
       -0.14476064 -0.020340879 0.024368383 -0.064640746
000190 0d e1 c3 3c 90 8d ae 3d 6a 8b 85 3d 69 e2 c5 3d
       0.023911024 0.08523095 0.06520732 0.09662325
0001a0 70 52 02 3e 78 b3 0e be e0 80 05 bc b2 c9 77 3d
       0.1272676 -0.1393565 -0.008148402 0.060495086
0001b0 39 af 30 be 30 21 1b 3d fc 04 f0 bd cb 2e 2b bd
       -0.17254342 0.037873447 -0.11719701 -0.041792672
0001c0 a7 1c 5d 3d 7a 93 38 bd 73 85 57 3c 25 55 52 3e
       0.053982403 -0.04506252 0.013154375 0.20540293
0001d0 14 5c 12 ba 16 21 ec bd f6 55 30 3e 67 86 9f 3d
       -0.0005583179 -0.11529748 0.17220291 0.07789307
0001e0 48 2a ab 3c b9 5b d9 bd 11 ef 2d 3d 3e fb 17 3e
       0.020894185 -0.10613198 0.04246432 0.14841935
0001f0 70 62 9a 3d 9e 03 a3 bd 09 b3 b5 3d ab 13 53 3c
       0.07538307 -0.07959674 0.08872039 0.012883107
000200 03 9a e1 bc e3 9a 02 bd e2 cb bf bd 39 37 ce bc
       -0.027539259 -0.031885993 -0.093650594 -0.025172817
000210 8a f2 33 be 8e 8b 9f 3d 96 07 40 3e b5 24 cb bb
       -0.1757299 0.0779029 0.18752894 -0.006199444
000220 c6 2e dc bd 9f 4b 0a 3e a5 25 9e bd c2 88 7e 3d
       -0.10751109 0.1350541 -0.07722024 0.06214214
000230 62 1d bc 3d 10 6a 6f bd 28 b5 af 3d 73 99 c9 bd
       0.09185292 -0.05845076 0.08579475 -0.09843721
000240 80 d5 f9 3d bf ce a4 bd cb 9c 7b 3d be 37 fa bd
       0.12198925 -0.08047246 0.061428826 -0.12217663
000250 26 74 11 3e 16 2e b3 3d 93 d3 a1 3d 1a 59 d3 bc
       0.14204463 0.087490246 0.07901683 -0.025799323
000260 bc 16 28 3d 50 c1 2c be d1 1d 4a 3e 46 0b 02 bd
       0.041037306 -0.16870618 0.19737937 -0.031749032
000270 f6 0e 57 3d 47 e4 93 3d 35 4a 21 be 3e e3 af bc
       0.052504502 0.07221275 -0.15750964 -0.021470662
000280 eb b6 21 3d a8 0d 82 3d 10 13 63 3c 87 ab 67 bd
       0.039481085 0.06350261 0.013859525 -0.056560066
000290 ee 0d 07 3d 14 7b 88 3d 25 f0 3e 3d 69 e5 3b 3d
       0.03297227 0.066641 0.04661574 0.04587308
0002a0 e0 88 ae bd 9d 22 0b be 62 0e 42 bd 56 cb b9 bd
       -0.085222006 -0.13587423 -0.047376998 -0.090719864
0002b0 0d 41 92 3d f2 88 dd bc f1 14 4f 3c a7 19 bf bd
       0.07141314 -0.02704284 0.01263927 -0.09331065
0002c0 04 64 29 be 7e d8 09 3e 45 bd 21 3e 84 b9 f3 bb
       -0.16542059 0.13461491 0.15794857 -0.0074378867
0002d0 ca 3f 3c 3d 92 93 3b be 27 e8 0c bd c9 ca d2 3d
       0.04595927 -0.18318012 -0.034401085 0.102925844
0002e0 72 ec 8a bd b1 a3 df 3d 11 42 c0 3d e7 3e 64 3c
       -0.067833796 0.109198935 0.09387601 0.013931013
0002f0 89 67 e9 bd 99 b6 ac 3d 6c d3 d0 3d d7 a7 0a be
       -0.11396701 0.08433265 0.101965755 -0.13540588
000300 65 e9 7b 3d 21 3c fa 3d d9 f4 01 be 3a 4a f0 bd
       0.06150188 0.122185 -0.12691058 -0.117329076
000310 8f 16 b9 3d 66 1c 04 bd f2 25 17 bd 1e a8 cf bd
       0.09037506 -0.032253645 -0.03690142 -0.10139488
000320 05 e6 35 be 44 11 a5 ba 61 83 c0 bc af 09 30 be
       -0.17763527 -0.0012593647 -0.023500146 -0.17191194
000330 11 4a 8b bd 1f 83 8b bd a4 c7 0d be 9d 4f f1 3d
       -0.068012364 -0.06812119 -0.13845688 0.11782763
000340 f3 d7 14 3e 0c 51 59 3e a2 29 98 be bb fc 2b bd
       0.14535503 0.21222323 -0.29719263 -0.04198907
000350 77 26 d5 bd 46 f8 2b 3e 2a 7a 2b be 0f aa eb 3d
       -0.10407727 0.16793928 -0.1674582 0.115070455
000360 d8 95 f6 bc c6 d9 30 3d c4 9e 74 3e 8a 61 08 be
       -0.030100748 0.043176435 0.2388869 -0.13318458
000370 50 66 9e 3d 6f a1 e7 3d c1 c6 26 3d 1f d4 b0 bc
       0.07734358 0.11310088 0.04071689 -0.021585522
000380 97 06 f7 bd ed 7f 40 bc 5d d8 5d be 6e 5c 47 bd
       -0.12061804 -0.01174925 -0.21664567 -0.048672132
000390 83 58 cb 3c d1 34 dd 3d 39 f0 be 3d 51 e7 ee bd
       0.02482248 0.108010896 0.093231626 -0.11665214
0003a0 9f 36 86 bd 39 db 4c bd 32 48 9f bd 70 18 15 3c
       -0.06553387 -0.050013755 -0.07777442 0.009100065
0003b0 48 79 fb bb f1 8f 21 3c ac da 8d bd 53 5d 5f be
       -0.00767437 0.009860978 -0.06926474 -0.21812944
0003c0 13 a9 f8 3c 75 15 aa bd 25 6d dd bd ec 72 27 bd
       0.030354058 -0.08304874 -0.10811833 -0.040881082
0003d0 e8 53 22 be 96 3e fd 3d b3 86 c4 bd 9a c9 02 be
       -0.1585232 0.12365453 -0.09596004 -0.12772217
0003e0 f5 2a 77 3e dc c7 85 3d 98 72 23 3e a1 f5 1f 3e
       0.2413748 0.06532261 0.15961683 0.15621044
0003f0 cd 22 9e 3d 6c 4f 45 3e 3f 4a fc 3d 06 41 a1 bd
       0.077214815 0.19268578 0.12318849 -0.0787373

bias f4 [6]
000000 79 d2 07 3e fe 3c 15 bc cc a4 59 3d a6 e8 86 bc
       0.13263883 -0.00910878 0.05313568 -0.016468357
000010 05 d9 b6 3d d1 6c 8e 3d
       0.08928112 0.06954349

weight f4 [64, 17]
000000 31 9b 38 3f 60 e7 31 bf fe ab 1e 40 99 7b b1 bf
       0.72111803 -0.69493675 2.4792476 -1.3865844
000010 58 80 d6 3b f6 e2 58 3f 9a 0f ca bf f1 f2 03 3f
       0.0065460615 0.84721315 -1.5786011 0.51542574
000020 87 30 22 c0 57 00 dc bd 17 3a 5c bf 78 f5 be bf
       -2.5342119 -0.10742252 -0.8602614 -1.4918661
000030 f2 7f 86 3e dd 95 52 bf 50 e8 a6 3e b0 90 3a bf
       0.2626949 -0.82259923 0.32599115 -0.72877026
000040 35 6c 10 be 64 a0 c8 be b2 34 27 c0 20 6b e0 3e
       -0.14103778 -0.39184868 -2.6125913 0.4383173
000050 72 61 ab bf 56 94 3d 3f 68 6f d8 3f bf f2 0d bf
       -1.3389113 0.7405447 1.6908998 -0.55448526
000060 08 05 99 bf b0 28 60 bf a0 3b c0 bf c6 66 9c 3d
       -1.195466 -0.87562084 -1.5018196 0.0763679
000070 a5 1a eb 3e ec 6b 97 3f 9d 2c f8 be fd 4b 11 be
       0.45918766 1.182981 -0.48471537 -0.14189143
000080 a3 cb ef 3f a7 1a 58 3f 30 2e 85 c0 88 e2 17 40
       1.873402 0.8441567 -4.161888 2.3732014
000090 d8 81 b1 bd 18 17 9e 3e e4 fd 12 3e bc 72 2a bf
       -0.08667344 0.30876994 0.14354664 -0.6658132
0000a0 a1 8e 2b bd d6 44 41 bd 26 81 25 3f 33 30 b9 be
       -0.04188407 -0.047184788 0.6465019 -0.36169586
0000b0 07 91 14 3f a3 9d 3c 3d a4 26 6d 3d 7e a5 f5 bb
       0.58033794 0.04604877 0.05789818 -0.007496535
0000c0 96 8b 28 bc d1 9e 43 3d 88 21 89 3c 8e 5f ae bf
       -0.010287186 0.04775888 0.016739622 -1.3622911
0000d0 9f 8b 3a 40 72 91 36 bf df 55 aa bf 67 43 64 3f
       2.9147718 -0.7131568 -1.3307456 0.8916535
0000e0 60 d8 07 40 3e 27 85 3f 97 4c 9d 3e 4b e0 22 40
       2.1225815 1.0402601 0.30722496 2.5449398
0000f0 f1 69 9c bf e7 02 72 bf 3c 99 1e bf 03 c1 8f 3e
       -1.2219831 -0.9453568 -0.6195257 0.28076944
000100 90 d2 03 3f a8 b1 e3 3e 7c cd ac 3f 57 4d f0 bd
       0.5149317 0.44471478 1.3500209 -0.117335014
000110 e8 db 0d 40 67 99 08 be e1 3a dc 3c 6b 9f f9 be
       2.216547 -0.13339768 0.026883544 -0.4875444
000120 14 44 6a bf 41 0a eb be 1c a7 c8 3f a1 eb a4 3f
       -0.9151013 -0.4590626 1.5675998 1.2884408
000130 c5 64 e9 3f 51 f6 06 be 2d d2 88 be 00 bf b2 3e
       1.8233877 -0.131799 -0.2672285 0.34911346
000140 c3 a6 bf 3e 70 1a 80 bf fa e8 8c bf 80 79 8c 3f
       0.37431917 -1.0008068 -1.1008599 1.0974579
000150 58 37 20 bf fa 55 b6 3f 38 ec ce bf ea 62 04 3f
       -0.6258445 1.4244988 -1.6165838 0.5171343
000160 d3 06 33 be a1 20 ef 3e e2 a1 ce 3e ea db c4 3e
       -0.17483072 0.4670458 0.40357882 0.3844903
000170 f7 5b 8b be eb 9f 7f bf 61 74 87 3f bd 3c 31 3f
       -0.272186 -0.9985339 1.0582391 0.69233304
000180 1b c7 1a c0 7d d0 77 3f ae eb 81 bd 1b 6e 28 bf
       -2.4184024 0.968025 -0.063437805 -0.6579301
000190 37 16 42 3d 2c ac 88 3d ed f8 0e 41 0a 72 28 be
       0.047384467 0.06673464 8.935773 -0.16449752
0001a0 29 dc 1d 3f 88 85 89 bf 45 51 82 be 57 f8 9c 3f
       0.6166406 -1.0743876 -0.2545263 1.2263287
0001b0 15 d1 e6 3e 02 67 06 be 8c b8 1f 3e ed 33 f0 3f
       0.45081392 -0.13125232 0.15597743 1.8765846
0001c0 ab b3 3e 3f ff 4a 75 3e 62 83 5d 3e 10 51 0f bd
       0.744929 0.2395439 0.2163215 -0.034989417
0001d0 0f 10 0b 3e cc 56 68 3d 27 40 87 bc 42 01 80 3f
       0.13580345 0.0567234 -0.016510082 1.0000384
0001e0 2e ac 1a c0 ea 93 5e 3d 28 07 90 be ad 28 43 be
       -2.416759 0.05434028 -0.2813046 -0.19058485
0001f0 ef 44 c2 bc 0c 5f 96 bd 3a 57 65 bd 4f 8f 1c bf
       -0.02371451 -0.073423475 -0.05599139 -0.6115617
000200 64 17 00 3f 2d 96 2d be 48 0b 37 3c 84 9e c7 3a
       0.5003569 -0.16951819 0.011172123 0.0015229736
000210 b9 f9 ef 3b a7 70 a3 3c 8a ca b9 bc a5 29 85 bc
       0.0073234704 0.019951178 -0.022679586 -0.01625521
000220 27 45 19 40 37 c0 05 3f c0 fb 95 3f 6c 9c b9 bf
       2.3948457 0.5224642 1.1717453 -1.4500861
000230 8d 7f cf 3f 7f 66 57 3f 44 d0 1e 40 84 40 0c be
       1.62108 0.8414077 2.4814615 -0.13696486
000240 b3 9d 05 40 c9 85 87 3e 5c fa 89 3f c7 ed b0 bf
       2.0877502 0.26469257 1.0779529 -1.3822564
000250 9c 65 f6 bd 34 cd 08 3f 4d 4e 8f bd 6e 7e 13 3f
       -0.12031099 0.53438115 -0.069973566 0.5761479
000260 98 e0 8c 3f 4f 3d ed bf 56 7c 72 3f eb 35 9a bf
       1.100604 -1.8534335 0.9472097 -1.2047704
000270 ea e1 56 3e 58 72 1a bf 9d 6c b7 bf fb f1 1a c0
       0.20984617 -0.60330725 -1.4330021 -2.4210193
000280 a0 84 b0 3e 8d af b4 3f 36 18 0e c0 86 f9 af bf
       0.34476185 1.4116074 -2.2202277 -1.3748024
000290 a6 a5 bc 3e b3 69 29 be 29 11 10 3e 7a 1a 83 3e
       0.3684513 -0.16544227 0.14069046 0.25606138
0002a0 be 90 e3 bf 05 cd c3 bf 06 3e 01 3e ea 75 42 be
       -1.7778547 -1.5296942 0.12621316 -0.18990293
0002b0 64 c9 b7 3f 13 ac 97 bf d1 bb f2 3f b1 83 31 40
       1.4358335 -1.1849388 1.8963567 2.7736628
0002c0 3b d5 83 3f 69 06 7f bf 6b 0b 54 be 8e 4a 19 c0
       1.0299448 -0.99619156 -0.2070748 -2.3951755
0002d0 de 9c 1f be 27 5f c4 be e4 d0 14 40 76 9c 8f be
       -0.15587184 -0.38353845 2.3252497 -0.28049058
0002e0 95 36 cd 3e 1d 28 fa 3d 8a ac 5a bf c5 54 82 3f
       0.40080705 0.12214682 -0.85419524 1.018212
0002f0 8c f6 c0 bf 42 60 aa 3e d8 c6 5a 3f ba d3 6b bf
       -1.507524 0.33276564 0.8545966 -0.92119944
000300 43 f7 a6 be 99 62 ac bf f2 ab 95 3e 52 92 80 be
       -0.3261052 -1.346759 0.29232746 -0.25111634
000310 f2 ac f7 3f f4 fa 4a c0 22 f0 cd be 33 80 12 3e
       1.9349654 -3.171567 -0.4022227 0.14306717
000320 19 cd 78 3e c2 81 7c 3f 87 57 0e bf cb 45 2f bf
       0.24296989 0.98635495 -0.55602306 -0.6846587
000330 f9 81 68 c0 77 02 88 bf 98 22 80 bf 9a 2d f1 3e
       -3.632933 -1.0625752 -1.0010557 0.47105104
000340 d9 8a f3 3d 49 ca 2d bf 26 13 bb bd d8 1d 0e ba
       0.118917175 -0.6788679 -0.09134512 -0.0005421317
000350 44 28 c3 be d6 ab 70 be 46 14 ba 3d 1a ce c2 3d
       -0.38116658 -0.2350305 0.09085898 0.09511967
000360 2d 97 5b bb 53 40 05 3c 60 6f c3 3b c6 ff 2a 3c
       -0.0033506856 0.008133012 0.0059642047 0.010436958
000370 e0 fb cc 3b e1 48 3c c0 cd 0d 82 3f 08 96 39 40
       0.006255612 -2.9419482 1.0160462 2.8997822
000380 fd 79 dd bf ee 0d dc 3f a1 ff dc 3f 7c 60 bb 3e
       -1.7302853 1.7191751 1.7265512 0.3659705
000390 cb 44 2f 3f 7a af d1 3f f0 7d 97 bf 36 b3 c0 bd
       0.68464345 1.6381676 -1.1835308 -0.09409182
0003a0 af 72 6f 3f 29 a4 be 3e 1a eb 31 bf 13 0e be 3f
       0.9353437 0.3723462 -0.6949936 1.4848045
0003b0 e3 bc d0 bd 9e da 54 be 84 3f 61 bf f2 ab 2f 40
       -0.10192277 -0.20786521 -0.8798754 2.7448697
0003c0 15 a0 af 3f 07 3b d3 bf 57 0c 1d be f0 e7 2d 40
       1.3720728 -1.6502389 -0.15336739 2.7172813
0003d0 94 fd f7 3e 3f f2 5f bf b4 07 52 bf 06 91 b8 3d
       0.48435652 -0.87479013 -0.82043004 0.09012036
0003e0 b9 78 b5 bf 7b f6 cb 3f 5c 73 58 3f ad a4 10 be
       -1.4177467 1.5934595 0.84551024 -0.14125319
0003f0 a8 8c 81 be be 77 2e bf 2a 85 94 be 32 66 1f 40
       -0.25302625 -0.6815146 -0.29007846 2.4906125

bias f4 [64]
000000 2e 36 a8 bf 50 54 3b bf dd 37 0b c0 c0 49 9c be
       -1.3141534 -0.73175526 -2.1752846 -0.30525017
000010 fe e5 b9 be f8 d2 11 c0 ad c3 6b be 39 f9 51 3e
       -0.36308283 -2.2785015 -0.23023863 0.20505227
000020 fe 52 d9 3f 24 e5 33 3f 55 fb 53 bf 0b b1 f9 bf
       1.6978452 0.70271516 -0.8280538 -1.9507154
000030 34 7d de 3f fc 48 3c 40 7a 56 06 3f 3f 8a 42 3f
       1.7381959 2.9419546 0.524757 0.75992197
000040 5c df c0 be dc 02 1f c0 14 33 e9 3f 49 e2 ef 3f
       -0.3767041 -2.4845495 1.8218713 1.8740932
000050 5f 54 7c 3d 67 01 0a 3f da b7 7a be 5e 85 2a 40
       0.0616039 0.5390839 -0.24484196 2.66439
000060 eb 08 d1 bf 7c 8a bf 3e 76 a3 18 40 39 a4 f5 bf
       -1.6330847 0.37410343 2.3849769 -1.9190742
000070 5b d3 bd 3f 55 9f d6 3f d0 2b 9c bf 2c 70 e8 bf
       1.4830126 1.6767374 -1.220087 -1.8159232
000080 c2 4e e9 3e 50 e0 fd be ee a8 a5 3f 10 4b 81 bf
       0.455679 -0.495852 1.2942178 -1.0101032
000090 8b 04 bf bf fb c1 88 bf 76 9c 18 c0 1f 9d 29 40
       -1.4923261 -1.0684198 -2.3845496 2.650215
0000a0 d3 8e d4 3e c1 e7 57 bf 7b 62 93 3f 7d ec c1 3d
       0.41515216 -0.84338003 1.1514429 0.09468935
0000b0 d3 57 cd bf 69 3f f6 bd 82 df 2d be b3 7f ab 3e
       -1.6042427 -0.12023813 -0.16979793 0.33495864
0000c0 12 02 a9 bf ec 1f 3a bf 21 f2 a1 be ba 71 c1 3e
       -1.3203757 -0.7270496 -0.31630042 0.3778208
0000d0 8c 16 ab be 3e 76 fe bf 84 bf b6 3f 73 ba 9f 3f
       -0.3341564 -1.9879835 1.4277196 1.2478775
0000e0 58 1b 71 3e fd c5 64 c0 39 d5 14 40 7f 35 24 40
       0.23545587 -3.5745842 2.325514 2.5657651
0000f0 13 a7 74 bf c3 c9 62 3f 58 66 20 c0 aa 61 ff 3f
       -0.95567435 0.88589114 -2.5062466 1.995168

weight f4 [64, 64]
000000 43 b0 0f bd c6 e3 f5 3e ca 09 37 3f a9 75 d3 3e
       -0.035080206 0.4802534 0.7149931 0.41300705
000010 11 1e 1b 3f 61 d4 9c bd 71 5a ee be d4 c9 5a 3f
       0.6059275 -0.076576956 -0.46553376 0.85464215
000020 0a 61 7f 3e 09 a8 fc bd c1 98 86 be 90 85 82 be
       0.24939361 -0.12336738 -0.26288417 -0.25492525
000030 72 bf 2b c0 51 2e 31 3f ee d0 8e be 68 2f a8 bc
       -2.68356 0.692113 -0.27893776 -0.020530418
000040 1c 18 69 bc d2 eb 02 3d 17 95 41 c0 ad ae aa c0
       -0.0142269395 0.031963177 -3.0247247 -5.3338227
000050 49 0e 01 be 1e 32 87 3f e7 05 86 3e d3 58 36 bf
       -0.12603106 1.056217 0.26176378 -0.71229285
000060 62 4b a5 3e 23 43 ad 3e 80 86 83 3e c7 43 82 be
       0.32284075 0.33840284 0.25688553 -0.25442335
000070 26 f1 9f 3c d4 e9 cf bd 52 a2 af 3e 74 1e 0e 3d
       0.019524168 -0.10152021 0.34303528 0.03469701
000080 52 e0 9a 3e 71 a7 a0 3e ab 80 b0 be 22 ed 75 3f
       0.30249268 0.31377748 -0.34473166 0.9606496
000090 eb 92 c0 3e b9 59 c8 3e c4 b6 40 3e 78 12 59 3e
       0.3761209 0.39130953 0.1881972 0.21198452
0000a0 44 e8 9b 3d a8 7f 73 bd 30 75 b5 3e d3 10 df 3d
       0.076126605 -0.059447914 0.3544097 0.10891881
0000b0 ed 87 bf 3d 0e 8a 08 bf 5a 3e 79 be b4 eb f0 bd
       0.09352098 -0.53335655 -0.24340191 -0.11763707
0000c0 16 b4 2d 3e 4a e7 db 3f f5 71 cb bc 6e 3c 2c bf
       0.16963229 1.7179959 -0.024834612 -0.6727971
0000d0 f7 c7 11 bf 7f 31 19 3e 61 ef 7a bf 3f a5 da 3d
       -0.5694575 0.14960288 -0.98021513 0.106760494
0000e0 0d b4 85 be fb c6 b2 3e ac 93 1e be 24 4f 31 3e
       -0.2611393 0.34917435 -0.1548602 0.17315346
0000f0 03 d4 4f be 3f 4e e0 bd 9b ff a6 3f 8a 3b 17 3e
       -0.2029572 -0.10952424 1.3046755 0.14768806
000100 f6 16 26 3f ea b6 a3 3f e8 e1 76 3e 1f e1 30 3f
       0.64878786 1.2790196 0.24109614 0.6909351
000110 34 7a 09 3f 11 5a d7 be d4 b5 2f bf e2 b2 78 bf
       0.5370209 -0.42060903 -0.6863682 -0.97147954
000120 96 3c 94 bd 71 1e d0 bd f5 c6 7d 3f 2e d2 ce 3e
       -0.07238118 -0.10162056 0.9913171 0.4039473
000130 8a 0d 31 40 03 bb 66 be a7 ee 0c 3f 2c c4 47 be
       2.7664514 -0.22532277 0.55051655 -0.19508427
000140 c6 6c 99 be 9b e1 31 bf 02 c1 12 40 7f 9f 6c 40
       -0.299658 -0.6948487 2.2930303 3.6972349
000150 f5 c6 0c bf 69 a9 c7 3d b1 3c 1f bc af f9 99 3c
       -0.54991084 0.09749109 -0.00971906 0.018795816
000160 02 a9 b0 3e a3 63 7f be 10 39 3f 3e 13 c0 c4 3e
       0.34503943 -0.24940352 0.18674111 0.3842779
000170 7f db 65 bf b8 ed a0 3d e2 96 3c 3e 7b 2d 85 be
       -0.8978805 0.07857841 0.18416932 -0.2601126
000180 d2 88 bf be ec 86 be be 54 60 87 3f 5a 43 c6 be
       -0.37409073 -0.37212312 1.0576272 -0.3872326
000190 a6 1d 08 3e 76 34 a6 3d 3f bb d8 be dd ba b3 be
       0.1329256 0.08115475 -0.42330357 -0.35103503
0001a0 fb 0a 57 bf 79 a8 0f bf 0b 42 db 3f 5e 03 54 be
       -0.8400113 -0.56116444 1.712953 -0.2070441
0001b0 01 c5 0a bf 5e 21 88 be fe a4 b3 3e 3f f3 e8 bd
       -0.54206854 -0.26587957 0.35086817 -0.113745205
0001c0 b2 46 4c 3e 71 bc 21 c0 3c d3 8a 3e 24 46 14 bd
       0.19948843 -2.5271266 0.27114284 -0.036199704
0001d0 eb b4 72 bf c6 37 0c bf 68 2c b4 3f 8e ea e3 be
       -0.9480731 -0.54772604 1.4076052 -0.4451489
0001e0 a7 a9 ce 3d 78 80 99 3e a9 0b 57 bf 82 6b 8d 3e
       0.10090952 0.29980826 -0.84002167 0.27621084
0001f0 9a 6d c8 3e 48 21 a5 bf c2 0a 58 be 89 9e cc be
       0.3914612 -1.2900782 -0.21097854 -0.39964703
000200 e7 80 d7 3e 3c 50 88 be d1 f5 10 40 95 98 56 3e
       0.42090532 -0.26623714 2.2650034 0.20956643
000210 bd c5 92 bf 80 32 3f be 0e 54 77 bf 74 f0 0e c0
       -1.1466595 -0.18671608 -0.9661263 -2.233426
000220 90 30 c9 be 3f 04 a5 3e 6b de af 3f 6c 64 f1 3e
       -0.39294863 0.32229802 1.3739752 0.47146928
000230 73 58 5b bf 19 fb 64 bd 7b 6a 24 bd 06 64 5b bf
       -0.8568184 -0.055903528 -0.04014061 -0.856995
000240 f1 0c e0 be f9 b5 b0 3f af fc 87 3f f7 16 bf 3f
       -0.43759874 1.3805534 1.0623988 1.4928883
000250 1a d9 a0 bf e9 7d 67 bf 31 6a f5 be 7a 3c 64 3f
       -1.2566254 -0.904265 -0.4793258 0.8915478
000260 4b 67 fc be f7 06 1d 3f e4 b0 63 bc 82 be 22 bf
       -0.49297556 0.6133875 -0.0138971545 -0.6357194
000270 b8 04 86 be 1e 02 24 3e a0 a3 0b bf 90 d7 4c 3e
       -0.26175475 0.16016433 -0.54546547 0.20004106
000280 b3 fc ac bf 3c c0 ba 3d 00 6c 95 3e 0d 4f d6 3f
       -1.3514618 0.09118697 0.2918396 1.6742874
000290 95 9e 4d 3d 47 a0 ad be e4 be 8f 3e 74 6e b7 bd
       0.050200064 -0.33911344 0.28075325 -0.08956614
0002a0 26 b3 df 3e 1b 97 93 3f 11 0b f3 3e 6a 45 a0 3f
       0.43691367 1.1530489 0.4746938 1.2521183
0002b0 94 31 6f be a5 83 ad be b9 24 a9 3f e8 e8 48 3f
       -0.23358756 -0.338895 1.3214332 0.78480387
0002c0 ac 98 07 3f ee ab aa bf 47 49 4e bc 9f 0d 86 bf
       0.52967334 -1.3333719 -0.012590713 -1.0472907
0002d0 0a 94 ee be be 71 7e be 29 fd 83 3f 94 7a 20 be
       -0.4659732 -0.24848077 1.0311633 -0.1567176
0002e0 3b d3 01 be 95 d8 84 be e3 b4 63 3f 3a fd 49 3f
       -0.12678234 -0.2594649 0.88947886 0.7890202
0002f0 d4 c0 1d bf c4 23 f4 3e 68 f6 68 3f ac 6d 8a 3c
       -0.6162236 0.47683537 0.91000986 0.016897999
000300 1d 27 65 bf 95 d2 31 3f 7e c5 18 3f 34 f6 46 bf
       -0.8951281 0.6946195 0.5967635 -0.77719426
000310 38 7f 69 3f 83 1c 87 3e 78 d5 50 bf e2 fe 2b 40
       0.91209745 0.2638894 -0.8157573 2.6874318
000320 47 59 ae bf fd a4 8d bd 25 e7 8f 3e d2 e5 1a bf
       -1.3620995 -0.06916235 0.28106037 -0.6050693
000330 86 ea 20 bf fe 1e 2d bf 22 17 53 bf 35 25 85 3f
       -0.62857854 -0.67625415 -0.8245717 1.040198
000340 19 03 1e bd db 37 79 3e c2 c4 03 c0 34 df ce bf
       -0.038577173 0.24337713 -2.0588841 -1.6161866
000350 00 fc 32 bf 9c be 0c 40 c2 37 97 be 16 4e 8e 3f
       -0.6991577 2.1991339 -0.29534727 1.111758
000360 21 42 71 3d 33 5e 09 bf 96 50 99 3e a4 9c 11 bf
       0.058900956 -0.5365936 0.29944295 -0.5687964
000370 3d ef f8 3e 90 96 e5 3e 10 54 8f 3e 7b b4 65 3e
       0.48620024 0.44841433 0.27993822 0.22432129
000380 b0 78 4e 3f 22 2f 9a bf e9 65 10 3f 2c 77 13 bf
       0.80652905 -1.2045634 0.564055 -0.57603717
000390 40 00 1d bf 75 a8 87 be c9 93 56 3f 2d a9 aa bf
       -0.61328506 -0.2649571 0.8381925 -1.3332878
0003a0 af 4a 6e be c9 40 69 bd 60 86 8c 3c fe 7e 82 3f
       -0.23270677 -0.05694655 0.017153919 1.0195005
0003b0 90 07 b1 be e9 06 9f be 80 3d 46 bf ba 12 d7 3e
       -0.34576082 -0.3105996 -0.7743759 0.42006475
0003c0 9c e3 ab 3f 4e 45 ed 3e 51 d2 42 bf 10 c9 9d be
       1.3428836 0.46341938 -0.7610217 -0.3081746
0003d0 29 fb 0e be a3 c7 d7 3d 35 dd bc bf be ab 0d bf
       -0.13962997 0.105361246 -1.4755007 -0.5534018
0003e0 f3 e0 bc 3f a5 e7 3b bf 76 97 1e bf 30 7d f5 be
       1.4756149 -0.73400337 -0.6194986 -0.47947073
0003f0 e0 93 e2 3f 06 e1 1f bf e5 9c 72 3e 6f 01 be be
       1.7701378 -0.62452734 0.23692663 -0.3711047

bias f4 [64]
000000 42 f3 8b bf f3 0d 7f 3f 28 28 fe 3f f6 fc 18 c0
       -1.0933611 0.9963066 1.9856005 -2.3904395
000010 c9 94 5e bf d6 ef d0 bf 21 5d 8f 3f 24 de 11 c0
       -0.8694578 -1.6323192 1.1200296 -2.2791834
000020 7b ef c3 3f c7 26 e4 3f cb c6 0e 40 63 f7 48 3f
       1.5307459 1.7824334 2.2308834 0.7850248
000030 71 cf eb bf c2 25 05 40 60 e6 67 3f 0b 3a 97 bf
       -1.8422681 2.0804296 0.905859 -1.1814588
000040 6e 68 11 40 29 b0 10 40 21 31 87 bf f7 5f 89 3f
       2.271999 2.260752 -1.0561868 1.0732411
000050 17 68 8e 3f 83 b9 c5 3f 6e 4b 88 3f 91 f3 79 bf
       1.1125516 1.5447239 1.0648019 -0.9763728
000060 16 c5 8e bf da 72 10 c0 28 be 7c bf ae 8e d4 3f
       -1.1153896 -2.25701 -0.98727655 1.6606042
000070 bc e6 24 3f a3 c2 0b 40 64 ad 1f c0 23 54 78 3f
       0.6441457 2.1837547 -2.494958 0.9700338
000080 00 c6 18 40 ab f0 52 3f a0 4d 99 bf 98 7d b3 3f
       2.387085 0.8239848 -1.1976814 1.4022703
000090 86 49 9a 3f 71 fb 01 c0 11 d9 b0 bf c9 36 ab bf
       1.2053688 -2.0309718 -1.3816243 -1.3376094
0000a0 f7 6c b3 bf 16 ac 62 bf 8b f6 8c bf ef 70 67 bf
       -1.4017628 -0.8854383 -1.1012739 -0.904067
0000b0 0f ec 3f be 38 6e 0f 40 42 19 d3 bf 2c 6b 8c 3f
       -0.18742393 2.2411022 -1.6492083 1.0970206
0000c0 01 d8 96 3f ce 50 2d bf 5a cc 0f 3f 30 06 70 bf
       1.1784669 -0.67701423 0.5617119 -0.9375944
0000d0 eb eb 5e bf ae 41 7f bf e7 a1 0b 40 9a f5 98 bf
       -0.8707873 -0.99709594 2.1817567 -1.1949952
0000e0 48 c6 82 3f b3 17 0e 40 54 df 94 3f 3e d3 b6 bf
       1.0216761 2.2201965 1.1630654 -1.4283216
0000f0 0f 7f ea bf 96 1a 1b c0 4b 07 2d c0 b5 ca 09 3f
       -1.8320025 -2.4234977 -2.7035701 0.5382493

weight f4 [1, 64]
000000 19 d5 60 c0 34 f8 53 40 1b e6 58 40 da 29 53 c0
       -3.5130064 3.312024 3.3890445 -3.2994294
000010 f2 a4 67 c0 0a e6 3a c0 01 69 65 40 0a de 49 c0
       -3.6194425 -2.9202905 3.584534 -3.1541772
000020 a3 39 4c 40 41 9b 30 40 10 1a 53 40 9f 5c 63 40
       3.1910179 2.759476 3.2984657 3.5525281
000030 ca d4 42 c0 cb 48 51 40 eb 4c 68 40 5b 1f 53 c0
       -3.0442376 3.270068 3.6296947 -3.2987888
000040 ab 95 4d 40 a8 ce 45 40 99 12 23 c0 ac 5b 52 40
       3.21226 3.0907383 -2.54801 3.2868452
000050 b1 79 52 40 5c 3e 23 40 8e 5b 37 40 24 cd 63 c0
       3.2886775 2.550681 2.864963 -3.5593958
000060 9a 4a 55 c0 06 0e 51 c0 68 ef 66 c0 3d 51 34 40
       -3.3326783 -3.266481 -3.6083622 2.8174584
000070 fb a8 32 40 f2 41 55 40 71 75 3c c0 50 84 45 40
       2.7915637 3.33215 -2.944668 3.0862007
000080 ad 90 5a 40 68 35 63 40 99 25 6d c0 6a d7 45 40
       3.4150803 3.5501347 -3.7054198 3.0912728
000090 84 1e 4e 40 76 8c 39 c0 a2 05 2a c0 d6 e7 54 c0
       3.2206125 -2.899198 -2.6565938 -3.3266501
0000a0 67 e4 55 c0 82 a1 51 c0 cc 55 4d c0 0e ac 4e c0
       -3.3420656 -3.2754827 -3.2083616 -3.2292514
0000b0 e4 fa 4a 40 ba 68 59 40 4f 6d 55 c0 54 f9 63 40
       3.1715631 3.397017 -3.3347967 3.5620928
0000c0 98 09 25 40 bd 1d 46 c0 97 56 43 40 5b 85 68 c0
       2.5787106 -3.095565 3.05216 -3.6331394
0000d0 a0 9d 63 c0 89 1e 3e c0 f1 71 4a 40 75 df 61 c0
       -3.5564957 -2.9706137 3.1632044 -3.5292637
0000e0 78 33 69 40 91 50 4a 40 b2 ac 59 40 48 89 40 c0
       3.6437664 3.1611674 3.4011655 -3.008379
0000f0 18 ce 56 c0 0f 77 67 c0 72 04 56 c0 47 70 5a 40
       -3.356329 -3.6166418 -3.3440213 3.4131029
