log/mujoco_ppo_walker2d_v2_0/mujoco_ppo_walker2d_v2_0_s0/pyt_save/model.pt (torch_old, 48781 bytes, 12 tensors)

log_std f4 [6]
-1.3730781 -1.2711487 -1.521085 -1.4405781 -1.357316 -1.5781072
00000000: 06c1 afbf 00b5 a2bf eab2 c2bf dd64 b8bf
00000010: 88bc adbf 6bff c9bf

weight f4 [64, 17]
0.025355158 0.21482982 -0.54828775 -0.32727322 -0.22046915 0.30258608 -0.10128285 0.02142461
0.064328164 0.19896515 0.048808012 0.027685514 -0.18108417 -0.32194123 -0.073811874 -0.010913624
0.017912006 0.32800674 -0.5211416 -0.23231365 0.06726239 0.2786851 0.090429015 0.11398346
0.086147055 -0.110837124 0.4129875 -0.27887255 -0.09087855 -0.097804904 -0.02541299 0.25022337
-0.108151875 -0.03842975 -0.07798176 -0.23653258 -0.26586282 0.27083775 0.17920001 -0.007253491
-0.050116703 0.09363711 0.20185888 -0.53049433 -0.050283704 0.030290993 0.15622988 0.22250682
0.07113853 0.107340075 0.043575317 0.25763866 0.2713185 -0.0045813713 0.22269705 -0.21929832
-0.035292163 -0.12562726 -0.2909842 -0.030623684 0.11626671 0.05919016 -0.13585328 0.059411503
0.07553608 -0.029634755 0.14153658 0.013604591 0.34224012 0.23093352 -0.18828286 -0.117963456
0.30530274 0.40662226 -0.095494546 0.29603523 0.0988964 -0.29514802 -0.011156253 -0.17824036
-0.13609721 0.14929704 0.17540891 -0.30534878 0.057179753 0.07421368 -0.3306754 0.055604737
0.046616863 -0.21229403 -0.1818382 0.009191125 0.059578903 0.026200399 -0.19107021 -0.37667623
0.0488729 -0.008550664 -0.13342312 -0.17923617 0.18986334 0.15071379 -0.26340508 -0.36450738
-0.4229003 -0.046198253 -0.1931708 -0.16511288 -0.009169001 0.123015136 -0.32909456 -0.09492215
-0.13153015 0.19439434 0.22159351 -0.15033732 0.0498515 0.081890814 0.020699201 0.1820064
-0.40462947 0.21760535 -0.14838421 0.023595404 -0.30795252 -0.18785219 0.035407927 -0.33486983
-0.045016278 -0.18514787 0.036444243 -0.048089154 -0.21124513 0.122992985 0.24073273 0.08971191
-0.021857344 -0.14578056 0.081784576 0.08048013 0.3333617 0.087214455 0.26036492 0.023568312
-0.35944375 -0.09405972 0.19657771 0.056569878 -0.1362436 -0.2450816 -0.2655071 -0.08096003
-0.12071684 0.18994956 0.1440955 -0.39302206 0.11120974 -0.19548047 0.052364923 0.026476864
-0.13153556 -0.15370949 -0.069157206 -0.20452598 0.026344057 0.12528475 -0.20664455 0.1891271
-0.18447097 -0.019480487 0.35928398 -0.085633695 0.07425687 0.09424917 -0.13429451 0.034580596
0.07364473 -0.2129168 0.3054511 -0.031215614 -0.027056439 0.010871095 0.15350261 0.11530815
0.15170956 0.122716084 -0.024008797 -0.16644593 -0.5988884 0.31411684 0.44110358 0.16024409
-0.3011166 -0.041642968 -0.26918378 -0.2898826 -0.1363983 0.0765281 -0.09127192 -0.11423536
0.002271725 0.20939173 -0.21998695 -0.08528854 0.008563739 0.08027185 -0.47773096 0.2457346
0.10757346 -0.072808 -0.24746713 -0.10903559 0.08458772 -0.09576721 0.027052697 -0.026081895
-0.27491358 -0.18393546 0.30906478 -0.42933902 0.02136218 0.44412652 0.3336373 0.019390022
-0.19802593 0.2587093 0.048493378 0.069886886 -0.1126395 0.101709805 0.10752013 0.2249452
-0.04688702 0.41052264 0.19464755 -0.12066455 0.10053473 -0.01577059 -0.11836279 0.18643099
0.05297637 0.20360789 -0.12144258 -0.19109134 0.1107826 -0.5626355 0.1648904 -0.07473206
-0.139622 -0.12953551 -0.20096916 0.072744444 0.09309071 -0.117994 -0.12136028 0.028471017
00000000: 9fb5 cf3c 59fc 5b3e 965c 0cbf 5b90 a7be
00000010: aac2 61be 90ec 9a3e 626d cfbd aa82 af3c
00000020: 7cbe 833d 85bd 4b3e e9ea 473d bbcc e23c
00000030: 216e 39be 7bd5 a4be ae2a 97bd 0fcf 32bc
00000040: 33bc 923c 80f0 a73e 8969 05bf a1e3 6dbe
00000050: ddc0 893d d0af 8e3e d932 b93d 2970 e93d
00000060: de6d b03d 93fe e2bd 1973 d33e 62c8 8ebe
00000070: 891e babd f04d c8bd e72e d0bc 471d 803e
00000080: bb7e ddbd 8368 1dbd e7b4 9fbd 9935 72be
00000090: 2c1f 88be 3fab 8a3e 3580 373e b1ae edbb
000000a0: 2c47 4dbd d0c4 bf3d 18b4 4e3e 7ace 07bf
000000b0: 49f6 4dbd d124 f83c bafa 1f3e d4d8 633e
000000c0: 14b1 913d 1dd5 db3d 087c 323d 37e9 833e
000000d0: 42ea 8a3e 541f 96bb b20a 643e bd8f 60be
000000e0: 848e 10bd 6fa4 00be e2fb 94be 85de fabc
000000f0: 3e1d ee3d 6271 723d 1f1d 0bbe 7a59 733d
00000100: a9b2 9a3d 96c4 f2bc f7ee 103e cae5 5e3c
00000110: 193a af3e d679 6c3e 39cd 40be d396 f1bd
00000120: a450 9c3e cb30 d03e a592 c3bd ee91 973e
00000130: 328a ca3d a41d 97be b7c8 36bc a484 36be
00000140: 115d 0bbe 53e1 183e 659e 333e ad56 9cbe
00000150: 5135 6a3d 58fd 973d 494e a9be cbc1 633d
00000160: 53f1 3e3d 9b63 59be cb33 3abe 5f96 163c
00000170: 0209 743d 38a2 d63c e9a7 43be b5db c0be
00000180: f32e 483d 1618 0cbc 12a0 08be b089 37be
00000190: 896b 423e b754 1a3e 08dd 86be b6a0 babe
000001a0: 6386 d8be 613a 3dbd 91ce 45be 5a13 29be
000001b0: 9439 16bc 5cef fb3d 157f a8be 8b66 c2bd
000001c0: d7af 06be 4f0f 473e 69e9 623e 07f2 19be
000001d0: 1631 4c3d 5fb6 a73d 5f91 a93c e35f 3a3e
000001e0: 982b cfbe f0d3 5e3e 08f2 17be 264b c13c
000001f0: f4ab 9dbe 535c 40be e707 113d 0f74 abbe
00000200: fd62 38bd 6797 3dbe 8f46 153d 22f9 44bd
00000210: a550 58be bfe3 fb3d a482 763e e1ba b73d
00000220: 2c0e b3bc 8047 15be ac7e a73d c4d2 a43d
00000230: 62ae aa3e 7e9d b23d 8d4e 853e 5512 c13c
00000240: 0309 b8be 62a2 c0bd ab4b 493e d1b5 673d
00000250: 7183 0bbe acf6 7abe 8cf0 87be 5fce a5bd
00000260: 643a f7bd 2382 423e c58d 133e 303a c9be
00000270: efc1 e33d 082c 48be 9a7c 563d 02e6 d83c
00000280: 42b1 06be 0566 1dbe 4ba2 8dbd 426f 51be
00000290: 7ecf d73c a54a 003e a19a 53be 89aa 413e
000002a0: f5e5 3cbe 8b95 9fbc 12f4 b73e b860 afbd
000002b0: fc13 983d b505 c13d 8084 09be 62a4 0d3d
000002c0: 0cd3 963d dd06 5abe 1664 9c3e e3b7 ffbc
000002d0: 77a5 ddbc ad1c 323c ca2f 1d3e ae26 ec3d
000002e0: c059 1b3e 9252 fb3d 19ae c4bc cd70 2abe
000002f0: c050 19bf ecd3 a03e 54d8 e13e 0717 243e
00000300: f42b 9abe d191 2abd 75d2 89be 7e6b 94be
00000310: ffab 0bbe c4ba 9c3d c6ec babd 3af4 e9bd
00000320: 39e1 143b c96a 563e 4244 61be c2ab aebd
00000330: ed4e 0c3c 9165 a43d 2799 f4be daa1 7b3e
00000340: 794f dc3d 5c1c 95bd 0668 7dbe 0d4e dfbd
00000350: 543c ad3d 9921 c4bd 9e9d dd3c b3a9 d5bc
00000360: 79c1 8cbe 9459 3cbe bd3d 9e3e 53d2 dbbe
00000370: bdff ae3c 8d64 e33e 82d2 aa3e d3d7 9e3c
00000380: 4fc7 4abe 8c75 843e fea0 463d db20 8f3d
00000390: 8aaf e6bd 3b4d d03d 8433 dc3d 0958 663e
000003a0: 9b0c 40bd 0630 d23e b051 473e fa1e f7bd
000003b0: 27e5 cd3d 5331 81bc 3168 f2bd c4e7 3e3e
000003c0: c0fd 583d 967e 503e e3b6 f8bd 73ad 43be
000003d0: fde1 e23d e108 10bf 07d9 283e 1f0d 99bd
000003e0: 12f9 0ebe f5a4 04be dcca 4dbe 0afb 943d
000003f0: 58a6 be3d d7a6 f1bd bd8b f8bd 0d3c e93c

bias f4 [64]
0.04245896 -0.032286357 0.002696152 0.21007368 0.11020042 0.23336856 -0.30484772 -0.010873793
0.00060493633 -0.15486194 0.13604428 -0.16270946 0.10673019 0.1419381 0.19539547 0.3046861
-0.2065551 0.27907917 -0.3286475 -0.21848965 -0.043742392 0.07321452 -0.03934962 -0.1510914
-0.1419093 -0.0017992205 -0.21191841 -0.4215333 0.025506273 -0.09805286 -0.12225039 -0.064440705
-0.23843294 -0.25803852 -0.17229491 0.023271514 -0.06912678 -0.20259725 0.0353251 -0.27553406
0.33342078 -0.26425642 -0.20286563 0.26062256 0.046093505 0.11847896 0.10359701 -0.26693636
-0.13238114 0.048286088 0.10168264 -0.31321576 0.024853986 -0.032301717 -0.274302 -0.0076909903
0.26568398 -0.19596167 0.20311992 -0.20413901 0.12902455 -0.32040372 0.13966782 -0.31748185
00000000: 72e9 2d3d b33e 04bd edb1 303b 8e1d 573e
00000010: c2b0 e13d 2bf8 6e3e 0015 9cbe fe27 32bc
00000020: 9794 1e3a 2194 1ebe 314f 0b3e 4f9d 26be
00000030: 5c95 da3d 3958 113e c015 483e d1ff 9b3e
00000040: 2e83 53be 77e3 8e3e 7c44 a8be c0bb 5fbe
00000050: 392b 33bd 7ff1 953d 112d 21bd b4b7 1abe
00000060: ac50 11be d2d3 ebba 2401 59be 36d3 d7be
00000070: 88f2 d03c f0cf c8bd 6a5e fabd 7df9 83bd
00000080: c427 74be a01d 84be 146e 30be e7a3 be3c
00000090: 5792 8dbd a775 4fbe 0db1 103d cd12 8dbe
000000a0: 21b6 aa3e 9e4c 87be 02bc 4fbe 5270 853e
000000b0: 8bcc 3c3d 19a5 f23d ab2a d43d e2ab 88be
000000c0: ec8e 07be a2c7 453d fd3e d03d d15d a0be
000000d0: 969a cb3c ce4e 04bd 5071 8cbe b404 fcbb
000000e0: bb07 883e 2daa 48be abfe 4f3e d109 51be
000000f0: 031f 043e f50b a4be 1505 0f3e fb8c a2be

weight f4 [64, 64]
-0.12481253 7.4325755e-05 0.10187034 -0.064094804 -0.049971864 0.20649105 -5.4688287e-05 0.121209584
-0.041648634 -0.051623452 -0.16508934 0.15627117 0.059574578 -0.11505521 0.034956593 -0.108047955
-0.06189137 -0.032937817 -0.049258173 0.010061668 -0.054110125 -0.12641518 -0.05912407 -0.033695765
-0.0029624482 -0.041112565 -0.07815771 -0.10205827 -0.018767074 -0.02917788 0.14085683 -0.11984157
-0.059227288 -0.18068825 -0.033198044 0.13806438 0.11491429 -0.13668452 0.001144895 0.11282954
-0.026585903 0.1477951 -0.025271276 -0.11694523 0.18807739 -0.0059213922 0.13101345 -0.010984778
0.012162122 0.05009324 0.14634633 -0.18315011 -0.18116374 0.026565243 -0.1367889 0.1703214
-0.069834724 -0.098855026 -0.021413073 -0.016776627 0.05567878 -0.11808794 -0.1397422 -0.10928892
0.1168006 0.2344667 -0.18179734 0.08501001 0.02285368 0.017805079 -0.08744905 0.10665585
0.109071754 0.13927352 -0.09229765 0.12324624 0.009187202 -0.058300655 0.24127725 0.14637098
-0.18774259 0.056162633 0.17369163 -0.16013862 0.026992628 0.029644871 -0.07813383 -0.2368628
-0.19056666 0.18562211 0.14113748 -0.1255665 -0.108887166 -0.039294414 -0.18864208 -0.02606813
0.16886194 0.0887071 0.11087733 0.2633843 0.04732523 -0.20212878 0.09017901 0.09385145
0.12939198 -0.11986351 0.104312725 0.08900796 0.032455496 -0.012236604 0.18557842 -0.17470339
0.017087668 0.02989408 -0.06950934 0.016435966 0.090206474 0.1314459 -0.02679088 0.16995764
-0.06479697 -0.09368925 0.022429446 -0.13220699 0.19598722 -0.060662333 0.038101304 -0.015621705
-0.07834929 -0.017769612 0.02212983 0.01995943 0.077616245 -0.08887583 0.01405895 0.097737215
-0.08589827 -0.10061717 0.09550385 0.20783763 0.0077287923 -0.11099961 -0.12349949 -0.17044081
-0.016457148 -0.013083501 0.04927559 -0.17303005 0.026243195 0.11798133 0.13320939 0.047266506
0.06779543 -0.052732293 -0.15449782 -0.0962455 -0.09152594 -0.061367434 0.15975758 0.017055523
0.011828365 -0.15102936 -0.016518636 0.107051395 -0.061327364 -0.08389516 0.0050538583 0.002173427
-0.106124856 0.038222607 0.023656024 -0.12115761 -0.1944809 0.08416932 -0.00112906 -0.052077092
0.1008943 -0.059589017 -0.0008735184 -0.099687986 0.02256711 0.12200506 -0.08722257 -0.067348294
0.020953253 -0.026290916 0.0301674 0.05901514 -0.07754428 0.084002696 -0.070793636 0.20148794
-0.038131233 -0.18560585 0.15656684 -0.07971131 0.05805137 0.17687464 -0.14859518 0.1160833
0.06465729 0.051645424 0.0976153 0.12971969 -0.06595729 0.033936985 0.1092355 0.02359841
0.104607224 0.1698813 -0.18069726 -0.0514589 0.0029854667 0.14870061 0.02504699 -0.047888868
-0.032808833 0.021471864 -0.093378045 0.10657285 -0.2202742 -0.005635035 0.055033058 0.05219348
0.0046109026 -0.098275624 0.046667423 0.078949824 0.10900701 -0.06081586 -0.024716059 -0.05200132
0.08642149 0.11271504 0.022690563 -0.0885331 -0.11494494 0.10248783 0.043645788 0.10337803
0.107039884 0.046638448 0.09320501 -0.053877816 0.027758487 -0.085815966 0.037826158 0.000568819
0.09681823 -0.013836453 -0.059800737 0.07989252 -0.04558121 0.010676796 0.022787653 0.03781208
00000000: b69d ffbd 56df 9b38 66a1 d03d 2344 83bd
00000010: 4caf 4cbd 6472 533e 1a61 65b8 bb3c f83d
00000020: c297 2abd 1d73 53bd 2e0d 29be 8d05 203e
00000030: 7904 743d 11a2 ebbd a52e 0f3d 3f48 ddbd
00000040: ce81 7dbd cee9 06bd f0c2 49bd b2d9 243c
00000050: 94a2 5dbd fb72 01be 152c 72bd 9204 0abd
00000060: a225 42bb a665 28bd 2611 a0bd ed03 d1bd
00000070: 68bd 99bc 7306 efbc c63c 103e 7f6f f5bd
00000080: 5098 72bd 5706 39be acfa 07bd c060 0d3e
00000090: 2f58 eb3d 07f7 0bbe 4d10 963a 2d13 e73d
000000a0: aeca d9bc 9957 173e b505 cfbc fb80 efbd
000000b0: 5c97 403e 3d08 c2bb 6428 063e 80f9 33bc
000000c0: a343 473c 922e 4d3d d0db 153e b48b 3bbe
000000d0: fd82 39be 5a9f d93c 6412 0cbe bc68 2e3e
000000e0: 8205 8fbd 8174 cabd 786a afbc 236f 89bc
000000f0: 6f0f 643d 17d8 f1bd 9418 0fbe dfd2 dfbd
00000100: 2735 ef3d 0a18 703e 1529 3abe ba19 ae3d
00000110: a437 bb3c f5db 913c 7d18 b3bd 626e da3d
00000120: 0361 df3d b89d 0e3e 8d06 bdbd 8668 fc3d
00000130: eb85 163c abcc 6ebd 6211 773e 46e2 153e
00000140: 983f 40be ca0a 663d 38dc 313e 61fb 23be
00000150: a51f dd3c cdd9 f23c a104 a0bd 298c 72be
00000160: e823 43be b913 3e3e 5886 103e 8194 00be
00000170: 3c00 dfbd 2ef3 20bd 642b 41be d58c d5bc
00000180: 25ea 2c3e 11ac b53d a713 e33d 4fda 863e
00000190: 1ad8 413d d9fa 4ebe c6af b83d 3035 c03d
000001a0: 557f 043e 007b f5bd e9a1 d53d ce49 b63d
000001b0: 0ef0 043d 097c 48bc 4508 3e3e 72e5 32be
000001c0: 70fb 8b3c 6ee4 f43c ea5a 8ebd b8a4 863c
000001d0: 2cbe b83d c199 063e 8c78 dbbc 6009 2e3e
000001e0: 46b4 84bd 26e0 bfbd f5bd b73c 4561 07be
000001f0: e0b0 483e 1179 78bd 1d10 1c3d 2ef2 7fbc
00000200: 9875 a0bd 9491 91bc 9e49 b53c f581 a33c
00000210: 44f5 9e3d 8804 b6bd 8357 663c 732a c83d
00000220: 6feb afbd 6010 cebd 8697 c33d 63d3 543e
00000230: cf41 fd3b c353 e3bd 4ded fcbd 0988 2ebe
00000240: 24d1 86bc 2e5c 56bc 33d5 493d ca2e 31be
00000250: f8fb d63c 32a0 f13d 0b68 083e 869a 413d
00000260: 55d8 8a3d d1fd 57bd ad34 1ebe 5c1c c5bd
00000270: f471 bbbd 6b5c 7bbd 7e97 233e 06b8 8b3c
00000280: c2cb 413c 71a7 1abe 1752 87bc c33d db3d
00000290: 6732 7bbd 3ad1 abbd d69a a53b 0e70 0e3b
000002a0: fd57 d9bd 4f8f 1c3d 47ca c13c 7b21 f8bd
000002b0: 0026 47be f760 ac3d f8fc 93ba ca4e 55bd
000002c0: aca1 ce3d 9d13 74bd d4fc 64ba 3729 ccbd
000002d0: a9de b83c cadd f93d bfa1 b2bd e7ed 89bd
000002e0: 28a6 ab3c 0c60 d7bc a021 f73c dcb9 713d
000002f0: 89cf 9ebd 9b09 ac3d 41fc 90bd db52 4e3e
00000300: 7f2f 1cbd 760f 3ebe 0f53 203e af3f a3bd
00000310: 46c7 6d3d a01e 353e 5629 18be 15bd ed3d
00000320: 0b6b 843d 278a 533d 88ea c73d 3dd5 043e
00000330: 9e14 87bd 8201 0b3d ddb6 df3d 7451 c13c
00000340: 503c d63d 5df5 2d3e b408 39be 91c6 52bd
00000350: d2a7 433b f944 183e 582f cd3c 1e27 44bd
00000360: 8e62 06bd c3e5 af3c fd3c bfbd de42 da3d
00000370: 8f8f 61be 1aa6 b8bb 586a 613d d5c8 553d
00000380: 0e17 973b bb44 c9bd 5726 3f3d 72b0 a13d
00000390: 113f df3d 0d1a 79bd 5579 cabc 56ff 54bd
000003a0: c0fd b03d 25d7 e63d 8fe1 b93c d850 b5bd
000003b0: 4168 ebbd 24e5 d13d edc5 323d dcb7 d33d
000003c0: ba37 db3d f507 3f3d 45e2 be3d fcae 5cbd
000003d0: c465 e33c 48c0 afbd 9aef 1a3d cc1c 153a
000003e0: a348 c63d 4ab2 62bc 9ef1 74bd b19e a33d
000003f0: 5db3 3abd baed 2e3c 2cad ba3c d7e0 1a3d

bias f4 [64]
-0.16684633 0.054343976 -0.1684106 -0.06620446 -0.20717686 0.05921639 0.041563388 -0.031043261
-0.04899265 0.030383145 -0.018766673 0.079971075 0.033205282 -0.059146352 0.016293576 0.07041897
-0.051128384 -0.0043197707 -0.009929418 0.001824393 -0.16810651 0.101438634 0.13640799 -0.16584522
-0.09313771 0.14013278 -0.020686662 -0.039749134 0.032861948 0.061828364 0.11000085 0.033029534
-0.014391003 0.15722023 -0.07335146 -0.12730838 -0.004483763 0.044487067 0.07014586 0.024530234
0.05215758 0.015051748 0.016852278 -0.052603204 -0.06335518 0.05116933 0.1911617 0.15000758
-0.20785378 -0.0578948 0.050295893 -0.019715894 0.11874356 0.18801086 0.0044507547 -0.051135194
-0.009313165 0.08055209 0.092577636 0.04607758 -0.11462154 0.09092296 0.04724389 -0.043924533
00000000: c4d9 2abe ca97 5e3d d473 2cbe 3496 87bd
00000010: 2c26 54be e38c 723d 5f3e 2a3d 704e febc
00000020: 84ac 48bd 13e6 f83c 91bc 99bc e0c7 a33d
00000030: 4302 083d 7243 72bd 1b7a 853c d237 903d
00000040: ff6b 51bd dd8c 8dbb ffae 22bc 7920 ef3a
00000050: 1d24 2cbe 0fbf cf3d 89ae 0b3e 54d3 29be
00000060: fcbe bebd f87e 0f3e 1377 a9bc fdcf 22bd
00000070: 409a 063d bd3f 7d3d 2048 e13d fa49 073d
00000080: 3ec8 6bbc 57fe 203e 4a39 96bd 215d 02be
00000090: 88ec 92bb 1238 363d a2a8 8f3d a1f3 c83c
000000a0: 30a3 553d 9b9b 763c ca0d 8a3c 7576 57bd
000000b0: 5cc0 81bd ee96 513d e5bf 433e 969b 193e
000000c0: 9fd7 54be 1923 6dbd 1103 4e3d 3a83 a1bc
000000d0: d32f f33d eb85 403e a3d7 913b 2373 51bd
000000e0: 3f96 18bc 7ff8 a43d 5899 bd3d d8bb 3c3d
000000f0: b3be eabd d135 ba3d cf82 413d 36ea 33bd

weight f4 [6, 64]
-0.25878963 0.026479846 -0.18104608 -0.10154891 0.021177452 0.23135763 0.20438646 0.05413447
-0.03546942 0.13875231 0.053138383 0.018310491 -0.03332119 0.026922178 -0.027538342 0.059909258
-0.042918578 -0.055715334 -0.090837926 0.08140043 -0.11976899 -0.06572241 0.06796448 -0.27706492
0.1617263 0.16480698 -0.06866502 -0.107361734 -0.29060408 0.0010649132 0.03299692 -0.103901476
0.06748489 0.019261045 -0.032993384 -0.049488273 -0.13085338 -0.18620253 1.9682648e-05 0.17721815
-0.03084101 0.13891438 0.015024343 -0.05527411 -0.12117332 0.21364827 0.03553491 0.20892435
-0.059861004 -0.09418865 0.1835276 -0.052801583 0.17178948 0.10876237 0.07434216 -0.14207059
-0.08147516 0.08466455 0.059193604 0.18882574 -0.17260863 -0.06735899 0.12869926 0.16643873
0.17651072 0.17401257 -0.16146179 -0.10754155 -0.10048676 0.12486289 -0.07043151 0.032607343
0.06658659 -0.034170236 0.07744726 0.04787798 0.010354013 0.14983684 -0.032817002 0.020422727
-0.07972012 -0.20244403 0.13383307 0.029027939 0.10005683 0.046340346 0.020435894 -0.17278975
-0.019502988 -0.09405785 -0.097208954 0.14230649 -0.18673648 0.10394187 0.11023355 -0.114239134
-0.061382532 0.09662481 0.15215576 0.024094071 0.13351664 0.03245993 0.13833494 -0.043957308
-0.053557876 -0.038022164 -0.14377393 0.21204151 0.09603266 -0.1472754 -0.0099198865 0.095359616
-0.07723329 0.10804972 0.10042736 0.047692344 0.05708906 0.07676036 0.04097729 -0.26967284
0.0843351 -0.079700924 0.24611485 0.16699506 0.056750517 -0.04599171 -0.24129774 -0.08158699
-0.010687441 -0.032393195 0.16618186 -0.006206434 0.1911764 -0.10542766 0.117827006 0.16277371
-0.10624486 -0.18366331 0.14403316 -0.09621492 -0.17805973 0.095086366 0.13683634 -0.05091303
-0.107667096 -0.24294794 -0.24048817 0.14038694 0.14079711 -0.043264106 -0.13924736 0.04872301
0.12652023 -0.1976555 -0.07754656 -0.082522124 -0.048965525 -0.0105138 0.14495389 0.21429448
-0.21433847 0.12891304 0.18949057 0.017937114 0.10410043 0.18228489 0.3965511 -0.21106751
-0.25389344 -0.009436847 -0.05747203 -0.10918027 -0.17187653 -0.10685078 -0.01261844 0.13831615
0.08767237 0.12648058 -0.14909342 -0.14049034 -0.017009608 -0.082856715 -0.018778961 0.06455777
0.1552903 -0.0063165836 0.18216091 -0.004922113 -0.09860439 0.21565093 0.09874049 -0.11507856
-0.06811751 0.10915991 -0.11354168 0.1090709 -0.14138322 -0.04275194 -0.072264105 0.17788775
-0.051516533 -0.07997648 0.11120145 -0.13374867 0.12466427 -0.11023319 -0.17612927 -0.007889897
-0.0062998175 0.13521442 -0.110959105 -0.06797629 0.03849299 0.09047503 0.20629528 -0.04936984
-0.119381115 0.06816629 -0.16224973 0.1839912 -0.087837264 0.14396234 0.14521481 -0.09385392
0.11409068 0.1915245 0.21534313 0.050614085 -0.09654369 0.112745665 0.15328471 0.06336504
0.15971601 -0.09869516 0.06931164 -0.08993528 -0.071671 -0.13419254 0.20410767 -0.07640743
0.0232684 -0.08290231 -0.07200528 0.07769322 0.07609551 -0.0003235723 -0.061350193 0.003312628
-0.11295479 -0.15248516 0.025203118 -0.03731953 0.029636875 -0.022880709 -0.065084964 -0.011314239
00000000: 1380 84be 43ec d83c 2564 39be e0f8 cfbd
00000010: 567c ad3c 04e9 6c3e af4a 513e 1bbc 5d3d
00000020: 6248 11bd 1615 0e3e a2a7 593d e2ff 953c
00000030: cd7b 08bd e68b dc3c 1798 e1bc 6963 753d
00000040: 64cb 2fbd c335 64bd 3c09 babd 45b5 a63d
00000050: 7249 f5bd 7999 86bd f630 8b3d 74db 8dbe
00000060: 949b 253e 29c3 283e 3fa0 8cbd 78e0 dbbd
00000070: 0fca 94be 8f94 8b3a c727 073d 4cca d4bd
00000080: 8535 8a3d 57c9 9d3c 1224 07bd 37b4 4abd
00000090: 6efe 05be e0ab 3ebe 2a1c a537 ad78 353e
000000a0: 49a6 fcbc 923f 0e3e a928 763c 1b67 62bd
000000b0: b829 f8bd 9dc6 5a3e 0e8d 113d 44f0 553e
000000c0: d030 75bd fbe5 c0bd a9ee 3b3e 7946 58bd
000000d0: 95e9 2f3e cebe de3d b440 983d f47a 11be
000000e0: 73dc a6bd 9c64 ad3d fe74 723d 895b 413e
000000f0: 51c0 30be 83f3 89bd bdc9 033e ea6e 2a3e
00000100: 3abf 343e 5a30 323e 3d56 25be bf3e dcbd
00000110: 01cc cdbd 1db8 ff3d 653e 90bd 478f 053d
00000120: 8d5e 883d 17f6 0bbd ab9c 9e3d b31b 443d
00000130: e1a3 293c d46e 193e 1f6b 06bd 904d a73c
00000140: 4d44 a3bd 7d4d 4fbe 890b 093e 00cc ed3c
00000150: 98ea cc3d 60cf 3d3d 2d69 a73c ccef 30be
00000160: bbc4 9fbc 67a1 c0bd 7d15 c7bd cbb8 113e
00000170: d937 3fbe 7adf d43d 21c2 e13d 35f6 e9bd
00000180: 406c 7bbd 3ae3 c53d b8ce 1b3e ee60 c53c
00000190: 96b8 083e b4f4 043d ada7 0d3e 940c 34bd
000001a0: 815f 5bbd 21bd 1bbd 7939 13be 6921 593e
000001b0: c5ac c43d 5dcf 16be 0587 22bc e74b c33d
000001c0: 7d2c 9ebd 2c49 dd3d dcac cd3d 0c59 433d
000001d0: 38d6 693d 8934 9d3d ced7 273d 8f12 8abe
000001e0: e2b7 ac3d 3d3a a3bd 8805 7c3e c100 2b3e
000001f0: 3b73 683d ce61 3cbd c116 77be 1417 a7bd
00000200: 601a 2fbc baae 04bd 942b 2a3e 585f cbbb
00000210: bfc3 433e 75ea d7bd 494f f13d 27ae 263e
00000220: e896 d9bd 3c12 3cbe 6e7d 133e 540c c5bd
00000230: 4a55 36be a4bc c23d d31e 0c3e 2e8a 50bd
00000240: 9180 dcbd 58c7 78be 8842 76be 98c1 0f3e
00000250: 1e2d 103e b435 31bd dc96 0ebe c791 473d
00000260: 858e 013e 3466 4abe bbd0 9ebd 5c01 a9bd
00000270: 1390 48bd 1342 2cbc cb6e 143e 0370 5b3e
00000280: 8b7b 5bbe c801 043e d109 423e dbf0 923c
00000290: 9b32 d53d e4a8 3a3e bf08 cb3e 1522 58be
000002a0: 52fe 81be 019d 1abc cb67 6bbd e899 dfbd
000002b0: 6700 30be 95d4 dabd 93bd 4ebc c0a2 0d3e
000002c0: 928d b33d 2084 013e f2ab 18be b3dc 0fbe
000002d0: bc57 8bbc c8b0 a9bd 56d6 99bc dd36 843d
000002e0: 6c04 1f3e 58fb cebb 6488 3a3e ad49 a1bb
000002f0: 19f1 c9bd 99d3 5c3e 7438 ca3d 4fae ebbd
00000300: 3181 8bbd 3b8f df3d 8a88 e8bd 9060 df3d
00000310: c3c6 10be a91c 2fbd 34ff 93bd 3528 363e
00000320: 0003 53bd b5ca a3bd 96bd e33d 69f5 08be
00000330: fb4f ff3d f0c1 e1bd 3b5b 34be a044 01bc
00000340: b36e cebb a675 0a3e 873e e3bd 2737 8bbd
00000350: d3aa 1d3d f94a b93d 123f 533e 0838 4abd
00000360: 167e f4bd c59a 8b3d cb24 26be 3068 3c3e
00000370: 06e4 b3bd dd6a 133e 31b3 143e 7c36 c0bd
00000380: 60a8 e93d 001f 443e e982 5c3e b750 4f3d
00000390: b3b8 c5bd 33e7 e63d abf6 1c3e 88c5 813d
000003a0: 988c 233e b020 cabd 43f3 8d3d fd2f b8bd
000003b0: 3fc8 92bd c569 09be 9a01 513e 807b 9cbd
000003c0: 5f9d be3c b0c8 a9bd 8177 93bd 9f1d 9f3d
000003d0: f6d7 9b3d 24a5 a9b9 574a 7bbd ad18 593b
000003e0: d754 e7bd 1225 1cbe c576 ce3c 5ddc 18bd
000003f0: 08c9 f23c 5370 bbbc 444b 85bd 5c5f 39bc

bias f4 [6]
0.15711361 0.10676756 0.024139842 0.1230733 -0.019630732 -0.08815967
00000000: 64e2 203e f3a8 da3d ebc0 c53c db0d fc3d
00000010: a1d0 a0bc 0f8d b4bd

weight f4 [64, 17]
-0.68740106 -0.07754136 -0.08027027 -1.1258341 -0.46477792 -0.92066664 1.4382668 -2.8069685
-0.6352342 -1.1899569 0.74498194 -0.11899367 -0.08333622 -0.006739762 -0.7544411 -0.32158226
0.010916092 0.4051815 1.3887559 -0.64907813 0.04412707 -0.1536514 -0.12500109 -0.6706396
-0.23913118 0.72518504 -0.1196581 0.9373226 0.55051786 0.19881007 -0.19313255 -1.210418
-0.61301243 0.15352857 -0.17064759 3.0041506 0.43946055 -0.113814615 0.028989596 -1.1160803
-0.17027451 1.2585202 0.018975439 0.4120536 1.3149704 -0.24552298 -0.13747934 -0.114441544
-0.7067642 -0.2828823 -0.07435558 0.7253212 2.5627182 1.6880352 1.1454047 -0.81264734
-0.6811185 1.0846275 0.13916163 0.25685498 0.28686893 -0.14285055 0.351667 -0.0741969
0.060486477 -0.22644854 -0.023791706 0.010681351 0.35643673 0.38431233 0.029100962 -0.5341247
-0.98021644 -2.0993757 3.6418185 -0.80581534 0.090044245 -1.0642991 -0.4189766 0.306199
0.004377672 0.015438919 0.19474998 -0.06610269 -0.12116796 -0.054560788 -1.2285206 -0.3761584
-0.5250137 1.0986564 2.7892587 0.3852619 0.5471118 0.56694996 0.2862639 0.53321105
0.18308468 -0.013280741 0.17592217 -0.13748832 -0.16783375 0.0072472887 -0.52853 -2.1002724
1.357142 0.18168575 -0.9441814 0.54016834 -0.9597247 -0.5034437 0.11166167 0.359254
-1.459106 0.035608206 0.2649496 -0.020924658 0.9590174 0.5548398 -0.166828 0.5671358
0.43892038 -0.54930395 1.7851139 0.33028063 -1.0871582 0.018337727 1.1108875 -0.5610035
-0.39040375 -2.034059 0.8788897 0.67062205 0.21868137 1.0677339 0.4759155 0.19662574
1.3695518 1.6771013 0.47735578 -2.53974 0.5462652 0.4629026 0.6574415 0.08608259
0.2680048 0.7438182 0.3294718 -0.28537488 0.00021120938 0.070034675 -0.10667271 0.05590802
0.17071132 -0.06876571 1.3214386 0.83777815 0.08125153 0.23623945 0.45113128 2.175165
0.056911875 0.7042291 0.37463114 1.0506207 0.0629773 0.00020798741 -0.09161221 -1.1838093
-0.51420677 -0.13513817 1.1321304 -2.135464 1.0419574 0.15029877 -0.32596162 1.8675562
0.8651744 -0.26908377 -0.28000775 0.029575054 0.24662188 -0.014422136 0.028838387 0.017570842
-0.12175344 -0.068211 0.016852397 -0.6657357 -0.6254883 2.1316326 -0.840583 0.118654944
-0.90861684 -2.486198 0.30471924 1.1019762 -0.6222268 -0.14447151 0.34251803 0.02394197
0.055441264 -0.33697465 -0.33245623 -0.14559533 -1.0648636 -1.926317 -2.837748 -2.9207878
-0.27903417 -0.66094494 -2.5001652 -0.8077338 -0.2830594 -0.5660045 0.16476557 -0.28936735
-0.024343442 -0.07699626 0.2193249 -0.005493566 -0.01958183 -0.33437106 -0.23503476 0.75834453
1.3180459 0.097141474 1.4517884 1.3412552 0.60932404 0.96354324 0.3351823 0.5672479
-0.0026861797 -0.06830543 -0.03769787 -0.5693605 -0.2568461 -0.015719283 0.19147252 2.97972
1.8440467 -0.002438864 -0.56818676 1.124506 0.18117347 -0.12856352 0.43741307 -0.10660937
0.19365574 -0.9019852 -0.3856745 0.06263008 0.13710439 0.24585262 0.2978257 -0.6063668
00000000: 84f9 2fbf 01ce 9ebd bd64 a4bd 551b 90bf
00000010: 5ff7 edbe cfb0 6bbf 2019 b83f 5fa5 33c0
00000020: b59e 22bf 8250 98bf 23b7 3e3f f4b2 f3bd
00000030: 2eac aabd 39d9 dcbb 0d23 41bf 6ea6 a4be
00000040: 69d9 323c f373 cf3e c1c2 b13f fc29 26bf
00000050: 96be 343d cb56 1dbe 4900 00be 09af 2bbf
00000060: cede 74be baa5 393f 4e0f f5bd 60f4 6f3f
00000070: bdee 0c3f de94 4b3e 8ac4 45be faee 9abf
00000080: 62ee 1cbf 9836 1d3e 3ebe 2ebe 0144 4040
00000090: f900 e13e a317 e9bd 977b ed3c b8db 8ebf
000000a0: 715c 2ebe 3117 a13f 6172 9b3c b1f8 d23e
000000b0: f350 a83f 606a 7bbe 62c7 0cbe 5460 eabd
000000c0: 80ee 34bf f3d5 90be bd47 98bd a6ae 393f
000000d0: 9303 2440 8a11 d83f 9f9c 923f a809 50bf
000000e0: c85d 2ebf 13d5 8a3f 6380 0e3e 7f82 833e
000000f0: 7ce0 923e 6a47 12be b20d b43e 8bf4 97bd
00000100: abc0 773d 20e2 67be d3e6 c2bc d500 2f3c
00000110: e07e b63e 96c4 c43e 2465 ee3c 65bc 08bf
00000120: 77ef 7abf 2c5c 06c0 8e13 6940 ea49 4ebf
00000130: 1e69 b83d f43a 88bf 1a84 d6be 1ec6 9c3e
00000140: 9372 8f3b 85f3 7c3c 8a6c 473e d960 87bd
00000150: e826 f8bd 227b 5fbd 2a40 9dbf d597 c0be
00000160: 4c67 06bf c6a0 8c3f 3783 3240 0c41 c53e
00000170: 850f 0c3f a223 113f 2f91 923e 8580 083f
00000180: 8d7a 3b3e 7797 59bc f124 343e bdc9 0cbe
00000190: 9cdc 2bbe aa7a ed3b be4d 07bf dd6a 06c0
000001a0: d4b6 ad3f d40b 3a3e dfb5 71bf 7948 0a3f
000001b0: 85b0 75bf b0e1 00bf e0ae e43d 24f0 b73e
000001c0: fcc3 babf e9d9 113d 79a7 873e 306a abbc
000001d0: 2a82 753f fb09 0e3f f6d4 2abe d02f 113f
000001e0: 2cba e03e 2f9f 0cbf 9d7e e43f 8b1a a93e
000001f0: 0028 8bbf 0039 963c 9031 8e3f ed9d 0fbf
00000200: 00e3 c7be 062e 02c0 eafe 603f e3ad 2b3f
00000210: 02ee 5f3e 81ab 883f 32ab f33e 4258 493e
00000220: 794d af3f 41ab d63f fa67 f43e 1a8b 22c0
00000230: 09d8 0b3f 9201 ed3e 164e 283f 124c b03d
00000240: ed37 893e df6a 3e3f 87b0 a83e a81c 92be
00000250: 1678 5d39 576e 8f3d 3977 dabd cfff 643d
00000260: f3ce 2e3e 09d5 8cbd e624 a93f a178 563f
00000270: 3467 a63d c1e8 713e aefa e63e e735 0b40
00000280: 6d1c 693d 5c48 343f a7cf bf3e bd7a 863f
00000290: 3efa 803d 3217 5a39 2f9f bbbd 1087 97bf
000002a0: 0ea3 03bf a961 0abe a6e9 903f 71ab 08c0
000002b0: dc5e 853f ece7 193e 71e4 a6be 150c ef3f
000002c0: 127c 5d3f 59c5 89be 2d5d 8fbe 6247 f23c
000002d0: 728a 7c3e d34a 6cbc 7b3e ec3c baf0 8f3c
000002e0: de59 f9bd 35b2 8bbd 0a0e 8a3c a86d 2abf
000002f0: 0020 20bf ab6c 0840 7330 57bf 5d01 f33d
00000300: 1d9b 68bf de1d 1fc0 2904 9c3e 8e0d 8d3f
00000310: 414a 1fbf 57f0 13be 865e af3e f321 c43c
00000320: 6116 633d f187 acbe b437 aabe f116 15be
00000330: 734d 88bf 8e91 f6bf aa9d 35c0 30ee 3ac0
00000340: 91dd 8ebe b033 29bf b502 20c0 a4c7 4ebf
00000350: 29ed 90be ace5 10bf 4eb8 283e f527 94be
00000360: e66b c7bc 37b0 9dbd b596 603e 5f03 b4bb
00000370: 136a a0bc af32 abbe f4ac 70be de22 423f
00000380: bab5 a83f 1cf2 c63d 34d4 b93f 40ae ab3f
00000390: a9fc 1b3f c5aa 763f 049d ab3e 2937 113f
000003a0: 9e0a 30bb b8e3 8bbd 1569 1abd 9cc1 11bf
000003b0: 5581 83be bac5 80bc 5f11 443e bcb3 3e40
000003c0: b909 ec3f 59d5 1fbb b074 11bf d0ef 8f3f
000003d0: 8a85 393e 28a6 03be 9bf4 df3e 0356 dabd
000003e0: b14d 463e 81e8 66bf 2177 c5be 3344 803d
000003f0: 1865 0c3e cac0 7b3e 9c7c 983e db3a 1bbf

bias f4 [64]
-0.3674774 0.58596164 -0.32949823 0.2488034 1.1079011 -0.07378881 -0.54278135 0.09102243
1.2688596 -1.5134778 1.1145622 -0.5939871 0.3841575 -1.263475 -0.7146261 0.31609645
-0.8533404 0.528764 0.141222 0.30829957 1.6624887 0.6445267 -0.8487376 -1.1264282
-1.4098482 0.059850246 0.6107024 0.6018012 0.18722944 0.13173026 -0.9371273 0.50989646
0.03470963 0.8893208 0.3234365 0.81565833 1.4886656 -0.07619504 -0.26399004 -0.2749671
0.7335397 -0.647138 0.2620265 0.59710515 -1.329621 -0.122582436 -1.6609135 0.3708437
-1.3320013 0.6194328 -0.9734221 0.284154 -2.167851 -0.75814897 -1.3875241 -0.57502514
1.6089387 0.09794446 -0.37973177 -1.0115592 -0.28271854 -0.83554494 -0.054433726 -1.1150403
00000000: ff25 bcbe 9501 163f feb3 a8be 52c6 7e3e
00000010: b4cf 8d3f 961e 97bd b8f3 0abf f869 ba3d
00000020: fe69 a23f a4b9 c1bf f9a9 8e3f 8a0f 18bf
00000030: 4bb0 c43e 8cb9 a1bf bcf1 36bf 65d7 a13e
00000040: 8474 5abf 145d 073f 809c 103e 71d9 9d3e
00000050: 6ecc d43f b4ff 243f de46 59bf cd2e 90bf
00000060: e875 b4bf 8825 753d fe56 1c3f a50f 1a3f
00000070: 13b9 3f3e 4ce4 063e 93e7 6fbf 9388 023f
00000080: af2b 0e3d 87aa 633f 7899 a53e fcce 503f
00000090: 988c be3f 250c 9cbd b429 87be 7dc8 8cbe
000000a0: 42c9 3b3f d6aa 25bf 5628 863e e2db 183f
000000b0: 0531 aabf 800c fbbd d098 d4bf 3adf bd3e
000000c0: 057f aabf 2693 1e3f 3132 79bf a27c 913e
000000d0: 12be 0ac0 0d16 42bf 649a b1bf d934 13bf
000000e0: b4f1 cd3f 1b97 c83d 346c c2be c67a 81bf
000000f0: 7cc0 90be 46e6 55bf e6f5 5ebd a4b9 8ebf

weight f4 [64, 64]
-0.2746984 0.030030232 1.1930084 0.9311384 -0.73004395 -0.0039053299 -1.5006506 -0.88445216
1.3050714 1.9004674 -0.86992794 -0.44683522 -0.30876324 0.45628542 0.76331085 -0.018396184
-0.6395657 -1.2547454 0.5006997 0.123558894 0.15185651 -0.4770565 0.24811916 0.43313393
-0.24678929 0.758596 -0.033534802 -0.9715877 -0.770359 0.6504126 -0.199694 0.4549067
0.6826705 0.9012746 0.8165567 -0.43407008 -1.316779 -1.3944361 2.9816036 -0.15154074
0.2622126 0.22008249 -0.2282085 0.03666896 -1.0440062 -0.70096356 0.2973898 0.46665397
0.3285458 0.3813742 -0.47560838 0.95070595 -1.0558774 1.395824 -0.12429334 -0.020337017
0.31323546 -0.2995459 -0.7725118 -0.3329395 -0.4825142 0.030653052 -0.7227152 -0.36750793
-0.3711357 -0.12120248 0.8433056 1.1407398 -0.6895973 -0.013949194 -1.8586289 -0.042506453
1.2712264 0.015237471 0.3980994 0.94496053 0.14616938 0.23570807 1.4509426 0.19981253
0.0724444 -0.77875334 -0.5161852 0.14887828 -0.94473195 -0.8033189 0.80474687 0.6386537
0.3419104 -0.80032945 -0.5940094 -1.6549289 0.8132783 -0.05952534 -0.17945352 -0.19999295
0.52520806 -0.256373 -0.1334092 -1.0565245 -0.85932755 -0.73482335 0.9913838 0.15915725
0.3393349 -0.09300495 0.3219472 0.11006251 0.15080559 -0.034364384 0.50610375 0.06678289
-0.25222522 0.89267 -0.49453107 1.7532781 0.6406332 0.9353632 0.97770333 -0.11125954
0.021468908 0.46395832 0.12935746 0.4882931 -0.7276069 0.09594436 -1.080412 -1.1304015
1.4672797 -0.26522946 0.5502177 0.031290423 -0.42042384 -0.44506314 -0.086386785 0.41203713
-0.48943242 -0.13358189 -2.7266572 -0.6868587 -0.41468793 0.55836546 -0.11291344 -0.18732592
0.55004334 -0.5262791 0.14148751 -0.7126952 0.559543 0.56391424 0.69424057 0.39249486
-0.18823752 -0.115991905 0.19613484 -0.24247932 0.30073157 0.4091726 0.04513508 -0.7708874
0.055435143 -1.2903998 0.49977887 0.5790638 0.049696006 -0.44557667 0.9631199 -0.1512801
-0.7260735 0.058857698 -0.23118508 -1.2867554 -0.04516572 -0.40809798 -0.3109904 -0.005073486
-1.0812421 0.042181846 2.0348942 -0.79847336 -1.2782874 -0.040973697 0.25789845 0.19066244
0.5482026 -0.07701195 -0.60771596 0.08156807 0.056315664 0.041903634 0.49985108 0.39897436
0.018151421 -0.052006215 -0.70033073 -1.6604882 -0.5186872 0.47335646 1.1629161 -0.14997841
-1.4327626 -0.49260947 -0.26509723 -0.5251173 0.3863781 0.51979506 0.22632207 0.18332486
-0.14050688 -0.19593376 -0.59529316 0.25849247 1.4740208 -0.31523988 -0.71797496 -0.10852475
-0.47262195 -0.3698882 0.24976198 1.7510663 0.78805745 -0.22456495 -0.6516216 1.6178696
-0.33750466 0.5871949 -0.074963935 0.5739589 1.8594337 0.31809524 -1.5288727 0.8669011
-0.4939332 0.10332718 -0.76005566 1.1760494 -0.44216338 -0.19649109 0.33365718 -1.2275698
1.1097957 -1.7181875 0.12314329 -0.46183425 -0.5540666 -0.41727147 -1.087379 -0.16267683
-0.4449929 0.40594864 0.14970374 0.3728521 0.28849575 0.06151251 1.2677577 1.0234773
00000000: 45a5 8cbe f601 f63c 80b4 983f 165f 6e3f
00000010: 29e4 3abf 90f0 7fbb 5215 c0bf 756b 62bf
00000020: 940c a73f 8442 f33f 99b3 5ebf 96c7 e4be
00000030: 3716 9ebe 3e9e e93e 5768 433f 98b3 96bc
00000040: 94ba 23bf 7f9b a0bf db2d 003f 720c fd3d
00000050: 4680 1b3e c040 f4be f312 7e3e bbc3 dd3e
00000060: 55b6 7cbe 5933 423f ca5b 09bd f9b9 78bf
00000070: 3f36 45bf 7181 263f 957c 4cbe 88e9 e83e
00000080: 7ec3 2e3f efb9 663f dc09 513f 6f3e debe
00000090: 378c a8bf e27c b2bf 98d2 3e40 7f2d 1bbe
000000a0: bb40 863e 4e5d 613e 7daf 69be 3132 163d
000000b0: ffa1 85bf 5972 33bf 7a43 983e 45ed ee3e
000000c0: 2837 a83e 7b43 c33e f182 f3be 7761 733f
000000d0: fe26 87bf 5caa b23f 828d febd d199 a6bc
000000e0: 6660 a03e 155e 99be 55c3 45bf 0c77 aabe
000000f0: 1a0c f7be 1c1c fb3c dd03 39bf 002a bcbe
00000100: 8005 bebe 0139 f8bd e0e2 573f c303 923f
00000110: 7389 30bf 298b 64bc 8de7 edbf 3f1b 2ebd
00000120: 8cb7 a23f 96a6 793c afd3 cb3e efe8 713f
00000130: 6dad 153e 755d 713e 7db8 b93f a89b 4c3e
00000140: bb5d 943d 615c 47bf b724 04bf 8c73 183e
00000150: f4d9 71bf 4fa6 4dbf e403 4e3f cf7e 233f
00000160: e10e af3e 64e2 4cbf 0011 18bf b6d4 d3bf
00000170: 0233 503f d8d0 73bd aac2 37be f4ca 4cbe
00000180: 0974 063f 5243 83be 6c9c 08be 323c 87bf
00000190: e4fc 5bbf 621d 3cbf 54cb 7d3f 1efa 223e
000001a0: 4ebd ad3e 6179 bebd 43d6 a43e 7468 e13d
000001b0: c86c 1a3e abc1 0cbd 0490 013f 78c5 883d
000001c0: aa23 81be 0586 643f 2d33 fdbe 6b6b e03f
000001d0: 8a00 243f f673 6f3f c44a 7a3f 0bdc e3bd
000001e0: 90df af3c f28b ed3e 4876 043e 8e01 fa3e
000001f0: 7244 3abf 7a7e c43d f14a 8abf ffb0 90bf
00000200: d2cf bb3f 28cc 87be 11db 0c3f 632a 003d
00000210: cb41 d7be 51df e3be 8eeb b0bd 88f6 d23e
00000220: e396 fabe b1c9 08be 8d81 2ec0 f9d5 2fbf
00000230: fa51 d4be 0af1 0e3f 293f e7bd 5ed2 3fbe
00000240: a4cf 0c3f 3aba 06bf 1ae2 103e 3173 36bf
00000250: 363e 0f3f af5c 103f c0b9 313f 16f5 c83e
00000260: 56c1 40be 2a8d edbd 92d7 483e 804c 78be
00000270: 7df9 993e 127f d13e 90df 383d e058 45bf
00000280: f60f 633d d22b a5bf 04e3 ff3e 863d 143f
00000290: 0a8e 4b3d a022 e4be 078f 763f 2ce9 1abe
000002a0: f4df 39bf c514 713d c8bb 6cbe 67b4 a4bf
000002b0: b1ff 38bd 38f2 d0be 223a 9fbe 7c3f a6bb
000002c0: 2466 8abf dfc6 2c3d b53b 0240 c068 4cbf
000002d0: ec9e a3bf 09d4 27bd 440b 843e 043d 433e
000002e0: 0157 0c3f 71b8 9dbd 4693 1bbf 290d a73d
000002f0: 41ab 663d 25a3 2b3d 7bec ff3e 5e46 cc3e
00000300: 4ab2 943c 7804 55bd e048 33bf e18a d4bf
00000310: afc8 04bf c75b f23e 6fda 943f f193 19be
00000320: c464 b7bf 4f37 fcbe d3ba 87be 166e 06bf
00000330: 5ad3 c53e 4a11 053f f9c0 673e 83b9 3b3e
00000340: 09e1 0fbe dca2 48be 2265 18bf 2059 843e
00000350: b7ac bc3f 1f67 a1be 35cd 37bf 3942 debd
00000360: 81fb f1be fc61 bdbe 9bc1 7f3e f122 e03f
00000370: 22be 493f 5bf4 65be acd0 26bf 5a16 cf3f
00000380: 69cd acbe 6852 163f b186 99bd f8ee 123f
00000390: ec01 ee3f 61dd a23e 1ab2 c3bf 3bed 5d3f
000003a0: d0e4 fcbe 339d d33d 0293 42bf c988 963f
000003b0: 3d63 e2be f634 49be 1dd5 aa3e 0221 9dbf
000003c0: c90d 8e3f 91ed dbbf 8d32 fc3d 8a75 ecbe
000003d0: 4fd7 0dbf 9ba4 d5be 3c2f 8bbf c194 26be
000003e0: 1cd6 e3be 80d8 cf3e f04b 193e 78e6 be3e
000003f0: b7b5 933e 8bf4 7b3d e245 a23f 4e01 833f

bias f4 [64]
0.9837919 0.83361435 -0.96193695 -0.8650784 -0.65934914 0.7554409 -0.5975581 0.6244299
0.8459822 0.5268154 -1.0971072 -0.9290749 0.3028072 -0.085611686 -0.23500597 -0.8177531
1.2426409 0.59282744 -0.7766906 -0.95181996 -0.97437865 -0.3294834 0.28905758 0.57467717
-0.5638389 0.39093873 0.4042553 0.36845064 0.83621174 -0.13289078 -0.493769 0.6425801
-0.23872298 0.69200385 -0.8066318 0.22972064 0.9493668 1.1556144 -0.67487633 0.47956052
0.9422505 0.2701505 -0.6336685 0.364038 0.47802904 0.5302804 0.9825127 0.26962036
0.4627084 0.39016196 1.0101527 -0.02245934 0.89035815 0.2593267 0.13059872 0.6281159
0.61775243 0.7662199 -0.91635025 -0.7508321 -0.0850839 -0.8510828 1.1635195 1.255766
00000000: c9d9 7b3f c067 553f 8041 76bf c775 5dbf
00000010: 1bcb 28bf 9364 413f 91f9 18bf a3da 1f3f
00000020: 4a92 583f 60dd 063f 026e 8cbf dad7 6dbf
00000030: 8c09 9b3e 2e55 afbd 68a5 70be 4458 51bf
00000040: db0e 9f3f 8ac3 173f 32d5 46bf 79aa 73bf
00000050: e170 79bf 0cb2 a8be 5bff 933e 0b1e 133f
00000060: bf57 10bf 1f29 c83e 8dfa ce3e 90a5 bc3e
00000070: f911 563f 8514 08be 4acf fcbe 2180 243f
00000080: cc73 74be 2a27 313f 6c7f 4ebf e33b 6b3e
00000090: b409 733f 2ceb 933f b2c4 2cbf f588 f53e
000000a0: 5437 713f 2b51 8a3e 1938 22bf 3063 ba3e
000000b0: 39c0 f43e 75c0 073f f485 7b3f ae0b 8a3e
000000c0: 1ee8 ec3e 4fc3 c73e af4c 813f a6fc b7bc
000000d0: 83ee 633f 78c6 843e acbb 053e 34cc 203f
000000e0: 0625 1e3f fd26 443f ee95 6abf 8836 40bf
000000f0: 7840 aebd 90e0 59bf 35ee 943f f1bc a03f

weight f4 [1, 64]
6.9069276 6.6347656 -8.951952 -6.8350153 -6.649291 7.1165357 -7.8174586 7.852683
7.941351 8.758025 -6.8518863 -6.997193 7.7828555 -8.828785 -6.764541 -6.774423
8.109571 8.759415 -9.355324 -8.317855 -8.331056 -8.546017 6.7580657 6.791391
-7.9954796 6.99282 8.003462 6.697688 6.512443 -7.6471915 -8.034384 6.659073
-6.8367577 6.653662 -8.9966 6.6702843 9.400773 6.8352284 -8.8863945 6.6720586
8.905856 -6.2363157 -8.038403 6.8846035 6.962842 8.900978 6.7533326 9.668702
9.234361 -8.753236 7.746571 8.174499 7.404374 7.178346 8.007261 7.9880958
8.545698 9.535143 -6.7449427 8.577977 8.095868 6.413043 8.153151 6.9160175
00000000: 8d05 dd40 0050 d440 323b 0fc1 72b8 dac0
00000010: fec6 d4c0 a9ba e340 9f28 fac0 2e49 fb40
00000020: 8c1f fe40 df20 0c41 a742 dbc0 01e9 dfc0
00000030: 270d f940 b442 0dc1 1f77 d8c0 13c8 d8c0
00000040: cec0 0141 9026 0c41 68af 15c1 ef15 05c1
00000050: 014c 05c1 7cbc 08c1 1342 d840 1353 d940
00000060: f8da ffc0 2ec5 df40 2e0e 0041 7653 d640
00000070: ef65 d040 cbb5 f4c0 d68c 00c1 2017 d540
00000080: b8c6 dac0 cdea d440 13f2 0fc1 f872 d540
00000090: 9169 1641 31ba da40 ac2e 0ec1 8181 d540
000000a0: 637e 0e41 e68f c7c0 4c9d 00c1 ac4e dc40
000000b0: 9acf de40 686a 0e41 4d1b d840 01b3 1a41
000000c0: f1bf 1341 410d 0cc1 e9e3 f740 bfca 0241
000000d0: a2f0 ec40 03b5 e540 be1d 0041 7b9e ff40
000000e0: 2ebb 0841 f28f 1841 92d6 d7c0 653f 0941
000000f0: ad88 0141 a637 cd40 4e73 0241 0450 dd40
