log/mujoco_ppo_halfcheetah_v3_2/mujoco_ppo_halfcheetah_v3_2_s2/pyt_save/model.pt (torch_old, 48781 bytes, 12 tensors)

log_std f4 [6]
-2.1166573 -1.9188634 -1.6911095 -2.0195541 -1.9035531 -1.5797
00000000: 5077 07c0 519d f5bf 4776 d8bf 6040 01c0
00000010: a1a7 f3bf 9c33 cabf

weight f4 [64, 17]
-0.2135248 0.04092705 0.21049483 0.18987183 0.325277 0.053498883 -0.21477135 -0.39915836
0.20668508 -0.52324396 0.29703832 -0.007967186 -0.026731113 0.05683441 0.038936857 0.008441096
0.05295785 0.03556633 -0.14675811 0.037803832 -0.44578996 -0.13224953 -0.006194381 0.25941887
0.016758354 -0.05839914 0.3777473 -0.28642568 -0.15474564 -0.20652597 -0.12027658 0.048641004
0.09791212 0.012091863 0.42350417 -0.26837137 -0.031331092 -0.2443123 0.007123247 -0.20635867
0.0458274 -0.17776302 0.20821239 0.21652861 0.005810061 0.005331656 0.1074672 0.05104362
0.0504579 0.10987557 0.10421871 0.07971277 0.3264753 0.20681456 -0.08618151 0.057566483
-0.001608443 0.26141185 0.021067353 0.27986145 0.24924628 -0.016701095 0.040178247 0.2244398
0.24163622 -0.10839561 0.06456691 -0.19828692 -0.06291507 -0.01763449 -0.27819625 0.20011778
-0.051962893 0.30609375 0.28290492 0.2705764 -0.056956075 -0.13774873 0.1094133 -0.050817426
0.12308582 0.06123248 -0.3928808 0.18053748 0.06860658 0.037681468 -0.13746369 0.26097354
-0.07996874 -0.0045038178 -0.14001389 -0.02897974 0.17545295 -0.0785332 0.33712572 0.0961749
-0.27132705 -0.16604383 -0.093739256 -0.052629624 -0.1068453 -0.03356182 -0.4851618 0.09657148
0.30604368 0.22099663 0.12653622 0.15934433 -0.33287713 0.005394694 0.19301127 -0.40727052
-0.21428892 -0.051277924 -0.14065316 -0.05648665 0.046324715 0.23126528 0.02356075 -0.047703188
0.28800017 0.17639829 -0.16172671 0.033540566 0.28069916 -0.29877338 -0.1885648 0.1405224
-0.20837137 -0.15405905 -0.08451388 0.16752727 -0.11847969 -0.2055174 0.12714021 0.09065039
0.24696948 -0.28226393 0.38624302 0.24304889 0.10508327 -0.15871736 0.1416807 -0.14079274
0.04880136 0.31681114 -0.26224363 0.16456184 0.30803967 -0.05803674 0.13808662 0.01756378
-0.18900509 0.034130555 -0.04604752 -0.30788007 -0.16831066 0.024666632 0.35964832 0.28068405
0.013507373 0.27849793 -0.020022439 -0.28657046 0.060089994 0.14374495 -0.19093281 -0.054114025
-0.13145193 -0.21442275 -0.44743145 0.1095452 0.5876324 0.31858513 0.005826644 -0.30612853
-0.48416921 -0.16089232 0.12132032 -0.031254146 -0.060147718 0.04211623 0.15167251 0.10884559
-0.12698871 -0.16012727 0.06185407 0.23464063 0.116907686 -0.10080313 -0.03661775 -0.22562507
0.112683065 0.12798578 0.08567156 -0.19020574 0.123215295 -0.37572923 0.037752006 0.16163489
-0.152885 -0.32394376 -0.103292264 -0.16271791 -0.301794 0.38546163 0.17906648 -0.051494896
0.20391741 -0.040568303 -0.31915545 -0.15020463 0.026935609 0.08134934 -0.048579242 0.05036776
0.029173525 0.036954403 0.07697935 0.34802622 -0.04636495 0.07638562 0.3094572 -0.17200378
-0.35790813 -0.2933612 -0.10215837 0.29469535 0.26065615 -0.07236531 0.058112387 0.006864722
-0.03322615 -0.03312583 -0.030187324 -0.13937771 -0.086225644 -0.1017652 -0.19224456 -0.1924213
-0.26712424 -0.04273184 -0.30019146 -0.052592147 0.26066962 0.02690783 0.13992245 0.16485357
-0.19734359 -0.17336218 -0.14281327 -0.004133611 0.09668874 -0.26218495 -0.24490893 -0.3669585
00000000: 3fa6 5abe 1fa3 273d f58b 573e c36d 423e
00000010: b58a a63e a521 5b3d 05ed 5bbe 7c5e ccbe
00000020: 41a5 533e 51f3 05bf 6815 983e cd88 02bc
00000030: 35fb dabc 33cb 683d 417c 1f3d 864c 0a3c
00000040: 55ea 583d 00ae 113d c247 16be 31d8 1a3d
00000050: 953e e4be 6c6c 07be 3cfa cabb 8dd2 843e
00000060: d148 893c f033 6fbd 1868 c13e 63a6 92be
00000070: a475 1ebe 8b7b 53be 9153 f6bd ca3b 473d
00000080: 2686 c83d f31c 463c 8ad5 d83e f967 89be
00000090: 0855 00bd 012d 7abe 206a e93b b04f 53be
000000a0: 83b5 3b3d 8207 36be a135 553e adb9 5d3e
000000b0: 5362 be3b 2cb5 ae3b c317 dc3d 1d13 513d
000000c0: f1ac 4e3d 7106 e13d 9e70 d53d 7340 a33d
000000d0: c527 a73e 32c7 533e ee7f b0bd d5ca 6b3d
000000e0: 64d2 d2ba c6d7 853e 7195 ac3c 004a 8f3e
000000f0: 6b3a 7f3e bcd0 88bc f291 243d 8cd3 653e
00000100: 7c6f 773e 84fe ddbd a83b 843d ba0b 4bbe
00000110: 9ed9 80bd 3576 90bc bd6f 8ebe adeb 4c3e
00000120: 0bd7 54bd 52b8 9c3e ead8 903e fd88 8a3e
00000130: c64a 69bd 010e 0dbe 1514 e03d ef25 50bd
00000140: 6b14 fc3d e9ce 7a3d ac27 c9be d1de 383e
00000150: 9b81 8c3d e257 1a3d 48c3 0cbe 539e 853e
00000160: a7c6 a3bd c394 93bb cd5f 0fbe eb66 edbc
00000170: f0a9 333e 04d6 a0bd be9b ac3e 59f7 c43d
00000180: 61eb 8abe 6507 2abe 5efa bfbd 2992 57bd
00000190: b5d1 dabd 1e78 09bd 2167 f8be 45c7 c53d
000001a0: c2b1 9c3e f14c 623e b692 013e 292b 233e
000001b0: df6e aabe f9c5 b03b bfa4 453e c385 d0be
000001c0: 8e6e 5bbe cd08 52bd 6207 10be 8c5e 67bd
000001d0: fcbe 3d3d ced0 6c3e 7902 c13c 6b64 43bd
000001e0: c274 933e c1a1 343e b09b 25be d561 093d
000001f0: cdb7 8f3e d3f8 98be 2217 41be 1be5 0f3e
00000200: 4e5f 55be a8c1 1dbe 9d15 adbd 458c 2b3e
00000210: 7ba5 f2bd 2773 52be 0b31 023e e9a6 b93d
00000220: 91e5 7c3e e684 90be a5c1 c53e cfe1 783e
00000230: e635 d73d ce86 22be bf14 113e f92b 10be
00000240: efe3 473d 1235 a23e cc44 86be e682 283e
00000250: 60b7 9d3e efb7 6dbd 9466 0d3e ebe1 8f3c
00000260: 8d8a 41be 7bcc 0b3d 539c 3cbd 75a2 9dbe
00000270: a159 2cbe ad11 ca3c d323 b83e d2b5 8f3e
00000280: 074e 5d3c 4897 8e3e 1906 a4bc 5db9 92be
00000290: ed20 763d e031 133e e483 43be aba6 5dbd
000002a0: 569b 06be a391 5bbe bc15 e5be 3c59 e03d
000002b0: 146f 163f 971d a33e 6fed be3b e1bc 9cbe
000002c0: 07e5 f7be f5c0 24be ca76 f83d 5904 00bd
000002d0: 745d 76bd 1182 2c3d 0a50 1b3e 70ea de3d
000002e0: 5409 02be 67f8 23be b15a 7d3d a245 703e
000002f0: 4c6d ef3d df71 cebd 7efc 15bd 420a 67be
00000300: 61c6 e63d b40e 033e 9274 af3d 4bc5 42be
00000310: 4d58 fc3d 955f c0be d9a1 1a3d 9e83 253e
00000320: e38d 1cbe f5db a5be e58a d3bd 869f 26be
00000330: be84 9abe 3a5b c53e 345d 373e 50ec 52bd
00000340: bacf 503e f32a 26bd 5868 a3be 3ecf 19be
00000350: 11a8 dc3c 7c9a a63d 07fb 46bd 6d4e 4e3d
00000360: 51fd ee3c 805d 173d 59a7 9d3d 7e30 b23e
00000370: 2ce9 3dbd 1070 9c3d 2d71 9e3e c221 30be
00000380: bc3f b7be 7033 96be 6838 d1bd 4fe2 963e
00000390: b974 853e 4334 94bd 4107 6e3d 76f1 e03b
000003a0: 2518 08bd f3ae 07bd 684b f7bc 08b9 0ebe
000003b0: 1297 b0bd 466a d0bd c2db 44be 170a 45be
000003c0: 82c4 88be 9507 2fbd b2b2 99be dd6a 57bd
000003d0: 7d76 853e cf6d dc3c d547 0f3e 60cf 283e
000003e0: 7014 4abe db85 31be a43d 12be 3e73 87bb
000003f0: bf04 c63d 1b3d 86be 68c9 7abe fce1 bbbe

bias f4 [64]
0.12934777 -0.26495707 0.036337472 -0.16656928 0.13227281 0.06616035 0.050624665 -0.21214385
0.0026945858 0.06118225 0.065230854 -0.2189593 0.006274945 -0.2243987 -0.02306525 0.2430271
0.3237794 -0.1940081 -0.087499075 -0.03771269 -0.0695898 0.19527377 0.041637897 -0.19847254
-0.2977937 0.23774827 0.22655162 0.028226232 0.052341197 0.17925942 -0.07993725 -0.15350004
-0.059417386 0.1613058 -0.12665677 -0.28639862 0.08087526 0.23680049 -0.19263871 -0.066635855
-0.13632049 0.0061748917 -0.0021945708 -0.2881029 -0.2994929 0.1191268 0.18020922 0.074553534
-0.097346865 0.14240402 0.08321088 -0.057592977 -0.111813754 0.3224293 0.077572554 -0.12149851
-0.3557001 0.12634115 -0.14560497 0.114197165 -0.21458878 0.21128993 0.34756142 -0.05341369
00000000: be73 043e 74a8 87be 9ad6 143d 2391 2abe
00000010: 8672 073e 147f 873d cf5b 4f3d 3d3c 59be
00000020: a697 303b 3d9a 7a3d c197 853d de36 60be
00000030: 0e9e cd3b c6c8 65be 56f3 bcbc 19dc 783e
00000040: 6ac6 a53e 0faa 46be b732 b3bd 9f78 1abd
00000050: 1985 8ebd d9f5 473e 808c 2a3d 633c 4bbe
00000060: 6a78 98be 4874 733e 26fd 673e b33a e73c
00000070: b963 563d c88f 373e 24b6 a3bd 1d2f 1dbe
00000080: a55f 73bd 592d 253e 50b2 01be d7a2 92be
00000090: eea1 a53d d47b 723e 1543 45be 6178 88bd
000000a0: 9997 0bbe bf56 ca3b cad2 0fbb 3982 93be
000000b0: 2257 99be c0f8 f33d c488 383e 86af 983d
000000c0: cb5d c7bd 5cd2 113e 776a aa3d 9de6 6bbd
000000d0: 9cfe e4bd 7415 a53e 5cde 9e3d 36d4 f8bd
000000e0: 531e b6be 935f 013e 7819 15be 34e0 e93d
000000f0: 29bd 5bbe 635c 583e 92f3 b13e 50c8 5abd

weight f4 [64, 64]
0.10486094 -0.06250279 -0.06202523 -0.013104972 0.015975637 -0.0015131643 -0.117057994 0.10157308
-0.06904525 -0.013726953 0.071158156 -0.02171129 -0.05890066 -0.20038837 -0.15033482 0.029296666
-0.11454026 0.13308908 -0.0052863457 0.19808766 0.17483406 -0.0073456457 -0.21235265 -0.009354546
0.0053644585 -0.04863425 0.044241842 0.09326102 0.20238358 -0.0982789 -0.028042475 0.017141506
0.11702967 0.14140472 0.15908886 -0.23687218 -0.17675394 -0.055777658 0.026120432 -0.0075355708
0.051809765 -0.02799398 -0.11998723 -0.042203575 0.08558567 0.024762586 -0.06526818 0.0731753
-0.022063488 0.06822636 0.09323165 0.073199056 -0.054616 -0.12606165 -0.016422113 0.13802916
0.0068516945 0.23723917 -0.057208695 -0.016010797 0.1536299 -0.02369661 -0.14252809 0.19117802
-0.06837096 -0.026899941 0.14721681 -0.07995167 -0.110114634 -0.1541146 0.12778282 -0.17354247
0.17644304 -0.12239972 -0.06516776 -0.09613865 -0.13293035 -0.19319469 -0.07308283 0.057401836
-0.07926939 0.17260721 -0.013598954 -0.03481517 -0.045597278 -0.12787801 -0.07308695 0.08283019
0.17946725 -0.07098029 -0.12825249 -0.009010386 0.056483332 -0.04567176 0.1438458 -0.030898489
-0.19166897 0.027317612 -0.019302323 -0.027616665 -0.120232835 0.068048224 0.108474076 0.014605962
0.068968974 0.114563905 -0.035251703 0.0680086 -0.15324527 -0.16640204 -0.08155166 -0.10485018
-0.14829387 0.07310523 -0.054971885 0.04719389 -0.11362432 -0.040439077 -0.013915945 -0.048623677
-0.036037095 0.03900171 0.022666909 -0.06979752 -0.123981744 -0.0268615 -0.14641528 0.0017282956
0.11825897 0.16407764 0.032523185 -0.019116256 0.12804069 -0.11768361 -0.058665983 -0.20523773
0.110532545 0.013083924 -0.122241035 -0.07937726 0.05890149 0.02887504 0.10910464 -0.12566228
0.054100163 -0.06292755 0.115967736 0.020365005 -0.12731318 -0.06848389 0.13211887 -0.09670648
-0.046785764 0.10477184 0.07971642 -0.041078486 0.057582527 -0.03303202 -0.04070989 -0.05827679
-0.05855242 -0.10329555 0.012511804 -0.08843913 -0.03247238 -0.020299409 0.15020864 0.040281646
0.032063685 0.1174085 -0.048937716 0.07275316 -0.07272222 -0.13748917 0.026078086 0.07173075
-0.10471842 -0.007179772 0.08419085 -0.0016485194 0.08362931 -0.015823586 0.1635412 -0.06619895
0.10147941 -0.12244209 -0.10807517 0.026643647 0.08698146 -0.060160216 -0.049552087 0.041567873
-0.039910994 -0.11185665 0.007207294 -0.054418534 -0.08314088 -0.04351306 0.022569476 -0.09516449
-0.0061268215 -0.045945313 -0.056711342 0.03684123 0.125298 -0.03815553 -0.033693813 0.012780476
-0.015309211 0.0005048219 -0.07884831 0.10162536 0.16759005 0.10190452 -0.020208972 -0.058199905
-0.014493136 0.020154594 0.029009435 0.15477316 -0.0073999115 -0.0880364 -0.11899815 -0.03467497
0.08150052 -0.16654949 -0.043358713 -0.11053281 0.11097346 0.1834929 0.1351134 -0.010076703
-0.029867481 0.03883135 0.016383687 -0.21011625 -0.08318578 -0.070348136 0.057732537 0.022308007
0.073586315 0.011856962 0.0032993536 0.12854883 0.07186865 -0.090898626 0.019931354 -0.14890555
-0.09417709 0.15517813 -0.16881396 -0.024142226 -0.07878868 0.07668858 0.028738068 -0.1373118
00000000: 55c1 d63d 7601 80bd 2b0e 7ebd 3db6 56bc
00000010: 57df 823c 5e55 c6ba 1abc efbd 8c05 d03d
00000020: 9967 8dbd 04e7 60bc 5ebb 913d e0db b1bc
00000030: d241 71bd 9c32 4dbe 5ff1 19be 90ff ef3c
00000040: 1594 eabd 8148 083e 1539 adbb 7ed7 4a3e
00000050: b307 333e beb3 f0bb f972 59be cf43 19bc
00000060: 57c8 af3b b534 47bd ef36 353d a2ff be3d
00000070: a43d 4f3e 7346 c9bd 55b9 e5bc 586c 8c3c
00000080: 40ad ef3d 66cc 103e 31e8 223e 9f8e 72be
00000090: fcfe 34be 1d77 64bd 84fa d53c f3ec f6bb
000000a0: 7a36 543d a253 e5bc ddbb f5bd a8dd 2cbd
000000b0: 8a47 af3d e8da ca3c 53ab 85bd efdc 953d
000000c0: 7dbe b4bc 43ba 8b3d 3cf0 be3d 63e9 953d
000000d0: 07b5 5fbd 4e16 01be ab87 86bc 8457 0d3e
000000e0: 2e84 e03b d3ee 723e aa53 6abd 1329 83bc
000000f0: 2851 1d3e 651f c2bc e2f2 11be 2cc4 433e
00000100: 1306 8cbd 445d dcbc 01c0 163e b3bd a3bd
00000110: c883 e1bd 38d0 1dbe 80d9 023e 1eb5 31be
00000120: 7cad 343e b4ac fabd ad76 85bd 57e4 c4bd
00000130: e51e 08be d4d4 45be 73ac 95bd 301e 6b3d
00000140: fd57 a2bd f2bf 303e 26ce 5ebc 5a9a 0ebd
00000150: 36c4 3abd 74f2 02be 9cae 95bd e0a2 a93d
00000160: 43c6 373e 1d5e 91bd 9f54 03be 4ca0 13bc
00000170: 115b 673d 5012 3bbd 504c 133e d41e fdbc
00000180: df44 44be 2fc9 df3c e81f 9ebc 583c e2bc
00000190: a23c f6bd de5c 8b3d a827 de3d d84d 6f3c
000001a0: 9b3f 8d3d 7ba0 ea3d 1764 10bd 1848 8b3d
000001b0: 54ec 1cbe 4c65 2abe 8f04 a7bd b1bb d6bd
000001c0: 59da 17be 32b8 953d 332a 61bd 614e 413d
000001d0: deb3 e8bd 72a3 25bd b4ff 63bc 9f29 47bd
000001e0: a29b 13bd 42c0 1f3d f4af b93c 01f2 8ebd
000001f0: 24ea fdbd a60c dcbc e3ed 15be fa87 e23a
00000200: c231 f23d f803 283e 0837 053d b299 9cbc
00000210: 191d 033e 1b04 f1bd be4b 70bd d729 52be
00000220: e35e e23d f45d 563c 8259 fabd 8b90 a2bd
00000230: b042 713d 598b ec3c 4172 df3d 9dad 00be
00000240: 2298 5d3d 29e0 80bd 7e80 ed3d 83d4 a63c
00000250: 635e 02be 4841 8cbd 2b4a 073e 0c0e c6bd
00000260: 6ea2 3fbd 9e92 d63d 5d42 a33d ea41 28bd
00000270: a8db 6b3d 954c 07bd 6abf 26bd a5b3 6ebd
00000280: aad4 6fbd 9e8c d3bd 4ffe 4c3c 931f b5bd
00000290: c201 05bd f24a a6bc 4bd0 193e 5efe 243d
000002a0: 3655 033d de73 f03d ea72 48bd 9cff 943d
000002b0: 63ef 94bd f6c9 0cbe b6a1 d53c 92e7 923d
000002c0: 9c76 d6bd 4b44 ebbb 416c ac3d 2213 d8ba
000002d0: d845 ab3d 77a0 81bc 5877 273e 5193 87bd
000002e0: 70d4 cf3d ebc2 fabd 8456 ddbd c743 da3c
000002f0: 5623 b23d 8f6a 76bd 21f7 4abd 1343 2a3d
00000300: b679 23bd 1915 e5bd 2a2b ec3b f8e5 5ebd
00000310: c445 aabd c03a 32bd 9fe3 b83c 9ae5 c2bd
00000320: 81c3 c8bb 2731 3cbd 274a 68bd d4e6 163d
00000330: 1e4e 003e f948 1cbd 8602 0abd 3465 513c
00000340: 7cd3 7abc 0656 043a 397b a1bd f520 d03d
00000350: ba9c 2b3e 51b3 d03d 498d a5bc 0663 6ebd
00000360: 9e74 6dbc 3f1b a53c 32a5 ed3c db7c 1e3e
00000370: f57a f2bb 6e4c b4bd 4db5 f3bd 5707 0ebd
00000380: bfe9 a63d f38b 2abe e898 31bd 075f e2bd
00000390: 0e46 e33d 90e5 3b3e 2b5b 0a3e c118 25bc
000003a0: a6ac f4bc 9f0d 1f3d 1537 863c b728 57be
000003b0: 4e5d aabd af12 90bd f478 6c3d 48bf b63c
000003c0: 6cb4 963d b443 423c f839 583b 4ea2 033e
000003d0: df2f 933d 0f29 babd 1447 a33c b27a 18be
000003e0: ebdf c0bd 04e7 1e3e 91dd 2cbe ebc5 c5bc
000003f0: f65b a1bd e70e 9d3d 196c eb3c 779b 0cbe

bias f4 [64]
-0.06578168 -0.22657385 0.07360423 -0.0971013 -0.008462789 0.08236526 -0.027491018 -0.07725854
-0.10212159 -0.07022323 0.11917823 0.055878922 0.13686864 -0.04634942 -0.10867808 0.01705623
-0.106977664 -0.123014234 -0.049542915 -0.059194446 -0.045744613 0.17307661 0.15877636 0.05958947
-0.03843511 -0.030318035 0.033964336 0.14538404 -0.010094065 0.019393304 0.017378865 0.09301133
0.038007356 -0.010612158 0.12406881 0.09429356 0.011239324 -0.05154364 0.051748328 0.20529233
-0.07278581 0.060084235 -0.075937234 0.03312259 -0.20845492 -0.20941932 -0.05639231 -0.0029951232
-0.18077625 0.18052047 -0.12953532 -0.027981259 -0.11601246 -0.041297838 -0.019782783 -0.035653796
0.10978432 0.10380407 -0.02717331 0.08352702 -0.062167156 -0.10546972 -0.120099254 -0.13203941
00000000: 8cb8 86bd fa02 68be d1bd 963d 0cdd c6bd
00000010: 82a7 0abc 1eaf a83d d834 e1bc ba39 9ebd
00000020: 2025 d1bd 32d1 8fbd b713 f43d 4ce1 643d
00000030: 4b27 0c3e e4d8 3dbd 9d92 debd 82b9 8b3c
00000040: 1b17 dbbd e3ee fbbd 83ed 4abd e075 72bd
00000050: b45e 3bbd ff3a 313e 4596 223e 1714 743d
00000060: 226e 1dbd 875d f8bc 301e 0b3d 8edf 143e
00000070: 9461 25bc b5de 9e3c 1f5e 8e3c b97c be3d
00000080: 9aad 1b3d 9ede 2dbc ca17 fe3d fb1c c13d
00000090: 2425 383c 6d1f 53bd 0ef6 533d 2738 523e
000000a0: ba10 95bd e31a 763d fb84 9bbd 8eab 073d
000000b0: 3575 55be 0572 56be 9ffb 66bd d449 44bb
000000c0: 691d 39be 5cda 383e e8a4 04be f438 e5bc
000000d0: f197 edbd ec27 29bd 810f a2bc b709 12bd
000000e0: 9ad6 e03d 3a97 d43d 909a debc 3710 ab3d
000000f0: fda2 7ebd 8200 d8bd 99f6 f5bd 5735 07be

weight f4 [6, 64]
0.15114325 -0.049300954 -0.070873044 -0.060001753 0.052084826 -0.01133615 -0.09071477 0.08046966
0.055350423 0.03686423 0.20926267 -0.024680948 0.11913063 0.05328155 -0.11142285 0.09599293
-0.2055066 -0.10011366 -0.029182652 0.07063371 -0.05608622 0.13710892 0.02243524 0.06073224
-0.05821711 0.08217054 -0.0036669518 0.06885749 -0.039831787 -0.17713946 -0.006892851 -0.07829283
-0.109198384 -0.045139454 0.17640449 -0.16272514 -0.14928539 0.028719658 0.11591296 -0.115548305
0.112886645 -0.12360737 0.021306567 -0.0329235 -0.0640604 0.0050827013 0.07528149 0.11462087
0.16534021 0.15052363 -0.14542222 0.09472172 0.053845424 0.039232925 -0.01684088 -0.13288885
0.084254496 0.052378345 -0.08376137 -0.03682939 0.1493451 0.05802167 -0.00690604 -0.06866924
0.020628283 -0.06629209 -0.028039841 -0.11052854 0.025310284 -0.08968912 0.09180129 0.05304944
-0.22666018 0.124110416 -0.048866462 -0.040278085 0.03963005 0.09652664 0.00069901824 -0.04785591
-0.14486197 0.07661738 -0.12562902 0.027897278 0.020362312 -0.09802678 0.08371415 0.04064112
-0.05909114 0.071451254 0.043513715 0.05268309 0.19462562 0.016072454 0.01623921 0.07646352
0.09285748 0.09816783 -0.14680079 0.09083651 0.024146277 0.1793274 0.013661782 -0.086635716
0.19033405 0.06031666 -0.028023284 -0.011557575 0.067117475 -0.09863653 -0.061832495 -0.084690824
-0.021382367 0.044805136 -0.01923542 -0.010287184 -0.04661272 -0.028727813 -0.08851587 -0.10892186
-0.09733943 -0.07801036 0.061492734 0.089946285 -0.12480628 -0.05537507 -0.004676583 0.067416705
0.05727479 0.067847475 0.028762165 -0.055097755 0.043630723 0.13139258 -0.098786734 0.05908436
-0.047552045 -0.037035525 0.0390229 -0.016137322 -0.15534213 -0.045188047 0.017517436 0.15866262
0.03693458 0.012866517 0.04671092 -0.11035664 0.10145077 -0.030277153 0.11481097 0.03611936
-0.05766345 -0.06337078 0.002871609 0.09407858 0.044695735 0.013672392 -0.17003036 0.112381145
-0.07060667 -0.05466698 -0.03322705 0.12568781 -0.10292983 0.0018230148 0.062946945 0.054291666
0.08451986 -0.06696829 -0.11099582 0.1177646 -0.14011821 -0.09527424 -0.053497184 -0.144916
-0.12725486 0.049768277 -0.16359974 0.07924142 -0.077222094 0.030523937 -0.09101346 0.1348343
0.11854429 0.044609826 0.0020052507 0.13803068 -0.10535047 -0.092843994 -0.008080429 0.03548257
-0.12956965 0.121987626 -0.09657796 0.0065960493 0.08185552 -0.023810478 -0.06991978 -0.09864156
0.17824514 -0.0023169694 0.14844295 0.06973372 0.1134207 -0.023904895 0.047067314 -0.13763069
0.18540436 -0.03943076 -0.014537691 -0.05320015 -0.13258255 0.0673423 0.037738007 0.09157138
0.024883227 -0.10299705 0.15905853 0.08820171 -0.027807888 0.10381409 0.19618909 0.060517576
0.11128869 -0.022483416 0.15175346 0.16360669 -0.112300135 0.026900629 0.074629076 0.058411036
-0.0141271455 -0.027628677 -0.0961623 -0.120234795 0.030706048 0.02013897 -0.18187797 0.03660458
-0.014945313 -0.0480411 0.07470722 -0.0151599115 -0.022351166 -0.06329265 -0.078506805 -0.03654911
-0.054702517 -0.12853101 0.06461281 0.099005125 0.005527831 -0.03893146 -0.123379596 0.053386502
00000000: 4cc5 1a3e ccef 49bd e325 91bd 66c4 75bd
00000010: e656 553d 42bb 39bc aac8 b9bd 47cd a43d
00000020: 20b7 623d f2fe 163d f448 563e b32f cabc
00000030: c2fa f33d c13d 5a3d aa31 e4bd f197 c43d
00000040: 5270 52be 6408 cdbd 7510 efbc 68a8 903d
00000050: aaba 65bd 4866 0c3e 1cca b73c 5fc2 783d
00000060: 1075 6ebd 0749 a83d 3e51 70bb 2805 8d3d
00000070: a826 23bd 0c64 35be 6ddd e1bb fe57 a0bd
00000080: 67a3 dfbd 26e4 38bd 61a3 343e 6ba1 26be
00000090: 45de 18be 7d45 eb3c c663 ed3d 97a4 ecbd
000000a0: 1d31 e73d dc25 fdbd 1c8b ae3c cbda 06bd
000000b0: 1932 83bd ca8c a63b 2f2d 9a3d 59be ea3d
000000c0: f24e 293e de22 1a3e 90e9 14be 76fd c13d
000000d0: 058d 5c3d b4b2 203d e3f5 89bc 0414 08be
000000e0: 9f8d ac3d ad8a 563d 158b abbd 6ada 16bd
000000f0: eced 183e 21a8 6d3d 104c e2bb 75a2 8cbd
00000100: a5fc a83c 26c4 87bd cfb3 e5bc ca5c e2bd
00000110: 8357 cf3c eeae b7bd 5102 bc3d 5f4a 593d
00000120: 9b19 68be 9a2d fe3d 3328 48bd a2fa 24bd
00000130: 1f53 223d c2af c53d 523e 373a 8f04 44bd
00000140: b256 14be 93e9 9c3d e5a4 00be d588 e43c
00000150: ddce a63c 44c2 c8bd 5372 ab3d 4e77 263d
00000160: 8d09 72bd 0955 923d 703b 323d 39ca 573d
00000170: f04b 473e 61aa 833c 1708 853c e898 9c3d
00000180: 102c be3d 370c c93d f252 16be 7e08 ba3d
00000190: 6ace c53c 9aa1 373e abd5 5f3c 116e b1bd
000001a0: eee6 423e 9a0e 773d 1691 e5bc fc5b 3dbc
000001b0: e374 893d f301 cabd 1244 7dbd 6272 adbd
000001c0: 132a afbc 9785 373d 9993 9dbc 948b 28bc
000001d0: fbec 3ebd 9756 ebbc cf47 b5bd 6d12 dfbd
000001e0: e559 c7bd e5c3 9fbd cedf 7b3d c235 b83d
000001f0: 6f9a ffbd f8d0 62bd 063e 99bb c511 8a3d
00000200: f898 6a3d 9ef3 8a3d a29e eb3c 2fae 61bd
00000210: 21b6 323d c78b 063e b350 cabd 7102 723d
00000220: efc5 42bd 90b2 17bd 7ad6 1f3d 6b32 84bc
00000230: 0212 1fbe 1a17 39bd ba80 8f3c 7478 223e
00000240: b748 173d 15ce 523c f353 3f3d a902 e2bd
00000250: 6cc5 cf3d cb07 f8bc 0422 eb3d e5f1 133d
00000260: 8230 6cbd 8ac8 81bd 9b31 3c3b 45ac c03d
00000270: e012 373d 2b02 603c 701c 2ebe 1628 e63d
00000280: 3b9a 90bd 7cea 5fbd 1619 08bd 4eb4 003e
00000290: e0cc d2bd 3af2 ee3a 54ea 803d f060 5e3d
000002a0: c018 ad3d ac26 89bd c751 e3bd 912e f13d
000002b0: 267b 0fbe 241f c3bd dd1f 5bbd dc64 14be
000002c0: 194f 02be d2d9 4b3d b186 27be 5349 a23d
000002d0: 9e26 9ebd 560d fa3c 4465 babd 0112 0a3e
000002e0: 59c7 f23d cbb8 363d 866a 033b ea57 0d3e
000002f0: fdc1 d7bd fe24 bebd c763 04bc 2c56 113d
00000300: e8ad 04be a6d4 f93d aaca c5bd ac23 d83b
00000310: dea3 a73d 310e c3bc 1a32 8fbd 9604 cabd
00000320: e585 363e 4cd8 17bb 6e01 183e 8dd0 8e3d
00000330: 1d49 e83d 33d4 c3bc a8c9 403d 0fef 0cbe
00000340: a4da 3d3e 2682 21bd 7f2f 6ebc 67e8 59bd
00000350: b8c3 07be c3ea 893d 2b93 1a3d c789 bb3d
00000360: e9d7 cb3c 1ef0 d2bd 3de0 223e 19a3 b43d
00000370: 5ecd e3bc 7b9c d43d cbe5 483e 47e1 773d
00000380: 53eb e33d 242f b8bc 4265 1b3e 8388 273e
00000390: 9dfd e5bd b55e dc3c 21d7 983d 6940 6f3d
000003a0: 8b75 67bc 8955 e2bc bdf0 c4bd a93d f6bd
000003b0: 408b fb3c 7bfa a43c 383e 3abe afee 153d
000003c0: 30dd 74bc bfc6 44bd 1900 993d 4761 78bc
000003d0: cb19 b7bc 949f 81bd 2dc8 a0bd 85b4 15bd
000003e0: bf0f 60bd a29d 03be b953 843d 33c3 ca3d
000003f0: cf22 b53b 9876 1fbd 71ae fcbd ceab 5a3d

bias f4 [6]
-0.06948456 -0.022830283 0.11569713 -0.012596102 0.052377738 0.08436175
00000000: ec4d 8ebd 9306 bbbc 9ef2 ec3d e25f 4ebc
00000010: 0a8a 563d dac5 ac3d

weight f4 [64, 17]
0.9174526 -0.26801503 -1.5344408 -1.5310633 -1.3053178 2.0591252 2.0461085 2.6225383
-0.7867041 1.0644827 -0.42598367 -0.6526695 -1.2177435 -0.28987235 -0.7729586 0.056952745
0.3102687 -1.7920086 1.1762244 2.330234 0.9407842 0.69835055 -0.32168877 -0.628102
-0.8815078 1.0222812 -0.445727 0.6640446 -0.065568015 0.08073781 -0.11329795 0.041848022
-0.024100192 0.008881099 0.34434614 -0.12814182 0.85339564 0.5622774 0.12582092 -0.25587758
-1.1381503 0.46126038 -1.4967641 0.53570443 -0.20920041 -0.32433814 0.5404081 -1.3212392
1.0378088 0.05262059 -0.1998186 1.5502087 -2.2893407 1.6709337 1.4671335 0.38610435
-0.37536258 -1.9480428 -1.929304 0.5071526 -0.30783865 -0.012014788 0.14826107 -0.06575314
-0.060441926 -0.068599716 0.043384794 0.056051396 1.2354313 0.67340356 1.5872182 0.22517334
-0.122092724 -1.0414947 -0.48827004 -0.09386127 -1.3067966 -1.1991442 -1.0636111 0.99022293
-1.1595073 0.51435244 0.3852378 1.0933086 -0.23593684 -2.4469273 0.14540012 0.7434338
0.34244365 1.2857958 -0.47355202 -0.29701743 -0.5989398 1.0318075 -2.7382448 0.88240415
0.0525482 0.17452487 -0.054393552 0.19485758 0.049740914 0.12896498 0.11796276 -1.4749213
1.2163724 -0.32674786 -0.7349345 -0.653824 -1.3255131 -1.4522587 0.20628504 -0.6635713
0.61025476 -0.0102210445 -0.016260065 -0.052743983 -0.11671927 -0.09835566 0.17140825 2.6857107
0.19301532 -0.7847793 0.01226208 -0.18101782 0.77860373 -1.1471212 -0.31884667 -1.0880055
2.9493294 1.3723922 0.10426764 0.0809834 -0.01401052 -0.263213 -0.11466576 0.010305176
-2.0896149 -1.467357 0.6014132 1.5423957 0.8027467 0.5673895 1.0770423 0.68987733
-0.33883807 1.266101 -0.014847973 1.8419335 0.44963366 0.15533143 -0.9101857 0.044453282
0.08783847 0.7844815 -0.37496334 -1.8820008 -0.49065566 -1.245311 1.5739634 0.4473577
-0.2104203 1.9510119 -0.1791613 1.9509475 0.09385713 0.12715094 0.22556968 -0.18512261
-0.45808557 -0.16856696 0.5136091 -0.3369894 1.9955124 0.8031939 0.57711226 -1.7989275
-4.3198 -2.7047832 -0.8867841 0.9093486 -0.99617845 1.190944 0.5853329 -0.11425793
0.40823045 0.4112491 0.69287276 0.90313995 -0.2926954 -0.84528834 -0.82209194 -0.7441936
1.0694214 1.1081382 1.0093228 -2.429398 -1.0675735 0.9483093 -0.06029508 0.37483895
-0.20278779 0.8761917 -0.60551506 -0.39796558 2.2029033 -1.9718444 -1.739007 1.0528125
-0.8856985 -1.158304 0.15263797 1.5395857 -1.8580372 -1.2001251 -0.41469288 0.47655472
0.5838019 -0.13697329 0.010266718 0.0031847148 -0.543078 -0.39171574 0.7380415 -0.03085293
-0.9062332 -1.0708574 1.8468801 0.6964118 1.2828119 0.48728234 0.68800694 -0.43888223
0.4596732 -0.14698996 -0.34773257 -2.6316466 -0.18064062 -0.3404783 0.3709841 -0.19531323
-2.4323537 -1.9887208 -3.1749542 1.5864359 0.07888714 1.1116619 0.80393493 -2.3862164
-0.0876478 0.7771166 0.06221075 0.14566033 0.15468657 0.502811 0.18363823 -1.5292665
00000000: 2cde 6a3f 4439 89be 8e68 c4bf e2f9 c3bf
00000010: a714 a7bf b5c8 0340 71f3 0240 abd7 2740
00000020: 7165 49bf f840 883f 881a dabe 5915 27bf
00000030: 05df 9bbf 266a 94be 9de0 45bf 4847 693d
00000040: 8adb 9e3e 8a60 e5bf 858e 963f 8e22 1540
00000050: 3cd7 703f 1ac7 323f 64b4 a4be 4bcb 20bf
00000060: 7faa 61bf 1cda 823f 5436 e4be d4fe 293f
00000070: 8648 86bd dd59 a53d c108 e8bd d568 2b3d
00000080: c46d c5bc 0782 113c 234e b03e 9c37 03be
00000090: 2378 5a3f 69f1 0f3f 33d7 003e 6302 83be
000000a0: e9ae 91bf 522a ec3e f795 bfbf ed23 093f
000000b0: a238 56be a60f a6be 2f58 0a3f 5e1e a9bf
000000c0: ebd6 843f b088 573d 3f9d 4cbe 3d6d c63f
000000d0: 8f84 12c0 28e1 d53f 08cb bb3f 78af c53e
000000e0: 862f c0be 7759 f9bf 6ff3 f6bf c1d4 013f
000000f0: 079d 9dbe acd9 44bc c0d1 173e 95a9 86bd
00000100: f491 77bd 027e 8cbd 41b4 313d 2696 653d
00000110: 9d22 9e3f 2d64 2c3f f729 cb3f d793 663e
00000120: c00b fabd b34f 85bf 88fe f9be 563a c0bd
00000130: 1c45 a7bf 8f7d 99bf 6924 88bf 407f 7d3f
00000140: bc6a 94bf 9aac 033f e43d c53e 89f1 8b3f
00000150: 6d99 71be 759a 1cc0 c5e3 143e ad51 3e3f
00000160: c654 af3e f594 a43f 6975 f2be ab12 98be
00000170: 1e54 19bf 4512 843f 673f 2fc0 3de5 613f
00000180: c83c 573d a6b6 323e c6cb 5ebd bf88 473e
00000190: 21bd 4b3d 650f 043e 7696 f13d 39ca bcbf
000001a0: 17b2 9b3f 7f4b a7be ab24 3cbf 0261 27bf
000001b0: 6aaa a9bf 9de3 b9bf 633c 533e cfdf 29bf
000001c0: a839 1c3f 2b76 27bc d433 85bc 130a 58bd
000001d0: 830a efbd b16e c9bd a585 2f3e afe2 2b40
000001e0: cfa5 453e 4ce7 48bf e4e6 483c bc5c 39be
000001f0: 9352 473f ded4 92bf df3f a3be c443 8bbf
00000200: d0c1 3c40 8caa af3f 468a d53d a0da a53d
00000210: 618c 65bc dbc3 86be e2d5 eabd 0ad7 283c
00000220: 40bc 05c0 5bd2 bbbf 37f6 193f 396d c53f
00000230: cf80 4d3f 7040 113f 86dc 893f cd9b 303f
00000240: 2f7c adbe 990f a23f ea44 73bc 7ac4 eb3f
00000250: 6236 e63e 340f 1f3e ee01 69bf a514 363d
00000260: a8e4 b33d c8d3 483f 32fb bfbe 67e5 f0bf
00000270: 3837 fbbe 5a66 9fbf a277 c93f 120c e53e
00000280: 6b78 57be c2ba f93f 0f76 37be a6b8 f93f
00000290: 2b38 c03d db33 023e bdfb 663e c890 3dbe
000002a0: 318a eabe d19c 2cbe e37b 033f e089 acbe
000002b0: f36c ff3f 1e9e 4d3f a1bd 133f 4243 e6bf
000002c0: cd3b 8ac0 2b1b 2dc0 4804 63bf 12cb 683f
000002d0: 8d05 7fbf da70 983f 60d8 153f 1000 eabd
000002e0: 9503 d13e 3e8f d23e 1c60 313f 2e34 673f
000002f0: 2cdc 95be d164 58bf 9e74 52bf 7983 3ebf
00000300: cde2 883f 79d7 8d3f 7d31 813f 427b 1bc0
00000310: 40a6 88bf 66c4 723f f9f7 76bd e4ea bf3e
00000320: 9aa7 4fbe 194e 603f 0903 1bbf 25c2 cbbe
00000330: 5efc 0c40 6665 fcbf c897 debf 8fc2 863f
00000340: 23bd 62bf 4e43 94bf 214d 1c3e 2511 c53f
00000350: 2ad4 edbf b39d 99bf a052 d4be fbfe f33e
00000360: 0b74 153f ba42 0cbe bd35 283c a6b6 503b
00000370: 2907 0bbf f78e c8be 4af0 3c3f 49bf fcbc
00000380: e6fe 67bf db11 89bf 9166 ec3f 0b48 323f
00000390: 2e33 a43f 127d f93e 3921 303f 2cb5 e0be
000003a0: 495a eb3e 8984 16be 010a b2be e66c 28c0
000003b0: dbf9 38be 2c53 aebe a1f1 bd3e 3100 48be
000003c0: afab 1bc0 678e febf 7332 4bc0 5510 cb3f
000003d0: 958f a13d f04a 8e3f aece 4d3f c5b7 18c0
000003e0: b180 b3bd 1df1 463f b3d0 7e3d fb27 153e
000003f0: 2866 1e3e 39b8 003f a90b 3c3e 01bf c3bf

bias f4 [64]
-0.87294066 -0.54750484 -0.34884018 -1.2158818 0.1718024 -0.09221963 -2.1035402 0.81689626
-1.3467704 -2.4144602 -0.08726034 0.3512213 -1.0269624 0.016918594 0.4460551 -0.736842
-0.6107397 -0.91604966 -1.5630784 0.00772149 0.8777063 0.026383175 -0.24996214 -0.7063195
-0.43577498 1.5077767 0.6975893 0.29700953 -1.0201129 1.7419121 -1.2220914 -0.818047
0.46941236 1.1221768 0.38239542 1.9826685 1.0710765 -1.6228307 0.45528015 1.3607697
0.38369706 -0.5839095 -0.24607196 0.7536228 0.6420137 -1.843435 0.017411517 -0.76674014
-0.800527 -3.109542 1.4909644 1.9768809 -2.3212495 -1.6829252 1.7362037 -1.3176876
-1.3954633 -1.3431714 0.13599055 -1.2639325 -1.6935333 1.1284754 -0.09743651 2.0499175
00000000: 0a79 5fbf 4729 0cbf 2e9b b2be 04a2 9bbf
00000010: f8ec 2f3e a5dd bcbd 67a0 06c0 1d20 513f
00000020: f962 acbf 8486 1ac0 8db5 b2bd 47d3 b33e
00000030: 8173 83bf dd98 8a3c 5661 e43e ada1 3cbf
00000040: 7059 1cbf 3b82 6abf f412 c8bf 8e04 fd3b
00000050: 5cb1 603f 8721 d83c 13f6 7fbe 5bd1 34bf
00000060: e61d dfbe d4fe c03f 3695 323f a211 983e
00000070: 0f93 82bf faf6 de3f 7e6d 9cbf 876b 51bf
00000080: d156 f03e 7da3 8f3f 55c9 c33e 15c8 fd3f
00000090: 0919 893f ebb8 cfbf 7b1a e93e b42d ae3f
000000a0: f173 c43e 187b 15bf 4afa 7bbe 6ced 403f
000000b0: 035b 243f aef5 ebbf 99a2 8e3c 1549 44bf
000000c0: 56ef 4cbf bc02 47c0 ecd7 be3f 6f0a fd3f
000000d0: 5a8f 14c0 186a d7bf ec3b de3f fda9 a8bf
000000e0: 8b9e b2bf 0aed abbf 1b41 0b3e 8ac8 a1bf
000000f0: b3c5 d8bf e271 903f cb8c c7bd d931 0340

weight f4 [64, 64]
0.3533461 -0.62471235 -0.6305691 0.49740216 0.37682787 -0.12207289 0.10793466 0.31445003
1.9804417 0.8905885 -0.59392375 -1.0760773 0.579269 -0.6967748 0.5482728 1.1638387
-0.3259019 -0.3534068 -0.07575058 0.41021636 0.17836656 0.10545181 -0.2193828 0.06042537
-0.45964542 1.0171112 -0.79540664 1.3216673 0.7420118 -0.1497133 -0.13526292 -0.6197629
1.3511505 -0.15340574 -0.063747585 0.1758076 0.0032679033 0.031751305 -0.6536135 -0.43427557
-0.5013175 -0.5884068 -0.5250743 0.34388107 2.6586185 0.8172994 0.19974637 0.1421095
-0.29692778 -0.2967073 -0.2869825 0.70225793 0.63663703 -0.05169577 -0.66134727 0.8065244
-0.69199395 -0.34820163 -0.91239923 0.39874685 -0.8350973 0.98588574 -0.098253794 -0.6310771
0.39262104 -1.4205917 0.5029166 0.5200232 0.09684127 -0.8593003 0.92662275 -0.18193218
-0.7137323 0.5074483 -0.5573078 0.31463993 0.40540457 0.21776006 -0.45437315 -0.2117396
-0.96563023 0.41901997 1.1630875 -0.032350138 -0.5350836 0.2923905 -0.8893715 1.812854
-0.2378575 0.5156517 1.2887034 0.055068623 0.4008711 0.9144746 1.6497997 -0.30293074
1.2410473 -0.5006404 -1.0596939 -0.4820779 0.023825306 -0.20586118 0.59437495 -0.59278345
0.3582375 -0.86707276 -0.18599057 -0.025507342 -0.0036940302 0.52321327 -1.1061789 0.69844854
-0.0360085 1.1447554 -0.22160897 -0.84591126 -0.1339214 -0.03381874 0.76058954 -0.005080741
0.62189585 -0.45462185 -0.8236095 0.77558357 1.0212497 1.1925808 -0.1883733 0.17166907
-0.5881733 -0.16910356 0.21052805 1.0488824 -0.08648875 -1.1013163 0.8726276 1.2229259
-0.32863054 0.5672771 0.37565482 -0.23003681 0.35838038 -0.48287907 0.13456054 -0.7781565
0.27055946 0.7261402 0.48618367 0.12144692 0.7826447 0.5726101 0.40086067 -0.16701059
1.521961 0.34769672 0.18508105 1.6895648 -0.6286461 -0.109691836 -1.1222032 -0.095813915
1.5999334 -0.037208762 0.099014595 -0.75435287 -0.1907904 0.5111369 -0.13035639 0.5994722
-0.97795707 1.1948233 -0.77314776 -0.42947745 -0.32352722 0.98077476 0.7886397 0.79694915
-0.91502845 0.18252449 -0.11232568 -0.3616728 0.6816356 0.6773315 -2.097345 -0.7514211
-0.73315173 1.7108955 0.007964163 -0.13944651 0.01134729 1.1503909 -0.7206548 0.29130337
0.13414025 1.4547035 -0.7119763 -0.977534 1.1948278 0.7294356 -1.1680853 0.10144182
-0.8966641 0.30700165 -0.48974547 -0.28342405 -0.24137564 -0.62469697 0.65380394 0.8730169
0.9338422 -0.6613941 -1.7473141 0.7528273 0.24047497 0.3968972 -0.1241188 -0.46523014
-0.14818642 0.1030865 -0.6036434 -0.36429143 0.14423113 -0.075030416 -1.0640248 -0.2661792
-0.8936399 0.2844893 0.36078757 0.9033155 -0.031345166 -0.5376506 0.2175273 0.74176717
-0.2186514 0.07142056 0.3608941 0.12281016 0.27341583 -0.45423362 0.5985745 0.48948207
-0.12934485 -1.0182693 0.76796675 -0.07632949 0.3603908 -0.00012962014 -0.25154504 -0.716953
-0.36774638 -0.5271517 0.68612796 -0.33141732 0.26071167 -0.827274 0.57452595 0.07203095
00000000: c8e9 b43e 26ed 1fbf fa6c 21bf 7fab fe3e
00000010: 95ef c03e 5a01 fabd d90c dd3d 98ff a03e
00000020: 1d7f fd3f 9cfd 633f 630b 18bf e7bc 89bf
00000030: f94a 143f d55f 32bf 9b5b 0c3f abf8 943f
00000040: 9ddc a6be bcf1 b4be 1f23 9bbd e107 d23e
00000050: b9a5 363e 1ef7 d73d e2a5 60be 9880 773d
00000060: a556 ebbe b330 823f c59f 4bbf 652c a93f
00000070: 7cf4 3d3f 714e 19be 5d82 0abe c8a8 1ebf
00000080: 80f2 ac3f 6516 1dbe 188e 82bd e806 343e
00000090: 522a 563b a80d 023d 3753 27bf 5e59 debe
000000a0: 5856 00bf d4a1 16bf 456b 06bf 2e11 b03e
000000b0: ce26 2a40 893a 513f 508a 4c3e 2785 113e
000000c0: eb06 98be 05ea 97be 5fef 92be 2dc7 333f
000000d0: a5fa 223f f2be 53bd 0e4e 29bf 6278 4e3f
000000e0: 8426 31bf 7c47 b2be ff92 69bf 8c28 cc3e
000000f0: f0c8 55bf 0263 7c3f 4939 c9bd 458e 21bf
00000100: a005 c93e f3d5 b5bf 24bf 003f 3e20 053f
00000110: b754 c63d 1bfb 5bbf 2637 6d3f 6e4c 3abe
00000120: 29b7 36bf 22e8 013f b9ab 0ebf 7c18 a13e
00000130: 3091 cf3e 7efc 5e3e 99a3 e8be 44d2 58be
00000140: 8b33 77bf c989 d63e 0de0 943f 9481 04bd
00000150: 3dfb 08bf 35b4 953e daad 63bf 9a0b e83f
00000160: eb90 73be c001 043f 3cf4 a43f a38f 613d
00000170: fa3e cd3e 021b 6a3f a32c d33f bd19 9bbe
00000180: a3da 9e3f f829 00bf 0da4 87bf ead2 f6be
00000190: 4a2d c33c 46cd 52be f528 183f a8c0 17bf
000001a0: e86a b73e 7bf8 5dbf 5074 3ebe c6f4 d0bc
000001b0: 8b17 72bb 4ef1 053f 4597 8dbf 86cd 323f
000001c0: a67d 13bd 5887 923f 76ed 62be a48d 58bf
000001d0: b122 09be 8585 0abd ffb5 423f 587c a6bb
000001e0: 9134 1f3f 32c4 e8be 12d8 52bf a58c 463f
000001f0: 4fb8 823f 7da6 983f eee4 40be 04ca 2f3e
00000200: 8692 16bf 7c29 2dbe aa94 573e c741 863f
00000210: 0421 b1bd eff7 8cbf 8664 5f3f d688 9c3f
00000220: 4342 a8be 1239 113f d455 c03e c58e 6bbe
00000230: a27d b73e ed3b f7be 3dca 093e 4435 47bf
00000240: c586 8a3e 53e4 393f 11ed f83e 2ab9 f83d
00000250: 675b 483f 9396 123f 9c3d cd3e d304 2bbe
00000260: 9ecf c23f 4e05 b23e e385 3d3e a943 d83f
00000270: f3ee 20bf 1da6 e0bd 5ba4 8fbf 163a c4bd
00000280: 9eca cc3f 3768 18bd 2ac8 ca3d 451d 41bf
00000290: 8f5e 43be ded9 023f 257c 05be 0377 193f
000002a0: 655b 7abf f8ef 983f 03ed 45bf 78e4 dbbe
000002b0: 5ca5 a5be 0e14 7b3f 4be4 493f dc04 4c3f
000002c0: 4e3f 6abf b3e7 3a3e 020b e6bd 2d2d b9be
000002d0: ac7f 2e3f 9965 2d3f e73a 06c0 225d 40bf
000002e0: d5af 3bbf a0fe da3f 1f7c 023c 11cb 0ebe
000002f0: fce9 393c 0240 933f d57c 38bf b725 953e
00000300: 105c 093e b933 ba3f 1444 36bf ab3f 7abf
00000310: 1ef0 983f 4bbc 3a3f d283 95bf bbc0 cf3d
00000320: c78b 65bf 522f 9d3e ebbf fabe f51c 91be
00000330: 2d2b 77be 24ec 1fbf b25f 273f 097e 5f3f
00000340: 4810 6f3f 2051 29bf fda7 dfbf 4ab9 403f
00000350: 123f 763e 1c36 cb3e ff31 febd a532 eebe
00000360: 2ebe 17be 041f d33d 6088 1abf 6884 babe
00000370: 53b1 133e 8ca9 99bd f731 88bf a448 88be
00000380: 96c5 64bf 95a8 913e 26b9 b83e af3f 673f
00000390: ca63 00bd 78a3 09bf 7abf 5e3e 74e4 3d3f
000003a0: 27e6 5fbe f144 923d 1dc7 b83e e583 fb3d
000003b0: 29fd 8b3e 4f91 e8be 2e3c 193f 659d fa3e
000003c0: fa72 04be a656 82bf 7899 443f a352 9cbd
000003d0: 2585 b83e a4ea 07b9 83ca 80be 3b8a 37bf
000003e0: 4149 bcbe 6af3 06bf 15a6 2f3f 88af a9be
000003f0: 007c 853e 3bc8 53bf 2214 133f f684 933d

bias f4 [64]
-0.6604826 -1.8216907 -0.96985 1.7610364 1.4239213 -0.96295655 1.6598036 0.75622034
-0.86927557 1.1165888 1.0504396 -0.92306644 2.013778 -0.9181342 0.6409156 -0.761918
1.5973716 0.20329933 -1.7062317 1.9067392 1.6555077 1.3036009 1.170338 -0.0924898
0.95623076 2.034149 1.701718 1.6150527 -1.2689463 -1.6985928 -1.4663931 -1.4341054
1.2114784 1.6287609 0.45332435 1.5889229 -1.6848731 0.77183795 -1.0174001 2.193547
1.7098311 1.2015328 -1.3962218 -1.4971262 -2.0900059 1.531575 -0.18623644 1.1274137
1.4072697 -1.1480148 1.2130699 0.64560395 -1.1004893 1.6231034 1.1473986 2.2127988
-1.9075465 0.2430848 1.7806065 1.9677187 -1.3968773 -0.092245184 1.9588151 0.24201861
00000000: 6315 29bf 292d e9bf 1748 78bf a469 e13f
00000010: 0e43 b63f 5284 76bf 7274 d43f a897 413f
00000020: d888 5ebf 62ec 8e3f ce74 863f 154e 6cbf
00000030: bde1 0040 d80a 6bbf 0b13 243f 0f0d 43bf
00000040: ac76 cc3f b32d 503e cd65 dabf 0810 f43f
00000050: ade7 d33f 65dc a63f a3cd 953f 4b6b bdbd
00000060: 8acb 743f 7f2f 0240 e5d1 d93f 0cba ce3f
00000070: d56c a2bf 7d6b d9bf c5b2 bbbf c490 b7bf
00000080: b911 9b3f 3d7b d03f 211a e83e d361 cb3f
00000090: eca9 d7bf 2c97 453f 2b3a 82bf 1363 0c40
000000a0: bfdb da3f d4cb 993f 65b7 b2bf d5a1 bfbf
000000b0: a8c2 05c0 a60a c43f c4b4 3ebe 184f 903f
000000c0: 6a21 b43f 26f2 92bf e045 9b3f 4d46 253f
000000d0: d5dc 8cbf dac1 cf3f f5dd 923f 7f9e 0d40
000000e0: 7c2a f4bf 39eb 783e eaea e33f 35de fb3f
000000f0: e0cc b2bf 0beb bcbd 74ba fa3f bad3 773e

weight f4 [1, 64]
-1.9426129 -2.797088 -1.6425033 2.5282068 2.5115209 -2.2227995 2.200185 3.2041476
-2.0488763 2.8367515 2.8902605 -1.91523 2.625053 -2.7901056 3.0916936 -1.8249943
2.5006244 1.5595305 -2.57312 2.6678927 2.6855261 2.414467 2.4817207 1.4451754
3.010308 2.5498252 1.404475 2.774491 -2.349266 -2.2959032 -2.8998244 -2.8288105
2.7226462 2.5070138 2.9240322 2.6671221 -2.6932328 1.7872477 -1.6819091 2.6977456
2.36786 2.8250508 -2.6200228 -2.774726 -2.4626422 2.8225129 -3.4572585 2.6116645
2.5230176 -2.85196 2.858899 2.649271 -2.8124115 2.644192 2.703747 2.6007755
-2.6582136 2.1228943 2.7178454 2.6829388 -2.541185 -3.7059956 2.6330755 3.1335034
00000000: 8aa7 f8bf 7d03 33c0 8c3d d2bf 24ce 2140
00000010: c2bc 2040 5942 0ec0 d5cf 0c40 c110 4d40
00000020: ca20 03c0 568d 3540 07fa 3840 4226 f5bf
00000030: de00 2840 1791 32c0 4fde 4540 6a99 e9bf
00000040: 3b0a 2040 b29e c73f 00ae 24c0 c1be 2a40
00000050: a9df 2b40 a186 1a40 83d4 1e40 82fb b83f
00000060: e3a8 4040 5630 2340 d6c5 b33f 4391 3140
00000070: 605a 16c0 14f0 12c0 b996 39c0 3b0b 35c0
00000080: d63f 2e40 ea72 2040 5823 3b40 21b2 2a40
00000090: ed5d 2cc0 88c4 e43f cc48 d7bf dda7 2c40
000000a0: 058b 1740 a2cd 3440 74ae 27c0 1c95 31c0
000000b0: ee9b 1dc0 0da4 3440 b943 5dc0 8325 2740
000000c0: 1f79 2140 8386 36c0 34f8 3640 a88d 2940
000000d0: 8dfe 33c0 713a 2940 310a 2d40 1b73 2640
000000e0: 2c20 2ac0 80dd 0740 2ef1 2d40 45b5 2b40
000000f0: c6a2 22c0 082f 6dc0 4f84 2840 528b 4840
