log/mujoco_ddpg_hopper_v3_3/mujoco_ddpg_hopper_v3_3_s3/pyt_save/model.pt (torch_old, 562676 bytes, 11 tensors)

weight f4 [256, 11]
-0.34479785 1.6572024 0.18686932 5.042249 4.204465 -0.3296102 0.72639525 0.29829004
-0.87831306 0.10772871 -0.6190698 -1.1319025 -1.5294696 6.1075377 -2.4984076 2.4285867
0.069263466 1.4544407 -0.33493927 0.011283156 0.17825915 -0.3178259 -1.9425714 -4.3310485
2.770794 1.2658923 -2.6254146 0.79903495 2.474625 0.88360125 -0.64000577 -0.3811106
0.745759 -2.9945643 -2.3988938 -0.8261107 -0.058773603 1.1026626 1.0612202 0.7935584
1.4277123 -1.8134995 -1.0730392 0.66530156 -0.33271697 5.9596276 -5.820158 -3.6526551
-1.4699999 1.896006 -1.0324093 -0.8801615 0.5914289 0.14671381 0.017977605 -2.4667723
0.1620582 1.9882776 -1.1708457 1.4427223 -0.7089467 0.571589 0.6504863 -0.8208166
-0.1650221 -0.08877014 -1.9938881 -2.407047 3.309071 2.4097226 3.454613 -0.3887209
-0.66583526 0.7670054 -0.27799344 0.18974462 0.27699992 -0.70511734 3.562414 2.7480423
0.60953355 -0.76319563 -1.060576 3.4599118 -0.08624724 -0.21379814 0.021869427 -0.19864729
-2.1121676 2.797371 1.8301917 2.0906956 0.95181954 -0.2469537 0.5512945 0.64020175
-0.31867322 -0.2500435 -0.09324961 -4.502041 -3.160035 0.2030477 -0.99685085 0.6110655
0.77002084 -3.196557 -0.3156418 0.13240641 0.30436185 0.14774962 -0.15610324 -3.4737668
0.6791087 2.7159688 -1.412704 -1.351497 1.7158856 -1.0764726 1.5240709 0.2885614
-0.14846323 -1.7738545 -2.240389 1.6396961 4.7326665 -1.0687578 -2.5861459 0.5527248
-0.5047753 -0.15429385 0.682556 0.020908479 1.0688338 -2.6948307 -2.539946 -0.4712723
0.11351378 -2.0329533 -1.4809427 2.5014489 -2.5267017 -1.1087391 0.031153504 -1.7280535
0.792773 0.8168373 -1.7244548 1.7669648 -2.1364632 0.6386935 -1.2352266 1.5589904
0.35171366 0.31143948 0.089778095 2.0911298 -0.36601812 14.452498 -0.6729945 0.60652816
0.9577091 0.015013383 0.08075927 0.3688089 0.037254825 -0.33318233 -9.928515 0.88090503
-1.5924504 1.9936918 0.7516746 -0.05457263 -1.3842927 0.80498654 0.4074573 0.16950788
-1.1425946 2.7978594 -0.31739548 -4.4506106 3.3539867 -1.881001 2.3330781 0.2141032
-0.050553724 0.16877803 0.061405446 -2.6273727 3.6723628 -0.6038763 3.3772464 -5.599189
1.1423838 -0.43012556 -0.034021277 0.17199266 0.00081945653 -0.47918117 -1.8930006 2.476987
0.9413839 4.8510265 1.0618267 0.74267566 1.537249 0.46726826 -1.2302526 -0.54813886
0.227752 0.30696625 -9.363196 5.442758 -1.0033679 -0.48851705 -1.8001043 -1.3132291
-0.69662845 1.1709563 -0.71750724 -0.1667863 1.7601688 -11.4817095 0.599906 0.06653113
0.06810774 1.2343373 0.06802564 -1.0020791 0.6459794 0.11063472 0.10346884 2.076043
1.4015336 2.810248 5.0513024 0.23824179 -1.0796715 2.7774935 -0.2456129 0.6052552
0.04013498 0.31902748 -0.9539503 -0.33559892 0.86018574 0.71699774 -0.8727761 0.27616885
0.040107775 -0.21712838 0.1594777 0.07431338 0.007871909 -1.7327956 -4.490075 -2.0849235
00000000: 5889 b0be 351f d43f ac5a 3f3e 1b5a a140
00000010: fa8a 8640 abc2 a8be 0af5 393f 79b9 983e
00000020: 20d9 60bf dfa0 dc3d 5c7b 1ebf 2ee2 90bf
00000030: a9c5 c3bf f370 c340 e9e5 1fc0 f76d 1b40
00000040: 01da 8d3d 1d2b ba3f 297d abbe fddc 383c
00000050: 9189 363e 14ba a2be 2ea6 f8bf f397 8ac0
00000060: b054 3140 c208 a23f cb06 28c0 8e8d 4c3f
00000070: 4260 1e40 b133 623f 6bd7 23bf ee20 c3be
00000080: 10ea 3e3f f1a6 3fc0 7a87 19c0 fe7b 53bf
00000090: 97bc 70bd 0c24 8d3f 10d6 873f a526 4b3f
000000a0: 47bf b63f c020 e8bf 5959 89bf 3451 2a3f
000000b0: e159 aabe 45b5 be40 bc3e bac0 1ac5 69c0
000000c0: f528 bcbf 53b0 f23f fd25 84bf 4452 61bf
000000d0: e267 173f 253c 163e c545 933c 99df 1dc0
000000e0: 96f2 253e e17f fe3f 46de 95bf 20ab b83f
000000f0: 887d 35bf a853 123f 4586 263f 0921 52bf
00000100: 8efb 28be 1fcd b5bd ba37 ffbf 0f0d 1ac0
00000110: d2c7 5340 e538 1a40 6118 5d40 6d06 c7be
00000120: 2e74 2abf 775a 443f 2855 8ebe 6a4c 423e
00000130: efd2 8d3e 9282 34bf 97fe 6340 eddf 2f40
00000140: 640a 1c3f ca60 43bf f4c0 87bf 326f 5d40
00000150: 65a2 b0bd e6ed 5abe 8327 b33c 326a 4bbe
00000160: c12d 07c0 2008 3340 b943 ea3f f5cd 0540
00000170: 72aa 733f 6ee1 7cbe a321 0d3f 43e4 233f
00000180: 2329 a3be b405 80be a7f9 bebd b810 90c0
00000190: 033e 4ac0 bceb 4f3e 9e31 7fbf ca6e 1c3f
000001a0: 1620 453f 6494 4cc0 cd9b a1be 8c95 073e
000001b0: 51d5 9b3e ad4b 173e 87d9 1fbe 3252 5ec0
000001c0: 11da 2d3f 6fd2 2d40 7cd3 b4bf dbfd acbf
000001d0: 24a2 db3f dbc9 89bf c114 c33f 52be 933e
000001e0: bf06 18be aa0d e3bf 8962 0fc0 90e1 d13f
000001f0: 0172 9740 0ecd 88bf 6a83 25c0 5f7f 0d3f
00000200: f438 01bf 35ff 1dbe fdbb 2e3f 4248 ab3c
00000210: 8ccf 883f 1b78 2cc0 7a8e 22c0 9a4a f1be
00000220: ea79 e83d e81b 02c0 888f bdbf bd17 2040
00000230: 7bb5 21c0 2aeb 8dbf a235 ff3c db30 ddbf
00000240: 2cf3 4a3f 401c 513f efba dcbf e72b e23f
00000250: d0bb 08c0 6b81 233f e81b 9ebf ff8c c73f
00000260: d013 b43e ff74 9f3e 94dd b73d 12d5 0540
00000270: ba66 bbbe 6f3d 6741 5e49 2cbf 6e45 1b3f
00000280: 6c2c 753f b1fa 753c 1e65 a53d 85d4 bc3e
00000290: 8498 183d e096 aabe 33db 1ec1 fe82 613f
000002a0: 6ad5 cbbf 4b31 ff3f bf6d 403f 8d87 5fbd
000002b0: 8130 b1bf 9913 4e3f 3e9e d03e 7993 2d3e
000002c0: 8a40 92bf 2110 3340 a981 a2be 676b 8ec0
000002d0: b8a7 5640 a4c4 f0bf 2751 1540 df3d 5b3e
000002e0: 6c11 4fbd 26d4 2c3e 4784 7b3d e026 28c0
000002f0: fe07 6b40 a397 1abf ce24 5840 8e2c b3c0
00000300: a239 923f 6b39 dcbe e559 0bbd d81e 303e
00000310: ccd0 563a 3c57 f5be d84d f2bf f486 1e40
00000320: 89fe 703f 9c3b 9b40 f0e9 873f fe1f 3e3f
00000330: 93c4 c43f c93d ef3e eb78 9dbf d452 0cbf
00000340: d237 693e ae2a 9d3e a7cf 15c1 132b ae40
00000350: 5c6e 80bf e81e fabe d169 e6bf e417 a8bf
00000360: 3e56 32bf e5e1 953f 8eae 37bf 07ca 2abe
00000370: 364d e13f 15b5 37c1 7193 193f 7941 883d
00000380: 127c 8b3d c4fe 9d3f 0751 8b3d 2144 80bf
00000390: e85e 253f 7594 e23d 79e7 d33d e3dd 0440
000003a0: 7465 b33f 1adb 3340 45a4 a140 a8f5 733e
000003b0: ad32 8abf 74c2 3140 f381 7bbe 01f2 1a3f
000003c0: 9464 243d 9257 a33e 1636 74bf 9fd3 abbe
000003d0: 2235 5c3f 2a8d 373f 416e 5fbf 0166 8d3e
000003e0: 0d48 243d e756 5ebe 1f4e 233e 9d31 983d
000003f0: 2ef9 003c 3fcc ddbf b2ae 8fc0 636f 05c0

bias f4 [256]
-0.22822344 -1.213341 -1.826406 -3.059422 -4.2194448 -2.8517125 1.8711451 -1.412078
-1.5427066 -0.8157258 -1.2629403 -1.8849045 -2.4466827 -0.96404064 -1.3162093 -1.6862665
1.2919023 -2.5745857 -1.6067431 -0.021452112 0.6648802 1.8804759 -0.73100126 -2.1669676
-2.9348066 -1.5950963 -0.16641422 -1.5054793 -1.7196919 -0.0236907 -1.5457629 1.1936959
-3.0189645 -2.6724288 -2.098987 -1.532238 -2.240638 -2.7247546 -1.9266511 -0.5620317
-1.1225997 -1.4795374 -0.57389784 -1.7618815 -3.2316155 -1.8834634 -0.95805204 -2.7371473
-1.4307156 -1.0706396 -2.0127158 -2.2947493 -2.5052423 0.6089388 0.9978014 0.21814303
0.102605894 -0.89232415 -0.9031771 -1.8977119 -1.7226433 -2.0057564 -1.9197704 -2.4321296
-2.4406042 -3.144288 0.34682247 -2.7014177 -1.1046218 -0.16636854 -2.8293731 -2.6970007
-2.3538554 -2.636311 0.07312623 -1.5922089 2.6360052 -2.013152 1.5134108 -0.18817486
-1.8884331 -3.2776046 -1.70848 0.23361535 -1.4957268 -1.7420014 -1.6550021 0.0805223
-1.2747822 -1.9364482 -1.1009436 -1.2719531 -1.1785622 2.9564574 -1.5077062 -2.3908458
0.89388186 2.3545957 -2.0648217 -1.8345977 0.30926767 -2.6454513 -1.5747858 -0.68577033
-2.2937255 -2.1117864 -2.2285657 -1.1322584 -1.3087492 -4.0181127 -2.8125894 -2.5802257
1.0126463 -2.5959842 -0.9511737 -1.1626278 3.290583 -0.0064776917 -0.9950973 -1.9829229
-0.35778916 -2.3079154 0.73693717 -2.342494 -2.5078566 -0.9948801 -2.3446684 -1.6895523
-1.1288155 -1.1867555 -3.7589393 -2.3569808 -2.700747 -1.6153967 0.2004358 -3.9131596
-1.1606152 -1.214908 -3.183091 2.7517612 -1.0285686 -1.307092 -2.233311 -0.8999012
-3.0147953 -1.5680611 1.3604044 1.7318833 -0.19538918 -1.3651118 -2.929984 -0.92263573
-1.6726855 -0.2628896 0.6490097 -3.0978136 1.910731 3.2451816 -0.7054856 -0.7540681
-2.056306 -1.9527125 -0.30861068 -1.0913855 -1.7787273 -2.7016013 -1.1981895 1.8346243
0.39374092 0.12583125 1.0726072 -3.307544 -3.1298354 -1.168462 -1.0609933 -3.3376608
-1.6806847 -0.36825275 -2.8722074 -1.6095771 -1.8416877 0.06322096 -3.0285625 -2.7816854
-0.233239 -1.3022178 -3.3375516 -1.6477143 -2.752028 0.3111908 -1.8003039 -2.8083045
-2.5055528 -0.61447924 -2.6271074 -1.4451592 -1.6198846 -1.0706859 -0.9567919 -0.5039863
-2.14903 -2.3951552 -3.314777 -1.4854797 -2.3856435 -3.5352495 1.3724765 -1.54639
-2.9463396 -1.7104189 -0.05948586 -2.797169 -1.7039673 -1.3629178 -2.5990794 0.1515849
-2.2637768 -0.045055628 -0.88084984 -2.0572598 -0.97585624 -1.9042364 -1.3390296 -1.6051276
0.5963636 -2.9685154 -3.7846246 -1.5255545 -1.4637212 0.67196155 -0.14184701 0.1851756
-0.34794703 -2.7711318 -1.4770973 -1.7897538 0.786903 -0.01229036 -0.7368603 -1.8767058
-2.2910752 -1.0946339 -1.4332972 0.71679145 1.5763102 -2.9550204 -2.7615752 -0.7018691
-3.1307256 3.5157645 -1.5162379 -2.270902 -0.5359172 -0.6751036 1.0310799 -1.7236854
00000000: 68b3 69be c24e 9bbf acc7 e9bf 92cd 43c0
00000010: b105 87c0 7582 36c0 af81 ef3f f9be b4bf
00000020: 6977 c5bf 68d3 50bf 07a8 a1bf 8d44 f1bf
00000030: 7396 1cc0 5ecb 76bf 8c79 a8bf 95d7 d7bf
00000040: 0e5d a53f 03c6 24c0 c2a9 cdbf 57bc afbc
00000050: 9735 2a3f 6fb3 f03f e622 3bbf 99af 0ac0
00000060: dfd3 3bc0 1e2c ccbf 7d68 2abe 8cb3 c0bf
00000070: dd1e dcbf 0013 c2bc 8fdb c5bf 07cb 983f
00000080: b736 41c0 1309 2bc0 ce55 06c0 6020 c4bf
00000090: 9d66 0fc0 6162 2ec0 819c f6bf 4fe1 0fbf
000000a0: 59b1 8fbf 7b61 bdbf f8ea 12bf 5585 e1bf
000000b0: cad2 4ec0 5415 f1bf e642 75bf 6c2d 2fc0
000000c0: b021 b7bf b80a 89bf 56d0 00c0 2cdd 12c0
000000d0: e455 20c0 6ae3 1b3f ea6f 7f3f e360 5f3e
000000e0: 0a23 d23d 5b6f 64bf 9d36 67bf 39e8 f2bf
000000f0: 937f dcbf 505e 00c0 09bb f5bf 03a8 1bc0
00000100: dc32 1cc0 043c 49c0 b792 b13e 07e4 2cc0
00000110: 3f64 8dbf 845c 2abe 7314 35c0 a99b 2cc0
00000120: 91a5 16c0 52b9 28c0 34c3 953d 80cd cbbf
00000130: 4fb4 2840 7bd7 00c0 72b7 c13f e9b0 40be
00000140: 2db8 f1bf 46c4 51c0 79af dabf dd38 6f3e
00000150: fa73 bfbf e7f9 debf 1cd7 d3bf e0e8 a43d
00000160: 102c a3bf 89dd f7bf b8eb 8cbf 5ccf a2bf
00000170: 20db 96bf 9936 3d40 84fc c0bf 9e03 19c0
00000180: 71d5 643f b2b1 1640 0a26 04c0 19d4 eabf
00000190: 5558 9e3e 134f 29c0 9592 c9bf a58e 2fbf
000001a0: 66cc 12c0 8227 07c0 d2a0 0ec0 d8ed 90bf
000001b0: 1885 a7bf 6194 80c0 7701 34c0 6b22 25c0
000001c0: 659e 813f 9b24 26c0 1f80 73bf fdd0 94bf
000001d0: e998 5240 d142 d4bb b2be 7ebf 6bd0 fdbf
000001e0: 2430 b7be e3b4 13c0 eaa7 3c3f 6ceb 15c0
000001f0: b980 20c0 76b0 7ebf 0c0f 16c0 4043 d8bf
00000200: 077d 90bf 9be7 97bf 7692 70c0 c6d8 16c0
00000210: 0ad9 2cc0 52c5 cebf 0b3f 4d3e 3571 7ac0
00000220: 0a8f 94bf 1b82 9bbf c3b7 4bc0 db1c 3040
00000230: 23a8 83bf ca4e a7bf 91ee 0ec0 ed5f 66bf
00000240: 68f2 40c0 3ab6 c8bf bb21 ae3f 5aae dd3f
00000250: 1a14 48be fcbb aebf dc84 3bc0 db31 6cbf
00000260: 8f1a d6bf 7799 86be 8025 263f 9442 46c0
00000270: d592 f43f 0eb1 4f40 b49a 34bf 9b0a 41bf
00000280: 849a 03c0 7cf2 f9bf 3802 9ebe 85b2 8bbf
00000290: 56ad e3bf 09e7 2cc0 465e 99bf f8d4 ea3f
000002a0: 6998 c93e e8d9 003e 314b 893f cdae 53c0
000002b0: 394f 48c0 2a90 95bf a1ce 87bf 3c9c 55c0
000002c0: ad20 d7bf a08b bcbe 3fd2 37c0 9f06 cebf
000002d0: 6cbc ebbf fe79 813d f8d3 41c0 2207 32c0
000002e0: 34d6 6ebe 13af a6bf 729a 55c0 4de8 d2bf
000002f0: 3a21 30c0 6754 9f3e 5c70 e6bf 43bb 33c0
00000300: fa5a 20c0 834e 1dbf 8722 28c0 fafa b8bf
00000310: 6158 cfbf 3c0c 89bf 50f0 74bf 3f05 01bf
00000320: b589 09c0 394a 19c0 4e25 54c0 3324 bebf
00000330: 62ae 18c0 8741 62c0 4fad af3f 1cf0 c5bf
00000340: d490 3cc0 02ef dabf 72a7 73bd d104 33c0
00000350: 9a1b dabf 1774 aebf 5157 26c0 1239 1b3e
00000360: b8e1 10c0 408c 38bd 607f 61bf 25aa 03c0
00000370: b7d1 79bf 05be f3bf 5265 abbf d274 cdbf
00000380: 49ab 183f 28fc 3dc0 4a37 72c0 5f45 c3bf
00000390: 375b bbbf ac05 2c3f 5840 11be ac9e 3d3e
000003a0: 1d26 b2be 395a 31c0 8611 bdbf a716 e5bf
000003b0: 7a72 493f 825d 49bc e0a2 3cbf e537 f0bf
000003c0: faa0 12c0 f71c 8cbf 4876 b7bf a57f 373f
000003d0: 88c4 c93f 0e1f 3dc0 a6bd 30c0 b1ad 33bf
000003e0: cf5d 48c0 4902 6140 1514 c2bf 7556 11c0
000003f0: df31 09bf 97d3 2cbf 6dfa 833f b9a1 dcbf

weight f4 [256, 256]
-0.62847716 0.038184643 0.009854377 1.7238846 0.051931366 -0.8796154 -0.69823664 -0.8668049
-0.28779814 -1.2037102 -0.28834966 0.175992 0.69395775 -1.9987237 -1.8207691 -0.31192765
-0.56696707 -1.8598956 -1.4930837 -0.878984 -2.5760643 -0.5733125 0.32996783 -0.2673592
0.9512582 -1.2143753 0.32074362 -1.3022038 -0.65782374 -1.8724313 -1.5008988 -0.90434897
1.7976644 -0.8531921 -1.1672794 -0.29459527 -0.56913376 -0.118467614 0.71892047 2.208557
1.0218112 0.23438646 -1.7223972 0.32546282 -0.83634174 -1.8230004 0.2525892 -2.2782645
-1.8157142 0.08640514 -1.5219413 -0.19595994 -1.8947003 -1.5516272 -0.26399738 -2.613295
-0.3858447 -2.1695838 -1.5054175 -1.0809722 -0.4300584 -0.45966628 -1.7877997 0.4925036
-1.1302998 -0.65157807 -1.3761913 0.2993674 -0.19567008 0.21166863 2.874779 -0.11797288
0.17341705 1.3427374 -2.7789137 -0.4035509 -1.3233979 -1.3225114 0.033360053 -0.5942867
0.023504991 2.0447404 -0.34528974 -0.5674072 1.1296941 -0.30077383 -0.88985044 -2.1157446
0.072374806 1.8395016 -1.271029 -0.053673375 -0.20610823 -0.7579108 -0.3293255 -0.68775225
-3.562932 -1.9256696 -0.8642039 -0.5409326 0.07319093 0.3353515 -2.0072014 -1.2802554
0.13887879 -0.4629243 -0.38420442 0.108428344 -1.6309083 0.23369734 -0.13984677 1.1299369
-2.618424 -1.0358063 0.13168176 -0.40316606 -2.3487952 -0.5726603 -1.0694913 0.2302614
-0.66348886 -0.4249539 0.3404135 -0.5084443 -1.283812 0.79863673 0.26791835 0.96815646
0.13580564 -1.7009169 -1.3726183 -1.1364052 -0.25546855 0.1510089 -0.43374005 0.20261382
0.34723958 -0.22280698 -1.6618747 -1.4199796 -0.54027593 0.55706674 -0.56756264 -0.33678138
1.0440553 -1.2360132 0.9361937 -1.4725378 0.7797638 -0.43490794 -1.7137499 -0.37276977
-0.16181612 0.074073404 -0.35838327 -1.9518595 -2.23484 -1.5532229 0.22626126 -0.32864037
-0.93026817 -0.52114886 -2.9160616 -1.8946372 -1.6330175 0.016394781 -3.7021945 0.04703155
-3.4545162 -1.207827 -0.03220309 2.6434999 -1.7689095 -1.3001947 -2.137673 0.28072503
1.0097542 0.9002452 0.714032 0.4261199 0.23876685 0.124799006 0.924541 -0.58899164
-0.033609863 -2.0661144 0.23321846 -1.7250087 -1.0837141 0.055955444 -0.8768784 0.10230731
-2.1953986 0.9785319 -1.6830052 -0.03197322 0.5553427 0.2309403 0.09515403 -0.5679361
1.3858988 0.16684866 0.952895 -1.844788 0.21402371 0.075150535 -0.48095697 -1.1562223
-1.6034291 -0.6836689 -2.873158 -0.97689086 0.46166745 -0.059478555 1.5469817 -2.5683286
-0.5559132 -0.08315863 -0.6349669 -0.6789963 -0.31153387 -1.9331625 0.05507833 -0.2751474
-2.2621264 1.5202055 -0.4798121 1.5944029 -0.85193014 -1.4444786 -0.44396958 0.04150587
1.1219263 -2.529017 0.21950933 -0.40128833 0.3285091 0.28862196 0.27837238 -2.0554624
-1.8468647 1.3878114 -0.4236288 -1.0490727 -0.564168 -0.30422503 -0.4833958 -1.0302429
0.20413059 -2.2109826 1.494122 1.0375843 -0.6599722 0.09395326 -1.7426785 -0.16756968
00000000: e1e3 20bf 8067 1c3d 4174 213c 40a8 dc3f
00000010: fcb5 543d 7a2e 61bf a3bf 32bf ede6 5dbf
00000020: 475a 93be 2d13 9abf 91a2 93be 3f37 343e
00000030: 37a7 313f 2ed6 ffbf f60e e9bf fbb4 9fbe
00000040: c124 11bf 0f11 eebf 5e1d bfbf 1805 61bf
00000050: 3dde 24c0 9cc4 12bf 8bf1 a83e 4ee3 88be
00000060: a885 733f a670 9bbf 8238 a43e 9dae a6bf
00000070: 2367 28bf d4ab efbf 741d c0bf 6a83 67bf
00000080: de19 e63f cc6a 5abf 6969 95bf 31d5 96be
00000090: c0b2 11bf 269f f2bd 2c0b 383f ff58 0d40
000000a0: b6ca 823f 0103 703e 8377 dcbf 10a3 a63e
000000b0: 7e1a 56bf 1458 e9bf 5f53 813e 16cf 11c0
000000c0: 5369 e8bf 2ef5 b03d f9ce c2bf b9a9 48be
000000d0: 8a85 f2bf b89b c6bf aa2a 87be 3a40 27c0
000000e0: 708d c5be 76da 0ac0 85b1 c0bf 4c5d 8abf
000000f0: 9d30 dcbe 6159 ebbe 9fd6 e4bf 6f29 fc3e
00000100: aaad 90bf d2cd 26bf 0927 b0bf af46 993e
00000110: bd5d 48be a9bf 583e 61fc 3740 c49b f1bd
00000120: 3d94 313e d2de ab3f b9d9 31c0 399e cebe
00000130: 1a65 a9bf 0e48 a9bf 8da4 083d 2c23 18bf
00000140: 8a8d c03c 07dd 0240 d1c9 b0be 9941 11bf
00000150: d199 903f 07ff 99be 3dcd 63bf 5c68 07c0
00000160: 3e39 943d ca74 eb3f 14b1 a2bf 9dd8 5bbd
00000170: 090e 53be 7106 42bf 5a9d a8be 8810 30bf
00000180: 1407 64c0 577c f6bf 773c 5dbf 8f7a 0abf
00000190: 20e5 953d 31b3 ab3e fd75 00c0 69df a3bf
000001a0: 3e36 0e3e 6a04 edbe 71b6 c4be ae0f de3d
000001b0: 9ac1 d0bf 5b4e 6f3e fe33 0fbe c6a1 903f
000001c0: 4294 27c0 4d95 84bf 95d7 063e c86b cebe
000001d0: a952 16c0 de99 12bf 17e5 88bf a5c9 6b3e
000001e0: 68da 29bf 8f93 d9be ae4a ae3e 6829 02bf
000001f0: f453 a4bf 7573 4c3f 982c 893e 1ad9 773f
00000200: a210 0b3e a5b7 d9bf f5b1 afbf ba75 91bf
00000210: c6cc 82be 14a2 1a3e 2d13 debe ff79 4f3e
00000220: 63c9 b13e 8327 64be 4fb8 d4bf e4c1 b5bf
00000230: 864f 0abf ed9b 0e3f c94b 11bf 9c6e acbe
00000240: 9ba3 853f ae35 9ebf 64aa 6f3f 1e7c bcbf
00000250: 9a9e 473f 41ac debe 285c dbbf aedb bebe
00000260: 20b3 25be ccb3 973d 037e b7be 88d6 f9bf
00000270: 9e07 0fc0 02d0 c6bf 08b1 673e 8d43 a8be
00000280: 0e26 6ebf 036a 05bf c1a0 3ac0 7983 f2bf
00000290: b806 d1bf 594e 863c c1f0 6cc0 28a4 403d
000002a0: cb16 5dc0 139a 9abf 63e7 03bd 1a2f 2940
000002b0: a06b e2bf c86c a6bf a2cf 08c0 31bb 8f3e
000002c0: a03f 813f 7876 663f cdca 363f 632c da3e
000002d0: 4c7f 743e 9f96 ff3d b8ae 6c3f 28c8 16bf
000002e0: 7faa 09bd 383b 04c0 d2d0 6e3e 16cd dcbf
000002f0: 25b7 8abf 8931 653d 1a7b 60bf 7f86 d13d
00000300: 6981 0cc0 1181 7a3f b76c d7bf 5af6 02bd
00000310: f02a 0e3f 9d7b 6c3e 1ee0 c23d 4364 11bf
00000320: 2265 b13f 60da 2a3e edf0 733f 0322 ecbf
00000330: 0829 5b3e 86e8 993d fe3f f6be 18ff 93bf
00000340: 2a3d cdbf ed04 2fbf d2e1 37c0 8515 7abf
00000350: ad5f ec3e c99f 73bd 7f03 c63f 7f5f 24c0
00000360: 5450 0ebf 124f aabd 318d 22bf b4d2 2dbf
00000370: 5e81 9fbe de71 f7bf d199 613d 1fe0 8cbe
00000380: aec6 10c0 1896 c23f eea9 f5be 6515 cc3f
00000390: 1818 5abf ade4 b8bf fb4f e3be 0f02 2a3d
000003a0: 489b 8f3f 6adb 21c0 0ec7 603e aa75 cdbe
000003b0: 5832 a83e 42c6 933e d386 8e3e b28c 03c0
000003c0: 1066 ecbf cea3 b13f e0e5 d8be 0448 86bf
000003d0: 506d 10bf 62c3 9bbe a87f f7be 00df 83bf
000003e0: 9c07 513e bd80 0dc0 643f bf3f 90cf 843f
000003f0: f0f3 28bf 916a c03d 1710 dfbf 6397 2bbe

bias f4 [256]
-1.9024239 -1.706743 -0.087127484 -0.259526 0.00020152624 -0.07369833 -0.06523667 -2.088316
-0.005587199 -0.057861432 -0.07781964 -0.11256869 -0.10703044 -0.087949686 1.370143 -0.027538657
-0.07454715 0.5902935 -0.1202062 -2.9481485 -0.06776096 -0.3774413 -1.2177542 -0.104704574
-0.1393965 -0.07651718 -0.21650098 -0.36403632 1.3386475 -0.50748706 0.09759399 -1.3766117
-0.072835095 -0.040389035 0.26208538 0.82504857 -0.85987014 -1.8746303 0.00043709957 -0.035514686
-0.028525377 -0.05137101 -0.066889785 -0.11297776 -0.102244966 -0.108771354 -0.052480213 0.016921898
-0.040770553 -0.9932049 1.680582 -0.077588476 -0.0067500914 0.24293934 -0.87059784 -0.09161605
-0.09085389 -0.06475345 -0.089015745 -0.80220145 -0.07611442 -0.18046568 -0.09328059 -0.03007664
-0.008496612 0.004587782 -0.5080245 -0.12870142 -1.9600294 -0.07018635 -0.07273398 -0.054013297
-1.5879265 0.023459911 0.019122995 0.6515172 0.006478636 -0.07902851 -2.0194082 -0.10435371
-0.14604135 -1.2836711 -0.07631836 -0.027460763 -0.24846166 1.4790211 0.21727018 -0.030789146
-0.0136229275 -0.2928782 -0.083587974 -0.18132265 0.004864353 -0.13475482 -0.11141397 -0.6201651
-0.42444927 -0.7142067 0.021443876 -0.041231748 -0.010848687 0.05699559 -0.065055825 -0.0098022735
-0.10124241 -0.019497786 -0.052957825 -2.8602054 -0.4321577 -0.13746846 -0.31441215 -0.017648878
0.39165044 0.01590624 -2.51883 -0.08578294 -0.43954268 1.6657599 -0.014876231 -0.08056579
-0.015085331 -0.07606881 0.020358095 -1.3655155 -0.099038064 -0.07245726 -0.4396125 0.000816533
-0.08513894 -0.011419613 -2.0137117 -1.8037893 -2.793981 -0.12416456 -0.5414147 1.3623344
0.24986246 0.20487006 2.1958528 -0.04426329 -0.029906115 -0.04996571 -0.10013037 -1.1424162
-0.103321746 -0.07005036 -0.049927782 0.012111635 -0.4142471 -0.11802701 1.1337488 -0.1508656
1.3655277 -1.6811614 -3.3326335 -0.5597695 -2.3176405 -0.03538164 -0.771951 0.005825171
-0.028327404 -0.06697844 -0.5096423 -0.07833102 2.9512174 -0.5552216 -0.006460535 -2.4516075
-0.13330911 -1.3744705 -0.09534776 -0.7715245 -1.2165974 -0.048717193 -0.06339005 -1.7206419
-0.052463826 0.05403394 -2.162405 -2.171861 0.3269814 -0.0653782 -1.4453316 -0.17065279
-0.014397811 -0.14461128 0.6263544 0.669436 1.2359174 -0.0041289907 -1.6147214 1.0766444
-0.07765847 0.65388644 -1.7970059 -0.1460728 -0.027431615 -0.105408765 -0.08258318 -0.021379612
-0.07774663 -0.08916931 -3.4342806 -0.04790663 -0.11615273 -2.0440204 -0.09335661 -0.016254742
0.10819153 -1.3910292 -0.38440636 -0.0024991897 -0.018239873 0.8009221 -0.061281215 -0.425181
-0.03918849 -0.017442215 -0.05045502 -0.1595101 -0.04338701 1.1870329 -0.07834261 -0.018052755
0.5687723 -0.08504094 -2.4776528 -0.08703148 -0.12523307 -0.07092712 -0.05507193 -0.14797539
-1.442848 -0.607214 1.055267 -0.6441379 -0.09504307 -0.07971592 0.0012603919 1.0364242
-0.06750014 -0.12900251 -0.09392957 -0.022105346 0.046099883 -0.6711593 -0.016681505 0.32847753
-0.8022077 -0.042005785 -0.03314993 -0.010374529 1.1356603 -0.07984464 -0.03858173 -0.068177186
00000000: a082 f3bf 8e76 dabf e56f b2bd 98e0 84be
00000010: ca50 5339 26ef 96bd ce9a 85bd f8a6 05c0
00000020: d214 b7bb 1c00 6dbd e75f 9fbd 6a8a e6bd
00000030: c632 dbbd f71e b4bd d960 af3f c098 e1bc
00000040: 2dac 98bd 7a1d 173f ab2e f6bd 77ae 3cc0
00000050: 42c6 8abd fc3f c1be 5fdf 9bbf 5a6f d6bd
00000060: f5bd 0ebe 0ab5 9cbd 6fb2 5dbe f862 babe
00000070: cd58 ab3f acea 01bf 5cdf c73d d034 b0bf
00000080: 912a 95bd f96e 25bd 0e30 863e 6236 533f
00000090: 7320 5cbf e3f3 efbf 832a e539 d977 11bd
000000a0: 0dae e9bc 686a 52bd 83fd 88bd e260 e7bd
000000b0: cf65 d1bd 84c3 debd 7ef5 56bd cb9f 8a3c
000000c0: 06ff 26bd ad42 7ebf 501d d73f b5e6 9ebd
000000d0: df2f ddbb 17c5 783e 80df 5ebf 32a1 bbbd
000000e0: 9b11 babd 759d 84bd e34d b6bd 135d 4dbf
000000f0: e1e1 9bbd ffcb 38be e509 bfbd 4963 f6bc
00000100: 6035 0bbc 1b55 963b e50d 02bf 4eca 03be
00000110: 3ee2 fabf dcbd 8fbd 8ef5 94bd 0c3d 5dbd
00000120: 2d41 cbbf 002f c03c d4a7 9c3c d5c9 263f
00000130: bd4a d43b b3d9 a1bd fc3d 01c0 66b7 d5bd
00000140: dd8b 15be 564f a4bf cd4c 9cbd 65f5 e0bc
00000150: bc6c 7ebe 9050 bd3f 137c 5e3e 8539 fcbc
00000160: b332 5fbc 22f4 95be 2c30 abbd a5ac 39be
00000170: 2765 9f3b 2bfd 09be 022d e4bd 24c3 1ebf
00000180: 6a51 d9be 40d6 36bf 11ab af3c 9fe2 28bd
00000190: b1be 31bc 3574 693d fd3b 85bd b799 20bc
000001a0: 2e58 cfbd d2b9 9fbc 4eea 58bd 9b0d 37c0
000001b0: c643 ddbe 88c4 0cbe a1fa a0be 6194 90bc
000001c0: 6886 c83e ce4d 823c 8334 21c0 f7ae afbd
000001d0: bd0b e1be 9f37 d53f 6fbb 73bc adff a4bd
000001e0: 7728 77bc f7c9 9bbd 05c6 a63c 36c9 aebf
000001f0: 78d4 cabd 7964 94bd e414 e1be 9a0c 563a
00000200: 535d aebd 5419 3bbc a7e0 00c0 91e2 e6bf
00000210: 96d0 32c0 fd49 febd 279a 0abf f960 ae3f
00000220: f2db 7f3e 75c9 513e da88 0c40 6c4d 35bd
00000230: abfd f4bc d8a8 4cbd 2711 cdbd b23a 92bf
00000240: 5a9a d3bd 9076 8fbd 1381 4cbd e16f 463c
00000250: 3218 d4be 25b8 f1bd ae1e 913f 837c 1abe
00000260: 9dc9 ae3f 4c30 d7bf de49 55c0 0e4d 0fbf
00000270: 3954 14c0 57ec 10bd 959e 45bf 13e1 be3b
00000280: df0e e8bc fe2b 89bd eb77 02bf 046c a0bd
00000290: bfe0 3c40 0123 0ebf e5b2 d3bb 23e7 1cc0
000002a0: 2f82 08be a6ee afbf b045 c3bd a182 45bf
000002b0: 77b9 9bbf ae8b 47bd a4d2 81bd fe3d dcbf
000002c0: 4fe4 56bd b152 5d3d d864 0ac0 c5ff 0ac0
000002d0: 1b6a a73e 01e5 85bd a000 b9bf 9bbf 2ebe
000002e0: cce4 6bbc fb14 14be c358 203f 2860 2b3f
000002f0: 8b32 9e3f 7c4c 87bb 31af cebf 7ccf 893f
00000300: 670b 9fbd 1a65 273f 4a04 e6bf 1c94 15be
00000310: 44b8 e0bc 8de0 d7bd 5f21 a9bd 4c24 afbc
00000320: a039 9fbd 669e b6bd 41cb 5bc0 be39 44bd
00000330: 7ce1 edbd 3bd1 02c0 c031 bfbd aa28 85bc
00000340: 8593 dd3d 3f0d b2bf e9d0 c4be 72c9 23bb
00000350: c96b 95bc 3b09 4d3f 0302 7bbd 53b1 d9be
00000360: 1c84 20bd fae2 8ebc eca9 4ebd 9e56 23be
00000370: 94b6 31bd b2f0 973f 1772 a0bd 5fe3 93bc
00000380: 109b 113f f229 aebd dd91 1ec0 903d b2bd
00000390: 193d 00be 3d42 91bd 1b93 61bd dc86 17be
000003a0: 3eaf b8bf 6072 1bbf fd12 873f 39e6 24bf
000003b0: f1a5 c2bd 1a42 a3bd bc33 a53a 8ca9 843f
000003c0: 833d 8abd 3c19 04be 255e c0bd 4516 b5bc
000003d0: 3bd3 3c3d 19d1 2bbf a7a7 88bc 352e a83e
000003e0: 7c5d 4dbf 420e 2cbd 39c8 07bd eef9 29bc
000003f0: 515d 913f 9685 a3bd e007 1ebd 7ba0 8bbd

weight f4 [3, 256]
-0.674993 0.573657 0.024170874 0.99514055 0.041260857 -0.014621281 -0.027276536 -1.3144828
0.052398134 -0.0070437887 -0.004234654 0.036735147 -0.04499428 0.0067270645 -0.6946404 0.015958035
0.020273143 -0.13725632 -0.020526534 -0.17788759 -0.00344955 2.7018487 1.0489725 0.006452292
-0.029865354 -0.011914058 -0.0018183328 -0.67976063 -0.18022655 -1.5030718 -0.026109284 2.499682
0.010494089 0.02894667 0.5264396 0.33813718 -0.35123107 1.2106299 0.020564426 0.06591942
0.01787785 0.010824895 0.0054224683 -0.002908211 -0.023689112 0.034271248 0.01599702 0.054072864
0.047933027 -0.4297629 -1.2214017 0.00811137 0.04038819 0.17506772 0.17975725 -0.04725092
0.030819686 0.05045453 -0.036719937 -0.0672923 -0.0049868776 -0.50626075 -0.0015133084 0.0058628586
0.07432178 0.015784062 -0.34674445 0.032802723 0.5248973 -0.0022845797 0.051440347 0.01508525
-0.4472118 -0.009394031 0.07287844 0.479642 0.002553972 0.0020681997 -0.36636302 0.025617503
-0.027827097 0.067711584 0.014440728 -0.069389254 0.5631109 -1.3401203 0.044028986 0.028448017
0.033336557 -0.13612351 0.022085091 0.0862479 0.015738389 -0.040551852 -0.08349602 1.0920526
0.16299662 -1.2033501 0.03551376 0.047598217 0.021670816 -0.8148414 0.06932334 0.047467485
0.01085819 0.06365917 0.027306661 0.2234046 0.42636034 0.04949311 -0.013530926 0.058421507
1.5071199 -0.036369592 1.0227191 0.07191426 -0.5261117 0.6178514 0.004182092 0.012269853
-0.01852487 -0.020889949 0.046724148 0.863145 0.09056952 0.057663843 0.7648298 0.56983936
0.04818818 0.024613207 -0.30238384 1.1222054 -0.26431444 0.020667555 0.40749642 0.8886335
0.38524812 0.19604334 0.37071413 0.048977643 0.013641222 0.0005122651 -0.038926512 -0.38435513
0.032619976 0.040297598 0.038013343 0.050848577 0.12910171 0.028722435 0.08644025 -0.028624367
0.30760527 0.9708248 0.13832779 0.17282152 -0.37920776 0.021591485 -1.2124492 0.048819046
-0.03611454 0.07598209 0.24586783 0.01626209 0.16999435 0.41088113 -0.03620832 1.0340334
0.02175586 -0.6324127 0.04084833 -0.08275903 -0.9538935 0.035893556 -0.028774265 -3.2752442
0.026232742 -1.6200008 -1.352523 1.5219272 1.9371008 0.0074332575 -1.1927154 0.07580983
0.058263153 0.048117545 -0.26451457 -0.07597847 -0.10860609 0.015610901 -0.5662377 0.5630439
0.02847722 0.41530603 -1.0793233 0.7059102 -0.0024034462 0.005821827 -0.006435172 0.03438734
0.021694386 0.0038626858 -0.08028907 0.0129341055 0.017544301 -1.585122 -0.01052433 -0.014755285
0.19926728 0.3819567 0.47032508 0.03134602 0.014128975 -0.7248444 0.02976795 0.6692204
0.00920303 0.07809979 0.004834403 0.02564261 0.030550327 1.4736582 -0.026474686 -0.032677468
-0.75881606 0.048220187 -0.122675434 -0.001012264 -0.015336277 0.018001702 0.008882867 0.024435075
-1.2425456 0.6917019 -0.26800624 0.08653893 0.010300593 -0.0072946404 -0.016406307 -1.1342933
-0.0654178 0.024177138 0.019626953 -0.0066071805 -0.3847999 0.075873375 0.0080086505 0.48414412
0.10454643 0.010349468 0.058700062 -0.007803644 0.46601382 -0.0489117 0.005116247 -0.011655166
00000000: 57cc 2cbf 2fdb 123f ff01 c63c 88c1 7e3f
00000010: 2501 293d 198e 6fbc 0b73 dfbc f940 a8bf
00000020: 6d9f 563d 95cf e6bb dac2 8abb 9877 163d
00000030: ec4b 38bd b56e dc3b f4d3 31bf 6dba 823c
00000040: dd13 a63c ec8c 0cbe 4327 a8bc 2a28 36be
00000050: d811 62bb 17eb 2c40 bb44 863f c06d d33b
00000060: 30a8 f4bc 2e33 43bc 2055 eeba cb04 2ebf
00000070: 4f8d 38be a864 c0bf 23e3 d5bc cafa 1f40
00000080: 66ef 2b3c 9121 ed3c bfc4 063f 5120 ad3e
00000090: 8fd4 b3be ecf5 9a3f ba76 a83c c300 873d
000000a0: 9274 923c e75a 313c f6ae b13b af97 3ebb
000000b0: ab0f c2bc 0260 0c3d 2f0c 833c 827b 5d3d
000000c0: 6c55 443d e209 dcbe e456 9cbf 8de5 043c
000000d0: 166e 253d f444 333e 4912 383e 2e8a 41bd
000000e0: 9179 fc3c 69a9 4e3d a567 16bd 8cd0 89bd
000000f0: f668 a3bb 4e9a 01bf 345a c6ba 391d c03b
00000100: 0436 983d 944d 813c 7d88 b1be 265c 063d
00000110: ab5f 063f e3b8 15bb 1db3 523d 2028 773c
00000120: f2f8 e4be 6ce9 19bc 4b41 953d a393 f53e
00000130: 8a60 273b a28a 073b ef93 bbbe ccdb d13c
00000140: a7f5 e3bc 5fac 8a3d ce98 6c3c f41b 8ebd
00000150: 0928 103f 1089 abbf bd57 343d d10b e93c
00000160: ea8b 083d f663 0bbe cbeb b43c bda2 b03d
00000170: cbed 803c b319 26bd f6ff aabd 61c8 8b3f
00000180: 96e8 263e 6007 9abf e076 113d 59f6 423d
00000190: ff86 b13c 7299 50bf 65f9 8d3d 446d 423d
000001a0: 8de6 313c bd5f 823d 38b2 df3c 2dc4 643e
000001b0: e74b da3e 4ab9 4a3d d1b0 5dbc 644b 6f3d
000001c0: 4ee9 c03f 48f8 14bd 76e8 823f c947 933d
000001d0: 42af 06bf 822b 1e3f ee09 893b 7e07 493c
000001e0: 78c1 97bc 6621 abbc d261 3f3d 12f7 5c3f
000001f0: 837c b93d ec30 6c3d e3cb 433f fee0 113f
00000200: f860 453d a3a1 c93c 0ed2 9abe 6da4 8f3f
00000210: 3954 87be 014f a93c 5fa3 d03e 7c7d 633f
00000220: 3e3f c53e 96bf 483e 3ece bd3e c89c 483d
00000230: 6f7f 5f3c 8749 063a 6871 1fbd 32ca c4be
00000240: 869c 053d 180f 253d e1b3 1b3d 9946 503d
00000250: 3d33 043e 504b eb3c 9607 b13d a67d eabc
00000260: 707e 9d3e f987 783f cda5 0d3e 20f8 303e
00000270: 8527 c2be a0e0 b03c 8931 9bbf 7bf6 473d
00000280: d7ec 13bd 7f9c 9b3d c7c4 7b3e 1338 853c
00000290: 0013 2e3e 035f d23e 2d4f 14bd 355b 843f
000002a0: 5839 b23c cce5 21bf 9450 273d 917d a9bd
000002b0: 5d32 74bf 1f05 133d 02b8 ebbc 9a9d 51c0
000002c0: 0ce6 d63c 305c cfbf 791f adbf 83ce c23f
000002d0: ebf2 f73f af92 f33b e6aa 98bf 2f42 9b3d
000002e0: 58a5 6e3d e716 453d 746e 87be 9a9a 9bbd
000002f0: df6c debd ddc4 7f3c f4f4 10bf a523 103f
00000300: 0f49 e93c fea2 d43e 4427 8abf 88b6 343f
00000310: 2383 1dbb 06c5 be3b 23de d2bb bdd9 0c3d
00000320: 6db8 b13c 1d25 7d3b 996e a4bd 92e9 533c
00000330: 11b9 8f3c 47e5 cabf 3d6e 2cbc 27c0 71bc
00000340: b90c 4c3e d48f c33e 73ce f03e af64 003d
00000350: 377d 673c 678f 39bf eadb f33c 0752 2b3f
00000360: 4ec8 163c c8f2 9f3d e969 9e3b 7310 d23c
00000370: ae44 fa3c d5a0 bc3f 71e1 d8bc cfd8 05bd
00000380: c541 42bf 8882 453d 423d fbbd f2ad 84ba
00000390: 0245 7bbc 4e78 933c 7289 113c 112c c83c
000003a0: bc0b 9fbf 6013 313f 1d38 89be 533b b13d
000003b0: d2c3 283c e107 efbb 8566 86bc 8630 91bf
000003c0: c4f9 85bd 220f c63c b4c8 a03c 0c81 d8bb
000003d0: 7e04 c5be 8063 9b3d b736 033c bde1 f73e
000003e0: 701c d63d d190 293c 7a6f 703d b6b5 ffbb
000003f0: 5d99 ee3e a257 48bd 31a6 a73b 4ff5 3ebc

bias f4 [3]
-0.9146448 2.12232 1.4823453
00000000: 2926 6abf 17d4 0740 7ebd bd3f

weight f4 [256, 14]
-1.1854919 -8.882764 3.0871477 0.9400892 -1.2702045 -1.1107919 0.7008541 1.184402
-0.99546653 -0.45931283 -0.47092104 -0.13408652 -0.23132804 -0.67160076 -0.8396162 -5.542948
1.4749917 2.260896 2.1285272 -3.7432725 -1.6655157 1.5883716 -0.35441288 0.14375828
-0.16609034 0.47234204 0.41839176 -0.26454157 -1.8692812 -3.7031271 7.1479573 -0.8339164
-0.19166549 -0.19989794 -0.13747898 0.14283623 0.118298955 -0.1663117 -0.10018925 0.039579563
-0.5746503 -0.31193787 0.10742773 -7.651248 2.00527 0.7623793 1.4666406 -0.049863193
0.7348318 -0.8685464 0.666352 0.35537997 0.0005039276 -0.05851804 -0.051434793 -0.06947011
-2.0211766 5.696838 1.9624577 0.86337936 1.338702 -1.0230734 0.9439546 -0.23663294
0.18784748 0.20504428 0.051296156 0.15011081 0.0052844104 -0.44381183 -1.3071125 -0.6843492
10.925456 12.227299 -1.527035 -0.32772657 -1.5552578 -0.19271992 0.51750344 0.13805673
-0.84115833 0.32427436 0.065637484 -1.3139781 -1.2840537 4.8692164 -3.7372088 -2.751935
1.4169637 -0.9217735 0.12857057 -0.11333102 0.27616137 -0.14722139 -0.23396577 0.24488182
-0.312752 0.026827507 -1.5600724 0.9954 2.8730862 -2.5741994 -0.19207448 -0.9363764
-0.53515524 0.27661508 0.18049277 0.15978365 -0.4228089 0.31819788 0.082587 1.0380535
-3.4866886 6.3269377 0.13074118 -0.567697 3.0258198 -0.3281695 -0.7386941 -0.64910376
0.73914135 0.3869156 0.24434192 0.23627388 0.07942737 0.001955142 -0.18787274 -6.3710885
15.366237 7.636972 0.850452 -1.6774402 -0.6738279 -0.12094413 0.5216746 0.7601717
0.54142183 0.14156854 -0.018609907 0.42502877 -1.6008438 -10.019685 22.417906 -1.6010777
-0.18350965 -0.18915169 -0.038275324 -0.7461905 0.63185304 -0.26753628 0.020154271 0.67137444
-0.77754414 -0.5402519 -3.0645878 0.16124876 -0.9995275 -0.67089313 1.7005392 0.9023362
-0.3428137 0.91632587 -0.8215747 -0.487221 0.24768445 -0.104852006 -0.066895746 0.39565286
-0.8041036 -4.947161 10.26749 7.15673 2.322671 -1.1539264 0.86073035 0.84037244
-0.2492511 0.46112138 0.107539326 -1.3294334 0.66444075 0.092194445 -0.48845872 -4.1539264
6.3342214 3.683677 1.556364 -2.1468203 -0.2008496 0.5135807 -0.47878873 0.24287955
0.16967593 -0.23115891 0.11866134 -0.3775784 -0.69784737 9.659432 -0.30457103 -0.29591915
0.49414778 -0.026186028 0.09548246 0.43369278 -0.23999919 -0.23549163 0.041829836 0.23284957
-0.30480164 0.26038224 -1.1627797 3.3777602 -3.491099 2.6514285 1.5409343 -2.0313585
-0.1526776 0.9155713 -0.86737627 -0.008789447 0.07923557 0.00021690447 0.015594082 0.041904278
-2.5748 2.4289095 -1.8023446 0.3029204 0.45044902 -0.98920256 0.92172354 2.6182375
-2.1642919 -1.2898077 -0.20968868 0.11452264 -0.11584423 -0.32304537 -1.7740107 -1.0379647
1.676966 -2.7449331 -1.3763949 -0.44939342 1.1082109 1.4656695 -1.1990501 -0.6915509
-0.1036266 -0.0036385793 0.07855443 0.21245793 -1.5884006 -1.6749089 1.4477489 4.2884583
00000000: 33be 97bf cd1f 0ec1 d493 4540 b0a9 703f
00000010: 1096 a2bf 6e2e 8ebf 2d6b 333f 7c9a 973f
00000020: e5d6 7ebf 0d2b ebbe 901c f1be fa4d 09be
00000030: 42e1 6cbe 07ee 2bbf 16f1 56bf d45f b1c0
00000040: 87cc bc3f 85b2 1040 ca39 0840 c791 6fc0
00000050: 9e2f d5bf c34f cb3f 9b75 b5be 5f35 133e
00000060: 9613 2abe d1d6 f13e 7237 d63e fe71 87be
00000070: 9b44 efbf 0900 6dc0 11bc e440 8c7b 55bf
00000080: f543 44be 0cb2 4cbe 4ac7 0cbe a943 123e
00000090: b946 f23d 9d4d 2abe 0630 cdbd 2e1e 223d
000000a0: 481c 13bf 52b6 9fbe 1203 dc3d 06d7 f4c0
000000b0: 5856 0040 4a2b 433f e1ba bb3f 593d 4cbd
000000c0: f01d 3c3f 0f59 5ebf 0b96 2a3f 5df4 b53e
000000d0: 021a 043a 9db0 6fbd 4aad 52bd 5846 8ebd
000000e0: f55a 01c0 7f4c b640 d031 fb3f 6e06 5d3f
000000f0: 965a ab3f 12f4 82bf 02a7 713f e84f 72be
00000100: 175b 403e 21f7 513e eb1b 523d a6b6 193e
00000110: d928 ad3b 4e3b e3be 764f a7bf 8231 2fbf
00000120: abce 2e41 04a3 4341 e275 c3bf c7cb a7be
00000130: b012 c7bf 5f58 45be 1b7b 043f be5e 0d3e
00000140: 2756 57bf 4a07 a63e f26c 863d 6f30 a8bf
00000150: df5b a4bf 9fd0 9b40 6e2e 6fc0 b41f 30c0
00000160: 115f b53f 59f9 6bbf 01a8 033e 181a e8bd
00000170: 0665 8d3e 34c1 16be b994 6fbe 4dc2 7a3e
00000180: 0821 a0be 5cc5 db3c 74b0 c7bf 89d2 7e3f
00000190: a5e0 3740 afbf 24c0 2caf 44be 5db6 6fbf
000001a0: efff 08bf 7ea0 8d3e 19d3 383e 539e 233e
000001b0: 687a d8be d5ea a23e 6023 a93d f0de 843f
000001c0: e825 5fc0 4676 ca40 04e1 053e 9754 11bf
000001d0: 08a7 4140 d505 a8be 0e1b 3dbf aa2b 26bf
000001e0: 5e38 3d3f cd19 c63e c534 7a3e c8f1 713e
000001f0: d1aa a23d d721 003b b661 40be f5df cbc0
00000200: 1bdc 7541 1362 f440 39b7 593f 5cb6 d6bf
00000210: fc7f 2cbf 8eb1 f7bd 778c 053f 9d9a 423f
00000220: 9f9a 0a3f 58f7 103e ce73 98bc 5f9d d93e
00000230: 73e8 ccbf a150 20c1 df57 b341 1df0 ccbf
00000240: f4e9 3bbe fbb0 41be 96c6 1cbd 5706 3fbf
00000250: 1fc1 213f 84fa 88be 921a a53c 32df 2b3f
00000260: 220d 47bf f34d 0abf 3522 44c0 651e 253e
00000270: 09e1 7fbf a7bf 2bbf 45ab d93f 81ff 663f
00000280: 4785 afbe 5594 6a3f b852 52bf 0875 f9be
00000290: fea0 7d3e a6bc d6bd a300 89bd 0393 ca3e
000002a0: bcd9 4dbf 254f 9ec0 a447 2441 ef03 e540
000002b0: a4a6 1440 dcb3 93bf d358 5c3f a622 573f
000002c0: ae3b 7fbe 1a18 ec3e 943d dc3d e02a aabf
000002d0: ca18 2a3f 71d0 bc3d 4317 fabe f7ec 84c0
000002e0: f1b1 ca40 5dc1 6b40 f036 c73f 8165 09c0
000002f0: 84ab 4dbe 067a 033f cc23 f5be 6bb5 783e
00000300: 87bf 2d3e ecb4 6cbe b704 f33d f551 c1be
00000310: 20a6 32bf 098d 1a41 bcf0 9bbe b782 97be
00000320: f000 fd3e 1584 d6bc 4f8c c33d fb0c de3e
00000330: 59c2 75be b824 71be c355 2b3d 1e70 6e3e
00000340: f60e 9cbe d250 853e f7d5 94bf 392d 5840
00000350: 2b6e 5fc0 01b1 2940 563d c53f c701 02c0
00000360: 8457 1cbe e162 6a3f 5f0c 5ebf 9d01 10bc
00000370: 4246 a23d da70 6339 527e 7f3c d2a3 2b3d
00000380: 86c9 24c0 4173 1b40 3ab3 e6bf 6218 9b3e
00000390: 41a1 e63e 613c 7dbf 13f6 6b3f 3491 2740
000003a0: c283 0ac0 6b18 a5bf a1b8 56be d98a ea3d
000003b0: bd3f edbd 3466 a5be c812 e3bf 07dc 84bf
000003c0: d2a6 d63f fcac 2fc0 b52d b0bf e516 e6be
000003d0: dbd9 8d3f 0f9b bb3f 797a 99bf 7b09 31bf
000003e0: 2f3a d4bd 3b75 6ebb 25e1 a03d 928e 593e
000003f0: b650 cbbf 6a63 d6bf d64f b93f 0d3b 8940

bias f4 [256]
-1.1203483 -0.60012907 -2.8212547 3.6096613 -0.9371203 -2.2672038 -1.07291 -1.9994082
1.4521184 -1.7854114 -2.1761546 0.07080746 -1.9472841 -0.91993165 3.2082064 -0.161145
2.616442 -1.3375305 -1.7804763 -2.3358548 0.3650845 1.164722 -2.9307482 -1.0482424
-3.2087445 -2.8570986 -1.0543195 -2.3247983 2.4001286 -0.5127653 -2.5136974 -0.7914416
-2.0665517 2.007822 2.8200855 1.1019245 -2.3115346 -2.5687816 0.20197716 -1.5846921
-0.7163393 3.2411923 -2.9504073 -4.837039 -3.739998 -3.3066015 -0.19842502 -1.1917788
-0.23841625 5.0104203 0.88888747 0.020092495 1.0841967 -0.89338577 -0.31737447 -4.5768795
-3.3147478 -0.78867215 4.1437354 4.101291 1.3562409 -1.3652964 0.6942651 -0.5759956
-2.4414752 -3.1894581 -0.94035715 5.280614 -2.2545931 -0.08572519 -2.4013324 1.1915684
2.3769758 -0.7478871 0.19203639 -2.9522345 -3.8554096 -3.5089686 -0.48551613 -1.7107171
-1.5187056 3.7721584 -1.0084391 3.5268764 -1.0902079 -1.0689851 -2.1481934 -0.68502265
3.4519334 0.53546864 -2.9019854 -1.8310426 -1.9900503 -2.243861 -2.300525 -0.2114017
-0.15212834 -0.14427641 -1.7881892 -3.0705535 0.6516592 -0.9721755 3.6245172 -1.2835917
-1.1329702 -3.0852118 2.7965267 -1.7361238 -0.8139127 -2.5182679 0.76518744 -0.86586106
-1.1797205 -0.5365202 5.3685527 -0.22692852 -2.1671069 -1.8106778 -3.440139 -1.0291483
0.4493714 -4.9648657 1.5904752 -0.9054009 -1.3900218 -1.2826589 -0.19124813 -2.8381495
-1.6279824 2.6162431 -0.14798357 -4.7998533 0.015506647 -2.774025 0.2089536 5.3475747
-2.9429948 -0.7899051 0.91039187 -2.3469555 -3.9224732 -1.2258645 -1.8470774 -0.53935325
-0.061446726 -1.1102272 0.41155973 -1.0954319 -1.9830536 -3.537972 -2.78683 0.118268766
-2.1338387 -2.8784847 -1.8575166 -2.3657324 -0.49953747 -4.023453 -0.86478513 -1.8899096
-0.36571345 -0.15034735 -0.9781477 -0.45962092 0.96775377 -4.830032 -1.6209817 -0.82308304
3.5002556 3.0985637 -0.3454049 -0.65436757 -2.6178207 3.0081127 -1.6291028 -1.2051978
-2.8609385 -2.5370336 -1.2399397 2.8348498 -2.7110474 -1.1069705 -2.0645235 -4.5471525
-4.0689225 0.9664811 3.034308 -0.48479724 2.5876527 2.8521552 -0.51510507 -0.65406364
-2.5912151 -1.8363402 -3.028338 1.1686815 -2.2458274 -1.429556 1.4730097 -1.8351202
0.13363181 2.0360584 -2.2048316 2.5618272 -1.924206 -2.154733 -0.15236585 -1.3528293
-1.7620178 0.060087923 -0.15082988 2.0034995 -1.3309306 -3.3290355 -1.5081081 0.79721683
-2.033148 -0.16051231 -1.7111237 0.71892524 -0.5319523 -2.0300524 -1.9995589 -2.6082678
-2.3708394 -4.777367 -1.1355478 5.208532 2.5167847 -3.2095003 -2.3679304 -0.89485645
-1.9363965 -3.825936 0.8734547 -4.4070835 -2.9760685 2.580238 -1.090925 -1.1784427
-2.5130708 -0.4199297 -0.14926192 -2.0267034 0.9879695 -2.8517368 -3.2369022 -1.4137064
-1.188886 -3.8352733 -1.9084269 -2.038602 -2.1679883 -1.4335201 2.6176853 -0.61276734
00000000: 9367 8fbf 0fa2 19bf 708f 34c0 b104 6740
00000010: 1ee7 6fbf de19 11c0 1d55 89bf 9cec ffbf
00000020: 04df b93f 5c88 e4bf 1e46 0bc0 8003 913d
00000030: 9b40 f9bf a480 6bbf 4153 4d40 3203 25be
00000040: c973 2740 3334 abbf a6e6 e3bf a57e 15c0
00000050: 5bec ba3e 9c15 953f 6191 3bc0 cf2c 86bf
00000060: 125c 4dc0 b4da 36c0 f1f3 86bf 7fc9 14c0
00000070: b59b 1940 9644 03bf 6be0 20c0 eb9b 4abf
00000080: 6242 04c0 2880 0040 487c 3440 dd0b 8d3f
00000090: 2ff0 13c0 eb66 24c0 1ad3 4e3e 31d7 cabf
000000a0: 0362 37bf b26f 4f40 79d3 3cc0 06c9 9ac0
000000b0: 215c 6fc0 5c9f 53c0 ee2f 4bbe 358c 98bf
000000c0: 6423 74be 5d55 a040 218e 633f 0499 a43c
000000d0: f5c6 8a3f eeb4 64bf e87e a2be cc75 92c0
000000e0: d424 54c0 6be6 49bf 7b99 8440 c73d 8340
000000f0: 4d99 ad3f 08c2 aebf 5cbb 313f 7374 13bf
00000100: 2141 1cc0 1520 4cc0 3fbb 70bf cafa a840
00000110: 414b 10c0 b090 afbd 6eaf 19c0 5085 983f
00000120: 5f20 1840 8775 3fbf 30a5 443e 69f1 3cc0
00000130: 08bf 76c0 f192 60c0 9295 f8be c7f8 dabf
00000140: f264 c2bf 0b6b 7140 8814 81bf 58b8 6140
00000150: ef8b 8bbf 81d4 88bf 007c 09c0 a55d 2fbf
00000160: 7aec 5c40 7914 093f 21ba 39c0 9b5f eabf
00000170: f8b9 febf 6b9b 0fc0 cd3b 13c0 b079 58be
00000180: 88c7 1bbe 32bd 13be 62e3 e4bf f383 44c0
00000190: 23d3 263f 7ee0 78bf 17f8 6740 bc4c a4bf
000001a0: 2b05 91bf 1c74 45c0 4bfa 3240 4e39 debf
000001b0: 955c 50bf 4d2b 21c0 53e3 433f 12a9 5dbf
000001c0: 1501 97bf 6359 09bf 2fcb ab40 f35f 68be
000001d0: e1b1 0ac0 4ac4 e7bf 3d2b 5cc0 22bb 83bf
000001e0: 0214 e63e 2ee0 9ec0 b194 cb3f 5ac8 67bf
000001f0: 3cec b1bf 2b2e a4bf 8dd6 43be 3ea4 35c0
00000200: ba61 d0bf 8770 2740 0189 17be 6698 99c0
00000210: 970f 7e3c a089 31c0 eff7 553e 551f ab40
00000220: 075a 3cc0 3837 4abf 710f 693f 8534 16c0
00000230: cd09 7bc0 21e9 9cbf 086d ecbf 0e13 0abf
00000240: 90af 7bbd ed1b 8ebf f5b7 d23e 1d37 8cbf
00000250: b3d4 fdbf 226e 62c0 6c5b 32c0 e536 f23d
00000260: d090 08c0 1839 38c0 1bc3 edbf 2968 17c0
00000270: 60c3 ffbe 21c0 80c0 8f62 5dbf 8fe8 f1bf
00000280: cb3e bbbe a8f4 19be e367 7abf 6f53 ebbe
00000290: b6be 773f 9f8f 9ac0 547c cfbf 92b5 52bf
000002a0: 3004 6040 de4e 4640 e9d8 b0be a284 27bf
000002b0: 608a 27c0 eb84 4040 7186 d0bf ec43 9abf
000002c0: 9e19 37c0 c25e 22c0 58b6 9ebf 2e6e 3540
000002d0: cd81 2dc0 36b1 8dbf 2721 04c0 4682 91c0
000002e0: 9d34 82c0 4e6b 773f 1a32 4240 5837 f8be
000002f0: 1a9c 2540 b689 3640 eddd 03bf b770 27bf
00000300: 78d6 25c0 320d ebbf 4ad0 41c0 5b97 953f
00000310: a3bb 0fc0 b1fb b6bf 958b bc3f 38e5 eabf
00000320: c7d6 083e c84e 0240 f61b 0dc0 faf4 2340
00000330: 624c f6bf 25e7 09c0 cb05 1cbe 8329 adbf
00000340: cd89 e1bf c11e 763d 2673 1abe 5639 0040
00000350: ef5b aabf eb0e 55c0 b009 c1bf 6716 4c3f
00000360: 191f 02c0 575d 24be 1a06 dbbf 7c0b 383f
00000370: 072e 08bf 61ec 01c0 8cf1 ffbf dced 26c0
00000380: d5bb 17c0 31e0 98c0 a159 91bf 4bac a640
00000390: 0013 2140 7468 4dc0 2c8c 17c0 5015 65bf
000003a0: d7db f7bf 23dc 74c0 ba9a 5f3f d406 8dc0
000003b0: e877 3ec0 9f22 2540 6ea3 8bbf 36d7 96bf
000003c0: 27d6 20c0 0701 d7be 1ed8 18be 82b5 01c0
000003d0: 92eb 7c3f db82 36c0 6829 4fc0 55f4 b4bf
000003e0: 6b2d 98bf 1e75 75c0 5547 f4bf 7578 02c0
000003f0: 52c0 0ac0 967d b7bf 2888 2740 52de 1cbf

weight f4 [256, 256]
1.2050228 0.31751376 0.40932518 -0.48374 0.77108526 0.5908487 1.1674511 1.4681915
0.97120214 -0.580864 -0.49920744 2.3779547 -0.11615198 -1.066546 0.39911294 -0.5959733
0.8338686 0.18500479 0.47434473 0.0930311 0.818103 2.0966513 -19.582314 0.25948358
0.25854236 -0.21577032 -0.043786597 -2.4244375 -0.025967885 1.4282317 0.55872846 -0.4529736
-0.8187826 0.26504615 0.59401256 -0.12385123 -0.033663616 -0.3269025 -0.5237076 1.244088
0.36630693 0.23296718 -2.4152412 -1.4370514 0.8703418 0.9285387 -2.8337274 1.0018406
-0.60616577 1.5900371 0.8012869 -1.6482803 -1.5164082 -0.5436769 0.58384997 0.09227987
0.17211874 0.61973256 0.6096359 0.77460176 0.9794176 -0.81996137 -1.6873116 -0.8686415
2.1037967 0.55896145 0.6079272 1.0928906 -0.26618293 1.0120429 0.8554117 0.5911184
0.76104593 -1.0387489 -0.22062437 -1.0561495 -0.44809335 -2.588117 2.3950365 -0.775876
-2.6146939 2.4658778 -0.59847647 -0.14710277 1.473415 -1.2929598 -1.6526368 0.41367224
-0.3911479 -1.5824398 -1.9887717 0.06629659 -1.2563596 0.50857043 0.67461437 2.171398
3.7124887 0.75937706 -1.1801593 0.014463064 0.46556744 0.10862372 2.0771744 0.5807112
-1.6297698 -0.063899755 0.1999864 0.037276648 0.2687733 -20.248877 -0.2550872 0.1715615
-0.58750457 -2.0824478 1.1005822 -0.90543437 0.27688715 -1.8858104 -1.2048914 0.5202666
0.8397056 2.283518 0.45494825 -0.7261263 1.4651406 0.25679615 0.38445738 -0.37211385
-2.13014 -1.9769 -0.08232932 -1.4321089 0.97002864 -0.33090582 -0.19495568 -1.1624615
-4.285987 -0.22118993 0.7508067 0.13420129 1.0071111 1.7872033 2.080271 0.47869286
-3.9309902 1.539408 0.8476139 1.9898949 1.3311402 1.5374866 -0.74793464 0.35313588
3.1149743 -0.4880871 -1.1134768 -2.3109424 -1.042833 -1.5506756 1.8233236 1.1952821
-0.21386646 -0.3655659 0.16289245 0.659175 2.306704 0.972794 -1.4145945 -0.3731533
2.320938 -2.3285794 1.4188097 1.6004068 -0.23271847 2.0324397 0.4030639 0.8390248
0.8683101 -2.269715 -0.58380646 0.58292794 1.8655638 0.48968244 0.57685894 0.5784508
-5.583826 -1.9975213 0.71354765 -0.8947346 2.9821613 0.53978926 -5.851993 -4.032908
-0.50840634 2.5696976 0.9459994 1.3827338 0.20744957 0.1721672 0.5656118 1.441318
0.34472054 0.35582688 -2.558672 -3.173415 0.20891994 -0.51079875 -0.77108085 -0.13788296
2.037719 0.29433832 1.4833019 -1.6022342 -0.73721004 -0.0659599 -0.8512697 1.1363888
2.1195393 -0.82108647 0.044399045 0.8383302 -0.08616493 0.8130175 0.39651215 1.2701709
1.0075603 -1.41474 0.06921413 -0.6117986 0.5114342 0.54425585 -3.3337843 -1.0689431
-1.4698012 -0.19187675 -0.5508987 1.4865623 2.7513602 0.71147263 -1.7044498 0.14314803
0.6230702 -0.105123945 -0.014528159 0.89906055 -1.2521069 0.23351614 -2.8501537 0.24068798
0.17220594 -0.09233269 -0.99642193 1.3479238 -1.2072076 0.24163058 0.5276238 1.2419392
00000000: 303e 9a3f 2a91 a23e 1293 d13e c5ac f7be
00000010: d865 453f dc41 173f 0a6f 953f b3ed bb3f
00000020: b4a0 783f 81b3 14bf 1e98 ffbe 6930 1840
00000030: 17e1 edbd 9484 88bf 8858 cc3e b591 18bf
00000040: 6a78 553f e571 3d3e 50dd f23e 1787 be3d
00000050: 336f 513f 892f 0640 94a8 9cc1 08db 843e
00000060: aa5f 843e e5f2 5cbe 9359 33bd fc29 1bc0
00000070: 9aba d4bc 4cd0 b63f d408 0f3f 28ec e7be
00000080: bd9b 51bf 21b4 873e 3511 183f b7a5 fdbd
00000090: dce2 09bd c45f a7be b411 06bf 473e 9f3f
000000a0: 958c bb3e f38e 6e3e 5093 1ac0 4df1 b7bf
000000b0: b8ce 5e3f b6b4 6d3f ca5b 35c0 503c 803f
000000c0: ae2d 1bbf 5686 cb3f 2321 4d3f d9fa d2bf
000000d0: aa19 c2bf 692e 0bbf 3177 153f 3afd bc3d
000000e0: e53f 303e cba6 1e3f 1911 1c3f 4d4c 463f
000000f0: 1dbb 7a3f fde8 51bf d4f9 d7bf 4a5f 5ebf
00000100: 9ba4 0640 1918 0f3f 1ea1 1b3f d7e3 8b3f
00000110: 2149 88be 9f8a 813f 43fc 5a3f 8953 173f
00000120: e8d3 423f b9f5 84bf 5beb 61be e82f 87bf
00000130: 7e6c e5be b5a3 25c0 4748 1940 cf9f 46bf
00000140: 2557 27c0 f1d0 1d40 c135 19bf 1ca2 16be
00000150: dd98 bc3f b57f a5bf 9a89 d3bf d9cc d33e
00000160: 8a44 c8be 638d cabf 1290 febf 82c6 873d
00000170: 64d0 a0bf ac31 023f 87b3 2c3f 2ff8 0a40
00000180: 6a99 6d40 8966 423f 760f 97bf 7df6 6c3c
00000190: db5e ee3e 1d76 de3d 6df0 0440 7da9 143f
000001a0: 4c9c d0bf e0dd 82bd 3cc9 4c3e 66af 183d
000001b0: a79c 893e b3fd a1c1 ca9a 82be d1ad 2f3e
000001c0: b366 16bf d346 05c0 e1df 8c3f 8cca 67bf
000001d0: 27c4 8d3e 3c62 f1bf e239 9abf 3130 053f
000001e0: f2f6 563f 2925 1240 faee e83e 6ae3 39bf
000001f0: ba89 bb3f c97a 833e 99d7 c43e b585 bebe
00000200: 3754 08c0 0f0b fdbf 469c a8bd 584f b7bf
00000210: cc53 783f 7d6c a9be 76a2 47be 8acb 94bf
00000220: ce26 89c0 9d7f 62be de34 403f 106c 093e
00000230: 04e9 803f 14c3 e43f 2923 0540 3b17 f53e
00000240: 5895 7bc0 520b c53f 39fd 583f e0b4 fe3f
00000250: cd62 aa3f 5ccc c43f a578 3fbf 3ace b43e
00000260: bd5b 4740 8de6 f9be 6886 8ebf 7be6 13c0
00000270: 8d7b 85bf 8a7c c6bf ab62 e93f 01ff 983f
00000280: cfff 5abe 742b bbbe 47cd 263e b1bf 283f
00000290: 0aa1 1340 0709 793f 6f11 b5bf f30d bfbe
000002a0: 408a 1440 7207 15c0 8e9b b53f 21da cc3f
000002b0: c04d 6ebe 7e13 0240 645e ce3e 54ca 563f
000002c0: 9249 5e3f 0343 11c0 5774 15bf c43a 153f
000002d0: cbca ee3f a8b7 fa3e 07ad 133f 5a15 143f
000002e0: b4ae b2c0 c7ae ffbf 0fab 363f 540d 65bf
000002f0: bbdb 3e40 a12f 0a3f 8743 bbc0 950d 81c0
00000300: eb26 02bf ed75 2440 042d 723f 6cfd b03f
00000310: a96d 543e 994c 303e efcb 103f 1c7d b83f
00000320: 367f b03e f12e b63e 48c1 23c0 3b19 4bc0
00000330: 1cef 553e b5c3 02bf 8e65 45bf 3131 0dbe
00000340: fd69 0240 83b3 963e d6dc bd3f 0316 cdbf
00000350: ccb9 3cbf fc15 87bd d0ec 59bf 3075 913f
00000360: 88a6 0740 b932 52bf c6db 353d cf9c 563f
00000370: 3d77 b0bd ea21 503f a403 cb3e f694 a23f
00000380: bcf7 803f 3316 b5bf 23c0 8d3d d59e 1cbf
00000390: 5aed 023f 5a54 0b3f b95c 55c0 21d3 88bf
000003a0: 7222 bcbf 577b 44be b207 0dbf ac47 be3f
000003b0: 4916 3040 1223 363f 692b dabf 6695 123e
000003c0: 8781 1f3f 394b d7bd 8407 6ebc d528 663f
000003d0: 0a45 a0bf db1e 6f3e eb68 36c0 e976 763e
000003e0: c156 303e ec18 bdbd 8215 7fbf c488 ac3f
000003f0: c785 9abf 026e 773e 5a12 073f ddf7 9e3f
