log_classic/classic_ppo_pendulum_v0_2/classic_ppo_pendulum_v0_2_s2/pyt_save/model.pt (torch_old, 40290 bytes, 10 tensors)

weight f4 [64, 3]
00000000: e89d 9a3a 8603 afbd 1afa ee3d 881c 913b
00000010: 1d98 bb3e 767e d13d 4371 88bc b73c 10bf
00000020: deed a03d 2d77 31bf ede9 3dbd fb83 f33d
00000030: bf98 97be 23f8 243f 71c7 a8bd c1ed ce3e
00000040: 7e6c f53d 6b45 b2be 0414 e8bd ba7d 523f
00000050: 3846 fdbe 24d7 493d e5c1 bcbd 3ff6 eb3e
00000060: a9c8 c3bd 5e5c 4c3e 8a48 48bd 4a92 ffbe
00000070: d101 73be 0024 9dbe 94fc 35bf 3a7d eebe
00000080: 89d1 143e abcc 143f 2f43 5ebd 16d1 40be
00000090: 12f2 923e 5a45 93be 5eb0 e2bd 1071 dabd
000000a0: 2a96 99be 8875 4dbf 04be bf3e 3d74 4b3e
000000b0: 7244 293e b1a3 0e3f cb3f 943e 1454 063d
000000c0: 4950 2cbb 7e1d 8fbc d9f1 a43e 1caa 933e
000000d0: 16e0 493f 48e3 a93e 3af4 8cbe 2be8 b43c
000000e0: 31a2 1dbe a8cf 3f3e b2ad e03d f40c 483f
000000f0: 2c0d ca3e 7511 d3be 48ea 903e 4cea 3f3f
00000100: b693 0a3f 9817 7fbd 2ef8 853e 84af 2dbf
00000110: 5e17 093d 8397 233e ee6e 23bf fe09 243f
00000120: c26e d1be fa96 8f3e 7cfe b9bd a19f 523e
00000130: 6152 d9bd 73e9 69bf e962 dabb 0aa5 4bbf
00000140: 76c1 983e bed0 9ebe 0af9 20bf d523 093e
00000150: 8710 ac3e 605f cebe 194d 60bc 74d9 c63e
00000160: 2faf 00bf 5c63 6cbe cd99 86be d4c3 c7be
00000170: eb56 9d3e 05b1 4d3c 39a7 b63e 64c3 d63e
00000180: f1ca 27bf 06e2 9ebe 74b0 b5be f430 cebd
00000190: d77d 6bbe 2284 dfbd e653 43bf e379 873e
000001a0: 279a af3e 5ec8 bb3e 2d0e b03e 6d10 b23e
000001b0: 23b6 2dbf 3168 273e 15d5 dc3e 5f76 febe
000001c0: b3f6 d5bd 0b91 0bbe 0b37 05bf d3d9 5dbe
000001d0: c62f f6bd 062e e43e 519b 94be 64eb e73e
000001e0: bc64 943e af3f 2e3e 4b52 56bf c20a 313f
000001f0: 7f50 d23e 1c75 94be 9563 48be 075c fc3e
00000200: 0206 edbe 76a0 20bf 12bc e9be d771 fb3d
00000210: a3bc cbbe 4fec 22bf 8991 823e a3ac c03e
00000220: bae3 6d3e c009 d7be 0034 0d3f d04c adbd
00000230: c24e 02bf cce1 a5be 86e5 a23e d19e 8a3e
00000240: aa90 bd3d b6d7 ad3e 7a84 35bf 45c1 103f
00000250: b4d5 653f 6872 89be d067 953e 7783 6dbe
00000260: 1f11 c3be c3e7 9e3d af01 73be 13f6 10bf
00000270: 0bcf 01bf 0b57 533d 9b2e 0a3f 08bd 6f3e
00000280: d170 05bf ee17 9d3e ac9e 2e3e 6bf8 1dbf
00000290: f67b 853d 2f68 e63e ca35 e6be ec3d eb39
000002a0: 5eda d3be 9759 81be d0b1 adbe 912c c63d
000002b0: a259 003f 6fea b5bd 1636 1fbf 6658 ba3d
000002c0: 3dc4 9bbe 7450 b3bd 07a6 af3e 5ab4 7a3e
000002d0: 34df f0be 7c5c 28be 57f3 2c3e 6149 5b3e
000002e0: 72f1 59bf d4cb 7fbe 6871 75be cb22 c53e
000002f0: 2497 5d3f 89b3 e93e a578 a63d 13f7 d1be
0.0011796327 -0.08545594 0.11668797 0.00442845 0.3663949 0.10229199 -0.01665557 -0.56342643
0.078578696 -0.6932247 -0.046365667 0.11890408 -0.29608724 0.64441127 -0.082411654 0.40415767
0.11983584 -0.34818587 -0.11331943 0.82223094 -0.49467635 0.04927744 -0.0921667 0.46086308
-0.09559757 0.1995711 -0.048897304 -0.49916297 -0.23731162 -0.30691528 -0.7108853 -0.46579915
0.14533056 0.581248 -0.05426329 -0.1882976 0.2870031 -0.2876385 -0.110687956 -0.10666096
-0.2999738 -0.80257463 0.37449658 0.1986856 0.16530016 0.55718523 0.2895492 0.032795027
-0.002629297 -0.017470118 0.32215765 0.2884072 0.78857553 0.33181214 -0.2753008 0.022083363
-0.15393902 0.18731558 0.1097063 0.78144765 0.39463174 -0.41224256 0.28303742 0.74966884
0.5413164 -0.06227836 0.2616591 -0.6784594 0.03346955 0.15975766 -0.6384114 0.64077747
-0.40904814 0.28044873 -0.09081742 0.20568706 -0.10611416 -0.9137184 -0.006664623 -0.79548705
0.298351 -0.31018633 -0.62880003 0.13392575 0.3360636 -0.4030714 -0.0136902565 0.3883778
-0.5026731 -0.23084778 -0.26289216 -0.39016593 0.30730376 0.012554412 0.35674456 0.41945946
-0.6554404 -0.31031817 -0.35486186 -0.10067931 -0.22997223 -0.10913874 -0.76299894 0.2646018
0.34297296 0.36676306 0.34385815 0.34778157 -0.67856044 0.1634834 0.4313132 -0.49699685
-0.10447445 -0.13629548 -0.52037114 -0.21665125 -0.12020831 0.44566363 -0.29024747 0.45296776
0.28983104 0.17016481 -0.8371932 0.6915704 0.4107704 -0.28995597 -0.19569238 0.4928896
-0.46293646 -0.62744844 -0.456513 0.122775726 -0.39792356 -0.6364183 0.2550166 0.3763171
0.23231402 -0.41999626 0.5515747 -0.084619164 -0.50901425 -0.32398832 0.31815737 0.27074292
0.09256108 0.33953637 -0.7090527 0.56544906 0.8977921 -0.26845098 0.29180765 -0.23194681
-0.38099 0.07759049 -0.23731111 -0.5662548 -0.5070655 0.051596683 0.53977364 0.23411953
-0.5212527 0.3068232 0.17052716 -0.6170718 0.06517784 0.4500136 -0.44962913 0.00044868828
-0.41377538 -0.25263664 -0.33924723 0.09676469 0.5013677 -0.08882605 -0.62191904 0.09098892
-0.30423155 -0.087555796 0.34306356 0.24482861 -0.4704529 -0.1644153 0.16889702 0.2141471
-0.8513404 -0.24980098 -0.23969042 0.38503107 0.8655875 0.45644787 0.0812848 -0.41008815

bias f4 [64]
00000000: e1c0 ce3e 22f1 513e 3c88 72be e61d abbe
00000010: 76ae 573e f5d7 47be ccc9 693e bf30 be3e
00000020: a5ab e3be 5f67 c5be 9f34 b0be 990d 25bf
00000030: 2579 d7bd 3f81 ad3e a0c1 723e 46e7 50be
00000040: 3a67 c7bd 2dd5 7dbe 5875 fbbe 56d1 39be
00000050: f33c c33d d9a6 c1be 3b6f eabe f6cf 91bd
00000060: 5980 2a3e 3e63 8abd bbd7 813d 0319 163f
00000070: 84f9 be3b 53e6 01bf 9299 143f 5d4c 873e
00000080: c6e7 d4bd 423a 5dbe d813 c9be cc79 053f
00000090: e2bc f83e 306b a9be bd48 083e 0400 5abd
000000a0: 23c5 b83d d6a4 49bd 61ed 9cbe c5b3 133e
000000b0: bfc0 80be 14e3 95be daaa ccbe 7e55 abbe
000000c0: 50dd 1abe e1c1 d43e 3740 10bf 2dc7 15bf
000000d0: 734e 083f 8cb7 8d3e 0278 d03e e6e2 9a3e
000000e0: 6094 5abe 392d d3be 4cbd 0fbf 3b5a 433b
000000f0: 1c14 a43e 561f e3be 1419 bebe dc7f cf3e
0.4038153 0.20502141 -0.23684782 -0.33421248 0.21062645 -0.19515975 0.22830886 0.37146565
-0.44466892 -0.38555428 -0.34415147 -0.64473873 -0.10521153 0.3388767 0.23706675 -0.20400724
-0.09736486 -0.24788351 -0.49112964 -0.18146262 0.095331095 -0.37822607 -0.45787987 -0.071197435
0.16650523 -0.0675721 0.063399754 0.58631915 0.0058280844 -0.5074207 0.5804683 0.26425448
-0.1039577 -0.21604255 -0.39272952 0.5213897 0.48581606 -0.3308959 0.13308997 -0.05322267
0.09021976 -0.049229465 -0.30649856 0.14424045 -0.25147054 -0.2927481 -0.399741 -0.33463663
-0.15123487 0.41554168 -0.56347984 -0.58507043 0.53244704 0.27679098 0.4071656 0.30251235
-0.21345663 -0.4124544 -0.5614822 0.002980842 0.32046592 -0.44359845 -0.37128508 0.40527236

weight f4 [64, 64]
00000000: 8a0a 793c ce3d 783d ecb5 b73d c435 073e
00000010: 58ca e23d 8855 4fbd 5592 1e3d 6ba6 c33d
00000020: 6fd4 eebd 60d3 a83c b69f 2cbd b9cc 15bd
00000030: c77d 693d b0be c73d 204b 2f3d 2eb8 523c
00000040: 4a22 35bd 79f5 40bc ab93 f8bd 9aa5 e7bd
00000050: 648a ddb9 9c7b c03c 4f2c 4cbd 2e1f 763d
00000060: 0721 0e3e 0345 1bbc beeb 50bd de52 01be
00000070: 1e3d 113d 537d 41bd 19ed db3c cbcb 05bd
00000080: 26f0 c53d 0f7d 96bd 607c eabc 29cb 7a3c
00000090: 23a6 0cbc b78c 4fbd df3d 2f3e bee5 eabd
000000a0: 14ce 9f3d ffb1 653d 2040 f2bc 69e0 e23c
000000b0: 56b6 3a3c 3d0c b2bd fd8a c33d e5bc a1bc
000000c0: cb7c 30bc 3b49 933d a4c9 093e e953 b7bd
000000d0: 82f8 1ebd 1b95 9e3d da42 903d 7236 cfbd
000000e0: fe77 bbbd b81c 9b3d e716 c6bd 353a 943d
000000f0: dca4 f7bd b096 f5bc fb8a a73c d176 5d3d
00000100: 2deb 69bd bc90 efbd d58e 5f3d 316e ba3d
00000110: bb9a 023e f1f2 eabd 922a 5dbd 4aed 32bd
00000120: 25fb 023d 5436 cd3d 182c a4bc 453b 8d3d
00000130: 79c6 953d 4b76 b53d 1983 11be d83a a1bc
00000140: 7087 d43d d901 b0bd a44f c03d 85a9 0dbd
00000150: af0a 003e b0b5 56bd 4375 d03c 8ef1 ba3d
00000160: 97bc 263e f812 69bd 59df cdbd 219d 3fbd
00000170: 042f 84bd fd36 fd3d aba3 9cbd 14b0 b03b
00000180: 1c70 efbd d30f f23c 7012 283e fe76 8f3d
00000190: ceca 433d 8a98 32bd 41ff 1e3e 1bd7 71bd
000001a0: bc3c eb3d 9e63 e9bd c971 94bd 68dd 5cbd
000001b0: 4d76 a03d 3a62 8a3d 90cf 023d c3d0 fbbc
000001c0: 5277 cdbd c507 e6bd e8f5 56bd 5579 adbd
000001d0: 88d9 a83d bee9 173d 68d2 a7bd 7d26 6c3d
000001e0: c0a5 b9bd 7202 1bbd f88c eabc fe14 7e3d
000001f0: 79b2 113d 5035 11bd c479 dabd ec92 933c
00000200: 8f86 203d 6b32 493d c69c 59bd 1994 1cbd
00000210: 7800 503e 2c3c 2abd 071e b2bb 60e9 aa3d
00000220: 18e8 36be c61e bfbc 0f54 2e3e a96a d3bd
00000230: db49 3e3c 1f4b 393e 2fe1 da3d 1edf 94ba
00000240: c5e4 6cbd 9da4 b63c ef81 81bd 6c1f 913d
00000250: e787 dfbd 691d be3d 7b0c 43be f1b9 03be
00000260: 1727 8f3e 9972 423d 11ee 96bd f6dd d3bd
00000270: 0144 bebd 57ba 09bd 2f50 923b c715 babc
00000280: ea0a 103d ea5d 003d 012b 44bd 1f83 a5bc
00000290: 5e45 d83d 7c7d 1ebe 0e6c 1b3e 3cb3 1abd
000002a0: 2c67 433d 3909 98bd fb61 4b3d fe8a 343c
000002b0: f5f6 c0bb d89c ed3d c50d e2bd 85f2 ed3d
000002c0: 0df3 b23d 7f22 7ebd 0405 3fbd 1b12 cb3d
000002d0: 5ec1 243d 3142 a7bd d5f7 82bd cc1c 02be
000002e0: f497 82bd 8401 4bbd 16ac fc3b 9f18 8c3d
000002f0: a306 dbbd 4eb7 7c3d 2862 603b 9c74 173d
00000300: 9018 04be 2788 0cbe 3325 8cbd 1c16 713a
00000310: d27b bc3b 2f01 84bd 98b8 363d a8c7 1b3c
00000320: 448f 8d3b 56f2 2b3c 210f 96bd 663f a93d
00000330: 583a 133d 0c42 513d 7776 16be c44c dbbd
00000340: 08e9 423d a2a7 bfbd 08eb cf3c 1654 8cbd
00000350: 562a 27bd 1d21 0abd 8a0a bdbd 5f4e df3b
00000360: 1850 ef3d cb20 bcbd 0ddd a0bc 98db 2abd
00000370: 5d4d 88bd 9f23 d1bc 59bd 043e f8bb 923c
00000380: b529 d0bb d39e 2c3e d5d9 8a3d 434d c33d
00000390: 5170 3fbd 5aef d93d 7e32 0b3e bae0 8b3d
000003a0: 3088 64bc 689a 963d 9864 14bd b8ab 7a3d
000003b0: 1984 06be 486e fcbd c1ab 25be 4ef5 f6bd
000003c0: d67c e8bc 43f5 e9bd 8205 d2bd 85ff 4abd
000003d0: 8363 8f3d b656 ea3d 7081 e03c b751 373c
000003e0: 48da 8dbd 681e a23d 6450 b8bd 97ec 0ebe
000003f0: 3558 c1bc b2cc 053e 7f02 cf3d 2d77 fbbd
0.015200267 0.060605817 0.08970246 0.13204104 0.1107375 -0.05061868 0.03871377 0.09553226
-0.11661612 0.020608604 -0.0421445 -0.036572192 0.057004716 0.09753168 0.042796254 0.012861295
-0.044222154 -0.011777275 -0.121375404 -0.11310883 -0.00042255514 0.023496442 -0.049846943 0.06008833
0.13879786 -0.009476903 -0.05100607 -0.12629268 0.035458677 -0.04723866 0.026846455 -0.032665055
0.09664945 -0.07348072 -0.02862376 0.015307226 -0.008584532 -0.050671306 0.17113446 -0.11469601
0.07802978 0.056077953 -0.029571593 0.027694898 0.011396011 -0.086937405 0.09547994 -0.019743392
-0.01077194 0.07191702 0.13455826 -0.089515515 -0.038811214 0.07743283 0.07044001 -0.101178065
-0.09153746 0.07573837 -0.09672337 0.072376646 -0.12091991 -0.02997908 0.020452013 0.05406839
-0.057109047 -0.11697528 0.054579575 0.091030486 0.12754337 -0.11472119 -0.053995676 -0.043683328
0.03197779 0.10020128 -0.020040557 0.068960704 0.07313246 0.08860453 -0.14210166 -0.01968138
0.10377395 -0.085941024 0.0939019 -0.034585495 0.12504075 -0.052419364 0.02544654 0.09128104
0.16282879 -0.056902856 -0.10052366 -0.04678071 -0.0645428 0.12364004 -0.07648405 0.005392084
-0.11691305 0.029548561 0.16413283 0.07005118 0.04780083 -0.043602504 0.15527059 -0.05904303
0.114861935 -0.113959536 -0.07248265 -0.053922087 0.07835064 0.067570165 0.03193623 -0.030739194
-0.10032524 -0.11231951 -0.05248061 -0.08470408 0.08244616 0.03708815 -0.08194429 0.057653893
-0.090648174 -0.03784413 -0.028631672 0.06203174 0.035570595 -0.035451233 -0.10667756 0.018014394
0.039190825 0.049120348 -0.053128026 -0.038227174 0.20312679 -0.04156129 -0.0054357084 0.08345294
-0.17861974 -0.023330104 0.17024253 -0.10323078 0.011614288 0.18095063 0.106874816 -0.0011357998
-0.05783536 0.02229529 -0.06323611 0.07086071 -0.10914593 0.09282953 -0.1904773 -0.128639
0.2795951 0.04747257 -0.07369626 -0.1034507 -0.092903145 -0.033624973 0.004465125 -0.022715462
0.03516666 0.031339563 -0.047892574 -0.020204125 0.10560106 -0.15477556 0.15177938 -0.037768587
0.047705814 -0.07423634 0.04965399 0.011019466 -0.0058888146 0.11602181 -0.110377826 0.116185226
0.087377645 -0.062044617 -0.046635643 0.09915563 0.04022347 -0.08166922 -0.063949265 -0.12706298
-0.06376639 -0.049561992 0.007710944 0.068406336 -0.10694625 0.06169825 0.0034238193 0.03697644
-0.12899995 -0.13723813 -0.06843033 0.0009196715 0.005752065 -0.06445538 0.044609636 0.009508051
0.004320057 0.010494789 -0.07327104 0.082640454 0.035944313 0.051088378 -0.14693628 -0.10708001
0.047585517 -0.09358145 0.025380626 -0.068519756 -0.04081186 -0.033722986 -0.09230526 0.0068147625
0.116851985 -0.09185942 -0.019636655 -0.041713327 -0.06655381 -0.02552968 0.12962855 0.017911896
-0.006352628 0.16857462 0.067798294 0.09536221 -0.046737973 0.10641356 0.1359348 0.068299726
-0.013948485 0.073536694 -0.036228746 0.06119892 -0.13136329 -0.12325722 -0.161788 -0.12058507
-0.028379839 -0.11423733 -0.10254957 -0.04956009 0.07001402 0.1144232 0.02740547 0.011188916
-0.069263995 0.07915956 -0.08999708 -0.1395744 -0.02360163 0.13066366 0.10107898 -0.1227859

bias f4 [64]
00000000: 790b 55bd 6f6c 6fbb f319 0b3e 24ee 113d
00000010: 2e04 8abc c2d1 96bd 956e 833d dba3 b0bd
00000020: f740 603d 13bf d7bc 0032 eebd 4989 063e
00000030: 5c56 16be acf2 b4bd d97f c0bd 0a91 8c3d
00000040: 50e6 d33c 637a 48bc 0535 2dbe f42d 3b3d
00000050: 80e0 c7bd a259 3dbe 529c 15be 0c15 3a3d
00000060: b970 f7bd d402 de3d 2fc1 053e 5c38 e63d
00000070: e48c c8bc 2f50 613c bf8b b23d 148b b03d
00000080: ea2d 573c 4c65 d7bd 09e9 363d 1c3a e6bd
00000090: 1fa0 3abd 8322 84bd adcb 593d d988 343d
000000a0: 6f73 abbd 7814 c93c bb95 7e3c 6d1d 923d
000000b0: 6579 323d c065 23be 7dc9 e3bd 97a8 ee3c
000000c0: 0392 19bd 1dac 0f3e f67d 803c 2de7 0b3e
000000d0: fcd3 4c3e 069a 6abd 9ba6 133e 8bef 14be
000000e0: 49a5 bebd 6355 6b3d f52b 033e bf59 d43c
000000f0: 718a fd3d 93ef df3d 0b08 503e cea6 493d
-0.052012894 -0.0036533137 0.13584118 0.0356275 -0.016847696 -0.07364227 0.06417576 -0.08625003
0.054749455 -0.026336228 -0.116306305 0.13138308 -0.14681381 -0.088353485 -0.09399385 0.068636015
0.025866657 -0.0122362105 -0.16914757 0.04569812 -0.09759617 -0.18491223 -0.14610413 0.045430228
-0.12082047 0.10840383 0.13061975 0.112412184 -0.024481244 0.013752027 0.08718061 0.08620277
0.013133505 -0.10517368 0.044655833 -0.11241552 -0.04556286 -0.06451895 0.053172756 0.04407582
-0.083716266 0.024545893 0.015538628 0.07134519 0.043572802 -0.15956783 -0.11122415 0.029133124
-0.037492763 0.140305 0.015685063 0.13662405 0.2000274 -0.057275794 0.14419024 -0.14544503
-0.093088694 0.057454478 0.12809737 0.0259217 0.12379921 0.10934367 0.20315568 0.049231343

weight f4 [1, 64]
00000000: 2831 433d 8b5f 0e3e 376d 093e e2a6 ba3d
00000010: c578 933d c9a3 cd39 20d7 df3d ced9 253d
00000020: 3ec5 e23d 9ac5 333e 040d 2b3e 9225 f43d
00000030: 95e2 e2bd 875f a4bd 4799 573d 5e00 62be
00000040: ba44 39bb 432e 8ebc 8e3e 903d b0b4 50bd
00000050: fb3c a83d 717e 18be d22e b83d 31c1 d13d
00000060: 038d 1fbd d916 903d a6b7 103e 692f cabd
00000070: 94e8 11be 1584 97bd 3fb8 4e3e ab50 073e
00000080: bc0d 22be 7eff c6bd dd91 3e3d 44d6 01bd
00000090: b8e3 03bd a346 0abe 494c 273d c6e9 92bd
000000a0: 9dec 07be 5f61 293e 7e1d bf3d 43b0 853d
000000b0: ceb0 213d 462e 553e 06ff 4fbc b72b e4bc
000000c0: 93a2 56bd 39d9 ba3d 0cd8 a6bd a981 923d
000000d0: 5aef 7f3d 02d1 023e 7ff4 543e fd91 eebc
000000e0: 2d48 04bd 7c4b 7fbd 90db 4e3e 4c9e a83c
000000f0: e8d3 0a3e e0c9 f4bd 5925 1c3e b9ca 0d3e
0.0476543 0.13903634 0.13420568 0.091138616 0.07200769 0.00039222676 0.10929704 0.040490918
0.11072777 0.17555848 0.16704184 0.119212285 -0.11078373 -0.08026033 0.05263641 -0.22070453
-0.0028269724 -0.017356044 0.07043181 -0.050953567 0.08214756 -0.14891984 0.08993305 0.102419265
-0.03895284 0.07035608 0.14132556 -0.09872324 -0.14248878 -0.073982395 0.20187472 0.13214366
-0.15825552 -0.097167 0.046525825 -0.03169848 -0.03219959 -0.13503508 0.040844236 -0.07173495
-0.13273855 0.1654105 0.09331797 0.0652776 0.039475255 0.20818433 -0.01269508 -0.027852876
-0.052401137 0.09123463 -0.081466764 0.07153637 0.062484123 0.12775043 0.20796393 -0.029122347
-0.032295395 -0.062327847 0.20200944 0.020583294 0.13557398 -0.11952567 0.15248622 0.13846864

weight f4 [64, 3]
00000000: 41cb 6ebf f4eb 163f 3dea 8bbe a613 80bd
00000010: 6300 823d 5f21 353e 97a6 023f fee7 78ba
00000020: 1525 443e 8646 2ebf 3850 12c0 c9ff cdbe
00000030: 991d 1f3f e381 8cbf 8f68 95be eac4 1ebf
00000040: 4a4b 923e 277e 68be 3a0d 29bf 2625 ca3b
00000050: dcc8 653e a25f e3be 1297 f0be 0fb3 19be
00000060: e08f 50bf 1628 71bf 970b 44be f5c5 dabe
00000070: 9441 f83c a206 5f3e a174 2f3f 5a63 3ebf
00000080: dcab 8f3e fa5a 76bf ed18 7c3d 74c1 7abe
00000090: 9e9a d1be 9efe ebbf 5bc3 96be e640 35bf
000000a0: eed2 a93d 7285 40be b538 5d3f 4675 04be
000000b0: 30ae 6a3e 920d 7a3f 6a44 4e3f 33ca 97be
000000c0: 3b5b e03e 8cfa 2f3e cec5 f13d e6c8 0f3f
000000d0: 15a8 dc3e cfbd 203e fca6 41bf 302f 183e
000000e0: 330d 54be bd1e 11bf 1dea 833f 6b78 953e
000000f0: e0f2 023e 5af1 9c3a ade7 65be 0d03 01bf
00000100: 5bf6 553e 8bc4 4d3e 776e 01bf 6770 08bd
00000110: c3ea 4a3e d5ea 2bbf 70cd 44bf 56f3 83be
00000120: 83f9 f1be 942c bbbd 67ea 15be 0dc7 1bbf
00000130: 8b04 5dbd e406 2ebe 46a2 1bbf 9d2a 16c0
00000140: b7a5 1a3f 8591 9abd 5d32 d2be 4e05 23be
00000150: 46bf 1abf fcbe 9e3d a889 81be d20c 013f
00000160: 8c52 adbf 3435 bebe 600f 213f f8ad 27bf
00000170: 21bc 963e 6a42 61bf 066b de3c 8bf4 5a3e
00000180: b5a7 933d 2f0f e73d 29a5 1e3e 1223 343f
00000190: e955 29bf 3730 863e 0b03 77bf 5745 54be
000001a0: 7879 9abe 2a37 283f ee24 2ac0 b574 043e
000001b0: c73a 623f 4e83 443f 1f5f 92be 0499 44bf
000001c0: 77f5 49be e099 56be cf02 21bf c252 9a3e
000001d0: ec71 3bbe 6219 293f 87d0 233d ac3d 4f3e
000001e0: 2624 36bf 4956 5a3f 2225 9dbe 9250 2ebf
000001f0: 7f2b debe f248 6d3e d06a 323f fea8 2d3f
00000200: 2744 8e3e c7c1 94be 0b70 ccbd 07d3 28bd
00000210: 2e9b 8f3f 54e0 a03f f88e adbe cdce eb3e
00000220: 0e99 d2bf 36e2 ecbe 6bf4 17bf 3e13 b8bf
00000230: 527b b0be 3a71 09bf 9cf3 173e 5cb5 783e
00000240: 41c7 223d 3100 ef3f 771c 59bf 11af 963e
00000250: 6785 f93f f100 58be 5d00 153f b7e9 073e
00000260: 5602 923d 9dc7 00bd c780 f7bd f75d 1dbe
00000270: 854a afbe 60c7 cabd 87ee 4dbe 39bf 333f
00000280: 6195 a5be 865a 5dbe f948 d7bd cb66 533e
00000290: 68a7 3e3e 1c64 563f 02b1 84be 04a2 743e
000002a0: 73f5 113f 3310 d0bf 23c4 c6be 2179 dbbe
000002b0: 3cc8 8f3d 2f86 493e 3d49 c0be b7c8 9f3f
000002c0: 0603 39bf 9fcc 46bf 5062 aebe 2a13 993e
000002d0: 8d30 463f 863c 68bd b2f8 78be 0f9d 69bf
000002e0: fcac 2e3e 115a 5e3e 34d7 923e ef13 fa3d
000002f0: a9ee 433e e0e6 30bf 43e6 ae3d 0ac0 553e
-0.9327889 0.58953786 -0.27327147 -0.06253748 0.0634773 0.17688511 0.51035446 -0.0009495019
0.1915477 -0.6807636 -2.2861462 -0.4023421 0.6215454 -1.0977138 -0.29181334 -0.62019217
0.28573066 -0.22704373 -0.6603581 0.006168979 0.22439903 -0.444089 -0.46990258 -0.15009712
-0.81469536 -0.9420179 -0.19145046 -0.42729154 0.030304708 0.21779874 0.68537337 -0.7437035
0.28060806 -0.9623257 0.06154721 -0.24487859 -0.40938276 -1.8437078 -0.2944592 -0.7080215
0.08292185 -0.18800905 0.86414653 -0.12935361 0.2291801 0.97676957 0.8057314 -0.29646453
0.43819603 0.1718542 0.118053064 0.5616592 0.43096986 0.15697406 -0.7564542 0.1486175
-0.2070816 -0.5668753 1.0305821 0.29193434 0.12787962 0.0011973784 -0.22451659 -0.5039528
0.20894758 0.20094506 -0.5055918 -0.03331032 0.19816117 -0.671552 -0.7687597 -0.25771588
-0.47260675 -0.09139362 -0.14640199 -0.608506 -0.05395941 -0.16994816 -0.60794485 -2.346351
0.6040911 -0.07547287 -0.4105405 -0.15919992 -0.6044811 0.07751271 -0.25300336 0.5041019
-1.3540816 -0.37149966 0.62914085 -0.6549983 0.29440406 -0.87991965 0.027150642 0.21382348
0.07209722 0.11282193 0.15492691 0.70366013 -0.66146713 0.2620866 -0.9648902 -0.20729576
-0.30170798 0.65709174 -2.658504 0.12935145 0.8837094 0.76762855 -0.28588197 -0.76795983
-0.19722544 -0.20957136 -0.6289491 0.30141264 -0.18305176 0.66054356 0.03999379 0.2023837
-0.7114891 0.8528791 -0.30692393 -0.6809169 -0.4339256 0.23172358 0.6969423 0.67835987
0.2778637 -0.2905409 -0.09982308 -0.041216876 1.1219232 1.256846 -0.3389814 0.46056214
-1.6452959 -0.46266335 -0.5935733 -1.4380872 -0.34469086 -0.53688395 0.14839023 0.24287933
0.039740805 1.8671933 -0.8480906 0.2943044 1.9493836 -0.21094109 0.5820368 0.13272749
0.07129352 -0.031440366 -0.12085109 -0.15367876 -0.3423654 -0.09901309 -0.20110522 0.7021366
-0.3234053 -0.21616563 -0.10511965 0.20644681 0.18618548 0.83746505 -0.25916296 0.23889929
0.5701515 -1.6254944 -0.38821515 -0.42865852 0.070206136 0.19680093 -0.37555876 1.2483128
-0.7227024 -0.77655977 -0.3405938 0.29897434 0.7741783 -0.056698345 -0.2431362 -0.9125528
0.17058176 0.21714045 0.28679812 0.12210833 0.1913401 -0.6910229 0.08540013 0.20874038

bias f4 [64]
00000000: 772c 473f 1e8b 8cbf 8dd9 0ebf e8bf 473f
00000010: 7b46 57bf 3f1d 093f 5637 823f 2e01 263f
00000020: af5d 843f 6ecb 7b3f dcfc 03bf d43f 883f
00000030: a62c 063f d996 5f3f 59b5 7abf 4b20 60bf
00000040: 7bbd 75bf 9287 5fbf 1af7 4f3f cc48 233f
00000050: aa75 8dbf 488b 7a3f 5274 4a3f 40ab 483f
00000060: a45e 1f3f 4336 4c3f 4b6a be3e 0077 4a3f
00000070: d0a0 0b3f 956f c5be 76cf ddbe 68d8 7f3f
00000080: 0a4f 71bf ee2e 04bf 3ada cbbe a8d7 33be
00000090: e684 45bf b286 8e3f 4e84 173f dd6c 7fbf
000000a0: 1f5b 003f a775 3b3f 5d2e 40bf 350a 743f
000000b0: 1ccb 12bf 512c 16bf 80ed 4d3f 93c1 933f
000000c0: 799a cabe 88dd 3bbf feb8 8ebf 9827 703f
000000d0: f61a 883f 5cfd 4abf 04e7 8dbf 058d 5bbf
000000e0: 1417 39bf 73d3 553f 9c24 013f 8377 a93e
000000f0: 5341 97bf 1dc2 843f 75c0 83bf 91e3 7d3f
0.7780222 -1.0979955 -0.55800706 0.780272 -0.8409192 0.5356025 1.0173137 0.6484555
1.034109 0.98357284 -0.5155771 1.0644479 0.5241188 0.8733955 -0.97932965 -0.87549275
-0.9599225 -0.8731624 0.8123642 0.63782954 -1.1051533 0.97868776 0.7908374 0.78386307
0.62253785 0.79770297 0.3719047 0.7908783 0.54542255 -0.38561693 -0.43322343 0.99939585
-0.9426123 -0.5163411 -0.3981493 -0.17562735 -0.7715591 1.1134856 0.59186256 -0.9977549
0.5013904 0.732264 -0.75070745 0.95328075 -0.5734117 -0.5866137 0.8044052 1.1543449
-0.39570978 -0.73384905 -1.1150205 0.93810415 1.0633228 -0.79292846 -1.1086125 -0.85762054
-0.7230084 0.8352577 0.50446486 0.33098993 -1.181681 1.0371739 -1.0293108 0.99175364

weight f4 [64, 64]
00000000: 9476 9f3e 6ed6 2ebf ae8c bfbe 9af9 fd3e
00000010: 4b61 e9be 63c2 833e a7eb d13e f3ec 0e3f
00000020: 9185 1e3f dac5 803e 5ea5 debd 3edf e03e
00000030: a0ab 223e efa3 e93e d6af adbe 2370 d0be
00000040: e933 adbd 2e8f babe 4b57 8d3e 3ec5 c03e
00000050: ec9e a3be 1c1d e43e 2ac1 dd3e 3ba4 183e
00000060: 91be 583e af74 c83e 4858 af3d 7285 ed3e
00000070: 18d4 023f 472e 7abe 0e12 55be 2298 f73e
00000080: 5c4c 1bbf 2a0d 2bbe 0813 263d 2551 49be
00000090: d659 a2be 9bdf cd3e 9902 a13e e9a6 59be
000000a0: 644d 1d3e ffd4 533e 67e6 0fbe f835 853e
000000b0: 671f 6abd 27f3 29bf 28f4 923e f53a 963e
000000c0: 1d9c 5abe 279a 493d 5721 b1be 75fb ee3e
000000d0: a9db e43e a567 d0be ab40 1bbf bf28 86be
000000e0: 11fe 0fbf 4b08 603e ee25 dabd 130a d33e
000000f0: 3905 a6be 4f23 143f 121a 29bf 1e0c ef3e
00000100: 41a3 893e e093 233e 6b1c abbc 2f35 34bf
00000110: bb95 80bf d080 df3d c274 ef3e 65ae c4be
00000120: 13ed d7be a436 69bd 1a20 e8be 8293 5d3c
00000130: 74a4 2fbf ca84 2abc d86c c4bd 4928 143d
00000140: f353 933e 0126 cb3e 847a d43d 7e4d 863f
00000150: 0383 f73d ad3d 303d bb09 5f3d 1614 06be
00000160: 2ad8 31be 1be9 3f3c 88e6 dcbe 323c b9be
00000170: 9432 1c3d 72d5 82bf 4610 c4be b717 143e
00000180: 4c60 943e 1d48 fbbe eb06 07bf 98f3 bfbf
00000190: fd01 b6bd 8c2a f3bd c68d 523e 032c 08be
000001a0: 4537 163f da5e 1a3e 1a0d 393e bfc6 c5be
000001b0: fe50 d93e a43c a9bf 43f1 98be 3bf7 883e
000001c0: a726 073f 1d80 0b3f 45cd f33e bf17 8bbe
000001d0: cf5f a0ba ef1c ecbe fc76 173e ed34 8dbe
000001e0: e2ba aabf 0c4c b43c 35a8 8a3f 37cd a0bc
000001f0: d86a b4be c4d6 943e 9dcd 313e b9c5 403e
00000200: 88e3 993e d61f 45bf cd29 ebbe a263 773f
00000210: d6b3 a4be a41e e03e be76 043f 50a8 463f
00000220: c0e1 4f3f 4994 0b3f 5354 b5be 605f 1a3f
00000230: b956 233e 1915 623f 979f 48bf e1e4 04bf
00000240: d06a b3bf 94ce 03bf 55ed 1b3f de60 a13e
00000250: 4688 d4be 2925 fb3e e8d0 f13e cab7 e53e
00000260: 902a ce3e 5bb9 323f 7c26 a73e dc3a 053f
00000270: 50b5 973e 2d68 bcbd e115 8dbe a84a d23e
00000280: 3feb 4fbf 1151 9dbe 1488 27be f997 ba3e
00000290: 8a65 05bf 928e 7d3f 29b8 c73e 2b34 4ebf
000002a0: 80cb 2c3e 830a 943e 6b7d 84be 1e1b 913f
000002b0: 8fc6 82be 4ecd 68be e6a3 fe3e e200 013f
000002c0: 2619 a9be 633a 1fbe 671f 49bf ff8b 433f
000002d0: 2564 463f efc0 a8be 2b5b 14bf 320a 57bf
000002e0: 6385 f9be 376b 0b3f 99b4 d4bd df81 cc3e
000002f0: caa1 d0be 4411 053f 4c26 2ebf ea74 d93e
00000300: cd77 a3be 0d3c a9bd c2e5 8e3e 2a8c c0bd
00000310: d71e c83e a4ed 9dbe 151d 133e 543f 053e
00000320: 0eb2 59bd 4ce6 c73d b5b0 1c3f 74d1 84bd
00000330: 1406 fbbd 8441 2fbe 9437 293e d901 b5be
00000340: e107 9cbd b67d 5d3d 213d 92bd d9c3 37bf
00000350: 7344 263a 5660 133d 5bdf 9d3d 462a ff3c
00000360: 9bc1 b1bd 314c e3bc 00bc 823f e876 5e3e
00000370: 6edd 8ebe 7f0d 543f 8a9a 233f 9a2d c5bd
00000380: 4168 d9bd 6009 093f 046d 43be a876 903f
00000390: 7b1e c1be a0c6 0fbd bcc3 a7bd f4b5 04be
000003a0: 034f 1dbf eebc 1ebc fa9a 373e f93e e33d
000003b0: bf5c 27bf be13 663f 0ca9 a23d 0b56 573e
000003c0: b2cc bcbe 58d1 a1bf 6c4b 40bd a9d7 8a3e
000003d0: ac50 803d 0a44 c33e e7e5 d6bd 84d1 bc3d
000003e0: 4074 443f d7ed ff3d ce44 4dbf f82f 88be
000003f0: f095 a43c 6683 e4bd 5c54 dbbd ad7f 6dbd
0.31145155 -0.68295944 -0.37412018 0.49604493 -0.4558204 0.25734243 0.410001 0.55830306
0.61922556 0.2515095 -0.10871385 0.4392032 0.15885782 0.45632884 -0.33923215 -0.40710554
-0.08457167 -0.36437362 0.27605662 0.37650484 -0.31957185 0.4455346 0.43311435 0.14906399
0.21166445 0.39151523 0.0856176 0.46390873 0.5110488 -0.24431716 -0.20807669 0.48358256
-0.6066339 -0.1670424 0.040545493 -0.1965986 -0.31709164 0.4020966 0.31447294 -0.21255077
0.15361553 0.2068672 -0.14052735 0.26017737 -0.057158854 -0.66386646 0.287019 0.29341856
-0.21348615 0.049219277 -0.3459575 0.4667622 0.44698837 -0.40704075 -0.6064555 -0.26202962
-0.5624705 0.21878164 -0.10651766 0.41218624 -0.3242586 0.57866377 -0.66055405 0.46688932
0.26882365 0.15974379 -0.020887574 -0.7039365 -1.0045694 0.10913241 0.46768767 -0.38414302
-0.4217306 -0.056936875 -0.45336992 0.013523938 -0.6861031 -0.010407636 -0.09591073 0.03617123
0.28774986 0.39677432 0.103749305 1.0492399 0.120855354 0.04302757 0.05445264 -0.130936
-0.17367616 0.0117132915 -0.4314463 -0.36178738 0.038134173 -1.0221388 -0.38293666 0.14462171
0.2897972 -0.49078456 -0.5274493 -1.4996214 -0.08887098 -0.118733495 0.20561895 -0.13298039
0.58678085 0.15075245 0.18071404 -0.38628194 0.42444605 -1.3221631 -0.29871568 0.26751122
0.52793354 0.5449236 0.47617546 -0.27166554 -0.0012235584 -0.46115825 0.14791483 -0.27579442
-1.3338282 0.022008918 1.0832583 -0.019629104 -0.35237765 0.29070103 0.17363591 0.18825425
0.30056405 -0.770017 -0.4593033 0.966364 -0.32168454 0.43773377 0.51743686 0.77600574
0.8120384 0.5452314 -0.35415897 0.6030178 0.15951051 0.8831344 -0.78368515 -0.5191174
-1.4016972 -0.5148709 0.60909015 0.31519216 -0.41510218 0.49051788 0.47229695 0.44866782
0.40266848 0.6981408 0.3264655 0.5204294 0.29630518 -0.091995575 -0.27555755 0.41072583
-0.8121833 -0.3072591 -0.16360503 0.3644407 -0.5210806 0.9904567 0.3900769 -0.8054835
0.16874504 0.2891427 -0.25876936 1.13364 -0.25542113 -0.22734568 0.4973442 0.5039197
-0.33027 -0.15549617 -0.7856354 0.7638549 0.7749656 -0.32959697 -0.5795161 -0.8399993
-0.48734578 0.5446047 -0.10386009 0.39942834 -0.40748435 0.5197947 -0.68027186 0.4247201
-0.31927338 -0.08263407 0.27909666 -0.09401734 0.3908603 -0.30845368 0.14366563 0.13012439
-0.05314832 0.097607225 0.61207134 -0.064852625 -0.12257019 -0.17114836 0.16525108 -0.35352972
-0.0761869 0.054074965 -0.07140566 -0.71783215 0.0006342597 0.035980545 0.07708617 0.031148087
-0.086795054 -0.027746292 1.0213623 0.21725047 -0.27903312 0.82833093 0.6390768 -0.096278384
-0.10615588 0.5352993 -0.19084555 1.1286211 -0.37718567 -0.035101533 -0.0819163 -0.12960035
-0.6144869 -0.009688599 0.17930213 0.110959955 -0.65375894 0.89873874 0.079423994 0.21028917
-0.3687492 -1.2642012 -0.046946928 0.2711766 0.06265387 0.38137847 -0.10493069 0.092196494
0.76739883 0.12496536 -0.8018311 -0.26599097 0.020091027 -0.11157875 -0.1070945 -0.05798309

bias f4 [64]
00000000: e007 813e 7005 e0be 0383 0f3f 205a 083d
00000010: 7607 743d b234 9a3e 20a2 b13e 311d 4dbe
00000020: e136 513d fe2a 843e d742 f83e 3611 673e
00000030: 418f 9e3e f497 893e 30fd 71be 2ffd db3e
00000040: d933 873e bc92 2cbe 6e68 8bbe d799 cb3e
00000050: 307a 89be 56ad 4cbe d609 04bf 38a2 923e
00000060: 9ecd fbbd 9979 0bbe d7c8 a5be 2ef5 f53e
00000070: fc23 8fbe d84d c13e d2ef 6f3e 8c30 9ebd
00000080: 746e d3be aa1f eebe 2ff5 30bc fcdb 57bf
00000090: a638 33be 6826 023b 6b56 8abe 5a1a 92be
000000a0: ceeb 133e 488b 8c3d 3d13 333e 2b33 a2be
000000b0: 152c edbe 0326 1c3e ae3f 9bbe 724f a43e
000000c0: 6984 823e 8ade 3d3d 9bd9 793e 5891 bfbe
000000d0: 31f0 62be 1d83 babe 97f0 733e 985f b0be
000000e0: abb6 a33e 93c8 763e bc40 033e e238 033f
000000f0: 5ceb ef3e 080d a0be 52a6 70be fe43 92be
0.2520132 -0.43754148 0.56059283 0.033289075 0.059577428 0.30118328 0.34694004 -0.20030667
0.051077727 0.2581405 0.48488495 0.22565159 0.3096867 0.26873744 -0.2363174 0.429666
0.26406744 -0.1685285 -0.2722811 0.39765808 -0.26851034 -0.19987997 -0.5157751 0.28639388
-0.12295078 -0.13620605 -0.3237979 0.4803862 -0.2795714 0.37754703 0.23431328 -0.07724103
-0.41295207 -0.46508533 -0.010800644 -0.84320045 -0.17502078 0.0019859318 -0.27019057 -0.2853573
0.14445421 0.06862503 0.17487808 -0.31679663 -0.46322694 0.15248875 -0.3032202 0.32091862
0.25491646 0.046354808 0.24399416 -0.37415576 -0.22161938 -0.36428156 0.23822246 -0.34447932
0.31975302 0.2409995 0.12817663 0.5125867 0.46859252 -0.31259942 -0.23500946 -0.285675

weight f4 [1, 64]
00000000: 86e2 05c1 56c7 0bc1 7ead 06c1 374f 0e41
00000010: 5890 0b41 399a 0d41 70de 0bc1 b7c3 0b41
00000020: d613 0e41 3043 06c1 bce9 06c1 96dc 0b41
00000030: 8203 0c41 1000 07c1 60b2 0741 5776 05c1
00000040: b6c9 0841 9703 0741 3b4b 0b41 c0eb 0e41
00000050: 1261 0641 ded4 0641 753d 0bc1 53e3 06c1
00000060: 855f 0cc1 11f4 09c1 7283 0a41 0f06 07c1
00000070: 69b5 0741 7333 07c1 5e2c 0b41 d293 0841
00000080: a340 0641 9184 0841 3f5f 0a41 bbf3 0cc1
00000090: b439 0841 4fdc 0e41 caec 0641 c834 0641
000000a0: 85a6 06c1 3934 0ac1 e222 06c1 66a5 0741
000000b0: 3c4b 0741 3dfb 0ac1 4f8c 0a41 266a 08c1
000000c0: c3d0 09c1 197e 0c41 22ef 06c1 c004 0dc1
000000d0: 3622 0741 8441 0741 1dd2 06c1 db08 0741
000000e0: f4e7 09c1 60b8 0ac1 5d42 0d41 a10d 06c1
000000f0: c5b3 08c1 1f78 0ec1 5efc 0ac1 c4f9 0641
-8.367804 -8.736166 -8.4173565 8.89434 8.72274 8.850152 -8.741806 8.735282
8.879843 -8.391403 -8.432064 8.741354 8.750856 -8.437515 8.481049 -8.341392
8.549246 8.438376 8.705867 8.932556 8.398699 8.42697 -8.702504 -8.430499
-8.77332 -8.622087 8.657091 -8.438979 8.48179 -8.450061 8.698332 8.536089
8.39078 8.532365 8.648253 -8.8095045 8.514088 8.928786 8.43281 8.387886
-8.415654 -8.63775 -8.383516 8.4778805 8.455868 -8.686337 8.659255 -8.525915
-8.613467 8.780786 -8.433382 -8.81366 8.445852 8.453495 -8.426297 8.439662
-8.619129 -8.670013 8.828702 -8.378327 -8.543889 -8.904326 -8.686613 8.435978
