log/mujoco_ddpg_walker2d_v3_3/mujoco_ddpg_walker2d_v3_3_s3/pyt_save/model.pt (torch_old, 581120 bytes, 11 tensors)

weight f4 [256, 17]
000000 eb 87 39 c0 da 5b 67 40 ec cb a6 3f 39 0e c4 3d
       -2.8989208 3.6149812 1.3030982 0.09573025
000010 ba 55 28 3f 0e 2a 9c c0 c8 c3 e5 3f 2f f7 26 3f
       0.6575581 -4.8801336 1.7950373 0.6522092
000020 95 f6 5e 3f 93 ef c0 3f d9 a9 cb 3c ac db a2 3d
       0.87095004 1.5073112 0.024861263 0.07952055
000030 a9 4a 1d 3d a5 4d 95 3e 13 78 90 be b1 39 d1 3d
       0.03840128 0.291608 -0.2821661 0.10216082
000040 c1 3e f1 3d 46 9c 51 40 26 2b b4 3f c2 55 97 3f
       0.117795475 3.2751632 1.4075668 1.1823046
000050 f9 83 07 bf b1 e4 5b bf 69 86 33 40 a6 e3 bb bd
       -0.5293575 -0.8589583 2.8050787 -0.0917428
000060 a2 81 6e be d4 f9 99 3f 16 9c fb bf 82 e2 86 be
       -0.23291638 1.2029366 -1.9657009 -0.26344687
000070 80 47 8e 3e 2f b8 a5 3d 1f 76 03 3b d5 93 95 3e
       0.27788925 0.08091771 0.002005942 0.2921435
000080 b2 e4 c2 3e 68 61 15 be 71 51 d5 be 02 f6 28 c1
       0.38065106 -0.14587939 -0.41663697 -10.5600605
000090 1d 2e 84 bf 2f 10 2e 3e 0f 4f 33 be 2e 05 0f bf
       -1.0326573 0.16998361 -0.17510627 -0.5586728
0000a0 fe 41 3c 3c a0 d2 6e be 3a 5e 43 be c6 98 0c 3f
       0.011490343 -0.23322535 -0.19078913 0.54920614
0000b0 39 f8 41 bf 8c fe 97 bd 9d f0 73 3d 80 68 5b bc
       -0.7576938 -0.07421598 0.05955564 -0.013391614
0000c0 f9 e1 13 3d 87 1c 60 3c 14 ab 9f 3c 62 1e 87 c0
       0.036104176 0.013678676 0.019490756 -4.222459
0000d0 48 b1 d4 3f 3c a0 c7 be 56 a0 9f 3f 80 68 99 c0
       1.6616602 -0.38989437 1.2470806 -4.7940063
0000e0 27 9f 5c 3f a2 d7 19 3b 98 8c dc bd e6 b8 4c bf
       0.8618035 0.0023474474 -0.10769004 -0.7996963
0000f0 75 2e 01 c0 08 01 97 3d d0 62 10 3f 58 30 93 3e
       -2.0184605 0.073732436 0.56400776 0.2874782
000100 29 47 29 bf a4 4f ac be 5c 9e 8f be b2 eb ad 3d
       -0.66124207 -0.3365451 -0.28050506 0.08492221
000110 4e 4b e2 bf 1b 62 40 40 36 ed 90 40 ed be 31 40
       -1.7679231 3.005988 4.5289564 2.7772782
000120 25 d3 c5 3f 16 60 86 bf 26 87 1a be 6b 8d c2 bf
       1.5455061 -1.0498073 -0.15090618 -1.5199407
000130 eb e9 07 3f 54 70 86 bf 5c 2d 85 be 9b 67 d4 be
       0.53091305 -1.050303 -0.2601117 -0.41485295
000140 aa 03 8a 3e 6d 71 1d be b0 95 22 be 8a bb ec bd
       0.2695592 -0.153753 -0.15877414 -0.11559208
000150 df af 7e bd 39 c4 a8 be 46 26 e2 40 76 aa 9a bf
       -0.062179442 -0.32962206 7.067172 -1.208327
000160 7a c7 16 bf 5e 3d de bf 13 45 13 40 14 7d 60 40
       -0.5889813 -1.7362478 2.301091 3.5076342
000170 b2 33 ba 3f ff db 54 3f 7e e3 b8 3f 91 cc 15 3f
       1.4547026 0.8314819 1.4444425 0.5851527
000180 45 e8 87 3d 66 3e 84 3e 96 38 46 be 7f 48 99 3e
       0.06636099 0.25828856 -0.19357523 0.29938123
000190 93 b2 b3 bd c9 df 8f 3c a5 f3 13 40 ef 3c 4a 40
       -0.08774295 0.017562764 2.311746 3.159969
0001a0 28 06 45 3f b6 49 01 3f 0c 5c b9 bf 00 20 1f bf
       0.7696252 0.505031 -1.4481215 -0.62158203
0001b0 b3 65 92 bf 73 e8 84 3f b5 a7 5d bf 72 94 a6 3f
       -1.1437286 1.0383438 -0.86584026 1.3014052
0001c0 8a b6 10 3f 77 06 70 bf c0 3e 9e be c9 a9 2c be
       0.5652853 -0.93759865 -0.3090725 -0.16861643
0001d0 3a 65 95 bb 8a d3 ad be 83 07 28 3d 69 8c 89 bf
       -0.0045591863 -0.33950454 0.04102279 -1.0745975
0001e0 8c e1 cd 40 a6 87 f0 bf 52 94 8d 3e 89 b6 c8 3e
       6.4337826 -1.8791397 0.27652222 0.39201763
0001f0 a6 52 e9 bf 64 a5 ec be 0e c4 e1 bf 5e 56 41 3f
       -1.8228347 -0.46219933 -1.7637956 0.7552241
000200 ad 2d d3 3f 26 8d 61 3e cd df 5b 3e fe a1 b4 bd
       1.6498314 0.220265 0.21472092 -0.0881996
000210 ff 20 54 3e c5 86 f7 be 42 c4 00 be 45 54 7d bd
       0.20715712 -0.48345008 -0.12574866 -0.061847944
000220 ed 68 62 bf b8 9d 92 40 b1 07 bc c0 f4 be 3f c0
       -0.88441354 4.581753 -5.875939 -2.9960299
000230 48 30 b7 bf cd 9a 4d 3f 30 3a b8 3e 41 04 ca be
       -1.4311609 0.8031433 0.35981894 -0.3945637
000240 ca 5c ad 3e 11 b4 0e bf a8 96 8e 3d 3d 12 29 be
       0.33859855 -0.5574351 0.06962329 -0.16510864
000250 86 69 dc bd 08 d2 6c bd 99 a9 4d bb 77 4a ec 3d
       -0.107623145 -0.05781749 -0.0031381606 0.115376405
000260 cf b2 9e 3c 08 c9 37 40 e9 db 90 40 26 0f f2 bf
       0.019372372 2.871645 4.5268445 -1.8910873
000270 61 c9 6b 40 0d f9 ed bf 0a 37 53 40 f0 3e 0b 40
       3.6841662 -1.8591629 3.3002343 2.1757164
000280 d0 dd 00 bf 66 ce a6 bf 40 fe 94 bf a2 50 8e be
       -0.5033846 -1.3031738 -1.1640091 -0.27795893
000290 92 13 bc be ef 0a bd 3e 6f 8c 88 bd 78 18 e1 3d
       -0.3673368 0.36922404 -0.066674106 0.10990995
0002a0 b8 e9 13 3e d2 70 bb be 5f 76 95 c0 38 c1 03 41
       0.14444625 -0.36609513 -4.6706996 8.234673
0002b0 bf 42 f4 bf 11 28 fc 3f ce fe 27 c0 c0 87 d3 bd
       -1.9082869 1.9699727 -2.624927 -0.10328627
0002c0 e2 26 4a 3e 5f 7a 98 c0 cd 5d 45 bf 53 67 b4 bf
       0.19741395 -4.764938 -0.77096254 -1.4094032
0002d0 83 c7 86 bd ef 34 69 be 07 6d 9a 3e 61 01 60 3e
       -0.065810226 -0.22774099 0.30161306 0.21875526
0002e0 0b 46 6a 3e 7b ce cc bd db 3a 71 3d d4 9b 6f 3f
       0.22878282 -0.100003205 0.05889402 0.9359715
0002f0 89 d2 9a 3f ac 18 15 bf 4c 25 29 40 d2 4c fe be
       1.20955 -0.5824077 2.6429014 -0.49667984
000300 af 15 27 40 0a 83 bf 3f 08 15 99 bd 77 7f 11 be
       2.6106985 1.4961865 -0.074747145 -0.1420878
000310 87 ff 48 bf 34 01 8b 3f b5 0a 5d bf 7b 2f cf 3d
       -0.78514904 1.0859742 -0.8634446 0.10116478
000320 40 b6 4d 3e 71 9b 43 3f a0 d8 d5 3d cf 04 83 bd
       0.20089054 0.7640906 0.104417086 -0.063974015
000330 c1 2a 05 c0 de d7 58 40 f5 fa 20 c0 b3 0c c2 bf
       -2.0807345 3.3881755 -2.5153172 -1.5160125
000340 fd cb 5a 3f 2f 12 03 bf 04 ca 59 bf bb 8b ec bf
       0.8546751 -0.5119962 -0.85073876 -1.8480142
000350 5c 38 59 bf 0a c8 7a 3f e6 13 83 be 08 b1 9c bd
       -0.8485162 0.97961485 -0.2560112 -0.076509535
000360 cb 67 63 3e d2 3b 5d bc fd 94 1d 3e f5 e8 b8 bd
       0.22207563 -0.013503032 0.15388866 -0.09028808
000370 4b 12 c1 bd b8 03 4f c0 57 84 a8 3f 26 43 bc 40
       -0.09427317 -3.234602 1.3165387 5.883197
000380 22 f0 81 3f fc 55 39 40 0d 22 6b 40 e6 57 c9 3f
       1.0151408 2.895873 3.6739533 1.572995
000390 fc 2f 75 3e 20 60 71 bf 5f 57 1d 40 67 6a 4d 3f
       0.23944086 -0.942873 2.4584577 0.8024048
0003a0 d7 54 10 3f 07 91 00 bf 8d 56 00 3e d6 67 e8 be
       0.56379455 -0.50221294 0.12533017 -0.4539172
0003b0 61 b1 b2 be cb 08 38 3d bf 88 b3 be bc ea 91 40
       -0.34900954 0.04493026 -0.35065266 4.559904
0003c0 61 f2 ad 40 4e 93 b1 3f 14 7e fe 3f 83 fe 25 41
       5.4358373 1.3873079 1.9882226 10.374637
0003d0 67 5a 2b be 35 8a 41 bf 6b ad c2 3f f1 68 06 bf
       -0.16733705 -0.7560151 1.5209173 -0.5250388
0003e0 c1 e9 25 be df 98 07 bf df b3 2e 3e cd b4 30 3e
       -0.16202451 -0.5296764 0.17060803 0.1725647
0003f0 53 9e 33 3f 11 d8 2d 3e af 42 7d 3c 67 1b 03 c0
       0.7016346 0.16976954 0.015457793 -2.0485475

bias f4 [256]
000000 bd 0b 83 3e e0 50 42 c0 86 0b e1 c0 c8 90 4b c0
       0.25594893 -3.0361862 -7.0326567 -3.1807117
000010 52 56 aa bf c8 2c 74 c0 38 68 2e bf d0 60 b5 c0
       -1.3307593 -3.8152332 -0.68127775 -5.668068
000020 cc 5f 65 c0 22 fc e8 3e 87 e1 7e c0 d7 0b 71 c0
       -3.583972 0.45504862 -3.982515 -3.7663476
000030 07 5a 49 c0 d3 d2 6e c0 5b 20 c2 be 83 20 51 c0
       -3.1461198 -3.7316177 -0.3791531 -3.2676094
000040 cb 10 1d c0 2e 87 1c c0 66 86 9e bf 2d fc bd bf
       -2.45415 -2.4457507 -1.2384765 -1.4842583
000050 6c 2d 11 c0 13 89 26 c0 08 a7 3c c0 f7 aa 1d c0
       -2.2683973 -2.6021163 -2.9476948 -2.4635599
000060 23 64 35 c0 18 ca 76 c0 68 fb d3 40 92 14 8c bf
       -2.8342369 -3.8560848 6.6244392 -1.0943778
000070 6d 52 21 c0 c3 54 87 bf 40 bc 09 c0 cc 15 1b bf
       -2.5206559 -1.0572742 -2.1521149 -0.60580134
000080 23 8a 0f c0 03 30 34 bf 59 36 c4 bf 18 70 1e c0
       -2.2428062 -0.7038576 -1.5329086 -2.4755917
000090 ef c6 09 c0 59 8e 8d be 4d 16 2e c0 04 bd 43 c0
       -2.152767 -0.27647665 -2.7201111 -3.0584116
0000a0 3a 9b a0 bf 5e 6b 0e c0 ec df a7 c0 5d 53 36 bf
       -1.2547371 -2.2253032 -5.246084 -0.7122095
0000b0 12 aa 81 bf ab 4d a3 c0 26 04 08 c0 d0 0c 78 bf
       -1.0130026 -5.103231 -2.1252532 -0.9689455
0000c0 9e 27 d8 bc 0b 47 dc 3f 7e 2f eb bf 23 97 58 c0
       -0.026386078 1.720918 -1.8373868 -3.3842247
0000d0 3f ba b6 bf c3 51 a1 40 3a 09 cc bf 9d ec 05 c0
       -1.4275588 5.0412307 -1.5940316 -2.0925667
0000e0 eb e5 2d c0 db b1 09 c0 61 47 9d c0 3b bd 0d c0
       -2.717158 -2.1514804 -4.9149632 -2.2146747
0000f0 3a 82 f3 be 22 f2 01 3e c2 43 dd bd f6 90 45 c0
       -0.47560292 0.12690023 -0.108039394 -3.0869727
000100 34 ab 12 c0 65 55 9d bf 0d b5 0c c0 bf 44 00 3f
       -2.2916994 -1.2291685 -2.1985505 0.501049
000110 a3 af 40 3f 60 5c 24 c0 5e a2 6d c0 db 6d b3 bf
       0.75268 -2.5681381 -3.713035 -1.40179
000120 0a de e4 3f bb 61 57 3f 45 89 42 c0 a4 49 34 bf
       1.7880261 0.841335 -3.0396283 -0.70424867
000130 1e 15 76 3f 40 36 4c c0 6e d2 44 3f c6 7d 73 3e
       0.9612597 -3.1908112 0.7688359 0.23778448
000140 82 53 05 c0 50 0d 90 3e 00 64 bc c0 87 f4 a8 c0
       -2.083222 0.28135157 -5.887207 -5.2798495
000150 da da 12 40 8f 87 c3 bf a2 c6 db bf a2 76 8a c0
       2.2946076 -1.5275744 -1.7169993 -4.3269815
000160 94 6b ea bf 28 d8 7c c0 09 3c 09 bf 4a 7a 30 c0
       -1.831408 -3.9506931 -0.5360723 -2.757464
000170 59 da 8e bf b9 a6 df 40 41 c1 0e c0 a3 01 71 3f
       -1.1160384 6.989102 -2.2305453 0.9414312
000180 35 8e 39 c0 63 8c 0e 40 29 4a 9a c0 9f ea 60 c0
       -2.8993046 2.2273185 -4.8215528 -3.5143201
000190 d4 20 b6 be 10 c0 9d 3e e6 38 eb 40 03 33 02 c0
       -0.3557192 0.30810595 7.3506956 -2.0343635
0001a0 26 08 88 c0 a3 56 2a c0 2d 22 d9 be c5 aa 46 3f
       -4.2509947 -2.661538 -0.42408887 0.77604324
0001b0 c1 b8 38 c0 29 9a 81 bf 13 bb 58 c0 38 f3 c3 3e
       -2.8862765 -1.0125171 -3.386418 0.382715
0001c0 96 56 58 3f ae 72 35 c0 b0 65 3e c0 f1 4e b2 bf
       0.8450712 -2.8351245 -2.9749565 -1.3930341
0001d0 cf 8b 0a c0 a1 bf da 40 10 31 27 c0 50 ef 8e bf
       -2.1647832 6.835892 -2.6123695 -1.1166782
0001e0 e0 c7 55 c0 d4 e1 0f c0 9d c8 b9 3f b3 2f 53 c0
       -3.3403244 -2.2481585 1.4514347 -3.2997863
0001f0 46 24 2f c0 1e 6d 8b c0 fa 1d 19 bf 9f 75 97 3f
       -2.736589 -4.35707 -0.59811366 1.183277
000200 29 6e 50 c0 de e1 5d 40 d9 4d d4 bc 6e 02 24 41
       -3.2567236 3.4669108 -0.025916027 10.250593
000210 35 a0 3e bf 77 37 4c bf b8 42 0f bf b4 04 53 c0
       -0.74463207 -0.7977213 -0.5596118 -3.297162
000220 ee 5f 88 c0 30 4e 1b c0 a7 26 ab c0 10 a5 96 3f
       -4.26171 -2.4266472 -5.3484683 1.1769123
000230 df 1a 3e c0 bf 32 cc bf 99 0a 7d bf c6 af d5 bf
       -2.97039 -1.5952986 -0.98844296 -1.6694267
000240 8a 74 60 bf aa 56 4a c0 d4 4f 39 40 3c a9 f2 bf
       -0.87677824 -3.1615396 2.8954973 -1.8957896
000250 9b af b9 bf e8 16 59 3f 5c 54 4d c0 c6 cc e3 40
       -1.4506716 0.8480058 -3.208274 7.1187468
000260 44 50 02 3e b7 73 9e bf dd 06 f7 bd c0 5a 8c 40
       0.12725931 -1.2379063 -0.12061856 4.386078
000270 8a 65 43 40 14 b2 5b c0 4a c8 f3 bf 40 4f ce bf
       3.0530725 -3.432744 -1.9045498 -1.6117935
000280 90 ac e8 bf 54 cb 9e c0 42 c1 e6 3f c3 9a 0e c0
       -1.8177662 -4.9623203 1.8027728 -2.228196
000290 d5 08 10 bf 50 91 02 bf b6 27 0f c0 60 7f f7 bf
       -0.56263477 -0.5100298 -2.2367988 -1.9335747
0002a0 d5 56 12 40 44 8e 2b 3f 53 ac e0 bf c6 cd cc c0
       2.2865498 0.67013955 -1.7552589 -6.400119
0002b0 3f 1e 0e 41 6c 37 a8 bf cb a4 46 c0 0a a5 f1 bf
       8.882384 -1.3141913 -3.1038082 -1.8878491
0002c0 24 d1 21 c0 b1 9b 28 3f 50 0e 36 c0 75 dc 7e c0
       -2.52839 0.65862566 -2.8446236 -3.9822056
0002d0 97 a6 fe bf ed 33 2a c0 f7 e2 28 c0 ed 23 2c c0
       -1.9894589 -2.6594193 -2.6388528 -2.6896927
0002e0 01 f0 0f 3f 20 19 2c c0 9d 51 1e c0 7e 8f 3d c0
       0.5622559 -2.6890335 -2.4737313 -2.961883
0002f0 dd e5 39 be f4 d1 81 c0 cf 9f 89 c0 0c e9 89 3d
       -0.18154092 -4.056879 -4.300758 0.06733903
000300 d7 ab f4 bf 1e 88 ac bf d0 6e b4 3d fe 6d 95 c0
       -1.9114941 -1.347904 0.08810198 -4.669677
000310 fe fb 54 c0 8a a4 ab bf 13 8e 2d c0 34 18 51 c0
       -3.3278804 -1.3409588 -2.7117965 -3.2671022
000320 dd 71 51 c0 b1 13 ba bf 8a c9 b4 bf 99 0c ee 3f
       -3.2725747 -1.4537259 -1.4124005 1.8597594
000330 19 22 9a c0 01 0b e0 bf 02 25 90 bf 02 e5 4b 3f
       -4.8166623 -1.7503358 -1.1261294 0.79646313
000340 d0 48 9d be 54 2b 01 c0 3a 8e 88 c0 9e e0 67 40
       -0.30719614 -2.0182695 -4.2673616 3.6230845
000350 06 df 31 40 08 81 ea bf be e5 8c c0 48 99 40 c0
       2.7792373 -1.8320627 -4.4030447 -3.0093555
000360 18 82 ae bf b7 18 b1 bf 7e f6 cb bf f5 20 f7 bf
       -1.3633451 -1.3835667 -1.5934598 -1.9306933
000370 26 c5 be 3e ed df 8e c0 48 89 4a 40 f7 61 c0 3f
       0.37259787 -4.4648347 3.164629 1.5029896
000380 10 ff 50 c0 5e a4 cd bf 8d 01 96 c0 e6 a4 8b c0
       -3.2655678 -1.6065786 -4.6876893 -4.363879
000390 74 d4 a7 bf 48 c5 9c 3f 06 2e 2b c0 e0 8c 41 bf
       -1.311171 1.2247705 -2.674684 -0.75605583
0003a0 ad 36 89 c0 fb 12 33 c0 bb 5b 8c c0 5f 78 18 c0
       -4.2879243 -2.7980335 -4.3861976 -2.3823469
0003b0 78 5b 7a c0 2c b0 35 c0 b3 76 72 bf e1 89 fd bf
       -3.9118328 -2.8388777 -0.9471237 -1.9807702
0003c0 bc 03 c3 bf c4 fe d4 bf 24 96 e7 bf 82 1e 43 c0
       -1.5235515 -1.6640248 -1.8092694 -3.048737
0003d0 70 e0 17 bf 98 11 ef 3f 56 1a 34 c0 d0 b0 09 c0
       -0.5932684 1.8677244 -2.8141074 -2.1514168
0003e0 00 15 29 c0 2a d6 a6 c0 34 b8 84 c0 20 c3 01 bf
       -2.6419067 -5.213643 -4.1474857 -0.5068836
0003f0 0f 0b 13 bf d7 b6 ef be 38 09 50 bf 41 ac 42 c0
       -0.5743875 -0.46819183 -0.81264067 -3.0417635

weight f4 [256, 256]
000000 71 e5 b0 be cc 41 b4 be 06 58 71 3f 71 87 8b 3f
       -0.3455005 -0.3520645 0.9427494 1.0900708
000010 92 95 7a bf ee c6 5e 3f 4f 25 5a bf 0c 1f ab bf
       -0.97884476 0.8702229 -0.8521318 -1.336885
000020 2d 15 48 bd 50 e4 29 3d 23 dd c0 3e d3 9e ab bf
       -0.04884832 0.0414775 0.37668714 -1.3407844
000030 84 c1 06 be a0 57 16 bf cc ca 4f bf bd 6b f6 be
       -0.13159758 -0.58727455 -0.8116882 -0.48129073
000040 b5 3b 74 3f 7f 15 fc be c2 37 07 bf 82 76 80 3e
       0.95403606 -0.4923515 -0.52819455 0.25090414
000050 2c b9 86 bf f1 18 43 bf 5a f6 83 3f 73 51 14 c0
       -1.052526 -0.7620993 1.0309556 -2.3174713
000060 06 ff 4a 3f 21 4f 6b 3e 71 a9 98 3e 92 73 66 bf
       0.79295385 0.22979404 0.29816774 -0.90020096
000070 d8 05 86 3f 22 d2 a2 bd 3c dd 18 bf 05 fa c8 3d
       1.0470533 -0.07950236 -0.59712577 0.098133124
000080 64 87 f3 be 66 38 21 3f a8 f6 91 bf c6 96 0e bf
       -0.47564232 0.6297668 -1.1403399 -0.5569881
000090 07 00 e6 bf d4 ea 86 be 17 55 ac be da da 0e 3e
       -1.7968758 -0.26351035 -0.33658668 0.13950673
0000a0 2a ca e8 bf 03 e4 58 3f 16 d1 16 be 08 f0 23 3f
       -1.8186696 0.8472292 -0.14728197 0.64038134
0000b0 ce 72 dd bd 28 25 7f 3f 2e 3e ac be 36 2a 82 3f
       -0.10812913 0.9966607 -0.3364119 1.0169132
0000c0 4b be 06 bf 1a 71 17 bf 2d 2c dd be 49 23 0f 3f
       -0.52634114 -0.59156954 -0.43197766 0.55913216
0000d0 f9 48 08 bf 7c 7e 21 bf d5 b2 76 3f a8 1d d8 3f
       -0.5323635 -0.63083625 0.96366626 1.688405
0000e0 b0 95 42 3f 32 01 da bf 9c 5a 0b 3f 80 66 1d bf
       0.76009655 -1.7031615 0.54435134 -0.6148453
0000f0 21 15 c1 bf e0 cf 62 be e7 6d 1a c0 54 e0 be 3f
       -1.5084573 -0.2214961 -2.412958 1.491221
000100 c6 60 5d 3f 50 09 f0 bf 8b be a7 bf 0f 70 b6 bf
       0.8647579 -1.8752842 -1.3105024 -1.4252948
000110 3e d5 72 bf 3e 48 8f be 59 4e 06 3f 62 7a 68 bf
       -0.9485663 -0.27984804 0.524633 -0.9081174
000120 b9 a1 67 3e 7d 69 a4 bf f7 76 60 3f 0e a1 c5 bf
       0.22620286 -1.2844692 0.87681526 -1.5439775
000130 bb bc 8b 3e b1 6a b9 3e 85 cb 24 3f dd 7f 37 c0
       0.27292427 0.36214212 0.64373046 -2.8671792
000140 6c 7e 40 c0 b6 1a 95 3e 6c cd 82 bf 3f f1 4c be
       -3.0077162 0.2912194 -1.021894 -0.20013903
000150 ec b4 df bf 27 ff f2 3e 7f 6d d7 be 83 99 41 3f
       -1.7477088 0.4746029 -0.42075726 0.75624865
000160 ec 77 82 be c4 1f 0e c0 07 c8 27 3e bd bc 1a 3f
       -0.25482118 -2.2206888 0.16384898 0.6044424
000170 9c 44 ce 3e 59 d6 0b bf 04 e0 b7 be 0c 44 e7 be
       0.4028672 -0.54623944 -0.35913098 -0.45169103
000180 5f 9c 50 3f cf 98 a0 3e 67 f1 96 bf 43 22 09 40
       0.81488603 0.31366584 -1.179242 2.1427162
000190 4e a5 5a bf 55 37 c9 3e 00 c5 b8 3e fd 16 27 be
       -0.85408485 0.39300027 0.360878 -0.16317363
0001a0 96 2f f7 be ea 1c f1 be 1a d3 67 3f 86 69 97 bf
       -0.48278493 -0.47092372 0.9055649 -1.1829078
0001b0 8d a7 15 c0 de 03 bd 3e ba e2 d9 3d 88 23 e8 be
       -2.3383515 0.36917013 0.10638948 -0.45339608
0001c0 b5 6a d5 bc 57 3f 16 be 01 12 98 3f b9 e3 02 3e
       -0.026051858 -0.146726 1.1880494 0.12782182
0001d0 bf 08 05 c0 62 83 7e 3f ab 6f 95 be 9b c1 9e be
       -2.0786588 0.99419224 -0.29186758 -0.31007084
0001e0 5e a3 38 3f 79 14 b9 3f 48 83 02 c0 d7 ab d6 3f
       0.7212428 1.4459373 -2.0392628 1.6771191
0001f0 fd 9a ef be ac a8 f4 be 62 b3 16 bf 08 99 20 c0
       -0.46797934 -0.47784936 -0.58867466 -2.5093403
000200 e4 16 57 3f 98 6c ff be 0c 56 61 be fd e4 9a 3f
       0.84019303 -0.49887538 -0.2200548 1.2101132
000210 ff 92 d3 bf e1 e5 78 be 98 95 7d 3f 0a 79 e6 3d
       -1.6529235 -0.24306442 0.99056387 0.11253555
000220 86 e1 8c bf 91 54 5c bf b3 19 20 3e 71 75 8a bf
       -1.1006324 -0.8606654 0.15634803 -1.081709
000230 b1 b2 98 be 15 32 9d 3f 2d f6 a9 bf 6e 44 07 40
       -0.2982383 1.2280909 -1.3278252 2.1135516
000240 c6 74 4c be b9 a8 d7 be 2e 41 26 3d 80 1f 1c 3f
       -0.1996642 -0.42120913 0.040589504 0.60985565
000250 99 99 c3 bf 56 04 23 bf ef 4d 33 3e c7 4f 83 3f
       -1.5281249 -0.6367849 0.17510198 1.0258721
000260 f3 c4 48 bf b5 71 52 3e dc bd 03 3f d3 61 3d 40
       -0.7842552 0.20551188 0.5146158 2.9590957
000270 df 3a 34 3f 5b 99 cb 3e 33 5d 00 bf 87 53 5e 3f
       0.7040233 0.39765438 -0.5014221 0.868462
000280 b9 cd b8 bb fe 4a 51 bf 4c 5f 59 40 52 06 87 3f
       -0.0056397584 -0.81755054 3.3964415 1.0548804
000290 a8 1a 48 3f 90 50 4a bf c0 b4 41 3f 3d e9 23 3e
       0.78165674 -0.7902918 0.7566643 0.16006942
0002a0 d4 ef ea 3f 9c ee 16 c0 74 dd f3 bd 74 8f b2 bf
       1.835444 -2.3583136 -0.11907473 -1.3950028
0002b0 69 e9 62 3e c3 2b b2 bf 2b 6b 07 c0 03 db 20 c0
       0.22159351 -1.3919605 -2.115916 -2.5133674
0002c0 22 a4 8c bd c1 29 77 be 1a ae 22 3f 8c 95 f0 3e
       -0.06867243 -0.24137022 0.6354691 0.46989095
0002d0 09 a2 5d bf e6 4c cc 3f f6 bf 92 3f a8 c0 ce bf
       -0.8657537 1.5960968 1.1464832 -1.6152544
0002e0 48 fb 83 3f f8 51 04 bf 5b a7 92 be b7 e4 d7 3f
       1.031106 -0.51687574 -0.28643307 1.6866673
0002f0 5f fb 30 bf 56 82 9a 3d b2 4a 0b bd 5a c1 8d 3e
       -0.6913356 0.07544391 -0.034006782 0.27686578
000300 69 4c c1 be ed a3 92 3e 73 61 6a 3f 72 78 66 3e
       -0.3775361 0.2864069 0.91554946 0.22506884
000310 63 fc 5c bd bb 4d 9f bf 99 87 46 3f 9b c9 e7 be
       -0.053951632 -1.2445596 0.77550656 -0.45271
000320 3b 6b 35 bf 10 78 21 3f ad ef 8c bf 15 66 b2 be
       -0.70866746 0.63073826 -1.1010643 -0.34843507
000330 52 99 d5 be 53 08 73 bf fc a3 f2 bf a9 0b 23 3f
       -0.41718537 -0.94934577 -1.8956294 0.63689667
000340 5d 55 a7 3f 07 6b b3 be 86 32 0b 3f ba 49 2b c0
       1.3072926 -0.35042593 0.5437397 -2.676375
000350 7b 6a d5 3f 24 77 84 3f f9 3f e0 bf ac b5 b9 bf
       1.667312 1.0348859 -1.7519523 -1.4508567
000360 7e 04 ea bd 8b e1 06 be 20 7d a4 bf 95 a1 39 3f
       -0.11426638 -0.13171975 -1.2850685 0.7251218
000370 d7 a8 9b bd 67 3d 0d c0 93 92 22 40 ca 51 df be
       -0.07600563 -2.2068727 2.5401962 -0.43617088
000380 67 11 d2 3d f7 1f fe be a6 55 e2 be f7 93 5b bf
       0.102572255 -0.49633762 -0.4420597 -0.8577265
000390 b2 5b a9 3f 68 f1 b6 bf fc da f2 bf fe 9c c1 bf
       1.3231108 -1.4292421 -1.8973079 -1.5126035
0003a0 3b cd 59 3e a0 d5 d8 3f f7 b2 88 3f e9 9a 69 3e
       0.21269695 1.6940193 1.0679616 0.22813
0003b0 ef 00 da bf c2 dd 55 bf 82 34 17 c0 e6 74 e6 bc
       -1.7031535 -0.835415 -2.3625798 -0.028131913
0003c0 84 25 06 3f 52 0f af bf b3 c3 9a 3e bc a0 9a 3f
       0.52400994 -1.367655 0.30227432 1.2080302
0003d0 26 ee 4f 3f bf e6 5a 3f 26 e6 db be 3d 0a 4a bf
       0.8122276 0.8550834 -0.42949027 -0.7892187
0003e0 43 3c 15 3f e0 3a bf 3f a6 7d b1 bf 2b 69 d1 3e
       0.5829508 1.4939842 -1.386647 0.4090055
0003f0 fa 5c 97 bf 54 ab 6a bf 8d 38 4f 3f 33 4b 82 bf
       -1.1825249 -0.91667676 0.80945665 -1.0179199

bias f4 [256]
000000 7d e0 ec 3f 19 ee 9e c0 fd 77 d4 be b1 b8 39 bc
       1.8506008 -4.9665647 -0.41497794 -0.011335538
000010 57 12 b7 be cc bc 1b 3e 49 f0 92 3f 84 2c e9 bf
       -0.3575618 0.15208739 1.1479579 -1.821671
000020 f9 a5 96 bf e5 5a 66 bc 00 5c 57 c0 d4 98 55 bf
       -1.1769401 -0.014059757 -3.3649902 -0.8343632
000030 6f c9 e9 bd b7 4f 11 3f 3c 47 d2 bd 35 64 9b bf
       -0.114153735 0.5676226 -0.10267493 -1.2139956
000040 16 68 d5 be 82 d9 17 be ae 77 ba bf a4 af 22 bd
       -0.41680974 -0.14829066 -1.4567773 -0.039718285
000050 8b 6e 04 c0 2a 48 a5 be 8b ad eb bc 7d e2 fe bd
       -2.069247 -0.3228162 -0.028769275 -0.12445543
000060 e3 2a a3 3f 8d bc 98 3f d4 64 71 bd 4b 9e a5 bf
       1.2747463 1.1932541 -0.058934048 -1.2938932
000070 3d 7c e8 bf 3a 23 d1 bf d1 60 14 be 17 ad 87 bd
       -1.8162915 -1.6338875 -0.14490058 -0.06624811
000080 ac 86 18 3f 38 ea 47 40 8e 11 c2 3f 5f 9e 0b bf
       0.5958049 3.1236706 1.5161607 -0.5453853
000090 74 cf 1e bf bc 96 65 3f 5e 52 28 c0 5f 89 a8 bd
       -0.620353 0.8968313 -2.6300273 -0.082293265
0000a0 ef 81 d7 bd 1f ce 8f 3f 2c eb df be 92 0a 54 be
       -0.1052283 1.1234778 -0.4373411 -0.20707157
0000b0 a7 17 01 c0 a9 cb a3 bf de 6b de 3e 10 cf 98 bd
       -2.0170686 -1.2796527 0.4344167 -0.07461369
0000c0 bc 73 70 3f 82 0a fe bd cc d1 ba bd e2 8c 4f 3f
       0.93926597 -0.12404348 -0.09122047 0.81074345
0000d0 0d 41 2b bf 30 2a fb bd 98 de 00 bf a6 39 b8 bd
       -0.66896135 -0.12263906 -0.5033965 -0.089953706
0000e0 50 db de 3f 5b a5 2f bd 51 9b 1a bf 33 3a 27 c0
       1.7410679 -0.042882305 -0.60393244 -2.6129272
0000f0 6e 7d 8e bf 4c 45 94 bc 8f f9 cf bd 6d 7a 22 be
       -1.1132028 -0.01809945 -0.101550214 -0.15867014
000100 bc 9f 30 be 0d 08 5f bd 80 ad 9a 3f ac 96 dc bd
       -0.17248434 -0.054451037 1.2084198 -0.10770926
000110 b3 be 8d 3f 51 1e 24 c0 54 24 9a bc 6f 24 9b bf
       1.1073822 -2.5643504 -0.01881615 -1.2120494
000120 33 bf 88 be d7 bd 1f c0 66 0d d5 bd 52 d1 c5 3f
       -0.26708373 -2.495962 -0.10402946 1.5454504
000130 ef f7 f2 bf f9 1e 8d 3f 90 71 2e be cb 8d 7c bf
       -1.8981913 1.1025077 -0.17035508 -0.9865386
000140 7b 58 8b be 5e ee a2 3f e0 c1 4e bf c8 cf 23 bf
       -0.27215943 1.2728994 -0.8076458 -0.63988924
000150 51 96 ad 3b 4a 07 90 bf 4d 11 1e be 78 62 f1 be
       0.00529746 -1.1252224 -0.15436287 -0.47145438
000160 89 f8 40 3f a9 00 b7 3f 7b b6 60 bd b5 20 56 bd
       0.75379235 1.4297076 -0.054861527 -0.052277286
000170 73 19 bb bf 12 cf cc 3f 64 f0 a8 bd 96 e6 11 3f
       -1.4617141 1.6000693 -0.08248976 0.5699247
000180 4a e2 d0 3f 38 44 9f be 55 57 f1 bc 17 97 e9 bd
       1.6319058 -0.31106734 -0.029460588 -0.11405771
000190 0a 92 68 3e 6a e3 b3 bf 0d c0 08 3f 8d 48 7a bd
       0.2271196 -1.4053776 0.53418046 -0.061104346
0001a0 94 7a 1f bf ce 14 c7 bf 0d b1 f1 bc 6e dc 8d bd
       -0.62296414 -1.5553224 -0.02950337 -0.06926809
0001b0 7e f7 2c bf d1 4c a1 bf a7 fb 08 be 07 c4 5b bf
       -0.67565143 -1.2601568 -0.13377248 -0.8584599
0001c0 fd 52 bc be d7 be eb be ae 42 cd bd 06 8f a2 bc
       -0.36782065 -0.46044037 -0.10022484 -0.01984359
0001d0 84 8a 49 c0 19 14 1e 3f ac 70 38 3b 98 91 a9 3e
       -3.1490793 0.61749417 0.002814333 0.33118892
0001e0 1a dd b8 3f 32 5e a6 bf da 24 a7 bd 6c 4d 2f 3f
       1.4442475 -1.2997496 -0.08161326 0.6847751
0001f0 db 5c 0b bf 84 9f c3 3f 0c e1 16 bf 8f 4f ba bd
       -0.5443856 1.5283055 -0.58937144 -0.09097206
000200 0d 59 85 bf 1e dc 8d 3e 61 c5 47 bf a0 61 0e 3d
       -1.0417801 0.27707 -0.7803555 0.03476107
000210 e7 55 04 40 36 c9 7c bd fa a4 6e 3f 47 29 6c bd
       2.067743 -0.061715327 0.93220484 -0.057656553
000220 72 4b 79 bb c9 06 d8 bd 13 cb c1 bf d3 8f 35 bd
       -0.0038039354 -0.10548169 -1.5140098 -0.044326615
000230 1c c2 1a c0 57 06 cb 3f d6 94 cc bf 54 23 de 3e
       -2.4180975 1.586131 -1.5982921 0.43386328
000240 50 04 90 bd f8 f4 30 bd 7d 00 44 3f 66 64 d3 be
       -0.070320725 -0.04320237 0.76563245 -0.41287535
000250 3f 4b 9e bf e1 1e 78 bd 96 80 cb bf f0 c6 ed bd
       -1.2366713 -0.060576323 -1.5898616 -0.1161021
000260 91 df 74 bf c5 2e 14 bd 9d 54 38 3e 64 85 ee bf
       -0.95653635 -0.036177415 0.18001027 -1.8634458
000270 7a 98 9a bd f0 1e a2 3c bd c2 91 bd df 9f a5 bd
       -0.07548614 0.019790143 -0.071172215 -0.080871336
000280 73 f2 3b bd 20 4e a2 be 25 7a 0a bf d8 99 af be
       -0.045885514 -0.3170023 -0.5409263 -0.3429706
000290 1e 2c e0 bd f8 4b d1 bc 9d d7 9f bb 4a f8 49 bc
       -0.10945915 -0.02554892 -0.004877998 -0.012327263
0002a0 80 3f 3d bd f7 b8 10 bd 3b 13 e1 be 32 d6 a4 bf
       -0.046203136 -0.035332646 -0.43959984 -1.2877867
0002b0 69 bf 4a 40 8d f1 c5 bc 7a e8 45 bf f3 69 e6 bf
       3.1679327 -0.024163032 -0.77307856 -1.8001083
0002c0 7c 02 a4 bf de d9 2a bc d2 9d 12 c0 b9 98 5e bd
       -1.2813258 -0.01042792 -2.2908826 -0.054344866
0002d0 92 ff 90 bd f1 b3 2e c0 5d cb fd bf 33 0f e0 bd
       -0.07079996 -2.7297328 -1.9827687 -0.10940399
0002e0 70 5d 2e bf 9c 56 1f c0 b7 98 e6 bf 46 56 ee bf
       -0.68111324 -2.4896612 -1.8015355 -1.8620079
0002f0 29 5e 86 3f 78 50 25 c0 ea 03 ff bf e5 b0 8a 3d
       1.0497485 -2.5830364 -1.992307 0.06772021
000300 38 63 ae bf 1e 9a 0f 40 e2 e0 b0 bf 61 1b 67 bd
       -1.3624029 2.2437816 -1.3818629 -0.056422595
000310 be 43 44 3f c0 85 0b c0 5c f7 5c bf 7a d2 86 bd
       0.76665866 -2.1800385 -0.8631494 -0.06583114
000320 17 02 58 c0 78 1d 03 bd fa e0 88 bd c5 ee 50 bd
       -3.3751276 -0.032010525 -0.06683536 -0.05100896
000330 3d d7 29 bf 99 8e da bf 1d 6d 8b 3e 53 30 b2 bd
       -0.6634405 -1.7074767 0.27231684 -0.08700623
000340 2b cb ae bd 27 77 30 bf 43 0e bd bc f9 c1 89 bf
       -0.08534845 -0.6893181 -0.02307809 -1.0762321
000350 74 99 42 3f 96 75 91 bd 40 dd 68 bd 50 05 26 be
       0.760154 -0.07102506 -0.056851625 -0.16212964
000360 1e a0 52 3f 05 04 02 3f 1c 24 18 bd 44 22 f1 bf
       0.8227557 0.50787383 -0.03714381 -1.8838582
000370 eb 4b a3 bd f2 b2 19 c0 6e fc 89 bd 03 d7 a0 bd
       -0.079734646 -2.401547 -0.067376 -0.0785351
000380 fd bb c7 be 9b 79 09 be 17 a3 d2 3e e9 14 07 bd
       -0.3901061 -0.13425295 0.41140053 -0.032978926
000390 34 b8 d1 bd 47 68 d7 bd af 37 b1 bf 0d fe c7 bd
       -0.10240212 -0.10517936 -1.3845118 -0.09765253
0003a0 53 66 17 bd 58 40 17 be b1 37 da 3d 72 a5 75 bc
       -0.03696282 -0.14770639 0.106551535 -0.0149930585
0003b0 58 6e 95 bf 6a c9 55 bf e9 c0 85 bc 17 d3 fe bd
       -1.1674299 -0.8351046 -0.016327338 -0.12442606
0003c0 ee b4 e4 3f 6b 6b b6 bc eb 64 a9 bd 07 a7 46 bd
       1.7867715 -0.022268018 -0.08271202 -0.048499133
0003d0 9e 68 c4 bf 2b de fd bf f8 ee c8 bf df ad 07 40
       -1.5344427 -1.9833425 -1.5697927 2.1199872
0003e0 19 eb fe bb 8e df 9b bf e5 b5 c3 bf ed b8 60 be
       -0.0077794907 -1.2177598 -1.5289885 -0.21945544
0003f0 ea cf b6 bd 69 b0 91 3d 7c 7b fd bd b2 67 f5 bf
       -0.08926375 0.07113726 -0.123770684 -1.917227

weight f4 [6, 256]
000000 f6 e9 2b 3f 0f b5 07 3f 11 db 5d bf 53 05 ec 3c
       0.6715387 0.5301065 -0.86662394 0.028811133
000010 c8 11 2b 3e 18 9c 7a 3b e1 35 8d 3d 11 70 a7 3d
       0.16706002 0.0038240012 0.06895042 0.08175672
000020 6c 5b 38 bf d9 80 47 3d 1a 4d 3a bf 68 52 01 bf
       -0.720145 0.048706863 -0.727739 -0.50516367
000030 4d 6c 3a bd 9d f4 a8 3e c7 8a db bb 08 4f cd 3c
       -0.04551344 0.32999125 -0.006699893 0.0250621
000040 d8 11 0f 3e 24 08 45 3c 63 fa 85 3e 76 41 bd bc
       0.1397165 0.012025867 0.26167592 -0.023102503
000050 71 f8 ab be ce de a8 bd c1 43 48 3d 6f 84 29 bd
       -0.33587983 -0.082456216 0.04889274 -0.041386064
000060 29 25 b8 3d 25 0b 87 bd 84 2c f0 bc ff 13 a8 bc
       0.08991463 -0.065939225 -0.029318102 -0.020517347
000070 f7 05 89 bd 53 74 8b 3e f6 f3 91 3b f7 74 36 3c
       -0.06690591 0.27237186 0.0044541312 0.011136285
000080 f8 71 92 3d a5 da 2f 3c 7e 84 ba 3c 3d df ee 3d
       0.07150644 0.010733281 0.022768255 0.11663673
000090 ca 2f 15 bd d0 af 32 be 86 50 92 be 6d f1 28 3d
       -0.03642253 -0.1744988 -0.2857706 0.041245867
0000a0 3f 86 26 3d 6f 0a 93 bd 07 ce 80 3e 36 b3 36 bd
       0.04065537 -0.071797244 0.25157186 -0.044604503
0000b0 bf 02 3a be 47 7a f1 be 4d a6 5b 3f f3 fd 72 3d
       -0.1816511 -0.47163603 0.8580063 0.059324216
0000c0 2c 59 fa 3e ef b9 d6 3c ed d0 3e bd ad 79 f8 3e
       0.48896158 0.026211707 -0.046585966 0.4853033
0000d0 3d 8c 1e 3d 07 f4 94 bc 7a 93 55 bd 92 7b 81 3d
       0.03870796 -0.018182768 -0.052142598 0.06322397
0000e0 bc cb 02 bd e7 d6 5d bd 55 51 b3 bd 2b bf 7f bf
       -0.031932577 -0.054160025 -0.08755747 -0.99901074
0000f0 b2 63 6a 3f 50 60 2e 3d c2 f0 6a bc 47 17 48 3d
       0.9155837 0.04257232 -0.014339628 0.048850324
000100 cb ac 90 bd 0c ea 3d 3d f5 46 02 3e 68 88 ca bc
       -0.07064208 0.046365783 0.1272238 -0.024723247
000110 ef 9f 29 bf 40 60 13 be 83 ae cc bc 04 3b 84 3e
       -0.66259664 -0.14392185 -0.024985557 0.25826275
000120 8d 22 3b be 34 6d a2 3b ba db 04 bb 5e 91 fa bd
       -0.18274899 0.0049568657 -0.0020272569 -0.12234758
000130 34 88 14 3d e8 07 8d 3d b7 d2 85 3d e3 89 2e 3e
       0.036262706 0.068862736 0.06534331 0.17044787
000140 8d 7c a5 3d b6 ef 1a be ec 4b 33 3d 36 9c b3 3c
       0.08080397 -0.15130505 0.043773577 0.021925073
000150 c8 92 16 3d a7 00 5d 3c de 04 c1 3c da a5 83 bd
       0.036761075 0.013488925 0.023561891 -0.06428118
000160 e4 85 b5 3d 2b d8 e2 be 8f 22 85 bd c4 d8 4b 3b
       0.08863428 -0.44305548 -0.06500732 0.0031104544
000170 68 35 d4 be 51 29 b9 3c d6 ac 99 bc 53 38 8b bd
       -0.41446996 0.022602709 -0.018759172 -0.06797852
000180 2a 0b c5 bb cb c3 00 3e a7 91 3c bd 3c f9 09 bd
       -0.0060132938 0.12574689 -0.046037342 -0.033684954
000190 3b d3 a4 3d 44 1c 20 3f f3 4b 0c 3f cd 4d 0d bd
       0.080481015 0.6254313 0.5480339 -0.034498025
0001a0 62 6a b8 bf f9 1a 29 3e 57 3f 95 bd b8 ae 94 bd
       -1.4407465 0.16514196 -0.07287472 -0.072598875
0001b0 5a 89 1f 3f 86 5e ea be 76 dc 86 3d d7 10 4b bf
       0.62318957 -0.4577524 0.06585018 -0.7932257
0001c0 fe 8d 06 3f 9e af 11 3e a9 48 41 bc a7 68 a9 bc
       0.5256041 0.14227149 -0.011797109 -0.020679785
0001d0 dd 73 86 3e 19 27 2a 3e 2b 07 ba bb 5c c2 65 3c
       0.26260272 0.16616477 -0.005677124 0.01402339
0001e0 d6 d8 13 3d 17 fb 5a 3e 9c 82 1b 3d 85 07 ce 3d
       0.036095463 0.21384846 0.037966356 0.10060028
0001f0 bf 5f 8d 3d 82 78 58 3e 4f d3 bf 3d 28 3e c5 3a
       0.06903028 0.2113972 0.09366476 0.0015048431
000200 a4 42 42 3a d5 d6 52 3f 06 13 03 bf 03 5c 0a bd
       0.0007410443 0.8235906 -0.512009 -0.033779155
000210 42 96 5a bd fb 3e 5f 3b a3 08 f4 bd 1a 60 28 bd
       -0.053365953 0.003406464 -0.1191571 -0.041107275
000220 a2 55 92 bb a1 5d 68 3c 76 42 2e 3e a1 04 07 3d
       -0.0044657746 0.014182479 0.1701754 0.0329634
000230 55 b5 17 bf 6d 3d b3 3c 5c 34 77 3f 1d db 03 3d
       -0.59261066 0.021879876 0.9656427 0.032191385
000240 08 cd 64 bc 51 56 35 3a c6 66 89 be 91 84 25 3d
       -0.013964899 0.0006917464 -0.26836222 0.04040963
000250 2b e6 b8 3f 0b b6 71 bc ff f1 c5 be 5b 9c b1 bc
       1.4445242 -0.014752875 -0.3866119 -0.021681001
000260 66 c7 ba 3d 63 58 2e bd 60 cf f0 3e 29 cf e3 bd
       0.091200635 -0.04256476 0.47033215 -0.11123497
000270 a5 f8 6c bd c9 72 d2 3c 2a f9 3f bd cc 3e 7f bd
       -0.057854313 0.0256895 -0.04686848 -0.062315747
000280 1c 33 cf 3c ca c3 84 3f bb 51 b3 be c2 b2 98 bd
       0.025292926 1.037225 -0.35023293 -0.0745597
000290 f3 de fd bb eb 47 7c bc 47 67 e9 3a 33 a1 bf bc
       -0.007747525 -0.015398006 0.0017807268 -0.023392295
0002a0 24 ee 17 3d 3e cc 16 bd bc 99 42 bb 1d 47 2b bd
       0.037092343 -0.036815874 -0.0029693684 -0.041815866
0002b0 22 c0 27 3e b0 c4 94 bc c5 37 84 3e 0f 8a 18 bf
       0.16381887 -0.018160194 0.258238 -0.5958566
0002c0 c7 fd df 3e 62 33 84 3c d6 9a 42 3f ea d2 62 3d
       0.43748304 0.016137782 0.7601751 0.055376925
0002d0 ef c3 96 bd ff 3c 8a be d7 07 55 3d 6c 08 96 bd
       -0.0736159 -0.2699966 0.05200943 -0.07325825
0002e0 11 27 a1 3e d8 85 bf be 5a 25 7e 3e d0 3d c4 3d
       0.31475118 -0.37406802 0.24818936 0.09582102
0002f0 5f ef 20 3d b9 92 af be 06 56 f4 3e e0 3f 91 bb
       0.039290782 -0.34291628 0.4772188 -0.0044326633
000300 4a 55 82 bd e0 34 51 3d 92 92 54 be ff ba 5b 3d
       -0.06363924 0.051075816 -0.20759037 0.05364513
000310 e0 b7 f2 bc 14 5b 85 3d 43 b5 fe 3e b1 13 79 bd
       -0.029628694 0.065115124 0.49747667 -0.060809795
000320 00 d4 10 3c b7 74 db 3b cd 47 b2 bc 9e 1b a4 3d
       0.008839607 0.006697263 -0.021762753 0.0801308
000330 d4 3e f5 be 65 6c 81 be 0a 75 c7 3e 78 93 f2 bc
       -0.47899497 -0.2527801 0.3895648 -0.029611334
000340 d4 00 9b 3a 78 3b 6b 3f c8 b7 a3 bc 0e d3 49 3f
       0.0011825808 0.9188762 -0.019985095 0.7883767
000350 f5 5f 94 3d e1 65 ab bc 52 0e 55 bd 16 40 e1 3c
       0.07244865 -0.020922603 -0.05201561 0.027496379
000360 4f a8 22 bc 05 47 20 bd a8 ac 13 3d f3 ba 55 3d
       -0.009927823 -0.03913023 0.03605333 0.05218024
000370 ee 2d 55 bd 1a 0f 90 bc 57 db 6d bd 85 88 47 bd
       -0.052045755 -0.017585326 -0.058070507 -0.04871418
000380 b4 26 de bd cc e5 80 bd 70 d7 a6 3d 79 11 6e 3c
       -0.10847226 -0.0629383 0.0814656 0.014530533
000390 17 d3 7a bc ff 78 70 3c 38 8f 04 bf 9c b2 00 bd
       -0.015309117 0.014677285 -0.51781034 -0.031420335
0003a0 3a f6 1b 3d 1d 69 6e 3d 06 c0 ea 3b 3c 69 90 bc
       0.038076617 0.058205713 0.0071640043 -0.017628305
0003b0 59 8d 8a 3e de 50 ba bd 29 ed 0e ba 6b ff 47 3d
       0.27060965 -0.090974554 -0.000545221 0.04882757
0003c0 6b 28 63 3d b7 53 85 3d a1 bd 84 bc 3a c4 cd 3d
       0.055458467 0.06510108 -0.016203703 0.10047193
0003d0 38 83 19 bb 80 94 65 3d ee 5a 35 be ed 63 a6 3d
       -0.002342416 0.056049824 -0.17710468 0.08124528
0003e0 84 6b 7a 3b 29 6d 43 3e d3 dc 58 3f bc 1b 9f bd
       0.0038211057 0.1908461 0.8471195 -0.07768962
0003f0 11 00 a3 bd 9e 0c 74 bc 75 5c 6c 3d 5b 70 ce bd
       -0.07958997 -0.014895586 0.05770536 -0.10080024

bias f4 [6]
000000 a1 9f c9 3f 36 61 79 3e 04 e1 f4 be c3 d5 77 3f
       1.575184 0.2435349 -0.47827923 0.9681055
000010 b7 22 29 be ac 6c 26 c0
       -0.16517149 -2.6003828

weight f4 [256, 23]
000000 9e 0d 0e 40 dc 13 13 40 3a c2 af 3f f4 9b f6 bf
       2.2195811 2.2980871 1.3731148 -1.9266343
000010 3d 72 24 40 53 4b e6 3f 94 fd 1b 40 9e 17 47 bf
       2.5694726 1.7991737 2.4373522 -0.7777041
000020 f5 03 37 3f 7b 7c 0f 3a 00 94 cd 3e ea 65 74 3e
       0.7149041 0.0005473566 0.40151978 0.23867002
000030 19 ca f1 3e 69 67 95 3d 96 77 fa be b6 f0 bb be
       0.472245 0.072951145 -0.48919362 -0.36707085
000040 d4 f2 38 bd b5 49 b5 3f 94 5a 65 3e 6a 2f 77 be
       -0.045153454 1.4163119 0.22397834 -0.24139181
000050 65 1c 81 3e ca b5 0b 3f 87 7b 60 be 7b 7b 0d 41
       0.25216976 0.54574263 -0.21922122 8.842647
000060 b8 a7 33 40 09 e6 31 be 1f 79 e2 bd f3 24 08 3f
       2.8071117 -0.17372908 -0.11058258 0.5318138
000070 75 ab d2 3f c7 51 31 3f a2 99 56 bf cb a0 2f 3f
       1.6458575 0.6926541 -0.83828175 0.68604726
000080 93 cc 07 c0 77 97 e1 bd 2e 25 a3 ba 4a b5 a1 bd
       -2.1218612 -0.11015218 -0.0012446993 -0.07895906
000090 10 88 03 be 52 27 ce 3e 5e 1d ff bd 68 97 0e be
       -0.12844872 0.40264374 -0.12456773 -0.13924944
0000a0 95 5c 30 3c 11 ce bb 3d 50 7c bb be a5 1d 46 3f
       0.010764261 0.091701634 -0.3661828 0.77388984
0000b0 ba 3b f9 bd 48 04 c3 3e 7c 87 69 bf 14 f1 3e 40
       -0.12169595 0.38089204 -0.9122236 2.9834642
0000c0 7d 52 72 3f 4a b3 33 40 04 66 00 c0 cb b7 4d bf
       0.9465712 2.807818 -2.0062265 -0.8035857
0000d0 bf 23 fd bf 95 75 8e bf 62 98 82 be 13 4a 47 3f
       -1.9776534 -1.1129633 -0.25506884 0.77847403
0000e0 7c 58 28 3e b1 5a 03 bf ba 5a 07 3e 71 ef 07 3d
       0.16440004 -0.5131026 0.13218203 0.033187333
0000f0 29 c2 b7 3e 23 54 7c be 62 69 43 be f8 c7 08 bf
       0.3589032 -0.2464147 -0.19083169 -0.5343013
000100 bd cd 2f 3f d7 d7 f8 be 1d da 1d 3f 21 ad df be
       0.68673307 -0.48602173 0.6166094 -0.43686774
000110 ab 66 97 bc 63 c8 54 40 fe 68 cb 3f 76 8b 9c 40
       -0.018481573 3.3247306 1.5891416 4.892024
000120 c9 5e 15 c0 75 d3 c3 3e 14 4a 0f bf 77 62 49 3f
       -2.3339102 0.38247266 -0.5597241 0.7866587
000130 fb 7c eb 3d eb 8f ba 3e 1c 7a 3f 40 e7 4b 4f bf
       0.114984475 0.36437926 2.991828 -0.8097519
000140 68 01 f5 3e e9 4a 71 be 1a 03 ce 3d 3a bc d6 bc
       0.47852635 -0.23563732 0.10059185 -0.0262128
000150 60 6e c7 bd ad 9f 51 3e 22 8b ba 3e b5 50 9d bc
       -0.09737849 0.20471068 0.36434275 -0.019203523
000160 80 15 54 3e f2 ec 87 be ea 6c 94 be 67 a2 87 3e
       0.20711327 -0.26547962 -0.28989345 0.2649109
000170 57 f9 b0 3e c6 ed 8f 40 21 41 15 40 c9 5c 4f 3f
       0.3456523 4.497775 2.3321002 0.81000954
000180 e3 7b c2 40 38 58 0e 3f 1f 3b 81 40 27 b9 f5 bf
       6.077623 0.5560336 4.038467 -1.9197129
000190 57 5a 21 bf a2 b5 76 3f c9 14 bd 3e 6c 36 38 bd
       -0.6302847 0.963709 0.3692992 -0.044973776
0001a0 b1 64 1c 3d c9 8a 75 bd 98 0d 00 3d 39 3f a1 3e
       0.038181964 -0.05994681 0.031262964 0.31493548
0001b0 bf df 7e bc 55 de de 3e 02 0f 5b 3e ae 9d 15 3d
       -0.015556275 0.43529 0.21392444 0.03652733
0001c0 9c f7 33 3e e9 2b be 3e 90 4a 78 be d7 7b 06 c0
       0.17574924 0.37142876 -0.24247193 -2.1013086
0001d0 1a d9 d3 3f 99 9f 2f 40 12 6c 94 40 a2 4b a7 bf
       1.6550629 2.744116 4.638192 -1.3069956
0001e0 5c 51 ed 40 c8 61 0b be db d5 6b 3f 55 d4 ea bf
       7.4161816 -0.1361152 0.9212319 -1.8346049
0001f0 f0 a7 cf bf e4 4f 8b bf 24 f9 90 3e 93 ae c4 3e
       -1.6223125 -1.0883756 0.2831508 0.3841444
000200 53 36 55 3d 8c c8 a5 3f a5 cf 56 3f 93 65 e4 bb
       0.05205376 1.2951827 0.8391059 -0.0069701164
000210 07 b3 e9 3e 97 a7 89 bf 29 95 ea bf ea 97 83 3f
       0.456444 -1.0754269 -1.832677 1.0280735
000220 90 13 2e 3d bd a2 01 40 8c 98 db c0 69 0e 71 40
       0.042499125 2.0255578 -6.8623714 3.7665045
000230 41 a7 55 40 f7 4b 54 c0 2c c2 83 3d 0d 09 a9 3e
       3.3383334 -3.3171365 0.0643352 0.33014718
000240 37 2d b9 bf 04 d2 92 bf 1b 36 87 be 02 8b 11 bf
       -1.4466923 -1.1470342 -0.26408467 -0.56852734
000250 0a a7 a2 3d 73 1b 98 3c 2f f6 70 be 09 d9 f8 bc
       0.079420164 0.018567776 -0.23531412 -0.030376928
000260 b2 e3 05 3e e1 30 d4 bd 4e 1b 6a 3e 04 16 d9 3e
       0.1307514 -0.103608854 0.22861978 0.4239961
000270 34 ad 18 bf 32 e5 a2 3e 24 f4 c7 3e 49 ec 9d be
       -0.59639287 0.31815487 0.39053452 -0.30844334
000280 33 bf 39 be 59 c2 83 c0 d6 f3 26 c0 ad 11 d5 3f
       -0.18139343 -4.117474 -2.6086326 1.6646019
000290 6b 19 8f 3f 0d 2c 2c c0 01 5a d6 bf da ff 75 be
       1.1179632 -2.6901886 -1.6746217 -0.24023381
0002a0 b0 ad a5 3e b3 93 2c 3e 7b 8f 13 c0 46 3d b9 3f
       0.32359076 0.16853218 -2.3056324 1.4471824
0002b0 65 f8 36 bf 9d 72 99 3e 21 ac dc bd d0 69 12 bd
       -0.7147277 0.29970255 -0.107750185 -0.035745442
0002c0 15 28 35 3e ca 63 b3 3e 3c b8 d0 3f 64 f6 f7 3d
       0.17691071 0.3503707 1.6306224 0.12107542
0002d0 81 e9 0e 3f fb e1 92 3f bd 34 66 3f c6 3e e3 3f
       0.5582505 1.1475214 0.8992422 1.7753532
0002e0 b5 af 31 40 89 2a e3 c0 ed ae d6 bf 5f 36 de bf
       2.7763493 -7.0989423 -1.6772133 -1.7360343
0002f0 a8 fd 7d be f1 3a a3 bc 2b 53 ab bf ba 6c 57 3e
       -0.24803793 -0.019925566 -1.3384756 0.2103757
000300 05 6f 94 3f 1c 5f 9c bf e4 0f 27 3e bb 95 16 bc
       1.159638 -1.2216525 0.16314656 -0.009190972
000310 d4 d0 c6 bd cc af 12 bd fb f4 e1 bc 19 80 35 be
       -0.097077996 -0.035812184 -0.027582636 -0.17724647
000320 9c cb 33 bd b9 09 d7 3d fc 40 24 be f2 c6 d9 be
       -0.04389535 0.10499901 -0.16040415 -0.42534596
000330 bd a9 e3 bd a9 91 8d be 9d cb 9c bb 14 19 70 40
       -0.111163594 -0.27650192 -0.004785015 3.7515306
000340 ae 0c ae 40 04 04 cb 3f 76 4b e5 3f 5f a7 81 bf
       5.439048 1.58606 1.7913654 -1.0129203
000350 c0 88 86 bf b0 c9 38 bf fa c9 f1 3f c7 39 c4 bd
       -1.0510483 -0.7218275 1.8889763 -0.09581333
000360 a1 cf 80 bf 7c 1e 0e be 5b 59 b4 3e bb e7 43 3e
       -1.0063363 -0.13878816 0.35224423 0.19131367
000370 49 03 07 3e 79 06 b5 3d 73 99 ae 3e a1 5b ba bd
       0.13184847 0.08839125 0.34101447 -0.09099508
000380 75 f9 c9 3f c7 51 f7 be 1c db 05 40 38 f2 7d 3d
       1.5779253 -0.4830458 2.0914984 0.061998576
000390 2f 15 e8 3f bb 1f 83 3e ea 7e 8b 3f ab 0d 9f c0
       1.8131465 0.25610146 1.0898106 -4.9704185
0003a0 a0 02 07 40 06 31 55 3f 56 65 42 bf cb 58 2d 3f
       2.1095352 0.8327793 -0.75935876 0.6771361
0003b0 ae 12 51 3f e5 e3 1c 40 2d c9 ab 3f 4f ba 70 40
       0.8166913 2.4514096 1.3420769 3.7613714
0003c0 cb 6c 5f be 93 9c 5d 3e 7e f8 bc 3d bf a5 34 bd
       -0.21818845 0.2164176 0.092270836 -0.04410338
0003d0 97 7d 7e be b1 da 1f bf 6a 10 6f be 52 5e 69 bf
       -0.24852596 -0.6244307 -0.23346105 -0.91159546
0003e0 98 c1 b6 38 79 76 c2 3e b9 a7 8f bf c7 93 52 bf
       8.714496e-05 0.37981012 -1.122306 -0.8225674
0003f0 43 64 96 bf ca 8b d1 bf 09 30 35 c0 fd 88 af 3f
       -1.1749347 -1.6370785 -2.8310568 1.371368

bias f4 [256]
000000 7a 88 6b 3d 2d 93 80 c0 96 bf 9d 40 c6 d2 ff 3f
       0.0575032 -4.017966 4.929637 1.9986198
000010 6c e5 72 40 e4 cc eb 3f 00 b5 19 40 16 d5 04 bf
       3.7952528 1.8421903 2.4016724 -0.51887643
000020 73 68 d8 40 08 cb 11 3f 7d 16 74 c0 87 87 93 c0
       6.76275 0.56950426 -3.8138726 -4.610294
000030 0a 14 c3 bf 35 93 4f c0 1f db 74 c0 e0 8a d3 3e
       -1.524049 -3.2433598 -3.825874 0.4131689
000040 ce 42 01 c0 6b b1 91 c0 b9 43 ff 40 ac a6 84 bf
       -2.0197024 -4.5529075 7.977017 -1.0363364
000050 ca 9c 21 bd 2e 5a 21 be 07 c5 5a bf 2c 85 58 3f
       -0.039456166 -0.15757057 -0.8545689 0.84578204
000060 2c 22 b4 c0 cf ba 17 41 cd c7 23 c0 d8 b9 51 3f
       -5.6291714 9.483108 -2.5590699 0.819242
000070 c8 07 16 bf cd cb 8e c0 ea be 1c 40 d0 3b 48 c0
       -0.58605623 -4.462378 2.4491525 -3.1286507
000080 71 cf 04 3f 71 98 86 be 5d 1a 11 3f 4d 5b 98 bf
       0.5187903 -0.2628818 0.5668085 -1.1902863
000090 a2 ae 36 c0 1f 22 79 3f 0b 02 10 3e 70 4a 07 40
       -2.8544087 0.9731769 0.1406328 2.1139183
0000a0 4b 53 07 c0 30 a2 9b bf 4a 9c d8 3f f2 e3 7b c0
       -2.1144588 -1.2158871 1.6922696 -3.9357877
0000b0 2a e9 9c c0 3b f9 c7 40 78 59 e0 c0 62 fa 7b 3e
       -4.9034624 6.2491736 -7.0109215 0.24607232
0000c0 77 82 9b 3f 13 34 21 bf 86 27 d7 c0 c6 85 b8 c0
       1.214919 -0.62970084 -6.7235746 -5.76633
0000d0 1b c2 36 40 98 bb 5e c0 c2 2b 84 40 22 30 63 c0
       2.8555973 -3.4801998 4.1303415 -3.5498128
0000e0 b1 b0 5b c0 3e d9 9e be 60 f5 a1 3f 6b 91 77 c0
       -3.4326594 -0.31025118 1.2653008 -3.8682506
0000f0 2d b7 d0 be 6a 3d ab 40 9b d6 04 c0 a6 ae 79 3f
       -0.40764752 5.351247 -2.0755985 0.9753212
000100 e8 32 d1 c0 17 4d 40 40 4b f4 c7 bf 0c 73 50 3c
       -6.537464 3.0047052 -1.5621427 0.012722742
000110 b2 2f 85 c0 12 d1 ea bf d9 f3 20 3e 84 5b e6 40
       -4.162072 -1.8345053 0.1571802 7.1986713
000120 68 cb 90 bf ae 5e 1f 40 f1 1a 29 c0 65 70 c6 bf
       -1.1312075 2.4901538 -2.6422694 -1.550305
000130 f5 29 8d 40 ac bb 3f c0 49 b1 83 c0 ae ce d4 3f
       4.4113717 -2.9958296 -4.1153913 1.6625574
000140 37 9f 1e c0 ef b9 f3 3f ec 06 67 c0 3f 38 f0 bf
       -2.4784677 1.9041117 -3.6097975 -1.8767165
000150 9b fd 1e bf 51 2e b1 3f 11 0c 10 bf f8 65 55 c0
       -0.6210572 1.384226 -0.5626841 -3.3343487
000160 f8 1e d2 3e 31 b4 9d c0 cc a0 b7 c0 80 fc 90 c0
       0.41039252 -4.928246 -5.7383785 -4.5308228
000170 90 82 1e 3c 10 4c 18 c0 86 01 c9 3f ea 5c 90 bf
       0.009674683 -2.3796425 1.570359 -1.1278355
000180 01 33 f9 c0 57 12 be 3f 98 d9 9d bf e1 bd 1b 41
       -7.787476 1.4849347 -1.2332029 9.733857
000190 ab 34 b1 c0 bf e7 8e 3f d8 b3 61 3f e5 e7 c2 bf
       -5.537679 1.1164473 0.88165045 -1.5227019
0001a0 e3 43 ac 3f 36 2d d9 3e a1 0b 25 3f 88 8d ce 40
       1.3458217 0.42417306 0.6447087 6.454777
0001b0 0a 68 47 3e b8 e5 80 3f cd 9e ff 40 1f 9f 4d c0
       0.19473282 1.0070105 7.988135 -3.212837
0001c0 fe b8 2b bf 24 c2 10 bf 4a 6b 20 c0 21 d8 e8 bc
       -0.6707915 -0.56546235 -2.5065484 -0.02842337
0001d0 57 5c 55 bf 13 e6 25 41 11 01 7b c0 73 ae 01 41
       -0.83344024 10.36867 -3.92194 8.10509
0001e0 d5 55 f9 bf ae 1e e0 be 8b db 2a 40 57 e7 4e c0
       -1.9479319 -0.43773407 2.6696498 -3.2328699
0001f0 37 4f b2 be 0e 7b 59 3f bc b8 14 c0 56 74 9f c0
       -0.3482606 0.8495339 -2.3237753 -4.982951
000200 74 54 ed 40 01 b7 ce c0 56 56 1a c0 3d 31 b2 bf
       7.416559 -6.4598393 -2.4115195 -1.3921276
000210 d8 86 0c c0 4c b6 c1 bf 40 dd 30 c0 d8 b4 a1 c0
       -2.1957302 -1.5133758 -2.763504 -5.0533257
000220 b7 7f 98 40 6a ff 72 c0 b4 e4 37 c0 fb b8 bc be
       4.76559 -3.7968392 -2.873334 -0.3685988
000230 d3 a9 c8 40 4f 3a d7 bf c5 a4 41 c0 10 b8 ef 3f
       6.2707305 -1.6814669 -3.0256817 1.8728046
000240 e9 2d ba c0 22 df c2 bf ea 1b 67 c0 df 44 31 c0
       -5.8181043 -1.5224345 -3.6110787 -2.7698286
000250 19 2f 46 bf e6 26 04 c1 d0 72 ba c0 4e 84 02 c0
       -0.77415615 -8.259497 -5.826515 -2.0393252
000260 4a 93 c1 bf 30 29 50 bf 16 5c 9a 3e e6 a9 5c 40
       -1.5123074 -0.8131285 0.3014838 3.4478698
000270 e6 9f ab c0 26 fe b7 c0 72 0d bd bf aa fb 8e 3e
       -5.363269 -5.749774 -1.4769728 0.2792638
000280 95 38 84 c0 07 bc 7b bf fa 77 99 40 4e 3a 0c 3e
       -4.131907 -0.9833378 4.7958956 0.13694116
000290 69 11 ab bf 5a c1 64 c0 97 3d 58 c0 f0 69 a8 c0
       -1.3364688 -3.5743012 -3.3787591 -5.262932
0002a0 87 13 ad 40 49 20 f7 3f 37 20 bd c0 89 6d 14 40
       5.4086337 1.9306728 -5.9101825 2.3191855
0002b0 bb f4 6a c0 c3 7d d2 c0 55 c8 41 c0 f5 73 50 c0
       -3.6711872 -6.577852 -3.0278523 -3.2570775
0002c0 11 c4 fa 40 6c 13 c5 c0 fe 99 ba bf db 58 7f bd
       7.836434 -6.158621 -1.4578245 -0.0623406
0002d0 7a 37 f0 bf d3 a2 f7 3f 97 14 a6 bf 6c 92 9d c0
       -1.876693 1.9346565 -1.2975034 -4.924124
0002e0 ae 0a 1f c0 fd 0a 67 bf fb 82 bd c0 e7 51 17 c0
       -2.4850268 -0.9025114 -5.922239 -2.364374
0002f0 36 74 6f 3f d1 2a 19 c0 33 01 06 40 3f 42 0c 41
       0.935367 -2.3932383 2.0938232 8.766173
000300 e7 08 6b 3f 26 82 a2 bf 4a 28 1b c0 fd e7 9c bf
       0.9181046 -1.2695968 -2.424334 -1.2258297
000310 2f ff 63 c0 fd d7 01 bf cb 49 dc bf 56 99 6a bf
       -3.5624502 -0.50720197 -1.721002 -0.9164022
000320 7c b1 2d 3f a2 9e cb 40 f8 85 af bf 80 a0 67 40
       0.67848945 6.3631144 -1.3712759 3.6191711
000330 fd 8f a5 c0 85 e8 31 40 7d f6 39 c0 db 2c d4 c0
       -5.1738267 2.7798169 -2.9056695 -6.6304755
000340 88 94 13 41 18 e6 0a 3f 8e c1 2b bf 06 c9 74 c0
       9.2237625 0.54257345 -0.67092216 -3.8247695
000350 8b 50 ff 40 b2 df 17 bf e8 69 cd be 5a 69 ab c0
       7.978582 -0.59325707 -0.40119863 -5.3566103
000360 57 ef fd 3f 1e d6 a2 c0 ca 8c 91 be 3b fd 75 40
       1.9838666 -5.0886374 -0.28427726 3.843581
000370 af a5 29 c0 e3 a0 57 bf 47 cd 0a 3e b8 d1 df 40
       -2.6507375 -0.8422987 0.1355487 6.9943504
000380 a0 96 39 40 ea 4f 15 40 fe f4 9c 3e 45 60 3e 40
       2.8998184 2.3330026 0.30655664 2.9746258
000390 6f 3d 87 c0 19 f4 fc 3f f5 31 05 c0 7f 36 f6 bf
       -4.226249 1.9761993 -2.0811741 -1.9235381
0003a0 b9 0f 9d bf 47 9d a9 3e 08 d1 c5 40 65 e0 14 41
       -1.2270423 0.33127806 6.1817665 9.304784
0003b0 a0 36 68 c0 cc 59 49 3e 42 e0 25 40 21 8a 90 c0
       -3.628334 0.19663161 2.5918126 -4.5168614
0003c0 82 72 59 c0 1c de d5 3f f1 8a 01 bf b9 14 89 c0
       -3.397614 1.6708407 -0.5060263 -4.2837796
0003d0 e3 93 42 c0 19 6e 57 40 80 8a 4b 40 02 98 47 bf
       -3.0402763 3.3660948 3.1803284 -0.7796632
0003e0 eb 3a 1e 41 20 2b 46 bf 1f cb ab bf a4 d3 81 c0
       9.889384 -0.77409554 -1.3421363 -4.057085
0003f0 d5 a0 ff 40 0d cb a2 3f 39 e1 0a c0 79 38 3d be
       7.988383 1.2718216 -2.1699965 -0.18478574
