log/mujoco_td3_halfcheetah_v2_1/mujoco_td3_halfcheetah_v2_1_s1/pyt_save/model.pt (torch_old, 871757 bytes, 16 tensors)

weight f4 [256, 17]
-7.2709928 -4.030668 1.4097114 0.59429705 0.17731246 -1.3252913 -3.95673 -1.5579232
-0.34157568 -1.7730403 0.14677826 0.10423146 -0.21498501 -0.047129884 -0.14997657 0.05706786
0.15843083 4.5408936 -0.31020966 -0.5499906 -0.20031512 2.2793882 -2.1143973 -0.12054498
1.4756316 -2.0798411 0.3496317 1.120111 0.028214714 0.5189618 0.16809322 0.48679808
-0.13395026 0.09269792 -0.8439025 -0.503028 0.47503135 0.7318832 1.9152541 -1.7827051
1.9618685 0.0035072856 -1.8682612 -0.25297472 0.5691059 0.022039134 -0.33121625 0.25231445
0.013778618 -0.07525906 0.27357298 5.6346335 3.6144662 2.9862306 3.0453584 0.3912501
-0.888944 0.31504902 0.33315268 0.24059573 1.0950835 2.6844733 0.6062226 0.2305288
0.11449919 0.13218114 0.07437866 0.08024866 -3.893122 -5.030282 1.2300069 5.212372
-0.9457471 2.6600764 -2.819556 -1.1742153 -1.97622 1.1397117 -1.6125687 0.3168605
0.14283781 0.15514147 0.30544215 -0.003964642 0.36964768 -8.099699 -2.2438622 2.986058
0.7429587 4.5043344 -1.9324762 -0.020627832 0.7081271 -0.8607133 -0.5240588 0.4157095
0.20072998 -0.38150522 0.29920238 0.24971877 -0.022789001 -0.06796006 30.193497 -1.3675274
0.5246929 0.5247779 -0.6154869 6.789328 -0.6382688 -0.3532815 -0.15960574 -1.0144441
0.77179486 0.0039425953 -0.033472724 -0.015082589 0.42091423 0.013994135 0.10034183 0.45395508
0.21136747 -1.2962369 0.49763563 1.483479 3.5554292 1.2187977 2.9182649 -2.0250432
-0.28403622 1.7379881 0.07402076 0.101294294 0.083360724 -0.09929829 0.06867109 0.42511034
-1.0654297 1.7639701 -3.5040457 -1.1604145 -0.8031965 -0.7144606 1.6776389 3.0240495
-0.27410766 -2.1221836 1.3072286 0.05135349 0.05655567 -0.16174895 -0.28719908 -0.20701793
0.0061543486 5.2029247 -1.9433609 -6.7052546 -2.8439872 -1.2175245 4.119536 0.7694358
0.1927167 -0.46354994 2.8340528 -0.49893406 -0.18243319 -0.0493659 -0.0974735 0.26991367
0.03232221 -0.022161104 2.3101115 0.19380552 2.452066 1.133878 3.2070749 0.27284983
1.3501719 1.6294473 -1.9102321 1.8249348 -0.18572073 0.38804063 -0.2908308 -0.49624443
0.22127782 -0.07018754 0.25355554 -1.1379256 1.6490303 0.41816327 -0.5984386 0.06821975
2.2836423 0.6315807 0.7621162 -3.0441406 -0.1218697 -1.122546 0.02791547 -0.06496246
0.093915656 0.34720388 0.1097437 -0.0070764753 6.9328 -0.91237885 -1.3410964 -0.6367359
0.9107272 0.012958001 0.958118 1.7471306 -1.9531803 0.3738974 1.1815631 0.69341135
-0.13266724 0.16444348 0.8086946 0.44434443 0.45710123 3.1530557 -12.126502 1.752852
1.4284667 -1.4270205 -2.452578 -3.075978 -0.25343865 -0.588537 -0.23791733 -2.0773447
-0.39309105 -0.22429417 -0.09813434 -0.22735974 -0.1952039 -0.17949165 10.762795 -2.5679429
-0.49220476 1.9937623 -1.4745404 1.0964618 -1.9771018 -1.3609605 -0.46448636 -0.73981845
2.9262724 0.39858538 0.090377346 -0.0029595029 0.29209462 0.05315304 0.109899215 -0.47334665
00000000: f9ab e8c0 3bfb 80c0 6c71 b43f da23 183f
00000010: 6691 353e 25a3 a9bf 103b 7dc0 076a c7bf
00000020: 02e3 aebe fcf2 e2bf 0a4d 163e 4e77 d53d
00000030: 0825 5cbe 440b 41bd 7593 19be fdbf 693d
00000040: b13b 223e 004f 9140 cdd3 9ebe 2fcc 0cbf
00000050: 681f 4dbe 7fe1 1140 4952 07c0 49e0 f6bd
00000060: 7fe1 bc3f 1e1c 05c0 ed02 b33e cc5f 8f3f
00000070: 8b22 e73c aeda 043f a120 2c3e 993d f93e
00000080: 422a 09be 68d8 bd3d ff09 58bf 71c6 00bf
00000090: 4f37 f33e b35c 3b3f 0c27 f53f ae2f e4bf
000000a0: 821e fb3f 7dda 653b 2f23 efbf e785 81be
000000b0: edb0 113f 6a8b b43c 2d95 a9be 5c2f 813e
000000c0: b6bf 613c 6c21 9abd c211 8c3e eb4e b440
000000d0: 6a53 6740 671e 3f40 27e7 4240 ef51 c83e
000000e0: d591 63bf 1b4e a13e fd92 aa3e ba5e 763e
000000f0: b22b 8c3f 69ce 2b40 6831 1b3f be0f 6c3e
00000100: 8d7e ea3d 7e5a 073e d753 983d 6959 a43d
00000110: e928 79c0 12f8 a0c0 de70 9d3f c0cb a640
00000120: 7b1c 72bf b13e 2a40 9b73 34c0 b04c 96bf
00000130: c7f4 fcbf 13e2 913f a768 cebf 8a3b a23e
00000140: 1344 123e 68dd 1e3e ea62 9c3e d4e9 81bb
00000150: 7642 bd3e 5e98 01c1 709b 0fc0 931b 3f40
00000160: 8b32 3e3f 8223 9040 615b f7bf b3fb a8bc
00000170: d147 353f b557 5cbf b828 06bf e0d7 d43e
00000180: 298c 4d3e a754 c3be 0e31 993e 47b6 7f3e
00000190: 00b0 babc a52e 8bbd 488c f141 230b afbf
000001a0: 4652 063f d857 063f 8d90 1dbf 2d42 d940
000001b0: 9665 23bf 50e1 b4be b06f 23be 4ed9 81bf
000001c0: 5994 453f e330 813b b21a 09bd f71c 77bc
000001d0: 1282 d73e a847 653c 0480 cd3d cd6c e83e
000001e0: b770 583e 17eb a5bf 19ca fe3e a4e2 bd3f
000001f0: 278c 6340 9001 9c3f dac4 3a40 4f9a 01c0
00000200: 326d 91be 6576 de3f 3298 973d 6273 cf3d
00000210: 07b9 aa3d e75c cbbd 6ea3 8c3d 10a8 d93e
00000220: 0060 88bf c6c9 e13f 4942 60c0 7688 94bf
00000230: 499e 4dbf e4e6 36bf dfbc d63f 078a 4140
00000240: d757 8cbe dbd1 07c0 4453 a73f 0a58 523d
00000250: eba6 673d 84a1 25be c20b 93be 82fc 53be
00000260: 6baa c93b 5c7e a640 0dc0 f8bf 7291 d6c0
00000270: e303 36c0 d8d7 9bbf 3dd3 8340 bff9 443f
00000280: 8757 453e 6b56 edbe 1f61 3540 4974 ffbe
00000290: c4cf 3abe e633 4abd 30a0 c7bd 2032 8a3e
000002a0: 4b64 043d 348b b5bc ded8 1340 f474 463e
000002b0: a6ee 1c40 ea22 913f b740 4d40 f9b2 8b3e
000002c0: 6fd2 ac3f bb91 d03f 7c82 f4bf 7797 e93f
000002d0: 932d 3ebe 43ad c63e c6e7 94be c013 febe
000002e0: a796 623e 7cbe 8fbd 08d2 813e 8ca7 91bf
000002f0: 6d13 d33f 7f19 d63e 4633 19bf ccb6 8b3d
00000300: 3227 1240 46af 213f 0c1a 433f 33d3 42c0
00000310: d296 f9bd 96af 8fbf fcae e43c 0a0b 85bd
00000320: da56 c03d b5c4 b13e 4ec1 e03d c7e1 e7bb
00000330: 7fd9 dd40 a991 69bf 0ca9 abbf 2001 23bf
00000340: 6b25 693f cc4d 543c 3947 753f faa1 df3f
00000350: d001 fabf 7b6f bf3e 763d 973f 6883 313f
00000360: ecd9 07be df63 283e 9c06 4f3f 1d81 e33e
00000370: 2c09 ea3e aacb 4940 2706 42c1 745d e03f
00000380: ffd7 b63f 9ca8 b6bf 0af7 1cc0 d3dc 44c0
00000390: b6c2 81be 5caa 16bf 9aa0 73be 37f3 04c0
000003a0: 3b43 c9be 5fad 65be a8fa c8bd fed0 68be
000003b0: 88e3 47be a9cc 37be 6934 2c41 2d59 24c0
000003c0: 4302 fcbe 9a33 ff3f bdbd bcbf dc58 8c3f
000003d0: ac11 fdbf f433 aebf 28d1 edbe be64 3dbf
000003e0: 0c48 3b40 6213 cc3e c217 b93d 38f4 41bb
000003f0: 6d8d 953e 01b7 593d d712 e13d 7e5a f2be

bias f4 [256]
1.8927119 -1.3797058 -2.5181286 -4.2832484 -1.1555047 -0.7629382 -1.0251706 -2.952105
-4.786931 -1.5550103 -2.754568 -4.0887456 -2.5232365 -1.2288986 0.24430023 -4.1712728
1.6008605 -1.0731498 -2.839058 -2.6332188 -2.0612297 0.7308325 -2.6645443 2.849652
-2.3299546 2.9761624 -4.3150754 -3.377497 -2.3639767 -2.327727 -0.95997536 -4.0561028
-4.4555 -1.621886 -1.7505906 1.8292676 -3.5088274 -3.7516038 -3.4976842 -3.328258
-2.782658 -2.0921082 -2.1836834 -0.17397268 -4.133372 0.32413566 2.7550168 -3.2861502
-2.2417893 -4.1224456 -3.3860488 -2.3876953 -2.4626765 -2.8947105 -4.031513 -0.5335951
-4.6363654 -2.3608582 -0.6682676 -2.491887 0.21456887 -2.7340724 -0.06545546 -3.2811031
-1.3121037 -3.687349 -1.5409877 -3.4819486 -3.7316833 -2.557728 -2.7092662 -4.0166173
0.3148631 -2.27109 -1.1136032 -2.0337105 -3.4693635 -1.1274084 -1.3854809 -3.068635
-4.069935 -4.5421133 -0.4939422 1.1733395 -4.702438 2.282817 -2.8828886 0.4131177
-3.886787 -1.6661154 -2.357375 -0.7492113 -3.8954732 -2.4928606 4.82192 -0.19217974
-1.8479089 -1.6660959 0.85091174 1.6438919 -3.1613371 -0.20696932 -3.1947596 -2.9833748
-1.6272746 -3.9092698 -1.8494718 1.3664501 2.3124602 -2.27417 -2.5651472 1.0060059
-2.4481707 -3.5187705 0.32309183 -2.8398473 -1.3533143 0.31621063 -1.1311853 -2.2915308
-0.8397534 -0.47325352 -3.1450536 -1.0487051 -1.0902084 -5.089737 -1.2309074 -2.2138424
-2.0978806 -2.5046864 -2.8799152 -0.7109636 -3.1406841 -0.88210446 -2.566215 -1.4514374
-2.6683433 -2.168153 3.277764 -1.1312512 -0.28400335 -4.0667667 -0.5231483 -3.2549572
-2.6208112 -3.0994391 -3.1330836 -3.760006 -0.54451525 -3.0232038 -1.6668426 -0.9284242
-2.170998 0.4071376 -1.3163673 2.458302 -1.9951268 -4.6898756 1.6526309 -3.5656877
-4.116389 -1.4735926 -4.0719166 -4.5510235 -2.788895 -3.7346792 -4.17705 -2.9541948
-2.5385585 -0.5830456 -2.331628 -2.703927 -3.2715695 -3.773696 -1.9004204 2.3241868
1.843185 -1.0238974 1.966949 -2.8829107 -2.3297653 -3.7634637 -2.815115 -1.7847844
-1.7865592 -2.7700748 -3.3178108 2.206947 -3.6810749 2.2980125 -2.6254091 2.8508523
-3.6509604 0.80488175 -2.1907194 -0.90202856 0.829885 -1.3899071 1.9287825 -2.7613344
-3.2000084 0.036862645 -2.8338132 -3.7936332 2.366341 -1.894178 3.0360808 0.5795423
-2.7577765 -2.2417336 -2.5352163 0.98014283 -3.8892436 -1.2450849 -3.378713 1.9236169
-0.95603245 -1.9945092 -2.6383917 1.0744095 1.7352794 -4.5560174 -3.0342486 -2.461789
-0.015383646 -0.6069675 -2.3150423 -1.1867181 -1.7233135 -3.836957 -3.715317 -3.2840705
-2.376314 -0.7700891 -3.713721 -3.0436072 1.7429228 -1.9255568 -2.9830468 0.6594572
-3.2522645 -3.362984 -3.1868434 0.65484166 -3.7876658 -1.379789 0.5021884 -2.7215557
-1.2163208 -1.9312943 2.5451016 -2.5384817 -3.8479385 3.0258904 1.2703388 2.3482265
00000000: 6244 f23f 339a b0bf 0529 21c0 5f10 89c0
00000010: 94e7 93bf eb4f 43bf ca38 83bf 4aef 3cc0
00000020: 8a2e 99c0 940a c7bf d84a 30c0 01d7 82c0
00000030: b57c 21c0 8d4c 9dbf d729 7a3e 117b 85c0
00000040: ffe8 cc3f f95c 89bf 20b3 35c0 a886 28c0
00000050: 30eb 03c0 d717 3b3f e587 2ac0 b360 3640
00000060: fa1d 15c0 7279 3e40 1915 8ac0 e928 58c0
00000070: 654b 17c0 7bf9 14c0 f2c0 75bf 98cb 81c0
00000080: 7593 8ec0 f699 cfbf 5a13 e0bf 7125 ea3f
00000090: a190 60c0 471a 70c0 0fda 5fc0 2e02 55c0
000000a0: 1217 32c0 1ae5 05c0 78c1 0bc0 e525 32be
000000b0: 9544 84c0 1cf5 a53e 3252 3040 4950 52c0
000000c0: 7a79 0fc0 13eb 83c0 06b5 58c0 00d0 18c0
000000d0: 7e9c 1dc0 f042 39c0 2802 81c0 b099 08bf
000000e0: 1b5d 94c0 4d18 17c0 9613 2bbf 147b 1fc0
000000f0: f1b7 5b3e 0bfb 2ec0 830d 86bd 98fd 51c0
00000100: 04f3 a7bf 87fd 6bc0 163f c5bf 3fd8 5ec0
00000110: e6d3 6ec0 d1b1 23c0 9e64 2dc0 2188 80c0
00000120: bc35 a13e 8a59 11c0 8d8a 8ebf 5028 02c0
00000130: 0d0a 5ec0 eb4e 90bf 7057 b1bf 8464 44c0
00000140: e83c 82c0 fe58 91c0 fee5 fcbe fd2f 963f
00000150: 5f7a 96c0 ac19 1240 3f81 38c0 2a84 d33e
00000160: 1ec1 78c0 4543 d5bf 3bdf 16c0 50cc 3fbf
00000170: 6f4f 79c0 078b 1fc0 2b4d 9a40 c4ca 44be
00000180: 4788 ecbf a142 d5bf 5ad5 593f 0d6b d23f
00000190: 5953 4ac0 c4ef 53be f176 4cc0 9def 3ec0
000001a0: 894a d0bf 7a31 7ac0 7ebb ecbf d6e7 ae3f
000001b0: 59ff 1340 008c 11c0 5f2b 24c0 cdc4 803f
000001c0: d4ae 1cc0 8933 61c0 4b6c a53e 0fc0 35c0
000001d0: 6739 adbf 5ce6 a13e aeca 90bf 71a8 12c0
000001e0: 14fa 56bf 494e f2be 8f48 49c0 f83b 86bf
000001f0: f38b 8bbf 20df a2c0 608e 9dbf 98af 0dc0
00000200: ad43 06c0 c84c 20c0 8850 38c0 b601 36bf
00000210: f800 49c0 99d1 61bf de3c 24c0 b3c8 b9bf
00000220: 23c6 2ac0 05c3 0ac0 e3c6 5140 d7cc 90bf
00000230: e368 91be f422 82c0 0ced 05bf 3851 50c0
00000240: 5fbb 27c0 365d 46c0 7184 48c0 f0a3 70c0
00000250: 5a65 0bbf 2c7c 41c0 195b d5bf 35ad 6dbf
00000260: a2f1 0ac0 5774 d03e b97e a8bf d254 1d40
00000270: 5160 ffbf 7613 96c0 6989 d33f 3a34 64c0
00000280: 75b9 83c0 af9e bcbf 244d 82c0 fca1 91c0
00000290: 417d 32c0 fc04 6fc0 65aa 85c0 8711 3dc0
000002a0: be77 22c0 7a42 15bf 6539 15c0 240d 2dc0
000002b0: 6561 51c0 3c84 71c0 fa40 f3bf 7abf 1440
000002c0: 7ced eb3f 120f 83bf fcc4 fb3f 9c81 38c0
000002d0: e01a 15c0 97dc 70c0 d82a 34c0 d173 e4bf
000002e0: f9ad e4bf e848 31c0 0357 54c0 9f3e 0d40
000002f0: bb96 6bc0 a312 1340 b406 28c0 5d74 3640
00000300: 56a9 69c0 bb0c 4e3f bf34 0cc0 58eb 66bf
00000310: 5873 543f 7ae8 b1bf 58e2 f63f b4b9 30c0
00000320: f0cc 4cc0 49fd 163d 325d 35c0 e3ca 72c0
00000330: 2272 1740 6d74 f2bf 264f 4240 e25c 143f
00000340: 697f 30c0 9078 0fc0 fc40 22c0 a4ea 7a3f
00000350: 5ee9 78c0 f15e 9fbf d53c 58c0 1439 f63f
00000360: 8bbe 74bf 144c ffbf 69db 28c0 4086 893f
00000370: a31d de3f e5ca 91c0 2131 42c0 f38d 1dc0
00000380: b00b 7cbc 3962 1bbf a729 14c0 61e6 97bf
00000390: 8995 dcbf b490 75c0 c1c7 6dc0 362e 52c0
000003a0: 8715 18c0 8f24 45bf 9bad 6dc0 76ca 42c0
000003b0: 1818 df3f a578 f6bf 3dea 3ec0 30d2 283f
000003c0: 1a25 50c0 213b 57c0 3ef5 4bc0 b4a3 273f
000003d0: 1e69 72c0 ed9c b0bf 6b8f 003f f82d 2ec0
000003e0: 66b0 9bbf a734 f7bf f2e2 2240 7c76 22c0
000003f0: a044 76c0 30a8 4140 769a a23f 5849 1640

weight f4 [256, 256]
-0.5092504 0.17661168 -1.2241791 0.81182915 0.043002814 0.16549747 0.32880187 -0.85980564
-0.34380016 -1.0332344 -0.90622425 -0.80792165 -0.6848196 -2.2679057 0.38300845 -0.11806652
0.24449728 0.5978955 1.0427797 -0.50980145 -1.101081 -0.03705596 -0.0070087304 -0.757121
1.6477522 0.17495446 0.41686636 -0.439305 -0.64268434 0.106217615 0.27178806 1.6021702
-0.62826836 -0.23446335 -0.6783417 -1.1087811 0.8348286 -0.81278 -1.1027544 0.1122124
-0.69623214 -0.3852157 0.22403042 -0.2777878 -0.2722375 -0.13072361 -1.1125405 -0.9052831
-1.1867583 -0.1946542 1.1074429 -0.12837724 1.2952778 1.295612 0.09316012 -1.2517512
0.17039375 -1.0582248 0.2559204 0.58921784 0.15346712 0.28648055 0.6464817 0.5614445
-1.2909616 -0.010421079 -0.900614 -0.11364451 -1.017515 -2.5725389 -2.2499874 0.61371243
-0.2829271 2.4287443 0.11348362 -0.51595056 -1.129204 -1.24331 -0.7739506 -0.007144148
0.32780048 1.1548644 -4.1436586 -0.18955122 1.0288914 -1.6460892 -0.7072499 0.3508024
-1.2895318 -0.40719327 -0.15731674 0.92452323 -0.23855796 -3.714337 -0.57009643 -1.3381339
-1.0410708 -0.18827763 -1.3112298 -0.93217576 0.8665977 -1.0144391 0.37375435 0.039283022
0.9037679 0.29333675 -1.0192142 -0.20225447 -1.0216407 -0.39480534 1.0337614 0.48194063
-0.5687649 0.18707305 0.97568685 0.6475835 -1.1068943 -0.54859143 -0.90083355 0.89654344
0.43601832 0.19683667 0.72882736 0.64009064 -0.42524594 0.30415374 -0.09262032 -0.09974343
-2.0584848 1.1752572 -1.0722662 -1.657524 -1.3763363 0.26784065 -0.28983787 0.41256967
0.70888895 1.1337337 -0.51822937 -0.39687514 -1.2255903 -0.8039156 0.18024097 -0.32016355
-0.0133428415 1.0297797 -1.9067315 -0.8192522 0.61991954 -0.17854908 0.6253724 -0.69311005
-0.6353625 -1.0652391 -1.0719416 0.17175835 -0.10533033 -0.05010856 0.13869703 1.1996725
0.41471767 -0.7029311 0.9148066 0.19914736 0.74565035 -0.70164716 -0.2525858 -1.1097056
1.1610218 -0.27815738 -1.1777627 -0.35482392 -1.0559026 -0.4347458 0.41502792 -3.8293893
0.606042 -0.7360469 -1.2587987 -0.6131427 -1.6811215 -0.3954098 -0.21553671 0.047455598
-0.09412845 0.5859683 -0.25423846 0.24105306 0.34600654 -0.89175975 -0.6772066 -1.1774135
-0.033677958 -1.850551 0.057633854 -0.59847957 -0.8537618 -2.8305082 -2.4890566 0.42818123
-0.9634837 0.56001985 0.15553267 0.5291745 -0.075296134 0.23208487 -0.80432385 0.66155535
0.08316429 -0.99314857 -1.5287877 0.100509904 1.3276175 -1.7899241 0.19887322 -1.0054085
0.22561562 0.4125145 -0.08792926 -0.4055673 -0.70363104 1.1056163 0.9063066 0.5673876
0.48570883 -0.79835665 0.5458811 -0.40098894 0.15370232 -0.23388885 0.7124462 0.33163545
-0.38339892 1.5543897 -0.2360568 0.16400759 -2.0468 0.028707739 -1.9757776 -0.60120237
-0.8115713 1.3510771 -0.41021422 -1.7353594 0.93942773 -0.6766548 0.08083952 0.050633136
0.21870711 -0.55579084 -0.98192036 -1.4088137 0.13959433 -0.88449156 -1.3193618 -1.1863356
00000000: 3c5e 02bf b1d9 343e e7b1 9cbf 09d4 4f3f
00000010: b823 303d 2b78 293e b858 a83e 391c 5cbf
00000020: 9306 b0be 0641 84bf 50fe 67bf f4d3 4ebf
00000030: 5650 2fbf 5e25 11c0 af19 c43e dccc f1bd
00000040: 7f5d 7a3e ae0f 193f ce79 853f 5982 02bf
00000050: 39f0 8cbf fec7 17bd 7ea9 e5bb afd2 41bf
00000060: 8be9 d23f 4327 333e 826f d53e 96ec e0be
00000070: f686 24bf 9f88 d93d ce27 8b3e ea13 cd3f
00000080: 32d6 20bf 2917 70be cda7 2dbf 8aec 8dbf
00000090: 54b7 553f 5a12 50bf 0e27 8dbf 9dcf e53d
000000a0: 453c 32bf fe3a c5be 3b68 653e 343a 8ebe
000000b0: b762 8bbe 69dc 05be ba67 8ebf a2c0 67bf
000000c0: b2e7 97bf 6e53 47be b0c0 8d3f 5375 03be
000000d0: aacb a53f 9dd6 a53f bcca be3d 6239 a0bf
000000e0: b37b 2e3e e973 87bf 0008 833e fbd6 163f
000000f0: 7c26 1d3e 94ad 923e d37f 253f d4ba 0f3f
00000100: 3b3e a5bf 2cbd 2abc a48e 66bf 74be e8bd
00000110: ee3d 82bf 7aa4 24c0 cbff 0fc0 421c 1d3f
00000120: d2db 90be 8c70 1b40 1a6a e83d 5615 04bf
00000130: c289 90bf c824 9fbf a021 46bf 7519 eabb
00000140: 77d5 a73e 99d2 933f da98 84c0 b719 42be
00000150: b7b2 833f 0db3 d2bf 540e 35bf 5f9c b33e
00000160: 610f a5bf a37b d0be a417 21be 8ead 6c3f
00000170: 8a48 74be b3b7 6dc0 d7f1 11bf f947 abbf
00000180: cf41 85bf dacb 40be 61d6 a7bf 12a3 6ebf
00000190: 59d9 5d3f 24d9 81bf bb5c bf3e 3ce7 203d
000001a0: 555d 673f 3c30 963e 9c75 82bf cc1b 4fbe
000001b0: 1fc5 82bf ed23 cabe 4b52 843f ecc0 f63e
000001c0: 949a 11bf 1490 3f3e 9dc6 793f 08c8 253f
000001d0: b6ae 8dbf 7d70 0cbf 079d 66bf df83 653f
000001e0: cb3d df3e 8d8f 493e 6e94 3a3f fbdc 233f
000001f0: d6b9 d9be 0aba 9b3e b9af bdbd 4946 ccbd
00000200: 37be 03c0 d46e 963f 0540 89bf bf29 d4bf
00000210: ca2b b0bf 6922 893e a165 94be 553c d33e
00000220: bf79 353f 301e 913f aeaa 04bf 3833 cbbe
00000230: 25e0 9cbf 6acd 4dbf 1791 383e 7aec a3be
00000240: ef9b 5abc d2cf 833f c70f f4bf 83ba 51bf
00000250: 0cb3 1e3f 92d5 36be 6818 203f a96f 31bf
00000260: 1ea7 22bf c159 88bf 6235 89bf 6ce1 2f3e
00000270: 6eb7 d7bd a23e 4dbd 9806 0e3e de8e 993f
00000280: e055 d43e 4bf3 33bf c430 6a3f 49ed 4b3e
00000290: f1e2 3e3f 269f 33bf ed52 81be d50a 8ebf
000002a0: 5d9c 943f a56a 8ebe eec0 96bf 7bab b5be
000002b0: d127 87bf 0097 debe 8a7e d43e b714 75c0
000002c0: 9225 1b3f 926d 3cbf 5120 a1bf ecf6 1cbf
000002d0: fd2e d7bf 2773 cabe a8b5 5cbe cd60 423d
000002e0: 6bc6 c0bd 0502 163f 8b2b 82be 9dd6 763e
000002f0: c527 b13e 5e4a 64bf 695d 2dbf 7cb5 96bf
00000300: e6f1 09bd dbde ecbf 7a11 6c3d f535 19bf
00000310: 2290 5abf 0c27 35c0 b44c 1fc0 923a db3e
00000320: dea6 76bf 765d 0f3f f543 1f3e fb77 073f
00000330: dc34 9abd a8a7 6d3e 2be8 4dbf b15b 293f
00000340: 0a52 aa3d fc3e 7ebf 51af c3bf 23d8 cd3d
00000350: 5fef a93f 3c1c e5bf 6ca5 4b3e 3ab1 80bf
00000360: c807 673e 1a35 d33e 4214 b4bd 84a6 cfbe
00000370: 2a21 34bf d684 8d3f b603 683f 5040 113f
00000380: d4ae f83e 1a61 4cbf ddbe 0b3f 6c4e cdbe
00000390: 2464 1d3e 8f80 6fbe e062 363f 1fcc a93e
000003a0: dd4c c4be 3ef6 c63f e0b8 71be 9bf1 273e
000003b0: c5fe 02c0 7e2c eb3c 48e6 fcbf 66e8 19bf
000003c0: 23c3 4fbf 18f0 ac3f 9907 d2be 4220 debf
000003d0: 567e 703f 4039 2dbf 318f a53d b164 4f3d
000003e0: c2f4 5f3e 4f48 0ebf 225f 7bbf 0254 b4bf
000003f0: d1f1 0e3e 0a6e 62bf d9e0 a8bf d8d9 97bf

bias f4 [256]
-1.7276721 -0.12759562 -1.0947145 -0.15401427 -0.62342143 -0.046946816 -0.62541085 -1.4097401
-2.6294792 -1.0559616 -0.2611951 -0.68939555 -0.32425597 -0.4862886 -0.07989326 -0.9835686
-1.4471041 -0.110434644 -0.13628806 -0.07857421 3.067997 -0.35505205 -1.3463079 -0.694271
-0.005071106 -0.11937989 -0.07057541 -0.10570301 -0.13813369 -0.07762568 -0.12769343 -0.12847793
-0.64992195 -1.4817413 -0.041409113 -1.2424186 -1.5464283 -0.475581 -0.08512443 -0.17751719
-0.058674835 -0.023956558 0.06947794 -3.3949342 0.9980736 -0.01715266 -0.08300616 -0.03343546
-0.98292863 -0.11690512 -1.8337594 -1.6725197 -1.361372 -0.16212358 -2.8478014 -0.0063481634
-0.07622841 0.73828596 0.16785483 -1.907664 -0.0012824961 -1.9006565 1.3196615 0.42769226
-0.12490192 -1.4959626 -0.37856585 -3.1238363 -0.26915687 -1.0329399 -1.9766918 -0.18377838
-0.62288296 -0.020322878 -0.9220556 -0.0051443796 -1.8690075 -1.1876023 -0.43136972 -0.047404055
-1.5188863 -0.46612415 0.0068425103 -0.8983637 -0.7894083 -1.789395 -2.3615713 -2.0316432
-1.9052678 -0.39242068 -0.08313536 0.7670111 0.6742149 1.5282137 -0.09478908 -0.075391814
-0.37515172 -0.40287572 0.33068597 -1.9389527 -0.22063848 -0.047096685 -0.11080541 -0.046124727
-0.14979777 -0.040650252 -1.4416542 -0.3908974 -0.4243387 -0.01537809 -1.0065304 -1.4700232
-0.084346384 1.2295035 -0.047320493 -0.071436584 0.22628966 -0.4332659 1.7790343 -0.14967036
2.5818038 0.9134338 0.027617795 -0.08511923 -0.062222533 -0.15692799 -2.3322124 -1.2868809
-2.1655948 -1.0064721 -0.9060627 -1.4640571 -0.08446579 -0.9551074 -1.4819295 -0.033626184
-0.87323153 -0.5094039 -0.053936444 -1.8744692 -0.034914803 -0.7255398 0.41615623 -0.6049447
0.022398977 -0.8554337 -1.9813979 -0.894654 -2.2603803 -0.2581012 -0.09226791 -0.026256472
0.0070679593 -0.12391721 -0.11355535 -1.6903199 -0.7288772 0.4369343 0.005183077 0.010339223
-0.0034121252 -0.1974032 -2.520542 -1.6284108 -0.19942474 -0.07333466 -0.043703515 0.012139632
-1.9991264 -2.1288977 -0.046037514 -0.09891914 -2.0438907 -0.78350246 -1.5196666 -1.5362017
-1.0964768 -0.13901576 -0.55624455 -0.57408386 -0.046333935 -0.02141548 -0.26599035 -0.10474733
-1.8023423 -0.53533995 -2.0874267 -0.37460008 -2.0104332 -1.1364911 0.005766798 0.6738151
-1.986059 -0.15153277 -0.4971091 -1.0529866 -0.096501894 -0.12249129 -0.6689641 -0.1256379
0.09995337 -1.8809162 -0.6325272 -0.009487962 -0.84692055 -0.9273616 0.003226036 0.05998758
1.5842698 -0.97418785 0.51752454 0.17748737 -0.012582922 -0.031729426 -1.4970977 -0.23689148
-0.031846646 -0.34321165 -0.37962085 -2.9682248 -2.3064916 -0.30522972 0.5763283 -0.38925824
-0.06677152 -0.13504487 0.2074351 -0.063577175 -0.4702991 -0.07574008 -2.024013 -0.57167494
-0.81027716 -0.95311284 -0.8701419 -0.009205177 -0.041034125 -0.32917398 -1.1911069 -0.0661203
-0.094195865 -0.02702283 -0.95580804 -0.10257214 -0.10876544 -0.06771078 -0.95542395 -1.6850413
-0.06423852 -1.3456825 -1.9939638 -0.93948483 0.062012065 -0.06282606 -0.09409111 -0.134717
00000000: 5c24 ddbf 6da8 02be 9b1f 8cbf ebb5 1dbe
00000010: 8c98 1fbf 4e4b 40bd ed1a 20bf 5d72 b4bf
00000020: 6349 28c0 c029 87bf 5dbb 85be 3a7c 30bf
00000030: e104 a6be d2fa f8be 149f a3bd 27cb 7bbf
00000040: b53a b9bf 8f2b e2bd 198f 0bbe 84eb a0bd
00000050: 105a 4440 62c9 b5be d153 acbf bfbb 31bf
00000060: 852b a6bb 727d f4bd d789 90bd d27a d8bd
00000070: eb72 0dbe 36fa 9ebd 11c2 02be b88f 03be
00000080: 4961 26bf b3a9 bdbf 9a9c 29bd 9307 9fbf
00000090: 5df1 c5bf 5a7f f3be b855 aebd 11c7 35be
000000a0: 0655 70bd 8b40 c4bc 734a 8e3d 9a46 59c0
000000b0: c081 7f3f bc83 8cbc 22ff a9bd 9ff3 08bd
000000c0: 36a1 7bbf f46b efbd a1b8 eabf 2015 d6bf
000000d0: 7041 aebf b903 26be 6142 36c0 4104 d0bb
000000e0: a41d 9cbd 4f00 3d3f 23e2 2b3e 552e f4bf
000000f0: 6e19 a8ba b648 f3bf abea a83f 7bfa da3e
00000100: 94cc ffbd b47b bfbf 62d3 c1be efec 47c0
00000110: eece 89be 6037 84bf 3d04 fdbf 6630 3cbe
00000120: 4275 1fbf 2a7c a6bc d60b 6cbf 2f92 a8bb
00000130: a33b efbf 5a03 98bf 7edc dcbe c12a 42bd
00000140: de6a c2bf d3a7 eebe 2337 e03b 2afb 65bf
00000150: aa16 4abf e50a e5bf fc23 17c0 7106 02c0
00000160: d1df f3bf 5deb c8be df42 aabd d75a 443f
00000170: 5999 2c3f 829c c33f c720 c2bd 0667 9abd
00000180: e313 c0be ba45 cebe ac4f a93e 9a2f f8bf
00000190: 0eef 61be 74e8 40bd f2ed e2bd 48ed 3cbd
000001a0: 9664 19be e180 26bd 2088 b8bf b423 c8be
000001b0: ec42 d9be 62f4 7bbc fdd5 80bf b829 bcbf
000001c0: ccbd acbd 5f60 9d3f 22d3 41bd 584d 92bd
000001d0: 7ab8 673e 07d5 ddbe 65b7 e33f 3043 19be
000001e0: 463c 2540 ccd6 693f b73e e23c fe52 aebd
000001f0: 0edd 7ebd bbb1 20be f842 15c0 83b8 a4bf
00000200: 1b99 0ac0 14d4 80bf baf3 67bf 3966 bbbf
00000210: 66fc acbd eb81 74bf deaf bdbf 9cbb 09bd
00000220: 1a8c 5fbf 4b68 02bf 76ec 5cbd 9bee efbf
00000230: d302 0fbd fabc 39bf 6e12 d53e a8dd 1abf
00000240: 0f7e b73c b4fd 5abf 729e fdbf 0b08 65bf
00000250: 12aa 10c0 d725 84be f5f6 bcbd d017 d7bc
00000260: 579a e73b 4ec8 fdbd b58f e8bd 675c d8bf
00000270: b297 3abf dab5 df3e cdd6 a93b d865 293c
00000280: f69d 5fbb 1124 4abe 8f50 21c0 c46f d0bf
00000290: 0036 4cbe 7b30 96bd 7502 33bd 4fe5 463c
000002a0: 60e3 ffbf dc3f 08c0 d591 3cbd 1e96 cabd
000002b0: 1bcf 02c0 9e93 48bf 6f84 c2bf 42a2 c4bf
000002c0: 5a59 8cbf 265a 0ebe 0b66 0ebf 29f7 12bf
000002d0: a7c8 3dbd 846f afbc e32f 88be c585 d6bd
000002e0: 27b3 e6bf 0a0c 09bf 6698 05c0 95cb bfbe
000002f0: f0aa 00c0 8a78 91bf 68f7 bc3b 257f 2c3f
00000300: 2e37 febf 682b 1bbe 1585 febe 44c8 86bf
00000310: c9a2 c5bd b7dc fabd 3b41 2bbf 39a7 00be
00000320: 5ab4 cc3d ddc1 f0bf 4ded 21bf 6673 1bbc
00000330: c9cf 58bf 9267 6dbf e76b 533b 89b5 753d
00000340: 5ac9 ca3f 6064 79bf 7d7c 043f 40bf 353e
00000350: 9a28 4ebc b7f6 01bd e6a0 bfbf ae93 72be
00000360: a171 02bd 70b9 afbe aa5d c2be 65f7 3dc0
00000370: 8f9d 13c0 1247 9cbe 408a 133f db4c c7be
00000380: 82bf 88bd 3449 0abe de69 543e c034 82bd
00000390: 0bcb f0be 9d1d 9bbd 6e89 01c0 4a59 12bf
000003a0: 536e 4fbf 34ff 73bf 9fc1 5ebf 50d1 16bc
000003b0: 6613 28bd 7e89 a8be 3176 98bf 146a 87bd
000003c0: c3e9 c0bd fb5e ddbc d6af 74bf 5811 d2bd
000003d0: 6ac0 debd f3ab 8abd aa96 74bf 6faf d7bf
000003e0: 7c8f 83bd 533f acbf 353a ffbf 1482 70bf
000003f0: 5d00 7e3d f3aa 80bd d7b2 c0bd 41f3 09be

weight f4 [6, 256]
3.3625379 0.18655133 -0.584109 -0.020611888 0.73512334 -0.038657133 -0.33078128 2.1348708
1.3311551 2.190361 0.038221847 -1.3180945 0.19977672 0.11079992 0.011131801 -0.41078952
-0.09713149 0.04229282 -0.019231461 -0.39170784 0.35536712 1.1262934 -0.048472054 -1.4542003
-0.35611868 0.09639449 -0.0003382243 -0.050100822 -0.99927324 -0.02177112 0.049695026 -0.6918231
0.2360818 0.9077119 -0.021407636 0.57851017 -0.34435374 0.10768266 -0.044558268 0.6242945
-0.019741008 0.0056676706 0.7822133 2.9218698 -0.5006868 0.05485657 -0.041677464 -0.03406577
0.46788096 0.069901966 0.67995846 1.4000206 -0.17929167 0.105323605 -0.23185991 -0.107079424
0.33524498 -0.63044757 0.1443643 0.897777 0.035671584 0.82475704 -0.3079683 3.7942424
0.07275777 0.08552246 -0.44589338 0.0935182 0.06565478 -0.75927764 1.3540746 0.20502916
1.4094399 -0.027308365 -1.0491577 -0.03201518 0.33999598 -0.1401722 -1.0696309 -0.00942196
0.45237404 0.4207739 0.058578417 -0.37529835 -0.24072327 0.48503947 0.043641075 0.43115652
-0.2849225 -0.20412771 0.024014307 -0.5483804 0.33764574 0.7678983 -0.043679625 -0.05824371
0.064051524 0.6561294 -0.5818544 1.1768526 0.99494755 0.0066141663 0.04905638 -0.026083987
0.27628285 -0.058506027 -1.328133 0.7142539 0.6745167 0.010521747 8.049683 -1.040466
-0.027987929 -2.4537728 0.0114325695 -0.034083504 -0.4253855 0.19702502 1.681829 -0.06932872
-0.80626446 0.22217469 -0.18940336 -0.022752516 -0.037498534 0.16395694 0.62234133 -1.2378423
0.046544828 0.61777437 1.3272321 -0.16040604 -0.08082246 0.7812145 -0.39375433 0.010188885
-0.049475018 -0.14837614 -0.10635077 3.787298 -0.04996517 -0.84261066 -0.82015556 1.6192526
-0.056500502 -0.10293281 0.077488825 -0.20194133 1.769529 1.4132991 0.26526752 -0.009930434
-0.8709223 -0.003226369 -0.02098182 1.6576072 -0.14596362 0.5068628 0.05169562 0.10888136
-3.1165407 0.007700201 -0.14708775 -0.89220494 -0.09333386 -0.075392574 0.00068262895 -0.03027926
-0.33180168 -3.0683944 0.35824475 -0.0033651164 1.3778727 0.032888345 -0.87064993 -0.047296368
-0.40108162 -0.006653033 0.41547096 -0.48624328 -0.075774066 -0.03220573 -1.5692817 -0.018616725
-0.79038554 0.26391608 0.22231142 0.28945035 3.4673667 0.7835861 0.01916916 -0.0014500241
1.0358216 -0.027524814 -1.9878669 -1.4732677 -0.047802143 -0.0088767065 1.7483902 -0.005032378
0.18802652 0.45140204 -1.4431254 -0.027084433 0.76378113 -0.00898748 -0.9568155 0.42226902
-0.79152846 -0.20538832 -0.20029336 1.7895 0.18997923 -0.0698234 -0.102408566 -1.0580013
0.0016151378 1.0381842 -0.7718623 -9.347876 2.0553157 0.6594695 0.17161357 0.6482194
0.021388948 -0.29515693 -0.73036164 -0.011347825 0.4394593 0.014801317 0.9828923 1.2191254
-0.5196919 -0.69346493 -0.6919841 -0.0072273845 -0.045671206 -0.72170424 1.1643745 -0.015189835
-0.037681773 0.056648273 -1.1338913 0.016662056 0.030712588 0.04243411 0.55551255 3.266808
0.0023789005 -0.32761946 2.3441954 -0.42186967 -0.07659017 -0.017205747 -0.0568106 0.034754597
00000000: d233 5740 5007 3f3e 2b88 15bf 43da a8bc
00000010: 0b31 3c3f f156 1ebd 2a5c a9be b9a1 0840
00000020: 4a63 aa3f e02e 0c40 838e 1c3d 52b7 a8bf
00000030: 4592 4c3e 12eb e23d 2862 363c 0153 d2be
00000040: e0ec c6bd 3c3b 2d3d 4c8b 9dbc ee8d c8be
00000050: aef2 b53e 622a 903f a28a 46bd 3c23 babf
00000060: 3055 b6be 796a c53d b253 b1b9 8536 4dbd
00000070: 5fd0 7fbf 5959 b2bc 038d 4b3d 521b 31bf
00000080: 6dbf 713e cf5f 683f 115f afbc 3e19 143f
00000090: 224f b0be ba88 dc3d bb82 36bd c4d1 1f3f
000000a0: e5b7 a1bc deb7 b93b 213f 483f eaff 3a40
000000b0: 032d 00bf 48b1 603d fdb5 2abd 8d88 0bbd
000000c0: 188e ef3e c328 8f3d c211 2e3f e033 b33f
000000d0: 3c98 37be e7b3 d73d af6c 6dbe 754c dbbd
000000e0: 3ba5 ab3e 0365 21bf 3cd4 133e b7d4 653f
000000f0: 5e1c 123d 4723 533f 05ae 9dbe ded4 7240
00000100: 0702 953d 6626 af3d 234c e4be 7886 bf3d
00000110: 0376 863d 0560 42bf 5152 ad3f 2af3 513e
00000120: 8768 b43f cbb5 dfbc cd4a 86bf 5922 03bd
00000130: f413 ae3e 4d89 0fbe aae9 88bf 915e 1abc
00000140: 929d e73e ad6f d73e ecef 6f3d 1b27 c0be
00000150: 2980 76be 1857 f83e fcc0 323d 8cc0 dc3e
00000160: 5de1 91be db06 51be a7b9 c43c a862 0cbf
00000170: e7df ac3e fc94 443f 68e9 32bd f590 6ebd
00000180: 722d 833d 19f8 273f 69f4 14bf 1ba3 963f
00000190: e2b4 7e3f a6bb d83b 58ef 483d 16ae d5bc
000001a0: f274 8d3e 04a4 6fbd 4300 aabf 58d9 363f
000001b0: 20ad 2c3f 6863 2c3c 80cb 0041 fd2d 85bf
000001c0: f146 e5bc 9d0a 1dc0 ac4f 3b3c 259b 0bbd
000001d0: 21cc d9be edc0 493e 2c46 d73f 37fc 8dbd
000001e0: 5967 4ebf c381 633e f4f2 41be 7c63 babc
000001f0: 1098 19bd 54e4 273e c351 1f3f 9e71 9ebf
00000200: caa5 3e3d 7626 1e3f bee2 a93f 7b41 24be
00000210: 3f86 a5bd acfd 473f 2b9a c9be 48ef 263c
00000220: 51a6 4abd eaef 17be 6fce d9bd 1763 7240
00000230: 47a8 4cbd 55b5 57bf b7f5 51bf ab43 cf3f
00000240: 126d 67bd 70ce d2bd 76b2 9e3d b5c9 4ebe
00000250: ed7f e23f fce6 b43f 25d1 873e 42b3 22bc
00000260: c4f4 5ebf 7d71 53bb 11e2 abbc 792c d43f
00000270: 7d77 15be c3c1 013f c9be 533d 31fd de3d
00000280: 6775 47c0 f851 fc3b 2c9e 16be 8b67 64bf
00000290: d325 bfbd 6c67 9abd 74f2 323a 360c f8bc
000002a0: e9e1 a9be 9360 44c0 db6b b73e 4989 5cbb
000002b0: 225e b03f eeb5 063d eae2 5ebf d6b9 41bd
000002c0: 925a cdbe b001 dabb 9cb8 d43e e1f4 f8be
000002d0: 6f2f 9bbd 28ea 03bd 39de c8bf 1a82 98bc
000002e0: b556 4abf 0220 873e 9ba5 633e d632 943e
000002f0: 56e9 5d40 1999 483f a408 9d3c bc0e beba
00000300: cd95 843f b87b e1bc 6c72 febf 0994 bcbf
00000310: 2ecc 43bd 9b6f 11bc 40cb df3f a5e6 a4bb
00000320: 068a 403e 2b1e e73e 55b8 b8bf 2ce0 ddbc
00000330: 2987 433f 3940 13bc dcf1 74bf a533 d83e
00000340: 9ca1 4abf 5151 52be b419 4dbe 560e e53f
00000350: ea89 423e 92ff 8ebd 95bb d1bd 966c 87bf
00000360: 08b3 d33a 38e3 843f c598 45bf e690 15c1
00000370: 4b8a 0340 fed2 283f 78bb 2f3e b5f1 253f
00000380: e037 af3c cf1e 97be fbf8 3abf 3aec 39bc
00000390: cf00 e13e 3981 723c d49e 7b3f 4d0c 9c3f
000003a0: 870a 05bf eb86 31bf df25 31bf b2d3 ecbb
000003b0: bb11 3bbd 9cc1 38bf 390a 953f c9de 78bc
000003c0: 3458 1abd 0508 683d 5a23 91bf dd7e 883c
000003d0: f798 fb3c 64cf 2d3d 1236 0e3f 6213 5140
000003e0: 54e7 1b3b bdbd a7be 4c07 1640 4dff d7be
000003f0: 4fdb 9cbd 11f3 8cbc 3bb2 68bd d65a 0e3d

bias f4 [6]
0.2174286 -0.3183746 0.31540406 -0.35578686 -0.05254434 0.082579926
00000000: 9aa5 5e3e ff01 a3be a47c a13e b229 b6be
00000010: bc38 57bd aa1f a93d

weight f4 [256, 23]
8.870498 1.5828274 -1.7207214 -0.23976693 0.0911555 3.6197436 2.046087 -3.1300952
-1.233962 -0.2834575 0.94708586 0.37931985 0.046131715 -0.08545184 -0.09717525 -0.29969123
0.38554418 1.7000866 -2.573083 1.8471477 0.90674406 0.016128868 0.76680714 -2.5328276
-11.628178 0.00090338575 -3.3197002 -0.88403964 -1.3979458 -0.26486978 0.2501609 0.7955039
1.7437592 -0.91027504 -0.12497538 -0.034911577 -0.010713182 -0.19532739 0.07132104 0.0629432
-0.22378314 -0.8321373 -0.03590588 0.03117337 1.1155025 0.6534885 20.850681 -7.4035506
-1.3913473 0.6743086 -1.1309339 -5.2514353 -2.1592228 -0.44634366 -0.10835099 2.277871
-0.9341906 -0.20309584 0.0050120363 -0.079278484 -0.118375614 -0.13917485 -0.0026286507 0.8882696
-1.9309602 0.31455773 3.1567876 0.08234632 0.33140633 14.679621 4.274144 -0.871651
3.5903666 1.3194993 1.458634 2.9301863 2.1935167 -0.7582633 -1.3715668 -0.43619996
0.2806975 -0.06652249 0.16978927 0.01284451 0.0059061768 0.008037458 -1.6482623 -2.172066
0.6370579 -0.068803616 -2.5317612 0.07576515 13.730607 4.2481356 3.1867177 4.3598967
-1.3563443 1.6244957 0.89358497 -0.10583013 0.45204923 1.0479091 -0.22183752 -0.013866915
0.048494652 -0.0050039133 0.08929567 0.0009906059 -0.15949039 -0.39263543 0.5876159 -0.37847358
1.0437381 -0.7770345 -0.86984193 3.6840615 2.5797982 3.8421645 5.638877 -0.4363086
-3.473135 0.4765059 -0.6160675 -0.49267033 0.7196052 0.9027447 0.31174502 0.25404382
0.0657733 0.052913032 0.011002438 -0.015882093 2.4886167 -0.19719231 -0.7323468 -2.0352516
-1.0670599 -1.5342612 10.000996 2.6435297 -1.4668823 -2.8380024 0.5216371 0.29614156
-3.871277 -2.9970922 -0.11640905 -1.1722242 0.26627082 -0.1336802 0.0478826 -0.076210566
-0.009552558 0.020723885 -0.18667291 -3.1945715 -0.94895023 0.92666686 -0.17827791 -3.4620535
-0.67650074 6.2692394 1.5946205 5.6266923 -2.1905446 -2.072396 -2.0170395 0.2661776
-1.5076314 -0.337305 -1.754564 -2.5584326 -0.7910332 -0.33326504 0.025576655 -0.07393256
-0.27519596 -0.16892564 0.40699288 -1.8897004 0.72367096 -0.014446306 -1.6687267 0.4361879
-1.6379665 0.48900914 -0.1521645 -2.1731155 -1.0637186 -0.5279886 2.2317805 2.4681008
-0.6304411 -1.7494557 1.7519277 0.21845256 0.23748633 0.04459212 -0.078835204 -0.2156882
0.11493035 -0.749419 1.6034403 1.4432399 2.9057412 3.2236354 -2.7905266 7.4338374
-0.64798945 -1.6255637 3.1821983 -1.23818 2.5730162 0.61981916 1.5085121 -1.4637082
-3.2490015 -0.53843987 0.33540103 0.41832548 -0.46202394 -0.31062502 0.004492402 -0.11559737
0.3767559 1.5111508 -1.0941718 -1.0950547 -1.5195365 1.973458 6.5847383 -5.8651223
-0.08635789 -0.57048684 -0.5190172 -0.49059543 -0.6525846 -1.1482404 -1.1843575 -2.3253753
1.3699223 0.53626376 0.00716035 0.0068836184 0.19046941 0.0022984867 0.02549535 -0.40869206
-1.3724122 -0.7502314 -0.3957797 -1.439456 0.32268986 -11.390429 -2.551591 0.96026206
00000000: 8fed 0d41 179a ca3f 9940 dcbf 7685 75be
00000010: bcaf ba3d e1a9 6740 17f3 0240 7b53 48c0
00000020: 78f2 9dbf 5721 91be 3874 723f 3636 c23e
00000030: 9cf4 3c3d 6001 afbd d103 c7bd 2171 99be
00000040: 0c66 c53e 709c d93f 64ad 24c0 566f ec3f
00000050: 6120 683f b020 843c 794d 443f d919 22c0
00000060: 040d 3ac1 31d1 6c3a f875 54c0 6c50 62bf
00000070: e3ef b2bf 039d 87be 1715 803e 25a6 4b3f
00000080: 8033 df3f c907 69bf 18f3 ffbd 71ff 0ebd
00000090: 5886 2fbc e703 48be c410 923d 5de8 803d
000000a0: 6827 65be f306 55bf 0b12 13bd 4c5f ff3c
000000b0: c9c8 8e3f 064b 273f 32ce a641 e3e9 ecc0
000000c0: ab17 b2bf 7d9f 2c3f 71c2 90bf c20b a8c0
000000d0: b530 0ac0 2887 e4be 20e7 ddbd a3c8 1140
000000e0: 1d27 6fbf 5bf8 4fbe 023c a43b c25c a2bd
000000f0: ea6e f2bd da83 0ebe 7145 2cbb a365 633f
00000100: b429 f7bf b60d a13e cf08 4a40 30a5 a83d
00000110: 17ae a93e badf 6a41 cac5 8840 8524 5fbf
00000120: 91c8 6540 5ae5 a83f 85b4 ba3f 2c88 3b40
00000130: 9462 0c40 8b1d 42bf 808f afbf 9a55 dfbe
00000140: 95b7 8f3e f13c 88bd 3ddd 2d3e c871 523c
00000150: 9a88 c13b 8baf 033c 42fa d2bf 2103 0bc0
00000160: 3a16 233f e9e8 8cbd 6008 22c0 c22a 9b3d
00000170: 91b0 5b41 baf0 8740 2ff3 4b40 4684 8b40
00000180: b19c adbf 7aef cf3f fcc1 643f 78bd d8bd
00000190: ff72 e73e e321 863f 6029 63be 0f32 63bc
000001a0: 54a2 463d def7 a3bb a6e0 b63d 38d7 813a
000001b0: 7351 23be 8307 c9be ff6d 163f 4ac7 c1be
000001c0: 3699 853f bceb 46bf f6ad 5ebf aac7 6b40
000001d0: 6a1b 2540 06e6 7540 ae71 b440 d763 dfbe
000001e0: d847 5ec0 95f8 f33e 9ab6 1dbf 493f fcbe
000001f0: 0c38 383f 471a 673f 0b9d 9f3e 0812 823e
00000200: 27b4 863d 56bb 583d 9243 343c 2a1b 82bc
00000210: 7f45 1f40 c8ec 49be 147b 3bbf 9041 02c0
00000220: 6b95 88bf ac62 c4bf 1404 2041 972f 2940
00000230: cdc2 bbbf d5a1 35c0 028a 053f de9f 973e
00000240: 01c3 77c0 5cd0 3fc0 de67 eebd 710b 96bf
00000250: a654 883e 76e3 08be 8c20 443d 4914 9cbd
00000260: 5582 1cbc 23c5 a93c 2f27 3fbe dc73 4cc0
00000270: 67ee 72bf 0a3a 6d3f 7c8e 36be 4992 5dc0
00000280: 272f 2dbf 9c9d c840 861c cc3f dd0d b440
00000290: e231 0cc0 23a2 04c0 2d17 01c0 6e48 883e
000002a0: 11fa c0bf 3eb3 acbe 8e95 e0bf 5cbd 23c0
000002b0: 2781 4abf b7a1 aabe 2286 d13c f469 97bd
000002c0: 7ce6 8cbe d8fa 2cbe 5f61 d03e b4e1 f1bf
000002d0: 8042 393f 33b0 6cbc d698 d5bf 0554 df3e
000002e0: e3a8 d1bf 685f fa3e 03d1 1bbe 5314 0bc0
000002f0: ee27 88bf 432a 07bf 7ed5 0e40 5df5 1d40
00000300: 9764 21bf 2aee dfbf 2b3f e03f 07b2 5f3e
00000310: 9e2f 733e 3aa6 363d 5a74 a1bd 5edd 5cbe
00000320: 9a60 eb3d ecd9 3fbf 883d cd3f 16bc b83f
00000330: aaf7 3940 0b50 4e40 fd97 32c0 ffe1 ed40
00000340: a3e2 25bf 7912 d0bf 23a9 4b40 af7c 9ebf
00000350: 4cac 2440 78ac 1e3f ed16 c13f ca5a bbbf
00000360: a4ef 4fc0 32d7 09bf afb9 ab3e c22e d63e
00000370: 678e ecbe 3e0a 9fbe 0035 933b 50be ecbd
00000380: 26e6 c03e 646d c13f d20d 8cbf c12a 8cbf
00000390: 2c80 c2bf 469a fc3f 2db6 d240 15af bbc0
000003a0: 68dc b0bd 6d0b 12bf 50de 04bf 532f fbbe
000003b0: c90f 27bf 8bf9 92bf 0799 97bf f3d2 14c0
000003c0: 9d59 af3f 9548 093f 5fa1 ea3b fa8f e13b
000003d0: 6a0a 433e 35a2 163b a0db d03c 1640 d1be
000003e0: 34ab afbf 2a0f 40bf a3a3 cabe 1840 b8bf
000003f0: 9b37 a53e 323f 36c1 444d 23c0 bcd3 753f

bias f4 [256]
-4.7119217 -3.5745883 1.2077016 -0.055377252 -3.7804263 2.1804872 -5.0139737 -2.8140883
-4.6672616 -1.450534 3.4635088 -2.4374843 -5.122977 -4.2781014 -4.783254 -6.8132296
-4.8404646 8.220151 -4.3305407 -2.9128451 -5.4710617 -3.6018867 -2.8544285 -2.4594114
-1.5003182 -2.0820236 -0.81404674 1.1832002 -3.9855015 -3.90078 -4.841155 -0.93113226
-5.803301 -7.08383 -8.155417 6.936228 -9.134142 -3.3805404 -4.278218 -3.4970992
-5.2183003 -4.275059 -5.923251 -1.4561939 -0.54537624 -4.626435 -3.0398347 -4.901884
-5.934655 -1.8422234 -4.837674 3.2350948 -4.1730747 -5.0814223 -4.486553 2.4744303
6.272479 -2.7958002 2.2690232 -5.071891 -5.593874 -2.1432972 -2.0449836 -4.062776
-5.0496373 -3.1551619 8.903783 -3.1699653 -0.7515688 -3.29055 -4.4818068 -2.1998065
-0.44421336 -6.782298 -4.567874 -4.3473206 1.7143536 2.9938054 -4.2037144 -3.0837843
-3.332594 -4.518245 -4.060312 -4.6691513 -5.5877333 -5.4258285 -5.789772 2.302184
-7.5396633 5.1525097 -4.6223493 1.2349421 -1.1734103 -3.4654784 1.0107177 -5.088475
-4.6686587 -3.7452903 -4.7468405 -6.922686 3.8107936 -2.7870526 -3.831128 -3.416399
-3.9926157 0.04497911 -7.0408792 -0.9317595 0.5510348 -2.924648 -2.6222227 -4.9772153
-6.675987 -6.8266406 -1.0545238 -6.1593213 4.9890795 6.782349 -0.7975265 -2.003047
-2.5625038 2.0417078 -2.5865684 -4.333578 -4.370462 -1.1113602 0.005307082 -6.2236466
-3.080032 -2.6213186 -2.6532218 -5.5688825 4.2606664 -5.0743303 -3.751798 -0.9016788
-5.0167418 -0.6030776 -6.006519 -2.5673184 -3.5217738 7.407321 0.95355904 -6.825874
-0.9076613 -2.9081492 -0.54416364 -4.596146 -4.4051957 -8.058017 -3.810874 -3.5739274
-4.070397 -1.9442987 -4.238518 -4.8157697 -3.9078279 -4.2896223 -2.304239 0.3378342
-5.6579237 0.06470733 -4.0074077 -5.7783446 -3.827061 -3.5007703 -1.3107543 -4.159028
1.2456478 -5.256373 -4.3481393 -1.1422697 -4.0581975 -0.94844824 -0.5025326 -4.767697
-4.566695 -3.697048 7.1924086 -2.690287 -4.058352 -3.5614674 -6.879824 -8.895152
-4.503097 -2.9251497 -3.682459 2.3422701 -4.3548474 -2.471058 -4.6048937 2.3990335
-2.0522432 5.725239 -3.4746165 -5.327783 -8.704577 0.1667278 -8.269024 -0.88496083
-4.668807 -4.1002493 -5.499835 1.4610538 0.1271617 -1.7908783 -8.919008 -1.2567343
-1.5163251 -5.6729083 -6.7065806 -2.487629 -2.590544 -4.70818 -0.46013787 -5.0948977
-2.9638548 7.1065016 -4.1791205 -5.4703927 -3.329967 -5.8385744 -4.2927585 0.10644606
-2.5635974 -5.0009665 -5.6717353 -3.4963133 -3.359123 -5.0982156 -5.953846 -4.3271356
5.4636316 1.646963 1.4833918 1.5081394 6.281158 -4.291161 -2.8113563 -5.4035716
1.4838357 -4.5387444 0.82752496 -5.113898 -1.7697712 -6.2696166 -4.423794 -1.0080371
-3.6500907 1.4025685 2.758601 -3.021238 -2.3109913 -4.88681 7.847881 -3.94088
00000000: 10c8 96c0 0ec6 64c0 f795 9a3f 42d3 62bd
00000010: 81f2 71c0 1a8d 0b40 7972 a0c0 061a 34c0
00000020: 355a 95c0 19ab b9bf 21aa 5d40 beff 1bc0
00000030: 6def a3c0 35e6 88c0 6b10 99c0 fa05 dac0
00000040: 16e5 9ac0 bd85 0341 ca93 8ac0 0e6c 3ac0
00000050: f012 afc0 5085 66c0 f5ae 36c0 ff66 1dc0
00000060: 6d0a c0bf e03f 05c0 5e65 50bf 1b73 973f
00000070: 7512 7fc0 61a6 79c0 beea 9ac0 af5e 6ebf
00000080: a4b4 b9c0 bcae e2c0 977c 02c1 94f5 dd40
00000090: 7225 12c1 c65a 58c0 29e7 88c0 79d0 5fc0
000000a0: 51fc a6c0 49cd 88c0 468b bdc0 9064 babf
000000b0: c79d 0bbf c10b 94c0 a78c 42c0 3cdc 9cc0
000000c0: b2e8 bdc0 facd ebbf 3ace 9ac0 cb0b 4f40
000000d0: d489 85c0 039b a2c0 d891 8fc0 115d 1e40
000000e0: 26b8 c840 64ee 32c0 ad37 1140 ee4c a2c0
000000f0: 0401 b3c0 c82b 09c0 03e1 02c0 4302 82c0
00000100: a196 a1c0 2cee 49c0 e575 0e41 b6e0 4ac0
00000110: d066 40bf 5f98 52c0 f66a 8fc0 a1c9 0cc0
00000120: ef6f e3be 9608 d9c0 062c 92c0 401d 8bc0
00000130: f06f db3f 829a 3f40 d484 86c0 b95c 45c0
00000140: 3849 55c0 7795 90c0 13ee 81c0 b069 95c0
00000150: b6ce b2c0 63a0 adc0 d045 b9c0 fc56 1340
00000160: ec44 f1c0 5ce1 a440 49ea 93c0 9512 9e3f
00000170: 4f32 96bf 66ca 5dc0 335f 813f cad4 a2c0
00000180: a765 95c0 d6b2 6fc0 1ee6 97c0 a586 ddc0
00000190: 0be4 7340 125f 32c0 3331 75c0 48a6 5ac0
000001a0: 0487 7fc0 043c 383d e24e e1c0 ca87 6ebf
000001b0: 9e10 0d3f 6f2d 3bc0 7fd2 27c0 5945 9fc0
000001c0: afa1 d5c0 d773 dac0 a3fa 86bf 2919 c5c0
000001d0: 8aa6 9f40 0109 d940 b22a 4cbf ec31 00c0
000001e0: 1000 24c0 57ab 0240 568a 25c0 acac 8ac0
000001f0: d3da 8bc0 0d41 8ebf 08e7 ad3b 1d28 c7c0
00000200: 3f1f 45c0 afc3 27c0 63ce 29c0 4934 b2c0
00000210: 6157 8840 ea60 a2c0 751d 70c0 6cd4 66bf
00000220: 2689 a0c0 4b63 1abf 6735 c0c0 f24e 24c0
00000230: be64 61c0 c608 ed40 721c 743f 8f6d dac0
00000240: 7e5c 68bf 1e1f 3ac0 4f4e 0bbf a113 93c0
00000250: 5df7 8cc0 a3ed 00c1 5ce5 73c0 3abb 64c0
00000260: b140 82c0 c8de f8bf f1a1 87c0 c91a 9ac0
00000270: da19 7ac0 9644 89c0 a778 13c0 9bf8 ac3e
00000280: b60d b5c0 4785 843d af3c 80c0 33e8 b8c0
00000290: 91ee 74c0 9f0c 60c0 ccc6 a7bf c216 85c0
000002a0: 6371 9f3f 3534 a8c0 f523 8bc0 e535 92bf
000002b0: c1dc 81c0 81cd 72bf faa5 00bf f990 98c0
000002c0: 5e22 92c0 6f9c 6cc0 3628 e640 aa2d 2cc0
000002d0: 05de 81c0 15ef 63c0 8527 dcc0 8b52 0ec1
000002e0: 5f19 90c0 a735 3bc0 69ad 6bc0 c1e7 1540
000002f0: e95a 8bc0 d025 1ec0 4a5b 93c0 c489 1940
00000300: f457 03c0 2835 b740 1e60 5ec0 337d aac0
00000310: f345 0bc1 b1ba 2a3e ec4d 04c1 cb8c 62bf
00000320: de66 95c0 3e35 83c0 a6fe afc0 d003 bb3f
00000330: ad36 023e 803b e5bf 42b4 0ec1 abdc a0bf
00000340: f116 c2bf 7788 b5c0 4f9c d6c0 5035 1fc0
00000350: 79cb 25c0 69a9 96c0 3197 ebbe 6709 a3c0
00000360: ccaf 3dc0 7668 e340 5bbb 85c0 750d afc0
00000370: 2e1e 55c0 9ad5 bac0 475e 89c0 6400 da3d
00000380: fb11 24c0 eb07 a0c0 db7e b5c0 99c3 5fc0
00000390: dffb 56c0 9524 a3c0 e885 bec0 e577 8ac0
000003a0: 12d6 ae40 afcf d23f c8df bd3f b60a c13f
000003b0: 3fff c840 3151 89c0 43ed 33c0 0fea acc0
000003c0: 54ee bd3f 653d 91c0 add8 533f 0da5 a3c0
000003d0: dd87 e2bf b3a0 c8c0 b88f 8dc0 5c07 81bf
000003e0: 169b 69c0 5d87 b33f eb8c 3040 f75b 41c0
000003f0: 48e7 13c0 bf60 9cc0 d721 fb40 6137 7cc0

weight f4 [256, 256]
1.060991 -0.9264615 -0.57180756 -0.43429884 -2.2155585 -1.1400557 -2.0099502 0.07238151
-1.3786644 -0.63250464 -0.7096421 -0.4528933 2.0807412 1.5909933 1.3043684 0.08999025
0.48561254 0.29628104 -0.31046453 -3.1413722 0.9407666 -0.15445271 -2.8397877 -0.7827695
0.9215375 1.0246797 0.48630893 -4.140366 -0.3543794 -0.9752357 -0.107483044 1.2172248
-0.29361287 -1.2083875 -1.9190079 -1.2785093 -2.609258 -1.2690644 1.6029098 1.5514162
-3.1590853 2.9195812 -1.7039969 -1.3405987 -0.45290208 -3.0122824 -0.56629336 -1.02008
-3.0772803 2.3709338 -1.4248896 -1.247701 0.18602236 0.8838625 0.7305563 -0.12285411
-0.17802742 0.61976653 0.86450744 -0.76404923 0.81068975 -2.1721334 0.31855628 -5.6277356
-3.1514063 -0.18575671 0.16065225 1.37285 -0.5216597 -0.41673395 -0.54589593 1.1038526
0.42208713 2.1662424 1.2580168 1.3959088 -0.37210706 -0.13728973 -0.102608815 2.1625478
-0.71775746 0.00068651384 1.6060724 -1.4175423 0.030736377 -2.295921 -1.1788511 -0.23721099
2.552108 0.43926758 -1.2241244 -0.6141461 -4.6385703 0.37013263 -1.6780202 1.1335031
0.6692048 -1.0210762 0.5900555 0.008110333 0.5846918 0.889786 0.8321548 2.6069503
-2.034536 0.18914199 3.2049263 -0.2236974 -0.00880485 -3.0397363 0.613781 -2.1508908
-2.5434668 0.08475622 -2.2821565 -0.17053343 -0.25756633 1.5009013 -0.49482825 -2.7293937
0.7871603 -2.4799323 -2.160702 0.8690074 -0.557639 0.36724165 -2.4687383 -2.4819534
-1.120152 1.7252463 2.1477964 -1.1728586 -0.8960433 0.9578789 -2.1715438 -0.9914328
0.5209299 1.5670531 -1.2959815 -0.4925272 -0.48372817 0.41348055 -1.5378921 -0.16013752
1.2224858 -4.1767344 -4.39719 -1.6427004 -1.7381032 -5.9313765 -0.8808099 0.26475546
0.0022765677 -1.1367962 1.1202708 -3.6609123 -3.3872888 2.0493968 0.25031564 1.1429651
-1.8545192 1.3385404 -0.99487585 -1.3205794 -2.44022 0.3027525 -0.08007317 -4.851339
-0.9118154 -0.63348114 -2.3038 -1.1861047 0.039117508 -0.5977415 -0.1685087 0.36038718
-4.8326116 0.15696463 -1.4598715 -0.22671397 0.7957323 0.032928176 0.42513868 0.76831365
-1.6221927 -1.2016809 -2.1091757 -0.031095803 -0.9438085 -0.8080868 1.052168 -0.20245486
-1.431083 -1.999016 -0.42767555 -4.1569633 -2.9875839 2.6031015 0.8694862 0.66154075
1.349729 -0.5048048 -0.24476846 -0.97393584 -0.8935174 -0.71771616 -1.2360985 0.27701455
0.5611193 -1.4397937 -1.7454948 0.9397444 -0.5742626 0.37434402 -1.1932243 0.9195248
0.75556684 0.059294365 -1.3678012 -2.005414 0.3581118 1.4522059 -0.06317661 1.0550948
-1.8049803 1.2547907 0.039704334 1.7143183 -0.5518431 -7.938133 0.22017784 -0.9373624
-1.1283841 0.098532274 -1.4671302 -2.0256834 -0.020435872 -0.57374454 -0.3152403 0.3862102
0.46489686 -0.33805397 -0.7587278 -0.65798384 -1.0364769 0.5586879 1.9586957 -2.711686
0.2916438 -0.2070068 -1.645524 0.73808914 -0.12133006 1.5277034 -0.49985707 -0.9478528
00000000: 8ece 873f 952c 6dbf fb61 12bf 6b5c debe
00000010: b6cb 0dc0 58ed 91bf 06a3 00c0 c23c 943d
00000020: 1378 b0bf d3eb 21bf 1bab 35bf a1e1 e7be
00000030: dd2a 0540 aba5 cb3f 8bf5 a63f cf4c b83d
00000040: 35a2 f83e 26b2 973e 35f5 9ebe 3e0c 49c0
00000050: 14d6 703f da28 1ebe 15bf 35c0 9563 48bf
00000060: e2e9 6b3f b428 833f 7cfd f83e e17d 84c0
00000070: 3771 b5be 0ca9 79bf 1220 dcbd 06ce 9b3f
00000080: 6d54 96be 71ac 9abf 0da2 f5bf 31a6 a3bf
00000090: 15fe 26c0 b470 a2bf 262c cd3f ce94 c63f
000000a0: 742e 4ac0 6bda 3a40 921c dabf bd98 abbf
000000b0: c8e2 e7be 3cc9 40c0 9af8 10bf fb91 82bf
000000c0: 29f2 44c0 61bd 1740 c862 b6bf abb4 9fbf
000000d0: a57c 3e3e d044 623f bd05 3b3f f09a fbbd
000000e0: d24c 36be 05a9 1e3f 5c50 5d3f bb98 43bf
000000f0: 5d89 4f3f 3c04 0bc0 cf19 a33e 6916 b4c0
00000100: a4b0 49c0 0237 3ebe 0682 243e 8cb9 af3f
00000110: 7d8b 05bf 275e d5be d6bf 0bbf 0b4b 8d3f
00000120: ce1b d83e b7a3 0a40 b206 a13f 24ad b23f
00000130: d184 bebe ae95 0cbe 9224 d2bd 2f67 0a40
00000140: f4be 37bf 2af7 333a c893 cd3f 0772 b5bf
00000150: dbca fb3c 5ff0 12c0 98e4 96bf 70e7 72be
00000160: bd55 2340 aee7 e03e 1cb0 9cbf ae38 1dbf
00000170: 2b6f 94c0 0682 bd3e 5ec9 d6bf a116 913f
00000180: 0151 2b3f a0b2 82bf e10d 173f 34e1 043c
00000190: 5dae 153f 04c9 633f 1908 553f 46d8 2640
000001a0: d635 02c0 70ae 413e 831d 4d40 ee10 65be
000001b0: 3842 10bc 0a8b 42c0 c020 1d3f 32a8 09c0
000001c0: 29c8 22c0 ab94 ad3d da0e 12c0 51a0 2ebe
000001d0: bcdf 83be 891d c03f 215a fdbe 63ae 2ec0
000001e0: 5683 493f 36b7 1ec0 f148 0ac0 4577 5e3f
000001f0: 6ec1 0ebf 1907 bc3e cfff 1dc0 53d8 1ec0
00000200: 2461 8fbf dfd4 dc3f 7f75 0940 3b20 96bf
00000210: 1863 65bf 8d37 753f 93fa 0ac0 8ace 7dbf
00000220: a95b 053f 3295 c83f b9e2 a5bf 862c fcbe
00000230: 38ab f7be b9b3 d33e a6d9 c4bf 17fb 23be
00000240: 6a7a 9c3f cfa7 85c0 c8b5 8cc0 0244 d2bf
00000250: 2a7a debf d6cd bdc0 c27c 61bf 078e 873e
00000260: 7832 153b 8a82 91bf 0965 8f3f 634c 6ac0
00000270: 57c9 58c0 5129 0340 5f29 803e ae4c 923f
00000280: e360 edbf 4b55 ab3f 2fb0 7ebf bf08 a9bf
00000290: 912c 1cc0 6002 9b3e 67fd a3bd 2b3e 9bc0
000002a0: bc6c 69bf d22b 22bf 7671 13c0 47d2 97bf
000002b0: ae39 203d 9605 19bf 8b8d 2cbe ab84 b83e
000002c0: c1a4 9ac0 56bb 203e 12dd babf b527 68be
000002d0: 1db5 4b3f b2df 063d c7ab d93e 34b0 443f
000002e0: 03a4 cfbf aed0 99bf bcfc 06c0 a0bc febc
000002f0: 6f9d 71bf c7de 4ebf 71ad 863f 5450 4fbe
00000300: ba2d b7bf c2df ffbf 4af8 dabe d805 85c0
00000310: 9334 3fc0 3799 2640 a696 5e3f bc5a 293f
00000320: ebc3 ac3f e33a 01bf 95a4 7abe dc53 79bf
00000330: 8ebd 64bf 3fbc 37bf 7a38 9ebf dad4 8d3e
00000340: 84a5 0f3f 294b b8bf 606c dfbf 1793 703f
00000350: e002 13bf 05aa bf3e 93bb 98bf fa65 6b3f
00000360: d46c 413f a6de 723d 1c14 afbf b458 00c0
00000370: 6e5a b73e e2e1 b93f bd62 81bd 590d 873f
00000380: 9809 e7bf fb9c a03f 03a1 223d c86e db3f
00000390: 9745 0dbf 2f05 fec0 4d76 613e fbf6 6fbf
000003a0: e46e 90bf 4acb c93d ecca bbbf cca4 01c0
000003b0: 2169 a7bc ece0 12bf 2d67 a1be 58bd c53e
000003c0: f606 ee3e 6915 adbe fc3b 42bf a171 28bf
000003d0: 46ab 84bf 2c06 0f3f 8ab6 fa3f 438c 2dc0
000003e0: 5652 953e 97f9 53be 88a0 d2bf 69f3 3c3f
000003f0: e57b f8bd c98b c33f 44ed ffbe 7ba6 72bf
