log/mujoco_ppo_swimmer_v2_4/mujoco_ppo_swimmer_v2_4_s4/pyt_save/model.pt (torch_old, 43116 bytes, 12 tensors)

log_std f4 [2]
-2.598147 -2.8806121
00000000: 0a48 26c0 f35b 38c0

weight f4 [64, 8]
0.01686026 0.057228293 -0.29953244 -0.08328139 -0.5231336 -0.60659564 0.5685059 0.3655825
0.1726117 0.26709527 -0.31686577 -0.3476321 0.55156237 0.11213645 0.08196981 0.15977353
0.29862326 -0.27074027 -0.12594113 -0.34310004 -0.04055038 -0.13492842 -0.03266873 0.056066964
0.3439398 0.02941451 0.19463442 0.06631041 0.40361646 -0.3625774 0.3901277 0.6206199
-0.18313602 0.34794733 0.8673366 -0.12944454 -0.14804068 0.2902298 0.33038676 0.022983667
0.078569315 0.3224929 0.5071366 -0.1804201 0.035207607 0.31446415 0.32545564 -0.30281904
-0.19449586 0.3736344 -0.19127116 0.28200808 0.3060496 -0.366562 -0.27292788 -0.012710695
0.26575 0.24901322 -0.090768635 0.24582532 -0.17711027 0.24325515 -0.41374815 0.20427392
0.05490042 0.24887991 0.055927183 -0.3140356 0.13592668 0.1552168 -0.0124380905 -0.2561711
-0.22284502 -0.16456608 -0.22561866 0.31671482 0.14171134 0.104833975 -0.12083665 -0.23879774
0.023101212 0.3615603 0.18365243 -0.3634794 0.13954197 -0.031849287 0.2598564 0.12757874
-0.23128343 -0.36263174 0.10916844 0.21197723 0.4789241 0.26035774 0.5276956 -0.57725674
-0.4195041 0.26363635 0.7038936 -0.1492083 -0.15579416 0.34489262 0.29737976 -0.082293
-0.1968614 0.104557715 -0.56816065 0.18399458 0.06744122 -0.16597074 0.31738004 -0.013743613
-0.2670971 -0.017297432 -0.0015801596 0.23012678 0.24988636 -0.39163283 0.4115912 0.3210743
0.06740876 -0.1970076 0.20786847 0.18610492 0.178842 -0.099516 -0.10757088 0.15623294
-0.11474777 0.26186872 0.020923037 0.13101353 0.18813911 -0.18397659 0.27759334 0.006732198
0.3312564 -0.062358562 0.38007474 -0.056696862 -0.066018805 -0.14233483 -0.10626645 0.045871
0.27933547 0.06972006 -0.008235754 -0.01668928 0.13874003 0.31340232 -0.28799504 0.065750405
-0.32454577 -0.062330585 -0.20473465 -0.14346403 -0.10164649 0.3328899 0.16417381 -0.15314461
-0.03559085 -0.14634192 -0.24981056 0.019214023 -0.35428175 -0.13682373 0.19576022 0.24540098
-0.05123002 -0.435362 0.39489165 0.24115047 0.12133302 -0.17870475 -0.06450047 0.027444165
0.03371931 0.06390502 -0.3606722 0.79118145 0.32230136 0.117813796 -0.500018 0.014531757
-0.10171158 -0.123022355 0.089015774 -0.0145924 0.05410033 -0.36973044 -0.07610487 0.28467295
0.17008147 -0.16938917 0.43187708 -0.20471373 -0.1273443 0.28281116 0.116456434 -0.89108574
0.2353279 -0.3312159 0.00565385 0.4593299 -0.2057061 0.33636338 -0.49598348 -0.1553064
0.20537136 0.22264211 0.049003758 -0.09156949 -0.023392329 0.28198314 0.23514901 0.08984727
0.19361648 -0.17472352 -0.047529433 0.3266948 0.21382028 -0.37687916 -0.3756601 -0.049594875
0.082252786 -0.17037246 0.23695341 -0.5116027 -0.1501188 0.23069622 -0.100620635 -0.20435739
0.16418818 0.18874328 0.025008872 0.14191571 -0.3325365 -0.37565708 -0.27618507 0.789792
-0.3016595 0.28386816 -0.22054678 0.0354981 0.48421323 0.2918578 -0.12816168 -0.007882558
-0.35357162 0.15559262 -0.11562039 0.245132 -0.48505643 -0.030796349 -0.46994308 -0.41837752
00000000: 871e 8a3c 3768 6a3d 515c 99be 6f8f aabd
00000010: 15ec 05bf da49 1bbf 9a89 113f a12d bb3e
00000020: 1fc1 303e b6c0 883e 3b3c a2be d6fc b1be
00000030: 3133 0d3f cca7 e53d cadf a73d ac9b 233e
00000040: 26e5 983e 789e 8abe b6f6 00be cfaa afbe
00000050: 2818 26bd ad2a 0abe a5cf 05bd 79a6 653d
00000060: e118 b03e b3f6 f03c 3f4e 473e c1cd 873d
00000070: d1a6 ce3e bfa3 b9be d1be c73e f2e0 1e3f
00000080: 0288 3bbe 2726 b23e c509 5e3f 1c8d 04be
00000090: fa97 17be 0099 943e 7428 a93e 3e48 bc3c
000000a0: f3e8 a03d ca1d a53e b4d3 013f 0cc0 38be
000000b0: da35 103d 7201 a13e 1fa2 a63e 190b 9bbe
000000c0: ec29 47be 024d bf3e 96dc 43be 5d63 903e
000000d0: 88b2 9c3e 04ae bbbe 34bd 8bbe 8540 50bc
000000e0: 6210 883e 52fd 7e3e e8e4 b9bd a2b9 7b3e
000000f0: 655c 35be e117 793e ccd6 d3be 2f2d 513e
00000100: 43df 603d 60da 7e3e e713 653d 46c9 a0be
00000110: 5d30 0b3e 27f1 1e3e 22c9 4bbc dc28 83be
00000120: 7c31 64be 0384 28be 9408 67be 7228 a23e
00000130: c71c 113e 32b3 d63d 3579 f7bd 6587 74be
00000140: c13e bd3c 6f1e b93e 620f 3c3e f919 babe
00000150: 17e4 0e3e 6674 02bd e60b 853e 00a4 023e
00000160: 90d5 6cbe deaa b9be b493 df3d 8f10 593e
00000170: 8a35 f53e 9c4d 853e 0f17 073f 19c7 13bf
00000180: 3ec9 d6be 58fb 863e 5f32 343f 10ca 18be
00000190: 8188 1fbe c495 b03e 2942 983e 3b89 a8bd
000001a0: 0996 49be 5b22 d63d fa72 11bf 1369 3c3e
000001b0: 9f1e 8a3d 3cf4 29be a37f a23e e42c 61bc
000001c0: f3c0 88be 58b3 8dbc 5c1d cfba 5ba6 6b3e
000001d0: 36e2 7f3e 1984 c8be 15bc d23e da63 a43e
000001e0: 9b0d 8a3d 5cbc 49be 79db 543e 4a92 3e3e
000001f0: 5b22 373e 0bcf cbbd 1f4e dcbd 87fb 1f3e
00000200: e100 ebbd a813 863e ca66 ab3c 6928 063e
00000210: 8aa7 403e 5c64 3cbe b720 8e3e c599 dc3b
00000220: 709a a93e b16b 7fbd 2899 c23e f83a 68bd
00000230: de34 87bd 39c0 11be 39a2 d9bd 3be3 3b3d
00000240: 0f05 8f3e 64c9 8e3d 42ef 06bc f5b7 88bc
00000250: de11 0e3e 4576 a03e 1674 93be 26a8 863d
00000260: dd2a a6be 5b4e 7fbd f6a5 51be 3ce8 12be
00000270: 092c d0bd 8c70 aa3e 2e1d 283e f1d1 1cbe
00000280: b6c7 11bd a8da 15be 57ce 7fbe ba66 9d3c
00000290: 6b64 b5be 851b 0cbe 5e75 483e 654a 7b3e
000002a0: 92d6 51bd c5e7 debe 3d2f ca3e 26f0 763e
000002b0: 727d f83d 61fe 36be d318 84bd 96d2 e03c
000002c0: 421d 0a3d a3e0 823d 07aa b8be de8a 4a3f
000002d0: af04 a53e 5c48 f13d 2e01 00bf 9b16 6e3c
000002e0: 294e d0bd 25f3 fbbd e74d b63d f614 6fbc
000002f0: 4f98 5d3d 4f4d bdbe dfdc 9bbd a7c0 913e
00000300: d629 2e3e 5b74 2dbe fe1e dd3e 7aa0 51be
00000310: 8b66 02be a0cc 903e b680 ee3d 321e 64bf
00000320: ccf9 703e 2195 a9be ee43 b93b 4a2d eb3e
00000330: 9fa4 52be d237 ac3e 8cf1 fdbe a408 1fbe
00000340: df4c 523e 4bfc 633e 2ab8 483d c988 bbbd
00000350: 45a1 bfbc 1860 903e e7ca 703e d801 b83d
00000360: 6643 463e b9ea 32be 39ae 42bd 8a44 a73e
00000370: b4f3 5a3e 4ef6 c0be 8556 c0be ff23 4bbd
00000380: 2674 a83d 1e76 2ebe eaa3 723e 65f8 02bf
00000390: beb8 19be a13b 6c3e 3112 cebd 1043 51be
000003a0: f220 283e eb45 413e 68df cc3c 5a52 113e
000003b0: 3942 aabe 2056 c0be 2168 8dbe cf2f 4a3f
000003c0: 1d73 9abe 2b57 913e 04d7 61be 7566 113d
000003d0: ccea f73e 636e 953e d13c 03be d825 01bc
000003e0: 5707 b5be ac53 1f3e 62ca ecbd e203 7b3e
000003f0: 5159 f8be a048 fcbc 619c f0be 9435 d6be

bias f4 [64]
-0.27558982 -0.2650217 0.06876158 0.113642566 0.31393117 -0.14373294 -0.28496754 0.1372886
0.053606648 -0.3164536 -0.3353349 0.040504612 0.23475379 0.26914626 -0.06922373 0.10474996
-0.09730447 0.18676947 -0.30439895 -0.16096883 0.1682305 0.2034436 0.23900531 0.26835814
0.16711664 0.15570426 0.26077193 -0.2825276 0.005203581 0.34974602 0.31695494 0.34638587
0.035492193 0.42374557 0.26307532 0.14457114 -0.14960691 0.23539497 0.18774398 0.117692456
0.25187725 -0.2457141 0.009961205 0.06031465 -0.45775864 0.26003298 0.057428222 0.181939
-0.27002585 -0.16586712 0.10163439 -0.1146322 -0.023329368 0.3363428 0.08039852 -0.11598582
0.04838631 0.23605181 0.10125683 0.15588503 0.050021794 0.19132462 0.30076393 -0.28205895
00000000: 1c1a 8dbe edb0 87be dfd2 8c3d 6fbd e83d
00000010: 96bb a03e ba2e 13be 44e7 91be 6295 0c3e
00000020: a592 5b3d 3506 a2be 04b1 abbe 2ae8 253d
00000030: 4c63 703e 8acd 893e 2cc5 8dbd 2687 d63d
00000040: 9147 c7bd 7f40 3f3e 2eda 9bbe 03d5 24be
00000050: 9e44 2c3e 8553 503e cfbd 743e 3d66 893e
00000060: a020 2b3e f070 1f3e e683 853e 75a7 90be
00000070: cd82 aa3b e911 b33e eb47 a23e 7d59 b13e
00000080: 4360 113d 2ef5 d83e cfb1 863e 750a 143e
00000090: 8e32 19be 610b 713e f53f 403e be08 f13d
000000a0: 0ef6 803e 7a9c 7bbe 5234 233c 7f0c 773d
000000b0: 575f eabe 0b23 853e db39 6b3d 384e 3a3e
000000c0: d440 8abe 12d9 29be b125 d03d 49c4 eabd
000000d0: 3b1d bfbc 2035 ac3e fba7 a43d f989 edbd
000000e0: b930 463d 91b7 713e be5f cf3d 53a0 1f3e
000000f0: a7e3 4c3d 9aea 433e bbfd 993e 086a 90be

weight f4 [64, 64]
-0.039742284 -0.1466376 -0.029133901 0.26743758 0.028342597 0.044982005 0.032560952 -0.08497894
0.077161394 -0.13969469 -0.0055418573 -0.20891587 0.06439956 -0.06725647 -0.094685726 0.19446048
0.023053052 0.06497444 0.10935285 -0.15501557 -0.02670203 0.23875912 0.09294505 0.008292497
-0.00976155 0.11290165 0.13339564 -0.019061623 -0.06639265 0.17441016 0.054286703 -0.19904447
0.13422792 0.06017805 0.22350967 -0.07082435 -0.04806803 0.11726448 -0.06239899 -0.1730641
0.06954125 -0.11576739 -0.0024680123 -0.0724248 0.14404377 -0.010462777 -0.02704739 0.090968
-0.08576361 0.018058037 -0.05218047 -0.08410471 0.00560299 -0.07423369 -0.12100025 0.02421015
0.044409454 0.22538131 0.08086227 0.08069724 -0.22301021 -0.11903545 -0.16476731 0.023047714
-0.028395062 -0.060952235 -0.0027511104 -0.07889567 0.0065963697 -0.028450117 -0.06565472 0.105013475
-0.101798214 0.046042226 -0.085480146 -0.052988693 -0.062212307 -0.09711901 -0.040855944 0.08753353
0.027384588 0.01250245 0.04726308 -0.054405026 0.04575379 -0.08298182 -0.10452189 0.07032348
0.047620308 0.15682712 0.116312906 -0.03381069 0.02876171 -0.115200035 0.054081757 0.061645854
0.06522463 0.16032706 0.16158774 0.1379689 -0.005800021 0.0560505 0.08884069 -0.046695296
0.15181164 -0.13165468 0.022651082 0.05266996 -0.06249652 0.064225 -0.1069909 0.07043841
-0.019441701 0.024938734 -0.023988103 0.13663298 0.031213902 0.03174522 -0.1577218 0.06556112
0.11369756 0.15045696 0.1131585 -0.06864635 -0.13540882 -0.078042224 -0.04714855 -0.114104606
-0.031392094 0.111349285 0.0840542 -0.03327444 0.12493114 0.037852168 -0.052403297 -0.14013621
-0.03594396 -0.05926422 0.036188 0.0040815524 -0.007098099 1.845597e-05 0.046319578 -0.11007855
-0.09064884 -0.0020267712 -0.02532149 0.06286844 0.016410604 0.055745084 -0.041543502 -0.070664324
0.08132315 0.011519406 0.05940603 0.06735005 -0.09853712 0.009285739 0.0706087 -0.10611549
0.12839127 -0.021735286 0.07869856 -0.0073435525 0.03217404 0.015425402 0.032158114 0.008278717
0.12837575 0.102049224 0.116170585 -0.028796345 0.064820595 -0.072094515 0.06948724 0.0036019103
0.15308377 0.049243227 -0.004569031 0.17555077 -0.03616905 -0.1716255 -0.087291986 0.061723813
0.013368349 0.1486678 -0.098796695 -0.007813736 0.007677698 -0.001014367 -0.04014676 -0.123784564
0.16602632 -0.049739428 0.1392256 -0.10343601 0.0036914083 0.14032517 -0.03171694 0.025561549
0.10322492 -0.039230876 -0.026896726 0.20486757 -0.09445476 -0.08746976 0.1395078 0.02603655
-0.0998102 0.13730823 -0.038385414 -0.028136024 -0.028198212 0.1772699 0.019662637 0.085192285
-0.09404683 0.013840948 -0.046097558 0.10310341 0.098937355 0.030463351 -0.16637288 0.03258525
-0.26348564 0.08713572 -0.14961107 -0.026249377 -0.049990512 0.0084611345 -0.024160845 -0.09221137
-0.013106384 0.058548816 -0.0792538 -0.08052945 -0.009598499 0.1024933 0.08775103 0.13101487
0.006095774 -0.020518797 0.08095374 -0.053226274 0.02201639 -0.050898258 -0.039310604 0.06519973
-0.09241291 -0.14364028 -0.066990755 -0.030299215 -0.11936754 0.09676436 0.06519886 0.10462189
00000000: cec8 22bd 2b28 16be 38aa eebc 94ed 883e
00000010: bc2e e83c 0d3f 383d a25e 053d 7009 aebd
00000020: cb06 9e3d 200c 0fbe 7898 b5bb 0bee 55be
00000030: ebe3 833d c3bd 89bd 97ea c1bd a620 473e
00000040: c1d9 bc3c 5211 853d 63f4 df3d 67bc 1ebe
00000050: 37be dabc 457d 743e f959 be3d 41dd 073c
00000060: e9ee 1fbc fb38 e73d de98 083e 1f27 9cbc
00000070: dff8 87bd 9498 323e bc5b 5e3d 50d2 4bbe
00000080: 0b73 093e 427d 763d b8df 643e 5b0c 91bd
00000090: fce2 44bd 5c28 f03d 1596 7fbd b737 31be
000000a0: a56b 8e3d 7417 edbd 60be 21bb 7453 94bd
000000b0: 3680 133e 116c 2bbc 7d92 ddbc 6e4d ba3d
000000c0: d5a4 afbd 73ee 933c 30bb 55bd 173f acbd
000000d0: 4999 b73b d507 98bd fbce f7bd 5d54 c63c
000000e0: b0e6 353d 5cca 663e 1e9b a53d 9844 a53d
000000f0: ca5c 64be dcc8 f3bd c3b8 28be 8fce bc3c
00000100: c39c e8bc 0da9 79bd f94b 34bb 0e94 a1bd
00000110: 5c26 d83b 3810 e9bc fb75 86bd 4e11 d73d
00000120: 957b d0bd c696 3c3d 3710 afbd ac0a 59bd
00000130: 55d2 7ebd 55e6 c6bd 9058 27bd c844 b33d
00000140: a555 e03c 13d7 4c3c ee96 413d ced7 5ebd
00000150: 5368 3b3d 5ff2 a9bd 930f d6bd c205 903d
00000160: 830d 433d 4a97 203e 7635 ee3d 147d 0abd
00000170: ad9d eb3c ffed ebbd d584 5d3d 5d80 7c3d
00000180: 7e94 853d c72c 243e 4277 253e b847 0d3e
00000190: 1a0e bebb 3695 653d 1cf2 b53d 9143 3fbd
000001a0: 8374 1b3e 7cd0 06be c38e b93c 75bc 573d
000001b0: 5afc 7fbd 6688 833d 0c1e dbbd 0342 903d
000001c0: 3444 9fbc 514c cc3c b382 c4bc 84e9 0b3e
000001d0: 4cb4 ff3c 4707 023d d381 21be e944 863d
000001e0: 44da e83d 6411 1a3e a5bf e73d 7596 8cbd
000001f0: 9ca8 0abe 9ad4 9fbd d71e 41bd adaf e9bd
00000200: ff94 00bd 180b e43d 9c24 ac3d c74a 08bd
00000210: e6db ff3d e00a 1b3d d7a4 56bd de7f 0fbe
00000220: f939 13bd 0abf 72bd de39 143d 8bbe 853b
00000230: 2c97 e8bb e5d1 9a37 99b9 3d3d dd70 e1bd
00000240: 19a6 b9bd 94d3 04bb 036f cfbc 2bc1 803d
00000250: 886f 863c f554 643d 8529 2abd 75b8 90bd
00000260: c08c a63d e4bb 3c3c bd53 733d d3ee 893d
00000270: d4cd c9bd 3623 183c 4b9b 903d 1453 d9bd
00000280: 0079 033e 330e b2bc b62c a13d 2fa2 f0bb
00000290: edc8 033d d3ba 7c3c 3ab8 033d 75a3 073c
000002a0: ef74 033e 2fff d03d d8ea ed3d 50e6 ebbc
000002b0: a9c0 843d 4aa6 93bd 534f 8e3d 070e 6c3b
000002c0: fec1 1c3e 44b3 493d cfb7 95bb 95c3 333e
000002d0: ff25 14bd 98be 2fbe 24c6 b2bd 1cd2 7c3d
000002e0: eb06 5b3c 5f3c 183e ec55 cabd 2f05 00bc
000002f0: 3395 fb3b 82f4 84ba ee70 24bd c382 fdbd
00000300: ce02 2a3e 92bb 4bbd 2891 0e3e 42d6 d3bd
00000310: 8eeb 713b 67b1 0f3e 9fe9 01bd 7466 d13c
00000320: 9667 d33d 8eb0 20bd 8656 dcbc cec8 513e
00000330: 7f71 c1bd 5823 b3bd 22db 0e3e 9a4a d53c
00000340: 4a69 ccbd 879a 0c3e 063a 1dbd 857d e6bc
00000350: f0ff e6bc 3e86 353e 8a13 a13c 4b79 ae3d
00000360: a09b c0bd 25c5 623c cbd0 3cbd e127 d33d
00000370: ab9f ca3d 478e f93c a75d 2abe 1c78 053d
00000380: 97e7 86be 3674 b23d a533 19be ef08 d7bc
00000390: dac2 4cbd 92a0 0a3c f7ec c5bc 51d9 bcbd
000003a0: 29bc 56bc e2d0 6f3d d14f a2bd a0ec a4bd
000003b0: 0643 1dbc 02e8 d13d d0b6 b33d c328 063e
000003c0: 0fbf c73b 0917 a8bc 13cb a53d cb03 5abd
000003d0: b75b b43c b17a 50bd 2804 21bd 7087 853d
000003e0: fb42 bdbd 7016 13be 7332 89bd 0f36 f8bc
000003f0: f876 f4bd 652c c63d fb86 853d 0044 d63d

bias f4 [64]
0.0016968524 -0.005090217 -0.07820639 -0.096000254 0.053554993 -0.028397793 -0.071418524 0.17820877
-0.08521608 0.03447759 0.12568216 -0.085339226 0.003919527 -0.10793987 0.03832451 0.05940273
-0.023482038 0.13534378 0.025039636 -0.08011217 -0.044710126 -0.07937618 -0.02134889 -0.006001767
-0.028535627 0.13989764 -0.09327394 -0.029200643 -0.05247622 0.04697059 -0.010898802 -0.20414843
-0.027051264 0.06000684 0.029165145 0.051247504 0.07866181 0.05157682 0.0034881236 0.07748389
-0.07645727 -0.08644873 0.13282217 0.08914454 -0.04337592 -0.057986524 0.1631902 0.002917161
0.011984668 0.11929148 -0.007399495 -0.07431196 -0.17012064 0.045783 0.10229034 -0.16177386
-0.1364224 -0.043869648 -0.081093065 -0.025342202 -0.12272474 0.12255664 -0.077639885 -0.15871374
00000000: eb68 de3a d6cb a6bb ac2a a0bd c89b c4bd
00000010: 7b5c 5b3d 7da2 e8bc e043 92bd 5c7c 363e
00000020: c585 aebd 6038 0d3d d3b2 003e 55c6 aebd
00000030: 606f 803b 940f ddbd 29fa 1c3d 4750 733d
00000040: 675d c0bc 8f97 0a3e ec1f cd3c d911 a4bd
00000050: f721 37bd fb8f a2bd dee3 aebc 78aa c4bb
00000060: 8cc3 e9bc 5441 0f3e 6806 bfbd 3036 efbc
00000070: 4ef1 56bd 3c64 403d e490 32bc 490c 51be
00000080: 9d9a ddbc bbc9 753d beeb ee3c e7e8 513d
00000090: 7119 a13d 3742 533d 0199 643b e0af 9e3d
000000a0: a195 9cbd 080c b1bd 8902 083e 6a91 b63d
000000b0: f3aa 31bd 4783 6dbd 551b 273e d72d 3f3b
000000c0: 575b 443c 174f f43d 7777 f2bb de30 98bd
000000d0: 1b34 2ebe f486 3b3d 997d d13d 0ca8 25be
000000e0: 50b2 0bbe a9b0 33bd 1f14 a6bd 739a cfbc
000000f0: 1c57 fbbd fafe fa3d a901 9fbd db85 22be

weight f4 [2, 64]
0.02280998 -0.10783344 0.054142755 -0.03704627 0.20011957 -0.08492243 0.01669181 -0.15515935
-0.1597992 0.024290513 -0.18653017 -0.12238248 -0.07470182 0.051623363 0.01335809 0.14344019
0.17884485 -0.22477381 0.16465947 0.18908575 -0.0967423 0.1982523 0.19751045 0.07846937
-0.113965765 -0.25988513 0.10497903 0.15666595 -0.13001569 0.15614858 0.099527255 0.14020489
0.25633496 0.06497546 0.22470683 -0.08300425 -0.21172814 -0.039733227 0.12849209 -0.09704143
0.026851343 0.0941238 0.011004587 -0.07048159 0.24145497 0.008519077 -0.13258108 -0.2389091
-0.06615772 -0.09385908 0.34534633 0.1591696 0.14765754 0.26718336 -0.16497456 0.390518
0.18083782 -0.0997057 0.14952508 0.20387857 0.09884203 -0.09297029 0.15225445 0.46046886
0.18232186 0.07392852 0.16444619 -0.24458544 0.21166103 -0.37313926 0.1283287 0.09898927
0.018841423 0.27577066 -0.1615471 0.20415913 0.35157242 -0.15407145 0.1556106 0.051121827
-0.1658048 0.14090133 0.084800966 -0.18346709 0.0043326835 0.0038621887 -0.11216798 -0.23348734
-0.108190544 0.08314563 0.13083616 0.021939632 -0.17687228 0.27338025 -0.15893677 0.06691831
0.2513078 0.13256268 -0.4534045 -0.16395114 0.20288108 0.27627972 -0.0567525 -0.16206208
0.12362821 -0.30233815 -0.27087346 -0.20564689 0.1233468 -0.051315118 0.27603433 0.06145686
0.17828916 -0.22256908 -0.10778833 0.24557099 0.2404636 -0.017861113 -0.15232538 0.11878088
0.020028397 -0.37157845 0.29790318 0.15650682 -0.07923989 0.22587478 0.16878033 0.0921054
00000000: ffdb ba3c c7d7 dcbd cbc4 5d3d d4bd 17bd
00000010: 25ec 4c3e d0eb adbd 43bd 883c 18e2 1ebe
00000020: 67a2 23be e6fc c63c c401 3fbe aaa3 fabd
00000030: 45fd 98bd 0573 533d e4db 5a3c fce1 123e
00000040: 1b23 373e 1b2b 66be 7e9c 283e b29f 413e
00000050: d420 c6bd a702 4b3e 2e40 4a3e 8db4 a03d
00000060: e266 e9bd aa0f 85be 3fff d63d 0a6d 203e
00000070: d522 05be 6ae5 1f3e f2d4 cb3d df91 0f3e
00000080: 563e 833e db11 853d 8c19 663e 22fe a9bd
00000090: 43cf 58be 4fbf 22bd 6e93 033e a8bd c6bd
000000a0: 59f7 db3c fbc3 c03d 954c 343c a758 90bd
000000b0: f93f 773e 9993 0b3c 56c3 07be 96a4 74be
000000c0: b37d 87bd 3039 c0bd 3cd1 b03e 5bfd 223e
000000d0: 8a33 173e 42cc 883e 17ef 28be faf1 c73e
000000e0: 8d2d 393e 8132 ccbd 1a1d 193e 8bc5 503e
000000f0: b16d ca3d 3567 bebd 97e8 1b3e 93c2 eb3e
00000100: 95b2 3a3e d667 973d 9564 283e 9b74 7abe
00000110: abbd 583e 1c0c bfbe 9968 033e e3ba ca3d
00000120: 5459 9a3c d031 8d3e 9a6c 25be 170f 513e
00000130: 4d01 b43e e8c4 1dbe 6358 1f3e 1f65 513d
00000140: bcc8 29be 7048 103e 21ac ad3d ccde 3bbe
00000150: 2ff9 8d3b c61c 7d3b 53b8 e5bd 4e17 6fbe
00000160: 0193 ddbd 4248 aa3d eaf9 053e beba b33c
00000170: 021e 35be 7ff8 8b3e 52c0 22be 780c 893d
00000180: 6aab 803e 83be 073e a224 e8be cfe2 27be
00000190: 0fc0 4f3e 8974 8d3e 4f75 68bd 9af3 25be
000001a0: c930 fd3d 11cc 9abe edaf 8abe 1995 52be
000001b0: 3f9d fc3d cd2f 52bd 5f54 8d3e 30ba 7b3d
000001c0: 6f91 363e 26e9 63be 21c0 dcbd f676 7b3e
000001d0: 173c 763e 7851 92bc 2ffb 1bbe 6443 f33d
000001e0: 9812 a43c 883f bebe c486 983e 5343 203e
000001f0: 8648 a2bd b84b 673e c0d4 2c3e c2a1 bc3d

bias f4 [2]
-0.084992155 0.13571823
00000000: 5e10 aebd b8f9 0a3e

weight f4 [64, 8]
0.09890962 0.16620615 -0.2140618 0.46740803 0.88409525 0.09053597 0.50881577 0.033115264
0.037693646 0.17734654 0.14954807 -0.7184623 0.18771923 -0.37310052 0.49417412 0.33186337
-0.2215814 -0.045844503 0.25214294 -0.23475412 0.6694709 -0.29414552 0.25800306 0.058180857
-0.28750134 0.525366 -0.14924358 0.04446319 0.50583154 -0.17822376 -0.044120643 0.10723113
0.39742908 -0.24703619 0.30685553 0.15976305 -0.16816688 -0.35544118 -0.21263021 -0.12617685
0.47261113 -0.2902993 0.39681923 0.12199373 -0.027854536 0.3739938 0.39129537 0.14228795
-0.31273338 -0.1240687 0.25474697 0.6386184 -0.2597881 -0.07158936 0.21120973 0.19008718
-0.36756662 -0.15180343 0.35984907 -0.8877389 -0.121615745 -0.18308124 -0.14603667 0.012869769
-0.27201456 0.00714805 -0.45903993 -0.23136799 -0.2779436 -0.10468953 0.15600933 -0.34033316
0.71512747 -0.28547204 -0.28909567 -0.4612025 -1.1629349 0.19399785 0.047522712 0.13569635
0.04217596 -0.25635356 0.35418972 -0.6619539 0.08646576 0.18793122 0.05391784 -0.123772375
-0.27058834 -0.11426699 -0.40282816 -0.2808188 -0.087966636 0.117563896 0.6536834 -0.1104027
0.59704995 0.12878895 -0.2849848 -0.41466236 0.37667677 0.34624338 -0.2303921 -0.24043354
-0.2898857 -0.017628578 0.20996046 1.117097 -0.7255756 0.09441631 0.23106618 -0.2253601
-0.09001456 0.35428253 0.015123054 0.34541452 0.04564729 -0.21664938 -0.46402073 -0.24942704
0.2577643 0.5086231 -0.117173344 -1.1442124 -0.23224688 0.7372974 -0.6634274 -0.13974749
-0.2055622 -0.04982122 -0.14255635 -0.92933756 -0.5585316 -0.9440202 -0.23062868 -0.09252855
-0.0023181497 -0.2835597 0.40295318 -0.0932148 0.22691824 0.09711333 0.24033804 0.011591505
-0.44678566 0.0446748 -0.39804596 -0.075416885 0.02871147 -0.11244588 -0.12884195 -0.105822556
-0.39558506 -0.32361245 -0.42570823 -0.4552501 -0.72877866 0.26567608 -0.27159655 -0.086558916
0.47686622 -0.36199316 -0.32741103 0.03183441 0.07369562 0.17410032 -0.16453223 0.0867514
-0.02305337 0.26158795 0.64007086 -0.18537812 -0.34440282 0.15643018 0.18931577 0.7520061
-0.18084404 0.22822177 0.53215826 0.22132203 -1.108794 -0.38192633 0.41945451 0.19762091
-0.5241486 0.36882356 -0.43600026 -0.3109471 0.3083123 0.32738566 0.15664516 0.05641887
0.094838135 -0.09222237 -1.0778983 -0.76236874 -0.21052498 0.028203057 -0.41740218 -0.7341318
0.44790906 0.07776794 -0.42002916 0.42941403 0.047126576 0.25558418 0.10258367 -0.06547391
0.09880838 -0.19457658 0.40784165 -0.9058739 -0.157138 -0.2351235 -0.5490692 -0.20327044
0.75554085 -0.4207088 0.06533548 0.24913727 -1.0747275 0.07169202 0.09950962 0.092406444
-0.24812375 -0.2670002 0.26800185 -0.24947731 -0.5706889 -0.20557034 -0.635146 -0.23216514
0.08162121 0.059562728 -0.2530375 -0.25057375 -0.5227134 -0.23494102 -0.21271427 0.328483
0.09020101 -0.21299681 0.20917392 0.8762551 -0.025215628 0.60564333 -0.40706357 -0.5289368
0.04941973 0.05154569 -0.115463704 0.32799765 -0.45426103 -0.44846386 0.44201186 -0.3835985
00000000: 2091 ca3d f231 2a3e 0433 5bbe 1b50 ef3e
00000010: 1154 623f ec6a b93d c041 023f dfa3 073d
00000020: a764 1a3d 559a 353e 2123 193e 25ed 37bf
00000030: 7839 403e 0807 bfbe 6404 fd3e ffe9 a93e
00000040: 3ce6 62be 72c7 3bbd e118 813e 6263 70be
00000050: 7262 2b3f 3e9a 96be fa18 843e 0d4f 6e3d
00000060: 6033 93be 637e 063f 4fd3 18be 091f 363d
00000070: 2d7e 013f 4a80 36be d9b7 34bd ff9b db3d
00000080: d37b cb3e 0ef7 7cbe 2b1c 9d3e ed98 233e
00000090: f033 2cbe 63fc b5be bcbb 59be 8134 01be
000000a0: 16fa f13e 1ca2 94be e42b cb3e d9d7 f93d
000000b0: 322f e4bc 1e7c bf3e de57 c83e efb3 113e
000000c0: 971e a0be bb17 febd 326e 823e 7f7c 233f
000000d0: f202 85be 719d 92bd 5d47 583e 37a6 423e
000000e0: b131 bcbe 5c72 1bbe 233e b83e db42 63bf
000000f0: ad11 f9bd a679 3bbe a38a 15be b9db 523c
00000100: 7e45 8bbe 303a ea3b 4807 ebbe bbeb 6cbe
00000110: a04e 8ebe 7767 d6bd e9c0 1f3e 2640 aebe
00000120: 9812 373f 6429 92be 5904 94be bc22 ecbe
00000130: 0ddb 94bf 5fa7 463e 2da7 423d fcf3 0a3e
00000140: b3c0 2c3d c640 83be 5b58 b53e d075 29bf
00000150: f614 b13d 0b71 403e f4d8 5c3d 5f7c fdbd
00000160: 8e8a 8abe d004 eabd 7e3f cebe 7bc7 8fbe
00000170: da27 b4bd 57c5 f03d cc57 273f d01a e2bd
00000180: 44d8 183f 40e1 033e 87e9 91be a04e d4be
00000190: c7db c03e d046 b13e e8eb 6bbe 3634 76be
000001a0: e66b 94be cf69 90bc e0ff 563e 09fd 8e3f
000001b0: 53bf 39bf 575d c13d 9d9c 6c3e ccc4 66be
000001c0: 8e59 b8bd 8564 b53e b0c6 773c 2cda b03e
000001d0: a7f8 3a3d 56d9 5dbe 2094 edbe cd69 7fbe
000001e0: aff9 833e 2035 023f 94f8 efbd 8d75 92bf
000001f0: 20d2 6dbe 86bf 3c3f 61d6 29bf f719 0fbe
00000200: e67e 52be 5611 4cbd 4bfa 11be 11e9 6dbf
00000210: edfb 0ebf 4fab 71bf ed29 6cbe 9c7f bdbd
00000220: 19ec 17bb bd2e 91be e14f ce3e 67e7 bebd
00000230: 415d 683e 5be3 c63d 2d1b 763e 4cea 3d3c
00000240: 17c1 e4be ecfc 363d aecc cbbe 2b74 9abd
00000250: 5134 eb3c 074a e6bd 25ef 03be 7fb9 d8bd
00000260: 208a cabe 88b0 a5be 6ef6 d9be 8b16 e9be
00000270: 3d91 3abf b206 883e b40e 8bbe cd45 b1bd
00000280: cf27 f43e 2b57 b9be 6ba2 a7be cc64 023d
00000290: bbed 963d 5b47 323e 237b 28be b8aa b13d
000002a0: 6cda bcbc dbee 853e afdb 233f c3d3 3dbe
000002b0: 9155 b0be 3c2f 203e fedb 413e 7983 403f
000002c0: 2e2f 39be f8b2 693e 863b 083f 3ea2 623e
000002d0: f6ec 8dbf d98b c3be bec2 d63e 235d 4a3e
000002e0: 9a2e 06bf 71d6 bc3e 6d3b dfbe 7534 9fbe
000002f0: 1cdb 9d3e 189f a73e 9767 203e 7917 673d
00000300: 7f3a c23d 15df bcbd 92f8 89bf 992a 43bf
00000310: dc93 57be 190a e73c bdb5 d5be 10f0 3bbf
00000320: 5654 e53e cc44 9f3d 100e d7be 28dc db3e
00000330: cc07 413d eedb 823e 6317 d23d 2f17 86bd
00000340: 0c5c ca3d 153f 47be 9fd0 d03e 5ae7 67bf
00000350: c9e8 20be 37c4 70be cd8f 0cbf 2026 50be
00000360: 206b 413f 2567 d7be 9cce 853d d71d 7f3e
00000370: ac90 89bf 44d3 923d b3cb cb3d 973f bd3d
00000380: 2714 7ebe 40b4 88be 8a37 893e fb76 7fbe
00000390: ab18 12bf 0881 52be ee98 22bf b3bc 6dbe
000003a0: 0529 a73d 0cf8 733d 228e 81be 344b 80be
000003b0: 8cd0 05bf 6194 70be c5d1 59be ec2e a83e
000003c0: 4fbb b83d d61b 5abe b031 563e 4152 603f
000003d0: 0191 cebc 710b 1b3f a36a d0be 6768 07bf
000003e0: 586c 4a3d 9321 533d 3c78 ecbd 4fef a73e
000003f0: e794 e8be 0e9d e5be 614f e23e 0667 c4be

bias f4 [64]
-0.29130352 -0.024011705 -0.1392369 -0.5189942 0.5225925 0.18578088 -0.17908885 -0.34645358
0.12637325 0.4549387 -0.35839924 0.15295157 -0.6846413 0.0060483105 -0.09859976 0.26042575
0.3292333 -0.24815583 -0.07526795 0.41603366 -0.9687568 -0.34344047 -0.64827645 -0.7259831
0.42990106 -0.0005895093 0.22006729 0.3964774 0.36314887 -0.17131707 -0.23953298 -0.25314844
-0.4116579 0.46028012 -0.2246964 -0.279185 -0.32902443 -0.4171035 0.2991638 0.26431867
-0.21130075 -0.1663545 0.24624382 0.14470828 -0.7393606 -0.09417446 0.38772282 0.45390296
0.11695987 0.7945627 -0.32538158 -0.21114208 0.5955105 -0.08280881 -0.38899803 -0.17875756
-0.23981482 -0.17195615 -0.653112 -0.25844944 0.41190296 -0.32385337 -0.088256404 -0.005990709
00000000: bc25 95be 32b4 c4bc 1e94 0ebe cedc 04bf
00000010: 9fc8 053f 583d 3e3e 1163 37be 5d62 b1be
00000020: fd67 013e baed e83e 1b80 b7be 569f 1c3e
00000030: a744 2fbf e830 c63b acee c9bd 8656 853e
00000040: 4491 a83e 901c 7ebe 1526 9abd 5d02 d53e
00000050: 7200 78bf 6ed7 afbe 72f5 25bf 07da 39bf
00000060: fe1b dc3e 4d89 1aba 5259 613e 16ff ca3e
00000070: a6ee b93e be6d 2fbe 2248 75be ac9c 81be
00000080: d3c4 d2be d6a9 eb3e d016 66be 56f1 8ebe
00000090: e475 a8be 978e d5be ff2b 993e c754 873e
000000a0: 395f 58be d658 2abe 5727 7c3e 682e 143e
000000b0: bc46 3dbf 8ade c0bd 9b83 c63e f865 e83e
000000c0: a888 ef3d 7668 4b3f 6a98 a6be a135 58be
000000d0: 6073 183f aa97 a9bd c02a c7be 390c 37be
000000e0: 0492 75be 4615 30be 5932 27bf 7c53 84be
000000f0: f2e4 d23e 1cd0 a5be c6bf b4bd b64d c4bb

weight f4 [64, 64]
-0.011560118 -0.12093017 -0.26294884 0.023195988 -0.08883561 -0.06415441 -0.26075482 -0.15638846
0.01776104 -0.17491658 -0.006091078 0.0985505 0.25950396 -0.2995636 -0.15966034 0.13242628
0.00556989 -0.26617175 -0.13688153 -0.035366394 0.29965687 0.09178461 0.27073383 0.114750035
-0.04009015 0.24200773 0.10287439 -0.0905258 -0.38290054 0.11405423 -0.071975656 0.46797478
0.035305902 -0.027648183 0.21150474 -0.11613645 0.17176984 0.24494827 -0.15281112 -0.4098046
0.09167309 -0.20717052 -0.04490407 -0.10439124 0.19871159 -0.20380662 -0.36184222 -0.048868306
0.0805165 -0.35234892 -0.10444376 0.039044946 -0.15829583 0.054686368 0.3924006 0.0755294
-0.16465802 0.17455964 0.15025766 -0.03383079 -0.077652395 0.076493815 -0.19449551 -0.20678382
-0.059891734 0.2629561 0.09832318 -0.03984023 -0.26523337 -0.16808334 0.007964189 0.029040962
-0.13713647 -0.1078192 0.22028068 0.33365992 0.0364255 0.18417987 0.029216018 -0.952847
0.053223986 0.6907012 0.11224997 -0.42557862 0.43148127 0.05161114 0.28161713 0.16533203
-0.11458354 -0.10801911 -0.01560963 -0.18208894 -0.06336782 -0.37989372 -0.027190698 0.2526787
0.2202053 -0.37914398 0.31817633 -0.0066696946 0.14728956 0.061554573 -0.30768707 0.3792406
0.20635901 0.15908529 -0.26473048 -0.30900955 0.21366973 0.27187333 -0.32591838 0.2158561
0.09924444 -0.282766 -0.036992088 0.04136434 -0.28038743 0.17871112 0.077161334 0.3963455
-0.05009207 0.38531148 0.11758705 -0.045039333 -0.046020877 0.076755576 -0.026122212 0.10108649
0.16273446 0.043397576 0.11831351 -0.11145834 0.08087324 0.029224355 -0.054463733 0.122638665
-0.062030073 0.10565999 -0.19360937 0.025975225 -0.24443868 0.0881729 -0.008923627 -0.01674635
0.18493469 -0.2441673 0.071409784 0.21482919 -0.28771544 -0.047304314 -0.2469543 -0.3208252
0.11874636 -0.2129005 -0.16620803 0.08705217 0.21126156 -0.17602259 0.05725379 0.008243565
-0.27984712 0.23499328 0.042034864 0.04373622 -0.029585158 -0.15743966 0.13174053 0.22889686
-0.1977885 0.10662497 0.03041306 0.055478398 -0.40751848 0.06836566 0.21360506 -0.026494747
0.11595401 0.21046342 0.017893791 -0.14904451 0.08708132 -0.069825545 -0.358266 -0.24078032
0.17540197 0.24295251 -0.26443818 0.06674778 0.05563616 -0.1680271 -0.070378914 0.11100148
0.36702892 -0.21113344 -0.0030073852 -0.09724073 0.32068613 0.19026443 0.18130057 0.20533769
-0.16698484 0.26897684 -0.31251183 0.1130548 -0.22531487 0.20728679 0.18488672 -0.14723079
-0.2762719 -0.27030504 -0.18192445 -0.10934855 -0.39228788 0.15164632 -0.2666698 -0.35523558
-0.13677834 -0.13088411 -0.28519243 0.14126848 -0.70344365 0.13420218 0.15329722 0.1364916
0.04115275 0.12376982 0.1697862 0.3667314 0.11183644 -0.106364146 0.107113495 0.16654107
-0.14701116 0.05226472 0.28630263 0.03795382 -0.20861484 0.14971952 0.049648374 -0.011646846
0.15147667 0.24075937 0.17287377 -0.20173872 0.12086069 0.058321435 -0.3578475 0.10781331
0.120357014 -0.37286633 -0.26240748 0.22067384 0.0887161 0.0066238046 0.021520952 0.05140719
00000000: a666 3dbc 3daa f7bd 3ba1 86be 8305 be3c
00000010: 72ef b5bd 6363 83bd a881 85be 4c24 20be
00000020: 9a7f 913c 551d 33be aa97 c7bb d8d4 c93d
00000030: b4dd 843e 6660 99be 007e 23be c19a 073e
00000040: a083 b63b aa47 88be ac2a 0cbe 5adc 10bd
00000050: a06c 993e 92f9 bb3d a09d 8a3e 1102 eb3d
00000060: 9235 24bd e0d0 773e cfaf d23d 9765 b9bd
00000070: 8a0b c4be 4495 e93d f967 93bd 649a ef3e
00000080: ec9c 103d 717e e2bc b394 583e f2d8 edbd
00000090: 6fe4 2f3e b8d3 7a3e 857a 1cbe e9d1 d1be
000000a0: 1abf bb3d 8224 54be 55ed 37bd 13cb d5bd
000000b0: 0d7b 4b3e afb2 50be 6243 b9be 222a 48bd
000000c0: d6e5 a43d 1467 b4be 9ce6 d5bd 98ed 1f3d
000000d0: 4d18 22be d0fe 5f3d bbe8 c83e 28af 9a3d
000000e0: 1d9c 28be c3bf 323e 25dd 193e 2892 0abd
000000f0: 3808 9fbd caa8 9c3d d529 47be 23bf 53be
00000100: 0951 75bd 2fa2 863e aa5d c93d 822f 23bd
00000110: abcc 87be 0a1e 2cbe 3b7c 023c 50e7 ed3c
00000120: 816d 0cbe 50d0 dcbd 4291 613e 79d5 aa3e
00000130: e832 153d a699 3c3e 6e56 ef3c c8ed 73bf
00000140: 6501 5a3d cbd1 303f 50e3 e53d 71e5 d9be
00000150: 1deb dc3e 3466 533d 1f30 903e cd4c 293e
00000160: c6aa eabd 2039 ddbd 89bf 7fbc 8675 3abe
00000170: fdc6 81bd 6e81 c2be 07bf debc 1a5f 813e
00000180: 807d 613e 291f c2be 02e8 a23e 748d dabb
00000190: 13d3 163e a620 7c3d 2989 9dbe d32b c23e
000001a0: c74f 533e 41e7 223e c18a 87be 8036 9ebe
000001b0: 3dcc 5a3e fb32 8b3e c6de a6be 6209 5d3e
000001c0: ab40 cb3d b5c6 90be 0485 17bd a76d 293d
000001d0: f18e 8fbe 0c00 373e c306 9e3d cced ca3e
000001e0: 582d 4dbd 8c47 c53e 7bd1 f03d 2a7b 38bd
000001f0: 6380 3cbd 0732 9d3d 40fe d5bc 6f06 cf3d
00000200: dda3 263e a8c1 313d 5b4e f23d 4544 e4bd
00000210: dfa0 a53d ea67 ef3c 5d15 5fbd fb29 fb3d
00000220: 3f13 7ebd 4464 d83d 8941 46be ffc9 d43c
00000230: 224e 7abe fe93 b43d 6834 12bc a42f 89bc
00000240: 855f 3d3e fe06 7abe 4b3f 923d 2ffc 5b3e
00000250: 704f 93be 2bc2 41bd 97e1 7cbe 3343 a4be
00000260: 4b31 f33d 9702 5abe 7032 2abe 6848 b23d
00000270: f354 583e 443f 34be f382 6a3d 0510 073c
00000280: 1f48 8fbe 14a2 703e c02c 2c3d c024 333d
00000290: 935c f2bc dd37 21be fde6 063e f063 6a3e
000002a0: 1289 4abe 315e da3d cf24 f93c 513d 633d
000002b0: 43a6 d0be 4c03 8c3d 49bb 5a3e 830b d9bc
000002c0: 4c79 ed3d b983 573e 0096 923c 209f 18be
000002d0: b157 b23d b200 8fbd a46e b7be 1e8f 76be
000002e0: 939c 333e 8bc8 783e 7164 87be 0fb3 883d
000002f0: bee2 633d 4c0f 2cbe d222 90bd be54 e33d
00000300: 37eb bb3e 5d33 58be 8d17 45bb 2626 c7bd
00000310: f930 a43e aed4 423e dba6 393e 0b44 523e
00000320: 13fe 2abe 55b7 893e 8d01 a0be 4689 e73d
00000330: f1b8 66be fd42 543e f252 3d3e abc3 16be
00000340: 8373 8dbe 6c65 8abe 674a 3abe 22f2 dfbd
00000350: f5d9 c8be 2c49 1b3e f288 88be 70e1 b5be
00000360: 9f0f 0cbe 7c06 06be be04 92be afa8 103e
00000370: e214 34bf 4c6c 093e f2f9 1c3e 74c4 0b3e
00000380: c98f 283d 087b fd3d 6fdc 2d3e 38c4 bb3e
00000390: 810a e53d 72d5 d9bd 525e db3d be89 2a3e
000003a0: 188a 16be 8813 563d 4296 923e 7775 1b3d
000003b0: 219f 55be 1350 193e 185c 4b3d 6ad2 3ebc
000003c0: b31c 1b3e a089 763e d205 313e 9894 4ebe
000003d0: cf85 f73d 75e2 6e3d ca37 b7be 3acd dc3d
000003e0: bd7d f63d 56e8 bebe 465a 86be 53f8 613e
000003f0: c9b0 b53d 800c d93b b54c b03c 5890 523d

bias f4 [64]
-0.11210338 0.022802288 0.12749536 -0.04865587 0.002003932 0.07085757 0.10729188 -0.0106342295
0.016242195 -0.0811649 0.006450432 -0.1855153 0.047642093 -0.18638413 -0.07252451 0.056022454
0.05981466 0.00947401 0.30358794 -0.26076558 -0.053830337 0.062153112 0.0027027498 0.0120850885
0.24272105 0.114941604 -0.032449428 0.20439653 -0.0050825607 -0.05552326 -0.03108755 -0.037737586
0.13680927 -0.10115014 -0.19290426 -0.07378531 -0.018775852 0.090476744 0.112871036 -0.050393194
-0.21994397 -0.00920362 0.092118606 -0.025578806 0.028174102 0.020502549 -0.19233462 -0.04695529
-0.12988867 -0.14761212 0.13181983 0.05223693 -0.037737202 0.105112284 0.06505339 0.00069928175
0.122196004 0.15771116 0.033363927 0.027935578 -0.03562811 -0.15074901 0.16364942 -0.15440036
00000000: 7596 e5bd ddcb ba3c 258e 023e 614b 47bd
00000010: 6654 033b c61d 913d d8bb db3d 313b 2ebc
00000020: 5a0e 853c c839 a6bd 255e d33b b9f7 3dbe
00000030: 5b24 433d 7bdb 3ebe bb87 94bd cd77 653d
00000040: 3800 753d e138 1b3c e16f 9b3e 1183 85be
00000050: 337d 5cbd 4394 7e3d 9e20 313b 8900 463c
00000060: de8b 783e 8166 eb3d b1e9 04bd 534d 513e
00000070: 9c8b a6bb 5c6c 63bd 51ab febc ba92 1abd
00000080: bb17 0c3e ce27 cfbd b288 45be c11c 97bd
00000090: d1cf 99bc df4b b93d ee28 e73d 1869 4ebd
000000a0: fe38 61be c8ca 16bc aea8 bc3d a58a d1bc
000000b0: 60cd e63c f6f4 a73c 5ef3 44be 3154 40bd
000000c0: 8901 05be a227 17be c7fb 063e 64f6 553d
000000d0: 5392 1abd 1c45 d73d b63a 853d 0150 373a
000000e0: e641 fa3d 097f 213e 9da8 083d 27d9 e43c
000000f0: c8ee 11bd f35d 1abe b793 273e 211b 1ebe

weight f4 [1, 64]
-0.5541379 -0.50753576 0.5834542 0.6037242 0.6055951 -0.64614695 -0.5604878 0.4231831
-0.4939876 0.82085973 -0.49834305 -0.77492255 -0.55094403 -0.5651023 0.5675412 0.5653564
0.72893214 -0.6818319 0.82928807 -0.47541276 0.5471672 -0.57460576 -0.677913 -0.6060351
0.73950213 0.59138 0.58256054 0.55631506 0.7275529 0.3000612 0.66216123 0.89773387
-0.5445327 -0.63948727 0.52077633 -0.6037873 0.56589645 -0.7396104 0.54018646 -0.61340064
-0.57075 0.50662833 -0.62836176 -0.6382829 -0.5978546 0.4521423 -0.7517952 -0.56801
0.47355053 0.8370566 0.7625004 0.51250464 -0.5546764 0.5165563 0.6011237 1.3295012
0.56919456 0.6358932 0.6341168 0.52592605 -0.7505962 -0.83733064 -0.572367 0.62871534
00000000: fbdb 0dbf dded 01bf 415d 153f ab8d 1a3f
00000010: 4808 1b3f e369 25bf 217c 0fbf 75ab d83e
00000020: f1eb fcbe dd23 523f d226 ffbe 5361 46bf
00000030: ab0a 0dbf 8baa 10bf 614a 113f 32bb 103f
00000040: 4c9b 3a3f 898c 2ebf 394c 543f 4d69 f3be
00000050: 2613 0c3f 5d19 13bf b58b 2dbf 1e25 1bbf
00000060: 0350 3d3f ae64 173f b022 153f aa6a 0e3f
00000070: e840 3a3f 9fa1 993e 6683 293f e3d1 653f
00000080: 7f66 0bbf 70b5 23bf 9951 053f ce91 1abf
00000090: 97de 103f 1b57 3dbf a949 0a3f d307 1dbf
000000a0: ac1c 12bf 65b2 013f 51dc 20bf 8266 23bf
000000b0: 000d 19bf 327f e73e a675 40bf 1a69 11bf
000000c0: 3775 f23e 5749 563f 3a33 433f 8133 033f
000000d0: 46ff 0dbf 093d 043f 3ee3 193f 182d aa3f
000000e0: bcb6 113f e6c9 223f 7b55 223f 17a3 063f
000000f0: 1327 40bf 4d5b 56bf a586 12bf 7df3 203f
