log/mujoco_td3_swimmer_v3_1/mujoco_td3_swimmer_v3_1_s1/pyt_save/model.pt (torch_old, 831805 bytes, 16 tensors)

weight f4 [256, 8]
0	0x3f9cbe75	1.2245623
1	0x3daaf1a1	0.08346868
2	0x3f4c55cd	0.7981842
3	0x3f386bbe	0.720394
4	0xbf34248a	-0.70368254
5	0xbbe55456	-0.006998579
6	0x3e325ef7	0.17419039
7	0xbe5eb5f8	-0.21749103
8	0x3c6cf564	0.014462803
9	0xbf3c778c	-0.73619914
10	0x3fa0337b	1.251571
11	0x401290cb	2.2900875
12	0xbeab139e	-0.33413404
13	0x3f643050	0.8913622
14	0xc062ea93	-3.5455673
15	0xbd4b66f6	-0.049658738
16	0xbd7293a0	-0.059222817
17	0xbe8011f8	-0.2501371
18	0x3e15d13a	0.14630595
19	0x3ef14ec1	0.47130397
20	0xc021fd88	-2.5310993
21	0xbf7303ac	-0.9492748
22	0x3f59cd77	0.8507914
23	0xbe704ade	-0.2346606
24	0xbe7d11ce	-0.24713823
25	0xc0573269	-3.3624518
26	0x3f9a6adb	1.206386
27	0xbecac9ec	-0.3960718
28	0x3dcaaeb0	0.098966
29	0x3ef9a665	0.4875976
30	0x3f2862f7	0.6577601
31	0x3d2aef08	0.041731864
32	0x3f99c862	1.2014277
33	0x3ed8f841	0.42376903
34	0xbee874b4	-0.45401537
35	0x3e18dac9	0.1492721
36	0x3f095cbf	0.53657144
37	0x3f257341	0.6462899
38	0xbe849c7c	-0.25900638
39	0x3d272130	0.040803134
40	0x3f874cb0	1.0570278
41	0x3e048234	0.12940294
42	0x3f8c583d	1.0964428
43	0x3f25f23c	0.64822745
44	0x3e0ac362	0.13551095
45	0x3bc6a76f	0.00606244
46	0xbe39e5e5	-0.18154104
47	0x3e7f1c3b	0.24913113
48	0x3e3b77a9	0.18307365
49	0xbe9add76	-0.30247086
50	0xbc533118	-0.012890123
51	0xbf46e3b4	-0.776912
52	0xbeed793d	-0.4638156
53	0x3f5df58f	0.8670282
54	0x3eea4fdb	0.4576405
55	0xbe9a1bfc	-0.30099475
56	0xbe62a478	-0.22133052
57	0xbf0abdf1	-0.5419608
58	0x3e1e1355	0.15437062
59	0xbecfc929	-0.4058316
60	0xbf180cd3	-0.5939457
61	0x3c25631b	0.010094429
62	0x3e62d14b	0.22150151
63	0x3ee072fc	0.43837726
64	0xbf9846df	-1.1896628
65	0xbf76192d	-0.96132165
66	0xc042cb55	-3.0436604
67	0x3e2f445a	0.17115918
68	0x3f3d533f	0.7395515
69	0x3dcbfb66	0.0996006
70	0xbe22ceb2	-0.1589916
71	0xbeca52eb	-0.39516386
72	0x3f4f9bba	0.81096995
73	0x3f849bdb	1.0360063
74	0xbe07316b	-0.13202445
75	0x3f93affc	1.1538081
76	0x3f040516	0.5157026
77	0xbf0df0ba	-0.55445445
78	0xbe67f049	-0.22650255
79	0x3f8440a1	1.0332223
80	0xbf8f0871	-1.1174451
81	0xbff4d6d3	-1.9128059
82	0x3ea99dd1	0.33128217
83	0xbf38bc04	-0.7216189
84	0xbf248a3c	-0.6427343
85	0x3e514273	0.20435505
86	0xbfa65d8a	-1.2997296
87	0x3f0ffe9c	0.5624788
88	0x3bbce840	0.005764991
89	0xbdbca8da	-0.092118934
90	0xbeff2405	-0.49832168
91	0xbf346a3b	-0.70474595
92	0xbf19d553	-0.6009113
93	0xbe5dc6d0	-0.21657872
94	0xbf01feb9	-0.507793
95	0x3d567d42	0.05236555
96	0x3efe91b3	0.49720535
97	0x3fb347be	1.4006269
98	0xbfc99640	-1.5748978
99	0x3ea3c9c2	0.31989866
100	0x3f8f732e	1.1207025
101	0x3e90b0e7	0.28259966
102	0x3e3dd672	0.18538836
103	0xbd02b97f	-0.031915184
104	0xbecb9a22	-0.39766032
105	0xbf8936a3	-1.0719799
106	0x3f0072eb	0.5017535
107	0xc0335cf3	-2.8025482
108	0x3e78312a	0.24237505
109	0x3fefca4b	1.873361
110	0xbef6012b	-0.48047766
111	0x3f138892	0.57630265
112	0x3fbc5b55	1.4715372
113	0xbee9bc29	-0.45651367
114	0x3f6b5dd2	0.91940033
115	0x3e6d8f05	0.23199089
116	0x40030abb	2.04753
117	0xbe154572	-0.14577273
118	0x3e247758	0.16061151
119	0x3f85c4f8	1.0450735
120	0xbf408518	-0.75203085
121	0xbfed992e	-1.8562372
122	0x3d9386ec	0.07203469
123	0xbf3ed4ab	-0.74543256
124	0xbdcb9ec4	-0.099423915
125	0xbe3f4c27	-0.18681394
126	0x3edb36bb	0.42815194
127	0x3e0409b4	0.12894326
128	0x3ec4673d	0.38360015
129	0x3fd5b86e	1.6696908
130	0xbfaa5897	-1.3308285
131	0xbfd2cf25	-1.6469465
132	0x3fe6f1f2	1.8042586
133	0x3fc1fdbc	1.5155559
134	0x3f24a0d9	0.64307934
135	0xbefe88c1	-0.4971371
136	0x3f769069	0.963141
137	0x3f6ed788	0.93297625
138	0x3f33fa97	0.70304245
139	0xbf03cf73	-0.5148842
140	0x3edee5ac	0.435346
141	0xbe81e0c9	-0.2536681
142	0xbe3fdc91	-0.18736483
143	0x3d7fa8dc	0.062416896
144	0x3f3c0ce6	0.7345718
145	0x3f31dd58	0.6947837
146	0xbf61298e	-0.8795403
147	0x3f1d55e0	0.6145916
148	0x3ef12a68	0.47102666
149	0x3f16390c	0.58680797
150	0x3f31c11d	0.6943529
151	0x3e81e561	0.25370315
152	0x3f16cc7f	0.58905786
153	0x3f358b0c	0.70915294
154	0xbfc55b87	-1.5418557
155	0xc0325e4b	-2.7870052
156	0xbfccd501	-1.6002504
157	0xbedbc4de	-0.42923635
158	0x3ee370e9	0.4442208
159	0xbec34a7f	-0.38142774
160	0xbf433df3	-0.762664
161	0xbeebcab3	-0.46053085
162	0x3fcf8e0a	1.6215222
163	0x4001cd4f	2.028156
164	0xbea26bef	-0.31722972
165	0xbf70fd26	-0.94136274
166	0xc041c9d1	-3.027943
167	0xbf4d7bf9	-0.8026729
168	0xbf746001	-0.9545899
169	0xbf686360	-0.90776634
170	0x3f297bb2	0.6620437
171	0x3e9066ec	0.28203523
172	0xc02361d3	-2.5528457
173	0xbea2b5a7	-0.31779215
174	0x3f06e2fb	0.52690095
175	0xbefbc0fc	-0.49170673
176	0x4002a013	2.0410202
177	0x3f42b917	0.76063675
178	0x3f541420	0.8284321
179	0x40763ca1	3.8474505
180	0x3f06ab4b	0.5260512
181	0xbf05dbf5	-0.5228875
182	0xbf7a1b23	-0.9769766
183	0xbf6aa073	-0.91651076
184	0x3e6ddffc	0.23229975
185	0x3f037f27	0.51365894
186	0xc0087466	-2.1321044
187	0x3c5b4a17	0.013384364
188	0xbf589832	-0.8460723
189	0x3e495b6a	0.19663778
190	0x3d8dedfd	0.06930158
191	0xbe1f9557	-0.15584312
192	0xbea07624	-0.31340134
193	0xbf06fb3b	-0.527271
194	0x3ff20242	1.8906939
195	0xbf65eb07	-0.8981175
196	0xbe1e17f7	-0.1543883
197	0x3f4a34fd	0.78987104
198	0xbec2ed8d	-0.38071862
199	0xbd901d6f	-0.07036864
200	0xbf668a89	-0.9005514
201	0xbfdddedc	-1.7333636
202	0x3f440acf	0.7657899
203	0xbfad560b	-1.3541883
204	0x3e18051a	0.14845696
205	0x3f71aea3	0.944071
206	0x3f76fff6	0.96484315
207	0x3ebf81c0	0.3740368
208	0xbe87d607	-0.26530477
209	0x3f24cb3c	0.6437261
210	0xbff03f2b	-1.8769277
211	0x3fbc10e6	1.4692657
212	0x3dd2610d	0.10272417
213	0xbef87fda	-0.48535043
214	0x3f81c7e1	1.0139123
215	0x3e8292db	0.25502667
216	0x3fa07402	1.2535403
217	0x3e4c8134	0.19971162
218	0x3fa9e10d	1.3271805
219	0x40543a4f	3.3160589
220	0xbfa72afc	-1.3059993
221	0xbf2395f7	-0.63900703
222	0xbfe099ec	-1.7546973
223	0xbe3d620f	-0.18494438
224	0x3f8f6544	1.1202779
225	0x3c847134	0.01616726
226	0xbd338f71	-0.04383797
227	0x3e151713	0.14559583
228	0x3d31d960	0.043420196
229	0xbd85e08e	-0.06536971
230	0xbdf1e60f	-0.11811458
231	0x3e94fefa	0.29100782
232	0x3fced2ff	1.6158141
233	0x3f8bdac7	1.092614
234	0x3e495413	0.19660978
235	0x3d80fec4	0.06298593
236	0xbe7c3ef8	-0.24633396
237	0x3e608eae	0.21929428
238	0x3dfaa9a0	0.12239385
239	0x3ca1696b	0.019703588
240	0xbfcb8e9b	-1.5902895
241	0xbfadc47c	-1.3575587
242	0xbf16e802	-0.58947766
243	0xc0115ddb	-2.2713535
244	0x3eca87fb	0.3955687
245	0x3f1d014c	0.61330104
246	0x3f0b20cf	0.54346937
247	0x3e1444e1	0.144794
248	0xbea63ebb	-0.32469735
249	0xbf7bb3d5	-0.98321277
250	0xbfe0f5b4	-1.7574983
251	0x3e23cea9	0.15996803
252	0xbd9586d5	-0.07301108
253	0x3ef3ff4c	0.47655714
254	0xbe371417	-0.17878757
255	0xbd952648	-0.07282692

bias f4 [256]
0	0xbfda7998	-1.7068357
1	0x3f46b372	0.7761756
2	0xbfa4693a	-1.2844613
3	0x3f17cd3f	0.59297556
4	0xbfbb111d	-1.4614598
5	0xbfc22f42	-1.5170672
6	0xbfc182fc	-1.5118098
7	0xc015cb7d	-2.340545
8	0x3f8948b3	1.0725311
9	0x3fe3e9b3	1.7805694
10	0x3dac92c1	0.084264286
11	0xbff6b863	-1.927502
12	0xc01d9c9e	-2.4626842
13	0xbfae877c	-1.3635097
14	0xbf49b5c2	-0.78792965
15	0xbff60c03	-1.9222416
16	0xbf362678	-0.7115245
17	0xbfcfd562	-1.6236994
18	0x40044f5c	2.0673437
19	0xbfaeada3	-1.364674
20	0xbff0d033	-1.8813537
21	0xbf344848	-0.7042279
22	0xbf42e328	-0.7612786
23	0xbfbdb505	-1.4820868
24	0xc0082365	-2.1271603
25	0xbfd2db7a	-1.6473229
26	0xc0289778	-2.634245
27	0xbf8a25ff	-1.0792845
28	0xbf2a3760	-0.66490746
29	0xbeebd0a9	-0.46057633
30	0xbdc3fc1f	-0.09569573
31	0xbf9b314f	-1.2124423
32	0xbf8bbe87	-1.0917519
33	0x3f9ef30b	1.2417921
34	0xbff16dc4	-1.8861623
35	0xbfa57435	-1.2926089
36	0xc00dd481	-2.2160952
37	0xbf174f92	-0.5910579
38	0x3ecff8d3	0.40619525
39	0xbf74ffc0	-0.95702744
40	0xc029fd92	-2.6561017
41	0xbfc14d8a	-1.5101788
42	0xbfe5f78e	-1.7966173
43	0xc0055ac8	-2.0836658
44	0x3fc93583	1.5719455
45	0x3f8d06d4	1.1017709
46	0xbffb4a98	-1.9632139
47	0xc00cd87d	-2.2007134
48	0xbfa1f323	-1.2652324
49	0xbf7bec1e	-0.9840716
50	0xbfffc031	-1.9980527
51	0xbf315ce7	-0.6928238
52	0xbfc0a81e	-1.5051305
53	0xbfa72814	-1.3059106
54	0xbfd8dd31	-1.6942502
55	0xbfbff654	-1.4997048
56	0xbf9a1b4e	-1.2039583
57	0xbfe2e625	-1.7726485
58	0xbf92aea8	-1.1459551
59	0xbfcbd229	-1.5923511
60	0xc02bb3c5	-2.6828473
61	0xbe95ea02	-0.29280096
62	0xbfcd19a7	-1.6023453
63	0xbf9b865b	-1.2150377
64	0xbd037744	-0.032096162
65	0xbf8742c6	-1.0567253
66	0x3f347e5d	0.70505315
67	0xbfd09a8c	-1.6297164
68	0xbe97d4b8	-0.2965448
69	0xbf82e8d3	-1.0227302
70	0xbf0b97dc	-0.54528594
71	0xbff27676	-1.8942401
72	0xbf796086	-0.9741291
73	0xbfc08552	-1.5040686
74	0xbeafca00	-0.343338
75	0xbceffc01	-0.02929497
76	0xc013e9f7	-2.311155
77	0xbf670705	-0.90245086
78	0xbf6611da	-0.8987099
79	0xbfcb9349	-1.5904323
80	0xbfce9bea	-1.6141331
81	0xbf968874	-1.1760392
82	0xc02025d7	-2.5023096
83	0xbfe52c16	-1.7904079
84	0xbf109e20	-0.5649128
85	0xc009db09	-2.1539938
86	0xbfb21f10	-1.391573
87	0xbffa88eb	-1.9573034
88	0xbfb80068	-1.4375124
89	0xbfc7009a	-1.5547059
90	0x3f15244c	0.5825851
91	0xbf9b569c	-1.2135806
92	0xbffa19c5	-1.9539114
93	0xbfb91baf	-1.4461573
94	0xbf62358b	-0.8836295
95	0xbfd848ef	-1.6897258
96	0xbff3f034	-1.9057679
97	0xbfb0cdcf	-1.3812808
98	0xbe3d9835	-0.18515094
99	0xbf7363b0	-0.95073986
100	0xbf51e477	-0.81989235
101	0x3ee029d9	0.43781927
102	0xbfc6f03f	-1.5542067
103	0xbffafc32	-1.9608214
104	0xbf632f8e	-0.8874444
105	0xbfd8b36f	-1.6929759
106	0xbf8a84a3	-1.0821728
107	0x3f85c535	1.0450808
108	0xbf8c655c	-1.0968432
109	0xbf32c95c	-0.698385
110	0x3fae7660	1.3629875
111	0xc01f4b5d	-2.4889748
112	0xbfd0b0bd	-1.6303936
113	0xbfb6cc7c	-1.4281154
114	0xbf81388d	-1.0095383
115	0xbcfbb662	-0.030726615
116	0xbf8f92a0	-1.1216621
117	0xbf424611	-0.7588816
118	0xbfcb1224	-1.5864911
119	0xbf9c6e7a	-1.2221215
120	0xc011387a	-2.269072
121	0xbfcadb94	-1.584826
122	0xbf03886a	-0.51380026
123	0x3e945947	0.28974363
124	0xbfcd5e49	-1.6044399
125	0xc02544a9	-2.5823157
126	0xbe8bea2a	-0.2732709
127	0xbfc67ee7	-1.5507478
128	0xbfcfc71e	-1.6232641
129	0xbeb3373c	-0.35003078
130	0xbfd3c9fa	-1.6546013
131	0xbe88052c	-0.26566446
132	0xbfe0964a	-1.7545865
133	0xbf6b43cd	-0.9190033
134	0xbfe6b37d	-1.8023525
135	0x3f0d9a62	0.55313694
136	0xbf66e83b	-0.90198106
137	0xbf6a59d9	-0.91543347
138	0xbfa6f648	-1.3043909
139	0xbf69d27d	-0.91336805
140	0xbfb5cd4e	-1.4203279
141	0xbff0197f	-1.8757781
142	0xbea4d9bc	-0.32197368
143	0xbfd67c30	-1.6756649
144	0xbf9eb1df	-1.2398032
145	0xc0087d6a	-2.1326547
146	0xbed3e819	-0.41388014
147	0xc0062013	-2.0957077
148	0xbfa28948	-1.2698145
149	0xbff3ade5	-1.9037443
150	0x3e6121b8	0.21985519
151	0xbf810e92	-1.0082572
152	0xbf010080	-0.5039139
153	0xbff00195	-1.8750483
154	0x3de15811	0.110031255
155	0xbe918be4	-0.2842704
156	0x3fe80b8b	1.8128523
157	0xc002585e	-2.0366435
158	0xbffe9049	-1.9887782
159	0xbfc58643	-1.5431598
160	0xc00068f5	-2.006406
161	0xbf94ecd4	-1.1634774
162	0xbf82f16a	-1.0229924
163	0xbfb7873d	-1.4338146
164	0xbf845d02	-1.0340884
165	0xbfbbea25	-1.468083
166	0xbf87930f	-1.0591754
167	0xbfe0c6e2	-1.7560694
168	0x3e4c54ae	0.19954178
169	0x3e58fcf0	0.21190238
170	0xbf963bd7	-1.1737012
171	0xbe993b13	-0.29927883
172	0xbf707995	-0.9393552
173	0xbf810fbf	-1.008293
174	0xbff67655	-1.9254862
175	0xbf9921f2	-1.1963484
176	0xbf651991	-0.89492136
177	0xbfb27b28	-1.3943834
178	0xc00dadf9	-2.2137434
179	0xbfe14df4	-1.7601914
180	0xbf8e571d	-1.1120335
181	0x3f87673f	1.0578383
182	0xbf418c25	-0.7560447
183	0x3f629410	0.88507175
184	0xbfb2c49d	-1.3966252
185	0xbef45839	-0.4772356
186	0xbfdd9dc4	-1.7313771
187	0xbf996e6d	-1.1986824
188	0xbfea3a29	-1.8298999
189	0xbfcc7dac	-1.5975852
190	0xc050f5f1	-3.265011
191	0xc0032439	-2.0490859
192	0x3e8514b0	0.25992346
193	0xbf6e9494	-0.9319546
194	0xbfcef8d5	-1.6169688
195	0xbf7699fd	-0.9632872
196	0xbffc3b02	-1.9705508
197	0xbfb7ae97	-1.4350156
198	0xbf954f40	-1.166481
199	0xbfeb23ae	-1.8370264
200	0xbfb0ba49	-1.380685
201	0xbf845521	-1.0338479
202	0xbfa35a4c	-1.2761931
203	0x3e48ad47	0.1959735
204	0xbfe6c7a4	-1.8029675
205	0xc00f791c	-2.241767
206	0xc03479cf	-2.8199346
207	0xbd8461e0	-0.06463981
208	0xc0282176	-2.6270423
209	0x3e6cc7db	0.23123114
210	0xbff249da	-1.8928788
211	0xbfd02a65	-1.6262938
212	0xbfcf04ba	-1.6173317
213	0xbfddc3ec	-1.7325416
214	0xbf2effbf	-0.6835899
215	0xbf9ca286	-1.2237098
216	0x3eee686e	0.4656405
217	0xbfa9e1c5	-1.3272024
218	0x3edd37b2	0.43206555
219	0xbf9af6ab	-1.2106527
220	0xbf9737cb	-1.1813902
221	0xbfdbdfc4	-1.7177663
222	0xbfa87d30	-1.3163204
223	0xbfee05b9	-1.8595496
224	0xc01beeda	-2.4364533
225	0xbea3fe3e	-0.3202991
226	0xbfc8ca01	-1.5686647
227	0xc0154a8c	-2.332675
228	0xbfbca0a9	-1.473653
229	0xbd307672	-0.04308171
230	0xbf6d3fa6	-0.92675245
231	0xc002d5bf	-2.044296
232	0xbf78d440	-0.9719887
233	0x3e407109	0.1879312
234	0xbe8c5b31	-0.27413324
235	0xbfae843b	-1.3634104
236	0xbffa8e0a	-1.9574597
237	0x3eb62c92	0.3558088
238	0xc02161ac	-2.5215864
239	0xbfdcb434	-1.7242494
240	0xbfb4c7ba	-1.4123452
241	0xbf94cc39	-1.1624824
242	0xbfe8c639	-1.8185493
243	0x3e88275d	0.26592532
244	0xbe6e5158	-0.23273218
245	0xbfa4d656	-1.287791
246	0xbdb932b7	-0.09042876
247	0xbf894eac	-1.0727134
248	0xbfa99c3b	-1.3250803
249	0xbfee3ca1	-1.8612252
250	0xbed194c7	-0.4093382
251	0xbfb572fa	-1.4175713
252	0xbf52f9b5	-0.8241227
253	0xbfb94dea	-1.4476902
254	0x3e9f1310	0.3106923
255	0xbfe0b304	-1.7554631

weight f4 [256, 256]
0	0x3ef2dede	0.4743566
1	0xbf4542c3	-0.77054995
2	0xbe58c4fc	-0.21168894
3	0xbfd15ba6	-1.6356094
4	0x3efc09d5	0.4922625
5	0x3d83b4f5	0.06430999
6	0xbe92e838	-0.28692794
7	0x3e000908	0.12503445
8	0xbf287b36	-0.65813005
9	0xbf27e7df	-0.6558818
10	0xbfda96f7	-1.7077321
11	0xbd11b99d	-0.035577405
12	0x3f52cac1	0.8234063
13	0x3d9fedae	0.07809006
14	0x3e998c14	0.29989684
15	0xbd70eb7b	-0.05881832
16	0xbf5fa187	-0.87355846
17	0x3f89c032	1.0761778
18	0xbf64ac09	-0.89325005
19	0xbee7a3c8	-0.45242143
20	0x3e59fb1b	0.21287195
21	0xbf13c210	-0.5771799
22	0x3e9ca71b	0.3059624
23	0xbcaa8ee4	-0.020820089
24	0xbdda8340	-0.10669565
25	0xbe7f6aca	-0.2494308
26	0xbdf10391	-0.11768258
27	0xbe2ab6bc	-0.1667127
28	0x3e47f444	0.19526774
29	0x3e05a7be	0.1305227
30	0xbf1525d7	-0.58260864
31	0xbda1ab39	-0.07893986
32	0xbf8ef80c	-1.1169448
33	0xbfc7a762	-1.5597956
34	0x3f002cfe	0.5006865
35	0xbe0d26f7	-0.13784395
36	0xbe2ade66	-0.16686401
37	0xbefc6864	-0.49298394
38	0xbf00b52c	-0.50276446
39	0xbf63fdc1	-0.8905907
40	0xbdc01ef2	-0.09380902
41	0xbeb8ca6f	-0.36091945
42	0xbf1483da	-0.5801369
43	0x3f3cdb08	0.73771715
44	0xc0144c5b	-2.3171604
45	0xbfbf9ba6	-1.4969375
46	0x3f80cde2	1.006283
47	0xbddf64ff	-0.10907935
48	0xbe8fc63f	-0.28080937
49	0xbed886fd	-0.42290488
50	0xbd6692f7	-0.0562925
51	0x3efc3063	0.49255666
52	0xbf8895c3	-1.0670704
53	0xbf907456	-1.1285503
54	0xbe9ec74b	-0.31011423
55	0xbfce8397	-1.6133908
56	0xbeb1a3a4	-0.3469516
57	0xbe5f5d50	-0.2181294
58	0x3f7069f5	0.9391168
59	0xbe22d587	-0.15901767
60	0x3e80e75b	0.2517651
61	0xbf192e80	-0.5983658
62	0x3f53e532	0.827716
63	0x3f1c3e95	0.6103299
64	0xbf6f6ae6	-0.9352249
65	0x3d2c908c	0.04213004
66	0xbffa4992	-1.9553702
67	0x3f65e7be	0.89806736
68	0xbf2e5bab	-0.68108624
69	0x3efa9a29	0.4894574
70	0x3cf6f367	0.03014536
71	0xbc95ac7b	-0.018270722
72	0x3dcbb7fb	0.09947201
73	0x3ec4e446	0.3845541
74	0x3ebf51d2	0.3736711
75	0xbee64cc0	-0.4498043
76	0x3e31b536	0.17354283
77	0xbe87e3c1	-0.2654095
78	0xbe17edbe	-0.14836785
79	0x3f929c47	1.1453942
80	0x3f759cb4	0.95942235
81	0x3e77f969	0.24216236
82	0xbeb20ea4	-0.34776795
83	0x3f17ccc8	0.59296846
84	0xbfae7d4c	-1.3631988
85	0x3f5c836d	0.8613804
86	0xbdc0ef14	-0.094206005
87	0xbe69b3ab	-0.22822444
88	0xbeac4624	-0.33647263
89	0x3f5b70e3	0.85719126
90	0xbe6dada6	-0.23210773
91	0xbe26405a	-0.16235486
92	0x3f67103b	0.9025914
93	0xbf0906b3	-0.5352585
94	0xbdf2ab3b	-0.11849066
95	0x3e4440e0	0.19165373
96	0x3f103bcd	0.5634125
97	0x3ef77e9f	0.48338792
98	0xbf4e8b46	-0.80681264
99	0xbf5eab74	-0.86980367
100	0xbfc9afdf	-1.5756797
101	0xbc67f9ec	-0.014158707
102	0xbe25402e	-0.16137764
103	0x3faf0b59	1.3675338
104	0x3f2f4da4	0.68477845
105	0x3f4c3aee	0.7977742
106	0xbf507104	-0.8142245
107	0xbffa8bf1	-1.9573957
108	0xbf40bf76	-0.75292146
109	0xbe64d669	-0.22347416
110	0xbf7949fb	-0.9737851
111	0xbe7d2a72	-0.24723223
112	0xbf53aefa	-0.8268887
113	0x3dcb1c82	0.09917547
114	0xbed188a0	-0.4092455
115	0x3f1f4540	0.6221504
116	0xbeac56af	-0.33659884
117	0xbdef15b6	-0.11674063
118	0x3f0c1a93	0.5472805
119	0xbee8fd2d	-0.45505658
120	0x3f145638	0.5794406
121	0x3f45d748	0.7728162
122	0xbdcb0069	-0.099121876
123	0xbfcb927b	-1.5904077
124	0x3ef5ffed	0.48046818
125	0x3f1c2c41	0.61005026
126	0xbf9be001	-1.2177736
127	0x3f12793d	0.57216245
128	0x3f4e4242	0.8056985
129	0xbeb6ec10	-0.35726976
130	0x3d99552a	0.07486947
131	0xbe9ae5af	-0.3025336
132	0x3e5f2b75	0.21793921
133	0xbf34ae94	-0.70578885
134	0xbdfd7944	-0.12376645
135	0xbde24227	-0.11047774
136	0xbcfcb7c5	-0.030849347
137	0x3eb7695a	0.35822564
138	0xbd00bce7	-0.03143015
139	0x3dad7d00	0.084711075
140	0xbe199cff	-0.15001296
141	0x3dcf93d8	0.10135621
142	0xbc4d1a6f	-0.012518509
143	0x3f650371	0.89458376
144	0xbe569b9a	-0.20957795
145	0xbbe02154	-0.0068399105
146	0xbf4e74fb	-0.8064725
147	0xbfa0289f	-1.2512397
148	0xbebe5777	-0.37176105
149	0x3ea32b58	0.31869006
150	0xbf5a80c9	-0.8535276
151	0x3d987f76	0.07446186
152	0x3f3db782	0.74108136
153	0x3f7d46a6	0.98935926
154	0xbe743f21	-0.23852207
155	0xbd843dc0	-0.064570904
156	0xc00220ef	-2.03326
157	0xbec8f74c	-0.39251173
158	0x3e00d8a8	0.12582648
159	0x3fe55a6a	1.7918217
160	0x3c9051d7	0.01761715
161	0xbe8e4c0d	-0.27792397
162	0xbe946234	-0.28981173
163	0xbe608a4c	-0.21927756
164	0xbeb528fb	-0.35382828
165	0xbf9b9755	-1.2155558
166	0xbe900f4a	-0.28136665
167	0x3f75c4de	0.9600352
168	0xbf9e652b	-1.2374624
169	0xbfc42a5c	-1.5325427
170	0x3ecdb85c	0.40179718
171	0xbd79a0cd	-0.060944367
172	0x3ebf77a3	0.37395963
173	0xbf1dcefd	-0.61643964
174	0xbee1922d	-0.44056836
175	0x3f3a27b2	0.7271682
176	0xbedf0e06	-0.43565387
177	0xbf7cd376	-0.98760164
178	0xbecc1a5d	-0.39863864
179	0xbda6339c	-0.081153125
180	0xbeb911b5	-0.36146322
181	0xbefe9816	-0.49725407
182	0x3e311167	0.17291795
183	0xbc769496	-0.015050074
184	0x3f9189d2	1.1370184
185	0xbfacb846	-1.3493736
186	0x3dd09d7f	0.1018629
187	0x3e1b53ba	0.15168658
188	0x3eeaed6c	0.45884264
189	0xbcbf5c63	-0.023359483
190	0xbf07d58b	-0.53060216
191	0x3ef4c020	0.4780283
192	0xbf543e42	-0.829075
193	0x3eec6438	0.4617021
194	0x3ed6b9cd	0.4193863
195	0xbf362640	-0.71152115
196	0x3f57a95c	0.84242797
197	0x3e789f20	0.24279451
198	0xbf9ba422	-1.2159464
199	0x3f0809fb	0.5314023
200	0xbf155afa	-0.58341944
201	0xbfae104f	-1.3598727
202	0x3ed6e9ba	0.41975194
203	0xbfdebaac	-1.7400718
204	0x3f849e88	1.036088
205	0xbb9cff96	-0.0047912104
206	0xbf7444cc	-0.95417476
207	0x3f1615f6	0.5862726
208	0xbebf27ce	-0.37335056
209	0x3c45b02b	0.0120659275
210	0xbe3075de	-0.17232463
211	0x3ef1626d	0.47145405
212	0x3f027d86	0.50972784
213	0xbe44e812	-0.19229153
214	0xbfbe9846	-1.489022
215	0x3db4cf76	0.088286325
216	0xbfea0171	-1.828169
217	0xbd033359	-0.03203139
218	0xbea6ca5c	-0.32576263
219	0xbe0f1f2e	-0.13976738
220	0x3ea20aea	0.31648952
221	0xbf033ea4	-0.51267457
222	0x3f332cd1	0.6999026
223	0x3f78bdd6	0.97164667
224	0x3bea3334	0.007147217
225	0x3d8c7542	0.06858303
226	0x3daca337	0.08429568
227	0x3de9992e	0.1140617
228	0xbea7e58f	-0.32792327
229	0xbe8213f8	-0.2540586
230	0xbebb53cf	-0.36587378
231	0x3c70df85	0.014701729
232	0x3ea3a443	0.3196126
233	0xbfae4fba	-1.3618081
234	0xbfa7122d	-1.3052422
235	0x3f54f72c	0.83189654
236	0xbe2b9d0b	-0.16759126
237	0xbfad78c4	-1.355248
238	0xbe09f261	-0.13471366
239	0x3f8c93b2	1.0982573
240	0xbc5d7444	-0.013516489
241	0xbe38e339	-0.18055429
242	0x3fa44a0d	1.2835099
243	0xbf6f82bc	-0.9355886
244	0xbe9f23c1	-0.31081966
245	0x3e918f2e	0.2842955
246	0xbeac4af5	-0.33650938
247	0xbf5fc59e	-0.87410915
248	0x3e956f88	0.29186654
249	0x3cdb9f92	0.026809487
250	0xbf4f6233	-0.81009215
251	0x3f20cada	0.62809527
252	0x3e8ef2f0	0.27919722
253	0x3d6716fd	0.056418408
254	0xbff74a65	-1.9319578
255	0x3ee38073	0.44433936

bias f4 [256]
0	0xbf98dffd	-1.1943356
1	0xbd6bcbf5	-0.057567555
2	0xbed45d50	-0.41477442
3	0xbe23808b	-0.15967004
4	0xbde59cff	-0.11211585
5	0xbe6c3c12	-0.2306979
6	0xbeb37eec	-0.3505777
7	0x3f89546e	1.0728891
8	0x3c5d10de	0.013492791
9	0x3d8d6097	0.06903189
10	0xbf31aa2a	-0.69400275
11	0xbef1fa41	-0.4726124
12	0xbee8e8ac	-0.45490015
13	0xbf92b0eb	-1.1460241
14	0xbf60678a	-0.8765799
15	0x3b83829e	0.0040133735
16	0x3d6eb9e6	0.058282755
17	0xbf04e052	-0.51904786
18	0xbe1ee2b3	-0.15516166
19	0xbef06679	-0.4695318
20	0xbdfa6d9f	-0.1222794
21	0xbe9fae55	-0.31187692
22	0xbcd4504f	-0.0259172
23	0xbd86e4c7	-0.065866046
24	0xbecc6ffa	-0.3992918
25	0x3e066177	0.13123117
26	0xbf11ebab	-0.57000226
27	0xbeac4655	-0.3364741
28	0xbdff5293	-0.12466922
29	0xbea3bab8	-0.31978393
30	0xbeec5d41	-0.46164897
31	0xbd303128	-0.04301563
32	0xbc0700d9	-0.008239948
33	0xbe357af5	-0.17722686
34	0xbd51f174	-0.05125566
35	0x3e0f1066	0.139711
36	0xbdd2fc84	-0.1030207
37	0xbe78dee3	-0.24303775
38	0x3e6e6f42	0.23284629
39	0xbfed0ccc	-1.851953
40	0xbe4bd7c8	-0.19906533
41	0xbe08e327	-0.13367902
42	0xc013f137	-2.3115976
43	0xbd25f640	-0.040518045
44	0xbea2d0e7	-0.31800005
45	0x3f1452fb	0.5793912
46	0xbe82712f	-0.25476977
47	0xbc975920	-0.018475115
48	0xc016e015	-2.357427
49	0xbef7de9f	-0.48412034
50	0xbf8af4ac	-1.0855918
51	0xbf6e960b	-0.931977
52	0xbdb9bb94	-0.09068981
53	0xbdaa8181	-0.08325482
54	0xbee9cd5c	-0.4566449
55	0xbef1ee08	-0.47251916
56	0xbea92236	-0.33033913
57	0xbe836b08	-0.25667596
58	0xbe21454f	-0.15749095
59	0xbf45143e	-0.7698401
60	0xbd853d1a	-0.06505795
61	0xbf2c89f4	-0.67398
62	0xbe01df33	-0.126828
63	0x3e2c738b	0.16840951
64	0xbe13feb9	-0.14452638
65	0xbe846e26	-0.25865287
66	0xbd35c9db	-0.044381958
67	0xbf369135	-0.7131532
68	0xbd70c637	-0.058782782
69	0xbdc21ad9	-0.09477777
70	0xbdb57ae7	-0.088613324
71	0xbfb85ae0	-1.4402733
72	0x3ead7914	0.33881438
73	0xbe6d2e6a	-0.23162237
74	0xbe5a1c91	-0.2129996
75	0xbf294f82	-0.66136944
76	0xbea91951	-0.33027127
77	0xbf60a31d	-0.8774889
78	0xbd15560e	-0.03645902
79	0xbe83d763	-0.25750265
80	0xbe887773	-0.26653633
81	0xbd932077	-0.071839266
82	0xbe94d8d9	-0.29071692
83	0xbe0e83c0	-0.13917446
84	0xbf210ee3	-0.6291334
85	0xbe3e8565	-0.18605573
86	0x3caab668	0.020838931
87	0xbd2f1589	-0.042745147
88	0xbe45b24a	-0.19306293
89	0xbdb3364b	-0.0875059
90	0xbd6f906f	-0.058487352
91	0xbdb4999d	-0.08818362
92	0xbf6f9813	-0.9359142
93	0xbfd4b173	-1.6616653
94	0xbf608417	-0.87701553
95	0xbf63bcb3	-0.8895981
96	0xbdb64e65	-0.08901671
97	0xbf670921	-0.90248305
98	0xbf9bb216	-1.2163723
99	0xbeda4788	-0.426327
100	0xbe92bdea	-0.28660518
101	0xc01b77f5	-2.4291966
102	0x3e175cfa	0.14781561
103	0xbec43b72	-0.38326603
104	0xbee2d1b4	-0.44300616
105	0xbd2c339a	-0.0420414
106	0x3eec109d	0.46106425
107	0xbf4c5451	-0.79816157
108	0xbed8b3a4	-0.42324555
109	0xc0040493	-2.0627792
110	0xbe5cc7b2	-0.21560553
111	0xbe993666	-0.29924315
112	0xbd3e0eb1	-0.04640073
113	0xbf9a6c99	-1.2064391
114	0xbd020759	-0.03174529
115	0x3d7e09f7	0.062021222
116	0xbf3f63c8	-0.7476163
117	0xbc335882	-0.010946395
118	0xbe05b313	-0.13056593
119	0x3f1bf888	0.60926104
120	0xbf6eb8ba	-0.9325062
121	0xbed2cd22	-0.4117213
122	0xbeea7e95	-0.457997
123	0x3defcc24	0.117088586
124	0xbd46fd64	-0.048581496
125	0xbe1120ee	-0.14172718
126	0xbcd67603	-0.02617932
127	0xbecf45fb	-0.40483078
128	0xbe637888	-0.22213948
129	0xbd232850	-0.039833367
130	0xbebf5abe	-0.37373918
131	0xbda33210	-0.07968533
132	0xbf919266	-1.1372802
133	0xbf0eefc0	-0.5583458
134	0xbd5113ac	-0.05104415
135	0xbd2a7aff	-0.041621204
136	0x3c99fb01	0.018796446
137	0xbe9feec2	-0.31236845
138	0xbed27fa8	-0.4111302
139	0xbd3e4eab	-0.046461742
140	0xbf2769c3	-0.65395755
141	0xbd359abb	-0.044337016
142	0xbe7c1572	-0.24617556
143	0xbec5d5d9	-0.38639715
144	0xbf9c226e	-1.2198007
145	0xbe0d5759	-0.13802852
146	0xbf05243b	-0.5200841
147	0xbf4b4a24	-0.79410005
148	0xbea3646b	-0.3191255
149	0x3f1153ba	0.5676838
150	0xbdc8e1f8	-0.09808725
151	0xbdf7a03d	-0.1209111
152	0xbf1165e5	-0.56796104
153	0x3d3a8e65	0.045545954
154	0xbf06b73a	-0.5262333
155	0xbe83357f	-0.25626752
156	0xbef11b5f	-0.47091195
157	0xbebb3fb5	-0.36572042
158	0xbdba2245	-0.09088568
159	0x3dc696db	0.09696742
160	0xbf88b195	-1.0679194
161	0xbd0b1b18	-0.033961385
162	0xbf2bd55c	-0.67122436
163	0x3f30b769	0.6902986
164	0xc0058f03	-2.0868537
165	0xbfd20001	-1.6406251
166	0xbe85483c	-0.26031673
167	0x3f88c6b0	1.0685635
168	0xbd3dd7b8	-0.046348304
169	0xbe2f4a7a	-0.17118254
170	0xbe885a55	-0.26631418
171	0xbdeb626d	-0.114933826
172	0xbf1b8b37	-0.607593
173	0xbdb288f6	-0.087175295
174	0xbe714a76	-0.23563561
175	0xbe62569d	-0.22103353
176	0xbf0e9262	-0.5569211
177	0x3e20f3eb	0.15718047
178	0xbfa47ba7	-1.2850236
179	0x3db33b9a	0.087516025
180	0x3e045528	0.1292311
181	0xbf5ba237	-0.85794395
182	0xbff8d4c8	-1.9439936
183	0xbdb34e7e	-0.087552056
184	0xbc778098	-0.015106343
185	0xbe5fdcc1	-0.21861555
186	0xbd817763	-0.06321599
187	0x3e7ae15d	0.24500032
188	0x3ce2d365	0.027688691
189	0xbd860c9a	-0.06545372
190	0xbe059d50	-0.13048291
191	0xbf7d5d33	-0.98970336
192	0xbe78e512	-0.24306133
193	0xbe21d692	-0.15804508
194	0xbeb01170	-0.34388304
195	0x3f2cf033	0.67554015
196	0xbf5119aa	-0.81679785
197	0xbd34a966	-0.044106863
198	0xbf28526d	-0.6575077
199	0xbdbe36cb	-0.09287795
200	0xbf34be95	-0.70603305
201	0xbebdd1c4	-0.370741
202	0xbdce5c4c	-0.10076198
203	0xbf69c099	-0.91309506
204	0xbe0c8ee9	-0.13726391
205	0xbe8be2cb	-0.27321467
206	0xbd33c483	-0.04388858
207	0xbeab8ff7	-0.33508274
208	0x3f7de345	0.9917491
209	0xbf66a790	-0.9009943
210	0xbee49ea3	-0.4465228
211	0xbe3b4313	-0.18287306
212	0xbd1d3515	-0.0383807
213	0xbeff05fc	-0.49809253
214	0xbc8db29b	-0.01729708
215	0xbf065345	-0.5247081
216	0x3b7180e8	0.0036850516
217	0xbf84a3e6	-1.0362518
218	0xbd5dfa20	-0.054193616
219	0xbe08be4e	-0.13353845
220	0xbeb2b194	-0.34901106
221	0xbc87772e	-0.016536321
222	0xbd097b80	-0.033565044
223	0xbf87fae0	-1.0623436
224	0xbceb11c1	-0.02869499
225	0xbcac9a5c	-0.021069698
226	0xbdeddafd	-0.11614034
227	0xbc06e57e	-0.008233426
228	0xbe8842b8	-0.26613402
229	0xbdc20555	-0.09473673
230	0xbeb904e6	-0.3613655
231	0xbf293426	-0.660952
232	0x3f37709c	0.71656203
233	0x3f119581	0.5686875
234	0xbe43daee	-0.19126484
235	0x3bad66db	0.0052918023
236	0x3e9cd673	0.30632362
237	0xbea17dfe	-0.31541437
238	0xbdc22ab6	-0.09480803
239	0xbedfd59b	-0.43717656
240	0xbeab9b7f	-0.33517072
241	0xbf25fda2	-0.6484014
242	0x3e711a61	0.23545219
243	0xbf37bfb7	-0.7177691
244	0xbed20ea7	-0.41026804
245	0xbe5cb6a9	-0.21554054
246	0x3e0ac029	0.13549866
247	0xbe80069e	-0.2500505
248	0xbbb9e5a4	-0.0056731272
249	0xbd5fe53b	-0.05466197
250	0xbd8a708a	-0.067597464
251	0xbf42a34d	-0.7603043
252	0xbe9b7d8a	-0.30369216
253	0xbd575b1a	-0.052577116
254	0x3d919005	0.07107548
255	0xbe54195c	-0.20712799

weight f4 [2, 256]
0	0x3f9d352c	1.2281852
1	0x3d81e39b	0.063422404
2	0xbf0c8cf9	-0.5490261
3	0xbf548c5c	-0.8302667
4	0x3cb1ce54	0.02170483
5	0xbd9ac4d0	-0.0755707
6	0xbf5b4560	-0.8565273
7	0x409dde8f	4.933418
8	0xbba85352	-0.0051368857
9	0x3f65c4f7	0.8975367
10	0x3d4fc42d	0.050724197
11	0xbf797908	-0.97450304
12	0xbdddac57	-0.10823887
13	0xbebf900c	-0.37414587
14	0x3fe5b1e7	1.7944916
15	0x3d2f53af	0.042804416
16	0x3e9989d4	0.29987967
17	0x3eefc5a3	0.46830472
18	0xc0114899	-2.270056
19	0xbf152c31	-0.58270556
20	0x405e4cac	3.4734297
21	0x3eb684d8	0.35648227
22	0x3d2d0a08	0.042245895
23	0x3d3a3865	0.04546394
24	0xbebbad5b	-0.36655697
25	0x3df1fc2f	0.11815678
26	0x3fb20f6f	1.391096
27	0xbf61a1fc	-0.88137794
28	0xbed5634f	-0.4167733
29	0xbf8ec5d2	-1.115412
30	0xbf0146ec	-0.50498843
31	0xbbfd1a1d	-0.00772406
32	0x3d9bc689	0.07606227
33	0xbde9f3f8	-0.114234865
34	0x3deb13d3	0.114783905
35	0xbfd8bb53	-1.6932167
36	0xbf9451e1	-1.1587487
37	0xbe9ef6d1	-0.3104768
38	0xbf4d19e6	-0.8011764
39	0xbf87af5f	-1.0600394
40	0x3fdf8f71	1.746565
41	0x3c1124a5	0.008858834
42	0xbfeb2c01	-1.8372804
43	0x3d63aae6	0.055582903
44	0xbee55cbf	-0.44797322
45	0x3fb7a27e	1.4346464
46	0xbe9cd752	-0.30633026
47	0x3c71aa71	0.014750109
48	0xc074cb25	-3.824899
49	0xbf1f6199	-0.622583
50	0x3fa75083	1.3071445
51	0xbd8d92ce	-0.069127664
52	0xbf24e3cc	-0.6441009
53	0x3cf4f016	0.029899638
54	0xbe34a304	-0.1764031
55	0xbf03f8b0	-0.5155134
56	0xbd923bc6	-0.07140307
57	0xbf63bf18	-0.8896346
58	0x40461a81	3.0953677
59	0x3b3d423f	0.0028878597
60	0x3bdc2d79	0.006719288
61	0x3f0c6327	0.54838794
62	0xbccabba9	-0.024747686
63	0x4038ec07	2.889406
64	0x3fe8f2ef	1.8199137
65	0xbef37eab	-0.47557577
66	0xbb350ded	-0.0027626709
67	0x3f0e3540	0.55550003
68	0xbc978aa0	-0.018498719
69	0x3b03ed8d	0.0020130605
70	0x3d3b0e0d	0.045667697
71	0x3e24fab6	0.16111264
72	0x4126698e	10.40077
73	0xbe1b2b71	-0.1515329
74	0x3f02ff18	0.5117049
75	0xbd12e2a4	-0.035860673
76	0xbef1ea9a	-0.472493
77	0x3fbe32f4	1.48593
78	0x3c52d2ac	0.012867611
79	0x3e87a088	0.26489663
80	0xbdaa3af3	-0.08312025
81	0x3d05760f	0.032583293
82	0xbeb489ed	-0.3526148
83	0x3da0e2df	0.07855772
84	0x3f4b53e3	0.79424876
85	0xbf84245b	-1.0323595
86	0xbfca753b	-1.5817026
87	0x3c95dc89	0.018293636
88	0xbf0d2274	-0.55130696
89	0xbae78bd2	-0.0017665571
90	0xbf04cd60	-0.5187588
91	0x3c886ed4	0.01665441
92	0x3faf5928	1.3699083
93	0xbf8663db	-1.0499223
94	0x3f475955	0.77870685
95	0xbea7d732	-0.32781368
96	0xbce55667	-0.027995301
97	0x4090d1b2	4.5255976
98	0x3fb20ecd	1.3910767
99	0x3f03b12a	0.51442206
100	0xbe10980c	-0.14120501
101	0xc0374620	-2.863655
102	0x3d3ce26f	0.04611438
103	0x3db4e86d	0.08833394
104	0xbe8ce9c2	-0.27522093
105	0x3c2afccf	0.010436251
106	0x3c43162d	0.011907143
107	0xbf57b3c5	-0.8425868
108	0xbeb4a0c0	-0.35278893
109	0xbf9147d6	-1.1350048
110	0xbdfea255	-0.12433306
111	0xbd5ad12f	-0.05342215
112	0xbf5bd417	-0.858705
113	0x3fafbfdf	1.373043
114	0x3d488b37	0.04896089
115	0x3f632883	0.8873369
116	0xbe81f9ae	-0.25385803
117	0x3c926894	0.017872132
118	0x3d3f56e9	0.046713743
119	0x3ef43c61	0.47702315
120	0x3f54f733	0.83189696
121	0xbea6f5bd	-0.32609358
122	0x4105ea0e	8.369642
123	0xbf4bcdfb	-0.79611176
124	0xbc841e63	-0.01612777
125	0xbf099386	-0.5374073
126	0xbd1a45ca	-0.037664212
127	0xbe5928db	-0.21206991
128	0x3cabfc8d	0.020994449
129	0x3ba2a8db	0.004963977
130	0xbecba612	-0.3977514
131	0xbcf0d119	-0.02939658
132	0x3fb8ecfb	1.4447321
133	0x3cd68552	0.026186619
134	0xbb3a740e	-0.0028450522
135	0x3c87b6f4	0.016566731
136	0x3c8431ba	0.016136993
137	0xbed630c4	-0.4183408
138	0x3d075b71	0.03304619
139	0x3d792bfe	0.06083297
140	0xbdfa5b9f	-0.122245066
141	0xbbd8e661	-0.00661926
142	0xbf82a3b3	-1.0206207
143	0xbf2ea88f	-0.6822595
144	0x3fb3a527	1.4034775
145	0xbf041980	-0.5160141
146	0xbd1382d8	-0.036013454
147	0x3f7d620f	0.9897775
148	0x3c0c5061	0.008564086
149	0x40dc0d65	6.876635
150	0xbd45fd1d	-0.04833709
151	0x3b0a5a88	0.002111109
152	0x40f22c4d	7.567908
153	0xc00097f6	-2.009275
154	0xbea672be	-0.32509416
155	0xbf6bc7c9	-0.9210172
156	0x3f7b1b06	0.9808811
157	0xbe62b528	-0.22139418
158	0x3d5c2c1d	0.053753007
159	0xbb149457	-0.0022671425
160	0x3fa90d96	1.3207271
161	0x3ce2fe81	0.027709248
162	0x3c0c9c1e	0.008582143
163	0x3f4e7ab5	0.80655986
164	0xbdc9dc29	-0.09856445
165	0xbf632fd2	-0.88744843
166	0xbf9720f8	-1.1806936
167	0x40472d71	3.1121485
168	0x3cf33cca	0.029692072
169	0x3c888580	0.01666522
170	0xbf9d2c03	-1.2279056
171	0x3c120d87	0.008914358
172	0xbff7a50c	-1.9347243
173	0xbd344870	-0.044014394
174	0xbfbcdd8a	-1.4755108
175	0xbc1edca6	-0.009696161
176	0x3d5b3199	0.053514097
177	0xbd0dc48f	-0.03461128
178	0x403b178f	2.923313
179	0x404fd247	3.2472093
180	0xbfd7e057	-1.6865338
181	0x3f803ca9	1.0018512
182	0xbeb3c572	-0.35111576
183	0x3c1e7dce	0.009673549
184	0x3d31d91b	0.04341994
185	0xbd4055cd	-0.046956826
186	0xbe1e8f9b	-0.15484469
187	0x3ff4fe36	1.9140079
188	0xbd1db1b3	-0.038499545
189	0x3d518e54	0.051161125
190	0xbd053d2d	-0.032529045
191	0xc000050b	-2.0003078
192	0x3e76a6e0	0.24087095
193	0x40ce4e7a	6.4470797
194	0xbe854d7b	-0.26035675
195	0x3ff63c9c	1.9237247
196	0xbe25165b	-0.16121809
197	0x3d174662	0.036932357
198	0xc009b79b	-2.1518314
199	0x3c33bb47	0.010969943
200	0xbf20cef7	-0.62815803
201	0xbf562ded	-0.8366383
202	0x3cb8fc95	0.022581378
203	0x405426aa	3.3148599
204	0x3c88a822	0.016681734
205	0x3e441945	0.19150265
206	0x404cbd94	3.199071
207	0xbf87d630	-1.061224
208	0x415db9de	13.857878
209	0xbdd4dc31	-0.10393561
210	0x40f70ea2	7.720536
211	0xbfdb9e25	-1.7157637
212	0x3c66deef	0.014091237
213	0xbe3d838e	-0.18507215
214	0x3c992ec8	0.018699065
215	0xbf594a24	-0.84878755
216	0x3bb7316a	0.0055906074
217	0x3f556693	0.8335964
218	0x3d839a48	0.06425911
219	0xbd4cdacc	-0.05001335
220	0xbca3816a	-0.01995917
221	0x3badfea7	0.005309898
222	0x3ce1c9e4	0.02756209
223	0x3f96d0e5	1.17825
224	0xbb371151	-0.0027933905
225	0x3cc676af	0.024226515
226	0xbc778036	-0.015106251
227	0x3cbec7a4	0.023288555
228	0xbf3b348a	-0.73127043
229	0x3c186c2a	0.009303132
230	0x3d81e612	0.063427106
231	0x3d587fa4	0.052856103
232	0x4146ae77	12.417594
233	0x4039ccfb	2.903136
234	0xbfa4df16	-1.288058
235	0x3d3b9ddb	0.04580484
236	0x3f93c5b3	1.1544708
237	0x3f3fc885	0.74915344
238	0x3e689642	0.22713569
239	0x3e63533c	0.2219972
240	0xbf969c50	-1.1766453
241	0xbd51748f	-0.05113655
242	0x3d840117	0.0644552
243	0xbd4e44df	-0.05035865
244	0xbe0d708f	-0.13812469
245	0xbf01e7ba	-0.5074421
246	0xbf3840c7	-0.7197384
247	0xbf397f50	-0.7245989
248	0xbc684a0b	-0.0141778095
249	0xbd1d9c1c	-0.038478956
250	0xbc37dcab	-0.011222045
251	0x3f92120f	1.1411761
252	0xbe472b84	-0.19450194
253	0x3c97c953	0.018528616
254	0xbfc67fc5	-1.5507742
255	0xbf6f6f18	-0.9352889

bias f4 [2]
0	0xbde7aadc	-0.11311886
1	0xbe9a4a59	-0.30134848

weight f4 [256, 10]
0	0xbf19e137	-0.60109276
1	0xbf1661ef	-0.58743185
2	0x3f3482da	0.70512164
3	0xbed3c5e2	-0.4136191
4	0xbf273898	-0.6532073
5	0xc00ecb0c	-2.231143
6	0xbfcf9fdc	-1.622066
7	0xbf02c4d1	-0.5108157
8	0x3d11bdfe	0.03558158
9	0x3eebd320	0.46059513
10	0xbd0974d8	-0.033558697
11	0xbd5f72d1	-0.054552857
12	0xbe231ba7	-0.15928517
13	0x3da36ccf	0.07979738
14	0xbdb12edb	-0.08651515
15	0xbe7f22e3	-0.24915652
16	0xbe1c6e4a	-0.15276447
17	0xbd45bd83	-0.048276436
18	0xbd346b64	-0.04404773
19	0x3e2075da	0.15669957
20	0x3e8e10cd	0.27747193
21	0xbf547f40	-0.8300667
22	0x3fc56d8f	1.542406
23	0x3e3a3b31	0.18186642
24	0x3f57eb95	0.84343845
25	0x3e08b7b3	0.13351326
26	0xbf2c9e97	-0.6742949
27	0x3f027904	0.50965905
28	0xbcd429d2	-0.025898848
29	0x3d696263	0.056978595
30	0x3ee8838a	0.45412856
31	0x3e9d3aa3	0.307088
32	0xc03592e0	-2.8370895
33	0x3fa74932	1.3069212
34	0xbed26441	-0.41092113
35	0x3f571324	0.8401358
36	0xbf09f76a	-0.5389315
37	0xbf47f90a	-0.7811438
38	0x3e461cc4	0.1934691
39	0x3e21747d	0.15767093
40	0xbda4b064	-0.08041456
41	0xbdd9e6ab	-0.106396995
42	0xbc38db19	-0.011282706
43	0x3d1a4dcd	0.037671853
44	0x3d321786	0.043479465
45	0x3e49255f	0.19643162
46	0x3e602b1c	0.21891445
47	0x3e066390	0.13123918
48	0xbdae2a49	-0.08504159
49	0x3be60aaa	0.007020314
50	0xbf13bf39	-0.5771366
51	0xbfa937b4	-1.3220124
52	0xbf952642	-1.16523
53	0x3f4a64f4	0.7906029
54	0xbe9f90ca	-0.31165153
55	0xbe25b45f	-0.16182087
56	0xbe337bf5	-0.17527755
57	0xbdfcb8b3	-0.12339916
58	0x3eb9302c	0.36169565
59	0xbeb08a4b	-0.3448051
60	0x40004521	2.0042193
61	0x3fb44937	1.4084843
62	0x3f981ad9	1.1883193
63	0x3d21c629	0.03949562
64	0x3ec21f8d	0.37914696
65	0x3f1885ea	0.59579337
66	0x3e56d7d8	0.20980775
67	0x3e360d98	0.17778623
68	0x3b6b76d7	0.0035928988
69	0x3d0d66f4	0.034522012
70	0xba1bd906	-0.000594512
71	0xbc672416	-0.014107725
72	0xbde544ed	-0.11194787
73	0xbf04410c	-0.51661754
74	0xbdcf582c	-0.10124239
75	0xbd430982	-0.04761649
76	0xbd017bc2	-0.031612165
77	0xbd6d98dc	-0.058007106
78	0xbc6fa301	-0.0146262655
79	0x3d79eecf	0.06101876
80	0xbeb861c5	-0.36012092
81	0xbf20e934	-0.6285584
82	0xbe2e66c2	-0.17031386
83	0x3e8383c1	0.25686458
84	0xbd91b794	-0.07115093
85	0xbec2fdaf	-0.3808417
86	0xbe7c41e7	-0.24634515
87	0xbdc349fd	-0.095355965
88	0xbe52a20b	-0.20569627
89	0x3ddc9231	0.10770071
90	0x3d2b2090	0.0417791
91	0xbe50fb40	-0.20408344
92	0x3e84451a	0.2583397
93	0x3e72d092	0.23712376
94	0xbe14aa33	-0.14518051
95	0xbf016ff4	-0.5056145
96	0xbe52f8a9	-0.20602669
97	0xbdb0a3f5	-0.08625022
98	0xbe21d63b	-0.15804379
99	0x3ed29f9a	0.4113739
100	0xbf2f6b17	-0.6852278
101	0xbe2998e3	-0.16562228
102	0xc02a4103	-2.660218
103	0x3f8024bd	1.0011212
104	0x3ddec9e2	0.1087835
105	0x3ef68bbb	0.4815348
106	0xbeafe1fe	-0.34352106
107	0xbebe46af	-0.37163302
108	0xbde3319e	-0.11093448
109	0xbe1dfaae	-0.15427658
110	0x3e775b89	0.24156012
111	0x3ebbb711	0.36663106
112	0x3eec4450	0.46145868
113	0xbd344163	-0.04400767
114	0x3ddd27a7	0.10798579
115	0xbed7dcbc	-0.42160594
116	0xbe537f53	-0.20654039
117	0xbcbc19a3	-0.022961443
118	0x3d2f0224	0.04272665
119	0xbd1122fd	-0.035433758
120	0xbcd2d6e7	-0.025737239
121	0xbcaffc93	-0.021482741
122	0x3c0a21a6	0.008430874
123	0xbd600616	-0.054693304
124	0xbbf64cb9	-0.0075164703
125	0x3e17e284	0.14832503
126	0x3de2a1b6	0.11066
127	0x3d561675	0.05226751
128	0x3e26dca9	0.16295113
129	0x3d907fea	0.07055648
130	0xbbb6f704	-0.005583646
131	0x3bc3d23b	0.005975989
132	0xbd5871fd	-0.052843083
133	0x3d2caf49	0.042159352
134	0x3dc028db	0.093827926
135	0xbe7f2a00	-0.24918365
136	0xbe55d384	-0.20881468
137	0xbdde7354	-0.10861841
138	0xbbb7981f	-0.005602851
139	0x3d17c3a3	0.037051808
140	0x3e05106e	0.12994549
141	0xbc27546e	-0.010213001
142	0x3e8201dd	0.25392047
143	0xbe306658	-0.17226541
144	0x3d254324	0.040347233
145	0xbd2b3e4d	-0.04180746
146	0xbc345d3b	-0.011008556
147	0xbdb5a571	-0.08869446
148	0x3db86185	0.090029754
149	0xbd09624d	-0.033541013
150	0x3e8243fa	0.25442487
151	0xbfbb914c	-1.4653716
152	0x3f966d46	1.1752098
153	0x3f4d5237	0.80203575
154	0xbd7ffc6c	-0.062496588
155	0x3f7243ff	0.94635004
156	0xbdf652da	-0.120275214
157	0x3ea310df	0.3184881
158	0xbedbfa3b	-0.42964348
159	0x3e5c2dbe	0.21501824
160	0x3d0358aa	0.03206698
161	0x3ea46249	0.32106236
162	0x3f88b887	1.0681313
163	0xbfbc6221	-1.4717447
164	0xbf3c0401	-0.7344361
165	0x3ecd57fb	0.40106186
166	0x3f2fe5c9	0.6871
167	0xbec23127	-0.37928125
168	0xbb18add1	-0.0023296962
169	0x3aa5149e	0.0012594645
170	0xbd25096a	-0.04029218
171	0x3f079efb	0.5297696
172	0xbfea97ee	-1.8327615
173	0xbf4593d4	-0.7717869
174	0xbf27cc76	-0.6554636
175	0xbd1b0b96	-0.037852846
176	0xbe69b196	-0.2282165
177	0xbd8d1e05	-0.068904914
178	0xbe7b3697	-0.24532543
179	0x3efaa6d2	0.489554
180	0x3e64e3a8	0.22352469
181	0x3f11003e	0.56640995
182	0x3f8899e3	1.0671962
183	0x3c052a9a	0.008127833
184	0xbee8a73a	-0.45440084
185	0xbeb49c9d	-0.35275736
186	0xbdc5b80c	-0.09654245
187	0x3d362970	0.04447311
188	0xbe24f798	-0.16110075
189	0x3e94b589	0.2904475
190	0x3eefafd6	0.4681384
191	0x3eae250a	0.34012634
192	0xc000e9cc	-2.0142698
193	0x3fc27560	1.519207
194	0x3eb143b7	0.34621975
195	0xbe2dbb56	-0.16965994
196	0xbee1058a	-0.43949538
197	0xbee53f56	-0.44774884
198	0x3cf5441a	0.0299397
199	0xbe5b5d34	-0.21422273
200	0xbf3a2dbe	-0.7272605
201	0xbe6dc3c1	-0.23219205
202	0xbf453e50	-0.77048206
203	0x3f4afd39	0.7929264
204	0xbfb5f24d	-1.4214569
205	0xc01e154a	-2.4700494
206	0xc049b92e	-3.1519275
207	0xbf82b61f	-1.0211829
208	0x3dcb17bd	0.09916637
209	0x3d457988	0.048211604
210	0x3da1a850	0.07893431
211	0x3e58bb7f	0.21165274
212	0xbde75dce	-0.11297189
213	0xbdb95675	-0.090496935
214	0xbf5666b0	-0.8375044
215	0xbeb14b39	-0.34627703
216	0xbe8b5b53	-0.27218112
217	0xbe80235e	-0.25026983
218	0xbe9c4242	-0.305193
219	0x3f0ffac2	0.56242
220	0xbfc17f1d	-1.5116917
221	0xbde072ba	-0.10959382
222	0xbfa1e9ad	-1.2649437
223	0x3f87057a	1.0548546
224	0xbcc7739f	-0.024347125
225	0xbf83706c	-1.0268683
226	0xbfa76fcd	-1.3080994
227	0xbe99d7cd	-0.30047455
228	0x3d2aec78	0.04172942
229	0xbdf2b43d	-0.11850784
230	0xbe81db33	-0.25362548
231	0xbeb0d0fb	-0.3453444
232	0xc0122965	-2.2837765
233	0x3f6f882c	0.93567157
234	0xbf0428f2	-0.5162498
235	0xbe749498	-0.23884809
236	0xbdf9b8c4	-0.12193444
237	0xbec5898a	-0.38581496
238	0x3f4436b0	0.76645947
239	0xbdfbe6ba	-0.12299867
240	0x3f1e15cb	0.61752003
241	0xbeae6bf6	-0.34066743
242	0x3e3f191f	0.18661927
243	0x3f3bbe18	0.73336935
244	0x3db6d953	0.0892817
245	0xbf19c10a	-0.6006018
246	0xbec405db	-0.38285717
247	0x3e4fe9f9	0.20304097
248	0x3e86c889	0.2632487
249	0x3e181c09	0.14854445
250	0x3d06a884	0.032875553
251	0x3e2154e9	0.15755047
252	0xbfc50bb5	-1.5394198
253	0xbef685d9	-0.48148993
254	0xbe8453c5	-0.2584516
255	0x3e115305	0.14191826

bias f4 [256]
0	0xbfaad319	-1.3345672
1	0xbf3cbbe0	-0.73724174
2	0x3f2ebbbd	0.68255216
3	0xbfd7077c	-1.6799159
4	0xbf1566e2	-0.5836011
5	0x401cc4c9	2.4495108
6	0xbf81ef28	-1.015111
7	0xbfd6438d	-1.6739365
8	0xbfbbc031	-1.4668027
9	0xc002ac91	-2.0417826
10	0xbf90a01d	-1.1298863
11	0xbfc09c91	-1.504778
12	0xbf315a27	-0.69278187
13	0xbefa251b	-0.48856434
14	0xbf8ee8a2	-1.1164744
15	0xbf4b9deb	-0.7953784
16	0xbf78482b	-0.9698512
17	0xc0410f8d	-3.0165741
18	0xc04b649f	-3.1780164
19	0x3fcb115c	1.5864673
20	0xbfa72477	-1.3058003
21	0xc03ec951	-2.9810374
22	0xc019c7c2	-2.4028172
23	0xc002a200	-2.0411377
24	0xc03ee669	-2.9828131
25	0xc0484d84	-3.1297312
26	0xbf3dfc67	-0.7421326
27	0x3f668e34	0.90060735
28	0xc0267b0a	-2.6012597
29	0xc03aee88	-2.9208088
30	0xbf9cdf90	-1.2255726
31	0xc04d81eb	-3.2110546
32	0xc04658f5	-3.0991795
33	0xc005696c	-2.0845594
34	0xbc95e535	-0.018297771
35	0xbf9a711a	-1.2065766
36	0xbf96baa1	-1.1775705
37	0xc03646f7	-2.8480814
38	0xbf955c93	-1.1668876
39	0xc029725b	-2.6476047
40	0xbfd6a7fd	-1.6770016
41	0xc012831b	-2.289252
42	0xc04bbe70	-3.1834984
43	0xc0518df5	-3.2742894
44	0xc015a5f3	-2.3382537
45	0xbf784845	-0.96985275
46	0xc0371cf9	-2.8611434
47	0xbfddaead	-1.7318932
48	0xc01bc5e5	-2.4339535
49	0xc007eebd	-2.1239464
50	0xbf53bb42	-0.8270761
51	0x3fb1dc0c	1.3895278
52	0xbf4c2c16	-0.7975477
53	0xc000c552	-2.0120435
54	0xbfe7da3c	-1.8113475
55	0xc03417c5	-2.8139508
56	0xbf8712db	-1.0552629
57	0xbfbeb09f	-1.489765
58	0xc070d6c0	-3.7631073
59	0xc024fa2c	-2.5777693
60	0xc053d385	-3.3097851
61	0x4018d6ac	2.3881025
62	0xbff9ba22	-1.9509928
63	0xbf2d6577	-0.6773295
64	0xbff1edc5	-1.8900687
65	0xc00e8480	-2.2268372
66	0x3f8b9e09	1.0907604
67	0xbfff1ad7	-1.9930066
68	0xbf7826d5	-0.9693425
69	0x3ebfdc3e	0.3747272
70	0xbf97060a	-1.1798718
71	0xbff524ff	-1.9151915
72	0xc02c42c3	-2.6915748
73	0xbfb64969	-1.4241153
74	0xbffda48b	-1.981584
75	0xbfacf61f	-1.351261
76	0xbfa3f463	-1.2808956
77	0xbfa12f0d	-1.2592484
78	0x3f3f93fe	0.74835193
79	0xbfe1acf2	-1.7630904
80	0xbfeb45b1	-1.8380643
81	0xbf6f00d2	-0.93360627
82	0xbf293079	-0.6608959
83	0xc034ea89	-2.826815
84	0xbf5412d4	-0.8284123
85	0xc02b9edc	-2.681571
86	0xc02af754	-2.6713457
87	0xc0136c0c	-2.3034697
88	0xc013367a	-2.3002
89	0xc01c219f	-2.439552
90	0xc001d8c6	-2.0288558
91	0xbf912bc2	-1.1341479
92	0xbf5a457f	-0.8526229
93	0xbfd7b80d	-1.6853043
94	0x4006f1d2	2.1085095
95	0xbf8bced6	-1.0922496
96	0xbfaf9dab	-1.3719991
97	0xc0014785	-2.0199902
98	0x3f1b6a46	0.60709035
99	0xbf46605a	-0.7749077
100	0xbfafe5bb	-1.3741983
101	0xbf832ab5	-1.0247408
102	0xbff9fcdf	-1.9530295
103	0xbfcf9eff	-1.6220397
104	0xbf4c8a64	-0.7989867
105	0xc028fa73	-2.6402862
106	0xc01bd924	-2.4351282
107	0xbf95cf60	-1.1703911
108	0xc03506df	-2.8285444
109	0x3fcdd442	1.6080401
110	0xbf4ff359	-0.81230694
111	0xbff81fa7	-1.938466
112	0xbfc62955	-1.5481364
113	0xc002089b	-2.0317752
114	0x4030127e	2.7511287
115	0xc04acc11	-3.1687052
116	0xc01ed441	-2.481705
117	0x3facafbf	1.3491133
118	0xbfea8f04	-1.8324895
119	0xc0181487	-2.376253
120	0xc03eef09	-2.9833395
121	0xc018c1a8	-2.3868198
122	0xbfb9ce6b	-1.4516119
123	0xc019de76	-2.404203
124	0x3e4ddbea	0.20103422
125	0xc0176a84	-2.3658762
126	0xc030f021	-2.7646563
127	0xc044d1e3	-3.0753105
128	0x3f6c93a9	0.9241281
129	0x3fddd7d4	1.733149
130	0xc05f0875	-3.4848912
131	0xbfdc3dba	-1.7206337
132	0xbfade7c6	-1.3586357
133	0xc02be716	-2.6859794
134	0xbf977268	-1.1831789
135	0xc0686935	-3.6314213
136	0xc03cf569	-2.9524786
137	0xbf9a5310	-1.2056599
138	0xbf82090b	-1.015901
139	0xbf9cf30f	-1.2261676
140	0xbf5dd5ed	-0.8665455
141	0xbff70a77	-1.9300069
142	0xc00abfbb	-2.1679523
143	0xbfb0d147	-1.3813866
144	0xbe91f1b1	-0.28504708
145	0xbfe77a2c	-1.8084159
146	0xc05af752	-3.4213452
147	0xc065bb59	-3.5895598
148	0xc00a6b9d	-2.1628182
149	0xc01702da	-2.359549
150	0xc043ff0b	-3.0624416
151	0xc02345da	-2.5511384
152	0xc0460fcf	-3.0947149
153	0x40200ff8	2.5009747
154	0xbf897fe7	-1.0742158
155	0xc016820f	-2.3516881
156	0xc00d5b1e	-2.2086864
157	0x3ea683ea	0.32522517
158	0x4040be01	3.011597
159	0xbf0c545c	-0.5481622
160	0xbfc014f2	-1.5006392
161	0xc0063a63	-2.0973136
162	0xc035f3cd	-2.8430054
163	0x3fdded98	1.7338133
164	0xbffac548	-1.9591455
165	0xbfb95b6f	-1.4481028
166	0xc049bcca	-3.1521478
167	0xc032678a	-2.7875695
168	0xc0231854	-2.5483599
169	0xbf5e5132	-0.86842644
170	0xbfd34129	-1.650426
171	0xc0433cb8	-3.050581
172	0xc087e07b	-4.2461524
173	0xbfe376c7	-1.7770623
174	0xbf8f4192	-1.1191885
175	0xbff81934	-1.9382691
176	0xbfd1e51a	-1.6398041
177	0xc0472477	-3.1116006
178	0xc0262e39	-2.5965712
179	0xc065d2f5	-3.5910008
180	0xbf60731c	-0.8767564
181	0xc02909d3	-2.6412246
182	0xbf9357f0	-1.1511211
183	0xbf9d2825	-1.2277876
184	0xbfcd8305	-1.6055609
185	0xbf8cca84	-1.0999303
186	0xbfa34b16	-1.275729
187	0xbf855d65	-1.0419127
188	0xbfd098ed	-1.6296669
189	0xc037feb0	-2.87492
190	0x3ef7a0ca	0.4836486
191	0x3fe31402	1.7740481
192	0xc0411870	-3.0171165
193	0xc0358fb1	-2.8368952
194	0xbeb7c7bd	-0.35894576
195	0xbf039ee3	-0.51414317
196	0xbfd5487d	-1.6662747
197	0xc0096516	-2.1467948
198	0xbffa6634	-1.956244
199	0xc024d13c	-2.5752707
200	0xc026a7bb	-2.6039875
201	0xc0254b49	-2.58272
202	0xc066f7da	-3.6088777
203	0xbfc83b92	-1.564318
204	0xbf4934a4	-0.7859595
205	0x3f8a77e3	1.0817837
206	0xc0660e75	-3.5946324
207	0xc02b06b4	-2.6722841
208	0x3e91eab0	0.28499365
209	0xc0655cc0	-3.583786
210	0x3f965107	1.1743478
211	0xbfb9bdda	-1.4511063
212	0xbf6c4062	-0.9228574
213	0xc01caab9	-2.44792
214	0xbff8ef30	-1.9447994
215	0xbf85e9fb	-1.046203
216	0xc04842ab	-3.129069
217	0x3f992cfd	1.1966854
218	0xbfbd5be2	-1.4793665
219	0x401ba4d9	2.4319365
220	0x402f3d44	2.7381144
221	0xbf7354e5	-0.95051414
222	0xbfb9e9d5	-1.4524485
223	0xbfdc64e4	-1.7218289
224	0x3f123572	0.571128
225	0xc04ae6bb	-3.1703327
226	0x4001aaba	2.0260453
227	0xbf5d141c	-0.8635881
228	0xc002baee	-2.0426593
229	0xc0414c2e	-3.0202746
230	0xc0617fb4	-3.5234194
231	0xbff9b484	-1.9508214
232	0x402eddb1	2.732281
233	0xc0150788	-2.3285847
234	0xc000b72f	-2.0111806
235	0xc03652ed	-2.8488114
236	0xc053b92e	-3.3081775
237	0x3f1355b9	0.5755268
238	0xc04db797	-3.2143304
239	0xbf73e522	-0.95271504
240	0xbfa59a31	-1.293768
241	0x3fe1ce90	1.7641163
242	0xc02297e5	-2.540521
243	0xc0035377	-2.0519693
244	0xbf1b3087	-0.6062092
245	0xc046b5dd	-3.10485
246	0xc0579e96	-3.3690543
247	0x3eb54786	0.3540613
248	0xc0550909	-3.3286765
249	0xc039fbf1	-2.9060023
250	0xbe4365fb	-0.19081871
251	0xbf96c7d8	-1.1779737
252	0xbfbce654	-1.475779
253	0xc04a6528	-3.162424
254	0xbfbfcef9	-1.4985038
255	0xc02c5275	-2.6925328
