log/mujoco_ddpg_walker2d_v3_4/mujoco_ddpg_walker2d_v3_4_s4/pyt_save/model.pt (torch_old, 581120 bytes, 11 tensors)

weight f4 [256, 17]
00000000: 4bdd 5ec0 0708 de40 5298 c33f 7a9c 15c0
00000010: 9563 efbe 218c 893e deba 5f40 12bf fa3f
00000020: a80b 213f 4366 aebe b5cb 7c3e 2bd1 16bf
00000030: eb38 6f3e 9f12 943e 9899 443f 53c3 b1be
00000040: 5cc3 923e cb81 4ebf 9fc2 aabf a9ed 49c0
00000050: 1556 7b3f d611 96c0 6f00 9240 59d8 b3bf
00000060: 4fe7 d240 5a89 babe b429 ab3f 501f 0bbe
00000070: a9da 64be 0fcc c5bc 8c7f efbe e636 603f
00000080: b3a7 25be 0091 093e bcd5 79c0 aa81 973f
00000090: f663 7f40 721b a43f 53ac 3d40 44dc bfbf
000000a0: 1b05 8f40 0e49 b3bf 72df 253f 999b b3bf
000000b0: 88c1 ae3e 7138 063f b7e2 863e c94f 07bf
000000c0: e698 84bd 4016 edbe bb53 fdbe a08b bd3f
000000d0: 5127 2a41 82d0 f8c0 26d9 56c0 674a 163f
000000e0: 9812 2040 e57a 54be 7c7e e2be d648 933f
000000f0: 8287 e6bd 3517 b83e b3fa e9be 8711 22be
00000100: c802 3d3d b747 5abe fa9b 80be 532b 92bd
00000110: 3762 f03e f447 5b40 7e76 4a41 dc4b c63f
00000120: 5834 8840 0307 7bbd 0dc2 03c0 d65d 49bf
00000130: fc20 b83f cf24 b43f 4617 9c3e 4ccd fdbe
00000140: fa72 28be af1e 5bbe 34ca 6a3e 95f8 ccbd
00000150: 7995 9cbe 1d9f 2cc0 9fb8 1e40 adf2 dbbe
00000160: 9436 5f40 d841 7fbf 3423 a23f 83ce ca3f
00000170: 912e af3f 4f94 f4be 4824 1c3f 17f9 903e
00000180: 0b65 043c 90bb b23d a2e7 efba e37e 60bd
00000190: 6b3f 983c 6568 933d b0e3 1640 99da 8c40
000001a0: 7d88 0c40 eaf8 3440 74e6 8e40 b035 38c0
000001b0: 75f2 7c40 301a 473f 1bc0 a0be bfa6 5bbf
000001c0: c08a b93e 58ef 2ebf 5c76 443e 0e0f 7c3e
000001d0: 20cd 193f 1d24 9bbe da06 c9bc afd5 2bc0
000001e0: 28cf d440 91b2 0840 af41 0e40 f2a0 1640
000001f0: e481 3040 cf88 9d3f bcb9 2abf 4c0c b8bf
00000200: 1e4b e6bf 6291 50bf e766 8dbe 4ab5 9c3e
00000210: b7d4 9f3e 2f65 843f 91f2 00bf bfc5 163f
00000220: d3a2 bcbd e1ef 01bf 7de3 3140 e82c b9bd
00000230: c35b 8b3f 86b6 9ebf ac50 e1bf 361b 7dc0
00000240: df54 0bc0 a6ce 5d40 1cae aebf e717 f33e
00000250: 96d4 a63e 0fb1 82be f7ca b73e 0871 053c
00000260: 695d 93be 4eb2 4ec0 e771 aebf 42cf 28bf
00000270: 86b1 ac3e 9296 1140 d2eb 9140 9898 e03f
00000280: 2cbe debb b25b 2ebe f7c4 643f 2c30 993f
00000290: d3e2 20be e361 893f 8798 0b3e 75e4 3d3f
000002a0: a6dc 3cbe 76e9 973f e3dd a03f 8357 8c40
000002b0: 0398 27bd 5b31 a83f 09bc ebbe 9246 c13f
000002c0: e4b4 5140 7256 83bf af37 f3bf 4a94 4c40
000002d0: 90de 1abf 598e f5be 63d0 a03e 073f 0d3f
000002e0: 0f0b 25bf 2510 0e3f 41f6 063e cbcd cdbf
000002f0: c37a 1e40 4777 ae40 c293 5340 ca5b 6a40
00000300: ca18 003f b5aa cc3f cf48 aac0 1119 53be
00000310: 23a2 a1bf 7134 fa3e 5133 f2bc 70df 193f
00000320: 4b01 cbbe 9b32 6e3d ea2e 9f3d d445 313f
00000330: 105f 51c0 81f9 143f 84ca 5fc0 ae64 5140
00000340: 8cb2 a43f db9e 1b40 435c a040 6a9a b53f
00000350: 5122 35bc 3434 74bc 2388 6d3e 586c a7be
00000360: 1a12 d03e f2e4 463d adca d6be 3020 da3e
00000370: 2986 03be 4c8e 48c0 34e3 cdbe 4718 6f3e
00000380: fc87 b43f 3346 b9bf aa3d b13f 1ad8 5fbe
00000390: 9894 94c0 c939 e7bf 5e92 b83f 654f 9c3e
000003a0: e6ff 6c3f 5412 d43f 3425 383e 7b7d 6d3e
000003b0: be55 c93e b73e 203f be54 38c0 8170 b13e
000003c0: ae1e b340 fc54 2640 d77c 1140 3b41 fbbf
000003d0: 6bf9 a840 4052 003e 95d2 8e3f 0a84 29c0
000003e0: 3368 67bf 5b18 423f bcbe ff3e ba49 b33e
000003f0: fd5c 4dbe a1e6 55bf 8102 27be 0970 48c0
-3.4822567 6.93848 1.528086 -2.3376756 -0.46755663 0.26864722 3.4957805 1.958956
0.6290841 -0.34062394 0.24687083 -0.58912915 0.23361556 0.28920457 0.76796865 -0.34719333
0.28664672 -0.806668 -1.3340644 -3.1551306 0.98178226 -4.6896772 4.562553 -1.4050399
6.590736 -0.36432916 1.3372102 -0.13586164 -0.22349037 -0.024145154 -0.46776998 0.8758377
-0.16177253 0.1343422 -3.9036703 1.1836445 3.9904761 1.2820876 2.9636428 -1.4989095
4.469373 -1.400667 0.64794075 -1.403186 0.34132028 0.5242987 0.26344845 -0.5285612
-0.064744756 -0.46306038 -0.49477944 1.4808235 10.634599 -7.7754526 -3.3570037 0.5870728
2.5011349 -0.20750006 -0.44237125 1.1506603 -0.11256315 0.35955206 -0.4569908 -0.15826999
0.04614523 -0.2131642 -0.25119 -0.0713717 0.46949932 3.4262667 12.653929 1.54919
4.2563896 -0.061285984 -2.058719 -0.7865881 1.4385066 1.4073733 0.30486506 -0.49570692
-0.1645011 -0.21398424 0.22928697 -0.10008351 -0.3058279 -2.6972115 2.4800184 -0.42958584
3.4877062 -0.99709845 1.2666993 1.5844272 1.3686086 -0.477694 0.6099286 0.2831504
0.008080731 0.08727181 -0.0018303285 -0.05480851 0.018584928 0.07197646 2.357647 4.4016843
2.1958306 2.8276925 4.4656315 -2.8782768 3.9522984 0.77774334 -0.31396565 -0.8580131
0.3623867 -0.6833396 0.19185776 0.24615118 0.6007862 -0.3030099 -0.0245394 -2.6849172
6.6502876 2.1358988 2.222759 2.3535733 2.757928 1.2307376 -0.6668966 -1.4378753
-1.7991674 -0.81471837 -0.2761757 0.30607063 0.31216976 1.0343379 -0.50370127 0.58895487
-0.09210744 -0.5075665 2.7795098 -0.09041768 1.0887378 -1.2399452 -1.7602744 -3.9547858
-2.1770551 3.4657378 -1.3646884 0.47479174 0.32584065 -0.2552571 0.35897037 0.0081446245
-0.28782204 -3.2296329 -1.362851 -0.6594125 0.3372919 2.274815 4.5600367 1.7546568
-0.0067975726 -0.17027166 0.89363045 1.1967826 -0.15711527 1.0732998 0.13632403 0.7417672
-0.18443546 1.1868122 1.2567714 4.3856826 -0.040916454 1.3140062 -0.46041897 1.5099661
3.2766657 -1.0260756 -1.9001368 3.1965508 -0.60495853 -0.47960165 0.31408986 0.551743
-0.6447 0.55493385 0.13179876 -1.6078428 2.4762428 5.45206 3.3058934 3.6618524
0.50037825 1.5989596 -5.321388 -0.20615031 -1.2627605 0.48868135 -0.029565485 0.60106564
-0.39649424 0.05815373 0.0777262 0.69247174 -3.2714272 0.5819321 -3.4967356 3.27177
1.2866988 2.4315708 5.0112624 1.4187748 -0.011055545 -0.014905024 0.23196463 -0.32699847
0.4063881 0.048558183 -0.41951504 0.42602682 -0.12844147 -3.133685 -0.40212405 0.23349105
1.4103999 -1.4474548 1.3846943 -0.2185978 -4.643139 -1.806451 1.4419668 0.30529323
0.9257797 1.6568093 0.17982942 0.23192398 0.3932323 0.62595695 -2.8801723 0.34656146
5.597495 2.598937 2.2732446 -1.9629282 5.2804465 0.12531376 1.1158015 -2.648684
-0.9039337 0.75818413 0.49950206 0.35017186 -0.20055003 -0.83555037 -0.16309549 -3.131838

bias f4 [256]
00000000: 7bf8 29c0 7b19 1240 bfe4 3ec0 5b2b 0e40
00000010: d1b9 ef3e a7d9 5fc0 e2da 4f40 58fd 1ec0
00000020: 76b6 10c0 e214 14c0 5f56 8a3f c4fb 64bf
00000030: 40ba 07c0 d352 00c0 efb8 0cc0 a7fe 32c0
00000040: 5232 ac3e 33e1 7740 2ce3 40c0 e356 57c0
00000050: dffe c3bf 4cc6 57c0 4b16 d8bf 1300 44c0
00000060: 902b 4cbf 2cd3 16be 570c 923e 29aa 2bbf
00000070: 50f6 01bf 3982 1d40 8f69 5dc0 8e0d abbf
00000080: b7d5 9d40 11d5 9ec0 5562 6a40 300c bfbe
00000090: 9da6 efbf 0104 c83f 638b 4fc0 a143 abc0
000000a0: 285d dabf 51f1 8ac0 dd01 c5bf 9515 1bc0
000000b0: fbcf 46c0 f2b1 1f40 e864 4fc0 efd9 1c3e
000000c0: 46c5 8ebf c2db 3640 256c 7d40 1c53 f2bf
000000d0: 97a7 68c0 138a 973f 08be 24c0 4842 e9bf
000000e0: 717b 19c0 77de 60c0 15e3 42c0 7072 c2bf
000000f0: 1f18 1cc0 11bd bebf c31b d2bf ee53 583f
00000100: 0327 2cc0 7bb5 6dc0 365b 14c0 edb1 82c0
00000110: 1d4e c23f 8fda debf 5f89 24c0 a9ce 95bd
00000120: 4746 27c0 f150 9fbf e7a7 2abe c49d ed3f
00000130: cdc6 6e3f 0966 5cc0 39cd 2440 a856 5abf
00000140: bcec 89c0 feef 37c0 f7b6 53c0 9d70 57bf
00000150: 1d71 d13f 7480 12c0 2f93 0cc0 c487 49c0
00000160: b10c 1d40 060c f8bf 3cd7 ec3d 488e cbbf
00000170: 8893 14c0 9e88 0ec0 cca0 a5bf bfc1 70c0
00000180: f514 f1bf 842e 54c0 ec32 15c0 5c51 9cbf
00000190: 660d 5fc0 b6ae bebf 7362 2140 8ab1 67c0
000001a0: 3601 a53d bcf3 39c0 5c3e 9ec0 01f4 2ec0
000001b0: 9fdd 3ac0 4d87 10c0 36c3 84c0 4589 1fc0
000001c0: 60ec 0ac0 465b 80c0 c2f3 fbbf c3cf dcbf
000001d0: abf8 1fc0 13e9 10c0 aed6 f73e 2db3 13c0
000001e0: ca05 2740 3bcf 09c0 7f0e 3cc0 c8cc 42bf
000001f0: 0548 2cc0 b5c6 e8bf 67f7 8ec0 f9e8 3cc0
00000200: ef3b aebf ef02 bc3f abd4 19c0 9960 eabf
00000210: 6b40 1abf 4b60 29c0 85d1 2d3f 940d b8bf
00000220: b17e 08c0 fa02 bbbf 8bb8 6fbe 92eb 44bf
00000230: f40f 20c0 0a9b 29c0 1ec1 cabf f896 8bbf
00000240: 29b1 9cbf 73db d1bf 15da 1cc0 dd09 873e
00000250: 3343 43c0 3198 40c0 e48f 98c0 5aa0 6ac0
00000260: a8bf d4bf 61d4 63c0 c209 94bf 526b 913f
00000270: b40f 04c0 a6ca a6be ea2f 4ec0 0c5d 953d
00000280: 2959 ecbf 3541 e7bf 0d20 72c0 fe05 02c0
00000290: d359 bc3f 954b 17c0 9eed 7040 d3e5 08bf
000002a0: 816f f2bf 9168 0bc0 06ef e6bf 330d d83e
000002b0: da2c 53c0 8229 b8bf 8a96 f4be ac25 34c0
000002c0: 8f84 39bf 7016 03c0 07c9 f2bf 1187 8ec0
000002d0: a6d7 2ec0 c2f3 673f e010 35c0 08f9 6ec0
000002e0: 06f9 1ebf b997 b4bf 7404 eebf 1d7b 22c0
000002f0: c7f3 e6bf 5f9a f2bf 9d86 99c0 c5fe 28c0
00000300: 373d adbf 5987 9240 784a 5ec0 37b5 7ac0
00000310: 5df9 68c0 fac7 42be e2ca 52c0 d8aa 28bf
00000320: 69f1 debd a3f1 823f 3aeb 7ec0 93a1 8240
00000330: 346e 04bf 3357 fb3e a4e4 2540 9aad 53c0
00000340: 519a 873f 7e80 28bf f86d edbf 90e7 8fbf
00000350: fda3 183f 663b 05c0 f702 e4be 7102 53bf
00000360: e348 52c0 7506 8abf e857 0ec0 ff0f bbbf
00000370: 67e8 37c0 df5e efbe e6d3 d6bf 13c1 adbf
00000380: b3f7 0dc0 9a1a 4140 9f6f d83f 6408 013f
00000390: 66b7 c9bf 5188 5dc0 5a47 22bf e2c5 02c0
000003a0: 2e48 c7bf 5ced 09c0 ebc7 a73f a39e 7b40
000003b0: 4950 3cbe 9790 1bc0 3ab0 ecbf f237 9cc0
000003c0: a96a 5fc0 dde6 fbbf 045a c1bf 799f 10c0
000003d0: 4f75 1dc0 38f6 b8bf 2dd4 23c0 6f08 a0be
000003e0: fcea 26c0 4da0 3dc0 cc91 92c0 965f 923e
000003f0: 595a 4a40 bf01 11c0 2731 d9bf a06f 02c0
-2.655791 2.2828052 -2.9827116 2.2213962 0.46821454 -3.4976594 3.2477345 -2.4842129
-2.2611365 -2.3137746 1.0807608 -0.89446664 -2.1207428 -2.0050552 -2.1987875 -2.7967927
0.3363214 3.87312 -3.0138655 -3.3646781 -1.5312155 -3.371478 -1.6881803 -3.0625045
-0.7975397 -0.14728993 0.2852504 -0.6705652 -0.5076647 2.4610732 -3.4595678 -1.3363512
4.932338 -4.963509 3.6622517 -0.37313986 -1.8722721 1.5626222 -3.2428825 -5.3520055
-1.7059679 -4.3419576 -1.5391194 -2.4231923 -3.1064441 2.495236 -3.2405338 0.1531751
-1.1153953 2.857163 3.9597256 -1.8931613 -3.6352289 1.1839012 -2.5740986 -1.8223352
-2.3981593 -3.5135782 -3.04511 -1.5191174 -2.4389722 -1.4901448 -1.6414722 0.84503067
-2.689881 -3.7142017 -2.318067 -4.0842195 1.5180088 -1.7410449 -2.5708845 -0.07314808
-2.6136644 -1.2446576 -0.16665612 1.8563771 0.93272096 -3.4437277 2.5750258 -0.85288477
-4.3101482 -2.874023 -3.3080423 -0.8415621 1.6362644 -2.2890902 -2.1964834 -3.1489115
2.4538996 -1.9378669 0.1156449 -1.5902796 -2.3215046 -2.2270885 -1.2939696 -3.7618253
-1.883452 -3.315339 -2.331233 -1.2212329 -3.4851928 -1.4897068 2.5216339 -3.6202111
0.080568716 -2.9055014 -4.945112 -2.7336428 -2.9197767 -2.258258 -4.1488295 -2.4927533
-2.1706772 -4.011142 -1.9683764 -1.7250904 -2.4995525 -2.2642257 0.48405975 -2.307811
2.6097283 -2.1532733 -2.9383848 -0.7609372 -2.6918957 -1.818564 -4.4677005 -2.9517195
-1.361204 1.4688395 -2.4036052 -1.8310729 -0.60254544 -2.6465023 0.67897826 -1.4379144
-2.1327326 -1.4610283 -0.23410241 -0.7692195 -2.5009737 -2.6500878 -1.5840185 -1.0905447
-1.2241565 -1.6395096 -2.4508107 0.26374713 -3.0509765 -3.009289 -4.767565 -3.666037
-1.6620989 -3.5598376 -1.1565478 1.1360877 -2.0634584 -0.32576483 -3.2216744 0.07293138
-1.846471 -1.8066775 -3.7832062 -2.0316157 1.4714912 -2.3639882 3.764503 -0.53475684
-1.8940278 -2.1782572 -1.8041694 0.4219757 -3.2996125 -1.4387667 -0.47771102 -2.8147993
-0.72467893 -2.0482445 -1.8967599 -4.4539876 -2.7319121 0.9060632 -2.829155 -3.7339497
-0.6209873 -1.4108802 -1.8595109 -2.5387642 -1.8043145 -1.895336 -4.7976823 -2.64055
-1.3534306 4.579022 -3.4732952 -3.9173105 -3.64022 -0.19021598 -3.293633 -0.65885687
-0.10885889 1.0229992 -3.983107 4.0822234 -0.51730657 0.49089965 2.59208 -3.3074708
1.0593969 -0.65821064 -1.8549185 -1.1242542 0.59625226 -2.0817504 -0.44533512 -0.824256
-3.2856987 -1.078322 -2.2241154 -1.4614257 -2.8735597 -0.46752068 -1.6783416 -1.3574547
-2.2182434 3.0172486 1.6909064 0.5040343 -1.5759094 -3.461445 -0.63390124 -2.0433278
-1.5568902 -2.1551123 1.3107885 3.9315574 -0.18390001 -2.4307 -1.849128 -4.8818293
-3.490885 -1.9679829 -1.5105596 -2.2597334 -2.460285 -1.445014 -2.5598252 -0.31256434
-2.6080923 -2.962909 -4.5802975 0.2858855 3.1617644 -2.2657316 -1.6968125 -2.038063

weight f4 [256, 256]
00000000: fffa e73f 96fd eebf 361a 52bf 8abf a13f
00000010: 4c12 80bf 24f9 a9bd f071 51be f914 64bf
00000020: c861 48bf 441c 9bbc 716a 893e fb43 56bf
00000030: 8b58 af3f 8b54 83be ca86 a7bf 97f3 9d3f
00000040: 6967 e4be 0901 23c0 b184 40bd 3b07 95bf
00000050: 0905 913f c2bc e73c 69c4 103f 2629 c13e
00000060: a2d9 083e d5dd 85bf 137c 803f cd5d f7bf
00000070: c4cb 883f b131 b43e 204a 1a3f 86ba 60bf
00000080: 1fb7 963f 4970 34be a940 91bf a7ee 19c0
00000090: 4ab9 ffbf f91c e73f 5a2f ac3f e2ab 37c0
000000a0: e977 e8bf 59b7 1fc0 4982 e7bf e480 193e
000000b0: 9355 ffbf 95ab 3bbf f8e5 e13f a603 a4bf
000000c0: 1fe3 bd3f 2e10 803d e0a8 02c0 bb64 f9bc
000000d0: 213d bd3d 84f3 e73c b40c 973f 18d9 7a3f
000000e0: 5b64 9bbe 7bf8 8bbf 50e8 dd3f 420a 18bf
000000f0: 355a 013f 779a 4a3e 898b d0bd da59 a23f
00000100: 1ce2 19bf 76e7 da3d 9ef0 00bf 9f48 79be
00000110: 0ab7 783e d4cb e43e 59c3 b53e 4531 843e
00000120: 625d 02bf 4ce4 6c3f ccdd a8bf 2a27 dbbf
00000130: 2ea1 b5bc 1aa5 21bf 247f c73f b0f5 03bd
00000140: 8da4 763f c97d 68bf 944f e9bf a9c3 743f
00000150: a991 033f 7420 c9bf 73f3 4c3f 60f6 2cbe
00000160: efe9 a13d 241b 833f 67e2 f1be 2e8b ab3f
00000170: 4bf5 d8bf 3f6b b3be 9e3b 1a3d 6f55 c43e
00000180: e824 7dbf cb78 cfbd 66d4 0dc0 50b2 5cbf
00000190: a440 063f daf3 35be 93e2 a23e 6f7f cc3f
000001a0: 05b4 c6bf 2187 8f3e 2001 213f 627a 6cbf
000001b0: 6fd3 2fbf 67bb e33f 6959 f6bf 09f8 153e
000001c0: bac7 bf3d 0679 903f 732e 01c0 af91 013f
000001d0: efe4 8ebf 6132 58bf c6c9 a13f 4abe a73e
000001e0: b839 c03f f8da 93bf 42f2 e93d 6540 063f
000001f0: a330 3a3f 8ca1 923e 1204 8dbf 4672 1a40
00000200: 81d3 c0bd e0c4 ddbf 7f3f c53f 1220 383f
00000210: 54b9 253b 8654 363f 3667 65bf f973 603f
00000220: ce43 15bf fd2a 00be d364 b33c d568 00c0
00000230: c669 10c0 f191 80bf a144 be3f 44cc 283d
00000240: 5a1d 6f3e e0e3 c93f 3af7 8a3d 0b67 aa3f
00000250: b6a1 b0bf 476c 45be 57eb e03e 9a41 95bf
00000260: ee4b 69bf 8249 cf3e d410 483f 4f82 b33f
00000270: df99 96bf c3fa 053f cb5c afbe 9790 cd3f
00000280: f8b3 62bf 7820 88bd de92 02bf 3ed1 613f
00000290: 80e8 6e3f 1825 de3e b81a 8ec0 8c95 103e
000002a0: d34f aabb 4722 f2be 3683 4c3e a3d1 273f
000002b0: e95f debf 6f76 0cc0 1e47 213f b613 c53f
000002c0: a193 a3bf 18d6 5abf 8c2b c9be 32f2 9a3f
000002d0: 611d cdbe ca3d 733f f16c 8cbf aae2 833f
000002e0: add5 d7bf d2dc b2bf 4c0a 3b3f 4e2d a13f
000002f0: 16c6 db3f a62e 18bf ad4b 3fbf f6c6 44bf
00000300: a0de 7fbe 844f 95c0 1c34 5fbf 60c2 d63f
00000310: 72c3 e2bf 40eb 543f 5d8a 033f 796f 5fc0
00000320: 14d7 4fbf 964c 80bf 2561 f33f 7d8d 01bf
00000330: f9f1 a43f 002e 093e 2aad 0140 de48 47be
00000340: 0d96 74bf 2268 a83f ba32 143e 2b9f 1fbf
00000350: ff7c 56bf aa85 92bf 6dd9 a2be ff6d 133f
00000360: 1f68 c1bf d38f 0d3f 27c7 463f 565f afbf
00000370: c282 b2bf d660 633f 0bf7 88bf 5a16 0b3f
00000380: c642 4d3f d349 70c0 1b48 30bf dbcd 03c0
00000390: 8acb 32bf bf55 1d3e 9c13 003e a4b2 193e
000003a0: 5fb6 7a3e 0f3d 943f b590 6bbc 0d5d 8e3f
000003b0: ba24 323f 5120 cfbf 531b 07c0 d4c3 15bf
000003c0: f95d d33f 3400 763e 2a23 1f40 fa5e cb3d
000003d0: e059 babd 1248 d5bd f605 31bf 4669 693e
000003e0: e1f0 9a3f 259e 9f3f f128 c23f 99cf 17c0
000003f0: da7d e8bc 4c18 8abe bae4 033f a43b 37bf
1.8123473 -1.8671138 -0.82071245 1.2636578 -1.0005584 -0.08299473 -0.2045362 -0.890945
-0.782742 -0.018934377 0.2683902 -0.8369748 1.3698896 -0.2565044 -1.3088009 1.2339963
-0.44610146 -2.5469382 -0.047001544 -1.1642832 1.1329662 0.028288249 0.565497 0.37726706
0.1336427 -1.0458323 1.0037864 -1.9325501 1.0687184 0.35194162 0.60269356 -0.8778461
1.1774634 -0.17620958 -1.1347858 -2.4051912 -1.9978421 1.8055717 1.345195 -2.869866
-1.8161594 -2.4955657 -1.8086635 0.14990574 -1.994799 -0.7330869 1.7648306 -1.2813613
1.4834937 0.06253086 -2.0415573 -0.03044354 0.09240175 0.02831436 1.1800752 0.9798751
-0.30350003 -1.0935205 1.7336521 -0.5939065 0.5052827 0.19785486 -0.10182864 1.268367
-0.6011064 0.10688679 -0.5036715 -0.24344109 0.24288574 0.4468676 0.355006 0.2581884
-0.5092374 0.92535853 -1.3192687 -1.7121327 -0.022171583 -0.6314255 1.5585675 -0.032216728
0.96344835 -0.9081693 -1.822741 0.95611054 0.51394135 -1.5713029 0.80058974 -0.1689086
0.079059474 1.0242658 -0.47243044 1.3401849 -1.6949857 -0.3504276 0.03765451 0.3834643
-0.9888444 -0.10130461 -2.2160888 -0.86209583 0.52442384 -0.17768803 0.31813487 1.597639
-1.5523688 0.28032783 0.6289234 -0.9237424 -0.68682 1.7791566 -1.9246036 0.14645399
0.09364267 1.1286933 -2.01846 0.5061292 -1.1163615 -0.8445187 1.2639701 0.32762367
1.5017614 -1.1551199 0.1142316 0.5244201 0.72730464 0.28638875 -1.1016867 2.4132247
-0.09415341 -1.7325706 1.5410002 0.71923935 0.0025287466 0.7122272 -0.8961061 0.8767696
-0.58306587 -0.12516399 0.021898663 -2.0063984 -2.256456 -1.0044538 1.4864694 0.041210428
0.2335104 1.5772667 0.06785436 1.3312696 -1.379935 -0.19279586 0.4392955 -1.1660645
-0.91131485 0.4048577 0.7815068 1.4024142 -1.1765708 0.52335757 -0.34250483 1.605975
-0.8855586 -0.06646818 -0.5100535 0.88209903 0.93323517 0.43387675 -4.4407616 0.14119548
-0.005197504 -0.47291777 0.19971928 0.65554255 -1.737302 -2.1947286 0.6299914 1.539664
-1.2779428 -0.8548293 -0.39291036 1.2105162 -0.40061477 0.9501616 -1.0970746 1.0303547
-1.6862084 -1.3973639 0.73062587 1.2591951 1.7169826 -0.5944618 -0.7472485 -0.7686609
-0.24987268 -4.6659565 -0.8718889 1.6778069 -1.7715895 0.83171463 0.51383 -3.4911788
-0.8118756 -1.0023372 1.9014021 -0.5060652 1.2886344 0.13396454 2.026194 -0.1946139
-0.9554146 1.3156779 0.14472476 -0.62352246 -0.8378448 -1.1447041 -0.31806508 0.57589716
-1.51099 0.55297583 0.7764763 -1.3700969 -1.3946154 0.88819635 -1.0700392 0.5433098
0.80180013 -3.7545059 -0.68860024 -2.0594394 -0.69841826 0.15364741 0.1250748 0.15009552
0.24483632 1.1581134 -0.014377763 1.1122147 0.6958729 -1.6181737 -2.1110427 -0.58501935
1.6513053 0.24023515 2.4865212 0.09930225 -0.090991735 -0.10414137 -0.6914972 0.22794065
1.210476 1.2470137 1.5168744 -2.3720458 -0.028380323 -0.26971662 0.51520884 -0.7157538

bias f4 [256]
00000000: 0d08 8fbf 00ee bc3d dd6b b2be 9458 b0bf
00000010: 4db8 a8bd 3956 9dbf e066 15c0 512a cabd
00000020: 5766 3cbf 26ed ebbf 12fd 963f ed69 e9bd
00000030: 49ce 2cbf 280b 1040 81b6 b7bf 38a3 abbe
00000040: a424 43bf 947c c1be d550 80bf b505 be3e
00000050: 684b 11bf bd7e 8f3c 2115 82bd 72b8 4bbf
00000060: 6aec c03e d124 3640 837e f2bf 93bd babd
00000070: 8fe1 7bbd 1079 cdbe fb5f 9fbe 2223 45bd
00000080: ee89 6ebd 834b 4dbe 88a5 ccbf b944 c2bd
00000090: aae4 a6bd 25ee 1cbd a9ef 98bf dc79 16c0
000000a0: ab98 1fbd f941 8ebf 6be2 9ebe f669 95be
000000b0: 5dc3 91be c0e4 3dbf 1fba aabf bf0c 24bf
000000c0: 819b e0bf 3efe afbd 5420 713f 6bf5 ef3f
000000d0: 31ac 7dbf 41cf bdbe 4059 edbf 06d7 603c
000000e0: b060 ca3c 8e74 04bf 3f80 03c0 ba9f 543a
000000f0: 9c71 b8bf 44b5 d3bf 96f3 0ac0 f78a dfbd
00000100: 26ff 65c0 2bf6 6dbf 3204 d23e 1cef 1fbe
00000110: acc3 81bd 50b1 48be 97d7 80bd b581 923d
00000120: d4f9 273e 0f3e bcbf 8831 e3be 3030 51bf
00000130: a879 56bd 0ff3 72bf d7b4 28c0 dac0 853e
00000140: 6f8f 1bbf da1f 5ebf 73c9 edbe 1cfb 70bd
00000150: 4e4e 85bf ba5b afbf efac 5fbf afa1 39bd
00000160: 652f 3ebf a014 c4bd 4c4e 73be 787c 78bd
00000170: 5a0e 68bf e5a3 fbbe 8c7c 4140 3d86 723f
00000180: 00dc 49be dd65 b23f d91a a13e b159 b03f
00000190: 5a6c eebf a968 1ebf c835 cebd 9532 b4bd
000001a0: 241a 0140 19c9 273f f17c bcbc 0848 13c0
000001b0: 5fd7 413d 4f85 9fbd 4af5 03bf f984 163e
000001c0: 2423 a7bd a2f4 e13b c6f9 90bf 332e 8fbf
000001d0: d1bf f5bd 02dc 16c0 9deb b23b 3d52 ddbf
000001e0: dbc9 513f 01a1 a8bd d8f8 ec3e 168a 8abe
000001f0: 56de c5bf c546 1b3f ecf1 90c0 ffe6 8ebd
00000200: 70c3 52bf 54cc 7cbf aa3e a6bf fd7c 0340
00000210: 3347 0abf c6bf cdbd 3e4b d3bd d8cb 7cbe
00000220: 1a8c 0ebf 74e3 4dbb 6c98 2b3f 1ab3 873d
00000230: bc74 76be 25db 4cbf 867e f03e e86a 3fbf
00000240: 5d86 54bf ee5e b43f 5c2a 32bf c911 e8bd
00000250: 4035 30bf 813a ea3f 6c42 bebf 39e5 d7bd
00000260: 28f1 c8bd 567b 5cbf dbc7 7ebe 2d71 debd
00000270: ae5a 97bf 761a a9be 0cb5 e9bf 3cec 903e
00000280: 1d47 4cbe 61c4 5ebf 3431 55bf b10c 8840
00000290: 615c e03d d22a a33c 91b8 e4be 122b cfbf
000002a0: d8b2 1cbe 3acd 6a3f 4c0d 05bd 7870 81bd
000002b0: a6b0 723f 43d3 04bf cf4c 68bf aba2 9d3f
000002c0: fb68 2ebf b51f 8abe a767 6cbf d7ef 85bf
000002d0: 3bf5 85bd 7445 933f 4c87 82bf 42f1 08bf
000002e0: 1a7a a5be d4c5 1bbf 82ff 4e3f 6d4b 60bf
000002f0: 032c a3bf 347e 8bbe 82dc 8ebf 64f3 63bd
00000300: 39f9 24be 8386 e8be 1e4b 943f 10fd 43be
00000310: 8074 79bb 0962 06bd 7019 dfbd c6f2 ffbf
00000320: 7ce3 d4be 7e86 49be da97 03c0 d55c 183e
00000330: 4af3 ee3e c065 49be dc6c 0bbf 732a 81c0
00000340: 92e4 06bf 7392 95be d717 10bd 7420 8f3f
00000350: d8b1 28be 695c 43bf 0c8c cebc 16c0 733a
00000360: 0921 89bd 79fc 0ebe 0c5f 92bd 4bff e4be
00000370: 232e 1b40 00c3 dfbd 1899 d2be 36e9 02be
00000380: 8928 02be 7540 a4bc 732a 05be 0f40 923e
00000390: 24d5 f2bd d9b1 47be 3573 0ebe 93d4 82be
000003a0: f0ec 5c3f 40e6 54c0 1011 2d3f fdc0 0ebf
000003b0: 067b 03bf 7b54 93be af48 30bf ceb2 a4be
000003c0: a527 28c0 0faf efbe 29e9 0bbe 250e 30bd
000003d0: 7bad 37c0 ef38 a6bf 5b9b b33e a8f9 803e
000003e0: f926 cdbe f015 8dbf 7425 d3bd 6ac9 d9be
000003f0: 4454 01bf 00a4 b2be 2cf1 8dbf 74c4 9dbe
-1.1174332 0.092250824 -0.34847918 -1.3777032 -0.082382776 -1.2291938 -2.334404 -0.098713525
-0.7359366 -1.8431747 1.1795981 -0.11397157 -0.67502266 2.250681 -1.4352571 -0.33522964
-0.76227784 -0.37790358 -1.0024668 0.3711373 -0.56755686 0.017516488 -0.06351686 -0.79578316
0.3768037 2.845997 -1.8944858 -0.0911819 -0.061494406 -0.40131426 -0.31127915 -0.04812921
-0.05823701 -0.20048337 -1.5988016 -0.09485764 -0.08149083 -0.03831305 -1.1948138 -2.3511877
-0.038963955 -1.1113883 -0.31032118 -0.29182404 -0.28469363 -0.7417717 -1.333805 -0.6408195
-1.7547456 -0.08593415 0.94189954 1.8746771 -0.9909087 -0.37072185 -1.8542862 0.013723141
0.024704307 -0.5174035 -2.0547025 0.00081109593 -1.4409671 -1.6539693 -2.1711173 -0.10915177
-3.593698 -0.9295375 0.41018826 -0.15618557 -0.063361496 -0.1959889 -0.062911205 0.07153646
0.16403896 -1.4706439 -0.44373727 -0.81714153 -0.052362114 -0.9490213 -2.6360376 0.26123697
-0.6076574 -0.8676735 -0.46442756 -0.058833227 -1.0414522 -1.3699868 -0.8737325 -0.04532021
-0.7429107 -0.095742464 -0.23760337 -0.060665578 -0.906469 -0.4914848 3.0232267 0.9473608
-0.1971283 1.3937336 0.31465796 1.3777372 -1.8626816 -0.6187845 -0.10068852 -0.0879871
2.0172205 0.65541226 -0.023008795 -2.3012714 0.047324535 -0.077890985 -0.51546156 0.14699163
-0.081609994 0.0068956176 -1.1326225 -1.1185974 -0.11999477 -2.3571782 0.005460216 -1.7290722
0.8194863 -0.08233834 0.46283603 -0.27058476 -1.5458477 0.6065486 -4.5295315 -0.06977653
-0.82329464 -0.9874928 -1.2987874 2.0545037 -0.5401489 -0.100463435 -0.10317086 -0.24687135
-0.5568253 -0.003141609 0.6702945 0.06625958 -0.24067968 -0.8002189 0.4697153 -0.747725
-0.8301752 1.409147 -0.69595885 -0.11331517 -0.68831253 1.8299104 -1.486402 -0.105417676
-0.09811622 -0.86125696 -0.24880926 -0.1086143 -1.1824548 -0.33028 -1.8258376 0.28305233
-0.19949003 -0.870184 -0.83278203 4.2515492 0.1095512 0.01991788 -0.44672063 -1.6185019
-0.15302598 0.917194 -0.032483384 -0.0632028 0.94800794 -0.5188486 -0.907422 1.2315267
-0.6812894 -0.26977316 -0.9234566 -1.0463818 -0.065409146 1.150557 -1.0197539 -0.5349313
-0.3231972 -0.60848737 0.80858624 -0.8761509 -1.2747806 -0.27244723 -1.1161044 -0.055652037
-0.16110696 -0.45415124 1.1585424 -0.19139504 -0.0038063824 -0.032808337 -0.10893524 -1.9995964
-0.41579807 -0.19680211 -2.0561433 0.14879163 0.4666999 -0.19667721 -0.5446298 -4.036432
-0.5269252 -0.29213294 -0.035178985 1.1181779 -0.16474092 -0.7631288 -0.025213264 0.00092983374
-0.06695754 -0.13963498 -0.07147035 -0.44726023 2.424691 -0.10925865 -0.41132426 -0.12784275
-0.12710775 -0.020050267 -0.13004474 0.28564498 -0.118570596 -0.19501437 -0.13911135 -0.25552806
0.8629904 -3.3265533 0.6760416 -0.55763227 -0.51359594 -0.2877539 -0.68860906 -0.32167667
-2.6274197 -0.46813247 -0.13663162 -0.04298224 -2.8699634 -1.2986125 0.35079464 0.25190473
-0.40068796 -1.102232 -0.10309878 -0.4253648 -0.50519204 -0.34890747 -1.1089225 -0.30813944

weight f4 [6, 256]
00000000: 5111 b7bc 7ef9 c33e 39e6 8a3f aa2f 933f
00000010: fc82 a8bd 3caf 5bbf b2e1 973f 31c8 fc3b
00000020: e0ba 773e 67a7 c13d 79fc 8ebd fcef 933c
00000030: 6847 943f 28b6 84bf c8b3 46bf 9f7c 89bb
00000040: bb57 813d a212 c33e 6cfe b23e 0be2 363f
00000050: 2e0b aa3d ee9d bb3c 2d37 80bb 3f43 babe
00000060: e626 e7be 91b4 533f 8908 2b3e 5b66 94bc
00000070: 19df 7f3b e41f 4cbf 5264 ae3e 8d1e 1c3d
00000080: 901c d03c edca 823d 3fec 0ebe a11f d9bc
00000090: 7841 3ebc 7d1f ae3c f854 eabd f478 58bc
000000a0: 88d4 9a3c f751 aabf 84ba 2e3e 26d5 a13f
000000b0: 7703 493d 5513 12be 8513 283f e658 8d3f
000000c0: 8d2e 0dbd f679 b93c 1026 cb3f 1fce 9dbe
000000d0: 657c 20bf 2907 a53c 82fb 093f 365f c5bb
000000e0: c5eb e4bb e67a 313d e6c3 293d 2361 34bd
000000f0: fca8 bc3c 0baa da3e 77d7 79bf b1ec 883c
00000100: 2070 e4bf c63b 1b3f f380 5ebc a12f 1abd
00000110: 240f d9bc 0858 b73d f58a aebd ea0e 213e
00000120: 92de 6cbf 09a4 f9be 5de3 fd3e 2a16 a63e
00000130: 6f82 583c d064 89bd e71b 9f3e dfa1 bf3f
00000140: 3003 ca3e eecb 72bf 747b 1e3e 20b9 24be
00000150: 6011 14be 956a f73f 9ba2 4c3f e784 2abd
00000160: 1dc5 8abe 0d25 05bd c20f 0f3f b087 203d
00000170: b5ac fb3e 549c 313e 3e79 743f 3676 80bf
00000180: 80c9 383c 75fa af3f bcf1 083f dd3c a43d
00000190: 2730 313d c070 d5bb 1cdd bf3c a989 c83b
000001a0: 2947 7c3c 9819 663f c8b4 d83a 640b 86bf
000001b0: 3de0 5cbd 2c46 5b3b c03c bd3f 17f2 c93e
000001c0: 2dc5 37bc a76c 9b3c a1b8 3abe ca67 943e
000001d0: 4e65 953d 9ac6 00bc 8510 96bd 1509 3e3f
000001e0: 5650 213d 404f c0bc 8329 29be 4464 e9be
000001f0: 12f7 2abf a9e7 603e 5f27 68bd b0cc 70bd
00000200: 0f55 4abf b395 adbe 939f 1ebe c987 79bd
00000210: 82bb e03e e666 273a 65ac 2fbb fe07 923e
00000220: e100 793f 1ed8 aebc ac4d 863e d533 23bf
00000230: 4f0f f03c 5f60 2f3e 10a1 f33f 0437 213f
00000240: 9b78 e9bc f4d1 28bf 367c 12be fa03 073b
00000250: df39 b53c 15dc cdbd f3bf b03e d6ee c7bd
00000260: 38b4 093e f918 b93e f0f0 0c3a 4c29 5b3d
00000270: a3ee 91bf 97c9 7e3e 706a e9bc c7b5 193f
00000280: dbc3 8b3e ef07 a3bf 4118 dc3d fc10 3c3f
00000290: aa48 adbf 9591 453d 3fa9 31be 8132 0040
000002a0: 6ebf 133f be8b 0dbf 8d36 c93d 48b2 2f3d
000002b0: d17f 4cbf 92b1 3ebf 83e8 25bf 6b6e dfbf
000002c0: de3e 9f3e eac3 143f 413d d23f cca4 f63e
000002d0: 29ee 553c c063 b63f 5ea1 753e 562d 97bd
000002e0: 6d76 8cbf 00a7 043e 095b 943f 9951 b9be
000002f0: 62a7 a2bf be0c b23c 4dfd 8b3f 0a51 e2bc
00000300: c085 9c3d 28b0 ab3f ee4e b0be b68f efbd
00000310: 7e4e fd3c 0adb 1abd bf0f 283d 623b 53bf
00000320: 89bd 543e afa6 133e f68e 09be efb6 4cbf
00000330: fad5 c6be 66ea 133c 66eb fd3e 3b38 45bf
00000340: d51d 22bf 3a93 413d ea9d 023c de1a 42bf
00000350: 1a4e a23d a642 73bf c0d3 05bd 5434 2abd
00000360: 4817 67bd cbd5 d13c 2791 b53a 8ade cebd
00000370: c580 de3e cd47 51bd 1ed1 d23d a716 9dbd
00000380: 1bbe 1c3f 8400 003c e3fb 553d 3b4a 233f
00000390: aa10 3d3d d9ba 543d 6af7 253f f334 17be
000003a0: 7186 833f 8f28 953f ac6e 34bc 5500 7bbe
000003b0: f749 62bf 171d fc3d 009d 2d3f 7082 223b
000003c0: 005a 18c0 8bf6 9abe 614c 043d 3837 4cbc
000003d0: 8df7 33bf 7b26 83bf 9bc4 ad3f 6da2 08be
000003e0: 52f9 72be 19ae 753e 1d76 dcbf 7d27 e4bb
000003f0: e667 b7bf 3ae5 463e 9fda 633f 1c84 ec3d
-0.022347124 0.38276285 1.0851508 1.1498921 -0.08228108 -0.8581426 1.1865752 0.0077142944
0.24192381 0.094557576 -0.06981749 0.01805877 1.1584291 -1.036809 -0.77618074 -0.004195764
0.063155614 0.38100153 0.34959733 0.71438664 0.083029136 0.022902455 -0.0039128275 -0.3637943
-0.45146865 0.826974 0.16702475 -0.018115213 0.0039042889 -0.7973616 0.34060913 0.038115073
0.025404245 0.06386361 -0.13957308 -0.02650434 -0.011612289 0.02125525 -0.11441988 -0.013212431
0.01890017 -1.3306264 0.17063338 1.2643173 0.04907557 -0.14265187 0.65654784 1.1042755
-0.034468222 0.022641163 1.5870991 -0.3082132 -0.6268981 0.020145016 0.53899395 -0.006023313
-0.0069861137 0.043330096 0.04144659 -0.04403795 0.023029797 0.42707857 -0.975944 0.016714426
-1.7846718 0.6063808 -0.013580549 -0.03764308 -0.026496477 0.089523375 -0.08522598 0.15728346
-0.92527115 -0.4875796 0.49587527 0.32438785 0.013214692 -0.067086816 0.31075975 1.4971274
0.39455557 -0.9484242 0.15476781 -0.16086245 -0.14459753 1.9329401 0.79935616 -0.04163065
-0.2710351 -0.032506038 0.5588342 0.0391919 0.49155203 0.1734479 0.954975 -1.0036075
0.01127851 1.3748308 0.5349386 0.08019421 0.043258812 -0.006513685 0.023420863 0.006119926
0.015397825 0.898828 0.0016533369 -1.0472226 -0.053924788 0.0033458574 1.4784164 0.39442512
-0.011216444 0.018972708 -0.18234493 0.28985435 0.07294713 -0.00785985 -0.073273696 0.7423261
0.039383255 -0.02347529 -0.16519742 -0.4558431 -0.6678325 0.21963371 -0.056678172 -0.058788955
-0.7903604 -0.33903274 -0.1549056 -0.06092051 0.43893057 0.00063858775 -0.0026805636 0.28521723
0.97266966 -0.021343287 0.26231134 -0.63750964 0.029304175 0.17126606 1.9033527 0.6297457
-0.028499892 -0.65945363 -0.14305195 0.0020601735 0.022122322 -0.10051743 0.34521446 -0.09762351
0.13447654 0.36151865 0.00053764787 0.05350618 -1.1400951 0.24881588 -0.028493136 0.60042995
0.27297863 -1.2736796 0.107468136 0.73463416 -1.35378 0.04823454 -0.17349719 2.0030825
0.57713974 -0.55291355 0.09824858 0.04289463 -0.7988253 -0.744897 -0.6480791 -1.7455572
0.3110265 0.5811144 1.6424943 0.48172605 0.01305727 1.4249191 0.23987338 -0.07381694
-1.0973641 0.1295433 1.1590282 -0.36195067 -1.2707331 0.021734592 1.0936676 -0.027626533
0.07642698 1.3413134 -0.3443522 -0.116973326 0.030921217 -0.03780655 0.04103064 -0.82512486
0.20775427 0.14419053 -0.13433442 -0.79966635 -0.38835126 0.009028053 0.49593657 -0.77038926
-0.6332677 0.047259547 0.00797222 -0.75822246 0.07925053 -0.9502357 -0.032672644 -0.04155381
-0.056418687 0.02561464 0.0013852463 -0.1010104 0.43457618 -0.051093865 0.10293792 -0.07670336
0.6122758 0.007812623 0.05224217 0.6378514 0.04615847 0.051936004 0.6483065 -0.14766292
1.0275403 1.1653003 -0.011012714 -0.24511845 -0.8839411 0.12310236 0.6781769 0.0024796985
-2.3804932 -0.30266222 0.032299403 -0.012464337 -0.7029961 -1.0246118 1.3575624 -0.1334321
-0.2372792 0.23992194 -1.7223545 -0.006962715 -1.4328582 0.1942338 0.89005464 0.11548635

bias f4 [6]
00000000: 6d29 3a3f 32ec 24c0 0b17 cbbf 59d2 8a40
00000010: 0c46 0b3f 9111 c63f
0.7271946 -2.5769162 -1.5866407 4.338177 0.5440376 1.5474111

weight f4 [256, 23]
00000000: 3062 4940 d42a e3c0 cf53 61bd efc5 d93f
00000010: ffb8 f33e 9b84 0541 c5c1 a93f 5f94 12c0
00000020: ee08 363f 35e6 2c3f 86cb 973c ef32 1d3e
00000030: 5dcc 98bd d52d 2b3e dfe6 323f 38dd d5bc
00000040: 5964 d7bc 9c5e 423f 8c82 22bf 8f61 8c3f
00000050: 7a6e 453f 5869 13b8 897e 02bf b231 44c0
00000060: b1c3 5d3f 02e4 1b41 361a c53e 3661 91bd
00000070: df26 84c0 fcf0 3ac0 4c6e 2e40 95c4 b6be
00000080: 51ee 813e 67c2 1b3f 5a2d 87be 75cb 94bd
00000090: 67c6 3d3d 7d6d 813d 3766 5f3f 97f5 56bd
000000a0: 137e be3f 8469 08bf 8431 4f3e ce36 37bf
000000b0: 16e7 b13f 2c4b c83e f8cc 97c0 a588 b5c0
000000c0: a4ec b6bd 2176 b8be 3a96 89bf 3dbc ca40
000000d0: 9ff1 3040 a9da 7c40 38e2 ed3e f2a0 4d3f
000000e0: 3520 31be 7e06 90bc d494 71be be4d 383d
000000f0: 1170 cabe 436a 0a3f ac7e b4bd f72e 6b3e
00000100: 6f6a acbe b127 4fbe dcaf f9be aeb6 a53f
00000110: d946 4f3f e523 3141 3365 653f b62f 673f
00000120: b52b bf3e 21d9 b7be 80b7 a73e 9a3d bdbe
00000130: f019 82be 5194 a93f dd5e 4b3e c46a f6bd
00000140: 6d21 ed3d 7b2a c83c c6e0 83bd 1c35 28be
00000150: 8adc 033e 231a ccbd 3a6a 7bbe 8e5d 4dbe
00000160: 6307 a6bd d5ce 52bd 4e9f c1bd 0a8f 6d3e
00000170: 56b8 bdc0 d540 2e41 c0e5 85c0 fed5 10c0
00000180: a0d5 44bf 2764 22c0 78c9 0bc0 7e9d c3be
00000190: f0ad 933f 9d84 cbbd c771 6cbc de30 03be
000001a0: a8d0 223e a945 31bd 1b34 37bd 5c18 62be
000001b0: 452b 1d3c fcab 8d3d a269 823e a572 97be
000001c0: fb43 2a3e ec70 3abe 9c63 f43d 804f 0ebf
000001d0: 5881 5ac0 6d54 1dbf 6278 c840 496c 8ebd
000001e0: a478 bbbf 3f18 c540 4b0d 37bf 4947 1240
000001f0: 4c8a 1340 5041 6cbc 6b9f acbe 26ac b4be
00000200: a514 4cbd 80f1 28be dd88 403d dbc0 233d
00000210: 97eb 8abe d03f 4f3e 327c 56be 441f dcbe
00000220: 7813 033e ecba 8fbd 62d2 2abf 6d34 63c0
00000230: c0c9 babf 5846 fc3f 6c05 a7be f385 5840
00000240: d070 50c0 e6de e33e bcfc dfbe 7afa 043e
00000250: 8459 95bd f5e9 04bf 5243 7c3e f231 283d
00000260: bf82 0f3f dad5 1abe 4b9b a23d e250 64be
00000270: 418a 733f 6ea8 073e 86fa 113e 7c4c 213e
00000280: 2fde e5bd 3609 02bf abed 9e3f 4144 4d40
00000290: fcbe 94c0 479b 193e 6698 0740 a5d3 a73f
000002a0: 6cc8 46c0 67ca 2abe d1e7 1840 b6f9 603e
000002b0: 3cc2 653d 46b0 193d 5790 b13c 9f34 a7be
000002c0: 69b2 a1be 20a3 02be 6dff 19bf eb92 2cbe
000002d0: 663f bc3e 0999 1dbe 214d 833e 51a8 39bf
000002e0: ca59 3dc0 322f e4c0 ea18 563f 641a a840
000002f0: 115d f93f 8d9d 0bc0 bd9f f63e b964 ac3f
00000300: f757 2abd ebef bf3f 3b65 f0bd 669a fabd
00000310: 54da b93e 3365 ac3d e531 443d be24 2cbf
00000320: 943c 5f3e e60a a2be f3cb a4bd 2194 bc3e
00000330: 7925 f3be 4a7b 043f e086 b3be 759e 8dc0
00000340: ff14 0a40 5643 113f c757 d83f 11a1 60c0
00000350: f2b6 53bf e168 9e3f 976d 383e 06d3 4bbe
00000360: d030 543f 2066 f1be c4e9 c13e ad02 753e
00000370: 8463 f0bf b7f6 233e 0dd3 3d3e 4db8 a53d
00000380: b024 00bf 02d7 c13c fdde 58bf 5cf0 e03e
00000390: dce6 003f e9c0 ddbd 47e0 e8c0 64e3 f5bf
000003a0: 01c3 fd3e d755 09c0 1282 0b41 a4bb e33f
000003b0: fdc2 2840 31d6 16c0 5d19 3dbf b06f 7ebf
000003c0: 330a 2e3f 2346 c5bd 11f1 eabe 7c77 dc3e
000003d0: b497 9c3c 6bd1 edbd 1b2e dcbc 274b 0c3f
000003e0: 0692 d4be 8bc1 333f 8252 d83e 6fe9 1cbe
000003f0: 1329 74bc bb35 883f d8f1 c340 0b19 5d40
3.146618 -7.098978 -0.055011567 1.701353 0.47602078 8.344874 1.3262259 -2.2903059
0.71107376 0.6753877 0.018529665 0.15351461 -0.07460854 0.16716702 0.6988353 -0.026106462
-0.026292967 0.7592561 -0.6348045 1.0967273 0.771217 -3.514564e-05 -0.5097433 -3.0655332
0.86626726 9.743166 0.3849656 -0.0709862 -4.129745 -2.9209585 2.725482 -0.35696855
0.25377133 0.6084351 -0.26401788 -0.07265369 0.04633179 0.06319711 0.8726534 -0.052480306
1.4882225 -0.53286004 0.20233732 -0.71568 1.3898647 0.39119852 -4.7437706 -5.6729302
-0.08931854 -0.36027625 -1.074897 6.3354783 2.7647474 3.950846 0.46461654 0.8032371
-0.17297442 -0.01758122 -0.2359193 0.044996016 -0.39538625 0.5406839 -0.08813223 0.22967134
-0.33674952 -0.20229985 -0.48766983 1.2946374 0.8096748 11.071263 0.8960754 0.90307176
0.37338033 -0.35907844 0.32757187 -0.3696106 -0.25410414 1.3248388 0.19860406 -0.12032083
0.11578641 0.024434319 -0.064393565 -0.1642651 0.12877098 -0.09965923 -0.24552241 -0.2005522
-0.08106878 -0.05146678 -0.09454213 0.23199096 -5.928752 10.890828 -4.1842957 -2.263061
-0.76888466 -2.5373628 -2.1841717 -0.38206095 1.1537457 -0.09937403 -0.0144314235 -0.1281161
0.15899909 -0.043279324 -0.044727426 -0.22079605 0.009592836 0.06917569 0.25471216 -0.29579654
0.16627495 -0.18207139 0.119330615 -0.5559006 -3.4141445 -0.6145695 6.264695 -0.069542475
-1.4646192 6.1592097 -0.7150466 2.285601 2.305316 -0.014419869 -0.33715376 -0.3528759
-0.049824376 -0.16498375 0.047005523 0.039978843 -0.27132866 0.20239186 -0.20945814 -0.42992604
0.12800395 -0.070180744 -0.6672727 -3.5500748 -1.4592819 1.9708967 -0.32621324 3.3831756
-3.2568855 0.44505996 -0.4374751 0.12986174 -0.072924644 -0.5191949 0.24635056 0.041063257
0.5605888 -0.1512064 0.07939776 -0.2229648 0.95132834 0.13247845 0.14255723 0.15751833
-0.11224019 -0.50795305 1.241628 3.207291 -4.6483135 0.1500064 2.1186767 1.3111464
-3.1059828 -0.16678773 2.389149 0.21970257 0.05609344 0.037521623 0.021675272 -0.32657334
-0.3158143 -0.1275754 -0.60155374 -0.1685292 0.3676712 -0.1539041 0.25644782 -0.72522455
-2.9586053 -7.130761 0.83631766 5.2532215 1.9481527 -2.1814911 0.48168746 1.3468238
-0.041587796 1.4995092 -0.11738058 -0.122364804 0.36299384 0.0841774 0.047899146 -0.67243564
0.21800452 -0.3164894 -0.08046713 0.36831763 -0.47489527 0.51750624 -0.3506384 -4.425593
2.1575315 0.5674337 1.6901788 -3.5098307 -0.8270103 1.2375757 0.18010555 -0.19904718
0.8288698 -0.47148228 0.37873662 0.23926802 -1.878037 0.16012083 0.1853754 0.08091793
-0.5005598 0.023662094 -0.84715253 0.4393338 0.50352263 -0.1082781 -7.2773776 -1.9210019
0.4956284 -2.1458642 8.719255 1.7791638 2.6369011 -2.3568232 -0.73866826 -0.9938917
0.6798431 -0.09632518 -0.45887044 0.4305991 0.019115306 -0.11612209 -0.026877454 0.54802173
-0.41517657 0.702172 0.42250448 -0.15323423 -0.014902371 1.0641397 6.123272 3.4546535

bias f4 [256]
00000000: 00f5 78c0 a4e6 bbbf 7fe7 64bf 518a bbc0
00000010: 6f38 073e 2a12 0dc0 3619 32c0 899f 9cbf
00000020: 2fcb f8bf 2325 cec0 b200 20bf d0b8 853f
00000030: 3b27 25c0 053b 1d3f fad3 0841 d36b 3ec0
00000040: 9608 1140 8668 45bf 0973 32c0 0d00 aec0
00000050: a799 58c0 17ff 8dc0 5905 dfbf de76 6cc0
00000060: 33d9 85bf cf72 8dc0 8354 d33c 1ad8 97c0
00000070: f07f 09c0 db1a d5bf ba27 adbf 8f60 9740
00000080: 859d 04c0 4d69 ea40 900a 6b3e b8a8 ecbe
00000090: a17b 84c0 ea3a 11c0 c62b 15c0 6265 203f
000000a0: 51c7 0cc0 038e b9c0 6cf8 1a3f 02d0 93c0
000000b0: 80d5 b8bf 5c71 7840 6dab 9abf 4d04 dcbf
000000c0: f0fb babf f3f4 22c0 f860 6e3f 5ce8 2ec0
000000d0: 5f2c d93f 04ce c5bf abeb 1041 f1e4 20bf
000000e0: 899c 11c0 b4ef c63e d985 0bc0 04aa 2ebe
000000f0: 09b0 e1bf e73b 3fbf c921 ecbf 6468 b0c0
00000100: a786 a6c0 2e22 1ac0 9897 7bc0 8daf 94bf
00000110: d560 32c0 c688 6cc0 6b55 1cc0 014e c03f
00000120: aec2 a43f 8c90 3bbf e0e8 0ac0 a68b d83f
00000130: 217e 11bf a946 0c40 b4f5 6640 5e75 73c0
00000140: afc0 333f b272 88bf 7e2b 5740 9583 eb40
00000150: 148b 1940 6f38 8dc0 b992 1241 d694 b83f
00000160: 7054 80c0 d12a 52bf 8043 3ac0 6e47 ec3e
00000170: 9d40 233f fea4 b1bf 5fcd 0c41 77a1 3740
00000180: 2d4d a7c0 e3e2 97bf 2968 20c0 af87 95bf
00000190: 561f fb40 b7bd 8fc0 97f4 d6bf f5b0 c0c0
000001a0: 4906 3dc0 d112 03c1 39d4 dfc0 e931 ea40
000001b0: 3f8a 21c0 6885 7ac0 24a7 f53f 9449 f4bf
000001c0: edb7 81c0 0ae4 1540 4088 13c0 1e39 b43e
000001d0: 984c 32c0 e305 5d40 8b66 c13f 4add 753f
000001e0: 1382 99c0 38c1 a3c0 12f0 fabf 5614 35c0
000001f0: 88f8 99bf d782 9ac0 c7b3 b83f 4570 ac3f
00000200: 677f 0cc0 df53 1641 4cd4 e63f aecb 07be
00000210: 0fee 7440 c365 99bf df92 08c0 f1b4 b1c0
00000220: 9f73 37c0 3ca9 9440 481f 04be 4674 06c1
00000230: 1d74 2ec0 dc01 96c0 c4bf 2240 9262 5c3e
00000240: 004e 1ebf a40e 1a41 bf1b 75c0 518d 2bc0
00000250: b635 4d3f c16f efbf 0ad5 983f e1d3 9740
00000260: 9e57 fe40 2e63 cec0 409a a0c0 e55c cdbf
00000270: d7e5 b740 7069 8ec0 168e 99c0 78bf cabf
00000280: a412 5b3e e82d dbc0 07a5 ca3f 042e dbc0
00000290: 0640 92c0 192e f93e d5fe 3c40 6c1e 28c0
000002a0: 34fd 93bf 4b30 c5be ee7b 32c0 fc5b fe3e
000002b0: 667c bb3f 1c14 aec0 ef44 52c0 40c4 6cc0
000002c0: 6173 ccbf 044c 1cc0 8335 f2be 4f27 34bf
000002d0: b717 afc0 acbf 67c0 7ebf b3bf 9549 cec0
000002e0: f032 7c3f ffbd 0341 54db 7840 bfb0 e7bf
000002f0: 2ae0 b13f 3b3c 83c0 14da 8240 6b4f 4abf
00000300: 37b9 58c0 5202 1ec0 6aad 37bf eb67 ddbf
00000310: 5bf9 21c0 ffdf 0841 62c4 b0bf c3d1 5cc0
00000320: 5331 b8c0 1f7b 7cc0 7c53 6dc0 2e0b 95bf
00000330: 048d 6ebe 99a7 91bf c3e2 17c0 72b4 6fc0
00000340: e39f 0341 816c 603e 38cd 8f3f 50af b640
00000350: 448b a9bf 9ce3 b43e 6bb0 a2c0 cdfe bdc0
00000360: eff0 abc0 338a 0ec0 7535 e63f b84e 263f
00000370: d5e8 77c0 3ece 0fbf 3b26 59c0 0851 9ac0
00000380: a765 30c0 fc5f e340 c803 a3c0 9acc 6ec0
00000390: 1dab d6bf 8407 1fc0 6732 f73e 1109 d940
000003a0: bbe4 aac0 e20b 51c0 f513 c9bf 9de2 f540
000003b0: 29cb 9dc0 04c8 83bd 120a 4cc0 90cf 8dc0
000003c0: 4687 0740 84e6 6dc0 423e 0541 9fa5 2bbf
000003d0: c5fc 43be 2015 1bc0 af2a 383f 4a30 04bf
000003e0: 1444 c640 b7d7 12c0 bfe6 25c0 197a d83f
000003f0: 904d 363f ba56 693f 224d c4c0 1576 e8bf
-3.8899536 -1.4679761 -0.89415735 -5.8606343 0.13205121 -2.2042336 -2.7827888 -1.2236186
-1.9437007 -6.4420333 -0.6250106 1.0447025 -2.5805194 0.6141818 8.551752 -2.975331
2.266149 -0.77112615 -2.7882712 -5.437506 -3.3843782 -4.437389 -1.7423507 -3.694755
-1.0456909 -4.4202647 0.025797134 -4.7451296 -2.1484337 -1.6648821 -1.3527749 4.730537
-2.0721142 7.325354 0.22953248 -0.46222472 -4.1400914 -2.2692208 -2.3307967 0.626547
-2.1996653 -5.7985854 0.6053531 -4.6191416 -1.4440155 3.881919 -1.2083565 -1.7188812
-1.4608135 -2.5462005 0.9311671 -2.732932 1.6966666 -1.5453496 9.057536 -0.62849337
-2.2751791 0.38854754 -2.1800444 -0.17057043 -1.7631847 -0.7470078 -1.844781 -5.512743
-5.203937 -2.4083362 -3.9311275 -1.1616074 -2.7871602 -3.695848 -2.4427135 1.5023805
1.2871912 -0.73267436 -2.1704636 1.6917617 -0.5683308 2.1918128 3.6087465 -3.8040385
0.70215887 -1.0660002 3.3620296 7.3598123 2.3991137 -4.413139 9.160821 1.4420421
-4.0103073 -0.8209658 -2.9103699 0.46148247 0.6377047 -1.3878477 8.800139 2.86923
-5.228171 -1.1866115 -2.5063574 -1.1682032 7.847575 -4.4919086 -1.6793393 -6.021601
-2.9535086 -8.192094 -6.994656 7.3185925 -2.5240629 -3.9143925 1.9191632 -1.9084954
-4.053702 2.3420434 -2.305191 0.35199827 -2.785925 3.4534843 1.5109419 0.96040785
-4.797128 -5.1173363 -1.9604514 -2.8293662 -1.2028971 -4.8284717 1.4429864 1.3471762
-2.195276 9.395476 1.8033538 -0.13261291 3.82703 -1.198418 -2.1339643 -5.5533376
-2.866432 4.6456585 -0.12902558 -8.403387 -2.725837 -4.687727 2.5429544 0.21521977
-0.6183777 9.628574 -3.8298185 -2.6805003 0.8016008 -1.870598 1.1940014 4.744614
7.9481955 -6.449607 -5.0188293 -1.6043974 5.7468066 -4.450371 -4.7985945 -1.5839682
0.2139383 -6.849354 1.5831612 -6.849367 -4.5703154 0.48667982 2.9530537 -2.6268568
-1.1561646 -0.38513407 -2.788814 0.49679554 1.4647338 -5.4399548 -3.2854574 -3.6994781
-1.5972711 -2.4421396 -0.4730645 -0.7037248 -5.471645 -3.6210737 -1.4042814 -6.446482
0.98515224 8.233886 3.8883867 -1.8100814 1.3896534 -4.1011024 4.089121 -0.7902743
-3.3863046 -2.4688916 -0.71748984 -1.7297338 -2.5308444 8.554687 -1.3809931 -3.4503028
-5.756021 -3.9450147 -3.7082205 -1.1644037 -0.2329598 -1.1379272 -2.3732154 -3.7453885
8.226535 0.21916391 1.1234503 5.7089005 -1.3245625 0.35329902 -5.0840354 -5.9373536
-5.373161 -2.227185 1.7985064 0.64963865 -3.873586 -0.56174076 -3.3929584 -4.8223915
-2.7562044 7.105467 -5.0942116 -3.731238 -1.677097 -2.4848337 0.4828064 6.7823567
-5.340421 -3.2663503 -1.5709215 7.6839128 -4.93105 -0.06434634 -3.1881146 -4.431587
2.1176314 -3.7171946 8.3277 -0.6704959 -0.19139393 -2.4231644 0.7194013 -0.51636183
6.1958103 -2.2944162 -2.5922086 1.6912261 0.712121 0.9114796 -6.1344156 -1.8161036

weight f4 [256, 256]
00000000: df28 be3e f213 0b3f 9368 a33e 0fb6 e93d
00000010: 5419 eabe 31a2 143f ccea c7be 3a52 8bbe
00000020: e0bf 413f bc58 ddc0 7c45 dfbf e93c 1440
00000030: f270 813e f650 a4bf fabd a6be f75d 27bf
00000040: 3b3d b13e 0f8e 88bf 5ef6 34be ec83 063f
00000050: b59b 02bf 731b 333f f3f0 83bd e02b c43f
00000060: 29c4 d1bf eb14 9ebe cc07 6840 d86b 39bf
00000070: e771 833f 5452 b23f 50bd 53bf fbb2 83be
00000080: 823b 2fbf 2992 353f b6e5 f73d 270c b2bf
00000090: 7ba4 72bf 0d48 0d3f 1bb3 b1be 76d0 af3e
000000a0: 98bb 1abe 9662 39bf d351 4dbe 8a22 e2be
000000b0: 17e6 733e 77e4 193b d26a 97bf 88f3 ad3e
000000c0: 15a3 6dbf 3966 7bbe ba62 b3bf f379 85be
000000d0: 925f 533e b1f3 373f 186a bdbe 9eac 70bf
000000e0: 2be8 073f ebda 56be ecf9 513e 2152 bcbe
000000f0: 2a52 e1bf 6e20 dd3e 20b1 e73e e5c6 edbe
00000100: a08a 8a3e 96c8 d23f 3f42 1bc1 4154 3dbf
00000110: bfdd b03e e3c0 0d3f 7ae6 013f 9824 1d3e
00000120: f8bf 223f e659 7939 4368 473f 422e 8ebe
00000130: 1694 843e 1bf0 c3bf bc72 d4bd b747 483f
00000140: 052a 9b3d baad 193f d403 be3d 10d4 1340
00000150: f043 fbbd 45f8 12bf 8526 983f 2f61 c4bf
00000160: 7f9d d2bf 92fa 4f3d 8451 f2bf 3a73 20be
00000170: bb9a dcbf d425 b73f 050c 353f aae6 7ebf
00000180: e8ea 23bf f735 523e 023a a43f b52e d93e
00000190: a688 0040 a3d4 c73e 4149 45bf e208 803f
000001a0: ef94 d1be 095d 38c0 d184 27bf 52cf 0a3f
000001b0: 1089 b23f 7927 92bf 966f 2dbf 68c0 6e3f
000001c0: 046c 08bf 7bfc 1c3f 3eac 793f 1108 36bf
000001d0: c31e 003f ff3f 14bf e08d 943f 1c03 aa3e
000001e0: 0c78 3bbf 6da7 bcbe 9b98 e93e 79eb cdbe
000001f0: b14c eb3e 05c7 463f 9240 243e 9d4a bebd
00000200: c98a 283f 1bfc 473f 9347 d9be e504 a7be
00000210: b6a8 8e3f d190 0dbf bded 16bf 79dc f4bf
00000220: abd9 0140 807a adbf a5d5 d83f 0036 a1c0
00000230: 0d1d 16bf 6ca3 f2be 7431 76bf bf54 463e
00000240: acb3 5d3e cd93 edbd 349f a9be c93a 0040
00000250: c94f b03f c19a 7bbe ca88 44bf cec9 a1bf
00000260: 7863 35bf 2528 b0bf 264a 0140 8484 8dbe
00000270: 5d9d 07c0 a5f1 23c0 8bcf be3f 891d 463e
00000280: 25cd 1640 16c1 6fc0 fd73 bfbf e359 4ebe
00000290: 892f 2d40 72f7 d2be 27a6 36bf f2bc 7b3d
000002a0: a253 9fbe 339a d93d 0c22 a33f 24a1 9bbf
000002b0: fbac 2b3e 34bd 1b3f 7caf d03e 67c8 973f
000002c0: 9143 253f 1590 21bf 46f1 0cc0 ecc8 3fbe
000002d0: ca2b f53e f205 7fbf 1ad4 adbc 8523 66bf
000002e0: 3fc3 bbbe 7be5 8ebf e18e 87be e096 26bf
000002f0: 94bd a83f 06af fb3f c222 13c0 c07e 13c0
00000300: d2a8 17bf f12d 2140 8f4f 7e3c a939 dbbd
00000310: 240f 8c3f bd90 b2bf 8611 1e3f 79e5 3e3f
00000320: 0e4e 313f 3863 c63f dc26 a4bf 5658 133d
00000330: cb0f 05c0 94a4 893f 49d2 a93f aed9 853f
00000340: 08fb c9be 62f2 e3be 1e1b c6bf d86b 543e
00000350: bc65 f0bf 13f5 67bf 5a1d 25bf 9cc3 c6bd
00000360: be56 f23f 960b ef3f 994a 683f c432 c6bf
00000370: 8439 b73f bf25 123f 8f05 a33f 53e8 03be
00000380: 45d8 e3bf 8406 383f 5b6a cdbf d8b6 15bf
00000390: 74ba ecbe 9d6d 893e 8ec2 3abf 565d 593f
000003a0: f999 87be 91b4 133e 9f5d 27bf bca9 123f
000003b0: 36fa 61c0 066f 24bf 408f 24bf 26c0 9bbf
000003c0: 06d8 363f 5aa7 81be e331 7a3e 18a3 bf3f
000003d0: 975c 0b3e 6782 18bf 48e9 983f 79d4 f8be
000003e0: bf05 b0be 53de 803e 5b11 06bf f962 c73e
000003f0: 4cca eabe cbe8 21bf 6f2e ccbd 5581 0cbf
0.37140557 0.5432731 0.3191572 0.11411678 -0.4572245 0.58059984 -0.39046323 -0.2721117
0.75683403 -6.917082 -1.744308 2.3162177 0.25281483 -1.2837207 -0.32566816 -0.65377754
0.34617028 -1.0668353 -0.17672107 0.52545047 -0.5101884 0.6996376 -0.06442442 1.532589
-1.6387988 -0.30875334 3.625476 -0.7243018 1.0269135 1.3931375 -0.8271074 -0.2572249
-0.68450177 0.7092615 0.12104361 -1.3909959 -0.9478223 0.55188066 -0.3470696 0.3433873
-0.15110624 -0.72416055 -0.20050745 -0.44166976 0.23818241 0.0023482123 -1.1829474 0.33974862
-0.9282697 -0.24550714 -1.4014504 -0.26069602 0.20641926 0.7185622 -0.36995006 -0.9401339
0.53088635 -0.20981948 0.20505494 -0.3678141 -1.76032 0.43188804 0.45252323 -0.46440807
0.27058887 1.6467464 -9.703673 -0.73956686 0.3454418 0.55372447 0.50742304 0.1534599
0.6357417 0.0002377998 0.77893466 -0.27769667 0.2589423 -1.5307649 -0.10373446 0.7823443
0.07576374 0.6003071 0.09278074 2.3098183 -0.122688174 -0.5741008 1.1886755 -1.5342158
-1.6454314 0.05077607 -1.8931127 -0.15668955 -1.723472 1.4308419 0.70721465 -0.99570715
-0.64030313 0.20528398 1.2830203 0.42418447 2.0083404 0.39029416 -0.770649 1.0002711
-0.4093394 -2.8806784 -0.65437037 0.54222596 1.3948078 -1.1418296 -0.6774839 0.9326234
-0.5328982 0.61322755 0.97528446 -0.7110606 0.5004694 -0.5791015 1.1605797 0.33205497
-0.7323005 -0.36846486 0.4562424 -0.40218714 0.45956948 0.7764743 0.16040257 -0.09291575
0.6583677 0.7811906 -0.4243742 -0.32620922 1.1145236 -0.552991 -0.5895651 -1.9129783
2.0289104 -1.3553009 1.6940199 -5.037842 -0.5863808 -0.47390306 -0.9616921 0.19368266
0.2165057 -0.116004564 -0.33129275 2.003588 1.3774348 -0.24570753 -0.76771224 -1.2639711
-0.708549 -1.3762251 2.0201507 -0.27640164 -2.1189797 -2.5616238 1.4907087 0.19347204
2.356271 -3.74616 -1.4957272 -0.20151477 2.7060263 -0.4120441 -0.7134728 0.06145949
-0.31118494 0.10625114 1.2744765 -1.2158551 0.16765206 0.60835576 0.40758884 1.1858033
0.64556223 -0.63110477 -2.2022262 -0.1872899 0.4788497 -0.99618447 -0.021219302 -0.8989795
-0.36672398 -1.1163782 -0.26476195 -0.65073967 1.3182855 1.9662788 -2.2989964 -2.3046112
-0.59241974 2.518429 0.015521898 -0.10704357 1.094212 -1.3950421 0.6174549 0.745689
0.69259727 1.5499029 -1.2824359 0.035972916 -2.079089 1.075335 1.3267299 1.0457056
-0.39449334 -0.4452086 -1.5477026 0.20744264 -1.8781047 -0.9060833 -0.6449791 -0.09705278
1.8932722 1.8675411 0.90738827 -1.5484242 1.4314427 0.57088846 1.2736071 -0.12881593
-1.7800375 0.7188494 -1.6048082 -0.5848212 -0.46236002 0.2684144 -0.72953117 0.84908044
-0.2648466 0.1442435 -0.6537723 0.57290244 -3.5308967 -0.6423191 -0.6428108 -1.2168014
0.71423376 -0.25322992 0.24433093 1.4971647 0.13609539 -0.5957398 1.1946192 -0.48599604
-0.34379384 0.2516962 -0.5237023 0.38942698 -0.45857465 -0.6324584 -0.09969794 -0.54884845
