log/mujoco_sac_halfcheetah_v3_2/mujoco_sac_halfcheetah_v3_2_s2/pyt_save/model.pt (torch_old, 878218 bytes, 18 tensors)

weight f4 [256, 17]
00000000: e96f d6c0 9bcf fe40 9cab 303c 1542 9a3f
00000010: 58a7 043f 7f97 ac40 2408 3640 3c1f e83f
00000020: f027 cb3d a220 c0bf 5d75 9c3e a635 ad3d
00000030: 35ce 133a f1e0 f43c 544e f53c c73c 9d3d
00000040: c35f 203d 5334 5341 1447 84c0 7f10 2cc0
00000050: 5ab5 0fc0 2336 51be 9d8a 7abf 7ac2 1c3f
00000060: 90e8 8b3d c89c 74bf 4466 3f3f f36e 05bf
00000070: e12c aebe 6f39 66be 3989 c3bc f27c 173c
00000080: fc57 46be daad 33be 8fe8 10c1 5ee4 eec0
00000090: f4bd 92bf ef14 25bf f360 103f f5b6 e1be
000000a0: 06eb a3bf 15a0 d9bb a2e9 d8bb 7fb5 24c0
000000b0: 9408 95bf 05c4 86be c3bf 3dbe 987c 73bd
000000c0: 4988 0bbd 789f bb3c 9ba1 a0bb 45d6 3341
000000d0: 08ea 6a3e 8647 a6c0 0df8 ad40 0e1b 0a40
000000e0: 94dc 2fbf 28d8 c4be b6db 7cbe b65a 483d
000000f0: 35c5 303f 236c 233f 1ec3 66bd 028d 443e
00000100: 558b e6bc b9fa e23d 6cda 2bbd 1330 843c
00000110: 959b 0dc1 f98d 7640 b1df fdbf bea1 0dc0
00000120: 0019 23c0 de63 8ec0 c3fc 993d d9a9 2dbf
00000130: 4ff6 50be a743 ffbf 9f3d 3d3f 535a 623e
00000140: 65f9 6d3d a333 413d 6323 fdbd 3641 97bb
00000150: a24a 68bd a153 e440 cba5 1d3f 4f80 963f
00000160: 0af0 79c0 65bd 3940 233e 3040 9205 72be
00000170: 52da 00bf 3c20 80be 4b5d 23bf 5bbc 853f
00000180: c858 e63e 674a a53e 1001 8e3d 7b6b 363d
00000190: 7b3b b63d 0efc 14bd 8d07 5841 ec2a a03f
000001a0: 2d90 e73f 78f0 0540 2868 f7be 5439 4ec0
000001b0: ad4a c1be 320a 303f 5f1a 0dbf c979 5640
000001c0: 33bc 3d3f ba61 873e 1415 a53e 177a a7bd
000001d0: 7d67 903c ef44 f7bc a0e9 b93d 20f4 0e41
000001e0: 41e7 9abf eed8 c1c0 7507 bc40 4aa1 853f
000001f0: 7aeb df3f 1d4f fd3f cfaf a23c 72a9 ebbe
00000200: a107 2dc0 161e c1be 3dc2 8e3e af6c a83e
00000210: 3b30 533d cfcd 07be 4c67 573c 6959 f2bc
00000220: 231a 0040 14dd 80c1 fb2f 413f 89d4 313f
00000230: 3eac ac3f f11c 88bf ec16 e4bb f9e8 543e
00000240: 1d6f b1be 06bf 3e3b 5257 c9bf b7c4 debe
00000250: 456e 5fbe d87b 0cbc df0d 5f3d 852f 05bd
00000260: e2a8 f63a 23ce a7c1 c1b9 84c1 9c44 a4c0
00000270: bb4a ddc0 3fe1 473f 37d2 303e c84c 0a3f
00000280: 8afa 3abe 1fae c0bd a7f7 97be df53 b8be
00000290: 8e4c f53d fe2f 2cbc a422 553d 3fca 893c
000002a0: 325c 22bd 83ec 2ebc cf7d 0abf ea63 6cbc
000002b0: eeb2 c53f 6c90 11bf 9321 0640 40c2 a840
000002c0: e885 d93f be4c 1d3e a136 84be fa10 2c40
000002d0: 8df8 cf3f 9b54 7d3e c15b 953e d30b b8bb
000002e0: cf86 53be 6f78 9abd d46f d039 fe11 8840
000002f0: 14f8 803f cfde c540 2018 2bbe f7ec e03f
00000300: e6f4 ca3e 1bd6 34c0 0808 24be dc57 86bf
00000310: f8a5 ae3f 829e 943e d7a0 a63e 0b49 093e
00000320: 9f1f 06bd 1031 cd3b e7a9 cb3d 590c 753d
00000330: 2249 91c0 1755 0541 a1b9 ea3e 033c a43f
00000340: 9a97 4bbf b524 4f40 743d da3f 29c0 2940
00000350: 4693 0ebe bf85 08bf 7d45 4d3f 215b e73d
00000360: 33e0 883d da94 a2bc 541f d0bb ea90 da3c
00000370: 1a68 c73c 0758 52c0 b9ac 903f cd07 84c0
00000380: bd0d 303e 9f56 1bc0 4fa9 0c40 0e87 66bf
00000390: c797 a8bf 4edc c8bf 14a6 2240 079f bcbf
000003a0: b734 e2be 951a 96be 9fca be3d 948f dd3c
000003b0: 8303 4dbe fa00 26bc a90f 54c0 24b5 f13f
000003c0: 4b57 68bf a677 58bf e996 ed3f 9d62 35bf
000003d0: 791d 3a40 036a 813f 6c98 4abe da4a e03f
000003e0: 70df 933e 3aa0 e5bd 4ea6 0a3d 35ea df3c
000003f0: 5131 633d 0a2c 87bc 7195 ffbd 524a c6c0
-6.701161 7.9628425 0.010783102 1.2051417 0.51817846 5.393493 2.8442469 1.8134532
0.09919727 -1.5009959 0.3055829 0.08457498 0.0005638332 0.029892417 0.029944576 0.07677608
0.039153825 13.200274 -4.1336765 -2.6885068 -2.2454438 -0.20430808 -0.9786776 0.6123425
0.06831467 -0.9555173 0.7476542 -0.5212242 -0.34018615 -0.22482847 -0.023869144 0.009246098
-0.19369501 -0.17546788 -9.056777 -7.465377 -1.1464219 -0.6448507 0.5639793 -0.44084898
-1.2806098 -0.0066413977 -0.006619648 -2.5735776 -1.1643243 -0.26321426 -0.18530183 -0.059444994
-0.03406552 0.022903189 -0.0049020774 11.239812 0.22940838 -5.196231 5.4365296 2.1579013
-0.6869595 -0.38446164 -0.24693188 0.048914634 0.69050914 0.6383688 -0.056338422 0.19194415
-0.02814261 0.11082978 -0.04195635 0.016136205 -8.850484 3.8524153 -1.983389 -2.212997
-2.5484009 -4.449691 0.075189136 -0.6783729 -0.2040646 -1.9942521 0.7392215 0.22104768
0.05809917 0.047168385 -0.12360265 -0.004615928 -0.0567118 7.1352086 0.61581105 1.1757907
-3.9052758 2.9021847 2.7537925 -0.23634937 -0.5033313 -0.25024593 -0.6381423 1.0448107
0.4498961 0.32283327 0.069337964 0.044536095 0.08898064 -0.03637319 13.501843 1.2513099
1.8090874 2.092802 -0.48321652 -3.222249 -0.37752286 0.68765557 -0.55118364 3.3511832
0.74115294 0.26441747 0.32242644 -0.08177584 0.017627472 -0.030184237 0.090777636 8.934601
-1.2101823 -6.0577307 5.8759103 1.0439847 1.7493737 1.9789768 0.019859223 -0.46027714
-2.7035906 -0.37718266 0.27882567 0.3289542 0.051559668 -0.13262103 0.0131471865 -0.02958365
2.0015953 -16.107948 0.7546384 0.6946493 1.3490064 -1.0633832 -0.0069607403 0.20791997
-0.34655085 0.0029105558 -1.5729773 -0.43509457 -0.21819408 -0.0085744485 0.054456588 -0.03251602
0.0018818642 -20.975653 -16.5907 -5.133375 -6.9153724 0.78078073 0.1726769 0.5402341
-0.18259636 -0.09408211 -0.2968113 -0.3600149 0.11977492 -0.010509489 0.05203499 0.016820071
-0.039638706 -0.010676506 -0.5409822 -0.014428118 1.544523 -0.56860995 2.0957992 5.273712
1.699399 0.15361306 -0.2582293 2.6885362 1.6247727 0.24739306 0.29171565 -0.005616644
-0.20656894 -0.07542502 0.0003975617 4.2521963 1.0075707 6.1834483 -0.16708422 1.7572316
0.39639968 -2.825568 -0.16018689 -1.0495563 1.36444 0.29027182 0.32544586 0.1340677
-0.032745 0.006261952 0.09944516 0.05982623 -4.5401773 8.333274 0.4584475 1.2830814
-0.795282 3.2366154 1.7050004 2.6523535 -0.13923368 -0.5332908 0.80184156 0.11296678
0.066833876 -0.019846369 -0.006351391 0.026680429 0.024341632 -3.2866228 1.1302711 -4.1259522
0.1719274 -2.427162 2.1978338 -0.9004983 -1.3171319 -1.5692232 2.5413866 -1.4736031
-0.44180843 -0.29317155 0.09315991 0.027046002 -0.20020871 -0.010132069 -3.3134558 1.8883405
-0.907582 -0.8455757 1.8561679 -0.70853597 2.9080489 1.0110477 -0.19784707 1.7522843
0.28881407 -0.112122014 0.033850007 0.027333358 0.055466954 -0.016500492 -0.124796756 -6.1965723

bias f4 [256]
00000000: cb5c 1ec0 af20 9fc0 28f5 a63f 5ac2 5fbf
00000010: 5d83 82c0 70e8 9cc0 0afd bac0 0bdc 52bf
00000020: 64b3 acc0 b7a3 a8c0 b696 c1c0 5f7d 65bf
00000030: b4e8 cac0 d308 55c0 574a cfc0 a6f3 d8bf
00000040: 4eb6 fabf eac5 c5c0 05c0 30c0 d330 55c0
00000050: 9b86 12bf 83a3 bfc0 af80 483f f926 90c0
00000060: ded3 9ec0 c4bc e7c0 266f c3bf f34b 3fc0
00000070: dc56 c5c0 7e26 233f 7429 3fc0 185e 0dc0
00000080: 5e25 5ac0 9663 bac0 e84d d6c0 4e8b cfc0
00000090: bc34 8dbf 3918 42c0 ce97 96c0 699e 0bc0
000000a0: 03ce c7c0 bd3f 20c0 172b a1c0 6fd9 963f
000000b0: f445 98c0 3cb0 cec0 57ea 95c0 e848 9abf
000000c0: 8d5c 91c0 ac47 b1c0 b341 8fc0 a35b 63c0
000000d0: 950b 9fc0 e8df a7c0 7aad 2fc0 ec11 d1c0
000000e0: 8aed aac0 46c1 6cc0 b5f3 923f 714e 46c0
000000f0: b5c3 88c0 44f7 b6bf e64e 46c0 59fe 9bc0
00000100: 4b3d eebf 9403 96c0 d43a 5340 cf45 94c0
00000110: 3268 61c0 f1e4 bf3f e70f d3c0 e411 003e
00000120: 021f bbbf 2d64 8cc0 0c8b 3fc0 04e1 6cbf
00000130: ca3b a9c0 ee4e d3c0 8c68 00c0 b97b aac0
00000140: abed a6c0 d1d0 89c0 8918 76c0 ce16 b8bf
00000150: d4f6 2540 d515 93c0 a64f 16c0 2c23 49c0
00000160: 4637 5cc0 0025 54c0 b949 643f 09f6 dfc0
00000170: b916 c3c0 9237 41c0 3a9d 7240 4c44 a8c0
00000180: 0afc 8bc0 07f1 92bf 1a6f a8c0 fa1c 74c0
00000190: 0428 56c0 68fd 7ec0 2cf7 98c0 ea52 9bc0
000001a0: 4ede a7c0 4c77 bd3e 5c42 bac0 1588 06c0
000001b0: 2585 87c0 28fe 433e d06b bdc0 cece 1bc0
000001c0: ee8f 34c0 4a8a 16bf 6394 47c0 e98e cac0
000001d0: 902f e2bc b450 22c0 8851 8ec0 0f53 b4c0
000001e0: 1c19 3bc0 05f8 e3c0 8e62 d33d 4eaa 4d3f
000001f0: d24a 9ac0 f716 1ac0 e66c 69be d76e 5fc0
00000200: 8927 ecc0 9d7f fec0 a7d5 c8c0 ac94 9abf
00000210: 6d3e d0c0 d54c 8fc0 25a5 13c0 a8e3 6ac0
00000220: bab3 38c0 669e 0cc0 714d e4c0 6326 c0c0
00000230: ba7a c2c0 5aeb dac0 64d8 91c0 ba8f 8ac0
00000240: dfc6 66c0 0657 6dbf f107 0bbf a6c0 8cc0
00000250: 7fb8 95c0 765c 07bf cbee 8c3c c1c0 a0c0
00000260: 9536 b0c0 a9d8 b5c0 c605 b7c0 f4db b6c0
00000270: cd4b 45c0 e148 c3c0 ec75 a5c0 2a7d ebbf
00000280: db8f 11c0 3073 62c0 784a 88c0 df63 14c0
00000290: 9b88 25c0 454d 00c0 1530 bac0 9fea 93c0
000002a0: 2c2e 86c0 63e2 56c0 060c 97c0 0973 acc0
000002b0: b768 8ebf d1c2 70c0 7520 85c0 75b7 b0bf
000002c0: 6309 0dc0 75a2 f1bf fbd7 59c0 ab2e a4c0
000002d0: 3271 56c0 9ad9 6bc0 1d35 49c0 016c 64c0
000002e0: 96cd f5c0 2a2d b6c0 301b c5c0 7132 f0be
000002f0: 7996 97bf 06a0 45c0 0ad4 b0c0 e53b 92c0
00000300: 2355 94c0 be6e 28be 1f6b b5c0 110f 44c0
00000310: bb81 12c0 4fde 98c0 1fcf c5c0 a54e 7ac0
00000320: 9b10 bcc0 b0c3 31c0 847c 9bc0 250a 4dc0
00000330: c3bc c8c0 1cdf 87c0 d8e8 ebc0 583a 1fc0
00000340: cc94 a3c0 d515 6cc0 61af b1c0 0ae4 93c0
00000350: 29f5 bdc0 ce95 08c0 af69 71c0 1193 84c0
00000360: 30a3 8e3e 761c 87c0 7544 e9c0 7e5a 8dc0
00000370: d4bf af3f 03ed 28be f426 15c0 ef6e abbf
00000380: 6b9f 9dc0 7904 a2c0 9c66 49c0 b07a df3f
00000390: 5410 69c0 e4b6 91c0 0076 38c0 856b a0c0
000003a0: 3da2 8cc0 ffac 9ec0 4d3f eebf 0071 97c0
000003b0: 3c53 85c0 16c6 2ec0 f5a1 29c0 b7ab 02c1
000003c0: ea27 9ac0 f925 3dc0 0b91 aac0 8bfc 93c0
000003d0: a19f bf3f 9260 bdc0 7ab6 80c0 3290 85c0
000003e0: 3ca8 9bc0 c2e5 68bf 5647 0dbf 42fc 28bf
000003f0: 0cfc ccc0 de0a c4c0 c84c a9bf 396f 59c0
-2.4744136 -4.9727397 1.3043566 -0.8740593 -4.0785356 -4.9033737 -5.8433886 -0.8236701
-5.3968983 -5.2699847 -6.0496473 -0.89644426 -6.340906 -3.3286636 -6.4778247 -1.6949356
-1.9586885 -6.1804094 -2.76172 -3.331105 -0.5723664 -5.98871 0.78321356 -4.5047574
-4.9633627 -7.2417927 -1.5268295 -2.9890106 -6.166853 0.6373061 -2.986905 -2.208868
-3.4085307 -5.8246565 -6.69701 -6.485755 -1.1031718 -3.0327284 -4.706031 -2.1815436
-6.243898 -2.5038903 -5.03651 1.1785105 -4.758539 -6.459013 -4.684856 -1.2053499
-4.5425477 -5.539999 -4.47677 -3.552468 -4.970164 -5.2460823 -2.7449632 -6.5334377
-5.3414965 -3.6992965 1.1480623 -3.0985377 -4.27389 -1.429421 -3.0985656 -4.8747983
-1.8612455 -4.687937 3.3004656 -4.6335216 -3.5219846 1.4991742 -6.595691 0.12506825
-1.4618838 -4.3872285 -2.9928617 -0.92530847 -5.2885485 -6.603385 -2.006381 -5.327603
-5.216512 -4.3067403 -3.8452475 -1.438196 2.5931902 -4.596415 -2.3486114 -3.1427717
-3.4408736 -3.3147583 0.8917499 -6.9987836 -6.096524 -3.0190167 3.7908463 -5.258337
-4.3745165 -1.1479806 -5.263562 -3.8142686 -3.3461924 -3.9842167 -4.7801723 -4.8538713
-5.245887 0.3700508 -5.8206005 -2.1020558 -4.235003 0.19139922 -5.9194107 -2.4344974
-2.8212848 -0.5880476 -3.1184318 -6.329945 -0.02761057 -2.5361757 -4.4474525 -5.635139
-2.9234076 -7.124026 0.10321532 0.8033799 -4.8216333 -2.4076517 -0.22795448 -3.4911401
-7.379826 -7.953078 -6.2760806 -1.2076621 -6.5076203 -4.478129 -2.3069546 -3.670145
-2.8859696 -2.1971679 -7.1344533 -6.004686 -6.0774813 -6.8412294 -4.557665 -4.3300447
-3.6058881 -0.9271091 -0.5430899 -4.3985167 -4.6787715 -0.5287546 0.01720371 -5.0235295
-5.506663 -5.682698 -5.719455 -5.7143497 -3.0827515 -6.1026464 -5.1706448 -1.8397572
-2.2744052 -3.5382805 -4.2590904 -2.3185956 -2.5864627 -2.0047162 -5.8183694 -4.6223903
-4.193136 -3.3575675 -4.7202177 -5.3890424 -1.1125706 -3.7618906 -4.160212 -1.3805987
-2.203698 -1.8877703 -3.4038074 -5.130697 -3.350659 -3.6851563 -3.1438668 -3.569092
-7.681346 -5.693013 -6.159569 -0.46913484 -1.1842796 -3.087892 -5.5258837 -4.5698113
-4.6353927 -0.16448495 -5.6693263 -3.0634196 -2.2891681 -4.7771373 -6.1815333 -3.91105
-5.877027 -2.7775688 -4.8589497 -3.2037442 -6.273042 -4.245985 -7.3721733 -2.487936
-5.1119137 -3.6888325 -5.5526586 -4.621587 -5.936177 -2.1341434 -3.7720754 -4.1429524
0.27858877 -4.222224 -7.2896066 -4.4172964 1.3730416 -0.16496663 -2.3305025 -1.3393229
-4.92571 -5.063046 -3.1468878 1.7459316 -3.6416216 -4.5535755 -2.8822021 -5.013125
-4.3948045 -4.9586177 -1.8613068 -4.732544 -4.1664104 -2.7308402 -2.65051 -8.166923
-4.8173723 -2.9554427 -5.3302054 -4.624578 1.497059 -5.9180384 -4.022275 -4.173852
-4.8642864 -0.9097558 -0.55186975 -0.66009915 -6.4057674 -6.1263266 -1.3226557 -3.3974135

weight f4 [256, 256]
00000000: 57c8 56bd 70b6 67bf 1b9e 413e 74d8 e63d
00000010: 1fa0 603e 3fb9 0bbd 260f d73f 550e c1bd
00000020: 05e7 2d3f 46f2 0abf c270 6cbf e9b8 5ebf
00000030: 29bc a9be a79c c3bf ef1d 5cbf 1956 86bf
00000040: 61ce 0dbd 0af5 85be ea12 043f 425d 4a3f
00000050: 6aab 043e 07b9 eebe f83c 46c0 8cd4 d43c
00000060: b6fc 5c3e a092 bfbf 2078 39bf 2b21 d6bf
00000070: b5ad ba3e be0d dfbd 84d6 e33e 40bc 00bf
00000080: cb43 c53e 0dd0 07bd 1f43 e63e 968a 06c0
00000090: 6849 ae3e a8a8 aebe a1da 43c0 f7cb 243e
000000a0: 2be7 78be a9c5 58be 40e3 d23e 8a2d 233e
000000b0: 94cc 9ebe e5a7 723e 402e dcbd 5eb9 163d
000000c0: f0f1 0b3f 2b17 47bf 7867 4a3f 7a4e 763e
000000d0: c951 99bf 508f a33e 49c2 88bf 4603 48bf
000000e0: 60c1 243d e917 373d affa cabe 7ade 153e
000000f0: bc61 06bf d42e 063f 4a62 06c0 6886 f63e
00000100: d228 ccbd 5a34 71bf 1e83 0dbe 0116 593d
00000110: 55ef 903d 993c 8b3d 63f0 a0be c997 a7be
00000120: a25d 0c3f ab70 273e 068a 92be 5da3 ca3e
00000130: 1474 54bf edc4 babe 8090 18bf b6bd 143f
00000140: dfda 37be 0254 45bf 739e c2bf 4892 0cbb
00000150: f088 87be 1e20 56be 8be4 a33c d525 cfbe
00000160: 7048 ec3d 64ab 13bf 263f bdbe 40c2 f7bd
00000170: 5cef 25bf 4f61 d1bf 3d2e 303e 1219 e7bf
00000180: 68a5 f83d 9d1e 2a3e 2adc 8dbf 1765 403f
00000190: bb3d f03d ae40 493e 2c04 5ebf 0588 ec3e
000001a0: acc0 8d3e c104 b43e db6d 2abf 86c3 92be
000001b0: 74fc 513e 1847 a7be a6d3 5a3f a795 1abe
000001c0: 261e 4abf c0a5 17be f3eb 53bf a149 44bf
000001d0: ae36 763f 4256 5abf 6dcc 97bf ca25 83be
000001e0: 6000 fbbd 8045 e8bf 3135 ab3d 39d0 33bd
000001f0: f735 4fbe b625 54bd 112e 5fbe ed5b 1bbd
00000200: 9d8a f8bf a40c 62be 886a 7abf 2940 fdbe
00000210: 77b1 103f 18f3 953d 5a9a 2e3e 46b5 88be
00000220: b6c0 703b 84dc a7bf 08e0 2dbf 7ec6 bdbe
00000230: 40cd 783e fbdf 6dbe 6396 71bf 13da 6ebd
00000240: 25df cdbe 72e6 053e 17de 5cbf d5db d2bf
00000250: 7d3c 1b3f 3057 3bbe 21a2 06bf ac14 b5bd
00000260: 5252 553e e208 ed3d 00cd 1dbf b0c5 bb3e
00000270: 61fd 40be bb4d f8be 7fa5 11bf be67 90bf
00000280: 6c3b adbe b2d6 8cbf 066e e7be e680 313f
00000290: bf23 f3be d218 c7c0 046b 423e 16a8 723e
000002a0: c022 18bf 8dbe f03e c76a 353e 2905 83be
000002b0: c8ae 4bbe 6117 2b3e 1f4b 1d3e ae0b 32be
000002c0: e55b 90be e82a 433a d066 c9be 1952 013e
000002d0: cbd4 1abd 984e 1a3e 0e7f 53be 5fa4 af3e
000002e0: 40e2 8bc0 5825 9d3f f5c6 7f3e 8c3a 213e
000002f0: 001d a6ba f808 0bbe 4c76 e03d 5a54 53bf
00000300: 3911 18bf 251a f1be b1e3 adbe 26a8 2bc0
00000310: a0e3 b4bd 43c5 233e b799 6a3e deb0 88be
00000320: ef41 9d3e 28e9 2b3e f752 55be c07c 55bd
00000330: 6658 f7be a3c2 0f3e 4394 2e3e bb8d 673f
00000340: 6c32 16bf fe04 683f 3ce0 b1bf 88d8 cabf
00000350: 5a8c aa3e d71b 60bf e1d5 3bbe c5a8 93be
00000360: 8f8a b53e 9d8a 403f 0d8e 9e3b 4cd3 21be
00000370: c92f 33bd be8e 023f c4a3 a8be 2a57 fa3d
00000380: a7a0 643f e905 48be d7b1 1a3f 523c 353e
00000390: 99dc c2bf 357e 49be adbc eebe d80e 18be
000003a0: e204 6abd 64e8 153f e0b2 8a3d 1f87 44be
000003b0: b4af 953e 1a6e 35c0 6b83 043f 120a 03c0
000003c0: 5886 6f3f e35e e3be a304 84be 2b2e fabf
000003d0: 8d6d 293e d092 82bf 336a 043f 3618 4bbf
000003e0: 45d0 c2be c216 9f3d 1547 9b3d 05b8 ae3c
000003f0: 2bc8 e73d 27ad 95be 18b8 ee3e 5688 353e
-0.052437153 -0.9051275 0.18907969 0.11271754 0.21936081 -0.03411221 1.6801498 -0.09426562
0.6793063 -0.5427593 -0.92359555 -0.870009 -0.33151367 -1.5282182 -0.85983175 -1.0495025
-0.034620646 -0.26163512 0.5159136 0.7904855 0.12956014 -0.4662554 -3.0974712 0.025980256
0.21580777 -1.4966621 -0.7244892 -1.6728872 0.36460653 -0.10891293 0.444996 -0.50287247
0.38528284 -0.033157397 0.44973084 -2.1022086 0.3404038 -0.3411305 -3.060219 0.16093431
-0.24306934 -0.21169151 0.41189003 0.1593534 -0.31015456 0.23696859 -0.10751009 0.036797874
0.5466604 -0.77769727 0.7906413 0.24053374 -1.1978084 0.31945276 -1.0684291 -0.78129995
0.04022348 0.044700537 -0.3964438 0.1463565 -0.5249288 0.52415204 -2.099749 0.4814942
-0.09968723 -0.9422051 -0.13819548 0.0529995 0.07076899 0.067986675 -0.314334 -0.3273299
0.5483037 0.16351573 -0.2862093 0.3957776 -0.8298962 -0.36478367 -0.5959549 0.58101976
-0.17954586 -0.7708131 -1.5204605 -0.0021449495 -0.26471663 -0.20910689 0.020006439 -0.4045855
0.11537254 -0.57683396 -0.3696224 -0.12097597 -0.6481836 -1.6357821 0.17205139 -1.8054526
0.12140924 0.1661324 -1.1082814 0.7515425 0.11730524 0.1965358 -0.86725116 0.46197525
0.2768606 0.35159877 -0.66573876 -0.28664798 0.2050646 -0.32671428 0.854792 -0.1509615
-0.7895225 -0.14809322 -0.82781905 -0.7667485 0.96177185 -0.8528787 -1.1859261 -0.25614768
-0.12255931 -1.814621 0.08359755 -0.04389975 -0.2023543 -0.051793776 -0.21794917 -0.037929464
-1.9417301 -0.22075135 -0.97818804 -0.49463013 0.5652079 0.07321757 0.17051068 -0.267008
0.0036735958 -1.3114171 -0.6791997 -0.370655 0.24297047 -0.23229973 -0.94370097 -0.05831344
-0.40209308 0.13076189 -0.8627638 -1.6473337 0.6063917 -0.18294978 -0.5259114 -0.088418335
0.20832184 0.1157396 -0.6164093 0.3667426 -0.18846656 -0.48496804 -0.5689315 -1.128166
-0.33834398 -1.100302 -0.4520113 0.6933731 -0.4748821 -6.22178 0.18986136 0.23696932
-0.59428024 0.4702038 0.17716514 -0.25589874 -0.19890893 0.16708137 0.15360688 -0.17387268
-0.2819511 0.0007445053 -0.39336252 0.12628974 -0.03780059 0.15069044 -0.20653936 0.34305093
-4.3713684 1.2277021 0.2497824 0.1574499 -0.0012673438 -0.1357764 0.10960063 -0.82550585
-0.5940128 -0.4709026 -0.33962777 -2.682138 -0.088324785 0.15993218 0.229102 -0.2669744
0.30714366 0.16788161 -0.2083243 -0.052120924 -0.4830963 0.14039092 0.17048745 0.9045064
-0.5867069 0.9063262 -1.3896556 -1.584733 0.33310205 -0.8754248 -0.18343307 -0.28839698
0.35457274 0.7521151 0.004838711 -0.1580326 -0.043746743 0.5099906 -0.32937443 0.122236565
0.89307636 -0.19533505 0.6042761 0.17698792 -1.5223571 -0.1967705 -0.46628323 -0.14849412
-0.057133563 0.58557725 0.06772399 -0.1919217 0.29235613 -2.834845 0.5176303 -2.0474896
0.9356437 -0.4440833 -0.25784788 -1.9545339 0.16545697 -1.0201054 0.5172455 -0.7933382
-0.38049522 0.077680126 0.07581917 0.021327982 0.11317476 -0.29233667 0.46624827 0.1772779

bias f4 [256]
00000000: cb25 2940 916b aebd bf72 4e3e 1c42 a73f
00000010: a0f1 73bd 452a 583f cac6 ea3f c680 a7bd
00000020: a589 9cbd 6122 83bf 3a6b 0440 766d e1bd
00000030: 14bd 983c 7ae3 05be abb1 01c0 cf3d a0bd
00000040: 8678 13be 2337 04c1 0dd3 773f b647 c7bd
00000050: e3f7 2fbe 65c6 52c0 b93e ddbd 2cdd d0bd
00000060: ea8e 6bbf c7c2 35c0 4851 aabd 0025 c8bd
00000070: a726 e9bc ca7f a33e f90e 17be 384d 6dbe
00000080: cdb9 9dbd 375f e7be d067 21be 7057 35be
00000090: 510c dcbd fced 6a3e a601 59bf 0bb9 91be
000000a0: 7783 8c3f f943 82be 10a9 2440 9938 11bd
000000b0: dc7a 89bd 34dc aac0 fff9 ab40 6692 0ebe
000000c0: f13e 983f f379 4bbe 01d5 d3bd 4d89 fabd
000000d0: bdc5 5fbd f5b9 b63f be27 c2bd 7cdc 87bf
000000e0: 03d4 7fbd 8952 8fbe 4809 ebbe 2778 0fc0
000000f0: 3aa5 c03f dc80 8bbd 287c 07be 047f b0bd
00000100: c771 0bc0 7b2e 20be 10c9 33bd c75a 0bbe
00000110: 9518 8f3f a136 e5bd 118c c1bd 0a54 b0be
00000120: dd7f f8bc f94a edbf 32aa 5fbf eb4e a0bf
00000130: 59d1 8f40 1c0f dbbd 1bcd 90bd 5837 a2bc
00000140: 8615 ffbd 2dd2 b3bd e4cf 39be a399 3fbe
00000150: 1c72 bebd d7b2 b2bd 5c3e 1bbe 08b7 a6bd
00000160: be4c 98bf 8bc0 b6c0 c11c 19be caf8 00c0
00000170: 2058 28bf 3e1f 45c0 7659 e5bd f29b 4bbe
00000180: 9732 46bd e556 23be 44c0 2abf ad6c 21be
00000190: b285 da3d a47b 14be 31fa 3fbe 513d 10be
000001a0: 5b28 9abf a71a 8f3d 5488 4fbd 0573 1dbe
000001b0: a236 26be 856f f03f 2b6a d7bd 9ae3 33be
000001c0: 0780 05be cffa 38c0 063c a5bd db87 2abe
000001d0: 8eaa b4bd bc1f 06bf c8cf 0940 e25b 1a40
000001e0: 2d4c d8be 8447 04be 0b90 ab3f 1a47 aebf
000001f0: 7821 62bd d596 00be fbae 3dbe a067 5cbd
00000200: 85ef 0340 ed78 c4c0 f6ba 3d40 8caa a9bd
00000210: f224 d5bf 1096 10be 5f2f d3bf 979d a4be
00000220: 6ec4 54bf b97b dcbf a3cf 08be bfd0 b6bd
00000230: ecfa ac3f bcec 813f 1709 a7c0 9933 ac3f
00000240: 17f5 2ebf 4481 a23f 796e 91bf 5565 84bf
00000250: 5482 943f d428 20be 1f7a 83bd 1f4d a9bd
00000260: 39fa 44be b2af 20be 7285 0fbe d920 a4bd
00000270: e2fc fcbc a433 00be 864c 0740 7708 80be
00000280: 8ae2 f9bd 8cd7 ba3c 04c7 1640 f0c3 cabd
00000290: db7e bf3f 85a6 3240 a296 07c0 e70e b4bd
000002a0: 2cf4 2abe 0d21 cbbf 2747 35c0 6c83 26bc
000002b0: f5c7 79bf f034 12bf be7a a9be de72 373d
000002c0: b3fc 15be 9bbc 16be 936a 5ec0 bf2c 3fbe
000002d0: 9ec8 c2bd 5355 0dbe bc57 69bd ca5d 3bbf
000002e0: ee4b 22bd 430a 04be e191 ef3f 665f f7bc
000002f0: d8eb 2abe d611 0bbf d497 3cc0 9ad4 2740
00000300: 54c6 1bbe b54c 28be 2a5b 6cbe 94aa ff3f
00000310: bf5a 8ebf 14fd 1abe b707 1640 a846 7bbf
00000320: c3a2 2cbe 679d 15be 82a6 a5bd 8baf d8bc
00000330: 2ddf a9bd 5095 9cbd c997 febd d7f5 4b3f
00000340: 4f88 10be 5bd5 bfbd b7cc b2c0 ee39 5dbf
00000350: 6a42 e8bd 05bc 5abf 39af 24be 0016 05be
00000360: b105 57be 8843 d1bd 5e79 3bbd 869c 0abe
00000370: 35b9 17be 5d5d dfbd 06b9 cabf 40b1 5bbe
00000380: 5572 9a3f e738 513f 66cd a93f f1fe 12bd
00000390: 1515 82bf 8c94 babd a7a7 18be e80d c9bf
000003a0: 0293 79bd ce6e 13be 1817 bbbd e671 04be
000003b0: 0e43 12be 7dd0 e9bd 156d 07be 8c54 1d40
000003c0: ec83 0ebe 7489 08bd 8297 96be ca3a 87bf
000003d0: 1a2e 0bbe da89 cabd c3e1 0540 0239 2640
000003e0: 338e f0bf 8973 9cbf 3ec8 02c0 a8e8 31bd
000003f0: 64a8 80be 3715 e4bd 2b9c babd c21b 0dbe
2.6429317 -0.085166104 0.2016096 1.306705 -0.059556603 0.844395 1.8341916 -0.081788585
-0.07643441 -1.0244867 2.0690446 -0.11007206 0.018644847 -0.13075057 -2.026469 -0.07824289
-0.14401445 -8.263461 0.9680641 -0.09730475 -0.17184405 -3.293359 -0.10802979 -0.10198435
-0.92014945 -2.8400133 -0.083162844 -0.09772682 -0.028460814 0.31933433 -0.14751805 -0.23173988
-0.07701454 -0.4518983 -0.15762258 -0.17709136 -0.10744537 0.22942346 -0.8476814 -0.2846149
1.097762 -0.25442484 2.5728188 -0.035454366 -0.06712887 -5.3393803 5.374267 -0.13923034
1.1894208 -0.19870739 -0.10343362 -0.12233219 -0.054631937 1.42755 -0.094802365 -1.0614161
-0.06245805 -0.27992657 -0.4590552 -2.2417085 1.5050423 -0.06811687 -0.13230956 -0.08617976
-2.1788194 -0.15642731 -0.04389292 -0.13608848 1.1179377 -0.1119206 -0.09450544 -0.34439117
-0.030334407 -1.8538505 -0.8736907 -1.2524084 4.494305 -0.10696241 -0.07070371 -0.01980178
-0.12455277 -0.08780322 -0.1814571 -0.18710952 -0.092991084 -0.08725517 -0.15160507 -0.08140379
-1.189842 -5.711004 -0.14952375 -2.0151849 -0.6575947 -3.0800319 -0.11198704 -0.19883707
-0.04838809 -0.15951116 -0.66699624 -0.15764113 0.106700316 -0.1450029 -0.18747784 -0.1408589
-1.2043566 0.069875054 -0.050667122 -0.15375908 -0.16231778 1.8784033 -0.10518297 -0.17567292
-0.1303712 -2.8903081 -0.08068089 -0.16653387 -0.08821593 -0.5239217 2.153307 2.411858
-0.42245618 -0.12917906 1.3403333 -1.3615448 -0.0552077 -0.12557538 -0.18523781 -0.053809762
2.061494 -6.1397614 2.9645362 -0.08284482 -1.66519 -0.14119744 -1.6498832 -0.32151482
-0.8311223 -1.7225257 -0.13360457 -0.08926534 1.3514075 1.0150371 -5.2198596 1.3453246
-0.6834273 1.2695699 -1.1361839 -1.0343424 1.1602273 -0.15640575 -0.06419777 -0.08266663
-0.19236077 -0.15692022 -0.14015749 -0.08014078 -0.030882303 -0.125197 2.1140456 -0.25006458
-0.12201412 0.022807859 2.355897 -0.09900653 1.4960588 2.7914135 -2.118569 -0.08791905
-0.16694707 -1.5869461 -2.8324678 -0.010163169 -0.97570735 -0.57112026 -0.33101457 0.04478728
-0.14647178 -0.14720385 -3.4752548 -0.18669413 -0.09510921 -0.1380208 -0.056968436 -0.73189986
-0.039623193 -0.1289454 1.8716394 -0.030196857 -0.1669153 -0.5432409 -2.9467669 2.6223512
-0.15212375 -0.16435511 -0.23081651 1.9973931 -1.1121444 -0.15135604 2.3442209 -0.9815469
-0.16858964 -0.14610825 -0.080883995 -0.026450893 -0.082945205 -0.076456666 -0.124312945 0.79671997
-0.14114498 -0.09366866 -5.5874896 -0.8641652 -0.113407925 -0.85443145 -0.16082467 -0.12996674
-0.20998265 -0.10217959 -0.04577004 -0.13536271 -0.14816745 -0.109064795 -1.5837715 -0.21454334
1.2066141 0.8172745 1.3265808 -0.035887662 -1.0162684 -0.09110364 -0.14907704 -1.5707369
-0.060931213 -0.14397737 -0.09135264 -0.12934074 -0.14283392 -0.11416719 -0.13225205 2.4582853
-0.13917512 -0.03333421 -0.29412466 -1.0564816 -0.13591805 -0.09889574 2.0919044 2.5972295
-1.8793396 -1.2222759 -2.0434718 -0.04343477 -0.25128472 -0.11136859 -0.09111818 -0.1378012

weight f4 [6, 256]
00000000: d213 433d 302b 973d e30f 4b3c f89e e23c
00000010: 951d 7cbc 7e16 07bd 211f 453e c672 443d
00000020: ae70 163d d6d3 903d efe7 07bd 68cb ab3d
00000030: 9cc7 dbbc 9ad8 f73c 03a3 c7be ba5c b7bd
00000040: c818 77bd 647d c73d b2d4 89bd 01c7 a039
00000050: 1b05 20bd 7696 0abe 4c5c 073d f6ec a43c
00000060: 0a16 503d 08e3 3ebe e40f 6fba ec58 86bd
00000070: 9789 27bb 315a bc3d 99fc 993d 9994 12bd
00000080: d1cc 1d3d daea d7bc dcd4 c5bc 7dbf ac3d
00000090: ed96 adbd eb14 1fbe 6ce9 6cbc af51 1f3d
000000a0: 2bfa 40bd c443 f2bc bc44 c3bb a89f c83b
000000b0: 7550 2d3d 1012 67bd 6b6d eabe bf2d 04bd
000000c0: 8baf 853c 315c bd3b d19b 34bd cfd3 3a3c
000000d0: 2362 073e fb0b 9d3e 0a2e 083d b02e c2bd
000000e0: 2f8c c8bd db88 3a3c 9ba7 4ebe f46c 86bc
000000f0: eda9 023e abc6 0ebd a2f1 bc3c 4c7e 99bd
00000100: badc f7bd db15 5ebd 8523 8ebc 6137 e6bb
00000110: e2b1 95be c27b a03c 97c0 4c3d 1534 723d
00000120: 0b70 20bd 4590 0abc c9b1 e63b e62e 98be
00000130: e3a7 833e 1254 ac3c 8d42 783c 69b8 313d
00000140: 6f7d 15bb 3fe4 bfbd 756b 383d 86c9 c73a
00000150: c461 e03c 08fe 7fbd e0d3 853c af21 a1bd
00000160: 940e 82bd 4798 143f d372 a7bc a046 acbd
00000170: 5562 bbbc 6186 913d 3fd8 f4bb bc5e a3be
00000180: 9bc6 48ba d130 c2bd b7fc 59bd b163 a7bc
00000190: c155 f53c 112c 153b e413 b73d 5a3e 8c3a
000001a0: 1538 dabf 9e31 4ebe 9395 25bd d478 cb3c
000001b0: 0061 aa3c d32a dcbd 6cc4 f13c dcfd 533d
000001c0: 4bed ba3d f9df 8fbb 2e14 cf3c 76ea 983d
000001d0: f440 fc3d e6a5 0a3e 99e8 683d b218 44bf
000001e0: e56b fcbe 5a71 a93c aab4 833a c2ad 393e
000001f0: 13bb 05bd d836 523e 877f 763e 2889 24bd
00000200: 0a9b 9abd 09ea 8dbe 37cf 803e f4f2 033d
00000210: 21e3 2d3e ba1c 7abe dda8 853e b031 8fbb
00000220: 3b7b 7fbd 6a2b 25ba e5a8 613d cd9e dabc
00000230: a7af e2bd cfa8 9a3d 6175 c3bd 9b9e 83bd
00000240: 9209 6b3f fa51 8a3d dded 6fbe dfbd 89be
00000250: b341 fb3c dbe1 d83c 0ca9 f7bb 9c37 e33a
00000260: 4521 debe e99b 8f3d 15cc 11bd 021d 8f3c
00000270: ebdd ed3d 0920 33bd 53cc 6bbe b148 c3bd
00000280: 99c3 19bd 72ba 1b3d 37a8 10bd 2ff2 283d
00000290: 8240 ebbc da59 09bd 2f4d a73d 0505 debc
000002a0: 51ea 0dbe d2b0 61bf 12c4 20bf 404d 00bd
000002b0: 899f f43d 1588 5dbd 4434 e2bc ef8c 243c
000002c0: 9fc9 fe3c 9c3c b43b 9ade 113d e43e 9c3d
000002d0: 2d31 6c3d 9323 683d a9a2 c93d 4b56 e63c
000002e0: db5d f3bc b670 bc3c d1c0 143e 36b5 e9bd
000002f0: cf10 8d3d 49ec 523d c9d5 d93c 03b5 483f
00000300: 87b8 e33c c6bc ea3c 9c6b 843d 95e8 1bbc
00000310: 76da 5fbe f52b b53c 0137 973b 7f63 12be
00000320: e950 7cbb 3888 07be 69ef e6bd f973 fa3c
00000330: 286d 783c 80f6 1abd 71b3 cbbc 6b8c 053e
00000340: 3da6 a13c 4308 5fbc 8735 13be 0aaf 68be
00000350: ad24 6e3d 57a9 3ebe 0cdb 4e3b dd94 86bd
00000360: 84c6 b23d 6d90 133e 5f7b f7bb 72de 85bd
00000370: efa8 46bd 226d c63c 6bc3 c93e f5cf 4abe
00000380: c957 423e 7f29 11be 5110 92be 59e0 883d
00000390: 0c93 2e3e 8dac 84bd 3539 13bd 69d6 06bd
000003a0: b65c 543e f4e2 e0bc 3d05 14be ab19 6d3d
000003b0: bbf7 4fbd 13e6 c83c 7e9f 833c 9fe8 15bd
000003c0: 4459 053c e8e2 a23d 97b8 d53e b02b f73d
000003d0: c146 fa3d 74ff 4cbd 4b5e 2c3d 2f68 7abf
000003e0: 3db8 46bd 2211 c0be bb69 063e 5c8b 47bd
000003f0: f372 0f3e aed3 57bd 827b 6e3d a29b e03d
0.047626324 0.07381284 0.012393924 0.027663693 -0.015387912 -0.032980435 0.19250156 0.04796102
0.036728553 0.070716545 -0.033180173 0.08388406 -0.02682858 0.03025465 -0.38991556 -0.08953233
-0.060326368 0.09740713 -0.067300215 0.00030665848 -0.03906737 -0.13533959 0.033047006 0.020132523
0.050802268 -0.18641293 -0.00091194944 -0.06559929 -0.0025564188 0.0919689 0.07518882 -0.035786245
0.038525406 -0.026357103 -0.02414935 0.08434961 -0.084760524 -0.15535323 -0.014459949 0.03889626
-0.04711358 -0.029573329 -0.0059591215 0.006122548 0.042313058 -0.05641371 -0.45786604 -0.03227019
0.016319057 0.0057788123 -0.04409391 0.011403038 0.1322103 0.30673203 0.03324703 -0.09481561
-0.09792363 0.011385168 -0.20181124 -0.016409375 0.12760134 -0.034857433 0.023064438 -0.07494792
-0.12102647 -0.05422006 -0.017350921 -0.0070256446 -0.29237276 0.019590262 0.049988355 0.0591317
-0.039169353 -0.008457248 0.0070402366 -0.2972328 0.25714025 0.021036182 0.015152586 0.043388758
-0.002281036 -0.09369706 0.045024354 0.0015242554 0.027390368 -0.062498122 0.016336381 -0.07867753
-0.06350437 0.58044857 -0.020440495 -0.08411908 -0.022874037 0.07105709 -0.0074720676 -0.31908214
-0.0007658989 -0.09481967 -0.053219523 -0.020433279 0.029948117 0.0022761861 0.08939341 0.0010699735
-1.7048365 -0.20136115 -0.04042585 0.024837889 0.020798206 -0.107503556 0.029512607 0.05175577
0.09127291 -0.0043907133 0.025278177 0.07466595 0.12317076 0.13539848 0.056862447 -0.7660018
-0.49301067 0.020683933 0.0010048349 0.1813269 -0.03264911 0.20528734 0.24072085 -0.040169865
-0.075491026 -0.27717617 0.25158092 0.03221412 0.16981174 -0.24425021 0.26105395 -0.004369937
-0.06237338 -0.00063007197 0.05509271 -0.02668705 -0.11068659 0.07551729 -0.095438726 -0.06426736
0.9181148 0.06753917 -0.23430581 -0.26902673 0.030670976 0.026474884 -0.0075579938 0.0017335298
-0.43384758 0.070121594 -0.03559502 0.017469887 0.11614593 -0.043731723 -0.23027162 -0.09535349
-0.037540052 0.038019605 -0.035316672 0.04124659 -0.028717283 -0.033532955 0.081690185 -0.027102003
-0.13858916 -0.8816043 -0.6279918 -0.03132367 0.119444914 -0.054084856 -0.027612813 0.010043367
0.031102 0.0055003893 0.03561268 0.07629183 0.057664085 0.05667455 0.09845478 0.02811732
-0.02970784 0.023002964 0.14526679 -0.11411516 0.068879716 0.05149487 0.026591199 0.784012
0.02779795 0.028654467 0.06465837 -0.009515901 -0.2186068 0.022115687 0.0046147113 -0.14295767
-0.0038500375 -0.13235557 -0.112761326 0.030572878 0.015162744 -0.037832737 -0.024865838 0.13041846
0.019732589 -0.01361281 -0.14375888 -0.22723022 0.058140446 -0.18619286 0.0031563668 -0.06571362
0.0872927 0.14410563 -0.007552549 -0.06536569 -0.04850095 0.02422196 0.39406905 -0.19805892
0.189788 -0.14175986 -0.28528073 0.06683416 0.17048281 -0.06478224 -0.03594323 -0.03291932
0.20738491 -0.02745197 -0.14455123 0.057885807 -0.050773364 0.02452377 0.016067263 -0.036598798
0.008138958 0.07953435 0.41742393 0.120688796 0.122205265 -0.050048307 0.042082112 -0.9781522
-0.048515547 -0.3751307 0.1312627 -0.048716888 0.14008693 -0.052692108 0.058223255 0.109671846

bias f4 [6]
00000000: ae00 183f 5257 48bf 1ace 66be 42e7 c93b
00000010: e4ad a8be f35a c1bd
0.5937604 -0.7825824 -0.22539559 0.0061616013 -0.32945168 -0.09441175

weight f4 [6, 256]
00000000: 8e6d 1c3d bdec 143c a178 c5bb 029f a83c
00000010: 86a3 e83d c240 b1bb 5173 573d 4197 eb3d
00000020: 4115 b53a eb4c d83c fe0f b4b9 bcd9 393d
00000030: 32a3 c93d cea9 bfbd 545d c53e 1889 ba3d
00000040: 5972 aa3d ace3 7f3c af93 e83d 0076 08bc
00000050: 70a8 573b 8df9 2abd 06bd 34bc 2436 b73d
00000060: 0b7f 8b3c d6e3 aebc bb84 e4bb 7f8c bd3c
00000070: 401b 303c 036f 7d3c 18ef 2f3c f1df 093e
00000080: 3eb1 093e 7d86 4ebc 68ca 4e3e fd47 c43c
00000090: 3131 993c d37c a5bd 14d1 9f3a 148a 073e
000000a0: a8bb c9bc e781 2a3e bd0a b7bc 3aa6 d33c
000000b0: bd98 afbd c8dd d1bc 66de 8e3d 01b4 b53c
000000c0: 63b0 7bbb 60bb 3c3e c867 043e c38a 343e
000000d0: 07d8 cebd bc09 983c d5ad 7a3d 069b 873c
000000e0: 4aa8 033e 8799 3c3e 9430 183d 2274 6cbc
000000f0: 8359 123d 3af5 863c 4cc8 513d 465a 833d
00000100: 775a 56bd e3ca 943c 0456 5a3c 629b 3f3e
00000110: e834 60bc d484 743c e29e 22bd bf3d 79bb
00000120: 36f8 3b3c caf4 c93c 4056 9ebc e84c 1c3e
00000130: 8376 883d d958 383d 1814 323d d2e4 fcbb
00000140: 06f7 373c f58e 9d3c c677 9a3e 3308 87bd
00000150: d947 9a3d 0135 9cbd 58f7 f83d 0d98 2fbd
00000160: bdde 1fbc 55be 72bd 61a8 3dbc ae0f 98bd
00000170: f6e7 2f3c f041 813d ce96 0fbd b7fc 703e
00000180: dc40 c63d 43f2 9a3b 9845 9e3c bd9c bd3d
00000190: f6ed bfb9 72e6 cf3d 7330 0b3e 76b0 ccbc
000001a0: aec9 043f 0d9a 9b3d 61f2 6f3c 2d02 16bc
000001b0: 307d a4bd 791b 2d3d d4f3 8dbd 2e03 89bc
000001c0: aae9 d73d d566 d83e caaa 5ebd c72e a23d
000001d0: dfb9 c63c dcf4 313d 6911 253b fe4f 05bd
000001e0: bc58 533d a354 a8bd 715a 323c 96b3 a33e
000001f0: 333e 823b bbdf ff3c 7bc0 a93e 55ad 8f3d
00000200: 6ce0 be3c 881c 953d 9db4 5d3d 9dac 763d
00000210: 98c1 3c3e 3868 c63d 6c7d 263d 92b5 6b3b
00000220: 1dce 8f3c 1023 983b ef7a f83d 6afe 99bd
00000230: 3150 45bd 5d17 e13c 3da2 5bbd 30f7 eebc
00000240: 5e9f 8f3e f99f 4d3c 5f72 5b3e 7167 e9bc
00000250: 7b50 a9bc bc51 e93d 2b08 263d 5cc8 3c3d
00000260: 5def 94bd bcde 1e3e b9b2 d9bb 15dd 763d
00000270: 226b 4b3e b32b 4a3c 70e4 603d 6240 003e
00000280: 1558 013e 97e5 473d 2ed1 d6ba 2dd0 293d
00000290: 8e8a 063d f21b f93b b80b c4bd 576e f13d
000002a0: bc2c 99bd 3d0d d63e 8abe 693c d263 0b3d
000002b0: 9383 b63e 586f a93c fd76 0a3e 8c95 a6bd
000002c0: aee7 bbbc 6831 26bc 423f f6ba ec82 753d
000002d0: cef9 b7bc 6c6b 103e 59fb 04b9 6968 8d3b
000002e0: 7b91 cd3d 5353 9fbc bfac 2f3d 589a 013e
000002f0: c7d1 fb3c 12f4 843e 367c 6c3d 497f 08be
00000300: e05a b53d da3d 2e3d 7e07 f13d 3703 7b3b
00000310: 46a9 343e 391a d53c 366f 1abc 6f18 793e
00000320: 8446 ab3d 6690 9abd 649f 203d 7203 14bd
00000330: f743 153d 40d2 a6bc f43c a73d d47b c43c
00000340: 3e86 c13c fd54 6b3d b2de a4bd 3302 1b3f
00000350: 95d2 f43d 8532 623d 0054 73bd 28f5 dabc
00000360: d870 853c 0481 ea3d 1b27 8b3c 917a da3d
00000370: 57f3 d23c 54bb 0d3d d2b2 cf3e 52cc 803e
00000380: 433a 3c3d a47e fbb8 d713 773e 2a69 063d
00000390: 4665 6dbd d4db a43d 1c88 1cbd e5b0 89b9
000003a0: 3a23 7e3e ab39 633d 9979 e43c 7bb0 9b3d
000003b0: 1b2b 923d 3c9a e13d 2b34 843d 660f 4cbc
000003c0: 5def 1f3d cbb3 6f3d e7f3 8f3e 5cdd 643a
000003d0: 9d5e 9bbd a2c6 4cbd 7025 ce3c ecd9 b23d
000003e0: 7407 2fbb 721d c03e 85e1 af3d 1207 19bc
000003f0: 9e72 223e c045 2fbd 2f26 9c3c 022e e7bc
0.038190417 0.009089646 -0.006026343 0.020583633 0.113593146 -0.005409331 0.05260021 0.11503459
0.0013815538 0.026403865 -0.0003434419 0.045373663 0.0984558 -0.093585595 0.38547766 0.0910818
0.08322591 0.015618246 0.113562934 -0.008328915 0.0032906793 -0.041741896 -0.011031395 0.089458734
0.017028352 -0.021348875 -0.0069738305 0.023138283 0.010748684 0.015468362 0.010738157 0.13464333
0.13446519 -0.012605307 0.201944 0.023960108 0.018700214 -0.08080449 0.0012193047 0.13236266
-0.024625614 0.16651116 -0.022343988 0.025836099 -0.085740544 -0.025618449 0.06976013 0.02218056
-0.0038404695 0.18430853 0.12930214 0.17631058 -0.10099798 0.01855933 0.061200935 0.016553413
0.12857166 0.18417941 0.037155703 -0.014431985 0.035729896 0.016474355 0.05121641 0.06413703
-0.052332368 0.01816315 0.013326172 0.18711618 -0.013684489 0.014924247 -0.039702304 -0.0038031188
0.011472752 0.024652857 -0.019328237 0.15263712 0.06663229 0.045006607 0.043476194 -0.007717707
0.011228329 0.019233206 0.30169505 -0.06593361 0.07533235 -0.07627297 0.12156552 -0.042869616
-0.009757695 -0.059263546 -0.011575789 -0.07424866 0.010736456 0.06311405 -0.035055928 0.23533903
0.0968034 0.004728587 0.019320294 0.09258411 -0.00036607654 0.10151376 0.135927 -0.024986487
0.5187024 0.07597742 0.01464519 -0.009155792 -0.0803169 0.042262528 -0.06931272 -0.016725149
0.10542615 0.42265955 -0.054362096 0.07919078 0.024258552 0.043446407 0.002518738 -0.03254699
0.051598296 -0.08219268 0.010885821 0.3197295 0.0039747 0.031234613 0.33154663 0.07015482
0.023300372 0.072808325 0.054127324 0.06022321 0.18433225 0.09687847 0.040646955 0.0035966379
0.017554337 0.0046428517 0.12132823 -0.07519229 -0.04817218 0.02747696 -0.05362152 -0.029170603
0.28051275 0.0125503475 0.21430348 -0.028491708 -0.020668259 0.11392543 0.040535133 0.046089515
-0.072722174 0.15514654 -0.00664362 0.060269434 0.19865087 0.01233952 0.054905355 0.1252456
0.12631257 0.04880294 -0.0016389245 0.041458298 0.03284698 0.0076022083 -0.09572548 0.11788624
-0.074792355 0.41806975 0.014266619 0.034030743 0.35647258 0.020682976 0.13521953 -0.081339926
-0.022937622 -0.010143615 -0.0018787163 0.05993931 -0.022457983 0.14103478 -0.00012682135 0.004315425
0.10037514 -0.019448912 0.042889353 0.12656534 0.030739678 0.2596746 0.057735644 -0.13329805
0.08855224 0.042539455 0.11769007 0.0038301477 0.17642698 0.02601348 -0.009425929 0.24325727
0.08363059 -0.07547073 0.039214507 -0.0361361 0.03644177 -0.020363927 0.08165923 0.023984827
0.023623582 0.057454098 -0.08050288 0.6055023 0.11954228 0.05522396 -0.05940628 -0.026728228
0.01628916 0.11450389 0.01698642 0.10667909 0.0257508 0.03460248 0.40566117 0.25155884
0.045954 -0.00011992201 0.24128662 0.032815136 -0.05795791 0.080497414 -0.03821574 -0.00026262473
0.24818125 0.05547492 0.027890014 0.0760202 0.07137128 0.11015746 0.06455263 -0.012454843
0.039046634 0.058521073 0.2811577 0.0008730495 -0.075864054 -0.04999412 0.025164336 0.087329715
-0.0026707323 0.37522465 0.08587936 -0.009340065 0.15864035 -0.04279113 0.019061176 -0.02822018

bias f4 [6]
00000000: 8f9d 99bf 4d3a d9bf ec56 9cbf 9db2 e9bf
00000010: 4268 98bf d2f2 3dbf
-1.2001208 -1.6970917 -1.2214026 -1.8257633 -1.1906817 -0.7419864

weight f4 [256, 23]
00000000: 03ae a43f 3220 34c0 c2fe 7ac0 a778 dbbe
00000010: 2860 2340 fe89 2041 cee5 4ebf a8df c9c0
00000020: 20ba 31be e2ba bbbf 1d20 81be 690e 94be
00000030: 97f8 7fbe 4073 88bd f80a bc3e 97ed 6ebd
00000040: ce36 56be 944d 703f 1bcc be3f 66e9 94be
00000050: 1659 2840 898a 48bf 9115 ddbe e077 83c0
00000060: d6d2 e1bf 775c 2cbf 11fd 573f 8835 05c0
00000070: b63c 13c0 6ecb ac3f 9cbd 6abe c8a5 bdbe
00000080: 0073 b4bf 448a 5abd 8ae8 1d3e 8377 27be
00000090: 09a6 03bd 2b69 d8bd 0c81 933d 5aeb b33d
000000a0: ba13 b73f ede7 00bf c4cf 823f 4988 24bf
000000b0: 6e4b 4ebe 7b4d 093f eee2 4441 9aee a73f
000000c0: 5c85 e2bf e9c8 c13f 795a 83bf a1c1 03c0
000000d0: 0b56 df3f cf7d 13c1 4a5c 07bf 042d 4140
000000e0: 41c0 153f e79c cdbc 733d 793e 886b 58be
000000f0: 613e b3bd 1e5c be3d 08e5 003f 9e5f 5a3f
00000100: 196c eebf ea0f 04c0 5397 7cbd e40e 2240
00000110: 21aa ee3f 0331 52be 10a1 81c0 62b1 de3f
00000120: d644 6a3e ba82 b63f bb9b c0c0 2a2f da3f
00000130: 9186 dc3f c93a 65bf 182c 0840 bd49 d03f
00000140: 13a0 a63e 83c8 5a3e 4a8a f1bd cedd 373e
00000150: d10f b43d cbf4 f63c 7b00 1f40 b6c4 99bf
00000160: 874b c3bf 9fdd b5bf 4951 683e 5d51 7dbd
00000170: 0450 d3c1 1fdc 8dc1 cabc 38c0 1598 b9c0
00000180: ad9e 513f 2e5e abbf f94f 0a3f 0edc 023f
00000190: 2df4 073d c25c 2c3f cc57 083d 997d 57be
000001a0: c346 b4bd 0558 973d 599e 5bbc 817e 29bb
000001b0: 31ef 673c e3d1 5abf 13f9 30c0 3de0 143f
000001c0: 3198 243f 634f 5f3f 19f3 74be f763 693c
000001d0: 2fa5 bcbf 6620 54c0 a9a2 9ebf f8ec 5b40
000001e0: 88a9 b3c0 600c a340 c54d 8840 e43a eabe
000001f0: 62cb 0ec0 8a96 80be 22e6 e4bd 6f6b 87be
00000200: 4c08 6abd e75c bb3e 0500 82bd bdc7 9dbd
00000210: b272 7bbf e1e3 6ebf 8a05 98bf 11c1 4cbe
00000220: 4a92 ea3d ae39 a9bf 84e0 0bc2 e990 98c1
00000230: 225e 9bc0 0c01 00c1 7653 42bf 07b3 fb3d
00000240: 4b37 1abf cc71 9e3e 9a60 1abe fd9f abbd
00000250: a3e4 7b3f f5ec 263f b39e 783e a34f c53d
00000260: b04b 4e3c 3718 953d 6885 5dbb bb48 c8be
00000270: 1d3d 8abf 13ff a5bd 5050 27bf 92c5 7f3e
00000280: 84c0 7b3d 840d 8cbf d817 5840 71fb 9c40
00000290: 8730 f1bf 813e adc0 ee71 8040 abc5 35c0
000002a0: cd66 b03f 834f dcbf 27bb 0540 4b63 853f
000002b0: a2a9 603e 3626 873e c25d 2fbe 8dbb 773e
000002c0: 2e7f 393e efd1 563e 0ffc c13f bbd3 33bd
000002d0: 245b 6dbe 0774 763f 4096 34bf 0f4b b63f
000002e0: 732e c240 716d 5b3c 4517 e6c0 996d 4540
000002f0: 00d1 bbbd 27a4 e8c0 e385 b040 55fe 863f
00000300: 1903 babe 15a6 ad3f 5465 b43f 03fb b7bc
00000310: ef66 143e 6f64 25bd 2961 5e3f a7f2 9f3d
00000320: d8bc 33b8 915c 80be 9cce ab3f 3722 b33e
00000330: b547 99be 107b 9fbf 5c67 e43c a930 8741
00000340: c666 3c3d 72d9 4bbf 9ca8 143f 3f44 6fc0
00000350: 0707 66bf db40 253f 43a1 97bd 0846 853e
00000360: ed6e e4bf a308 45bf c92a 01be ff2d edbd
00000370: ebf3 833d fe36 30be 0835 1abe 6cc9 2ebd
00000380: 979a 22c0 355d 59bf 5cca 863e 2ddf b7bf
00000390: f9e0 99bf 218e 5ebe 1209 03c1 6e29 a9bf
000003a0: 5a47 ba3f 53a1 c0bf fea9 17c0 780c be40
000003b0: 7238 133f 962e 33bf 95a4 bcbf 053d 2f40
000003c0: 6b19 f1bf 2032 913d 2f75 a1bd 304b 41be
000003d0: 06b6 c43e 191b 28be d341 31be d923 82bf
000003e0: 968c 92bd 1037 88bf f0c7 21c0 bade 2040
000003f0: a03c 283f 1788 b9c1 0bf4 96c1 3b1e f940
1.2865604 -2.814465 -3.9217992 -0.42865488 2.552744 10.0336895 -0.80819404 -6.308552
-0.17356157 -1.4666407 -0.25219813 -0.28917244 -0.24997173 -0.06662607 0.36727118 -0.058332052
-0.20919344 0.93868375 1.4906038 -0.2908432 2.6304374 -0.7833639 -0.43180516 -4.108383
-1.7642467 -0.6732859 0.84370524 -2.0813923 -2.3005805 1.3499582 -0.22923893 -0.37040544
-1.4097595 -0.053354517 0.15420738 -0.16354184 -0.032140765 -0.10566934 0.07202348 0.08785124
1.4302895 -0.5035389 1.0219655 -0.64270455 -0.20145962 0.5363385 12.305403 1.311969
-1.7696948 1.5139438 -1.0261985 -2.0586932 1.7448133 -9.218215 -0.52875197 3.0183725
0.5849648 -0.02509923 0.24339847 -0.2113477 -0.08752132 0.09294914 0.50349474 0.8530215
-1.8626739 -2.0634713 -0.06166775 2.5321589 1.8645669 -0.20526509 -4.050911 1.7397883
0.22877821 1.4258645 -6.01901 1.7045643 1.7228566 -0.89542824 2.1276913 1.6272503
0.32544002 0.21365552 -0.11793955 0.17955706 0.08792079 0.030146023 2.4844043 -1.2013156
-1.5257424 -1.4208258 0.22687258 -0.061845172 -26.41407 -17.732481 -2.8865228 -5.7998147
0.81882745 -1.3388116 0.5402828 0.51117027 0.03319185 0.6732904 0.033286855 -0.21044005
-0.08802559 0.07389835 -0.013404452 -0.0025862756 0.014156149 -0.8547651 -2.7652023 0.5815466
0.64294726 0.8723051 -0.2392086 0.014245025 -1.473791 -3.3144774 -1.239339 3.4363384
-5.6144447 5.0952606 4.2594934 -0.45748055 -2.2311635 -0.25114852 -0.11176707 -0.26449153
-0.05713682 0.36594316 -0.0634766 -0.07704113 -0.98221886 -0.93316466 -1.187669 -0.19995524
0.11453684 -1.3220727 -34.969254 -19.070757 -4.855241 -8.000256 -0.759086 0.12290006
-0.6024062 0.30946195 -0.15075913 -0.08380125 0.98395747 0.6520532 0.24279289 0.0963433
0.0125912875 0.07280009 -0.003380144 -0.3911799 -1.07999 -0.08105292 -0.6535692 0.24977711
0.061462894 -1.0941625 3.3764553 4.9056935 -1.8842934 -5.41388 4.0139074 -2.8401897
1.3781372 -1.7211765 2.0895479 1.0420927 0.2193971 0.2639634 -0.1712561 0.24192639
0.18114921 0.20978521 1.5155047 -0.043903094 -0.23179299 0.96270794 -0.70541763 1.4241656
6.06817 0.013392792 -7.1903405 3.0848143 -0.09170723 -7.270038 5.5163436 1.0546366
-0.36330488 1.3566309 1.4093423 -0.022458559 0.14492391 -0.040378984 0.86867005 0.07809954
-4.28528e-05 -0.25070623 1.3422427 0.3498704 -0.2993752 -1.2459431 0.027881317 16.89876
0.04599645 -0.7962867 0.5806978 -3.7385404 -0.8985447 0.64552087 -0.07403805 0.26029992
-1.7846352 -0.76966304 -0.12613977 -0.11581039 0.06443008 -0.17208478 -0.15059292 -0.04267256
-2.5406854 -0.8490785 0.26326263 -1.4364983 -1.2021781 -0.21733905 -8.189714 -1.3215768
1.4553025 -1.5049232 -2.3697505 5.939022 0.57508004 -0.6999296 -1.4737726 2.7380993
-1.8835882 0.07089639 -0.07883679 -0.18876338 0.38420123 -0.16416587 -0.17310266 -1.016719
-0.07155721 -1.0641804 -2.5278282 2.5135942 0.65717506 -23.19145 -18.869162 7.7849402

bias f4 [256]
00000000: f13d 06c0 a6f4 be40 5cb7 30c0 e152 883f
00000010: 0c10 1ebf 714b 9ac0 7de5 a7c0 6556 0340
00000020: fcb0 82c0 2d4a 78c0 06d2 b7bf bb9b 1dc0
00000030: 8687 70c0 b1df 2340 9846 e83e ec10 1340
00000040: 70a5 90c0 f1a3 c9c0 50c3 b53e 655c f8bf
00000050: ea7e e940 d65d cbc0 8944 1f3f 0d1e b63f
00000060: b16a 7140 5a9e afc0 788d 53c0 2590 11c0
00000070: 8883 cc40 d3db 2cc0 544f 7040 a072 72c0
00000080: 5cbd 27c0 cf74 d2c0 fc24 033f fa6e 2b3f
00000090: f173 acc0 6a8b a0c0 099b bdc0 2ea0 a0bf
000000a0: e3c1 98c0 b531 21bf 4a35 a8be 675c 98c0
000000b0: 38de a63f 02fb b53f e778 dc3f 9dc2 6dc0
000000c0: 4cb4 d4c0 47f5 1bc1 c5a1 23bf eaa6 2240
000000d0: efb3 6bc0 1294 a9c0 733f b840 e9e9 e5bf
000000e0: c3bc 32c0 ab60 c2c0 a280 93c0 bb84 9740
000000f0: 046f 0140 2599 a6c0 dd38 fabd 0f62 58c0
00000100: 7aee 8a40 7187 09c0 5c91 53c0 ce81 0bc0
00000110: 39d9 09c0 35c5 a0c0 832f 0ac0 efe8 9ac0
00000120: 4bf4 773f d509 6740 0655 553f 8033 b640
00000130: b703 e43f b764 3e40 47e3 c8bf 1dd9 b4bf
00000140: a547 593f da9c 4b40 c93d 2140 1279 8140
00000150: 11c9 50c0 629c 843f d0f4 e140 5f67 43c0
00000160: f6f4 1f3e 323d ed3f 22d2 6840 1aa0 c9c0
00000170: 1f84 8b40 8d62 83bf 73df 8440 78dd ae40
00000180: 5bbb ad3d 7b17 6fc0 d561 df40 1918 b440
00000190: 246f a3c0 2f84 0ec0 3441 91c0 aff2 5740
000001a0: c6df 82c0 a8f8 c8c0 01df 6440 9ca6 71c0
000001b0: 6bfe 1ac0 f418 2dc0 37bb 83bf d016 aec0
000001c0: 3b03 7cc0 0875 9dbf 17aa 5b3f e088 8ac0
000001d0: 7d6b ccc0 ec24 a2c0 af36 81bf 085a 27c0
000001e0: 50f1 f7bf 1ac9 4c40 bdf6 c1c0 bfe8 cdc0
000001f0: 49b7 0fc0 08dd f040 dbc9 a540 0ade bcbf
00000200: 5700 27c0 5fa4 b7c0 b2a0 c0c0 fdd5 85bf
00000210: e522 bebf 2411 eec0 e3d3 3740 412d 2140
00000220: 3613 2ebf 2bf6 ccbf 2323 e3c0 27ad aac0
00000230: b096 c2be 4209 b7bf a8ca fdc0 0496 e1c0
00000240: f760 88c0 7997 a1c0 7c76 74c0 9ad1 87c0
00000250: cb14 fa3e 03d3 a5c0 dc4c 4bbe 198a d3bf
00000260: e913 3dc0 ea81 91bf 08ce fcbf 1f4c 97c0
00000270: d38f 45c0 4e9a 2840 d028 b5c0 392b ec40
00000280: d7fe 55c0 8073 17c1 bd15 e3be c627 b4c0
00000290: 37e1 4cc0 2f1b 5ac0 b2c6 423e 74c1 61c0
000002a0: 395a c63f 1cad c1c0 8c0d 90c0 b9d3 88c0
000002b0: 4528 dabf 2f16 75c0 e4aa 82bf 32a2 b7c0
000002c0: 2438 80c0 97e7 97c0 c778 8dbf 3c00 68c0
000002d0: 18e8 00c0 c2a5 efbf f594 b3c0 137b 52bf
000002e0: 3e10 d2bf c87a 5ec0 89aa 9dc0 cf93 8dc0
000002f0: 95b4 99c0 7ce5 b4c0 3660 97c0 358e 3d40
00000300: 48fc e43f 08f5 74c0 51eb c4c0 9df2 1ec0
00000310: 2cf0 f9c0 f678 5bc0 29c1 5ec0 45e8 d3c0
00000320: dcb0 1141 aea1 e9c0 fd50 30c0 5744 9cc0
00000330: de2f a140 042f 9740 ab4d 8fc0 3d35 bbbf
00000340: d358 0ac0 dae9 b8c0 7c4c 89c0 e489 a3c0
00000350: d5ba ccbf 6d0a 8c40 2ba1 0440 50f8 15c0
00000360: 55dd da40 d610 a3c0 4795 dac0 40a4 8ac0
00000370: 94b2 85c0 8977 5bc0 8665 d23f 91b9 fe40
00000380: 694e 67c0 87c1 35c0 87a6 f640 0268 a4c0
00000390: 5fef 6ec0 12cc bf3f 724e e2c0 068c c5c0
000003a0: a1cb 96c0 237b 21c0 df2f b9bf 3116 f040
000003b0: 6dfa cfc0 13e1 5bc0 7417 87c0 3e13 c3c0
000003c0: 4020 4bc0 144f 9fc0 bfa6 86c0 b840 51c0
000003d0: 24c2 64c0 def3 963f 09e9 dec0 68e4 0bc0
000003e0: 2329 e440 6705 d0c0 4367 13c1 0ff5 5440
000003f0: 1ec5 92be 8ac4 9ac0 e6e4 84c0 4e94 94c0
-2.0975306 5.9673643 -2.7611914 1.0650293 -0.61743236 -4.821709 -5.2467637 2.052148
-4.0841045 -3.8795273 -1.4360969 -2.46263 -3.7582717 2.560528 0.4536636 2.2979078
-4.520195 -6.3012624 0.35500574 -1.9403197 7.2967424 -6.3552046 0.6221395 1.4227921
3.772137 -5.48808 -3.3055096 -2.274423 6.391056 -2.700917 3.7548418 -3.7882462
-2.6209326 -6.576759 0.5122831 0.6696621 -5.389153 -5.0170183 -5.925175 -1.2548883
-4.773668 -0.6296647 -0.32853156 -4.7612796 1.3036566 1.4217227 1.7224396 -3.7150033
-6.647009 -9.747382 -0.63918716 2.5414376 -3.6828573 -5.299325 5.7577453 -1.7962009
-2.792771 -6.0743003 -4.6094522 4.7349524 2.0224009 -5.2061944 -0.12217877 -3.380985
4.341611 -2.1488917 -3.305747 -2.1797976 -2.1538832 -5.024073 -2.15915 -4.8409343
0.96857136 3.609975 0.8333286 5.6937866 1.7813634 2.9748971 -1.569436 -1.4128758
0.84874946 3.1814485 2.519396 4.046029 -3.2622721 1.0360224 7.0611343 -3.0531843
0.15620789 1.85343 3.6378255 -6.3007936 4.359878 -1.026445 4.1522765 5.4645348
0.08483001 -3.7358081 6.9806924 5.6279416 -5.107317 -2.2268178 -4.5392094 3.3741872
-4.089816 -6.2803535 3.576111 -3.775794 -2.4217784 -2.704648 -1.0291508 -5.4402847
-3.9376972 -1.230134 0.8580641 -4.3292084 -6.388121 -5.067007 -1.0094813 -2.61487
-1.9370518 3.1997743 -6.0613694 -6.4346614 -2.2455618 7.5269814 5.1808906 -1.4755261
-2.6093957 -5.738815 -6.019616 -1.0455929 -1.4854399 -7.4395924 2.8723075 2.518387
-0.67998064 -1.6012625 -7.098039 -5.3336368 -0.3800559 -1.42997 -7.9309883 -7.0495625
-4.2618365 -5.0497403 -3.8197317 -4.244336 0.4884399 -5.1820083 -0.19853538 -1.6526519
-2.9543402 -1.1367772 -1.9750376 -4.728042 -3.0869033 2.634418 -5.661232 7.380276
-3.3436792 -9.465698 -0.44352522 -5.629855 -3.201246 -3.4079092 0.19021109 -3.5274324
1.5496284 -6.0523815 -4.5016537 -4.275845 -1.7043539 -3.829479 -1.0208402 -5.738549
-4.006853 -4.7470202 -1.1052483 -3.6250143 -2.0141659 -1.872246 -5.611933 -0.82219046
-1.6411207 -3.476244 -4.9270673 -4.424293 -4.8032937 -5.653013 -4.7304945 2.9618046
1.788949 -3.8274555 -6.153725 -2.483558 -7.810568 -3.4292579 -3.4805396 -6.622103
9.105679 -7.3009863 -2.7549431 -4.8833423 5.037093 4.724489 -4.478231 -1.4625622
-2.1616714 -5.7785463 -4.2905865 -5.1105824 -1.5994517 4.3762727 2.072337 -2.3432808
6.839518 -5.095805 -6.8307223 -4.33255 -4.178049 -3.4291708 1.6437232 7.960152
-3.6141608 -2.839937 7.707828 -5.1376963 -3.73336 1.4984152 -7.072076 -6.1733427
-4.712357 -2.5231407 -1.4467734 7.502709 -6.4993196 -3.4356124 -4.221613 -6.096099
-3.1738434 -4.978403 -4.2078547 -3.269575 -3.5743494 1.1793172 -6.9659467 -2.1858158
7.1300216 -6.5006595 -9.21271 3.3274572 -0.28666013 -4.8364916 -4.1529417 -4.6431036
