log/mujoco_sac_walker2d_v3_4/mujoco_sac_walker2d_v3_4_s4/pyt_save/model.pt (torch_old, 878218 bytes, 18 tensors)

weight f4 [256, 17]
-2.8236842 -1.4778752 -0.5573071 -5.6375055 -0.34434703 -1.3084542 1.0233221 0.022095032
0.82693255 -0.5522351 -0.30337068 0.10998384 0.2872507 0.04774074 0.03194072 0.09402804
-0.056797493 -1.1431346 -3.351051 1.3145038 4.949732 1.7886688 -3.498067 -0.6770335
-2.480535 -0.05354186 0.36291713 -0.13239293 -0.17161857 0.012392167 0.09480317 0.14047326
-0.15764537 -0.01953417 -5.07166 -3.3525095 0.60469776 0.91675574 0.20850933 -2.4124174
3.3990412 -1.5024506 0.2417004 0.468683 -0.15424287 -0.04871186 0.1460027 -0.020400595
0.39715466 0.30315676 -0.05089299 -1.7785076 2.3160388 -4.4582386 -1.3110845 0.14343268
-0.39762127 -0.7721974 0.9426306 -0.110300265 -0.11727114 -0.6561678 -0.033367094 0.056617867
-0.00648925 0.31368312 0.24977238 0.07876154 -2.9795237 -1.1539223 0.16428213 4.106181
1.258697 5.442844 0.6238627 -1.2977087 -0.4934222 -1.5687311 0.84513533 -0.8115786
0.19786088 -0.18638073 0.024969246 -0.1892785 0.11420887 -0.8051083 5.070169 0.98704183
-0.42486662 -1.6544665 3.8710794 -0.37837481 0.4356741 0.16151252 2.03743 0.85394603
-0.7497271 -0.34729347 -0.011938828 -0.11175669 -0.16133742 -0.05941364 -2.6151526 -0.34867284
0.5711069 1.619559 -0.009613352 0.6052808 3.251766 1.1364971 -1.0360941 0.30463657
0.4045838 -0.2160683 -0.12728232 -0.14347358 -0.23992136 0.019336913 0.0064333943 0.26224977
3.8479388 -5.1189356 -0.27576593 0.7956209 0.82710224 1.1405969 -1.0319124 -2.2680743
0.675044 0.7119412 -0.25850478 -0.0921139 0.090478525 -0.17453715 -0.29991955 -0.008860628
-2.3488045 -0.8188013 0.5556134 -0.144865 -0.11044848 1.943326 -4.0982985 2.120793
-0.42715147 -0.25627992 0.90391487 -0.23261864 -0.060015474 -0.005581593 -0.48172867 -0.25964406
0.052316222 0.054213874 2.2170343 -4.3713984 -2.7389815 -4.2267714 1.1895598 1.4697478
0.2227055 -0.15100959 -0.36165142 -0.2952272 0.15571374 0.10724769 0.02774765 0.07063087
0.082216956 0.009446099 1.9007536 -5.9957633 2.7716355 2.8920922 0.6101735 3.2920449
1.6402125 0.7750528 -0.7352611 -0.47172028 0.08698793 0.11694807 0.11842182 0.018148016
-0.19245018 0.012760422 0.037919186 -1.3014146 -2.0431345 3.0988424 3.8394947 -0.1835039
-4.1714973 -2.132019 1.3227743 0.28989077 -1.7869477 0.5071769 -0.028597668 -0.11706042
-0.062039405 -0.4993175 -0.23180312 0.043409858 -3.374277 3.644911 -2.124269 1.2033825
-0.6882323 -1.6809645 -0.008898227 -2.0812254 -0.044096045 0.5292671 -0.38367352 0.7855629
0.05746589 -0.43996945 -0.7345995 -0.16334704 -0.024366243 -3.512356 -7.3048105 6.175068
4.7404375 -1.0567963 4.1510043 3.357803 0.24193367 -1.3368458 -0.70890856 -0.62352055
0.6281421 0.48775834 0.067738414 0.5994756 0.3500603 -0.05666901 -4.014777 -3.7027962
0.75714767 1.1894519 -1.1529951 1.0171316 2.5086575 0.21133584 0.24776597 0.98682356
-0.090835676 -0.20052256 0.006180416 0.012674278 -0.54423916 0.5895115 -0.042507384 1.2921132
00000000: 3eb7 34c0 042b bdbf aeab 0ebf 7266 b4c0
00000010: 414e b0be 6d7b a7bf 38fc 823f a400 b53c
00000020: dab1 533f 485f 0dbf 6753 9bbe 353f e13d
00000030: 8612 933e cb8b 433d 46d4 023d c691 c03d
00000040: 7da4 68bd 3c52 92bf 9f77 56c0 a941 a83f
00000050: 3464 9e40 19f3 e43f 54e0 5fc0 1152 2dbf
00000060: 16c1 1ec0 b64e 5bbd 46d0 b93e 0392 07be
00000070: c7bc 2fbe 8408 4b3c 2a28 c23d 39d8 0f3e
00000080: ca6d 21be 2006 a0bc 0a4b a2c0 848f 56c0
00000090: 79cd 1a3f 81b0 6a3f 7883 553e 0c65 1ac0
000000a0: e489 5940 4d50 c0bf 4f80 773e 38f7 ef3e
000000b0: d8f1 1dbe 1686 47bd bb81 153e 261f a7bc
000000c0: db57 cb3e 5d37 9b3e 2b75 50bd 23a6 e3bf
000000d0: fb39 1440 e4a9 8ec0 9ed1 a7bf 04e0 123e
000000e0: 0495 cbbe bbae 45bf 3d50 713f 1be5 e1bd
000000f0: da2b f0bd 9dfa 27bf efab 08bd 23e8 673d
00000100: c6a3 d4bb 139b a03e 55c4 7f3e bb4d a13d
00000110: 84b0 3ec0 bab3 93bf 9339 283e d665 8340
00000120: fc1c a13f c72b ae40 77b5 1f3f 521b a6bf
00000130: d6a1 fcbe 2ecc c8bf ca5a 583f 9dc3 4fbf
00000140: 0b9c 4a3e 97da 3ebe 4e8c cc3c 39d2 41be
00000150: 57e6 e93d 941b 4ebf d33e a240 c6ae 7c3f
00000160: 1e88 d9be 8fc5 d3bf c4bf 7740 58ba c1be
00000170: ad10 df3e 8a63 253e 4165 0240 359c 5a3f
00000180: 1dee 3fbf 73d0 b1be 139b 43bc b1e0 e4bd
00000190: a335 25be b85b 73bd a95e 27c0 3f85 b2be
000001a0: 1034 123f b64d cf3f 5281 1dbc aff3 1a3f
000001b0: ef1c 5040 bd78 913f bb9e 84bf 53f9 9b3e
000001c0: 9c25 cf3e 0241 5dbe 4c56 02be bdea 12be
000001d0: f2ad 75be 7268 9e3c 39cf d23b 9a45 863e
000001e0: a144 7640 52ce a3c0 3131 8dbe d0ad 4b3f
000001f0: f9bc 533f 14ff 913f b515 84bf 2128 11c0
00000200: afcf 2c3f c741 363f bd5a 84be 36a6 bcbd
00000210: ce4c b93d deb9 32be 0e8f 99be 2b2c 11bc
00000220: d052 16c0 f69c 51bf ae3c 0e3f 7e57 14be
00000230: d032 e2bd e8be f83f 4325 83c0 13bb 0740
00000240: 99b3 dabe 1f37 83be f766 673f 9533 6ebe
00000250: c9d2 75bd cce5 b6bb 24a5 f6be 11f0 84be
00000260: 8949 563d 5e0f 5e3d e4e3 0d40 7fe2 8bc0
00000270: 794b 2fc0 b641 87c0 7f43 983f b220 bc3f
00000280: e90c 643e 42a2 1abe 602a b9be 0528 97be
00000290: 6c73 1f3e ada4 db3d 0a4f e33c eba6 903d
000002a0: 5d61 a83d d0c3 1a3c e54b f33f 4bdd bfc0
000002b0: 7a62 3140 0a18 3940 5534 1c3f ddb0 5240
000002c0: 7cf2 d13f dc69 463f 123a 3cbf 5285 f1be
000002d0: ba26 b23d 7882 ef3d 2487 f23d 26ab 943c
000002e0: a911 45be 1711 513c 2651 1b3d c194 a6bf
000002f0: b7c2 02c0 6f53 4640 48ba 7540 72e8 3bbe
00000300: e87c 85c0 0073 08c0 ab50 a93f 906c 943e
00000310: b4ba e4bf 58d6 013f a845 eabc 60bd efbd
00000320: 081d 7ebd 8ba6 ffbe cc5d 6dbe 89ce 313d
00000330: 28f4 57c0 3946 6940 06f4 07c0 7008 9a3f
00000340: fe2f 30bf d829 d7bf dec9 11bc cc32 05c0
00000350: 0e9e 34bd 0c7e 073f db70 c4be a61a 493f
00000360: 5a61 6b3d ad43 e1be b60e 3cbf 7244 27be
00000370: b79b c7bc 71ca 60c0 02c1 e9c0 289a c540
00000380: aab1 9740 1a45 87bf 07d5 8440 3fe6 5640
00000390: 76bd 773e c31d abbf 087b 35bf 0b9f 1fbf
000003a0: eccd 203f 76bb f93e 70ba 8a3d 3c77 193f
000003b0: 1b3b b33e c41d 68bd 0e79 80c0 9dfa 6cc0
000003c0: 6ed4 413f f63f 983f 5895 93bf 5e31 823f
000003d0: d88d 2040 6c68 583e 5db6 7d3e 78a0 7c3f
000003e0: 0e08 babd c955 4dbe 1685 ca3b c6a7 4f3c
000003f0: 4253 0bbf 3aea 163f 391c 2ebd f763 a53f

bias f4 [256]
-2.869721 -1.5749557 -4.211932 -0.76001304 -2.5195084 -3.909731 -2.5782347 -0.412877
-2.481778 -4.4918923 1.3847547 -1.0601175 -5.7784863 -2.7297516 -3.9596066 -1.7237641
-0.7542595 -1.0516922 -3.8307378 -2.805344 -2.9920268 -3.2245317 -1.7576445 -1.3206482
-1.8640766 -1.1095536 -3.0368223 -3.772371 -0.38986582 -1.3639276 -1.8851547 -1.8783206
-3.179157 -1.4935503 -4.580104 -3.4807622 -3.2474985 -3.4676154 -2.3388631 -3.2507164
-2.9621568 -2.6498508 -3.55959 -5.5678353 -1.3133641 -1.6987549 0.5209693 -3.1166675
-3.3186986 -1.7762676 -4.323979 -3.593168 -1.8313137 -2.6559985 -2.5919 -4.0893803
-2.0674558 -3.1088808 -2.7778664 -4.0857973 -0.2199133 -3.4659457 -5.3979073 -1.7063899
-1.0286577 -2.7069056 -4.135414 -0.4963192 -0.93243647 -3.5558171 -3.5360494 -0.47339004
-1.5149435 -3.4697616 -2.9220152 -1.5441612 -0.42475927 -5.144813 -1.0603998 -1.6668911
-2.7592409 -3.4202387 -2.9122994 -3.9641142 -4.320593 -1.4868724 -3.0952077 -2.2371407
-1.2963876 -3.7048974 -3.9861732 -1.4775952 -3.13804 -3.9849746 -3.9629107 -3.3901236
-2.6163735 -2.439482 -0.2958681 -1.7115815 0.2628788 -3.4596395 -2.1027794 -1.5719568
-0.8482004 -2.8747673 -2.0091448 -5.6597905 2.1039293 -2.5626545 -3.6081097 -2.6535144
-1.2954481 -3.563935 3.3266976 -0.9346046 -2.7123597 -2.9697816 -0.33311608 -3.8342457
-3.7597191 -3.673487 -2.5392375 0.038832463 -2.7750208 -2.2589147 -3.8378892 -4.2219124
-2.5909355 -2.8616512 -4.1434426 -2.4402168 -4.2168994 -4.074687 -1.0963402 -3.5883975
0.641304 -1.1726439 -2.5366702 -3.5249116 -2.1394873 -3.5822234 -3.3068352 -3.094886
-1.4639785 2.0833018 -3.6774457 1.2925515 -0.8947854 -2.606644 -2.4666502 -4.124573
-3.0113652 -3.3615842 -0.86866134 -2.241145 -1.8686093 -0.6444739 -0.57181704 -4.4447083
0.27397594 -4.197694 -0.8315847 -2.0388272 -2.9502892 -3.664367 -3.636707 -3.8195217
-3.064931 -2.6988473 2.5922065 -0.54695034 -3.4464693 -2.3256674 -1.509306 -0.9961361
-2.6713524 -2.8172328 -3.2477129 -4.1245947 -2.503543 -4.118082 -2.3503969 -3.3349464
-1.2152514 -1.7954379 0.7320228 -3.064357 -1.5069802 -1.6015822 -4.3460345 -2.8154938
-1.8085487 -4.4275393 -1.1252403 -2.2736886 -3.970656 -2.6622493 -3.9150949 0.0028978009
-2.5328832 -3.3579035 -4.0572104 -0.496179 -0.2369926 -3.115862 -0.3878987 -1.5443858
-4.361436 -1.7909496 -0.9290081 0.8722086 -2.5154572 -3.6614685 1.5001589 -3.2649126
-4.279913 3.9288745 -1.8294086 -2.1625748 -2.4068348 -4.4118185 -2.8900387 -1.3181905
-3.0114686 0.42484352 -4.257439 -0.74176645 -3.6611845 -3.132002 5.71943 -2.9801056
-6.2039566 -3.4105253 3.6476288 -0.66990715 -1.7260677 -3.1942728 -1.3131461 -0.42284593
-2.5613086 -1.55315 -4.334464 -2.6208491 -3.2908566 0.3886085 -1.268375 -4.5439973
-3.0660663 -1.6484737 -3.7169557 0.61393577 -2.9241142 -4.2869406 0.8234686 -3.1363957
00000000: 82a9 37c0 2698 c9bf 26c8 86c0 3790 42bf
00000010: a03f 21c0 0839 7ac0 cc01 25c0 9d64 d3be
00000020: 73d5 1ec0 95bd 8fc0 a43f b13f eeb1 87bf
00000030: 5ce9 b8c0 40b4 2ec0 326a 7dc0 4da4 dcbf
00000040: 2717 41bf da9d 86bf cf2a 75c0 c28a 33c0
00000050: 5e7d 3fc0 ba5e 4ec0 7ffa e0bf 000b a9bf
00000060: 109a eebf da05 8ebf 4c5b 42c0 876e 71c0
00000070: 7e9c c7be 2e95 aebf c04c f1bf cf6c f0bf
00000080: 4f77 4bc0 a82c bfbf 3690 92c0 cfc4 5ec0
00000090: 04d7 4fc0 69ed 5dc0 efaf 15c0 bd0b 50c0
000000a0: fa93 3dc0 2897 29c0 53d0 63c0 b52b b2c0
000000b0: 511c a8bf cd70 d9bf 3e5e 053f 7b77 47c0
000000c0: 8f65 54c0 bd5c e3bf 095e 8ac0 77f6 65c0
000000d0: 7d68 eabf e1fb 29c0 b1e1 25c0 34dc 82c0
000000e0: 3251 04c0 e7f7 46c0 90c8 31c0 dabe 82c0
000000f0: f430 61be 0ed2 5dc0 a8bb acc0 fc6a dabf
00000100: 0eab 83bf f13d 2dc0 5055 84c0 8d1d febe
00000110: 28b4 6ebf 8292 63c0 a24e 62c0 2e60 f2be
00000120: abe9 c1bf 9310 5ec0 4c02 3bc0 13a7 c5bf
00000130: 0c7a d9be 4fa2 a4c0 2ebb 87bf b05c d5bf
00000140: 6797 30c0 31e5 5ac0 1d63 3ac0 0cb4 7dc0
00000150: 4c42 8ac0 d651 bebf e217 46c0 502d 0fc0
00000160: 07f0 a5bf 0a1d 6dc0 761d 7fc0 d721 bdbf
00000170: a6d5 48c0 d309 7fc0 54a0 7dc0 c9f7 58c0
00000180: aa72 27c0 7920 1cc0 067c 97be 1a15 dbbf
00000190: 0d98 863e bc6a 5dc0 f093 06c0 e135 c9bf
000001a0: a923 59bf 30fc 37c0 d495 00c0 011d b5c0
000001b0: c7a6 0640 8802 24c0 45eb 66c0 2ed3 29c0
000001c0: 3ed1 a5bf 8317 64c0 9de8 5440 3f42 6fbf
000001d0: 4d97 2dc0 e710 3ec0 318e aabe 4864 75c0
000001e0: 3d9f 70c0 691a 6bc0 de82 22c0 ca0e 1f3d
000001f0: f199 31c0 0f92 10c0 fa9f 75c0 e819 87c0
00000200: e3d1 25c0 4b25 37c0 1597 84c0 832c 1cc0
00000210: d7f0 86c0 d663 82c0 e054 8cbf 4ea8 65c0
00000220: 802c 243f 3219 96bf ce58 22c0 2798 61c0
00000230: 5ced 08c0 2643 65c0 30a3 53c0 9d12 46c0
00000240: a663 bbbf d154 0540 455b 6bc0 5472 a53f
00000250: a810 65bf 41d3 26c0 99dd 1dc0 81fc 83c0
00000260: 35ba 40c0 3224 57c0 9760 5ebf eb6e 0fc0
00000270: 972e efbf 3efc 24bf 9a62 12bf 0d3b 8ec0
00000280: 9346 8c3e 8253 86c0 bce2 54bf 257c 02c0
00000290: 8ad1 3cc0 fd84 6ac0 cfbf 68c0 0b73 74c0
000002a0: d427 44c0 eab9 2cc0 b6e6 2540 f004 0cbf
000002b0: f492 5cc0 bcd7 14c0 f030 c1bf c702 7fbf
000002c0: 70f7 2ac0 8b4d 34c0 87da 4fc0 aefc 83c0
000002d0: 0c3a 20c0 54c7 83c0 e76c 16c0 c36f 55c0
000002e0: 5c8d 9bbf e9d0 e5bf d965 3b3f 6d1e 44c0
000002f0: bae4 c0bf a500 cdbf b712 8bc0 0d31 34c0
00000300: 867e e7bf 67ae 8dc0 e007 90bf 1d84 11c0
00000310: 3a1f 7ec0 4b62 2ac0 ea90 7ac0 08e9 3d3b
00000320: c21a 22c0 e4e7 56c0 abd4 81c0 2d0b febe
00000330: 30ae 72be 486a 47c0 a99a c6be 6fae c5bf
00000340: e290 8bc0 d63d e5bf 7ad3 6dbf 1049 5f3f
00000350: 40fd 20c0 8055 6ac0 3505 c03f 54f4 50c0
00000360: 0cf5 88c0 ae72 7b40 102a eabf a067 0ac0
00000370: 9509 1ac0 9e2d 8dc0 65f6 38c0 77ba a8bf
00000380: e7bb 40c0 1785 d93e f13c 88c0 68e4 3dbf
00000390: d950 6ac0 b972 48c0 9205 b740 0dba 3ec0
000003a0: d086 c6c0 0c46 5ac0 c072 6940 097f 2bbf
000003b0: c9ef dcbf f76e 4cc0 2c15 a8bf 437f d8be
000003c0: 7bec 23c0 9fcd c6bf eeb3 8ac0 febb 27c0
000003d0: 659d 52c0 b1f7 c63e 1d5a a2bf 6d68 91c0
000003e0: 6e3a 44c0 3001 d3bf 9ae2 6dc0 e52a 1d3f
000003f0: b024 3bc0 9e2e 89c0 d7ce 523f b5ba 48c0

weight f4 [256, 256]
-0.10936909 -0.10485117 -0.101426505 -0.06246599 -0.13860236 -0.024480317 0.009691502 -0.12799181
-0.0992758 -0.11713086 -0.04236567 0.021912774 -0.099984586 -0.03845315 -0.14412865 0.018954819
-0.043228764 -0.11803258 -0.04208685 -0.085357115 -0.18356502 -0.060128547 -0.10254287 0.013816356
-0.02971469 -0.13302585 -0.14079641 0.014751931 -0.1193368 -0.037196957 -0.035208456 -0.1346504
-0.009932214 -0.032197926 -0.03504207 -0.07754601 -0.09638749 -0.05980474 -0.030369248 -0.10217138
-0.045050006 -0.082241796 0.034228187 -0.06652094 -0.13463168 -0.061651986 -0.046390023 0.008295813
-0.08435443 -0.057209775 0.00039727738 -0.074077934 -0.08119849 -0.047627684 -0.016505202 -0.06495628
-0.002076047 -0.049930226 -0.0044948296 -0.08288363 -0.036205675 0.03908074 -0.060748618 -0.02854224
-0.083504625 -0.140899 -0.047904126 -0.13640164 -0.039143927 -0.021366758 -0.11811163 -0.04033518
-0.16317421 0.0074414653 -0.014766089 -0.043740824 -0.055963583 -0.063712224 0.013176751 0.05320157
-0.08620254 -0.0113836285 -0.11518783 -0.0783595 -0.05298465 -0.008979302 0.008434323 -0.011382022
-0.02266889 -0.016971456 -0.16526075 -0.012604456 0.007019373 -0.008529649 -0.028447593 -0.13439228
-0.040291894 0.0517192 0.029868025 -0.004293923 -0.002797725 -0.015041163 -0.07485778 0.06412654
-0.08433562 -0.07075661 0.051365282 -0.04463234 -0.02987237 -0.03609441 0.020267727 -0.060878374
0.0042290324 0.033964276 -0.007841034 -0.0735925 -0.091654055 0.04250249 -0.07639159 -0.047820237
-0.056879897 -0.013829206 -0.1785571 -0.08259277 -0.14135951 -0.07301245 -0.08081635 -0.10216062
-0.018648671 -0.11810452 0.020254519 -0.10978977 -0.08735047 -0.060410347 0.01720363 -0.14966644
-0.04355396 -0.06841689 -0.09447325 -0.05865954 -0.09091039 0.03456678 -0.02013568 0.0005455558
-0.075345725 -0.17864949 0.015076624 -0.039529134 -0.016409261 -0.078323066 -0.045549423 -0.08796089
-0.11467006 -0.016436573 -0.06881715 -0.009520516 -0.17914669 -0.060632955 0.012473355 0.04231512
-0.01575287 0.022188138 -0.021367772 -0.06734418 -0.038878545 0.028185556 0.011215194 -0.13957874
0.026379457 0.004117436 0.009681015 -0.008403032 -0.05351389 -0.15806714 -0.09136417 -0.21032318
0.024956262 -0.09245675 0.056378562 0.03930332 -0.010083007 0.06627934 -0.06716567 -0.054753426
-0.013559522 -0.03599079 -0.0614171 -0.064020224 -0.019688278 -0.14292085 0.040577814 0.033993084
0.039423116 0.013889773 -0.05370117 -0.23224097 0.013043434 -0.09133633 0.035612803 -0.0313361
-0.027838556 -0.026187683 -0.09556194 -0.028858561 0.029368268 -0.13778588 -0.023378676 -0.036885615
-0.100466825 -0.031595927 -0.12441667 -0.14583193 -0.07289704 -0.04990609 -0.003673065 -0.08396646
-0.020776134 -0.020656418 -0.052667156 -0.030839192 -0.1627892 0.004802778 -0.096723266 -0.12011748
0.0056021553 -0.05377542 -0.11273499 -0.0809458 -0.005536706 -0.036959935 -0.09384951 -0.05858003
0.008192378 -0.092138715 -0.09052698 -0.1262477 0.04588931 -0.11910514 0.042669434 0.040333487
-0.07999459 -0.09936508 -0.17232709 0.03128851 0.027019689 -0.056052625 -0.050450563 -0.050400607
-0.115330495 -0.17742063 -0.0395941 -0.015473846 -0.14330241 0.07509142 0.016067976 -0.03494621
00000000: e7fc dfbd 36bc d6bd b3b8 cfbd 57dc 7fbd
00000010: c7ed 0dbe f28a c8bc 1bc9 1e3c 4910 03be
00000020: 1c51 cbbd 4ee2 efbd a087 2dbd 6b82 b33c
00000030: b8c4 ccbd 0d81 1dbd 7696 13be 2347 9b3c
00000040: a510 31bd 11bb f1bd 4363 2cbd b6cf aebd
00000050: 78f8 3bbe 5a49 76bd ff01 d2bd ff5d 623c
00000060: 396c f3bc ee37 08be ef2c 10be 15b2 713c
00000070: da66 f4bd d65b 18bd be36 10bd cbe1 09be
00000080: baba 22bc f9e1 03bd 4688 0fbd 71d0 9ebd
00000090: ce66 c5bd d1f5 74bd eec8 f8bc 3a3f d1bd
000000a0: 5b86 38bd 636e a8bd db32 0c3d 213c 88bd
000000b0: e3dc 09be cb86 7cbd 7703 3ebd 29eb 073c
000000c0: 04c2 acbd cc54 6abd ab49 d039 2cb6 97bd
000000d0: 654b a6bd 3f15 43bd eb35 87bc cc07 85bd
000000e0: 4a0e 08bb a383 4cbd 5d49 93bb e5be a9bd
000000f0: 674c 14bd 2013 203d 8bd3 78bd 6ad1 e9bc
00000100: 7904 abbd d447 10be 1e37 44bd dfac 0bbe
00000110: 6255 20bd 5709 afbc 83e4 f1bd 8036 25bd
00000120: 2417 27be 89d7 f33b 77ed 71bc 9429 33bd
00000130: 123a 65bd 8e7b 82bd 4de3 573c e4e9 593d
00000140: f58a b0bd 6682 3abc 99e7 ebbd f27a a0bd
00000150: 6f06 59bd ec1d 13bc 1d30 0a3c a97b 3abc
00000160: 1cb4 b9bc b907 8bbc 1d3a 29be ec82 4ebc
00000170: c502 e63b f1bf 0bbc ed0a e9bc 219e 09be
00000180: 1d09 25bd 83d7 533d caad f43c 09b4 8cbb
00000190: 095a 37bb 366f 76bc 094f 99bd c754 833d
000001a0: 27b8 acbd d7e8 90bd 6764 523d 67d0 36bd
000001b0: e7b6 f4bc bbd7 13bd 8108 a63c 9a5b 79bd
000001c0: b293 8a3b 201e 0b3d ae77 00bc aab7 96bd
000001d0: 1fb5 bbbd 1717 2e3d 3273 9cbd 27df 43bd
000001e0: e5fa 68bd e593 62bc acd7 36be 6626 a9bd
000001f0: 8cc0 10be 8d87 95bd 0b83 a5bd 9639 d1bd
00000200: 19c5 98bc c8e0 f1bd ceec a53c 75d9 e0bd
00000210: cee4 b2bd d770 77bd a1ee 8c3c 2942 19be
00000220: a365 32bd 281e 8cbd 317b c1bd fc44 70bd
00000230: 3a2f babd e595 0d3d 95f3 a4bc a103 0f3a
00000240: dc4e 9abd e4ef 36be f203 773c 4de9 21bd
00000250: b76c 86bc d867 a0bd 0892 3abd d724 b4bd
00000260: 23d8 eabd fea5 86bc 02f0 8cbd f0fb 1bbc
00000270: 3b72 37be 435a 78bd 0b5d 4c3c 9f52 2d3d
00000280: 2a0c 81bc e6c3 b53c 770b afbc bfeb 89bd
00000290: 1c3f 1fbd 65e5 e63c efbf 373c bbed 0ebe
000002a0: bb19 d83c 8eeb 863b 1f9d 1e3c dfac 09bc
000002b0: 6131 5bbd 5adc 21be 231d bbbd f65e 57be
000002c0: 1371 cc3c f759 bdbd 35ed 663d 85fc 203d
000002d0: 3233 25bc 76bd 873d 288e 89bd 2145 60bd
000002e0: c228 5ebc 146b 13bd 7f90 7bbd 091d 83bd
000002f0: 5049 a1bc d859 12be ec34 263d 553c 0b3d
00000300: 227a 213d ee91 633c c2f5 5bbd 94d0 6dbe
00000310: 21b4 553c 8b0e bbbd bbde 113d 485a 00bd
00000320: af0d e4bc 8d87 d6bc fab5 c3bd ca68 ecbc
00000330: b995 f03c be17 0dbe a384 bfbc 5f15 17bd
00000340: 8dc1 cdbd bb6a 01bd 2bce febd f754 15be
00000350: 0b4b 95bd 546a 4cbd ceb7 70bb 9bf6 abbd
00000360: b632 aabc a637 a9bc 84b9 57bd 79a2 fcbc
00000370: 36b2 26be 9f60 9d3b d916 c6bd 2700 f6bd
00000380: 4992 b73b 9d43 5cbd 9ae1 e6bd e9c6 a5bd
00000390: 426d b5bb 4d63 17bd 2c34 c0bd 9df1 6fbd
000003a0: 5339 063c 39b3 bcbd 3666 b9bd 1447 01be
000003b0: 6ef6 3b3d 65ed f3bd 25c6 2e3d ba34 253d
000003c0: 34d4 a3bd eb7f cbbd 8376 30be 6128 003d
000003d0: 6558 dd3c 7097 65bd 40a5 4ebd de70 4ebd
000003e0: 6532 ecbd c1ad 35be 6c2d 22bd 0486 7dbc
000003f0: debd 12be 88c9 993d fda0 833c c223 0fbd

bias f4 [256]
-0.036884405 -0.16456798 -0.007816215 -0.9873472 -0.20810015 -0.11788081 -0.24453853 1.2248231
-0.48262522 -0.361749 -0.21976559 -0.11222559 -0.15322222 -0.18663305 -2.468082 -1.1874365
-0.5790023 -0.08295243 -0.6202235 -0.41313884 -0.11865962 1.0132613 1.4653887 -0.11945229
-1.2929614 -1.4302845 -0.0024637438 0.39567384 -0.13141029 -1.4526912 -1.4020258 1.1868303
-0.08605067 -0.13021848 -0.9281184 -2.4752815 -0.10896926 -1.9835442 1.6234634 -0.11323841
-1.6296476 -1.6392894 0.15109858 -2.059257 -0.103267655 -0.1047972 -0.00807547 -1.2388266
-0.94060564 -0.076111674 0.9875036 -2.281054 -0.5316575 -0.14641611 -0.098211534 -0.03888587
-0.078535296 -0.04854322 -0.093933314 -0.38104048 -0.094674364 -1.3842438 -1.9157455 -0.14297338
-1.9986125 -0.088339694 0.9340069 -1.7597917 0.84283656 -0.06412197 -0.73762923 -0.09245369
1.630828 -0.1445325 -0.2914451 -0.07502002 -0.15032274 -0.06413482 -0.5410866 -0.20128034
-1.5526619 -0.7465088 -0.9519144 -1.980801 -0.42980614 -0.09194807 -2.5412984 -0.7623414
-2.5801654 -0.23272043 -0.12522116 -0.28086174 -0.20140792 -0.33305845 -2.784815 -2.975697
-0.16410786 2.2016895 -2.0884962 -1.3123823 -0.26926172 1.9445914 -0.13860355 -1.9607495
-0.67807925 -0.16385801 0.42724955 -0.09993992 1.4090071 -0.6143086 -0.045116022 -0.07323494
-0.13749418 1.3226962 -0.19969967 -0.9533591 -0.17373027 -1.475667 0.69525707 -0.060098253
-0.5496204 -1.312386 -1.2071061 -0.9188496 -0.25795358 -0.16923091 -0.14133115 0.43003508
-0.15465285 -1.0030906 -0.18140958 -2.5560174 -1.0470816 0.24616022 -0.08995367 -0.24420133
-0.20826678 0.5056462 -0.72609645 0.6274171 -0.69225645 -0.10210395 -0.08234988 -0.1502404
-1.099211 0.2100086 -0.42369393 -0.71959656 -0.32353634 -2.0709128 -0.7899693 -0.089534864
-0.11181352 -0.11306213 -1.444295 -0.20297195 -0.062443834 -0.062065512 -1.34538 -0.08533252
-1.9011811 -0.0912511 -0.17557946 -0.13374074 -0.100162886 -0.040968366 -0.7526327 1.5006564
-2.9986784 0.46116325 -3.6863372 -0.11708733 -0.18060397 -0.6913699 1.208709 -0.36096838
-1.2185786 1.5313475 -0.061819382 -0.1824091 -0.15959565 -0.056981273 0.4087424 -0.17186362
0.89557016 -0.18200105 -0.07101619 -0.1340417 -0.030351501 -2.3324506 -1.7328558 -2.0951893
-0.19781204 -0.5733201 -0.7668829 -0.05829107 -0.10779651 -0.52693105 -0.17194249 -0.12671095
-0.15200175 -0.71581244 -1.1648422 -1.1604544 -0.117892265 -1.0182616 -0.6482136 -1.4044784
-0.09738681 -0.81066954 -0.07064157 -0.08075127 1.20135 -0.048548628 0.35459822 -0.09287024
0.6237576 -0.17495123 0.3018668 -2.1295195 -0.09669072 0.430778 -0.14877014 -0.18489039
-0.011567098 -0.02073261 0.773346 0.82606554 -0.60067576 -1.6867092 -2.2044144 -0.04819797
-3.5435169 -0.7857065 -0.18411055 -0.15225294 -1.9633789 -0.36080748 -0.10699368 -0.14708185
-0.09260616 -4.127894 -0.1557511 -0.102583885 -0.15587747 -0.849091 -0.15277846 -2.4389412
-0.05742481 -1.4710578 0.81218505 -1.3540362 2.3623638 -0.7144369 -0.08762087 -0.078500636
00000000: 1a14 17bd 8284 28be 950f 00bc c9c2 7cbf
00000010: 3518 55be 7e6b f1bd 4f68 7abe 01c7 9c3f
00000020: a71a f7be 2a37 b9be 3b0a 61be 88d6 e5bd
00000030: 49e6 1cbe bc1c 3fbe 0ef5 1dc0 ebfd 97bf
00000040: 7f39 14bf f7e2 a9bd f8c6 1ebf ef86 d3be
00000050: d103 f3bd 8cb2 813f db91 bb3f 67a3 f4bd
00000060: c27f a5bf 9013 b7bf c376 21bb c395 ca3e
00000070: 6b90 06be c9f1 b9bf 9575 b3bf 0eea 973f
00000080: 553b b0bd fe57 05be 2b99 6dbf 036b 1ec0
00000090: 462b dfbd c7e4 fdbf a6cd cf3f 8ae9 e7bd
000000a0: 4b98 d0bf 3cd4 d1bf 96b9 1a3e deca 03c0
000000b0: fe7d d3bd ea9f d6bd fa4e 04bc df91 9ebf
000000c0: 88cb 70bf 70e0 9bbd 09cd 7c3f cafc 11c0
000000d0: b51a 08bf 1bee 15be 2123 c9bd ca46 1fbd
000000e0: 1dd7 a0bd 41d5 46bd 1c60 c0bd bd17 c3be
000000f0: a2e4 c1bd e72e b1bf 2637 f5bf 9d67 12be
00000100: 89d2 ffbf 71eb b4bd 141b 6f3f db40 e1bf
00000110: 23c4 573f 6152 83bd 45d5 3cbf 5c58 bdbd
00000120: f9be d03f 5400 14be 4b38 95be 19a4 99bd
00000130: 34ee 19be 1e59 83bd a784 0abf 6f1c 4ebe
00000140: a0bd c6bf 331b 3fbf aab0 73bf e38a fdbf
00000150: 8d0f dcbe 454f bcbd a2a4 22c0 ce28 43bf
00000160: 6e21 25c0 444e 6ebe fa39 00be 1ccd 8fbe
00000170: e13d 4ebe a386 aabe 693a 32c0 d271 3ec0
00000180: e40b 28be 7be8 0c40 eca9 05c0 25fc a7bf
00000190: acdc 89be 5fe8 f83f 17ee 0dbe d7f9 fabf
000001a0: 9a96 2dbf 65ca 27be 74c0 da3e 4dad ccbd
000001b0: 585a b43f 5443 1dbf 94cb 38bd 33fc 95bd
000001c0: 46cb 0cbe 1c4e a93f 127e 4cbe 580f 74bf
000001d0: 59e6 31be a8e2 bcbf 5efc 313f 9629 76bd
000001e0: ecb3 0cbf 44fc a7bf 7482 9abf ba39 6bbf
000001f0: 7e12 84be de4a 2dbe 1db9 10be 8f2d dc3e
00000200: 515d 1ebe 4665 80bf 6fc3 39be ca95 23c0
00000210: c506 86bf 6d11 7c3e a139 b8bd ea0f 7abe
00000220: e343 55be 0872 013f 75e1 39bf 689e 203f
00000230: b837 31bf e01b d1bd 0ea7 a8bd 9fd8 19be
00000240: f2b2 8cbf 7f0c 573e 69ee d8be 7b37 38bf
00000250: 8ea6 a5be d689 04c0 6e3b 4abf 0e5e b7bd
00000260: 7dfe e4bd 1e8d e7bd a9de b8bf e1d7 4fbe
00000270: 1bc5 7fbd 6838 7ebd 6935 acbf d1c2 aebd
00000280: e759 f3bf dbe1 babd 1acb 33be 55f3 08be
00000290: 3322 cdbd 72ce 27bd 89ac 40bf 8215 c03f
000002a0: 59ea 3fc0 971d ec3e f3ec 6bc0 7bcb efbd
000002b0: 3ff0 38be 9efd 30bf fab6 9a3f d9d0 b8be
000002c0: 62fa 9bbf 3203 c43f 5236 7dbd 73c9 3abe
000002d0: 0b6d 23be 3265 69bd af46 d13e 04fd 2fbe
000002e0: 1644 653f 7c5e 3abe f070 91bd 3a42 09be
000002f0: b6a3 f8bc df46 15c0 38ce ddbf 9517 06c0
00000300: 3d8f 4abe 1bc5 12bf 7052 44bf 9ec2 6ebd
00000310: 6bc4 dcbd f4e4 06bf b111 30be 84c0 01be
00000320: 59a6 1bbe 7c3f 37bf 8d19 95bf c589 94bf
00000330: 8071 f1bd 6556 82bf 54f1 25bf f3c5 b3bf
00000340: bc72 c7bd 0a88 4fbf 87ac 90bd ec60 a5bd
00000350: d6c5 993f edda 46bd e68d b53e c132 bebd
00000360: 94ae 1f3f 6a26 33be 498e 9a3e 0c4a 08c0
00000370: c905 c6bd ef8e dc3e 3357 18be e853 3dbe
00000380: ed83 3dbc 6fd7 a9bc 01fa 453f 0879 533f
00000390: e3c5 19bf 16e6 d7bf 2015 0dc0 3c6b 45bd
000003a0: fbc8 62c0 1024 49bf 7a87 3cbe 32e8 1bbe
000003b0: 0050 fbbf c2bb b8be 811f dbbd a09c 16be
000003c0: 4ca8 bdbd b517 84c0 377d 1fbe 8017 d2bd
000003d0: 589e 1fbe 075e 59bf f571 1cbe 9d17 1cc0
000003e0: 4736 6bbd 9f4b bcbf 5ceb 4f3f 0f51 adbf
000003f0: f830 1740 56e5 36bf 9272 b3bd f1c4 a0bd

weight f4 [6, 256]
-0.03959787 0.037143633 -0.23553671 0.20403162 0.028943881 -0.023936506 -0.14388429 -0.01503635
0.072115846 -0.08030194 -0.087393016 0.0072266636 0.040564433 -0.067442685 -0.2707992 -0.08414966
0.12277825 0.04068673 -0.331852 -0.3475751 0.0011106649 0.023541575 0.070509434 0.048415035
0.15752144 0.052621234 -0.10610898 0.12849474 -0.017220337 -0.51457953 0.22733921 -0.0178735
-0.026114345 -0.054462384 0.08455149 0.10535013 0.0008333897 -0.22456695 -0.00717288 0.027841318
-0.12798253 0.057361823 0.0416174 0.25470304 0.051027212 -0.044979203 -0.15114574 0.07821011
0.035845105 0.011123687 0.07080157 0.016954511 -0.20443739 -0.026790887 -0.1242602 0.11137692
-0.15291871 0.14098461 0.014838556 0.049973506 0.011266038 0.21620731 -0.1730739 -0.009952593
-0.24887998 -0.19648437 0.024557818 0.17254159 -0.11708582 0.048900694 -0.2634033 -0.02349177
0.08658633 0.077094525 0.11659427 0.03957969 0.09725922 -0.13240321 0.23147017 0.07668292
-0.33633214 -0.089695394 -0.10411288 -0.107259825 -0.30154508 -0.014125844 0.13527845 -0.30496603
-0.5764884 -0.1128787 -0.06802056 0.08856674 0.053964593 -0.09076764 -0.09518859 0.24496362
0.05281056 -0.0017251899 -0.11698514 -0.2861996 0.035186544 -0.06877893 0.043594457 0.28371137
-0.10301403 0.008652271 0.2232657 -0.020064332 0.100592226 -0.30805266 0.029905736 0.053407386
-0.059648115 0.034946907 0.03326974 0.084981225 -0.07315767 -0.01946945 0.2308853 0.046220105
0.02874695 -0.31091017 0.20152 0.027131898 -0.06522998 -0.0084853405 0.007653332 -0.24420837
0.018042624 0.2849104 0.006068928 0.052025527 -0.3679661 -0.037655935 -0.09001553 0.20653556
-0.0057527106 -0.1801056 0.046528496 -0.118753254 0.04038515 0.058456633 -0.029201418 -0.0052446206
0.6145181 -0.032162763 0.16511904 0.1486789 -0.6368716 0.19496028 0.10988668 -0.062021125
0.028385097 0.06372504 -0.090736106 0.0446193 0.038019743 -0.0055314414 0.124459125 -0.032612268
0.4519324 0.0066939457 -0.08276955 0.1554632 -0.053329088 -0.014604202 -0.359551 -0.11381752
0.023714514 -0.2520578 -0.18035829 -0.06044941 0.06822066 0.048354615 0.031802025 -0.5306906
-0.23991401 -0.18885618 -0.21527354 -0.029419336 -0.022596167 -0.016104527 -0.11072316 -0.07875799
-0.011085691 -0.012985975 0.04108697 0.13572733 0.14392488 -0.008111468 0.057970237 0.19659235
0.06520658 -0.27392495 -0.042263117 -0.0745055 0.060280386 -0.08162911 -0.03789273 0.0895788
-0.005550293 -0.39625883 -0.32442468 0.0014314004 -0.024858898 0.17938216 -0.25286117 -0.08637562
0.10419486 0.07173571 -0.04049873 -0.09034163 -0.30141577 -0.031747974 0.073295504 -0.07400157
0.26705015 0.025917707 0.206584 -0.41553658 -0.08300705 -0.08384567 -0.067709036 0.030408805
0.018340405 -0.059197575 -0.0032042959 0.038412854 0.073883355 -0.24902926 -0.02999895 0.092874244
0.382649 -0.17872839 -0.006613762 0.076339215 0.22574203 -0.0038132707 0.21295278 -0.031305842
0.053347986 -0.7505507 -0.015741153 0.010997617 0.003625893 -0.052987874 0.01211167 0.3346064
0.04628574 0.11560664 0.20047988 -0.3468493 -0.2920744 0.01712459 -0.0070055965 0.003650878
00000000: 6031 22bd ec23 183d 8930 71be aaed 503e
00000010: b81b ed3c 7e16 c4bc 6756 13be 065b 76bc
00000020: 79b1 933d 5875 a4bd 1cfb b2bd a6cd ec3b
00000030: e426 263d 641f 8abd 31a6 8abe a856 acbd
00000040: 2a73 fb3d 21a7 263d 81e8 a9be 5df5 b1be
00000050: bb93 913a 43da c03c 4067 903d d84e 463d
00000060: 4d4d 213e 5d89 573d aa4f d9bd 2094 033e
00000070: aa11 8dbc 7cbb 03bf 9ccb 683e 726b 92bc
00000080: c0ed d5bc f313 5fbd 5529 ad3d cfc1 d73d
00000090: d677 5a3a e1f4 65be 7b0a ebbb 7a13 e43c
000000a0: da0d 03be 3bf4 6a3d 0277 2a3d 7068 823e
000000b0: e901 513d 1d3c 38bd f3c5 1abe 9f2c a03d
000000c0: 51d2 123d 2040 363c 6a00 913d 30e4 8a3c
000000d0: 0958 51be 9078 dbbc 227c febd 9519 e43d
000000e0: b996 1cbe 455e 103e 6a1d 733c 05b1 4c3d
000000f0: 3095 383c 7365 5d3e 493a 31be 3310 23bc
00000100: 65da 7ebe 3333 49be 7a2d c93c beae 303e
00000110: b1ca efbd 184c 483d ccdc 86be d071 c0bc
00000120: 2c54 b13d bce3 9d3d fac8 ee3d 501e 223d
00000130: d82f c73d b594 07be 8406 6d3e ef0b 9d3d
00000140: ba33 acbe 38b2 b7bd 2239 d5bd 0aab dbbd
00000150: 1e64 9abe 1670 67bc 6f86 0a3e 8224 9cbe
00000160: be94 13bf f32c e7bd 5d4e 8bbd 7b62 b53d
00000170: fa09 5d3d 62e4 b9bd 3cf2 c2bd bed7 7a3e
00000180: e34f 583d c41f e2ba e895 efbd c188 92be
00000190: c41f 103d f8db 8cbd 1a90 323d 9e42 913e
000001a0: 05f9 d2bd 41c2 0d3c c39f 643e f45d a4bc
000001b0: 4c03 ce3d 14b9 9dbe e0fc f43c b4c1 5a3d
000001c0: 9551 74bd 7d24 0f3d da45 083d a30a ae3d
000001d0: b0d3 95bd 657e 9fbc 326d 6c3e 4b51 3d3d
000001e0: b97e eb3c 9e2f 9fbe 425b 4e3e b743 de3c
000001f0: 4c97 85bd 1906 0bbc cdc8 fa3b c211 7abe
00000200: 20ce 933c c7df 913e dcdd c63b b818 553d
00000210: 0d66 bcbe 1c3d 1abd 105a b8bd 0f7e 533e
00000220: 3c81 bcbb 9a6d 38be aa94 3e3d e834 f3bd
00000230: e66a 253d 3970 6f3d d037 efbc 11db abbb
00000240: 0f51 1d3f 1abd 03bd f714 293e 483f 183e
00000250: 040a 23bf aba3 473e 450c e13d dd09 7ebd
00000260: dd87 e83c 4682 823d dad3 b9bd bac2 363d
00000270: 97ba 1b3d 1841 b5bb 6de4 fe3d 7194 05bd
00000280: af63 e73e e358 db3b 1583 a9bd bf31 1f3e
00000290: 9a6f 5abd 7646 6fbc 1217 b8be 2919 e9bd
000002a0: f144 c23c b80d 81be d8af 38be cd99 77bd
000002b0: 46b7 8b3d 7d0f 463d d742 023d 57db 07bf
000002c0: 05ac 75be 8463 41be ab70 5cbe d200 f1bc
000002d0: 991b b9bc a4ed 83bc d3c2 e2bd de4b a1bd
000002e0: c2a0 35bc 20c3 54bc d04a 283d 1bfc 0a3e
000002f0: 0b61 133e f6e5 04bc 3372 6d3d 814f 493e
00000300: 078b 853d e43f 8cbe 171c 2dbd 5796 98bd
00000310: 91e8 763d 2a2d a7bd 6835 1bbd 1775 b73d
00000320: 3bdf b5bb 70e2 cabe fe1a a6be d49d bb3a
00000330: e3a4 cbbc f5af 373e 0577 81be b3e5 b0bd
00000340: 1d64 d53d 2cea 923d ffe1 25bd 0805 b9bd
00000350: 2b53 9abe 2a0a 02bd f41b 963d 238e 97bd
00000360: ccba 883e 5f51 d43c c28a 533e 36c1 d4be
00000370: 9aff a9bd 47b7 abbd 09ab 8abd e31b f93c
00000380: 9e3e 963c 2879 72bd 2aff 51bb cc56 1d3d
00000390: 2850 973d 8701 7fbe 5cc0 f5bc da34 be3d
000003a0: 92ea c33e 9304 37be 42b8 d8bb bc57 9c3d
000003b0: eb28 673e 11e8 79bb 4b10 5a3e 8e3a 00bd
000003c0: 6b83 5a3d 1724 40bf 97f3 80bc 592f 343c
000003d0: 64a0 6d3b d009 59bd 0770 463c 8851 ab3e
000003e0: 1e96 3d3d 2dc3 ec3d 994a 4d3e 3b96 b1be
000003f0: c78a 95be de48 8c3c 348f e5bb 9243 6f3b

bias f4 [6]
0.44511977 0.4294846 -0.13252419 0.6631617 0.27603835 0.08914269
00000000: bde6 e33e 68e5 db3e 6cb4 07be f7c4 293f
00000010: e654 8d3e 7190 b63d

weight f4 [6, 256]
0.02779131 0.04404483 0.08610993 0.04937686 0.07213272 0.030729506 0.14772265 0.012112581
0.091192625 0.21828556 0.04870003 -0.0765764 0.048507757 -0.0009510435 -0.0067355973 0.24625899
0.0048578465 0.039627504 0.30593625 0.30631226 -0.08064007 -0.0033058876 0.06896798 0.1043582
0.52435416 0.01749909 0.01328381 0.0128550455 0.009554225 0.39119643 -0.019512685 -0.02324206
0.109447055 0.065508164 -0.0069073634 -0.027087227 -0.0054621305 0.51601815 0.0062056063 0.008827288
0.09229593 0.019294104 -0.090921886 0.40473425 0.097919814 0.007870287 0.27698752 0.18807714
0.14714542 0.004171643 -0.03973351 0.050194144 0.03156834 0.09123288 0.07462898 -0.02786886
0.1492048 0.012878777 -0.022943906 0.00029065588 0.053309567 0.3125954 0.09962737 -0.052010406
0.14598152 -0.07827385 0.0016366771 0.32363054 0.0567176 0.031498916 0.19889265 0.052047323
-0.050898243 -0.0288126 0.04279237 0.030246885 0.058583073 0.058269225 0.12664883 0.012247869
0.03459651 0.025985368 0.018203558 0.059743922 0.5310338 -0.0031410868 -0.026358277 0.2710834
0.13251363 0.11197792 0.068626046 -0.009782803 0.06580141 0.33334514 -0.031224793 -0.006842276
0.061484154 -0.010579134 0.07635507 0.055052835 0.025231302 -0.0035952018 0.016118625 0.34683642
0.18353358 -0.01117907 0.09718485 0.022361739 -0.02170474 0.25571486 -0.049700495 0.052728694
-0.0021400773 0.009158893 0.050177727 0.061364584 0.09672256 -0.0010305573 0.061755747 -0.013219386
-0.0028795744 0.26849264 0.29342574 -0.08103634 0.1075004 -0.015016257 0.047069393 0.035986505
-0.03256482 0.5624172 0.034709577 0.014518245 -0.08082337 -0.012120633 -0.0027746472 -0.049324475
0.044029906 0.031156668 0.014529711 -0.026294045 -0.028180335 0.01405274 0.0418949 0.08652078
0.14673664 -0.019380767 0.27920225 0.024179282 0.49914777 0.30737445 0.024953295 0.08655244
-0.024159506 0.021642072 0.26100117 0.08026887 -0.06726396 0.011309884 0.12680219 0.02097537
0.07995545 -0.02542505 0.16390575 0.14256147 -0.11539021 0.07278377 0.25392887 -0.06272023
0.02838122 0.36700258 0.080988765 -0.0031846254 0.08375008 -0.14521264 0.01583433 0.11875505
0.4389173 -0.07846667 0.14167513 0.074321724 0.07965246 0.036380164 -0.016584132 -0.028505351
-0.018982787 -0.09348954 -0.04522832 0.103775695 -0.10541898 0.11080656 -0.033200014 0.077535376
0.006044991 0.1649144 -0.011583291 0.09929606 0.0576781 0.46232006 0.07212782 0.12743856
0.012188235 0.09681392 0.094071805 0.014839856 0.012477147 0.45585468 0.033472717 0.06632698
0.0007098496 -0.016039466 0.10548153 -0.0258763 0.05792275 0.021915821 0.5836386 -0.06863164
0.1758483 -0.060052995 0.05754223 0.011074567 0.003302938 0.0556388 0.019222302 0.06782325
0.059438128 -0.053915296 -0.017042816 -0.02954457 0.030977802 0.044539325 0.08690739 -0.007347855
0.10331678 0.68928915 0.050333735 -0.006786981 0.07635195 0.012942967 0.0046367715 -0.04759634
0.036049508 0.03920681 0.054543383 -0.04594817 -0.026950207 -0.010631396 0.022709943 0.56786746
0.039630365 -0.039896484 0.04344823 0.394493 0.017724497 0.06523311 0.09038919 0.08148225
00000000: 9aaa e33c 5a68 343d 675a b03d 643f 4a3d
00000010: 52ba 933d 72bc fb3c 9b44 173e d973 463c
00000020: 33c3 ba3d 4086 5f3e af79 473d 16d4 9cbd
00000030: 12b0 463d 734f 79ba 49b6 dcbb 512b 7c3e
00000040: 922e 9f3b 7350 223d ada3 9c3e f6d4 9c3e
00000050: 9f26 a5bd 97a7 58bb 163f 8d3d c1b9 d53d
00000060: 133c 063f 405a 8f3c 56a4 593c f89d 523c
00000070: 5389 1c3c e64a c83e 11d9 9fbc 2266 bebc
00000080: c725 e03d 2529 863d 2a57 e2bb 08e6 ddbc
00000090: acfb b2bb c419 043f 6658 cb3b 54a0 103c
000000a0: a605 bd3d ab0e 9e3c 4135 babd 5439 cf3e
000000b0: 2f8a c83d 60f2 003c 4fd1 8d3e 4b97 403e
000000c0: 4aad 163e 47b2 883b 9bbf 22bd 6098 4d3d
000000d0: ce4d 013d 4ed8 ba3d 14d7 983d 3c4d e4bc
000000e0: 25c9 183e 8201 533c dcf4 bbbc 2c63 9839
000000f0: 225b 5a3d 810c a03e 6f09 cc3d dd08 55bd
00000100: 2e7c 153e 0a4e a0bd c585 d63a e7b2 a53e
00000110: b750 683d 0205 013d 84aa 4b3e 932f 553d
00000120: ad7a 50bd 6708 ecbc 0d47 2f3d 51c8 f73c
00000130: cef4 6f3d b6ab 6e3d 3bb0 013e 49ab 483c
00000140: 12b5 0d3d 44df d43c a11f 953c 0bb6 743d
00000150: d5f1 073f b1da 4dbb 50ed d7bc 72cb 8a3e
00000160: a7b1 073e ae54 e53d d08b 8c3d 0d48 20bc
00000170: e4c2 863d 37ac aa3e 23cb ffbc 2c35 e0bb
00000180: cfd6 7b3d 1b54 2dbc 0c60 9c3d 157f 613d
00000190: e0b1 ce3c 7a9d 6bbb 350b 843c 8b94 b13e
000001a0: 3af0 3b3e 6b28 37bc da08 c73d f72f b73c
000001b0: 24ce b1bc 0fed 823e bf92 4bbd 0bfa 573d
000001c0: 8a40 0cbb 2e0f 163c 2987 4d3d 6e59 7b3d
000001d0: 7a16 c63d c413 87ba 98f3 7c3d 2096 58bc
000001e0: 3eb7 3cbb de77 893e e63b 963e 61f6 a5bd
000001f0: 2b29 dc3d bf06 76bc d6cb 403d 9666 133d
00000200: b062 05bd 93fa 0f3f a12b 0e3d efdd 6d3c
00000210: b986 a5bd 9f95 46bc dbd6 35bb 7608 4abd
00000220: b458 343d 453c ff3c 060e 6e3c 9c66 d7bc
00000230: 72da e6bc 773d 663c fd99 2b3d cf31 b13d
00000240: 2142 163e 6ac4 9ebc 99f3 8e3e a113 c63c
00000250: 4c90 ff3e 2f60 9d3e da6a cc3c 6842 b13d
00000260: 28ea c5bc b74a b13c f2a1 853e 0164 a43d
00000270: b0c1 89bd 174d 393c 6fd8 013e 8ad4 ab3c
00000280: afbf a33d 3248 d0bc e9d6 273e a2fb 113e
00000290: b451 ecbd a80f 953d f702 823e 7773 80bd
000002a0: bb7f e83c c3e7 bb3e 70dd a53d 26b5 50bb
000002b0: 2985 ab3d 9fb2 14be ffb6 813c d935 f33d
000002c0: c5b9 e03e 22b3 a0bd 4913 113e fd35 983d
000002d0: d420 a33d 5e03 153d 72db 87bc 0e84 e9bc
000002e0: ca81 9bbc 7277 bfbd 5541 39bd 5a88 d43d
000002f0: e8e5 d7bd 8dee e23d bdfc 07bd deca 9e3d
00000300: 0f15 c63b 52df 283e d8c7 3dbc bc5b cb3d
00000310: df3f 6c3d 37b5 ec3e c0b7 933d 417f 023e
00000320: 2ab1 473c 6046 c63d b8a8 c03d de22 733c
00000330: f36c 4c3c c965 e93e b01a 093d 71d6 873d
00000340: 3315 3a3a 3365 83bc b306 d83d 89fa d3bc
00000350: 6840 6d3d cf88 b33c 5769 153f bf8e 8cbd
00000360: 9411 343e 21fa 75bd 67b1 6b3d 1a72 353c
00000370: 1b76 583b 83e5 633d 1778 9d3c ebe6 8a3d
00000380: 6575 733d 49d6 5cbd 609d 8bbc 7407 f2bc
00000390: 29c5 fd3c de6e 363d 80fc b13d 46c6 f0bb
000003a0: bf97 d33d 4175 303f bf2a 4e3d 5365 debb
000003b0: 695e 9c3d bd0e 543c 0ff0 973b 61f4 42bd
000003c0: a6a8 133d 5297 203d e268 5f3d 2634 3cbd
000003d0: aec6 dcbc 4f2f 2ebc 340a ba3c c35f 113f
000003e0: 7353 223d 7f6a 23bd c5f6 313d fdfa c93e
000003f0: f732 913c f098 853d f81d b93d 2ae0 a63d

bias f4 [6]
-0.71548605 -0.38626036 -1.1223385 -0.6322918 -0.5381052 -1.2587479
00000000: 182a 37bf ebc3 c5be caa8 8fbf e0dd 21bf
00000010: 43c1 09bf a71e a1bf

weight f4 [256, 23]
-4.434314 5.033459 -1.9630542 -1.7614775 -0.43151712 -3.1696622 -1.0515856 -3.7329416
1.3347995 -2.4008534 -0.65461695 -0.24047212 -0.16264774 -0.010418383 0.5953855 0.018950848
-0.10967872 0.062534004 0.026111538 0.13870876 -0.29267678 -0.41613975 -0.5963927 -2.1268625
3.5661547 -0.8298736 1.5191547 -0.08320239 3.332722 -2.6543174 -1.1224566 -1.5294403
-0.023382323 0.2897846 -0.040709663 0.07227893 0.07369335 -0.13248788 -0.2550087 -0.24071994
0.42902988 -0.11015809 0.055333532 0.09449153 0.0036307774 0.647235 -3.6623595 -6.643365
-1.2008119 -4.020955 1.1791267 -1.8963889 0.6478373 0.3720856 0.068691626 0.5095825
-0.65508395 0.3004198 -0.05708505 -0.010048452 0.096790165 0.06928856 0.044568308 -0.10870832
-0.8882675 -0.38162884 -0.6248659 -0.05776438 0.31553522 -3.4616928 3.3442092 1.3560041
-2.7393048 -0.5250344 -5.495959 -2.2929273 -1.4677619 0.29487404 -1.4325575 0.38606602
-0.42905885 -0.3010617 0.051168174 0.04877343 0.36840117 0.19148387 -1.2652706 -0.74147844
0.20252636 -0.37806374 0.31219393 -2.0592437 -2.4268155 0.98838425 5.1311216 -2.2328684
-0.32711715 3.196016 4.2123103 -2.1932116 -0.9098601 1.0665318 0.6438768 -0.792849
0.081454135 0.3756983 -0.40873846 -0.5400946 0.15777996 -5.119837 0.93577975 -0.56650615
-4.922869 -1.5700822 0.172522 -3.641969 -5.2446184 -1.6005971 -2.8639483 1.7018886
-0.24126562 -0.6528337 1.5833153 -0.53240675 0.49129137 0.5096929 -0.35052115 -0.14582904
0.19742303 -0.1756663 0.17730244 -0.04463768 -0.7009356 0.38458094 0.04272087 -0.023821933
-0.3298863 -0.15506944 -2.5670407 3.7189646 -3.0191102 -0.21083751 -0.7058277 -1.2516804
1.0238996 -0.8571274 0.0918897 0.16502313 -0.1628401 -0.09538111 0.06099038 -0.12561417
0.20218456 0.04689295 -0.005434701 0.57491004 0.049465813 -0.3277997 -0.5233734 -0.04821831
0.46614793 2.5175757 8.1597595 -5.2720814 -2.52666 0.1943426 -3.2468388 -1.6809604
-0.39783466 -0.62078035 0.061585 1.0056108 -0.6806564 -0.3295298 -0.038182855 -0.17591101
-0.10698037 0.0022571387 -0.13031773 -0.024133623 -0.02058228 0.10033948 0.03338508 0.3039615
-4.850216 -0.49277565 -0.55556613 -5.038986 2.2111707 -2.0816302 1.5061089 -1.8994871
-0.22619227 -0.07263907 0.28525105 -0.10679851 -0.81093687 0.15348054 -0.22035576 0.1362669
-0.1262862 -0.34966797 0.2755715 -0.14294617 0.68951666 -0.057328787 0.34626037 -4.5870986
2.0255032 0.56383854 0.034398526 0.193526 -1.6354617 -0.80489373 0.20788255 -0.14462179
-0.31187493 0.27550372 -0.12039019 -0.028971806 0.017126627 -0.11269483 -0.089130364 -0.013041575
-0.18863359 -0.093155205 0.2654722 0.09306556 0.023997601 0.41786817 -2.8525085 6.504863
-2.3870416 -1.5200288 -0.42013973 -1.3608255 -3.3545527 2.2217755 -0.6768252 -0.40290177
-0.48388118 -0.08057299 -0.25581935 0.14474104 0.28422496 0.12354444 0.18922786 -0.15879673
0.18709284 0.49094796 -0.5925529 0.79151404 -0.6498328 0.043244086 -4.61032 12.658881
00000000: e6e5 8dc0 1912 a140 5c45 fbbf 1878 e1bf
00000010: d0ef dcbe bfdb 4ac0 5b9a 86bf 84e8 6ec0
00000020: b6da aa3f 95a7 19c0 fa94 27bf 533e 76be
00000030: 218d 26be deb1 2abc 2f6b 183f cf3e 9b3c
00000040: 3d9f e0bd d411 803d dde7 d53c ab09 0e3e
00000050: bbd9 95be 4510 d5be 31ad 18bf 841e 08c0
00000060: e13b 6440 9972 54bf a973 c23f 0466 aabd
00000070: 514b 5540 56e0 29c0 a8ac 8fbf b3c4 c3bf
00000080: 498c bfbc a65e 943e 2dbf 26bd fa06 943d
00000090: 8aec 963d e7aa 07be 8090 82be 4a7f 76be
000000a0: cea9 db3e 919a e1bd 6aa5 623d c684 c13d
000000b0: 56f2 6d3b 31b1 253f 1964 6ac0 7296 d4c0
000000c0: 34b4 99bf aaab 80c0 a0ed 963f dfbc f2bf
000000d0: aad8 253f 0182 be3e 32ae 8c3d 0074 023f
000000e0: 95b3 27bf a0d0 993e 03d2 69bd 43a2 24bc
000000f0: ec39 c63d 29e7 8d3d 428d 363d 78a2 debd
00000100: 8065 63bf db64 c3be 36f7 1fbf 589a 6cbd
00000110: d58d a13e 608c 5dc0 8607 5640 8b91 ad3f
00000120: c550 2fc0 a868 06bf e5de afc0 52bf 12c0
00000130: 9fdf bbbf bbf9 963e 0b5e b7bf 72aa c53e
00000140: 9aad dbbe c224 9abe b895 513d a6c6 473d
00000150: 149f bc3e 5914 443e 63f4 a1bf 88d1 3dbf
00000160: 1263 4f3e 9291 c1be e2d7 9f3e a6ca 03c0
00000170: f250 1bc0 c006 7d3f 2632 a440 51e7 0ec0
00000180: e67b a7be 878b 4c40 3fcb 8640 945d 0cc0
00000190: 97ec 68bf 1d84 883f 1cd5 243f 27f8 4abf
000001a0: 6dd1 a63d 875b c03e 2b46 d1be a443 0abf
000001b0: 1291 213e b4d5 a3c0 438f 6f3f 8c06 11bf
000001c0: 2588 9dc0 74f8 c8bf 9ba9 303e 0516 69c0
000001d0: ead3 a7c0 5ee0 ccbf ee4a 37c0 7cd7 d93f
000001e0: 560e 77be 1c20 27bf 13aa ca3f cf4b 08bf
000001f0: 8b8a fb3e 3c7b 023f 8277 b3be 3554 15be
00000200: 4329 4a3e dee1 33be c58e 353e 00d6 36bd
00000210: 8470 33bf cbe7 c43e 14fc 2e3d 3726 c3bc
00000220: dbe6 a8be 86ca 1ebe 654a 24c0 8403 6e40
00000230: 1a39 41c0 cae5 57be 20b1 34bf 1037 a0bf
00000240: 240f 833f b46c 5bbf ab30 bc3d d3fb 283e
00000250: 8ebf 26be 2c57 c3bd 0cd1 793d 00a1 00be
00000260: 7809 4f3e d212 403d 9415 b2bb 4e2d 133f
00000270: aa9c 4a3d 5dd5 a7be cdfb 05bf 9080 45bd
00000280: f1aa ee3e f61f 2140 608e 0241 e4b4 a8c0
00000290: ccb4 21c0 bf01 473e 35cc 4fc0 b629 d7bf
000002a0: fcb0 cbbe 76eb 1ebf 8e40 7c3d dbb7 803f
000002b0: 7f3f 2ebf 21b8 a8be a065 1cbd 0422 34be
000002c0: 8618 dbbd 81ec 133b 0372 05be e0b3 c5bc
000002d0: 2b9c a8bc c97e cd3d cbbe 083d d7a0 9b3e
000002e0: f834 9bc0 174d fcbe 9539 0ebf 603f a1c0
000002f0: d283 0d40 6e39 05c0 2dc8 c03f 6522 f3bf
00000300: f29e 67be cbc3 94bd 6d0c 923e 2db9 dabd
00000310: 8f99 4fbf 012a 1d3e f1a4 61be 8d89 0b3e
00000320: 2b51 01be ae07 b3be b517 8d3e 7b60 12be
00000330: 2a84 303f 97d1 6abd 0a49 b13e 83c9 92c0
00000340: d8a1 0140 b957 103f 78e5 0c3d ae2b 463e
00000350: cf56 d1bf 840d 4ebf 2adf 543e bc17 14be
00000360: 12ae 9fbe d30e 8d3e 228f f6bd 4856 edbc
00000370: 244d 8c3c 8ccc e6bd fb89 b6bd 55ac 55bc
00000380: 2a29 41be 28c8 bebd f9eb 873e 2899 be3d
00000390: 9e96 c43c d1f2 d53e 808f 36c0 d627 d040
000003a0: 4ac5 18c0 4e90 c2bf 8e1c d7be 882f aebf
000003b0: feb0 56c0 9231 0e40 6b44 2dbf 2449 cebe
000003c0: 46bf f7be 7403 a5bd c1fa 82be ff36 143e
000003d0: ef85 913e de04 fd3d f3c4 413e 9c9b 22be
000003e0: 4495 3f3e 885d fb3e 8cb1 17bf aaa0 4a3f
000003f0: 715b 26bf b620 313d be87 93c0 c78a 4a41

bias f4 [256]
-2.3995745 3.312148 -3.476161 -0.8370032 -3.1809547 -2.425425 3.892142 -4.8562775
-4.501259 6.824154 -2.723184 0.65874636 -0.24340938 -3.9122922 0.85260606 -6.533038
-0.3138084 -3.603752 -3.401332 0.55770534 -6.0717506 -2.884324 -2.1615586 -3.6796787
-4.688167 -2.9712892 -3.9455562 7.3110285 -4.05675 -3.697031 -3.873295 -2.344052
-5.1169243 -3.6385548 -5.0031724 -3.3047712 -2.7801714 -0.44003615 -2.1522212 -2.0839949
-2.7855818 -3.815106 -2.1955214 -2.3939257 0.5901174 -2.767211 -0.6867053 -4.806909
-3.7251225 -3.7977703 -2.076384 -2.6409037 -2.1512222 -3.7427099 -1.5826648 -2.5909538
-3.1449282 -8.334728 -4.141948 -2.2259707 -3.671544 -3.9366987 -4.3793287 6.0183597
-4.7730017 -2.7388408 -2.2397742 -3.2680333 -0.55879307 -2.1058145 -4.753593 -1.5920835
-4.0484614 -4.9540935 -3.644059 4.4655876 3.0982533 -1.7817621 -4.8704424 -4.784278
-1.8453245 5.377914 5.293898 2.2647793 -2.8210673 -3.4419394 5.4674096 -3.0736113
-7.522741 -3.6335416 0.4000309 -3.9683018 0.11217611 -2.7857523 -2.298704 -3.083778
-5.817927 -2.8468583 -3.7031143 -2.6907568 -5.8458934 -4.52374 -2.0495396 -4.2659297
-2.3221283 -1.1224597 -3.5252712 -3.3750806 1.2048551 5.754925 -2.6349254 -7.682149
-4.5844307 -3.5507023 -5.425669 -2.4021168 0.62421775 -4.931779 -2.5969362 -0.7068138
-1.8722 -5.909627 6.442954 4.1602926 0.59565306 -0.8371418 -2.326309 -3.2205336
4.3909082 5.897618 1.9362196 2.834072 -2.3137803 2.093051 -6.8138375 -3.8060517
6.100136 -2.4308374 -1.8086811 -2.400348 -0.86621976 3.8800097 2.4949377 -3.8274791
-1.2203822 -3.104992 -0.9002507 0.50357544 5.718456 -2.8862212 -3.61813 -6.4681535
-4.9544783 -1.0941966 -0.52786523 -2.9711344 -3.7483993 2.057723 6.070149 -0.89710367
1.3519545 -5.131526 -1.5797858 -5.2353506 -3.7343194 -3.2393665 -4.124619 -1.0721046
-2.162305 -3.4801466 6.408668 -2.3118236 -2.5561893 -1.5526469 0.55732065 -3.0888085
-3.5028913 -2.6132026 -1.6388155 -6.1233535 6.8679905 -0.86667305 1.4479196 -2.2572248
-0.6906334 -3.0983613 -4.5947638 -3.9177718 -7.470908 -1.3114442 -3.4486754 -1.0589844
-2.366052 -4.4073386 -2.4302416 -4.7893124 1.5405098 4.2066636 -3.8160257 0.21298036
-3.8831034 -5.115677 -2.0748003 -4.197683 -4.101421 1.7039373 -3.804989 -3.305138
-2.8890524 2.8566527 -2.4826102 5.455269 5.095243 -1.3463453 -5.3193083 -3.0007336
-4.418474 -2.9024444 -0.33807656 6.240829 -3.098789 -3.1049027 -2.2800665 1.1616125
-3.0048418 -6.3424473 -1.1797217 -3.0197992 0.30770954 -6.599602 -7.8291736 -4.1305537
-4.3391585 -1.5109636 -1.9178591 -3.927131 5.8406506 6.960858 -2.320304 -5.166334
-2.759276 -2.6323688 1.6119019 1.4986253 5.2408175 -1.0506026 -1.8022462 -1.8348197
-3.3375192 -3.1573098 0.7746649 -2.7332163 -4.104846 4.8080926 -5.6344957 0.05315505
00000000: a192 19c0 3cfa 5340 6c79 5ec0 d745 56bf
00000010: c394 4bc0 2a3a 1bc0 db18 7940 a066 9bc0
00000020: 500a 90c0 785f da40 a648 2ec0 9aa3 283f
00000030: 4f40 79be ff62 7ac0 6444 5a3f a60e d1c0
00000040: 7fab a0be dfa3 66c0 6caf 59c0 c7c5 0e3f
00000050: c84b c2c0 c498 38c0 fa56 0ac0 db7f 6bc0
00000060: 7705 96c0 9a29 3ec0 fe83 7cc0 f2f3 e940
00000070: e5d0 81c0 289c 6cc0 11e4 77c0 f304 16c0
00000080: d8bd a3c0 15de 68c0 fd19 a0c0 5f81 53c0
00000090: 54ee 31c0 6b4c e1be febd 09c0 2c60 05c0
000000a0: f946 32c0 b22a 74c0 6c83 0cc0 1436 19c0
000000b0: ef11 173f fc19 31c0 ebcb 2fbf 33d2 99c0
000000c0: 6868 6ec0 ab0e 73c0 7ae3 04c0 9104 29c0
000000d0: a0ad 09c0 8f88 6fc0 c394 cabf 30d2 25c0
000000e0: 8146 49c0 0c5b 05c1 d78a 84c0 4e76 0ec0
000000f0: 94fa 6ac0 dff2 7bc0 7623 8cc0 6796 c040
00000100: 6ebc 98c0 2b49 2fc0 7658 0fc0 7527 51c0
00000110: 100d 0fbf aac5 06c0 6f1d 98c0 64c9 cbbf
00000120: ff8c 81c0 ef87 9ec0 4338 69c0 18e6 8e40
00000130: c849 4640 c810 e4bf aada 9bc0 ce18 99c0
00000140: 9833 ecbf df17 ac40 9d67 a940 25f2 1040
00000150: 5e8c 34c0 bc48 5cc0 05f5 ae40 0cb6 44c0
00000160: 4bba f0c0 f28b 68c0 dad0 cc3e a8f8 7dc0
00000170: 97bc e53d c449 32c0 f71d 13c0 9e5c 45c0
00000180: 752c bac0 ed32 36c0 d3ff 6cc0 5c35 2cc0
00000190: 8f11 bbc0 7ac2 90c0 a82b 03c0 7f82 88c0
000001a0: c09d 14c0 c2ac 8fbf 0b9e 61c0 5201 58c0
000001b0: b138 9a3f 5828 b840 9ea2 28c0 2ad4 f5c0
000001c0: a8b3 92c0 b53e 63c0 159f adc0 48bc 19c0
000001d0: bccc 1f3f 22d1 9dc0 3434 26c0 c0f1 34bf
000001e0: 40a4 efbf aa1b bdc0 ae2c ce40 1e21 8540
000001f0: b87c 183f ed4e 56bf 3fe2 14c0 391d 4ec0
00000200: 5282 8c40 49b9 bc40 0bd6 f73f 7061 3540
00000210: fa14 14c0 8cf4 0540 f50a dac0 5a96 73c0
00000220: 5034 c340 d792 1bc0 dd82 e7bf 4d9f 19c0
00000230: 94c0 5dbf 1452 7840 0fad 1f40 6bf5 74c0
00000240: 7c35 9cbf 30b8 46c0 d476 66bf 52ea 003f
00000250: 97fd b640 d9b7 38c0 718f 67c0 1dfb cec0
00000260: 168b 9ec0 a20e 8cbf 2d22 07bf 1127 3ec0
00000270: c6e5 6fc0 bcb1 0340 a93e c240 96a8 65bf
00000280: d80c ad3f 7635 a4c0 6c36 cabf fe87 a7c0
00000290: 17ff 6ec0 c851 4fc0 e1fc 83c0 b93a 89bf
000002a0: 3563 0ac0 b9ba 5ec0 cf13 cd40 ebf4 13c0
000002b0: 9b98 23c0 22bd c6bf 91ac 0e3f 0aaf 45c0
000002c0: 5f2f 60c0 b63e 27c0 b5c4 d1bf 83f2 c3c0
000002d0: 94c6 db40 49de 5dbf 6e55 b93f 5f76 10c0
000002e0: 5acd 30bf 8d4b 46c0 4e08 93c0 c6bc 7ac0
000002f0: ae11 efc0 67dd a7bf 19b7 5cc0 cd8c 87bf
00000300: 656d 17c0 eb08 8dc0 1489 1bc0 0c42 99c0
00000310: 6d2f c53f fd9c 8640 c439 74c0 8617 5a3e
00000320: c484 78c0 a0b3 a3c0 87c9 04c0 6b53 86c0
00000330: d73e 83c0 9e1a da3f f184 73c0 6287 53c0
00000340: 3ce6 38c0 66d3 3640 16e3 1ec0 9091 ae40
00000350: 3b0c a340 0b55 acbf c637 aac0 050c 40c0
00000360: 2464 8dc0 a6c1 39c0 5f18 adbe dfb4 c740
00000370: 8f52 46c0 bab6 46c0 9cec 11c0 b8af 943f
00000380: 544f 40c0 54f5 cac0 1f01 97bf 6444 41c0
00000390: 1b8c 9d3e f12f d3c0 9788 fac0 7f2d 84c0
000003a0: 63da 8ac0 4167 c1bf 687c f5bf 1d56 7bc0
000003b0: 9ce6 ba40 59bf de40 dc7f 14c0 9c52 a5c0
000003c0: fa97 30c0 bb78 28c0 cd52 ce3f f4d2 bf3f
000003d0: c7b4 a740 257a 86bf 01b0 e6bf 5fdb eabf
000003e0: ea99 55c0 5d11 4ac0 7050 463f 04ed 2ec0
000003f0: e65a 83c0 e5db 9940 ca4d b4c0 1cb9 593d
