log/mujoco_ddpg_ant_v2_2/mujoco_ddpg_ant_v2_2_s2/pyt_save/model.pt (torch_old, 777736 bytes, 11 tensors)

weight f4 [256, 111]
000000 40 1f ed bf fe 3d dc be 73 b0 41 41 23 99 25 c0
       -1.8525162 -0.43016046 12.105578 -2.5874717
000010 15 c9 86 40 0e 65 47 3e f0 3e 8d 3e e7 a4 f4 be
       4.212046 0.19472143 0.2758708 -0.4778206
000020 92 12 70 bf a4 af 16 c0 b1 dc a1 be 73 27 af 40
       -0.93778336 -2.3544703 -0.31613687 5.4735656
000030 b0 45 2b bf 45 dc d7 be 54 65 f4 bd 1c 6c f9 be
       -0.6690321 -0.4216024 -0.11933389 -0.48715293
000040 11 0d 4c 3e be 03 2e be 2a 79 26 bf 6a 04 e1 bd
       0.1992686 -0.16993615 -0.6502863 -0.1098717
000050 b1 85 ce 3c f2 28 ad bd bf 5d 4d 3d 71 a2 e3 bd
       0.025210233 -0.08455075 0.05013823 -0.111149676
000060 51 6e 62 3d af ed e7 bc 6a b7 78 3b 81 b1 59 bd
       0.055280987 -0.028311579 0.003795112 -0.053147797
000070 9b 5a 5c bd 4d e1 3c bd 20 95 b0 bd e4 4e 7c bd
       -0.053797346 -0.0461133 -0.08622193 -0.061598673
000080 e0 fe b6 3c 38 31 02 c0 5b a9 fb 3f d1 e0 05 c0
       0.02233833 -2.034254 1.9661058 -2.0918467
000090 f7 40 36 bf 73 a3 cf bf ce 0b c6 bf 1d 21 55 bd
       -0.7119288 -1.6221756 -1.5472353 -0.052033532
0000a0 18 27 f4 bc 95 1e b4 bd ea e2 25 3d 72 2b 17 3d
       -0.029803798 -0.087948956 0.040499605 0.036906667
0000b0 94 72 9a 3c 77 3a 21 bf 8d 48 7e be 00 33 cd be
       0.018853463 -0.62979835 -0.24832363 -0.40077972
0000c0 85 f9 b9 3f 74 4d 15 40 1d af ee be d0 49 91 3e
       1.4529272 2.3328524 -0.46617976 0.28376627
0000d0 5b 23 88 be 84 24 3d 3e ff 83 86 be ea 76 b3 be
       -0.26589474 0.18470961 -0.2627258 -0.35051662
0000e0 92 46 78 bf b2 29 62 3d e0 b4 2c 3c b3 e9 b3 3d
       -0.9698268 0.055215545 0.010541171 0.08784809
0000f0 0a 2f 45 3d 95 22 a6 bd 60 75 e3 3c ee 28 f7 3e
       0.048140563 -0.08112065 0.02776593 0.48273414
000100 73 f6 27 3f af 90 86 bf e8 e9 61 3e d0 15 64 bf
       0.65610427 -1.0512904 0.22061884 -0.89095783
000110 dd fb 78 3f e8 35 25 3d 59 9f b6 3e 07 29 39 bd
       0.9725931 0.040334612 0.35668448 -0.045205142
000120 ee 51 83 bf 64 8e 23 bf da 6a b4 bf 88 04 89 3c
       -1.0259378 -0.63889146 -1.4095109 0.016725793
000130 68 aa 16 3c 45 b8 b5 bd 94 04 a7 bc c2 bf 75 bd
       0.009195901 -0.08873037 -0.020387925 -0.059997328
000140 67 42 a5 3d c3 d6 3f 3f f5 16 b5 bf 56 b5 d2 be
       0.08069306 0.74937075 -1.4147631 -0.41153973
000150 20 88 01 bd e9 2c 4b 3f 1b c8 14 3e 91 6e 01 bf
       -0.03162396 0.793654 0.14529459 -0.50559336
000160 4d a5 16 3f 3f c9 10 bf 7a 3c f2 3e 4a a6 84 bd
       0.5884598 -0.5655708 0.47311765 -0.064770296
000170 8c 9c bd 3e 10 63 fe 3b 16 9b 68 3d 0a 22 50 3d
       0.37033498 0.007763274 0.056788526 0.050813712
000180 99 ce 95 bd 40 52 72 bd 26 f5 84 bd 87 06 48 bf
       -0.07314796 -0.05916047 -0.06492071 -0.7813496
000190 cc cc 99 bf 3f 90 67 bf 0b dc 69 3f 8e 50 b3 be
       -1.2015624 -0.9045448 0.91351384 -0.35022396
0001a0 93 64 b4 bd 0b fc b4 be a4 4a 58 bf e7 a1 36 3e
       -0.088082455 -0.35348544 -0.8448889 0.17835198
0001b0 0c 33 8d be 38 e1 12 bf 2f d6 2d bf 2d a0 4b c0
       -0.27578008 -0.57374907 -0.67904943 -3.1816514
0001c0 0e 46 c4 bb 19 48 10 40 a9 7b 27 40 da 0d 33 c0
       -0.0059897965 2.2544005 2.6169226 -2.7977204
0001d0 f1 5c ce 3f 32 27 58 bf fd 14 23 40 b2 0f b3 3f
       1.6122113 -0.8443481 2.548156 1.3989165
0001e0 e9 aa 8d bf 65 ec 02 40 99 57 3f bf 0f d5 9f bf
       -1.1067783 2.0456784 -0.7474304 -1.2486895
0001f0 cd b6 2c 3f f5 8a 28 be f8 43 17 40 a7 4e 5c 3f
       0.6746643 -0.16459258 2.3635235 0.86057514
000200 b2 0a cf 3f c7 df f5 be 17 b2 8f 3d 00 a9 86 bd
       1.6175139 -0.4802229 0.0701639 -0.06575203
000210 95 86 b1 bd 28 b9 f6 3e 18 87 80 be 72 45 fa 3d
       -0.086682476 0.48188138 -0.25103068 0.12220277
000220 1a 89 d7 be 50 b3 a0 3d 55 47 bd 3d 60 aa ea bb
       -0.42096788 0.07846701 0.09242121 -0.0071614236
000230 65 03 b9 bd 50 1b 6a bc 1e ee 7d 3d d2 0a 33 3d
       -0.090338506 -0.014288738 0.061994664 0.04371149
000240 f7 3b 27 3f 63 2d 9d be c7 a2 15 bd f2 fb 98 bc
       0.65325874 -0.3069869 -0.03653219 -0.018674824
000250 d5 68 63 3f 2c b0 8a bd e0 c7 a6 3c 18 c5 7a bc
       0.88831836 -0.06771883 0.02035898 -0.01530578
000260 9a 19 a4 bd 80 21 5a ba 98 49 02 bd fb 08 a6 bd
       -0.080126956 -0.0008321032 -0.031808466 -0.08107182
000270 47 58 e6 3e e8 ac 97 be f7 bf f3 3e 6b 67 65 bf
       0.44989225 -0.29624104 0.47607395 -0.8961093
000280 83 eb cd 3e e1 3c c6 3f 01 3c 37 bf b6 2d af 3e
       0.40218744 1.5487329 -0.71575934 0.34214562
000290 57 85 b0 bc 36 41 b7 3e c3 d2 4a 3f 70 76 38 bf
       -0.021547956 0.3579194 0.79227847 -0.7205572
0002a0 bf b1 41 bd a8 46 99 bd 3f e8 5c bd 58 29 1c 3c
       -0.047288653 -0.0748418 -0.053932425 0.0095313415
0002b0 46 4f 7b 3d 78 7c 90 bc e2 db e5 bf b0 08 03 40
       0.061354898 -0.017637476 -1.7957728 2.0474052
0002c0 20 6a e6 bf a9 46 b2 bf 4b bb b1 3f a5 ce 86 bf
       -1.8001137 -1.3927814 1.3885282 -1.0531813
0002d0 6d 2f 4e bf af 2e cf bd 82 38 c9 3e 7a bb 07 3e
       -0.80541116 -0.10116326 0.39300925 0.1325511
0002e0 c6 8b 1f 3e 6c 7f 94 bf 78 7e 09 bd fe de 0e 3d
       0.15580663 -1.1601386 -0.033567876 0.03488063
0002f0 95 af ad 3d 56 3e 2d 3d 12 dd 12 3d 19 f3 a4 bd
       0.08480755 0.042295776 0.03585536 -0.0805418
000300 b4 ce 5b 3f de ca c9 3f 00 87 4e 3f 7a 56 66 3f
       0.8586228 1.5765035 0.80674744 0.899757
000310 25 04 94 3e 3c 5a a6 3e 3f 4f be bc 13 1f f2 bc
       0.28909412 0.32490718 -0.023231147 -0.029555833
000320 f4 bf 89 be c8 23 0d 3f 9b f2 f5 3e f1 85 97 bf
       -0.2690426 0.5513272 0.48036656 -1.1837751
000330 e8 58 32 bc 76 25 72 3d 1e 82 11 3d 98 91 fa bc
       -0.010885455 0.059117757 0.03552448 -0.030587003
000340 a8 0e 41 bc 56 10 29 bd 2e 0f 21 3f 2e b5 9a 3f
       -0.0117832795 -0.041275345 0.6291379 1.2086542
000350 cf d1 c7 bf e0 d3 b6 be ef 43 60 bf 2d 91 4d bf
       -1.5610904 -0.35708523 -0.8760366 -0.80299646
000360 61 01 b0 bf 2e dd 46 3f ad bd 42 bf 47 6d 60 be
       -1.3750421 0.77681243 -0.7607067 -0.21916686
000370 6a ef 63 3f 3e b3 1e be 0e e2 bb c0 89 d7 8b bf
       0.8903719 -0.15498063 -5.8713446 -1.0925151
000380 a5 ee e1 bf a8 63 9c bf a5 c7 04 41 9d a6 22 40
       -1.7650954 -1.2217913 8.298741 2.5414193
000390 a8 38 41 be 58 96 67 bf 9b b4 40 3e 80 c8 26 3e
       -0.18869269 -0.9046378 0.18818896 0.16287422
0003a0 44 c5 42 3f ec 9d 2d 3f 06 98 19 3e de 71 7b bf
       0.76082253 0.67819095 0.14999399 -0.9822062
0003b0 f0 9a 02 3e d8 4c b6 3e 8d 46 e2 3e 04 55 b1 3e
       0.12754416 0.35605502 0.4419445 0.34635174
0003c0 c7 df fa 3e 4e e2 dc 3d 04 04 9a bd a8 db 61 bc
       0.48998854 0.10785352 -0.07520297 -0.01378528
0003d0 72 1b 05 3e 9b 5c 9d 3d 0e e5 51 3e 9b 93 08 3e
       0.12998751 0.07683679 0.20497534 0.13337557
0003e0 3e be 9a bd cf 2b 74 bd 9d 81 84 bd c0 45 c4 bb
       -0.07555817 -0.05961209 -0.06470034 -0.00598976
0003f0 50 d9 c0 3c 71 16 b6 bd 31 41 95 bd 8c da 82 3f
       0.023541123 -0.08890999 -0.07287825 1.0222945

bias f4 [256]
000000 5c c3 1c c0 71 c5 4c c0 94 f8 85 be e3 55 08 c0
       -2.4494238 -3.1995509 -0.26166213 -2.130242
000010 49 5e 07 c0 43 ae 65 c0 6a c4 62 40 65 f5 f5 3d
       -2.1151297 -3.588761 3.5432382 0.12009696
000020 9e f2 57 c0 20 45 bd be 71 f7 03 bf 6e 13 72 3e
       -3.3741832 -0.369668 -0.5154944 0.23640224
000030 62 09 aa bf f3 1d e0 40 33 fb 61 c0 9f 9b 1e c0
       -1.3284113 7.003656 -3.530957 -2.4782484
000040 66 f6 b9 bf 56 d1 1e bf 89 e1 9e c0 7e c6 03 c0
       -1.452832 -0.6203817 -4.965031 -2.05899
000050 37 ee 7d bf 08 69 5c c0 0d d2 62 c0 01 ec 7c c0
       -0.9919161 -3.4439106 -3.5440705 -3.9519045
000060 a7 e0 e6 be 11 62 c2 3d 88 0d 41 c0 1d 90 87 bf
       -0.4509327 0.09491361 -3.016451 -1.0590855
000070 c4 59 c4 3f 31 97 dc bf 12 52 0b 40 1f 04 58 3f
       1.5339894 -1.723364 2.1768842 0.8438129
000080 93 4e 88 bf 7b 44 1b c0 59 a1 ea 3f b7 6e d5 bf
       -1.0648979 -2.4260547 1.8330489 -1.6674412
000090 13 c0 7f c0 bd 3b 16 c0 57 47 cb c0 00 71 2b c0
       -3.9960983 -2.3473961 -6.3524585 -2.678772
0000a0 21 15 4b bf 20 b9 e8 bf 50 68 f4 bf 90 ac a5 c0
       -0.79329115 -1.8181496 -1.9094334 -5.1773148
0000b0 0f 03 2a 3e 54 4b 56 c0 b1 7f f3 bf ce 21 5f 3f
       0.1660273 -3.3483477 -1.9023343 0.87160957
0000c0 26 7e 20 c0 01 78 9c bf 73 1a 07 c0 38 54 16 40
       -2.5076995 -1.2224122 -2.1109893 2.3488903
0000d0 d8 53 c2 bd d0 ff 40 c0 79 19 09 c0 09 ec 52 c0
       -0.09488648 -3.0156136 -2.1421797 -3.2956564
0000e0 17 cc 9a c0 33 09 17 3f 6d ad 12 40 b5 38 9c bf
       -4.8374133 0.5899841 2.291835 -1.2204806
0000f0 48 5d d8 bd 72 24 be c0 8a ac 81 bf 7b b4 d6 40
       -0.10564667 -5.941949 -1.013078 6.7095313
000100 fe 76 b5 3f 8c a1 d1 bf c8 a0 ca c0 8d 86 24 c0
       1.4176939 -1.6377425 -6.3321266 -2.5707123
000110 39 bc ad c0 f6 19 5f c0 f1 0e 09 c0 e5 93 30 bf
       -5.4292264 -3.4859595 -2.141537 -0.6897567
000120 c5 f0 f9 bf 5c 1b 85 bf 1b 0a 4a 3f 2a 2d 53 c0
       -1.9526602 -1.0398974 0.7892167 -3.2996316
000130 02 46 f2 bf e8 76 10 c0 c6 a1 54 c0 d3 a6 32 3f
       -1.8927615 -2.2572575 -3.3223739 0.69785804
000140 92 3b 95 40 92 ae 81 c0 84 b0 7a c0 22 60 f1 3f
       4.663522 -4.05256 -3.9170237 1.8857462
000150 76 92 7c c0 bb 08 66 c0 2c db 90 c0 8a 63 3b c0
       -3.9464393 -3.5942829 -4.5267544 -2.9279504
000160 56 6d 5f c0 29 46 30 bf 57 95 e2 bf 34 58 92 bf
       -3.4910483 -0.68857056 -1.7701825 -1.1433167
000170 10 c8 8b c0 09 04 17 c0 bd c9 28 c0 9c e0 3e c0
       -4.3681717 -2.3596213 -2.6373131 -2.982459
000180 8a 0b 11 40 e3 c1 b1 bf 3e 31 af bf 44 05 11 bf
       2.2663293 -1.3887295 -1.3686903 -0.5664866
000190 be bf 8f 3f 82 94 61 c0 37 33 fa bf 93 ab 48 c0
       1.123039 -3.5246892 -1.954688 -3.135472
0001a0 d4 f6 5e c0 c1 12 49 be 81 cf 56 bf 8f 91 1e c0
       -3.4838152 -0.1963606 -0.83910376 -2.4776342
0001b0 04 bc 7e 3f 61 53 03 40 c5 a2 3d c0 68 fc 07 bf
       0.9950564 2.051964 -2.9630597 -0.53119516
0001c0 c0 86 9c bf 73 c7 54 3f d5 8f b6 bf fc 0c 97 c0
       -1.2228622 0.83116835 -1.4262644 -4.720335
0001d0 7c 48 9f bf 6e 5f f1 bf be 63 72 c0 41 19 43 c0
       -1.2443995 -1.8857248 -3.7873378 -3.0484164
0001e0 e0 14 88 c0 40 5a 4b bf de a2 51 c0 21 8b 30 bf
       -4.252548 -0.79434586 -3.2755656 -0.68962294
0001f0 3f f1 2c c0 bd 45 0b c0 4c d3 be 3f ca 61 b5 bf
       -2.7022245 -2.1761315 1.4908233 -1.4170468
000200 39 11 10 c0 55 46 30 40 47 39 4c 3f ea 9b 71 c0
       -2.2510512 2.7542927 0.797749 -3.7751412
000210 f6 50 af bf 92 ff 25 c0 41 c1 4f c0 29 69 13 c0
       -1.3696582 -2.5937238 -3.2461703 -2.3032935
000220 8e f2 00 c0 36 cd 5f bf 77 57 04 40 1b fa e4 bf
       -2.0148044 -0.874225 2.0678384 -1.7888826
000230 1b c4 5d c0 a2 b9 1a c0 56 fe 66 c0 62 59 db bf
       -3.4650943 -2.4175801 -3.6092734 -1.7136652
000240 f5 e1 21 c0 ce 7c 07 c0 37 5e eb bf d9 2f 64 c0
       -2.5294163 -2.1169925 -1.8388127 -3.5654204
000250 68 a8 bf 3f 51 04 b4 bf b3 bc f5 bf c2 79 ae c0
       1.4973269 -1.4063817 -1.9198211 -5.452363
000260 dc 83 9e 3f e3 33 46 c0 c4 1b 7b 3f 32 94 87 c0
       1.238399 -3.096917 0.9808924 -4.2368402
000270 3f 04 01 c0 0c 24 eb bf 79 4a e2 3f 22 97 8c bf
       -2.0158842 -1.8370376 1.7678977 -1.0983622
000280 1d 4a 6a c0 93 0d 02 c0 1c 8f 25 bf db 39 80 40
       -3.6607735 -2.0320785 -0.6467149 4.0070624
000290 f1 3d ac 3f 07 76 ad 40 5b bf 86 bf 4b 8d f5 3f
       1.3456403 5.4206576 -1.0527147 1.9183744
0002a0 3f c5 66 bf 94 5e b1 c0 3a 61 a3 c0 e0 91 2f be
       -0.90144724 -5.542795 -5.1056185 -0.1714549
0002b0 91 b4 4d 40 37 94 50 3f a7 3c 1b c0 04 8e 06 c0
       3.214146 0.8147616 -2.425577 -2.102418
0002c0 6a 22 aa 40 d4 c1 78 c0 68 c2 01 bf 5d fc b1 c0
       5.316701 -3.8868303 -0.50687265 -5.562056
0002d0 5d ad a0 be cb 50 1a c0 6c eb a0 3f 38 3e ba 40
       -0.31382266 -2.4111812 1.2571845 5.820095
0002e0 4d 61 f1 3e 99 60 98 c0 df f8 75 c0 20 b4 5e c0
       0.47144547 -4.7617917 -3.843315 -3.479744
0002f0 85 e3 25 c0 a9 93 5f c0 64 01 f6 3e 93 c2 8b c0
       -2.5920117 -3.4933875 0.48047936 -4.3675017
000300 82 26 ee bf 97 8d 00 bf 06 62 82 bf fe cd b0 bf
       -1.8605502 -0.5021605 -1.0186164 -1.3812864
000310 98 d0 83 c0 af af 66 c0 60 0d 64 bf cd 8d 54 c0
       -4.119213 -3.6044729 -0.8908291 -3.3211548
000320 65 92 b8 c0 c5 8a 0a c0 f9 fc 1c 40 aa db 37 c0
       -5.7678704 -2.1647198 2.4529402 -2.8727822
000330 7a 32 00 be 31 f5 40 c0 11 ab 43 c0 95 b9 0c 40
       -0.12519255 -3.0149653 -3.057316 2.198827
000340 5c b5 62 c0 12 0c 96 bf ee 2f 2b c0 73 28 c9 bf
       -3.5423193 -1.1722434 -2.6748004 -1.5715469
000350 77 dc 89 c0 b1 39 c9 bf d7 83 4b be 6b 07 87 bd
       -4.308162 -1.5720731 -0.19874512 -0.06593212
000360 2c 52 80 c0 34 28 9e be 4b 25 1a bf db 19 31 c0
       -4.0100307 -0.30890048 -0.60213155 -2.767203
000370 1f b7 66 c0 39 9e 72 c0 8a d9 8c 40 94 ee 29 3f
       -3.6049268 -3.7909071 4.401555 0.66379666
000380 33 7b a5 40 75 5c 63 c0 7e 53 cf 3f 0f 3c 15 c0
       5.171289 -3.5525181 1.6197355 -2.3317907
000390 af 85 8a c0 a5 de 50 c0 04 22 97 bf d5 70 3c 3f
       -4.328819 -3.2635891 -1.1807256 0.7360967
0003a0 93 b9 a2 bf 4b ec 45 bf 4d b0 8f bf 00 6f f9 bf
       -1.2712883 -0.7731368 -1.1225678 -1.9487
0003b0 b5 64 93 bb ef b6 6f 3e 47 8e c3 bf 12 4d 2e c0
       -0.004498089 0.23409627 -1.5277795 -2.723454
0003c0 df fb a6 bd d8 07 2e c0 6b 61 7e c0 ae 31 ef bb
       -0.08153509 -2.7192287 -3.974696 -0.0072996235
0003d0 df 0e 5f c0 6a fe 8b bf af ea bc 3f f3 44 06 c0
       -3.4852827 -1.0937016 1.475912 -2.0979583
0003e0 38 8e 1a bf 25 38 25 c0 4e a3 47 bf 21 7e b6 40
       -0.6037326 -2.5815518 -0.7798356 5.7028966
0003f0 41 90 09 be d7 84 68 c0 cb 81 28 40 b7 d4 8d bf
       -0.13433935 -3.633108 2.632922 -1.108054

weight f4 [256, 256]
000000 44 3c 46 be c6 11 d1 bd b0 89 9f be 49 7c ab 3f
       -0.19358927 -0.10208468 -0.31159735 1.3397304
000010 39 02 32 be 60 07 40 bf ef 2a 98 3c 8f 2a 6d bf
       -0.1738366 -0.75011253 0.01857516 -0.92643064
000020 cc 74 88 bd c7 32 1d 3f a1 95 84 bf 79 14 33 bf
       -0.06662902 0.61405605 -1.0358163 -0.69953114
000030 2e 59 24 3e 7f 84 19 bf e8 6d 8d bf 66 b8 61 3f
       0.16049644 -0.599678 -1.1049166 0.88171995
000040 85 7b ba 3f f3 50 b9 3f 5d 03 ba be 45 34 73 bf
       1.4568945 1.4477829 -0.3633069 -0.9500163
000050 e5 15 d4 bf dd a6 03 c0 90 23 f2 3e 1a fa 31 bf
       -1.6569182 -2.0570595 0.47292757 -0.6952225
000060 24 9b 5b be a8 ba 83 be f8 5c a2 be 61 99 b4 bf
       -0.214459 -0.25728345 -0.31711555 -1.4109308
000070 24 b8 ed bf f2 17 21 3e 25 82 88 bf 29 2f c7 bf
       -1.857182 0.1573179 -1.0664717 -1.5561267
000080 56 6e 68 bd c7 1c 9c 3f 47 b2 eb 3f 67 34 b7 bf
       -0.05674585 1.2196282 1.8413781 -1.4312867
000090 6a 8b c5 3f 1b 53 97 bf 5d 72 e2 bf 95 1a ea 3e
       1.5433171 -1.1822237 -1.7691151 0.45723405
0000a0 0f 1f e4 bd 24 37 1f 3f 57 2e 0a bf 16 bd 2c bf
       -0.111387365 0.6219351 -0.5397696 -0.6747602
0000b0 0e 4a 1a 3e 77 34 4e be 8d f5 3b be ce 5c f1 3d
       0.15067312 -0.20137201 -0.18355389 0.11785279
0000c0 01 7d c6 be b7 75 bb bf f6 9e 2f c0 55 d8 19 c0
       -0.38767245 -1.4645299 -2.7440772 -2.4038289
0000d0 51 de ab 3c 22 f1 1a 3e bf 13 d0 3d bf 58 bc 3f
       0.020980032 0.15131047 0.10160016 1.4714583
0000e0 1a 6b 41 bf 07 39 ab bf 47 b6 40 be 6e 74 a2 bf
       -0.7555405 -1.3376778 -0.18819533 -1.2691782
0000f0 11 a8 0e bf 9a b7 43 bf 7f bd 24 bf 4d 70 4f 3e
       -0.557252 -0.7645203 -0.6435165 0.20257683
000100 81 7d a4 be 08 0f 49 3d d5 fc 92 bf 5d a3 f2 3e
       -0.32127002 0.0490866 -1.1483408 0.4739026
000110 dc 6e 86 bf 84 9f ca bb 27 97 e0 bc e3 87 19 bf
       -1.0502582 -0.0061835665 -0.027415825 -0.5997297
000120 ef ba 4e be 91 7c 28 bf 83 dd 9e 3e 2d fd 91 3f
       -0.20188497 -0.65815073 0.31028375 1.1405388
000130 bf 90 07 c0 ea af 9b 3e e6 57 86 bf 9f ba 31 bf
       -2.1182096 0.3040765 -1.0495574 -0.69425386
000140 5a 56 c9 bf b0 f8 2e 3f e1 04 43 bf 0b 31 9e bf
       -1.5729477 0.68348217 -0.7617932 -1.2358717
000150 86 e5 18 3f 05 72 1c bf 7f 5b f4 3f 6d 32 07 c0
       0.59725225 -0.6111148 1.9090422 -2.1124527
000160 b2 6d c0 3f 21 e2 79 be 42 a0 c8 3f dd cd 8a 3f
       1.5033476 -0.24402668 1.5673907 1.0844074
000170 38 3a 4e 3f 71 57 9c bf 5c 94 f5 3f b1 a2 87 bf
       0.80557585 -1.2214185 1.9185901 -1.0596524
000180 76 e2 3b 3f 08 4d f8 be dc 29 f6 3f ee 6e 8d 3f
       0.73392427 -0.4849627 1.9231524 1.1049478
000190 db fa 9c bf 8a 6e 2a 3f 53 4e 8b be f9 a7 62 bf
       -1.2264055 0.6657492 -0.27208194 -0.88537556
0001a0 d6 b4 cd be 0a bb a4 3b 88 fd d9 3f be 58 8b 3f
       -0.4017703 0.0050271796 1.7030497 1.0886457
0001b0 de 0b bc bf 36 22 18 3f fd 21 1b c0 58 3c 1b be
       -1.4691122 0.594272 -2.4239495 -0.15159738
0001c0 a5 83 f5 be 1d 75 1b be aa 44 c9 3e 68 2f b5 bd
       -0.47952 -0.15181394 0.393102 -0.08846933
0001d0 ea 3d 39 bf 7c 31 b6 3f 00 25 ad be bc a5 9f bf
       -0.723601 1.4233851 -0.3381729 -1.2472453
0001e0 67 18 db 3e b2 eb d7 bf 6d 50 37 bf 69 6a 18 3f
       0.42792055 -1.6868804 -0.71607095 0.5953737
0001f0 cb 25 6f be fc e9 b0 be 32 86 3f bf a7 04 ff be
       -0.2335426 -0.34553516 -0.7481414 -0.49808237
000200 5c 51 ef be b4 7e 58 bf 73 59 30 bf 6d 8c 61 c0
       -0.4674176 -0.84568334 -0.6888649 -3.524196
000210 22 3f 8e bf 4b d9 92 3e dd 3a 54 bf 59 10 b8 3e
       -1.1113017 0.28681406 -0.8290232 0.35949972
000220 6d a4 0b be 05 7b 97 3f c8 6c 2b bf b6 59 a0 bf
       -0.13636942 1.1834418 -0.6696286 -1.2527378
000230 26 e6 8b be 63 01 55 bf 50 b9 11 be 9e 95 dc bf
       -0.27324027 -0.8320524 -0.14230847 -1.723316
000240 db ae 95 be 92 43 b0 3e c0 bb c5 3e d0 5b dd bd
       -0.29234967 0.34426552 0.38619804 -0.108085275
000250 46 23 6e bf 17 e5 2b 3e 66 be 00 40 b7 59 7a bf
       -0.93022573 0.1678661 2.011621 -0.97793144
000260 40 73 ab be 94 d6 01 bc 32 e8 2f 3f 0e e2 0d c0
       -0.33486366 -0.007924695 0.68713677 -2.2169223
000270 b3 73 79 3f 93 22 32 3f 26 59 a0 bf fb 87 cc bf
       0.9744217 0.69584006 -1.2527206 -1.5978998
000280 72 ac d0 be 3e 6c 60 bd 8d f6 db 3f a8 7e 0f be
       -0.40756565 -0.054790728 1.7184616 -0.1401316
000290 88 0d 58 bf a2 57 37 bf ae c6 cb bf 2b b3 7a 3f
       -0.8439565 -0.7161809 -1.5920007 0.9792964
0002a0 57 97 ce 3f 86 e2 1e be af 39 cf bd 62 ee 12 3f
       1.6139935 -0.155161 -0.10118424 0.57394993
0002b0 d2 02 92 3f b7 d0 82 3f 9d 82 3f 3a 23 aa 42 bf
       1.1407111 1.0219945 0.00073055347 -0.7604086
0002c0 fb e2 5c bc fb e5 f5 bd e8 80 6c bf 53 8e fe bf
       -0.013481851 -0.12006756 -0.92384195 -1.9887184
0002d0 03 b1 48 3f 58 2e 51 bd 83 f5 07 bf 6c fb 48 c0
       0.783951 -0.051069587 -0.53108996 -3.1403456
0002e0 2e fc 29 3d db 36 85 be 88 37 97 3f eb d1 88 be
       0.041500263 -0.26018414 1.1813822 -0.26722655
0002f0 c6 72 fb be 40 e5 eb bf c1 46 df 3e b4 00 44 3e
       -0.49111003 -1.8429337 0.43608668 0.19140893
000300 ab a8 43 bf e9 e2 cc bf 20 c5 24 3f f3 5b 07 3f
       -0.7642924 -1.6006747 0.6436329 0.5287468
000310 ae e9 e2 3f 33 1a d4 bf 8a c1 5d 3d b5 cc 43 be
       1.7727563 -1.6570495 0.05413965 -0.19121058
000320 3e 52 ff be b0 fe 5c bf 02 db 9e 3f 2b 8f f9 bf
       -0.49867433 -0.8632612 1.2410586 -1.9496816
000330 b9 a6 8b bf 27 95 21 3f d7 85 32 3f df 12 72 bf
       -1.0910255 0.63118213 0.69735473 -0.94560045
000340 a4 6c 01 3f 48 cc aa bf 9d 22 17 bd 36 9e 55 3f
       0.505564 -1.3343592 -0.036898244 0.83444536
000350 5b 9f 1e 3f 6e 57 18 3f f7 fe cb bf 0c bc 32 bf
       0.6196191 0.5950841 -1.5937184 -0.69818187
000360 12 d7 76 bf 89 38 34 be 95 ec 7a bf 97 78 78 bf
       -0.9642192 -0.17599691 -0.98017246 -0.97059005
000370 76 78 11 3f ba f7 2d bf 03 f0 41 bf 2e e7 b7 bd
       0.56824434 -0.67956126 -0.75756854 -0.08979641
000380 fc 52 80 bf 27 8a ee 3e 80 6d b3 be 89 23 4e be
       -1.0025325 0.46589777 -0.3504448 -0.20130743
000390 e4 f5 5e be 1b 0a 41 bf 54 c3 a1 bf d6 3d ca bf
       -0.21773487 -0.75406045 -1.2637734 -1.5800121
0003a0 4e 42 df bf c9 89 b0 3f c8 a4 5f 3c ad 4b 05 3e
       -1.744211 1.3792049 0.013650127 0.1301715
0003b0 69 b5 8f 3f 4e 38 0b 3f 49 40 d7 3e 74 61 38 be
       1.1227237 0.5438279 0.42041233 -0.18005925
0003c0 3e 24 16 3f 41 69 9c 3c f0 41 89 be aa f9 c5 bd
       0.5864905 0.019093158 -0.2680812 -0.0966676
0003d0 52 54 84 bf 5c 99 b0 3e 44 14 e0 3f 8e 5d ef bd
       -1.0338233 0.34492004 1.7506185 -0.11687766
0003e0 3d 14 41 bf 8b 7f 66 3f cb 82 4c 3e ef 97 31 bf
       -0.75421506 0.90038365 0.19971769 -0.6937246
0003f0 f9 55 51 be b6 c7 1e 3d a8 b6 de bc 3b 7b ce 3e
       -0.20442952 0.038764678 -0.027186707 0.40328392

bias f4 [256]
000000 42 fa 39 bd a4 89 9b bf 60 3e 61 bf aa 5e 5f be
       -0.04540468 -1.215138 -0.879858 -0.21813455
000010 84 58 6b bf 73 5b ba bf a0 9e 3c bf 24 84 dc bd
       -0.9193194 -1.4559158 -0.7367954 -0.10767391
000020 85 e7 ad bf bf d4 91 bf 35 4a 63 bf 40 18 4f bf
       -1.3586279 -1.139305 -0.88785106 -0.8089638
000030 1e 36 ae bf f0 71 ea be 64 2d bb be 58 b0 a7 3f
       -1.3610265 -0.45790052 -0.36558068 1.3100691
000040 fb 7d e3 bd 2d 10 3e bf cf 6c 88 bd f6 00 a6 bf
       -0.11108013 -0.7424343 -0.066613786 -1.2969043
000050 4b c0 3d bf fa 24 65 bf 6b 81 3b bd 04 6a 9d bf
       -0.7412154 -0.89509547 -0.04577772 -1.2297978
000060 39 f7 b0 bf 06 54 8e bf 82 2a 0d bf 41 f0 15 c0
       -1.3825446 -1.1119392 -0.55142987 -2.342789
000070 08 4b 42 bf be de d6 bf 82 1a a3 bf 17 f8 00 3e
       -0.7589574 -1.6786726 -1.2742465 0.12594639
000080 b1 1b 61 bf 66 8b a9 3e 2c 9b 19 bf d2 de 8c bf
       -0.8793288 0.33114165 -0.600024 -1.1005499
000090 7f 43 8f bf b4 1a 41 bf c8 52 94 bd e2 4b ca bd
       -1.1192473 -0.7543137 -0.07242352 -0.09877755
0000a0 47 31 9a bf 88 2a ac be ca 1f f0 be 02 93 72 bf
       -1.2046288 -0.336262 -0.46899253 -0.94755566
0000b0 e9 af b7 bf 33 5b ca be f4 08 b4 bf 2a 82 82 bf
       -1.4350559 -0.39522704 -1.4065232 -1.0195973
0000c0 9f 81 b7 bf c5 c0 ae be d7 c2 9b bf cf c7 9f bf
       -1.4336432 -0.34131446 -1.2168835 -1.2482852
0000d0 03 b9 9c be 43 5c a9 be 6e 44 c7 bf 9f 2c 27 bf
       -0.30609903 -0.33078203 -1.5567758 -0.6530246
0000e0 b3 18 06 bf bc fa ae bf 7a fc 85 bf 78 e3 eb bf
       -0.5238144 -1.3670268 -1.0467675 -1.8428793
0000f0 10 be 73 bf dc 53 8f be c1 7f 98 bf 93 13 ec bf
       -0.9521189 -0.27993667 -1.1913987 -1.8443474
000100 eb 4b 2b bf 9f 44 ac bf b7 51 d5 bf 10 a2 69 bf
       -0.66912717 -1.3458441 -1.6665562 -0.9126291
000110 2c 74 e4 bc 52 fd ea be 80 f5 be bf cd ef 29 be
       -0.027887426 -0.45896393 -1.4918671 -0.16595383
000120 28 1b 72 bc a5 e9 d2 bd 73 cc 2b be 6e d1 18 bf
       -0.014776982 -0.102984704 -0.1677721 -0.59694564
000130 63 e5 02 be 45 36 5b bf 24 f9 8f bf e4 d9 6c be
       -0.12782817 -0.85629684 -1.1247907 -0.23129994
000140 2d 07 6f bf dd f6 5a bf a7 e8 51 bf 31 6d 0d bf
       -0.93370324 -0.85532933 -0.81995624 -0.5524474
000150 d7 a1 d5 be 22 20 80 be fc 06 b8 bf a5 1d db be
       -0.41725037 -0.25024515 -1.4377131 -0.42796054
000160 ef bd da bd 59 bb 34 bf 37 80 aa be 76 f3 2c bf
       -0.10680758 -0.7059837 -0.33300945 -0.6755899
000170 99 03 1d bf 12 2c 70 bf cd c1 a8 be a2 ca 08 be
       -0.61333615 -0.93817246 -0.32960358 -0.13358548
000180 42 c3 d2 bf 1c 0c 70 bf 03 4d 89 bf 27 2c 3d bf
       -1.6465838 -0.9376848 -1.0726627 -0.73895496
000190 be 7c 05 c0 25 f6 bc bf 50 a0 02 bf 74 2d 8e bd
       -2.0857387 -1.4762617 -0.5102587 -0.06942263
0001a0 2c 2d ea bc 30 61 05 c0 7a 0c 45 bf 3b c5 9b bc
       -0.028585993 -2.0840569 -0.7697216 -0.019014945
0001b0 fc 9b 88 bf c0 87 d7 bf 8b 02 9a be 22 90 f6 be
       -1.0672603 -1.6838303 -0.30080065 -0.4815684
0001c0 de 5f ce 3e 48 bd 3d bd 32 ea 64 bf bf 94 7e bf
       0.40307516 -0.04632309 -0.89419854 -0.9944572
0001d0 e6 fb 17 bc f2 4c aa bf 43 75 8a bf d9 e2 9c bf
       -0.009276366 -1.3304732 -1.0817035 -1.2256728
0001e0 c4 28 e7 bf 73 00 e1 bf 68 3b cb be 55 55 5d ba
       -1.8059316 -1.7578262 -0.3969376 -0.00084431964
0001f0 94 88 25 bf 1c 79 0d bf 57 70 0c be 1f 12 96 be
       -0.64661527 -0.55262923 -0.13714729 -0.293107
000200 0e 0a ce bf 66 ce e4 bf ef 93 b3 bf 2e 6c 43 be
       -1.6096818 -1.7875488 -1.4029521 -0.19084236
000210 c2 a6 cb bf 91 2b 91 bf 63 4a 1f bb 0a ea b5 be
       -1.5910265 -1.134142 -0.0024305813 -0.3553012
000220 f1 10 47 bf 48 a1 30 bd bb d2 e6 bf 62 3d f9 be
       -0.77760226 -0.04312256 -1.803306 -0.48679644
000230 95 9e cc bf 9f 61 7b bf 46 db 72 bf 8a 26 25 bf
       -1.5985895 -0.9819583 -0.94865835 -0.6451193
000240 3e 7a 77 bf d3 00 c2 bf b6 a4 09 3e fc ca 32 be
       -0.966709 -1.5156502 0.13441738 -0.17460245
000250 05 15 30 bf 76 f7 3a bf d8 45 cc be c9 3c f7 be
       -0.68782073 -0.73033845 -0.39897037 -0.48288563
000260 f1 e0 1c bf 00 1d 4b bf 80 e4 f1 bf 66 3a cb bf
       -0.61280733 -0.79341125 -1.8897858 -1.5877197
000270 6e 7b 4e bf 7e 1a 71 bf 11 b6 9b bd 50 2a 8f bf
       -0.8065709 -0.9418105 -0.07603086 -1.1184788
000280 06 97 61 bf 5c 4a 8a bf f7 06 f6 bf ba e0 c6 bf
       -0.8812107 -1.0803943 -1.9220876 -1.5537331
000290 f8 f0 d1 bf 57 db 85 bf ea fc 8a bf a8 14 65 be
       -1.6401663 -1.0457562 -1.0858433 -0.22371161
0002a0 39 f6 8f bd 24 07 8a bf 4b a6 20 be f8 a3 9b bf
       -0.07029385 -1.0783429 -0.15688436 -1.2159414
0002b0 5c 06 df bd be 88 7b be be 6d 08 bf b8 59 c1 be
       -0.10889885 -0.24563882 -0.53292453 -0.37763762
0002c0 21 34 c6 bf 18 d2 03 c0 96 97 60 bf cd 91 6b bf
       -1.5484658 -2.059698 -0.877313 -0.9201935
0002d0 e8 80 f8 be 9d 80 fd be fa db 95 be 7e 93 a3 bf
       -0.48535848 -0.49512187 -0.2926939 -1.2779386
0002e0 91 3c c5 bc a8 97 05 bf d8 69 0f bf 4e a4 64 be
       -0.024076732 -0.52184534 -0.5602088 -0.22328302
0002f0 15 85 27 bf 18 55 ab bf 40 71 d9 bf 6c 1e 60 bf
       -0.6543744 -1.3385344 -1.6987686 -0.8754642
000300 bd 8c 4e bf cd 80 e9 be 9d fc 75 bf ca 7b 91 bf
       -0.806835 -0.4560608 -0.9608858 -1.1365902
000310 7e 96 c4 bf 88 82 84 bf d4 39 7d bf d2 d3 92 bf
       -1.5358427 -1.0352335 -0.98916364 -1.1470892
000320 ff 5c 7a bf da 9e 0f be 9b a2 b1 3e 08 12 8c bf
       -0.9779815 -0.14025441 0.3469437 -1.0943003
000330 b0 84 74 bf a6 05 31 bd db 9f 44 bf 4e 85 e4 bf
       -0.95514965 -0.043218277 -0.7680642 -1.7853181
000340 be 76 80 bf 54 68 b4 be e3 22 83 bf 71 aa 1b 3f
       -1.0036237 -0.35235846 -1.0245022 0.6080695
000350 47 47 8e bf 14 96 9c bf e8 f7 31 c0 57 74 5f bf
       -1.1115502 -1.22333 -2.780756 -0.87286896
000360 3e ee 30 3f f4 73 d8 3e 8c 04 83 bf 0c a6 82 bd
       0.6911353 0.42275965 -1.0235763 -0.06379327
000370 87 c6 4d bd fd 8b d3 be b3 0f 8f bf 52 4a 13 bf
       -0.05023816 -0.4131774 -1.1176666 -0.5753528
000380 d6 59 9c bf a7 e8 c7 bd 62 24 f6 bf 41 34 84 bf
       -1.2214916 -0.09761172 -1.9229853 -1.0328447
000390 bd 20 2f bf 80 74 86 bf 4e e0 49 bf 5b 79 c1 bf
       -0.6840933 -1.0504303 -0.78857887 -1.511516
0003a0 85 e3 9e bf 86 18 98 bd 12 91 83 bf 25 07 bf bf
       -1.2413183 -0.074265525 -1.0278647 -1.4924055
0003b0 50 98 8c 3e 91 10 26 bf e9 dd a4 bf a1 fa 09 be
       0.27459955 -0.6486903 -1.2880222 -0.13474514
0003c0 1f 2d 55 bf c4 7c 40 bf 5a 6d ce bf 6e de 70 bf
       -0.83271974 -0.7519038 -1.6127121 -0.940894
0003d0 f2 64 c8 be 02 ab 80 bf dd 20 50 bd e5 ed 2a c0
       -0.39139515 -1.0052187 -0.05081259 -2.67077
0003e0 41 dc 5c bf 5c 82 83 bf 91 51 a8 bf 0b df 18 c0
       -0.8627358 -1.0274158 -1.3149892 -2.3886135
0003f0 7d 44 d4 bd ce fd ae be 55 cd 68 bf ab 6c 82 bf
       -0.103646256 -0.34178013 -0.9093831 -1.0189413

weight f4 [8, 256]
000000 5c f1 25 3f 6b cc 16 be 9d 5a 83 3f 28 f6 9f be
       0.6482141 -0.14726417 1.0262028 -0.3124249
000010 67 9d 7f 3e 85 5f 71 3f 73 fb 40 3e 06 12 cd 3c
       0.24962388 0.94286376 0.1884592 0.025033008
000020 76 eb f6 be ae be 66 bf 6f 8a ab bc a2 71 cf bf
       -0.48226517 -0.90134704 -0.020940034 -1.6206553
000030 af 11 23 3f 23 21 fa 3b fb 7e 9f 3d 38 c1 25 3c
       0.6369886 0.0076333447 0.077878915 0.010116868
000040 79 43 9b 3c 47 50 88 bf 87 2f 0b bd 5b 0c 2d be
       0.018953072 -1.0649499 -0.033980872 -0.16899244
000050 12 a2 3a be ec a8 3f 3e 23 15 7b bd 74 d5 5e bf
       -0.18225887 0.18716782 -0.061299454 -0.87044454
000060 c8 c4 f7 3e aa f3 b8 3f 2a 17 55 bf f5 38 8a be
       0.4839232 1.444936 -0.8323847 -0.2699658
000070 d5 b8 1c 3e 70 da 26 3d e1 03 0b bf 4c fa 88 be
       0.15304883 0.040735662 -0.54302794 -0.2675346
000080 1f 02 0e 3f d4 90 3c 3e ec 1e 28 bd f4 bc 06 3f
       0.55471987 0.18414623 -0.041045114 0.5263207
000090 cc 88 cd 3f f9 12 3c bf fb 1f 01 bd 65 af 6e bd
       1.6057372 -0.7346645 -0.03152464 -0.058272738
0000a0 0b 1a 8d 3e 81 ac 6a 3f cc 08 78 3e dc eb 0c bf
       0.27558932 0.9166947 0.24222106 -0.5504739
0000b0 d6 bb 6c bf 4f bc 29 3f 10 d1 f3 3e 4c 49 f0 be
       -0.92474115 0.6630296 0.4762044 -0.4693092
0000c0 49 c1 23 bf c6 4b e0 3e e9 d1 79 3f a4 c4 1c 3f
       -0.63966805 0.4380781 0.9758592 0.6123755
0000d0 66 02 31 3d 17 d8 e7 3d 03 fe 89 bf 23 d9 a9 3f
       0.043215178 0.11320513 -1.0780643 1.326939
0000e0 a4 82 21 3d a9 39 4c bf 5b ea a0 be e4 52 88 be
       0.03943123 -0.7977548 -0.314288 -0.2662574
0000f0 ef f5 ee 3e a2 66 80 3f 8e ac 06 be dc 85 18 bf
       0.46672007 1.0031321 -0.13151762 -0.59579253
000100 a6 ee 51 3f 8d 8e 2d 3f dd f0 53 bf 21 d3 66 bd
       0.82004774 0.6779564 -0.82789403 -0.056353692
000110 a4 a9 1c 3c 67 af 96 3e fe 6e 37 3f 7e 35 7d bf
       0.00956193 0.29430696 0.71653736 -0.9890975
000120 ba 33 8b bd 57 e3 05 bd cf 2a bf 3f b8 76 30 3e
       -0.067969754 -0.03268751 1.4934939 0.17232788
000130 bb 49 9e 3d 46 48 b7 be 23 75 40 3e 4d 9a e2 3f
       0.07728907 -0.35797328 0.18794684 1.7703339
000140 de 18 bb bf e3 dc 21 be 89 96 8c be 3a 1d 9b 3d
       -1.4616964 -0.15806918 -0.274586 0.07573934
000150 8b 76 2c bf 37 0b 27 bf be c1 85 be c2 6a f2 3d
       -0.6736838 -0.6525149 -0.26124376 0.11836769
000160 17 f8 62 bd bb 66 44 bd ed 36 f7 3d 82 ee 50 3e
       -0.05541238 -0.047949534 0.12071023 0.20403484
000170 23 30 16 3f 6b 79 4a 3f 57 c3 05 40 32 f6 b4 3f
       0.586672 0.7909152 2.0900476 1.4137633
000180 8a 9b 07 3e 65 19 87 bf 0b a9 ce 3d b6 66 03 3f
       0.13242927 -1.0554625 0.10090836 0.513286
000190 72 d8 84 3f 0a d0 1f bd 1b 93 a2 3d 40 6b 32 3d
       1.0378554 -0.03901676 0.079382144 0.043559313
0001a0 ae d2 2b bd 78 33 82 3e f1 50 db 3e 94 57 21 bd
       -0.041948967 0.25429893 0.4283519 -0.03939016
0001b0 03 7b dd bf 40 96 91 3e 34 31 2f 3f 21 5c b3 bf
       -1.7303165 0.28434944 0.68434453 -1.401249
0001c0 2e b4 7a 3d 66 bb 18 bd 8a f1 c4 3e 78 44 3f bf
       0.06120699 -0.037288092 0.3846553 -0.7471385
0001d0 f8 52 2a 3d a8 b3 d3 be 3e b4 58 3e 74 dd 07 be
       0.04158303 -0.41348004 0.21162507 -0.13268071
0001e0 89 5b 64 bf fd 5a 4a bf 28 7c 33 3f 18 34 0b bd
       -0.8920217 -0.7904509 0.7011132 -0.033985227
0001f0 1e c6 b6 3f f9 a0 2d bf 62 2c 65 bc 0d 8d 5e 3b
       1.427921 -0.6782375 -0.0139876325 0.0033958585
000200 2b 57 6d 3c d4 3a 75 3f 45 87 1d 3f 01 a6 27 3e
       0.0144861145 0.9579289 0.6153453 0.16371919
000210 34 91 04 c0 32 a0 08 bf 7e 7f 94 3f a1 fe 14 3e
       -2.0713625 -0.5336944 1.1601408 0.14550258
000220 af 2d 09 3f 82 78 ab be 12 c5 26 bf c3 58 82 be
       0.5358533 -0.33490378 -0.65144455 -0.25458345
000230 49 4b 4d bf cf d1 f0 3e 40 39 0c bf 4f 55 8b be
       -0.80193 0.4703507 -0.54774857 -0.27213523
000240 5c 65 0b bf ae 37 39 bd db c6 47 3a 50 54 26 3e
       -0.5445154 -0.045219116 0.00076208793 0.162431
000250 52 52 02 3f cc e7 7e 3d 72 e5 d4 3f c6 40 0f 3f
       0.5090686 0.062232777 1.6632521 0.5595821
000260 da f1 c6 3e 77 83 b3 3f 31 c0 85 be 9f d3 ba 3f
       0.38856393 1.4024495 -0.26123193 1.4595832
000270 11 95 17 bf 95 40 dd 3e 2e a5 95 bd e1 5c dc 3e
       -0.5921183 0.43213335 -0.07306896 0.4303961
000280 c2 90 53 bf 0e 5b 02 3e 98 47 32 3d 95 54 bd bd
       -0.8264276 0.12730047 0.04352531 -0.09244648
000290 c8 57 07 bf b9 73 67 bf 9f 3a fd 3e 3c 35 fd bd
       -0.5286832 -0.90410954 0.49458787 -0.12363669
0002a0 df 68 44 bd 48 80 02 3f 1f 2d 65 bc c1 ea d4 3f
       -0.047951575 0.5097699 -0.0139878085 1.6634141
0002b0 15 e2 4d bd 7e 4f 4d 3f c2 fb 6b bd 95 66 8a 3e
       -0.050264437 0.8019942 -0.05761314 0.2703139
0002c0 a5 2c 02 bf 3e 93 39 3f 23 7d 8f bd 83 7d 2b 3f
       -0.5084937 0.724903 -0.0700629 0.6698839
0002d0 e2 a0 93 be 33 c8 41 3f 77 b9 e7 be d2 41 8d 3f
       -0.2883368 0.75696105 -0.45258686 1.1035712
0002e0 cc ae 43 bc 89 7f f0 3f 75 8d 86 3f 9f ac 09 bd
       -0.01194353 1.8788921 1.0511919 -0.03361189
0002f0 a8 e3 e2 3c d8 cc de be 64 49 2f be 3f 28 f4 3d
       0.027696446 -0.43515658 -0.1711784 0.11921739
000300 b5 30 d6 bf 35 74 63 3f 7f 0e e5 3f 8d c3 47 3d
       -1.6733614 0.8884919 1.7895049 0.048770476
000310 ac 0e 2b 3f 18 33 57 be f4 67 b8 be 2b 91 75 bf
       0.6681926 -0.21015584 -0.3601681 -0.95924634
000320 c6 ac a3 3f a4 ab 33 3d 07 76 c1 bc 22 11 6d 3e
       1.2787101 0.04386486 -0.02361585 0.23151067
000330 cd 7b db 3d 38 e2 4c bc fb 4d 48 bc 83 d1 6f 3e
       0.107169725 -0.012505107 -0.012225623 0.23419766
000340 1d 0d 8a 3e 67 87 6b 3e 45 15 e0 be 29 9f 6a 3d
       0.2696313 0.2300087 -0.43766227 0.057280693
000350 5a e7 59 bf da 62 e8 bd 1d 59 d0 3e d1 a0 ca be
       -0.8511864 -0.113469794 0.40692988 -0.39575818
000360 65 02 4a 3f e7 f4 9e 3e 4e d1 3d bf ef 41 9e bd
       0.78909904 0.3104622 -0.741475 -0.077274196
000370 eb 51 c5 3c f6 ec 50 3e 1b 3a 5b bf e7 fa 6a 3f
       0.024086913 0.20402893 -0.85635537 0.91789097
000380 65 35 80 ba fc 92 43 bc 9b 71 17 3f 5e 72 c3 bf
       -0.0009781538 -0.011936899 0.59157723 -1.5269277
000390 b6 bf 58 bd 17 09 be be 7e 74 9b be 20 e6 6b be
       -0.052917205 -0.3711631 -0.30362314 -0.23037004
0003a0 6d 44 bd bf 69 d7 9d 3e 60 1d bc be 38 fa 48 bf
       -1.4786507 0.30828407 -0.3674116 -0.78506804
0003b0 67 cc b9 bc 69 e9 07 bf cb 47 1b 3e 42 f6 29 bc
       -0.022680474 -0.5309053 0.15164106 -0.010373654
0003c0 c3 e3 14 bf 7d 06 3b 3e 76 23 03 3f 49 15 ac 3d
       -0.58160037 0.18264194 0.51225984 0.08402497
0003d0 8c e3 c2 bd 84 de 3c be b6 56 fc 3c 5f 71 3f 3e
       -0.09516057 -0.18444258 0.030803066 0.18695591
0003e0 6f 80 39 3f 17 f9 ea bd 0f 87 e1 be 7c 61 34 bf
       0.724616 -0.11473291 -0.44048354 -0.7046125
0003f0 94 15 3a bd e5 4c 0f 3e 80 78 69 3f a0 1b 66 be
       -0.045430735 0.13994177 0.91199493 -0.22471476

bias f4 [8]
000000 05 7d 2f 3f 6e d6 2e 3f b3 4b 1b 40 f7 9c 64 3f
       0.6855014 0.68295944 2.4264953 0.8930201
000010 35 be 13 3f 3a 0d 60 bf d2 f2 02 bf 2a 97 41 3f
       0.5771211 -0.8752018 -0.51151764 0.75621283

weight f4 [256, 119]
000000 71 bb 03 c0 89 e5 48 c0 ee e6 ca 3f 83 4a ec 3f
       -2.0583155 -3.1390097 1.5851724 1.8460239
000010 29 36 c2 40 f8 4d b6 3f df fc dc bd 2f e2 f6 bf
       6.0691113 1.4242544 -0.10790419 -1.9287776
000020 8d 8c 3a 40 68 d3 e4 be cf 09 39 bf 9a 4d 01 c0
       2.9148285 -0.4469254 -0.7228059 -2.0203614
000030 4b 1f 91 bf 51 29 b1 3d 6c 89 e5 bf 00 8d 8c bf
       -1.1337675 0.086504586 -1.7932563 -1.098053
000040 d1 ed 21 3f a9 54 a7 3f 93 e9 e4 3f 97 da 8f bd
       0.63253504 1.3072711 1.7883781 -0.070241146
000050 0f ac f9 bd b1 11 a7 3e 40 28 9c 3e 17 c6 83 3e
       -0.12191021 0.32630685 0.30499458 0.25737068
000060 87 36 7c be 1e 28 ef 3e 70 82 1a 3e a3 73 90 3d
       -0.24630176 0.46710294 0.1508882 0.07053306
000070 ad 4c 03 bd 7a d3 17 bd 30 88 02 bc d9 ae a4 3d
       -0.032055546 -0.037066914 -0.00796704 0.08041162
000080 49 69 b7 bd b1 fa 01 c0 c3 d6 d2 be 0b d9 77 3e
       -0.089556284 -2.030926 -0.41179475 0.24203889
000090 d8 c6 84 bf 2b bf 82 3e 2b 09 84 c0 8b 88 3a bd
       -1.0373182 0.25536475 -4.126119 -0.045540374
0000a0 8c fd 6f bd 42 a8 58 bd 88 5e 23 bc a6 87 77 3d
       -0.05859141 -0.05289484 -0.0099712685 0.0604321
0000b0 40 c7 7a bc 72 28 8b 3f 07 d6 89 bf 20 e2 a6 3f
       -0.015306294 1.0871718 -1.0768441 1.3037758
0000c0 b8 32 3a 40 70 53 03 bf 55 05 fc 3f bc b1 4c 3e
       2.9093456 -0.5129919 1.9689127 0.19989675
0000d0 1e 50 1e 3f 63 51 13 be 81 71 8f 3f b9 f6 6a bf
       0.61841 -0.14386515 1.1206514 -0.9178272
0000e0 e8 be e4 bf 74 89 e9 3c 5b 28 a8 3d 79 4f 8c bd
       -1.787076 0.028507926 0.08210822 -0.06851096
0000f0 e0 24 ca bc e2 b8 6f 3d 7f 25 33 bd 18 bd 13 c0
       -0.024675786 0.058525927 -0.04373693 -2.3084164
000100 b2 26 43 3e 7a b4 46 c0 c3 d8 62 c0 10 13 e8 bf
       0.1905773 -3.1047654 -3.54448 -1.8130817
000110 1f dd 21 c0 13 13 4b c0 9f 90 c9 3f 36 fc 1d bf
       -2.5291212 -3.1730392 1.574726 -0.6171297
000120 ed f5 f4 bd f4 30 e5 be 12 5b b3 3d 9e 9e 8d bd
       -0.11960969 -0.4476391 0.08757605 -0.069150195
000130 2c 93 b2 bd d0 9c 96 3c ec 5b 9f bc 67 b9 8a 3d
       -0.08719477 0.01838532 -0.019453011 0.06773644
000140 9b 67 45 bd 76 37 71 3f 4f 71 4d bf fe 93 fe bf
       -0.04819451 0.9422525 -0.8025102 -1.9888914
000150 c6 bc ca bf 0e 81 fd 3f 49 ca 94 c0 db 73 cf bf
       -1.5838859 1.9805009 -4.649693 -1.6207231
000160 be 5b e5 3f e7 6b 44 3c 37 f3 3e bf 89 eb 9b bf
       1.7918622 0.011988617 -0.74589866 -1.2181255
000170 14 d2 92 bf 5b 60 82 3d 80 15 22 bb 81 10 05 bd
       -1.1470361 0.063660346 -0.0024732053 -0.032486442
000180 92 36 b3 bd a2 46 1d 3d 41 0e 3f bd a9 fb 89 3f
       -0.08750643 0.03839744 -0.046644453 1.0779926
000190 74 6c 4c 3f 3b 38 57 be f4 1e 44 3f 7a 87 40 c0
       0.79852986 -0.21017544 0.7660973 -3.0082688
0001a0 c9 e2 9d bf a7 4d b4 bd 79 2d 18 3f 83 c9 87 3f
       -1.2334834 -0.088038735 0.59444386 1.0608371
0001b0 b2 16 58 bf cc b3 8e 3f 83 cc d7 3f 73 0a a4 bf
       -0.8440963 1.114862 1.6859287 -1.2815689
0001c0 6e 6e 93 3e f2 bc 14 c0 b0 9a cc bf 57 d5 b7 3f
       0.2879519 -2.3240323 -1.5984707 1.4361981
0001d0 b8 c1 8a 3e 19 3b 65 be 17 b2 4e 3e 43 1f b4 c0
       0.2710092 -0.22385825 0.20185123 -5.628816
0001e0 f7 9b cc bf a3 98 5d 3f 5e 1e 0a 3f 26 92 de bf
       -1.5985097 0.8656103 0.53952587 -1.7388351
0001f0 21 db 39 c0 f4 fa 88 c0 be 29 65 c0 a1 49 0a 40
       -2.9039996 -4.280634 -3.5806727 2.160744
000200 b8 f8 4b bf 5f 28 6a 40 7d 32 f8 bf 8c b1 16 c0
       -0.7967639 3.658714 -1.9390408 -2.3545866
000210 4d f7 22 bf bb 2d f4 3f 07 00 a6 bd 47 cd 60 3f
       -0.636586 1.9076456 -0.08105474 0.8781323
000220 69 6c 8a 3f 89 e6 6d bf 85 3c d1 3e f8 64 70 be
       1.0814334 -0.92929894 0.40866485 -0.23476017
000230 c2 cf 30 be 10 cb 19 bf e2 37 44 be 44 4d ae 3e
       -0.17266753 -0.60075474 -0.19161943 0.34043324
000240 46 2e a5 3e 59 32 49 3f 26 38 25 bd 38 d7 ae 3c
       0.32261866 0.7859245 -0.04033675 0.021342859
000250 c0 e8 41 bb 40 f9 a7 3b 79 09 b3 3d 56 7e 30 3d
       -0.0029588193 0.0051261485 0.08742041 0.043089233
000260 21 7a b5 bf af 97 a4 3e fa fe 7e c0 48 21 ef 3f
       -1.4177896 0.32146975 -3.9843125 1.8682032
000270 90 2c c9 bf 40 f1 b9 c0 72 35 4f bd 16 c0 5b 3d
       -1.5716724 -5.8106995 -0.05058808 0.053649984
000280 40 e3 90 bd ac fe f3 3c c3 4f 8d 3d 47 10 ab 3d
       -0.070745945 0.029784523 0.06899979 0.08352714
000290 4d a5 75 3f 6b a5 64 c0 61 ce 02 bf 65 e2 30 40
       0.95955354 -3.5725963 -0.5109616 2.763818
0002a0 a5 e8 b6 be 67 40 7a c0 84 16 9d 3f 42 1f e5 be
       -0.3572437 -3.9101808 1.2272496 -0.4475041
0002b0 9d ea db bf 9a ca af bf 95 6c dc be 48 be 21 c0
       -1.7180973 -1.3733704 -0.43051592 -2.5272388
0002c0 4f 74 b0 3d 10 07 36 bd de 91 56 bd 22 ec 9c bd
       0.08615934 -0.04444033 -0.052385204 -0.07662226
0002d0 52 3d 0c 3d 00 a7 7f 3a 1c 6b f2 bf 9d 7e 53 3f
       0.034238167 0.0009752363 -1.8938937 0.8261507
0002e0 88 d4 ef bf 6c 5b ae bf e7 0f cc 3f 5c bb b9 3f
       -1.8736734 -1.362165 1.5942353 1.4510303
0002f0 b1 1c b8 3e f1 d5 a1 3f 3d d6 e6 be 43 42 42 3f
       0.3595939 1.2643415 -0.45085326 0.7588236
000300 c3 aa 17 3f ca 85 e8 3e 80 be 51 bc 8a 38 33 3d
       0.59244937 0.45414573 -0.012801766 0.04375509
000310 00 69 dd 3c 53 b2 97 3d f2 8c 6e 3d c4 77 b5 bc
       0.027027607 0.074070595 0.058239885 -0.022151835
000320 17 6a d8 3c 27 e4 7f be df cd 35 3f 39 b9 17 bf
       0.026417775 -0.24989377 0.7101726 -0.59267
000330 43 10 74 3f f7 10 87 be d6 68 8f 3f f9 af 4c bf
       0.95337313 -0.2638013 1.1203868 -0.7995601
000340 52 5c 2a bc 8b a1 9e 3d 5b f2 01 bf ed 30 57 3e
       -0.010397987 0.077456556 -0.5076043 0.21014757
000350 66 9c 1f 3d 4a a5 28 bd 28 83 d1 3c 97 d4 9e 3d
       0.038967513 -0.041173257 0.025575235 0.07755392
000360 74 5a b8 bd 08 5f 3e 3c dc 48 2a c0 eb 02 e2 bc
       -0.090016276 0.011619337 -2.660697 -0.027589282
000370 a2 89 13 3f b7 c0 23 be de ba 43 c0 21 70 ab bf
       0.57631886 -0.15991484 -3.0582805 -1.3393594
000380 14 57 c5 3f 9b 72 b4 3e 10 7e 83 bd fe 79 4e 3f
       1.5417199 0.35243687 -0.06420529 0.80654895
000390 5c 35 27 bf 93 1c f6 bf 1a f6 bb 3d c3 8f 4f 40
       -0.65315795 -1.922747 0.091777995 3.2431495
0003a0 16 2c 8b 3e 7f 9a 04 c0 08 e4 e1 3d 62 6d 4b c0
       0.27182072 -2.0719297 0.11029822 -3.1785512
0003b0 4f 72 75 bf 0c b8 4c bf da 1f 9c c0 03 d5 02 c0
       -0.95877546 -0.79968333 -4.878888 -2.0442512
0003c0 2b d1 62 41 11 af 95 c0 c9 e6 bc 40 ca 99 dd 3f
       14.176066 -4.6776204 5.903172 1.7312558
0003d0 58 05 b9 3f bf 8d 7f bf c2 24 f2 be b3 ea 97 3f
       1.4454756 -0.9982566 -0.4729367 1.18685
0003e0 02 e1 8c be 04 50 d1 3f 1c 26 40 bf 27 1a 0c 3e
       -0.27515417 1.6352544 -0.7505815 0.13681851
0003f0 8a ba b3 be d6 12 59 bf 50 4f 0a 3f 7f e6 0e bf
       -0.35103256 -0.84794366 0.5402727 -0.5582046

bias f4 [256]
000000 b3 63 4e c0 c4 33 29 c0 14 20 2f 40 f6 76 ed be
       -3.2248352 -2.6437845 2.736333 -0.46379822
000010 e8 73 d6 40 94 cd d4 be 9b 4b 78 c0 36 0f 6a 40
       6.7016487 -0.41563094 -3.8796146 3.6571784
000020 ab a5 25 40 44 c0 b5 3e a6 a3 76 c0 90 57 8a c0
       2.5882366 0.3549825 -3.8537383 -4.323189
000030 37 a0 aa c0 1b 3b 80 c0 7a e4 50 40 95 2d ae c0
       -5.3320575 -4.007215 3.263945 -5.443064
000040 5c 60 47 c0 8c 3e 2f c0 19 cc 13 bf 04 d8 29 40
       -3.1152563 -2.7381926 -0.57733303 2.6538095
000050 f3 2e ad c0 b8 fb ca 3f bc 8a 6a c0 90 f4 35 3f
       -5.411981 1.5858068 -3.6647177 0.710763
000060 5e d5 03 c0 24 39 a0 40 4a 5a 97 c0 30 10 ae bf
       -2.059898 5.006975 -4.7297716 -1.359869
000070 f9 83 91 40 ad d0 3a 3e e4 82 a2 c0 53 7f 60 40
       4.54736 0.18243666 -5.078478 3.5077713
000080 09 16 61 c0 f0 c3 0b 40 c1 ff eb 3d 91 61 22 c0
       -3.51697 2.183834 0.115233906 -2.537205
000090 b0 66 e1 bf 9b de e4 3e 8e 88 29 bf b1 59 99 c0
       -1.7609463 0.44701084 -0.6622399 -4.7921987
0000a0 2b f9 73 bf 49 cd b0 bf 99 7e 9c 3f 3f 05 0b c0
       -0.95302075 -1.3812648 1.2226135 -2.1721952
0000b0 0a d7 85 3f b2 d6 9a bf a9 09 d8 3f 60 46 98 c0
       1.045625 -1.209677 1.6877948 -4.7585907
0000c0 07 39 2b c0 b3 20 62 c0 57 a7 84 3f fc 8b 89 40
       -2.6753557 -3.5332458 1.0363568 4.298338
0000d0 07 ea fe c0 d0 2c 82 c0 5e 38 c0 bf 01 47 ce be
       -7.966068 -4.0679703 -1.5017202 -0.40288547
0000e0 1c 95 b2 3d 54 0d ce c0 59 6f 90 c0 f8 46 42 c0
       0.087198466 -6.439127 -4.5135922 -3.0355816
0000f0 84 72 2a c0 ff c0 24 c0 7f ea 75 bf f2 7f 66 be
       -2.6632395 -2.5742795 -0.9606094 -0.22509745
000100 25 00 95 c0 2d 06 aa c0 ba d4 4d c0 42 cf 44 c0
       -4.6562676 -5.313254 -3.2161088 -3.07515
000110 cf 03 90 c0 f8 9d 23 40 92 53 99 c0 73 2b 91 3e
       -4.500465 2.5565166 -4.7914515 0.28353462
000120 22 b0 d9 c0 6b 4b 30 c0 29 27 de 3f 58 05 39 c0
       -6.8027506 -2.7546031 1.7355701 -2.8909512
000130 60 9f 59 3f 9e 06 5f c0 eb dc 2d bf 2a 5b ce c0
       0.8500881 -3.484779 -0.6791522 -6.4486284
000140 a0 4a 7c c0 a6 2a 3e 40 16 d4 2f bf 41 c9 49 bf
       -3.9420547 2.971353 -0.6868299 -0.78822714
000150 90 3b a3 c0 0d 46 31 3f cf 6b 30 c0 e3 b1 9e bf
       -5.101021 0.69247514 -2.75658 -1.2398037
000160 78 31 96 40 31 ef 1d 40 21 98 85 c0 10 82 60 40
       4.6935387 2.467724 -4.1748204 3.5079384
000170 d7 93 5c c0 6c 4b f9 bf 89 c7 88 c0 e2 6f 03 be
       -3.4465234 -1.9476142 -4.2743573 -0.12835649
000180 11 47 8a c0 8e 9d a3 40 8a 93 75 c0 c2 5e 6c 40
       -4.321175 5.1129827 -3.83713 3.6932836
000190 59 f9 8c c0 37 fb 8e be a7 1a 06 40 c4 7d 69 c0
       -4.405438 -0.27926037 2.0953767 -3.6483011
0001a0 2f 26 61 c0 4c 43 75 40 16 3d 91 40 b4 80 7c c0
       -3.5179555 3.8322325 4.538707 -3.9453554
0001b0 c6 6c b7 3f dc 9d 0c 40 ab 4f 8c c0 d6 bd 8e c0
       1.433007 2.197135 -4.384725 -4.4606733
0001c0 d3 46 84 c0 fb 35 b1 c0 bc a1 43 c0 4e 83 5d c0
       -4.1336455 -5.5378394 -3.0567465 -3.4611392
0001d0 e7 9a 83 c0 dd c8 85 c0 c2 41 37 c0 e6 9c 29 c0
       -4.112659 -4.1807694 -2.8633885 -2.6502013
0001e0 43 35 d3 c0 57 04 79 c0 6a b7 10 3e 32 53 d3 40
       -6.6002517 -3.89089 0.14132467 6.6039057
0001f0 51 2f 81 40 0a 6e 01 bf c8 8b 27 3e 9c 24 83 3f
       4.037026 -0.5055853 0.16361916 1.0245547
000200 35 dc c4 40 c1 3a 80 c0 5a a2 61 c0 3b 95 78 c0
       6.1518807 -4.007172 -3.5255342 -3.8841083
000210 35 6c 8d 3f ca 12 1b 40 05 49 87 c0 03 8c d6 bf
       1.1048647 2.4230218 -4.2276635 -1.6761478
000220 d7 da cc c0 8e fa b5 c0 44 6f 69 c0 f8 a4 aa 3e
       -6.401714 -5.6868353 -3.647416 0.33328986
000230 bd b5 c4 c0 04 c5 19 bf ee 8d 62 c0 a7 2e f3 bf
       -6.147185 -0.60066247 -3.5399127 -1.8998612
000240 5b ad 03 40 4c 2a 58 c0 60 f0 7e bf 0a 1c c2 3e
       2.0574558 -3.3775816 -0.99585533 0.37912017
000250 9d fb 33 40 e1 17 18 40 59 f3 ab c0 73 0c 88 c0
       2.8122323 2.3764575 -5.3734555 -4.2515197
000260 01 26 17 40 37 9d 6b c0 ce b2 02 c0 d6 1f c2 c0
       2.3616946 -3.6814706 -2.0421634 -6.066386
000270 43 22 84 c0 ed 61 73 c0 85 79 ca 40 86 09 10 bf
       -4.1291823 -3.802852 6.327334 -0.5626453
000280 58 bb 47 c0 1d 06 d8 40 0d 14 71 c0 77 26 74 c0
       -3.1208096 6.7507463 -3.7668488 -3.8148477
000290 1a 97 a1 c0 97 20 77 c0 2f 4c 12 40 24 1b a3 3f
       -5.049695 -3.8613641 2.2858999 1.2742658
0002a0 24 db f1 3f 60 6d 10 c0 17 2b 53 be b7 ef e2 3e
       1.8895001 -2.2566757 -0.20621906 0.44323513
0002b0 7c a6 9c c0 66 1a 4f c0 c6 04 57 c0 c0 3d 4a c0
       -4.895323 -3.2359862 -3.3596663 -3.160019
0002c0 ce 23 01 40 9f 13 57 3d 97 9c 8b 40 94 b6 8b 3f
       2.0178103 0.052508947 4.362865 1.0915093
0002d0 3a 11 95 c0 63 f0 3f c0 2e 89 a4 c0 34 d4 2f c0
       -4.658353 -2.999047 -5.1417456 -2.7473269
0002e0 04 48 c6 40 71 ee 86 c0 01 42 9e 40 f5 10 83 c0
       6.196291 -4.2166066 4.945557 -4.09582
0002f0 54 5a 48 40 d8 39 99 c0 b4 2b 83 c0 25 5d 2d c0
       3.1305132 -4.788311 -4.099085 -2.70881
000300 20 26 8a c0 56 7f e1 bf 86 92 81 bf 95 d6 cc c0
       -4.317154 -1.7616985 -1.012284 -6.401194
000310 1a e1 4f bf 05 ca 89 40 26 d0 d3 3e 4d ab 25 40
       -0.8120285 4.3059106 0.41369742 2.5885804
000320 d0 df 01 bf f6 5f b0 bf c6 e8 ba 40 7a df bd 3f
       -0.50732136 -1.3779285 5.8409147 1.4833825
000330 d7 13 92 3e 3c 0b 73 c0 4e 56 40 c0 a9 91 4a 40
       0.28530762 -3.7975607 -3.0052676 3.1651404
000340 e7 6f 8e c0 02 3b d1 c0 ef a4 a7 3f e3 72 45 c0
       -4.45116 -6.538453 1.3097209 -3.0851371
000350 88 a2 80 3e ed c7 50 bf 4d e7 86 bf 68 11 94 be
       0.25124002 -0.8155506 -1.0539337 -0.2891953
000360 7d 13 bb 3f ba 7d 3b c0 52 54 55 c0 fa e2 86 bf
       1.4615322 -2.9295487 -3.3332715 -1.0538018
000370 bb 8e a9 c0 5c 44 36 3d 76 04 8d c0 67 78 a8 3f
       -5.298673 0.044498786 -4.4067945 1.3161744
000380 67 8f 96 c0 44 d5 dd c0 6b 92 5b 40 4b e9 7a c0
       -4.705005 -6.9322834 3.4308116 -3.920489
000390 b1 a8 85 bf 0b 10 fe 3e f7 56 86 c0 33 c3 7b 40
       -1.0442106 0.49621615 -4.198116 3.933789
0003a0 d5 bd 35 be 36 c6 6c bf 9b 82 00 40 74 fd c6 c0
       -0.17748196 -0.92489946 2.0079715 -6.218439
0003b0 b2 ca 87 c0 a1 5b a1 c0 86 47 38 3f b3 73 8c 3f
       -4.243493 -5.042435 0.71984136 1.0972809
0003c0 b9 5a 82 c0 b5 db 13 c0 0f 5a a0 be 4e 49 aa 40
       -4.0735745 -2.3102849 -0.3131871 5.3214483
0003d0 36 a2 60 c0 45 ec 01 c0 d5 66 33 3f 07 d1 a6 c0
       -3.5099006 -2.0300457 0.70078784 -5.213016
0003e0 0a 55 61 40 94 be 86 3f 40 fd 84 40 67 72 32 bf
       3.5208154 1.052691 4.1559143 -0.69705814
0003f0 25 8c dc 3f a7 16 4a c0 59 09 dc 3f ea c6 64 be
       1.7230269 -3.1576326 1.7190353 -0.22341505
