log/mujoco_ppo_swimmer_v2_0/mujoco_ppo_swimmer_v2_0_s0/pyt_save/model.pt (torch_old, 43116 bytes, 12 tensors)

log_std f4 [2]
0	0xbffca5b9	-1.9738075
1	0xc0291f29	-2.6425269

weight f4 [64, 8]
0	0x3d9f2bb4	0.077720076
1	0x3e127822	0.1430364
2	0xbf02f0c3	-0.51148623
3	0xbe0ab8cf	-0.13547061
4	0x3cc08e93	0.023505485
5	0x3dff63dc	0.124702185
6	0x3d7606cc	0.060065076
7	0x3f0b7e51	0.5448962
8	0x3cb5a29f	0.02217227
9	0x3de595e2	0.112102285
10	0xbe1fc19d	-0.15601201
11	0xbd997088	-0.07492167
12	0xbeb56c14	-0.3543402
13	0xbe9b9372	-0.3038593
14	0xbdf4388e	-0.119248495
15	0xbc2dc7a4	-0.01060668
16	0x3e4d38a4	0.20041138
17	0x3e3c4c9d	0.183886
18	0xbedadfd3	-0.4274889
19	0x3ea0eeeb	0.3143228
20	0x3e349ee2	0.17638734
21	0x3f0b4ce3	0.54414195
22	0xbe61cdc3	-0.22051148
23	0x3efe4d02	0.49668127
24	0xbdb32c04	-0.0874863
25	0x3d993e0e	0.07482539
26	0x3eba2b61	0.3636122
27	0xbec40fe3	-0.3829337
28	0xbe9c44c9	-0.3052123
29	0xbe522705	-0.20522697
30	0xbe31adf9	-0.17351522
31	0x3eda272c	0.4260801
32	0xbe6e0e1e	-0.23247573
33	0xbe33f553	-0.17574053
34	0xbe509fd8	-0.20373476
35	0xbebc0c05	-0.3672792
36	0xbe73359b	-0.23750918
37	0x3e57448a	0.2102224
38	0x3e1f320c	0.15546435
39	0x3e601d9e	0.21886298
40	0xbb732ebe	-0.0037106718
41	0xbe617848	-0.2201854
42	0x3d889b87	0.066702895
43	0xbe832067	-0.2561066
44	0xbe8d04b5	-0.27542654
45	0xbea2ebf2	-0.31820637
46	0x3e598402	0.21241763
47	0x3e7dfedf	0.24804257
48	0xbe24390a	-0.16037384
49	0xbd77a085	-0.060455818
50	0x3ea5d028	0.32385373
51	0x3e06bcd3	0.13157968
52	0x3dc513b4	0.09622899
53	0x3bfb4b20	0.0076688677
54	0x3e7b4300	0.24537277
55	0xbf1d4bc7	-0.6144375
56	0x3d082f97	0.03324851
57	0xbe7eed60	-0.24895239
58	0xbf0ca43b	-0.54938096
59	0xbe055e63	-0.13024287
60	0x3ebd6923	0.36994275
61	0x3e68a57d	0.22719379
62	0xbe8036d8	-0.25041842
63	0x3ce0e7c6	0.027454268
64	0x3e384e50	0.17998624
65	0x3af06e3f	0.0018343403
66	0x3de8b24b	0.11362132
67	0xbe1e49c7	-0.15457831
68	0x3e18868c	0.14895076
69	0x3eb10b05	0.3457872
70	0xbe86f932	-0.26361996
71	0xbe947bb3	-0.29000625
72	0x3e1b52ff	0.15168379
73	0x3ea8538c	0.3287624
74	0x3ee2f24f	0.44325492
75	0x3e192ddd	0.14958902
76	0xbd866667	-0.065625004
77	0xbed59644	-0.41716206
78	0x3e411d3a	0.18858805
79	0xbe49cfbb	-0.19708149
80	0xbf08a369	-0.53374344
81	0x3eed3a6d	0.46333638
82	0x3ed7691f	0.4207239
83	0xbe70a1fe	-0.23499295
84	0xbd819473	-0.063271426
85	0x3cb5cbe1	0.022191944
86	0xbdf243b7	-0.11829322
87	0xbdfc5409	-0.12320716
88	0x3e1dc7da	0.15408269
89	0xbe8b8e54	-0.27257025
90	0x3e6c58be	0.23080727
91	0x3ebc29f9	0.36750773
92	0x3e9cb6d9	0.30608252
93	0x3e1f62cb	0.1556503
94	0xbeada9ca	-0.339186
95	0xbe98aabd	-0.29817763
96	0x3dff3149	0.12460572
97	0x3e2332ed	0.15937395
98	0xbe690ad9	-0.22758044
99	0xbe752152	-0.23938492
100	0x3e9efb7b	0.3105124
101	0x3e9c773d	0.30559722
102	0xbe2742aa	-0.16334024
103	0xbe536196	-0.20642695
104	0xbebece29	-0.37266663
105	0xbc9d4081	-0.019195797
106	0xbe9b5839	-0.30340746
107	0xbe86650a	-0.26248962
108	0x3d16c6a2	0.036810525
109	0x3e1567d6	0.14590392
110	0xbe1d71ea	-0.15375486
111	0x3d47bda9	0.04876486
112	0xbe928c0b	-0.2862247
113	0x3ec50253	0.38478336
114	0x3ed1e86c	0.40997636
115	0xbe4f8037	-0.20263754
116	0xbec29adb	-0.3800877
117	0x3df59917	0.1199209
118	0xbe0213ec	-0.12702912
119	0x3e6de7e4	0.2323299
120	0x3e15b984	0.1462155
121	0x3d7f3107	0.062302615
122	0xbe649f8b	-0.22326486
123	0x3e93f871	0.28900483
124	0xbeb18008	-0.34667993
125	0xbe8b862d	-0.27250805
126	0xbdb174a0	-0.086648226
127	0xbe2c73cc	-0.16841048
128	0xbe235853	-0.15951662
129	0xbea0d18e	-0.31409878
130	0xbd8c6339	-0.06854863
131	0xbd794945	-0.06086089
132	0xbe3a7295	-0.18207772
133	0xbe377de6	-0.1791912
134	0x3e9c2ac5	0.3050138
135	0x3c990258	0.018677875
136	0xbbfcf775	-0.007719929
137	0xbc235fa4	-0.009971533
138	0x3de5ef82	0.11227323
139	0x3e670b37	0.22562872
140	0x3eb09d4c	0.34495008
141	0x3eb1c7eb	0.34722838
142	0x3eb9e2c0	0.3630581
143	0xbd9ecbf1	-0.077537425
144	0xbebf1d62	-0.37327105
145	0xbdf6f800	-0.12059021
146	0x3ec67c79	0.3876684
147	0xbe4c270b	-0.19936769
148	0xbe5e3bf5	-0.2170256
149	0xbeba8b1e	-0.36434263
150	0xbeb85c91	-0.36008123
151	0xbf10195d	-0.562887
152	0xbd8d441a	-0.06897755
153	0x3dee8a14	0.1164743
154	0x3ea44fd4	0.32092154
155	0xbf305511	-0.688798
156	0x3e866ab9	0.26253298
157	0xbebae8cd	-0.36505738
158	0xbd19c004	-0.037536636
159	0xbea6840a	-0.32522613
160	0xbdbdf287	-0.09274774
161	0xbda540d5	-0.08069006
162	0xbe8d0846	-0.27545375
163	0xbe8cdc9f	-0.2751207
164	0xbd44b01c	-0.048019513
165	0xbd859444	-0.0652242
166	0xbe1788bf	-0.14798258
167	0x3e0eedfa	0.13957968
168	0xbe821308	-0.25405145
169	0xbdae0b23	-0.08498218
170	0x3e134241	0.14380743
171	0xbda02c8d	-0.078209974
172	0x3eef71c1	0.46766475
173	0x3db515fd	0.088420846
174	0xbe6a9d4d	-0.22911568
175	0x3dcb4e97	0.09927099
176	0xbd13c5bf	-0.036077257
177	0xbe6ae364	-0.22938305
178	0x3eae2f0b	0.34020266
179	0xbe4618c0	-0.19345379
180	0x3c5d93e5	0.01352403
181	0xbe0d6202	-0.13806918
182	0x3e632e19	0.22185554
183	0x3d93eecc	0.07223281
184	0x3e6a3522	0.22871831
185	0x3dcdfdb7	0.10058158
186	0xbe42f54a	-0.19038883
187	0x3cfd2e89	0.030905979
188	0xbe7bddf6	-0.2459639
189	0x3e87a64c	0.26494062
190	0x3eaafc81	0.3339577
191	0x3eaab17d	0.33338538
192	0xbe704290	-0.23462892
193	0xbcce7759	-0.025203394
194	0xbe17d96c	-0.14829034
195	0xbeabd5e4	-0.33561623
196	0xbd591dad	-0.053006817
197	0x3c60bba3	0.013716611
198	0xbe1865cc	-0.14882582
199	0x3c1d04b5	0.009583642
200	0x3d857432	0.06516303
201	0x3e48c46e	0.19606182
202	0xbecbde2e	-0.39817947
203	0xbdded512	-0.10880484
204	0xbe82b94a	-0.2553199
205	0x3eda3b81	0.42623523
206	0xbe2e6984	-0.17032439
207	0x3e882bb7	0.26595852
208	0x3e1bb1c8	0.15204537
209	0x3c828808	0.015934005
210	0x3dcf1735	0.10111848
211	0xbe3a4b21	-0.18192722
212	0x3dd6b239	0.10483212
213	0xbd4d40ee	-0.05011075
214	0x3c7f1fe7	0.015571571
215	0xbd93e988	-0.07222277
216	0xbe777013	-0.24163847
217	0xbe83bcba	-0.25729924
218	0x3ec477d1	0.38372663
219	0xbeb68759	-0.35650137
220	0xbd5a6868	-0.053322226
221	0x3ea6251b	0.32450184
222	0x3e0e58d7	0.13901077
223	0x3ddce8fe	0.10786627
224	0xbe4b5a2e	-0.1985862
225	0x3dad6c06	0.084678695
226	0xbedb038f	-0.42776152
227	0x3e9ce14d	0.3064064
228	0xbdc4f3b1	-0.09616793
229	0xbe9d4e99	-0.30724028
230	0x3e37c71c	0.17947048
231	0x3f2739fa	0.6532284
232	0xbb053974	-0.0020328434
233	0x3e8cbef5	0.2748944
234	0x3eaecc7e	0.3414039
235	0xbe7cc9c7	-0.24686347
236	0x3df58c07	0.11989599
237	0xbe29f0f5	-0.16595824
238	0xbe695359	-0.22785701
239	0x3d4a9238	0.04945585
240	0x3d9f2d70	0.077723384
241	0x3eaeabf9	0.3411558
242	0xbe01edd7	-0.12688385
243	0xbdfe0f07	-0.1240521
244	0x3ea9bb90	0.3315091
245	0xbe9a0688	-0.30083108
246	0x3eee544f	0.46548697
247	0xbe729c59	-0.23692454
248	0xbc934de7	-0.017981483
249	0xbd05628f	-0.032564696
250	0xbe4b2449	-0.1983806
251	0x3bc72cc1	0.006078333
252	0x3eb78129	0.3584073
253	0xbcef94cd	-0.029245758
254	0xbe4fa814	-0.2027896
255	0xbe796411	-0.24354579

bias f4 [64]
0	0xbd50183f	-0.050804373
1	0xbdd47b5e	-0.10375093
2	0x3e13502f	0.14386056
3	0x3dd3780d	0.10325632
4	0xbe3b6a2a	-0.18302217
5	0x3c858332	0.01629791
6	0x3e67df19	0.22643699
7	0xbd27ced9	-0.04096875
8	0x3e0b1821	0.13583423
9	0xbddcff51	-0.10790885
10	0x3e2891fe	0.16461942
11	0xbe831018	-0.25598216
12	0xbe6b1fa1	-0.22961284
13	0xbe264a89	-0.1623937
14	0x3ec6a4a3	0.38797483
15	0xbdc80e99	-0.09768409
16	0xbd92016e	-0.07129179
17	0xbe4382d3	-0.19092874
18	0x3ea96f27	0.33092615
19	0x3eb81141	0.35950664
20	0xbe9496ba	-0.29021245
21	0xbe9876d5	-0.29778162
22	0xbe84a3e4	-0.2590629
23	0x3d952168	0.07281762
24	0xbdc84767	-0.09779244
25	0xbe4ad0a3	-0.19806151
26	0xbe0f7d02	-0.1401253
27	0x3dbfe96c	0.093706936
28	0xbe3de95a	-0.18546048
29	0x3d2b8903	0.04187871
30	0xbe127e10	-0.14305902
31	0xbe48f94d	-0.1962635
32	0x3b5f82b6	0.003410501
33	0x3e9a25bb	0.3010691
34	0xbe91869f	-0.2842302
35	0xbca83c99	-0.020536708
36	0xbe2de469	-0.16981663
37	0x3e9d14d7	0.30679962
38	0xbeb8e6bb	-0.36113533
39	0xbeb9243a	-0.3616045
40	0x3eb8ea44	0.3611623
41	0xbe6d0021	-0.2314458
42	0x3d8b8711	0.06812871
43	0x3dac9cef	0.0842837
44	0xbd8a11db	-0.06741687
45	0xbc8fcea8	-0.017554596
46	0x3e808414	0.25100768
47	0x3d06cf13	0.032912325
48	0xbe939d9f	-0.28831193
49	0xbea6d6f0	-0.3258586
50	0xbdf033a7	-0.11728602
51	0x3e2133e5	0.15742452
52	0xbe7f410d	-0.24927159
53	0x3eb1d361	0.34731582
54	0xbdfa8cd9	-0.12233896
55	0x3ae124c1	0.0017177091
56	0x3e9347b6	0.2876565
57	0x3e3b718d	0.18305035
58	0x3eb89410	0.36050463
59	0x3e7a7db9	0.24462022
60	0xbe3dee81	-0.18548013
61	0xbe88fbaa	-0.26754504
62	0x3cbad6ca	0.022807498
63	0x3e92186e	0.28534263

weight f4 [64, 64]
0	0xbcd9f1aa	-0.026604492
1	0xbe23a2dc	-0.15980095
2	0x3e0b48a6	0.13601932
3	0x3e0886b7	0.1333264
4	0xbda1248a	-0.078682974
5	0xbe2e566e	-0.17025158
6	0xbdc1a209	-0.09454734
7	0xbb7d4a97	-0.0038649195
8	0x3d05a97f	0.032632347
9	0xbd16cb20	-0.03681481
10	0x3d844dec	0.06460175
11	0x3dd483b9	0.103766866
12	0x3df60670	0.120129466
13	0x3dd48197	0.1037628
14	0x3d2c6eb1	0.04209775
15	0xbdfd9f3d	-0.12383888
16	0xbe13377c	-0.14376634
17	0x3e1ea5f9	0.15493001
18	0xbc9d0d8e	-0.019171502
19	0x3d4bc49e	0.049748056
20	0xbe19bfdd	-0.15014596
21	0x3e087c30	0.13328624
22	0x3e00aafa	0.12565222
23	0x3e0babcb	0.13639753
24	0xbdab3fe9	-0.08361799
25	0xbd12e5fe	-0.03586387
26	0xbdd798df	-0.10527205
27	0x3e246612	0.16054562
28	0xbe02daa9	-0.12778725
29	0xbd20b344	-0.03923346
30	0x3d9df121	0.07712007
31	0xbd8465fa	-0.06464763
32	0xbd9d5d37	-0.07683795
33	0xbbbf7a44	-0.0058434326
34	0xbcd8229e	-0.026383694
35	0xbdf9f096	-0.12204091
36	0x3e1ba5af	0.15199922
37	0xbdcbc1bf	-0.099490635
38	0x3bc71555	0.006075541
39	0x3d803c41	0.062614925
40	0x3d5e4748	0.054267198
41	0xbd2663d0	-0.040622532
42	0x3e0cd468	0.13752902
43	0x3dad3f03	0.08459284
44	0xbcf48f5f	-0.02985352
45	0x3dc1d4e9	0.094644375
46	0xbc7b29fa	-0.015329832
47	0xbe4048e2	-0.18777803
48	0xbcce740f	-0.025201825
49	0xbe3cba89	-0.18430533
50	0x3e38185a	0.1797804
51	0x3d0e7190	0.03477627
52	0xbe539d16	-0.20665392
53	0xbd089986	-0.033349536
54	0x3d649fed	0.05581658
55	0x3cb21c33	0.021741962
56	0x3c5b3684	0.013379697
57	0x3dbd161a	0.09232731
58	0x3e0c92d6	0.13727888
59	0xbd87432b	-0.06604608
60	0xbdda7a0e	-0.10667811
61	0xbe52effe	-0.20599362
62	0xbce01700	-0.027354717
63	0x3cdb6c7e	0.026785132
64	0xbe05d237	-0.13068472
65	0xbcab1950	-0.020886093
66	0xbca58b85	-0.02020813
67	0xbd2ce407	-0.04220965
68	0xbd46db23	-0.04854883
69	0x3ddaa543	0.106760524
70	0xbd76230b	-0.060092013
71	0x3db04200	0.086063385
72	0xbdb1b2b3	-0.08676662
73	0xbd0aee0c	-0.033918425
74	0x3d5ce0cd	0.053925324
75	0x3d2cf6f4	0.0422277
76	0x3d94e87a	0.07270904
77	0xbd76e7d1	-0.06027967
78	0xbdfdeaeb	-0.12398323
79	0xbdb771e4	-0.0895727
80	0xbbc92b94	-0.006139228
81	0x3ded2739	0.11579747
82	0xbd48f6dc	-0.04906355
83	0x3d4ed066	0.050491713
84	0xbc379c63	-0.011206719
85	0xbc768acd	-0.015047741
86	0x3ddc6cff	0.10762977
87	0xbdec3caa	-0.11535008
88	0x3cb69e20	0.022292197
89	0x3ddb45ac	0.10706648
90	0xbd969c6b	-0.07354053
91	0x3df912d7	0.121617965
92	0xbd68915f	-0.05677926
93	0x3dcfe790	0.10151589
94	0xbe507311	-0.20356394
95	0xbcf959c2	-0.030438308
96	0xbd2891dd	-0.04115473
97	0x3cf44c16	0.029821437
98	0x3d9b36eb	0.07578834
99	0x3db0a7a4	0.08625725
100	0xbd306663	-0.043066394
101	0x3c524088	0.012832768
102	0x3e3e9fba	0.18615618
103	0x3cc0c9cb	0.023533722
104	0x3da28e99	0.079373546
105	0xbdab7407	-0.0837174
106	0xbd4c55ff	-0.0498867
107	0xbdb735b2	-0.089457884
108	0x3d8b551a	0.06803341
109	0x3e5b703e	0.21429536
110	0x3cd32456	0.025774162
111	0xbdca852d	-0.098886825
112	0x3d45620a	0.0481892
113	0x3d84fba6	0.06493311
114	0x3d47fc5e	0.04882466
115	0xbe044181	-0.12915613
116	0x3e0c557e	0.13704488
117	0x3dcabcb2	0.09899272
118	0xbba83897	-0.005133699
119	0x3b1aa9e7	0.0023599805
120	0x3e36d944	0.17856318
121	0xbe54881c	-0.20755047
122	0xbd47ea72	-0.04880757
123	0x3d2f9253	0.042864155
124	0xbcadfe9e	-0.021239575
125	0xbc4b024b	-0.012390683
126	0xbe0f7948	-0.14011109
127	0x3cf47a7d	0.029843563
128	0x3d78de81	0.06075907
129	0x3d59f40b	0.053211253
130	0x3dde6895	0.10859791
131	0x3e1d28d1	0.15347601
132	0xbdf54586	-0.11976151
133	0x3cf334c5	0.029688248
134	0xbd9bcad7	-0.07607048
135	0xbd53021c	-0.051515684
136	0xbe0539a5	-0.13010271
137	0xbdecbdc6	-0.11559634
138	0x3e03e7d5	0.12881406
139	0xbe11ce4e	-0.14238855
140	0x3d86a259	0.06573934
141	0x3b775e38	0.0037745368
142	0x3de0d51c	0.109781474
143	0x3e0cab69	0.13737263
144	0x3d523ecf	0.05132943
145	0xbdfcbc02	-0.12340547
146	0xbde7559e	-0.11295627
147	0xbdd92822	-0.10603358
148	0xbda7008c	-0.08154401
149	0x3ce1bcd0	0.027555853
150	0x3da85e6b	0.08221134
151	0xbd183e1f	-0.03716862
152	0x3d97524c	0.07388744
153	0x3c2ee839	0.010675483
154	0x3d0b79c4	0.03405167
155	0x3d8982a9	0.067143746
156	0xbbe89d89	-0.007098858
157	0x3c9e7160	0.01934117
158	0xbca25aa4	-0.019818611
159	0x3de0e748	0.109816134
160	0xbb1d6190	-0.002401445
161	0xbdb272aa	-0.08713277
162	0x3b04677c	0.0020203283
163	0xbdb7969c	-0.08964273
164	0xbdac0dbf	-0.08401059
165	0x3c378087	0.011200077
166	0x3cab4a08	0.020909324
167	0xbdb7560d	-0.0895196
168	0x3dafe7e8	0.085891545
169	0x3dbe3738	0.09287876
170	0x3e14bcfc	0.14525217
171	0x3cc0980b	0.02351
172	0x3b930769	0.0044869673
173	0xbe37c398	-0.17945707
174	0xbe1e8b7c	-0.15482897
175	0x3d5928c5	0.053017396
176	0x3e08294e	0.13297006
177	0x3da63fcd	0.08117638
178	0x3d35b095	0.044357855
179	0x3dcf7da6	0.101313874
180	0xbdda8d13	-0.10671439
181	0x3df49d86	0.11944108
182	0xbd900cd1	-0.070336945
183	0xbe58399a	-0.21115723
184	0xbd983caa	-0.07433446
185	0x3e26965d	0.16268297
186	0xbc93c4a5	-0.018038103
187	0x3df086d7	0.11744469
188	0x38080eb8	3.2438635e-05
189	0xbdc00570	-0.09376037
190	0x3c42f73e	0.011899767
191	0x3dfc41a1	0.12317205
192	0xbe32475b	-0.17410032
193	0x3c695dd1	0.014243559
194	0xbd22bb02	-0.039729126
195	0xbe07ede3	-0.1327434
196	0x3db38bc2	0.08766891
197	0x3e040a7b	0.12894623
198	0x3d9ddb1d	0.07707808
199	0xbd2c946b	-0.04213373
200	0x3dd5592e	0.104174
201	0xbdc368de	-0.09541486
202	0x3dc5a3cb	0.09650382
203	0xbe28a975	-0.16470893
204	0xbdfc0f34	-0.12307587
205	0x3d769b15	0.06020649
206	0xbd24287c	-0.04007767
207	0x3d156eb7	0.03648254
208	0xbd9033c3	-0.07041123
209	0xbdf1eb87	-0.118125014
210	0x3dd49dfb	0.10381695
211	0xbdd27ada	-0.10277338
212	0x3ce528a2	0.027973477
213	0x3b36a6a1	0.0027870315
214	0xbd2582c4	-0.04040791
215	0xbc014526	-0.007890021
216	0x3dceb1cb	0.10092505
217	0x3c496838	0.012292914
218	0xbd4ef2bd	-0.050524462
219	0xbdb286e5	-0.08717135
220	0xbccabe54	-0.024748959
221	0xbdd9b4d0	-0.1063019
222	0xbd294f9e	-0.041335694
223	0xbc8df775	-0.01732991
224	0x3d851e98	0.06499976
225	0xbd3aa4ba	-0.04556725
226	0x3dda25a5	0.106517114
227	0xbd46a844	-0.048500314
228	0xbd3b7d0c	-0.04577355
229	0x3e26a99f	0.16275643
230	0x3e13b571	0.14424683
231	0xbd966554	-0.073435456
232	0x3cf2e006	0.029647838
233	0x3da42c8f	0.080163114
234	0xbdbfba82	-0.093617454
235	0xbdd9ec94	-0.10640827
236	0x3cb7a011	0.022415193
237	0xbd8f30f6	-0.069917604
238	0x3e031a2d	0.12802954
239	0x3dba2bdf	0.09090399
240	0xbd0f299d	-0.034951795
241	0x3e1761b2	0.14783362
242	0xbe07aeb0	-0.13250232
243	0x3c37e4b3	0.01122396
244	0x3e3ad2ee	0.18244526
245	0xbc746c7d	-0.014918444
246	0x3da9e016	0.08294694
247	0xbd3352ce	-0.04378014
248	0x3cc0522f	0.023476688
249	0xbd521451	-0.051288906
250	0xbdae5d25	-0.0851386
251	0x3a3b115f	0.00071360724
252	0x3d345218	0.044023603
253	0x3d72d406	0.059284233
254	0xbb13c06c	-0.0022545112
255	0x3bf875c6	0.007582399

bias f4 [64]
0	0x3d389441	0.04506326
1	0xbe21d0a4	-0.15802246
2	0xbd421043	-0.04737879
3	0x3db213fe	0.086952195
4	0xbc978a52	-0.018498573
5	0x3c9821f0	0.01857087
6	0xbce586c1	-0.028018357
7	0xbd162dcc	-0.03666477
8	0x3db5ee5a	0.088833526
9	0xbe0a0edc	-0.13482231
10	0xbd6eda71	-0.05831379
11	0xbdf222c7	-0.118230395
12	0xbdbce368	-0.09223062
13	0xbcf58cd8	-0.029974386
14	0x3d18fc1c	0.037349805
15	0x3df78e90	0.120877385
16	0xbcb26775	-0.021777848
17	0xba8af39b	-0.0010601165
18	0x3cf9685f	0.030445276
19	0x3cc2e315	0.023789922
20	0xbd06de79	-0.03292701
21	0xbbf9a8d2	-0.007619002
22	0x3b9add69	0.004726101
23	0xbe0152a2	-0.12629178
24	0xbd8c6a24	-0.06856182
25	0xbe0a6e1d	-0.13518567
26	0xbd8c407b	-0.06848236
27	0xbd1b8102	-0.03796483
28	0x3d88fd70	0.06688964
29	0xbdef0209	-0.1167031
30	0x3da81955	0.08207957
31	0x3d89e03c	0.067322224
32	0xbddc52d5	-0.107579865
33	0x3d6134a5	0.054981846
34	0xbdb3c4e2	-0.08777787
35	0xbd9563e9	-0.07294447
36	0xbcf29ec3	-0.02961672
37	0x3c9f712a	0.01946314
38	0xbdba48c6	-0.09095912
39	0x3cb220fa	0.02174424
40	0x3c57eca3	0.013178977
41	0xbdcb2ddb	-0.099208556
42	0xbd357716	-0.044303022
43	0xbc2076d4	-0.009793956
44	0xbdf9c6d7	-0.12196129
45	0x3e0b4bc3	0.1360312
46	0xbd9d3d61	-0.07677723
47	0xbc952635	-0.018206695
48	0x3d2ca14a	0.042146005
49	0xbddf0e68	-0.1089142
50	0x3d4a4a99	0.049387548
51	0xbdd48b2f	-0.1037811
52	0x3e41f09b	0.1893944
53	0x3d9d2fd4	0.07675138
54	0xbd3c8387	-0.04602387
55	0xbe0ff344	-0.14057642
56	0x3cc952e4	0.024575658
57	0x3da25325	0.07926015
58	0xbde48134	-0.11157456
59	0xbce3a487	-0.027788414
60	0xbded4549	-0.11585481
61	0xbdd71429	-0.10501892
62	0xbcc9ba2a	-0.024624903
63	0x3e363ffe	0.17797849

weight f4 [2, 64]
0	0x3dd333c2	0.103126064
1	0x3e5e6713	0.21719007
2	0xbe4b4a69	-0.19852604
3	0x388b29ef	6.635847e-05
4	0xbb260538	-0.00253327
5	0xbd207e33	-0.039182853
6	0x3ebca68d	0.36845818
7	0x3ea740d1	0.32666638
8	0xbe43834b	-0.19093053
9	0x3e49e7a7	0.19717275
10	0xbd2d643b	-0.042331915
11	0xbccef7d1	-0.025264652
12	0x3da8faad	0.082509376
13	0xbd9148d5	-0.0709397
14	0xbe59deac	-0.21276349
15	0xbe8c58c7	-0.27411482
16	0x3e8edf99	0.27904966
17	0xbdda842a	-0.106697395
18	0x3c9061db	0.017624786
19	0x3ead3c04	0.3383485
20	0xbe3d649d	-0.18495412
21	0x3c908762	0.01764268
22	0x3e1e6261	0.15467216
23	0x3c1d9992	0.009619134
24	0x3d6a615f	0.057221767
25	0x3ea98feb	0.33117613
26	0x3e6d1f93	0.23156576
27	0xbe2b85b4	-0.16750222
28	0xbdc01f93	-0.09381022
29	0xbe471589	-0.19441809
30	0x3e4e581b	0.20150797
31	0x3e219019	0.15777625
32	0xbcea1abb	-0.0285772
33	0x3e319a29	0.17343964
34	0x3e2d7db6	0.16942486
35	0xbddace80	-0.10683918
36	0x3d6337aa	0.055473007
37	0x3e9a82ec	0.3017801
38	0x3c64809f	0.013946681
39	0x3cc67c75	0.024229268
40	0x3df7af5b	0.12093993
41	0x3e312dc4	0.17302614
42	0x3e17347d	0.14766116
43	0xbdb98b00	-0.09059715
44	0xbc0cc9a5	-0.008592998
45	0xbe0ace1b	-0.13555185
46	0xbb4a2d65	-0.003084981
47	0xbd330231	-0.04370326
48	0xbde8ba5b	-0.113636695
49	0x3e2573a8	0.161574
50	0x3e13aa5e	0.14420459
51	0x3d21939f	0.039447423
52	0x3e00fa6b	0.12595527
53	0xbe2b297d	-0.16715045
54	0x3e0bc815	0.13650544
55	0x3e4433e4	0.1916042
56	0xbe7c6cf4	-0.24650937
57	0xbdd1d224	-0.10245159
58	0x3dd87cfb	0.10570713
59	0xbc6a811a	-0.014313007
60	0xbdee6006	-0.11639409
61	0x3da76e78	0.08175367
62	0x3dd005b6	0.10157339
63	0xbe9d6499	-0.30740812
64	0x3ea4d44a	0.32193214
65	0xbda3eb8b	-0.08003911
66	0x3cc17e89	0.023619907
67	0xbe5b9b9b	-0.21446078
68	0xbec39e1c	-0.38206565
69	0xbe8ba6f9	-0.27275828
70	0x3ddb2b95	0.10701672
71	0xbe3b65ee	-0.18300602
72	0x3e9b2e53	0.3030878
73	0xbe8c86f5	-0.27446714
74	0xbe84db8a	-0.25948745
75	0xbe1847d1	-0.14871146
76	0x3e8e0728	0.27739835
77	0xbe0cc20f	-0.13745902
78	0x3dea5f18	0.11443919
79	0x3ed86153	0.42261752
80	0x3da0f226	0.07858686
81	0x3e2ff77a	0.17184249
82	0x3e412067	0.18860017
83	0xbdf51969	-0.11967737
84	0xbdc064d4	-0.093942314
85	0x3e5e31b7	0.21698652
86	0x3e7266f3	0.23672085
87	0xbe3ea91e	-0.186192
88	0xbe470431	-0.19435193
89	0x3df40e1b	0.11916753
90	0x3e84f856	0.25970715
91	0xbc44b1ad	-0.012005252
92	0xbe93cf09	-0.28868893
93	0xbe8a8aea	-0.27059108
94	0xbd743ec5	-0.059630174
95	0x3e2e5493	0.1702445
96	0xbeb51c05	-0.3537294
97	0xbdaf3224	-0.085544854
98	0xbdb448a5	-0.08802918
99	0x3e824a43	0.25447282
100	0xbe846e46	-0.25865382
101	0xbe3b8de8	-0.18315852
102	0x3eb3e39f	0.351346
103	0x3e749fba	0.23889056
104	0xbe539dd2	-0.20665672
105	0xbdeb00a1	-0.11474729
106	0xbdd7ddb6	-0.10540335
107	0x3e94be45	0.29051414
108	0xbe7101e7	-0.23535882
109	0xbca66cab	-0.020315489
110	0x3e5bd135	0.21466525
111	0xbe203851	-0.15646483
112	0xbdedc075	-0.11608974
113	0xbdb8a33d	-0.0901551
114	0x3dfffd9c	0.12499544
115	0x3e4762f8	0.19471347
116	0x3e81aaf0	0.25325727
117	0x3eabf6d6	0.33586758
118	0x3c2e2f0a	0.010631332
119	0xbcaec567	-0.021334363
120	0xbdec7683	-0.11546042
121	0x3e704eb4	0.23467523
122	0xbe4d3fbc	-0.20043844
123	0xbe10e395	-0.14149316
124	0xbdffd105	-0.12491039
125	0x3d9746a8	0.073865235
126	0x3e0b17f8	0.13583362
127	0x3cd4aeb7	0.025962217

bias f4 [2]
0	0xbe1a836a	-0.15089193
1	0xbd769011	-0.060195986

weight f4 [64, 8]
0	0xbeb285ca	-0.34867698
1	0x3e39f665	0.18160398
2	0x3e93d324	0.28872025
3	0x3d18a8be	0.0372703
4	0xbe3ca0c5	-0.18420704
5	0x3eae73a4	0.34072602
6	0x3ec6ff8b	0.3886684
7	0x3e31a399	0.17347564
8	0x3e945adb	0.28975567
9	0x3e5f47e6	0.21804771
10	0x3e971ce0	0.29514217
11	0xbf737c81	-0.9511185
12	0x3faa4476	1.3302143
13	0x3d144662	0.036199935
14	0x3ef4b9f5	0.47798124
15	0xbd702fd3	-0.05863936
16	0xbe92dde2	-0.28684908
17	0x3e338495	0.17531045
18	0x3f22d8c3	0.63612
19	0xbf86a42f	-1.0518855
20	0x3f83b368	1.0289125
21	0xbde976cb	-0.11399611
22	0x3f38b7db	0.7215554
23	0x3f3562ae	0.708537
24	0xbf0634cc	-0.5242431
25	0xbed8edc4	-0.423689
26	0xbf91d124	-1.139195
27	0xbdec0bca	-0.11525686
28	0xbf6bc0f3	-0.9209129
29	0x3b8cc5d6	0.004296045
30	0xbe42fc70	-0.1904161
31	0xbdaf4088	-0.0855723
32	0xbe30f311	-0.17280222
33	0xbe9f2949	-0.31086186
34	0x3e2b5ab7	0.16733824
35	0xbed2324e	-0.41054004
36	0xbefa36bc	-0.48869884
37	0xbe59048d	-0.21193142
38	0xbed85a6d	-0.4225649
39	0xbeeefc2e	-0.46676773
40	0xbea7c494	-0.32767165
41	0x3e96b0d9	0.294318
42	0x3e1be84f	0.15225337
43	0xbd468c7b	-0.048473816
44	0xbde2eaa3	-0.1107991
45	0xbe3e721c	-0.18598217
46	0xbe1dcf64	-0.15411144
47	0xbdbb279f	-0.091384165
48	0xbef748d4	-0.4829775
49	0xbebf2b3c	-0.37337673
50	0xbeba6df1	-0.36412004
51	0xbf7516b0	-0.95737743
52	0xbca826c5	-0.0205263
53	0x3da11962	0.078661695
54	0x3cbf45eb	0.02334877
55	0xbe15e84b	-0.14639394
56	0x3f110d7e	0.5666121
57	0x3de4fead	0.11181388
58	0xbdbe52af	-0.092931144
59	0xbf6dd428	-0.9290185
60	0x3f0679a6	0.5252937
61	0xbf0aa5c3	-0.5415918
62	0x3e8ba677	0.2727544
63	0x3f01e230	0.5073576
64	0x3e078145	0.13232906
65	0xbf0a6df2	-0.54074013
66	0x3da553e8	0.080726445
67	0x3e0add4e	0.13560984
68	0x3e8bf82f	0.27337787
69	0xbe88bfef	-0.26708934
70	0x3e8ae1d8	0.2712543
71	0x3e810c7a	0.2520483
72	0xbe2a463f	-0.1662836
73	0xbc88f6f2	-0.016719315
74	0xbef57ffb	-0.47949204
75	0xbe24408f	-0.16040252
76	0xbf6a6f4f	-0.91576093
77	0x3f0a6f27	0.54075855
78	0xbee1c863	-0.44098195
79	0x3eba1461	0.36343673
80	0x3ea9c04f	0.33154532
81	0xbea7c388	-0.32766366
82	0xbe2d48d8	-0.16922319
83	0xbe20c7a7	-0.15701161
84	0x3eb9f136	0.36316842
85	0xbd4f87a9	-0.050666485
86	0xbdf02e91	-0.11727632
87	0x3cea6e9e	0.0286172
88	0xbddc206a	-0.1074837
89	0xbf328cb4	-0.69745946
90	0xc01e6e69	-2.475489
91	0xbe09608b	-0.13415734
92	0xbdd24de0	-0.1026876
93	0x3e2b8ff0	0.16754127
94	0xbf27448c	-0.6533897
95	0xbf895c79	-1.0731345
96	0xbedead2f	-0.43491504
97	0xbde3af0a	-0.111173704
98	0x3ecd60fe	0.40113062
99	0xbf40c1b9	-0.752956
100	0x3f490fc1	0.78539664
101	0xbebbb1bc	-0.36659038
102	0x3e9f76e1	0.31145385
103	0x3ea75485	0.3268167
104	0x3e406fd5	0.1879266
105	0xbec6c902	-0.38825232
106	0x3e83df5e	0.25756353
107	0xbf86d9dd	-1.0535237
108	0x3f4244f8	0.7588649
109	0xbc378c50	-0.011202887
110	0xbf81514e	-1.0102937
111	0x3e451055	0.19244511
112	0xbe9eba9a	-0.3100174
113	0x3d8d8e54	0.069119126
114	0x3f41c0b5	0.7568467
115	0xbed68afd	-0.41902915
116	0x3f4e450f	0.80574125
117	0xbf2276e0	-0.6346264
118	0x3f36ad5d	0.7135828
119	0x3f6baf31	0.92064196
120	0x3e04a057	0.1295179
121	0xbeb1efee	-0.34753364
122	0x3d123bb3	0.035701465
123	0xbda31be4	-0.07964304
124	0x3bcfe9a4	0.006344991
125	0xbc632661	-0.013864131
126	0x3e4a4bff	0.19755553
127	0x3e620bb2	0.22074774
128	0x3e75ca17	0.24002872
129	0xbe39bdf6	-0.1813887
130	0xbecae307	-0.39626333
131	0xbb835baa	-0.00400873
132	0xbe89885b	-0.26861843
133	0x3e2126ec	0.15737504
134	0xbe87217b	-0.2639273
135	0xbeae5e04	-0.34056103
136	0xbeb9a274	-0.36256754
137	0xbd5a87ab	-0.05335204
138	0xbf00390b	-0.5008704
139	0xbf00915d	-0.50221807
140	0x3bcd1312	0.006258377
141	0xbee74a3b	-0.4517382
142	0xbdaaf58b	-0.08347615
143	0x3efac334	0.48977053
144	0x3dc455e4	0.09586695
145	0x3eec4a5e	0.46150488
146	0xbd94314e	-0.072359666
147	0xbd5e7222	-0.054308064
148	0x3e212a5e	0.15738818
149	0xbe30a251	-0.17249419
150	0xbe9fbdca	-0.31199485
151	0xbe0b4c4d	-0.13603325
152	0x3e6faeea	0.23406568
153	0xbea68f1c	-0.3253106
154	0x3d16b2e3	0.036791693
155	0x3d9914d0	0.07474673
156	0x3dc9cf7a	0.09854026
157	0xbe4cab97	-0.19987331
158	0xbe00cfd2	-0.12579277
159	0xbc2761da	-0.010216201
160	0x3b9415e6	0.004519212
161	0xbd123029	-0.03569046
162	0x3ea77755	0.3270823
163	0xbf3d568a	-0.73960173
164	0xbeea3c3a	-0.45749074
165	0xbf644b98	-0.89177847
166	0xbea3eadc	-0.3201512
167	0x3e46e6c6	0.1942397
168	0xbeded359	-0.4352062
169	0xbe354ad8	-0.17704332
170	0x3dfb912c	0.12283549
171	0xbe569020	-0.20953417
172	0x3e840880	0.25787735
173	0x3d952836	0.0728306
174	0xbce6d3bb	-0.028177133
175	0xbee2a79d	-0.44268504
176	0x3ecbefeb	0.3983148
177	0x3d5b969e	0.053610437
178	0x3e1af7ce	0.15133592
179	0xbfaf284b	-1.3684171
180	0x3f766aa4	0.9625647
181	0x3d86c10f	0.06579792
182	0xbf4e0c9a	-0.8048798
183	0xbe524e80	-0.20537758
184	0xbe8d5b2a	-0.27608615
185	0x3e8c6833	0.27423248
186	0xbe1441b8	-0.14478195
187	0xbf0d62d1	-0.55228907
188	0x3f3ff0f5	0.74977046
189	0x3e546f88	0.20745671
190	0x3efef788	0.49798226
191	0xbd940e99	-0.07229347
192	0x3ecf1f2f	0.4045348
193	0x3f3a1f41	0.7270394
194	0x3f880458	1.0626326
195	0x3ebf5443	0.37368974
196	0x3f57cd8e	0.84298027
197	0xbedc9904	-0.43085492
198	0x3f332e58	0.6999259
199	0x3f5d851d	0.8653124
200	0x3ee4bc89	0.4467509
201	0xbd2ac3e4	-0.041690722
202	0xbd68f7d8	-0.056876987
203	0xbe9b7dd0	-0.30369425
204	0xbe91b6ec	-0.2845987
205	0x3ea05813	0.31317195
206	0x3e235b2e	0.15952751
207	0x3e27469c	0.16335529
208	0xbf0e0892	-0.5548183
209	0xbe16a040	-0.14709568
210	0x3e620474	0.22072011
211	0x3ef3678f	0.47539946
212	0x3f19c1b1	0.60061175
213	0x3e99278a	0.29912978
214	0x3d159d83	0.036527168
215	0x3d3eb8f4	0.046563104
216	0x3ca83993	0.020535266
217	0xbe8345b6	-0.25639123
218	0x3e33d570	0.17561889
219	0xbfac4f0a	-1.3461621
220	0x3e421606	0.18953714
221	0xbeec5f05	-0.46166244
222	0xbd5205a8	-0.051274925
223	0xbc9847a5	-0.01858885
224	0x3e86ee73	0.26353797
225	0xbc00fea8	-0.007873215
226	0x3f0880fc	0.53321815
227	0x3f9510c0	1.1645737
228	0x3f95dbc7	1.1707696
229	0x3d77bd3f	0.060483214
230	0x3f39ebd9	0.726255
231	0xbe4458fd	-0.19174571
232	0x3d345792	0.044028826
233	0x3f2e9b72	0.6820594
234	0x3e6c18a7	0.23056279
235	0xbf97b24a	-1.1851285
236	0x3eff44ce	0.4985718
237	0xbe6b767f	-0.22994421
238	0x3f07fd06	0.5312046
239	0x3f4b8845	0.79504806
240	0x3e314256	0.17310461
241	0xbed325da	-0.41239816
242	0xbe4df232	-0.20111921
243	0x3e91dcf6	0.28488892
244	0x3e679704	0.22616202
245	0xbeaae5ea	-0.33378536
246	0xbd75a048	-0.05996731
247	0x3d412e22	0.047163136
248	0x3e81d385	0.2535669
249	0xbf06cb5f	-0.5265407
250	0xbea98743	-0.3311101
251	0x3ea105d4	0.3144976
252	0x3d8a5b8d	0.06755743
253	0xbec20336	-0.37893075
254	0xbcbb0879	-0.022831189
255	0x3d94d712	0.07267584

bias f4 [64]
0	0x3e4631ab	0.19354884
1	0xbeef29da	-0.46711618
2	0xbeb6e205	-0.35719314
3	0x3e36d70d	0.17855473
4	0xbeceab33	-0.4036499
5	0x3e66eb7f	0.22550772
6	0xbc78763b	-0.015164907
7	0xbdf32a36	-0.118732855
8	0x3e54031e	0.20704314
9	0x3eca8dde	0.3956136
10	0xbe7525f4	-0.23940259
11	0x3ed1f3dd	0.41006365
12	0xbdb276e5	-0.087140836
13	0xbe9a0593	-0.30082378
14	0xbd2088c7	-0.03919294
15	0xbef34cf3	-0.47519645
16	0x3d72f307	0.0593138
17	0x3e31649d	0.17323537
18	0x3e5525b9	0.20815171
19	0xbe3404dc	-0.17579979
20	0xbed6383e	-0.41839784
21	0xbed1c454	-0.409701
22	0xbe91560e	-0.28385967
23	0xbe27a997	-0.16373287
24	0xbeb7cadb	-0.35896954
25	0x3f02e6e7	0.5113358
26	0xbef73234	-0.4828049
27	0xbe12df29	-0.14342941
28	0xbe58f04f	-0.2118542
29	0xbe5d06fd	-0.21584697
30	0xbd7e2aae	-0.06205242
31	0x3df1b54d	0.118021585
32	0x3ea158a0	0.31512928
33	0xbbff141b	-0.007784379
34	0x3ee45567	0.44596407
35	0xbe63e42c	-0.2225501
36	0x3e97027a	0.29494077
37	0x3eb8f84d	0.36126938
38	0xbef49e35	-0.47776952
39	0x3d71b1d2	0.059007473
40	0xbf1df3be	-0.61700046
41	0x3e67c321	0.2263303
42	0xbde5d058	-0.11221379
43	0xbede7bfc	-0.43453968
44	0x3f177bce	0.59173286
45	0xbdc7e4a9	-0.0976041
46	0xbe402241	-0.18763067
47	0xbdf26ec7	-0.11837535
48	0x3ed5b1f2	0.41737324
49	0x3e905cd4	0.28195822
50	0x3e9add22	0.30246836
51	0xbf29eb19	-0.66374356
52	0x3ec5ba28	0.38618588
53	0xbf3074ee	-0.6892842
54	0xbb07a725	-0.002069899
55	0xbf18a943	-0.5963327
56	0x3e71ed40	0.2362566
57	0x3ef50e67	0.4786255
58	0x3e8207ad	0.2539648
59	0x3e81760b	0.25285372
60	0x3d691935	0.056908805
61	0xbec83a45	-0.39106956
62	0xbe602613	-0.21889524
63	0xbe0fe056	-0.14050421

weight f4 [64, 64]
0	0xbd4fc441	-0.05072427
1	0xbeded210	-0.4351964
2	0xbe7f9b57	-0.24961601
3	0xbe432dbb	-0.19060414
4	0xbddd77fb	-0.108139
5	0xbd944dfb	-0.07241436
6	0x3ea5c763	0.32378682
7	0xbe8fe4f3	-0.28104362
8	0x3f1f1d42	0.6215402
9	0xbc6387e8	-0.013887383
10	0x3e2c1ab9	0.16807069
11	0x3e981ac2	0.29707915
12	0x3e4a3f05	0.19750603
13	0x3e81bf3d	0.25341216
14	0xbc29221e	-0.010323076
15	0x3e483d6f	0.19554685
16	0x3d8f2af5	0.06990615
17	0x3ed4c2ac	0.41554773
18	0xbeb944e4	-0.36185372
19	0x3dadc678	0.084851205
20	0xbe801890	-0.2501874
21	0xbd94094c	-0.07228336
22	0xbd99909f	-0.074982874
23	0xbe442851	-0.19156004
24	0xbe8ae311	-0.27126363
25	0xbdeada56	-0.114674255
26	0x3e65b73c	0.2243318
27	0x3e93f52e	0.28897995
28	0xbc3dbbb3	-0.0115803955
29	0xbe3c457c	-0.18385881
30	0x3e89975b	0.26873288
31	0x3ec68469	0.38772896
32	0xbf01268e	-0.50449455
33	0xbcbae4fe	-0.02281427
34	0x3d74a9b9	0.059732173
35	0x3f103e27	0.56344837
36	0xbe9f095f	-0.31061837
37	0x3d5cd8b5	0.053917605
38	0xbe475f5e	-0.19469973
39	0x3c1e572d	0.009664339
40	0xbe3504fd	-0.17677684
41	0x3e7a705d	0.24456926
42	0xbec78c59	-0.38974264
43	0xbe046ea4	-0.12932831
44	0x3e4dffed	0.20117159
45	0x3e97508e	0.29553646
46	0xbed54813	-0.4165655
47	0xbe03de00	-0.12877655
48	0x3bf84e87	0.0075777206
49	0xbe6c3e5e	-0.23070666
50	0x3f1d7d12	0.6151897
51	0xbf3cc704	-0.73741174
52	0x3f7bc3b1	0.98345476
53	0x3eb80eab	0.3594869
54	0xbd869f10	-0.065733075
55	0x3e9dbd7d	0.3080863
56	0xbd9d826c	-0.076908916
57	0x3d1948bd	0.037422884
58	0xbc1760f0	-0.00923942
59	0x3ef08413	0.46975765
60	0xbd45eba1	-0.048320416
61	0x3e281ab8	0.16416442
62	0x3e7a676e	0.24453518
63	0x3e760899	0.24026717
64	0x3de76ddc	0.11300251
65	0x3ecb5b46	0.39718074
66	0x3cb39a17	0.021924062
67	0xba81da6e	-0.0009907016
68	0xbf4ec48f	-0.80768675
69	0x3d6b583e	0.0574572
70	0xbf4b5234	-0.79422307
71	0xbd7c9098	-0.061661333
72	0x3cfaf866	0.030636024
73	0x3d1acd64	0.037793532
74	0xbd23b4a2	-0.039967187
75	0xbe9ee664	-0.3103515
76	0xbea2fe27	-0.31834528
77	0x3e2094a4	0.15681702
78	0xbdc9aa5d	-0.09846947
79	0x3edfd555	0.43717447
80	0xbe6bdfc5	-0.2303458
81	0xbf001e67	-0.5004639
82	0xbea7d9d8	-0.3278339
83	0x3d9ff498	0.078103244
84	0xbd38d0a4	-0.04512085
85	0xbf31b5e9	-0.694182
86	0xbd0d6d3d	-0.034528006
87	0x3d911119	0.07083339
88	0xbd28b72d	-0.041190315
89	0x3e810905	0.25202194
90	0xbefc6a41	-0.49299815
91	0xbdc505b9	-0.09620232
92	0xbe92d5f3	-0.28678855
93	0xbe35a3ef	-0.17738317
94	0xbe1a49b7	-0.15067182
95	0xbd77965b	-0.060446125
96	0x3e8387da	0.25689584
97	0x3de6838d	0.1125556
98	0x3e6e3473	0.23262195
99	0xbd51a60c	-0.051183745
100	0x3f63646f	0.88825125
101	0x3d3aabc7	0.045573976
102	0x3dce1b03	0.10063746
103	0xbf165f26	-0.58738935
104	0x3ea04a17	0.31306526
105	0xbe605c97	-0.2191032
106	0x3f249159	0.6428428
107	0xbb1242b4	-0.002231759
108	0xbe0178cc	-0.12643737
109	0xbdff3570	-0.12461364
110	0x3e4712e9	0.19440807
111	0xbd14c87d	-0.036324013
112	0xbef8f618	-0.48625255
113	0x3dcaeabf	0.099080555
114	0xbe63f7b0	-0.22262454
115	0x3ec36156	0.381602
116	0xbf336e84	-0.7009051
117	0xbda41509	-0.08011825
118	0x3e08fe1e	0.13378188
119	0xbea82ce0	-0.32846737
120	0x3e14acd6	0.14519057
121	0xbdf62d8b	-0.120204054
122	0xbe0e383d	-0.1388864
123	0xbe2f123f	-0.17096804
124	0xbc68329c	-0.014172222
125	0x3e827a1d	0.2548379
126	0x3e6f0745	0.23342617
127	0x3f494f1e	0.7863635
128	0xbe4c4db3	-0.19951515
129	0x3fa16967	1.2610291
130	0x3deb55db	0.11490985
131	0xbf52a700	-0.8228607
132	0x3eb128e1	0.346015
133	0xbe33f9c6	-0.1757575
134	0x3efae9b2	0.4900642
135	0x3e495ede	0.19665095
136	0x3e9cc77f	0.30620953
137	0xbf1d92d2	-0.61552155
138	0x3eba686c	0.36407793
139	0xbed273da	-0.41104013
140	0x3cf883fb	0.03033637
141	0x3edb19c1	0.42793086
142	0x3d9ee4eb	0.077585064
143	0x3eef5040	0.46740913
144	0x3e81a387	0.25320074
145	0x3afde392	0.0019370189
146	0xbf252c75	-0.6452096
147	0x3e155198	0.14581907
148	0xbde55ce5	-0.11199359
149	0x3ebf033e	0.3730716
150	0x3f50a9de	0.81509197
151	0x3d168ff7	0.03675839
152	0x3f38e843	0.72229403
153	0xbecd0835	-0.40045324
154	0x3e97539c	0.29555976
155	0x3e87824c	0.26466596
156	0xbf4e6f3f	-0.806385
157	0x3ea9d62f	0.33171222
158	0x3e27fa98	0.16404188
159	0x3d119ed4	0.03555186
160	0xbf9602cd	-1.1719605
161	0xbf0002b4	-0.50004125
162	0xbe8e9e6a	-0.27855235
163	0x3e71988b	0.23593347
164	0xbeba97ab	-0.36443838
165	0xbe4e1abd	-0.20127387
166	0x3ce6a595	0.028155128
167	0xbf1886e9	-0.59580857
168	0x3e55016c	0.20801324
169	0x3da8c51d	0.082407214
170	0xbebdf0a4	-0.37097657
171	0x3f7a56ff	0.97788996
172	0x3f5e718f	0.86892027
173	0x3e02dab0	0.12778735
174	0xbf4c9d71	-0.79927737
175	0x3e0ed1b4	0.13947183
176	0xbeee7718	-0.46575236
177	0xbe425234	-0.1897667
178	0xbe013220	-0.12616777
179	0xbeadddb9	-0.33958223
180	0x3f122322	0.5708486
181	0x3f0ff649	0.56235176
182	0xbeb72429	-0.35769776
183	0x3eb6db84	0.35714352
184	0xbe361095	-0.17779763
185	0xbde1c1f5	-0.110233225
186	0xbea3e1b3	-0.32008132
187	0xbeb3ed8b	-0.35142168
188	0x3f142d38	0.578815
189	0x3f0787a2	0.52941334
190	0x3e9177a0	0.2841158
191	0xbf35604d	-0.7085007
192	0xbe53dd2b	-0.20689838
193	0x3f3193de	0.6936625
194	0xbeac3907	-0.33637258
195	0xbeff9e23	-0.49925336
196	0x3edff464	0.43741143
197	0xbe313dae	-0.17308685
198	0xbd604a27	-0.054758217
199	0x3eea2fa0	0.4573946
200	0x3da989b8	0.08278221
201	0xbee415cb	-0.44547877
202	0x3d3298cd	0.043602753
203	0x3ea35c62	0.3190642
204	0x3e3086e0	0.1723895
205	0x3f6e84c2	0.9317132
206	0xbeb54ab4	-0.35408556
207	0x3eddee24	0.4334575
208	0x3e510d4c	0.20415229
209	0xbc6f1a8a	-0.01459373
210	0x3dfab3a3	0.12241294
211	0x3e86169a	0.2618912
212	0x3f3013f9	0.68780476
213	0x3e52b31c	0.20576137
214	0x3faeaac3	1.3645862
215	0x3e075f5b	0.13219969
216	0xbd5b541c	-0.05354701
217	0xbea87c62	-0.32907397
218	0xbc854681	-0.01626897
219	0x3f0401bb	0.5156514
220	0xbe59cf7f	-0.2127056
221	0x3e81ab2d	0.2532591
222	0x3ddf79ad	0.1091188
223	0xbdcaed12	-0.09908499
224	0x3f70e772	0.9410316
225	0xbec686b3	-0.38774642
226	0xbdea5fd8	-0.11444062
227	0x3ec4269b	0.38310704
228	0xbe89e021	-0.2692881
229	0x3d6c8b0c	0.057749793
230	0x3e6a48a1	0.22879268
231	0xbeb26da6	-0.3484928
232	0x3e901755	0.281428
233	0xbe774d53	-0.2415059
234	0x3ca22ad4	0.019795813
235	0x3ed18a76	0.4092595
236	0xbeb49ee8	-0.35277486
237	0x3e39f75d	0.18160768
238	0xbe27be3c	-0.16381162
239	0x3edd3705	0.4320604
240	0xbf2a8ce6	-0.66621244
241	0xbe3a7525	-0.1820875
242	0x3e3abdfc	0.18236536
243	0x3e563b44	0.20921046
244	0xbe32823e	-0.17432496
245	0x3ed795f0	0.4210658
246	0xbf195e49	-0.5990949
247	0x3f032c65	0.51239616
248	0xbe1b2e91	-0.15154482
249	0xbe443969	-0.19162525
250	0xbeccbb84	-0.39986813
251	0xbef9211d	-0.48658076
252	0xbb9d909c	-0.0048084985
253	0x3f0f79c8	0.560452
254	0x3ef0939e	0.46987623
255	0xbe83f280	-0.2577095

bias f4 [64]
0	0xbd269b09	-0.040675197
1	0xbd31b755	-0.04338773
2	0xbef2e96d	-0.47443715
3	0xbe54099d	-0.20706792
4	0x3d85ce4d	0.065334894
5	0xbe6a952f	-0.22908472
6	0xbd32a2d0	-0.0436123
7	0x3de2ab50	0.110678315
8	0xbe3a3c96	-0.18187174
9	0xbee6cd11	-0.45078328
10	0x3e85b4bc	0.26114452
11	0x3e1c7fe1	0.15283157
12	0x3dd18ebd	0.10232303
13	0xbd67a7fa	-0.05655668
14	0xbf056978	-0.5211406
15	0xbe235a29	-0.15952362
16	0x3d837d91	0.06420434
17	0x3e4ff515	0.20308335
18	0xbe74cd75	-0.239065
19	0xbda06afa	-0.07832904
20	0xbe3efbd8	-0.18650758
21	0x3d04c75b	0.032416683
22	0xbcbea8a7	-0.02327378
23	0x3f10004e	0.56250465
24	0xbd0451d4	-0.0323046
25	0x3dead3f3	0.11466207
26	0x3e78d523	0.24300055
27	0x3d95fa93	0.07323184
28	0xbcc15b67	-0.023603154
29	0x3e723089	0.23651327
30	0x3df37001	0.118865974
31	0x3d3404f3	0.043950032
32	0x3e301328	0.17194808
33	0x3eb33700	0.350029
34	0xbde0fc4e	-0.10985623
35	0xbe892d47	-0.26792356
36	0xbdd2a520	-0.10285401
37	0xbd93594e	-0.07194768
38	0xbe6f00cf	-0.23340152
39	0xbd356aea	-0.044291414
40	0x3ea11af7	0.31465885
41	0xbe65008c	-0.2236349
42	0xbcde1811	-0.027111085
43	0xbcb9ddd2	-0.02268878
44	0xbe99a142	-0.30005842
45	0x3e3af865	0.18258817
46	0x3ec8de46	0.3923208
47	0xbe6febde	-0.2342982
48	0xbe00bf8e	-0.12573072
49	0xbe312563	-0.17299418
50	0xbe92fbc3	-0.28707704
51	0x3e7dbe76	0.24779686
52	0xbe8be579	-0.2732351
53	0x3df3adb3	0.11898365
54	0xbe30ca42	-0.17264655
55	0xbcde5856	-0.027141731
56	0x3ea44245	0.3208181
57	0x3e2ff8e2	0.17184785
58	0xbe54a423	-0.20765738
59	0xbd8fe2ce	-0.070256814
60	0x3e8724c6	0.26395243
61	0x3eacfd31	0.3378692
62	0x3e60d91c	0.2195782
63	0x3e9cda03	0.3063508

weight f4 [1, 64]
0	0xbf44df6f	-0.7690343
1	0x3f3d7e61	0.74020964
2	0xbf6ae9d3	-0.9176304
3	0xbf36e512	-0.71443284
4	0xbf4687d8	-0.7755103
5	0xbf56b5ad	-0.83870965
6	0xbf4787cb	-0.7794158
7	0xbf41f657	-0.7576651
8	0xbf3c5cfb	-0.73579377
9	0xbf443588	-0.7664418
10	0x3f365d62	0.7123624
11	0x3f30fd24	0.6913626
12	0x3f13c5b0	0.5772352
13	0xbf275d15	-0.65376407
14	0xbf582a35	-0.844394
15	0xbf322b03	-0.6959688
16	0xbf5ba48e	-0.85797966
17	0x3f436f60	0.7634182
18	0xbf6205cd	-0.882901
19	0x3f1b1ba2	0.6058904
20	0xbf24a59b	-0.64315194
21	0xbf2b2154	-0.6684773
22	0xbedc65ef	-0.4304652
23	0xbf533bdc	-0.82513213
24	0xbf3f26d6	-0.74668634
25	0x3f325bac	0.6967113
26	0x3f272657	0.65292877
27	0xbf277918	-0.6541915
28	0x3f203600	0.625824
29	0x3f394fba	0.7238728
30	0x3f5847d9	0.8448463
31	0x3f2bbb6c	0.6708286
32	0x3f578e7c	0.8420179
33	0x3f58d74f	0.84703535
34	0x3f236654	0.63828015
35	0xbf325307	-0.6965794
36	0xbef8c4ea	-0.48587734
37	0xbf47f1aa	-0.78103125
38	0xbf9264ba	-1.1436989
39	0xbf24c9c4	-0.6437037
40	0x3f2883f1	0.65826327
41	0xbf370730	-0.7149534
42	0x3f27796f	0.6541967
43	0x3f090d0e	0.53535545
44	0x3f77ac98	0.9674773
45	0x3f127672	0.57211983
46	0x3f6a59aa	0.91543067
47	0xbf3ae966	-0.7301239
48	0x3f350ca2	0.707224
49	0xbf6204d5	-0.88288623
50	0x3f574d7d	0.8410261
51	0x3f568e0e	0.8381051
52	0xbf33678c	-0.70079875
53	0xbf305366	-0.68877256
54	0xbf3d8571	-0.7403174
55	0x3f278623	0.6543905
56	0x3f40d7d4	0.7532933
57	0x3f2dcf8b	0.6789481
58	0x3f24d44d	0.64386445
59	0x3f3815c8	0.71908236
60	0xbf4858d9	-0.7826057
61	0x3f1fad2f	0.6237363
62	0x3f2eb3fa	0.6824337
63	0x3f321d90	0.6957636
