log/mujoco_ddpg_swimmer_v3_3/mujoco_ddpg_swimmer_v3_3_s3/pyt_save/model.pt (torch_old, 554480 bytes, 11 tensors)

weight f4 [256, 8]
0	0xbf3eee8e	-0.74582756
1	0xbda54e58	-0.080715835
2	0xbf01042a	-0.5039698
3	0xc0a5031a	-5.1566286
4	0xbc9a5f3e	-0.018844243
5	0xbf8cfde3	-1.101498
6	0x3fbbc08c	1.4668136
7	0xbebeacf4	-0.37241328
8	0x3eaf5428	0.34243894
9	0x3f326c36	0.69696367
10	0x3c159ba4	0.009131346
11	0x41272f9c	10.449123
12	0x4015f998	2.343359
13	0x3fedbd6b	1.8573431
14	0xbfe67048	-1.8003016
15	0x3e40d965	0.1883293
16	0xc006b52b	-2.1048076
17	0xbde6c724	-0.11268452
18	0xbfc8ba9c	-1.5681949
19	0xbfde631f	-1.7373999
20	0xbe9f0fec	-0.31066835
21	0x3e3461fd	0.17615505
22	0x3f0c3edd	0.5478342
23	0x3e93dd56	0.28879803
24	0x3f23f23d	0.640415
25	0x3d9f48e3	0.07777574
26	0x3ee38f04	0.4444505
27	0x3feeef70	1.866682
28	0x3ef219e0	0.47285366
29	0x3edd9e1a	0.43284684
30	0xbfb9474a	-1.4474881
31	0x3e864ab3	0.26228866
32	0xbf363336	-0.7117189
33	0xbfee4560	-1.8614922
34	0xbfa015d4	-1.2506661
35	0xbfbaf2e9	-1.460538
36	0xbfb60ff9	-1.4223624
37	0xbd0be945	-0.03415801
38	0xbf18b591	-0.5965205
39	0xbf6acd9f	-0.9172
40	0x3f2af3bd	0.66778165
41	0x4045ec27	3.0925386
42	0x3f97fe66	1.1874511
43	0xbfc9bb17	-1.576022
44	0xbed07149	-0.4071143
45	0x3e96e5db	0.2947224
46	0x3dc5b347	0.09653335
47	0x3e327501	0.17427446
48	0xbfc20086	-1.515641
49	0xbfb766dc	-1.4328265
50	0xc06a7060	-3.6631088
51	0xc013eb30	-2.3112297
52	0xbf3e3558	-0.74300146
53	0x3eb1c6a9	0.34721878
54	0xbd3707ff	-0.04468536
55	0xbf363b35	-0.7118409
56	0xbf99ecb2	-1.2025359
57	0xc059baf0	-3.4020348
58	0xbf37d1b7	-0.71804374
59	0xbf468e7b	-0.7756116
60	0xbd2693e6	-0.04066839
61	0xbf6381e0	-0.8887005
62	0x3e9e38e4	0.3090278
63	0xbed9c0ec	-0.4253
64	0xbff3b931	-1.9040891
65	0xc01601ab	-2.3438518
66	0xbffedca8	-1.9911089
67	0xbfb07c16	-1.3787868
68	0x3dd4e3de	0.10395025
69	0x3f435c44	0.7631266
70	0xbf8e37c1	-1.1110765
71	0xbecedd7d	-0.40403357
72	0x3e1c11b1	0.15241124
73	0xbf8e6e24	-1.1127362
74	0xbfb19a96	-1.3875301
75	0x3f6c49a8	0.9229989
76	0x4061e62b	3.5296733
77	0xbf61e98a	-0.8824698
78	0x3fb0c7ac	1.3810935
79	0x3fa46801	1.284424
80	0xbfa657b9	-1.2995521
81	0xbfe1e034	-1.7646546
82	0xc057c744	-3.3715372
83	0xbfc61a7c	-1.5476832
84	0x3b6b31a3	0.003588774
85	0x3e03d61c	0.12874645
86	0xbef46fc3	-0.47741517
87	0xbf8119ca	-1.0085995
88	0x3cadd37a	0.021219004
89	0x3de553e3	0.11197641
90	0xc00d4a4e	-2.2076602
91	0x3fe1f1c9	1.7651912
92	0x3f9da5ba	1.2316201
93	0xbf3e15c2	-0.7425195
94	0x3f152bef	0.5827016
95	0x3e36ab54	0.17838794
96	0x3ef9411e	0.48682493
97	0xbf15772f	-0.58384985
98	0xc012ccd5	-2.293752
99	0xbfcff1a1	-1.6245614
100	0x3eb3b013	0.3509527
101	0xbe45693e	-0.19278428
102	0x3f595b04	0.84904504
103	0xbec6bc46	-0.38815516
104	0x3e6029fe	0.21891019
105	0x3ea28cdb	0.3174809
106	0xba980e45	-0.0011600932
107	0xbe646fe4	-0.22308308
108	0x3d30692f	0.04306906
109	0x3e5d6798	0.21621549
110	0x3df54a2b	0.11977037
111	0x3c1decff	0.009639024
112	0xbf2b9334	-0.6702149
113	0xc059d1eb	-3.4034374
114	0x3fd1c9c0	1.6389694
115	0x3df00457	0.11719578
116	0x3be0976b	0.006853988
117	0x3e3e3cc0	0.18577862
118	0xbd06bf0c	-0.03289704
119	0xbdfe6733	-0.124220274
120	0x3f0fabd2	0.5612155
121	0xbf87a7ad	-1.0598046
122	0xbc8599d2	-0.016308699
123	0xbfa58c2d	-1.2933403
124	0xbedb6c83	-0.42856225
125	0x3f26244c	0.64899135
126	0xbeb7d5ff	-0.35905454
127	0xbe76583b	-0.24057095
128	0x3de6f28e	0.112767324
129	0xbf9e42c8	-1.236413
130	0xbf38a17b	-0.721214
131	0xbfad2c36	-1.3529117
132	0xbdf3c351	-0.11902488
133	0xbeb10f89	-0.34582165
134	0x3f668da9	0.90059906
135	0xbebf1a5f	-0.37324807
136	0x3f76b173	0.96364516
137	0xbda7b115	-0.081880726
138	0x3f5efeb2	0.87107384
139	0xbe85b43f	-0.2611408
140	0xbfa7b0d4	-1.3100839
141	0xbd8ab310	-0.06772435
142	0x3f33010d	0.6992348
143	0x3f238eb9	0.6388965
144	0xbdf2d358	-0.11856717
145	0xc0007b54	-2.0075274
146	0x3ead9148	0.33899903
147	0x3f3e0338	0.7422366
148	0xbfd43473	-1.6578506
149	0xbf2e4106	-0.6806797
150	0x3eab53b1	0.3346229
151	0xbeb9e462	-0.36307055
152	0x3ea6e631	0.32597497
153	0x3ef6ab42	0.48177534
154	0x3f9c0114	1.2187829
155	0xbf553cb1	-0.8329573
156	0xbe86d2a7	-0.2633259
157	0x3d96e62c	0.073681206
158	0x3eea51a7	0.4576542
159	0x3e5b9d91	0.21446826
160	0xbff885b5	-1.9415804
161	0xc02140ff	-2.519592
162	0xbfc50073	-1.5390762
163	0x3f3d84fd	0.7403105
164	0xbd5caf0b	-0.05387787
165	0xbf3faae7	-0.7487015
166	0xbddee015	-0.10882584
167	0xbd8957d5	-0.06706206
168	0x3f93283a	1.1496651
169	0xbe675bb3	-0.22593574
170	0x3f2a226b	0.6645877
171	0x3f9b5685	1.2135779
172	0xbe88616f	-0.26636836
173	0x3ea991cf	0.33119056
174	0xbf4baf1c	-0.7956407
175	0x3f45be97	0.7724394
176	0xbfb92a1d	-1.4465977
177	0xbf9b884e	-1.2150972
178	0xbfdc7ee5	-1.7226225
179	0x3f9d3a75	1.2283465
180	0x3e51a019	0.20471229
181	0x3db70a0c	0.08937463
182	0x3ee4ad79	0.446636
183	0xbe9113a9	-0.28335312
184	0x3f196a47	0.5992779
185	0xbf9d528f	-1.229082
186	0x4075783e	3.835464
187	0x3f4a08a4	0.78919435
188	0xc01fed62	-2.4988637
189	0x3fbc2d38	1.47013
190	0xbf985ba1	-1.1902963
191	0xbf140c84	-0.578316
192	0xc0095fcd	-2.1464722
193	0xbfffcdc5	-1.9984671
194	0xbfda97b9	-1.7077552
195	0x3f9a60b8	1.2060766
196	0xbf036bdc	-0.51336455
197	0xbeeed9b8	-0.4665048
198	0xbe99a8cf	-0.30011603
199	0xbb975f04	-0.004619481
200	0xbff6101a	-1.9223664
201	0xbe60c844	-0.21951395
202	0x3ec71da1	0.38889793
203	0x40abc15c	5.3673534
204	0xbd5eb023	-0.054367196
205	0x3eb0b535	0.3451325
206	0xbf8de98c	-1.1086898
207	0x3e682273	0.22669391
208	0x3f611eee	0.8793782
209	0x3fb1ce73	1.3891128
210	0xbfb9dc3d	-1.4520336
211	0xbfab1f8c	-1.3369002
212	0xbe99788e	-0.29974788
213	0x3fb4a0fb	1.4111627
214	0xbf0f59c8	-0.5599637
215	0xc00ef0db	-2.2334507
216	0x3f1b9d21	0.60786635
217	0x3f73346c	0.95001864
218	0xbe035b23	-0.12827735
219	0x3f82ccbd	1.0218731
220	0x3f444955	0.76674396
221	0x3e6f3379	0.23359479
222	0xbe30435c	-0.17213196
223	0xbcd1c1ba	-0.025605071
224	0x3fd06c14	1.6282983
225	0x4007cb4b	2.121783
226	0x3eccd204	0.4000398
227	0xbfae150c	-1.3600173
228	0x3f36e840	0.71448135
229	0xbd41cb73	-0.047313165
230	0x3f3a50bf	0.7277946
231	0xbd0bf89f	-0.03417265
232	0x3f7e0b03	0.9923555
233	0x4021a7c5	2.5258648
234	0x3f8e6954	1.1125894
235	0x3d9f8b05	0.07790188
236	0xbfc156d6	-1.5104625
237	0x3ef6919c	0.48157966
238	0xbea38676	-0.31938523
239	0x3ee6dc21	0.4508982
240	0x3ea0f5e2	0.31437594
241	0x3fc8677b	1.565658
242	0xc05d99b7	-3.462507
243	0x403e770f	2.9760168
244	0xbf69cacd	-0.91325074
245	0xbdb802a6	-0.0898488
246	0xbf4c55c2	-0.79818356
247	0xbef4b3ff	-0.47793576
248	0xbf239aa6	-0.6390785
249	0xbfc44fdc	-1.5336871
250	0x3eb7ae97	0.3587539
251	0x4080352f	4.006492
252	0x401c8b8f	2.446018
253	0x3f3b94ff	0.73274225
254	0xbeab8670	-0.33501005
255	0xbf45f064	-0.7731993

bias f4 [256]
0	0xc045542e	-3.083263
1	0x3d4cb2e8	0.049975306
2	0xc0358870	-2.8364525
3	0xbfbcb60e	-1.4743059
4	0xc017b6cc	-2.370532
5	0xbf3bf1aa	-0.73415625
6	0xc019b98a	-2.4019494
7	0xc01c9473	-2.4465606
8	0x3f49d4ca	0.78840315
9	0xbf992e38	-1.196723
10	0xbfcaf58f	-1.5856189
11	0xbffb464c	-1.9630828
12	0xc039e50c	-2.904605
13	0xbfc22409	-1.5167247
14	0xc04a0911	-3.1568034
15	0xc0635144	-3.551835
16	0xc02c84bc	-2.6956015
17	0xc01e92eb	-2.4777172
18	0xbfbec859	-1.4904891
19	0xc035f70e	-2.843204
20	0x4008d413	2.137944
21	0xc0271b6e	-2.6110492
22	0xc03302b7	-2.7970407
23	0xbf5f1212	-0.8713695
24	0x3f82bdaf	1.0214137
25	0xc02f7d40	-2.7420197
26	0x3fdfcb84	1.7483983
27	0xc0320388	-2.7814655
28	0xbec293bd	-0.3800334
29	0xbfad1781	-1.3522798
30	0x3eb40455	0.35159555
31	0xbee18875	-0.4404942
32	0xc036e7fe	-2.8579097
33	0xbf83f3de	-1.0308797
34	0xbff5d8a7	-1.9206742
35	0x3fffefad	1.9995018
36	0xc0202be7	-2.5026796
37	0x3fd00717	1.6252164
38	0xbf9ea192	-1.2393057
39	0xc014ee67	-2.327051
40	0xbf92fc1b	-1.1483186
41	0xc01becd9	-2.436331
42	0xc074b1ed	-3.8233597
43	0xbeff669d	-0.49882975
44	0xc0433691	-3.0502055
45	0xc007ae53	-2.120015
46	0xc028529d	-2.6300423
47	0xbf8bb81c	-1.0915561
48	0xc0424886	-3.0356765
49	0xc0153376	-2.331266
50	0xbfea30ac	-1.8296103
51	0xbf98f36a	-1.1949284
52	0x3f5cce27	0.86252064
53	0xbeb37c3b	-0.35055718
54	0xbff41fa0	-1.9072151
55	0xc01397ba	-2.3061357
56	0x3f704bd5	0.9386571
57	0xbfa78a54	-1.3089089
58	0xc0483115	-3.1279957
59	0xbfdb7e41	-1.7147905
60	0xbf31730c	-0.6931617
61	0xc0316d8b	-2.772311
62	0xbff54d2c	-1.9164176
63	0xc0589e7b	-3.3846729
64	0xbf0fde98	-0.56199026
65	0xbf374bb7	-0.71599907
66	0xc0087820	-2.1323318
67	0xbfbc15ea	-1.4694188
68	0xc02105be	-2.5159755
69	0xbf30b68e	-0.69028556
70	0xc03e664c	-2.9749937
71	0xbfd61be4	-1.6727262
72	0xc015e41a	-2.3420472
73	0xc017e0a2	-2.3730855
74	0xc002e511	-2.045231
75	0xbfbb96d5	-1.4655405
76	0x3ff5c415	1.9200464
77	0xc0265d24	-2.5994349
78	0xc0270446	-2.6096358
79	0xc02d5b19	-2.7086852
80	0x3fe28bd9	1.7698928
81	0x3f9efdb8	1.2421179
82	0xbfe0fac8	-1.7576532
83	0xbf39c55d	-0.7256678
84	0x402f79b0	2.7418022
85	0xbfb259d0	-1.3933659
86	0xbcd83060	-0.026390254
87	0xbf60c475	-0.8779977
88	0xc01eb63d	-2.479873
89	0xbfb55226	-1.4165695
90	0xbd3e033e	-0.04638981
91	0xc044cfd6	-3.0751853
92	0x3e9cce10	0.30625963
93	0xc029b398	-2.6515865
94	0xbcc69c11	-0.02424434
95	0xc067630a	-3.6154199
96	0xc017a532	-2.3694577
97	0xc0266d01	-2.600403
98	0xc04e8823	-3.2270591
99	0xc042210b	-3.0332668
100	0xc01588a1	-2.3364642
101	0xc0419dda	-3.0252595
102	0xc043045f	-3.0471418
103	0x4039e6a2	2.9047017
104	0xc034ca3a	-2.824843
105	0x3fe4403b	1.7832102
106	0xbfd6e941	-1.6789933
107	0xc0475cc9	-3.1150382
108	0x3dec3dc8	0.11535221
109	0xc05afbd4	-3.4216204
110	0xbf0c2769	-0.54747635
111	0xbfbf5db1	-1.4950467
112	0xc02fcd26	-2.7468963
113	0xc012c94a	-2.2935357
114	0x3cf4929c	0.029855065
115	0xbe7fe2f7	-0.24988924
116	0xc027c600	-2.62146
117	0x3f8f6655	1.1203104
118	0xc06ef4fe	-3.7337031
119	0xc04fb8e6	-3.2456603
120	0xc052ac75	-3.291776
121	0xbffd3502	-1.9781802
122	0xbf6f24d9	-0.934156
123	0xbf1a4f76	-0.602775
124	0xc0303ace	-2.7535892
125	0xc0170332	-2.35957
126	0x3e96787d	0.293888
127	0xbf6f5f17	-0.9350447
128	0xc01d01f9	-2.4532454
129	0xbcad9eb9	-0.021193849
130	0xc01de947	-2.467363
131	0xc03448ce	-2.8169436
132	0xc02b61dd	-2.677848
133	0xbf93dc39	-1.1551582
134	0xc0359b48	-2.8376026
135	0xc04f022a	-3.234507
136	0xc00e60e3	-2.2246635
137	0xc006034a	-2.0939507
138	0xc039a4a0	-2.900673
139	0xc0398847	-2.8989427
140	0xc008fd20	-2.1404495
141	0xbfcf7595	-1.6207758
142	0xc00e81fb	-2.2266834
143	0xc0424b09	-3.0358298
144	0xbfe56575	-1.7921587
145	0xc041c0ee	-3.0274005
146	0xbf286757	-0.65782684
147	0xc03663c2	-2.8498387
148	0xc056c838	-3.3559704
149	0xc0276731	-2.6156733
150	0xc009a045	-2.150407
151	0xc04e3589	-3.2220175
152	0xc007c743	-2.121537
153	0xc02bca13	-2.6842086
154	0xc0300262	-2.7501454
155	0xbfc485a4	-1.5353284
156	0xbff1ca6b	-1.8889898
157	0xbfd2fafd	-1.6482846
158	0xc006eeba	-2.1083207
159	0xbfebc955	-1.8420817
160	0x4016e082	2.3574529
161	0xbfa96ad1	-1.3235723
162	0x3fa8838e	1.3165147
163	0xc0310034	-2.7656374
164	0x3f8a750b	1.0816969
165	0xc01f0d7b	-2.4851978
166	0xbffe134f	-1.9849643
167	0xbe728abf	-0.2368574
168	0x405b6725	3.4281704
169	0xbe89d844	-0.2692281
170	0x3f4d36cb	0.8016173
171	0xc040491c	-3.0044622
172	0xc0081845	-2.1264813
173	0x3d8c92a6	0.068639085
174	0xc0132332	-2.2990232
175	0xc009cf18	-2.153265
176	0xc022045e	-2.5315166
177	0x404e8ffc	3.227538
178	0xc07194d0	-3.7747078
179	0xc001be28	-2.0272312
180	0xc0052416	-2.0803275
181	0xbfc04b5e	-1.5023
182	0xc07e3b5e	-3.9723735
183	0xbfed149a	-1.8521912
184	0xc02e822d	-2.7266953
185	0xbfd1a64f	-1.6378878
186	0xc026c2c5	-2.6056378
187	0x3fe2ca58	1.7718
188	0xbfc581e3	-1.5430263
189	0xbf970cd8	-1.1800795
190	0xbf1e6c45	-0.61883956
191	0xbfc5f0b5	-1.5464083
192	0xc0138653	-2.3050735
193	0xc01a4984	-2.410737
194	0xc01026bf	-2.2523649
195	0xbfb99e5e	-1.4501455
196	0x4024a866	2.5727782
197	0xc047968f	-3.1185644
198	0xc00fcf62	-2.2470326
199	0xc026c342	-2.6056676
200	0xbd58a477	-0.05289122
201	0xbd5bfb70	-0.053706586
202	0xbf871ca1	-1.0555612
203	0xbf3aa2d7	-0.72904724
204	0x3f716b5e	0.94304454
205	0xc030ee08	-2.7645283
206	0xc01d51be	-2.4581141
207	0xbe5686da	-0.2094988
208	0x3f91c868	1.1389284
209	0xc029e94c	-2.6548643
210	0xbfc327bd	-1.5246502
211	0xc03f5080	-2.9892883
212	0xbf73cdf9	-0.95236164
213	0xc05779e3	-3.3668144
214	0xc0280f78	-2.6259441
215	0xc049ef26	-3.1552215
216	0xbff25a84	-1.8933873
217	0x4013c9cd	2.309192
218	0xbf7f3c6a	-0.9970156
219	0xc04f17dc	-3.2358313
220	0xc04da3fd	-3.213134
221	0x3d5e2980	0.054238796
222	0xc0010202	-2.0157475
223	0xbfaa3eb6	-1.3300388
224	0xbfe97658	-1.8239241
225	0xbd8b94d1	-0.06815494
226	0xc01c6c6f	-2.4441183
227	0xc03361e3	-2.8028495
228	0xc0255530	-2.5833244
229	0xbfb6cdfd	-1.4281613
230	0xbf58e121	-0.8471852
231	0xc01aae78	-2.4168987
232	0xc05c9eed	-3.4472
233	0x4003a8bd	2.057174
234	0xbfcc3bd6	-1.595576
235	0xbda82924	-0.08210972
236	0xbf29ea53	-0.66373175
237	0xc0139f8f	-2.3066137
238	0xc049b40a	-3.1516137
239	0xc0491315	-3.1417897
240	0xbf67e929	-0.9059015
241	0xc039693b	-2.8970478
242	0xc0382398	-2.8771725
243	0xc024112b	-2.5635478
244	0xbfcd5d54	-1.6044106
245	0xbfe32eee	-1.7748697
246	0xc0665eea	-3.599543
247	0xbf2ce30c	-0.67533946
248	0xbe700255	-0.2343839
249	0xc0012d4e	-2.0183902
250	0xbfd59196	-1.6685054
251	0xbf3ff1ef	-0.74978536
252	0xc018495f	-2.3794782
253	0x40394ea2	2.8954244
254	0xbffb21ad	-1.9619652
255	0x3f895ced	1.0731484

weight f4 [256, 256]
0	0x3d3a90c5	0.04554822
1	0xbec28d91	-0.37998632
2	0xbdef8b1d	-0.11696456
3	0xbeaf1b32	-0.34200436
4	0xbea8002f	-0.3281264
5	0xbed36be0	-0.4129324
6	0xbe853c60	-0.26022625
7	0xbedb747a	-0.42862302
8	0x3e385bcf	0.18003772
9	0xbdb990c7	-0.09060817
10	0xbeb787bd	-0.35845748
11	0xbf4f8d2a	-0.81074774
12	0xbe6f3a11	-0.23361994
13	0x3dc5743a	0.09641309
14	0x3ea30548	0.31839967
15	0xbe769764	-0.24081188
16	0x3db3ffc4	0.08789018
17	0xbeec04fa	-0.46097547
18	0xbd04ee0c	-0.03245358
19	0xbe63d1b6	-0.22247967
20	0xbe492e1b	-0.19646494
21	0xbdf6f230	-0.12057912
22	0x3dc17c13	0.094474934
23	0x3e74a9b0	0.23892856
24	0xbe37c8b2	-0.17947653
25	0x3e9aa312	0.30202538
26	0xbe93c084	-0.28857815
27	0xbdd13c02	-0.10216524
28	0xba8a574e	-0.0010554583
29	0xbef8458a	-0.48490554
30	0xbf538733	-0.8262817
31	0x3e49f7ad	0.19723387
32	0xbcc90fff	-0.02454376
33	0xbedb285f	-0.42804238
34	0x3e646dfe	0.22307584
35	0xbde718a7	-0.11283999
36	0x3dcb9679	0.0994081
37	0xbee4894f	-0.44636008
38	0xbd3da701	-0.046301845
39	0x3ecaea10	0.396317
40	0x3e47d27f	0.19513892
41	0xbe384dc5	-0.17998417
42	0xbdf8b0b1	-0.12143076
43	0xbe876f2f	-0.26452014
44	0x3ed43863	0.4144927
45	0x3ddf5b7c	0.10906121
46	0x3e1b07fd	0.15139766
47	0x3ee10f9c	0.43957222
48	0x3e7e93c2	0.24861053
49	0x3edb68f7	0.4285352
50	0x3d61ea25	0.05515494
51	0x3e2309ee	0.15921757
52	0xbf0df387	-0.5544972
53	0xbd9b151c	-0.07572386
54	0x3eb46c0f	0.35238692
55	0xbdb433e5	-0.087989606
56	0x3c3a03f2	0.01135348
57	0xbf54271e	-0.8287219
58	0x3ea399dc	0.31953323
59	0xbdb89ad1	-0.09013904
60	0x3e00224e	0.12513086
61	0xbe069d4d	-0.13145943
62	0xbe6360c3	-0.2220488
63	0x3c4a15d6	0.012334308
64	0xbea9b913	-0.33149013
65	0xbe3c149c	-0.18367237
66	0x3ece59a6	0.4030277
67	0xbddfb10a	-0.109224394
68	0xbe3934bf	-0.18086527
69	0xbd9dba23	-0.077015184
70	0x3cc84d37	0.024450881
71	0xbf737be6	-0.9511093
72	0xbe9f46c7	-0.31108686
73	0xbe40b2c6	-0.18818197
74	0xbd83d69c	-0.06437418
75	0xbee833c1	-0.45351985
76	0xbf1a49f1	-0.60269076
77	0xbdfd50f5	-0.12368957
78	0xbea2a180	-0.3176384
79	0x3d122f68	0.03568974
80	0xbf087354	-0.53300977
81	0x3cd4a3a7	0.025956942
82	0xbf8862b8	-1.0655127
83	0xbee37f95	-0.44433275
84	0x3dc56096	0.09637563
85	0xbede364e	-0.43400806
86	0x3f069834	0.52575994
87	0xbe35b832	-0.17746046
88	0x3e108476	0.1411303
89	0x3bdc1926	0.006716865
90	0x3ec06e15	0.37583986
91	0x3e081c8c	0.1329214
92	0xbef4ffd7	-0.4785144
93	0xbf2642ab	-0.6494548
94	0xbe47fb64	-0.19529492
95	0x3eefea61	0.46858504
96	0xbdf0e49b	-0.11762353
97	0xbea806fb	-0.32817826
98	0x3e7942a0	0.24341822
99	0x3c6b1f1e	0.014350681
100	0x3dc5456d	0.096323825
101	0xbf0b3d1e	-0.5439013
102	0x3ec99622	0.39372355
103	0x3e1d98d8	0.15390337
104	0xbf039a1c	-0.5140703
105	0xbe995fba	-0.29955846
106	0x3e859c91	0.26096013
107	0xbe17b473	-0.1481493
108	0xbf11ac1a	-0.5690323
109	0xbdbb0ff4	-0.09133902
110	0xbf1ae467	-0.60504764
111	0xbd9aca25	-0.07558087
112	0x3e365138	0.1780442
113	0xbee37d03	-0.44431314
114	0x3d019ba4	0.03164257
115	0xbe84ba02	-0.25923163
116	0x3dd6188d	0.104539014
117	0xbe80fa0d	-0.25190774
118	0x3d26b8cd	0.040703584
119	0x3cdf4f32	0.027259443
120	0x3ee09d4c	0.43870008
121	0xbec6e595	-0.38847032
122	0xbea496bd	-0.32146254
123	0xbef22170	-0.47291136
124	0xbf6dbe2a	-0.9286829
125	0x3cb9a9cc	0.022663973
126	0xbf04e78a	-0.519158
127	0x3e970208	0.29493737
128	0xbf4d4d44	-0.80196023
129	0x3e5f33ec	0.2179715
130	0xbea03712	-0.31292015
131	0xbe429389	-0.19001593
132	0xbea7cb1f	-0.32772157
133	0x3e881a40	0.26582527
134	0xbdcd8eca	-0.100370005
135	0x3e9030d5	0.28162256
136	0xbefef4b1	-0.4979606
137	0x3e49e846	0.19717512
138	0xbda4ce0c	-0.08047113
139	0x3ed2d6a7	0.41179392
140	0xbb424198	-0.0029641148
141	0xbf51f5ad	-0.82015496
142	0xbe669f2a	-0.22521654
143	0xbf037aed	-0.51359445
144	0xbe875fdd	-0.26440325
145	0xbec954ba	-0.39322454
146	0x3e72b31e	0.2370114
147	0x3efe8b48	0.49715638
148	0xbe7e896c	-0.2485711
149	0xbf6b33c9	-0.9187589
150	0x3e12aea2	0.1432443
151	0xbed77d8c	-0.42087972
152	0xbea72e29	-0.32652405
153	0xbf4223b6	-0.7583574
154	0xbcc4259b	-0.023943713
155	0xbf189a4a	-0.59610426
156	0xbebb0cc3	-0.36533174
157	0xbe9933e7	-0.2992241
158	0xbecba380	-0.39773178
159	0xbf769f07	-0.96336406
160	0xbf88c79b	-1.0685915
161	0xbe5b5f6f	-0.21423124
162	0x3e02bcd6	0.12767348
163	0xbe6f5bc3	-0.23374848
164	0xbed03872	-0.40668064
165	0xbe2c0868	-0.16800082
166	0xbd509333	-0.05092163
167	0xbec48867	-0.38385317
168	0xbf3c1cd8	-0.7348151
169	0xbf23cf3a	-0.6398808
170	0xbeab0bec	-0.33407533
171	0x3e9ab543	0.30216417
172	0xbe1f9d14	-0.15587264
173	0xbfa33ac8	-1.2752314
174	0x3f3f6f17	0.74778885
175	0xbeae18dc	-0.3400334
176	0x3f38b53a	0.7215153
177	0xbdd40010	-0.103515744
178	0x3db37f01	0.087644584
179	0xbe9b1f51	-0.3029733
180	0xbe601028	-0.21881163
181	0xbd605d07	-0.054776218
182	0xbe509576	-0.20369515
183	0x3ef2fbfa	0.47457868
184	0xbe4e9796	-0.20175013
185	0xbf126104	-0.57179284
186	0x3cbeb11d	0.023277814
187	0x3dc71495	0.097207226
188	0x3da5ca31	0.080952056
189	0x3e0430ff	0.12909316
190	0xbe54711a	-0.2074627
191	0x3ee6f9ac	0.4511236
192	0xbdc535f6	-0.09629433
193	0xbf58a850	-0.84631824
194	0xbe92edd4	-0.28697073
195	0xbe52909f	-0.20562981
196	0xbf3cae64	-0.737036
197	0x3f770baf	0.965022
198	0x3f1a25f0	0.6021414
199	0xbe83baba	-0.257284
200	0xbf101d63	-0.5629484
201	0xbe2e3b93	-0.17014913
202	0x3d16b715	0.036795694
203	0xbf4447ea	-0.7667223
204	0xbdcea715	-0.10090462
205	0x3e2f4c96	0.17119059
206	0xbebfbd52	-0.37449127
207	0x3e1318a4	0.14364868
208	0xbf20de18	-0.6283889
209	0xbe47297a	-0.19449416
210	0xbf51a28f	-0.8188867
211	0xbe46b845	-0.19406231
212	0x3e83287a	0.2561682
213	0xbe335961	-0.17514564
214	0xbf9ad277	-1.2095479
215	0xbdf389cb	-0.11891516
216	0xbd960f9c	-0.07327196
217	0x3e44a42e	0.19203255
218	0xbeb051c9	-0.34437397
219	0x3dbdb0f3	0.09262266
220	0xbce19b9c	-0.02754002
221	0x3ebddafc	0.37081134
222	0xbea2d5df	-0.31803796
223	0xbc64f0fe	-0.013973473
224	0xbd60c7fa	-0.054878213
225	0xbeb25f77	-0.3483846
226	0xbd6d8bcd	-0.057994653
227	0x3f39b225	0.7253745
228	0x3cbc5d90	0.022993833
229	0xbe3689bb	-0.17825978
230	0x3e16e1b4	0.14734536
231	0xbdd8f431	-0.10593451
232	0xbdff99dc	-0.12480518
233	0xbe65a2cc	-0.22425383
234	0x3e744745	0.23855312
235	0xba7c1fcb	-0.00096177746
236	0xbaccdaa8	-0.001562913
237	0x3e34322a	0.17597261
238	0xbd758e86	-0.059950374
239	0xbe54f003	-0.20794682
240	0xbec8810d	-0.39160958
241	0xbebe1adc	-0.37129867
242	0x3e30eab2	0.17277029
243	0x3decd3c8	0.115638316
244	0xbeb13ffe	-0.34619135
245	0xbf135ad2	-0.57560456
246	0x3e354a96	0.17704234
247	0x3e04f090	0.12982392
248	0xbf61f1b5	-0.8825944
249	0xbece3733	-0.4027649
250	0xbe4f0523	-0.20216803
251	0x3f5cfc8a	0.86322844
252	0xbf711a03	-0.94180316
253	0xbf8fd6fc	-1.1237483
254	0xbe8861c1	-0.2663708
255	0xbf83c9dc	-1.0295978

bias f4 [256]
0	0xbf354c53	-0.70819587
1	0xbe866dc4	-0.2625562
2	0xbf677739	-0.90416294
3	0xbf94830f	-1.1602496
4	0xbcdb2ed2	-0.026755724
5	0x3d730616	0.059331976
6	0xbd946c69	-0.0724724
7	0x3ff70af9	1.9300224
8	0xc00bdfcb	-2.1855342
9	0xbe0bfd4e	-0.13670847
10	0xbda7ce78	-0.08193678
11	0x3fc1022f	1.5078791
12	0xbf29aa6e	-0.6627568
13	0xbd937398	-0.07199782
14	0x3f12233e	0.57085025
15	0xbdc36ccc	-0.09542236
16	0xbf106b88	-0.5641408
17	0xbd433607	-0.047658946
18	0xbea25274	-0.31703532
19	0xbf56ec4a	-0.839543
20	0xbf93d105	-1.1548163
21	0xbf785ac6	-0.9701351
22	0xbd8810b5	-0.066438116
23	0x3cea5d2f	0.028608887
24	0xbe9cb7df	-0.30609033
25	0xbf8207c1	-1.0158616
26	0x3ccc34eb	0.024927577
27	0xbf14f17a	-0.58180964
28	0xbe92faa6	-0.28706855
29	0xbf926085	-1.1435705
30	0xbfd36557	-1.6515301
31	0xbf2790a8	-0.654551
32	0xbf3afa0d	-0.730378
33	0xbf3c07be	-0.73449314
34	0x3f08eec4	0.5348933
35	0xbd885dd2	-0.0665852
36	0x3f588146	0.84572256
37	0xbf4de5e0	-0.80428886
38	0xbc13b0b9	-0.009014302
39	0xbf88097e	-1.0627897
40	0xbe1ca674	-0.15297872
41	0xbe000d74	-0.12505132
42	0x3fe4c74e	1.7873323
43	0xc003ec13	-2.0612838
44	0xbe10cd51	-0.14140822
45	0xbeebb164	-0.46033776
46	0x3f97d474	1.186171
47	0xc013bbcf	-2.308338
48	0xbdee68d3	-0.116410874
49	0xbde5152a	-0.11185677
50	0xbfa1bd28	-1.2635851
51	0x3ee7ac48	0.45248628
52	0x3ca55679	0.020182835
53	0xbd9f91aa	-0.07791455
54	0x3d462209	0.048372302
55	0xbf319191	-0.6936274
56	0x3f894a21	1.0725747
57	0xbe8f2c03	-0.27963266
58	0x401c4a05	2.4420178
59	0xbec7720d	-0.389542
60	0x3f3514fc	0.70735145
61	0x3dfcbbc1	0.12340499
62	0xbecf8b4b	-0.4053596
63	0xbd3ad0c1	-0.04560924
64	0xbeac158f	-0.33610198
65	0xbe03146f	-0.12800764
66	0xbc6da9e8	-0.014505841
67	0xbfbf1d1f	-1.4930762
68	0xbee4edc3	-0.44712648
69	0xbe95110f	-0.29114577
70	0xbd300fd7	-0.042983856
71	0xbd9e7d8a	-0.077387884
72	0x3c563be1	0.0130758
73	0x3f3369f0	0.7008352
74	0xbe3691ff	-0.1782913
75	0xbfd316fc	-1.6491389
76	0x3c56e379	0.013115757
77	0xbde09e36	-0.10967676
78	0xbe931db5	-0.28733602
79	0xb993f48e	-0.00028220232
80	0xbed60c0d	-0.4180607
81	0xbbf2275f	-0.0073899473
82	0xbf76a11f	-0.963396
83	0x3fd0da8b	1.6316694
84	0xbf68c2b9	-0.90922123
85	0xc0392e92	-2.8934674
86	0x3cc86064	0.024460025
87	0xbfab1bf3	-1.3367904
88	0xbf9185a0	-1.1368904
89	0x3eb83917	0.35981056
90	0x3f8e0051	1.1093847
91	0xbde8aeec	-0.11361489
92	0xbdc976f8	-0.098371446
93	0xbeaaf280	-0.33388138
94	0xbdbf2ff0	-0.09335315
95	0xbd95eb02	-0.07320215
96	0xbfeac717	-1.8342007
97	0xbebe5e29	-0.37181213
98	0xbe56e294	-0.2098487
99	0x3c52ebe4	0.0128736235
100	0x3d792145	0.060822744
101	0x4016742c	2.3508406
102	0xbf8cbedd	-1.0995747
103	0xbc6331e6	-0.013866877
104	0x3f03fe34	0.5155976
105	0x3c0a9408	0.008458145
106	0xbc0b928d	-0.008518827
107	0x3eb7d687	0.3590586
108	0xbc2558d3	-0.010091978
109	0xbdc4d164	-0.096102506
110	0xbd30b718	-0.04314336
111	0x3d20e511	0.039280955
112	0x3e19c58a	0.15016761
113	0xbd25d7b9	-0.040488932
114	0xbdc43f46	-0.09582381
115	0x3ecbc4b3	0.39798507
116	0xbdcdefd8	-0.10055512
117	0xbf64029a	-0.8906647
118	0xbe17cab4	-0.14823419
119	0xbdc9542a	-0.09830506
120	0xbc6b9cb0	-0.014380619
121	0xbf1f0aca	-0.6212584
122	0xbfd7e252	-1.6865942
123	0xbe17c3ae	-0.1482074
124	0xbf034ee6	-0.51292264
125	0x3facdc18	1.3504667
126	0xbf462239	-0.7739597
127	0x3c974ba2	0.018468682
128	0xbd978082	-0.07397558
129	0xbdcc8626	-0.09986524
130	0xbff7cfb4	-1.9360261
131	0xbdb3e78b	-0.08784398
132	0xbe847a75	-0.25874677
133	0xbd6cbfae	-0.057799987
134	0x3f91cc5c	1.139049
135	0xbe52b3d4	-0.20576411
136	0xbd620c9e	-0.055187814
137	0xbda04f60	-0.078276396
138	0xbeb7b088	-0.3587687
139	0xbdef1752	-0.1167437
140	0xbe6bac0e	-0.23014852
141	0xbddc1585	-0.10746292
142	0xbdf1fa5f	-0.118153326
143	0xbf4312d5	-0.7620061
144	0xbd7da7f6	-0.06192776
145	0xbd14fce3	-0.036373984
146	0xbc868e2a	-0.016425211
147	0xbde183a0	-0.110114336
148	0xbf3b9a10	-0.73281956
149	0x3f26a0fa	0.6508938
150	0xbe1c3c7c	-0.15257448
151	0xbf9e7c8b	-1.2381757
152	0xbe1b990b	-0.151951
153	0xbfc639d9	-1.5486404
154	0xbe3f1638	-0.1866082
155	0xbf864647	-1.0490197
156	0xbd765f63	-0.06014956
157	0xbd56db17	-0.052455034
158	0xbcc518fa	-0.024059761
159	0xc02d971d	-2.7123482
160	0xbd01065b	-0.0315002
161	0xbd209f63	-0.039214503
162	0xbfe797a2	-1.809315
163	0xbe1eae24	-0.15496117
164	0xbe7cb1b0	-0.24677157
165	0xbe97781c	-0.29583824
166	0xbc28bb4e	-0.010298563
167	0xbea00d0a	-0.31259948
168	0xbbfd0fbe	-0.007722824
169	0xbecb3fff	-0.39697263
170	0xbfdff6ec	-1.749723
171	0x3a5de933	0.00084652303
172	0xbcc1096e	-0.023564067
173	0x3d49da8d	0.049280692
174	0xbe0aa813	-0.13540678
175	0xbf0f72d0	-0.56034565
176	0xbf162ba8	-0.58660364
177	0xbfc9e777	-1.5773762
178	0xc0131d87	-2.2986772
179	0xbd5b5263	-0.053545367
180	0x3fb65053	1.4243263
181	0xbf2355c1	-0.63802725
182	0xbec4af50	-0.38415003
183	0xbdae9e3f	-0.08526277
184	0xbe911c43	-0.28341874
185	0x3f73c983	0.9522936
186	0xbe39fa03	-0.18161778
187	0xbe2bb2a2	-0.16767362
188	0x3e843a59	0.25825766
189	0xc00ff7f8	-2.2495098
190	0xbd005b4b	-0.031337064
191	0xbe71c803	-0.23611455
192	0xbf8b4e7a	-1.0883324
193	0xbd730425	-0.059330124
194	0xbe60d02b	-0.2195441
195	0xbe6ad3bf	-0.22932337
196	0xbee941b2	-0.45557934
197	0xbc5bd0a3	-0.013416442
198	0xbd8ae6fa	-0.067823365
199	0xbd949a8f	-0.07256042
200	0xbd4c8165	-0.049928088
201	0xbc898adc	-0.016789846
202	0xbde95bd9	-0.11394472
203	0xbda06070	-0.07830894
204	0xbd31fca2	-0.04345382
205	0x3ff30a78	1.898757
206	0xbd08e615	-0.03342255
207	0x3c87adb1	0.016562315
208	0xbd8d7821	-0.069076784
209	0xbf80181b	-1.0007356
210	0xbfbfee90	-1.4994678
211	0xbf5e2e8e	-0.86789787
212	0x3fe96d4d	1.8236481
213	0xbe2fe486	-0.17177019
214	0xbea69a91	-0.325398
215	0xbeee4508	-0.46537042
216	0xbf7a956c	-0.9788425
217	0xbdb0d4bf	-0.08634328
218	0xbda34723	-0.079725526
219	0xbc673d9f	-0.014113813
220	0xbe0473ca	-0.12934795
221	0xbda3db91	-0.08000863
222	0xbdd1f845	-0.10252432
223	0xbf97edfc	-1.1869502
224	0xbef07334	-0.46962893
225	0x403822ca	2.8771234
226	0xbd65605b	-0.056000095
227	0xbc78f012	-0.015193956
228	0xbd0bceab	-0.03413264
229	0x3ed0123c	0.40638912
230	0xbcb1bad0	-0.021695524
231	0xbeebbdea	-0.4604333
232	0xbceefdc5	-0.029173741
233	0xbe943707	-0.28948233
234	0xbdf17e01	-0.117916115
235	0x3eed9c9d	0.4640855
236	0xbfd56e11	-1.6674215
237	0xbec98685	-0.39360443
238	0xbf0d6f3c	-0.55247855
239	0xbd188d5b	-0.037244182
240	0xbda4ad92	-0.080409184
241	0xbcf09a19	-0.029370354
242	0xbf4711f1	-0.7776175
243	0x3b220bd5	0.002472629
244	0xbfd78b77	-1.6839436
245	0x3ed4228d	0.4143261
246	0xbda74e1f	-0.08169197
247	0x3fafbdf8	1.3729849
248	0xbee84ba3	-0.45370206
249	0xba596557	-0.0008292994
250	0xbdf0e97b	-0.11763283
251	0xbfa555aa	-1.2916768
252	0xbcd8a807	-0.02644731
253	0xc0141a6d	-2.314113
254	0xc001d590	-2.0286598
255	0x3e7c9d3f	0.2466936

weight f4 [2, 256]
0	0x3bd64d1c	0.006539954
1	0xbc9c9744	-0.019115098
2	0xbfc8a41b	-1.5675081
3	0x3febb452	1.8414404
4	0x3dea9f68	0.114561856
5	0xbd60d709	-0.054892574
6	0xbcb40436	-0.021974664
7	0x4094eefc	4.654173
8	0xc00cde18	-2.2010555
9	0xbdb75fba	-0.08953805
10	0x3aab6cef	0.0013078729
11	0xbfef11ae	-1.867727
12	0xc015d695	-2.341222
13	0xbc81861b	-0.015811017
14	0xc07e6afb	-3.9752796
15	0xbacf52ec	-0.0015817559
16	0xbeaaeaee	-0.33382362
17	0x3cd12a13	0.025532758
18	0xbf6729fa	-0.90298426
19	0xbf7ebd41	-0.9950753
20	0xbf7362d5	-0.9507268
21	0xbf1b4570	-0.6065283
22	0xbcc9b351	-0.024621638
23	0x3d104481	0.03522158
24	0xbfc81d29	-1.5633899
25	0xbfba1aec	-1.4539466
26	0x3bcc0dd4	0.0062272344
27	0x3d0bd914	0.03414257
28	0xbe8f474e	-0.2798409
29	0x3f994d0a	1.1976635
30	0x403baf20	2.9325638
31	0x3f178880	0.5919266
32	0xbf010f45	-0.50413924
33	0x3ff05aa8	1.8777666
34	0xc09b63cb	-4.8559318
35	0x3d8f72b4	0.070043
36	0xc0398639	-2.8988173
37	0xc00f4c96	-2.2390494
38	0x3d665a26	0.056238316
39	0xbef328b1	-0.47491983
40	0x3e95c7ed	0.29254094
41	0x3e143898	0.14474714
42	0xbff8da89	-1.9441692
43	0xbde7d3c1	-0.11319686
44	0x3e2d9022	0.16949514
45	0x3e8c393e	0.27387422
46	0xbfe0d326	-1.7564437
47	0x3f7a6230	0.9780607
48	0x3df10e45	0.117703
49	0xbca6e36a	-0.020372111
50	0x3e1513e6	0.14558372
51	0x405b84d3	3.429982
52	0xbda4871f	-0.08033585
53	0xbe0a2119	-0.13489188
54	0x3c0cdf6a	0.008598188
55	0x3fba4a01	1.4553834
56	0xc030f0e4	-2.7647028
57	0xbf02f789	-0.5115896
58	0x40521399	3.2824461
59	0xbef73f9d	-0.4829072
60	0x3fd47eea	1.6601231
61	0xbf1cf9db	-0.6131875
62	0x3ef96c97	0.4871566
63	0x3c92b942	0.017910603
64	0x3f520f11	0.8205424
65	0xbc0f6a4c	-0.0087533705
66	0x3c34303d	0.010997829
67	0x3fe0a958	1.755168
68	0x3fd157a5	1.6354872
69	0xbed373dc	-0.4129933
70	0x3c9803b2	0.01855645
71	0xbcd27e8e	-0.025695112
72	0x3cee0e84	0.029059656
73	0x3fe74d8a	1.8070538
74	0x3d56ddae	0.052457504
75	0x404764db	3.1155307
76	0x3c823873	0.015896058
77	0x3c018ff9	0.007907861
78	0xbe880570	-0.26566648
79	0xbbbd333a	-0.005773929
80	0x3c819f5c	0.015823059
81	0xbb5c0221	-0.0033570605
82	0xbe790bb5	-0.24320872
83	0x4018107d	2.3760064
84	0xbfb2e810	-1.397707
85	0x3ffafd07	1.9608468
86	0x3c395721	0.011312277
87	0xbef246a0	-0.47319508
88	0xbf26871d	-0.65049917
89	0x40b7626c	5.7307644
90	0xc04fee68	-3.2489262
91	0x3da9a595	0.082835354
92	0xbd2ad64b	-0.041708272
93	0x3ef45036	0.47717446
94	0xbc81290f	-0.015766649
95	0xbc8e4d0a	-0.01737072
96	0xbf4bd06f	-0.7961492
97	0xbf1360b1	-0.57569414
98	0xbef8d4c2	-0.4859982
99	0x3da352c3	0.0797477
100	0xbfb3920a	-1.4028943
101	0xc0352e5b	-2.8309543
102	0xbfc91142	-1.5708392
103	0xbbf1378e	-0.007361359
104	0xc0239699	-2.5560668
105	0xbcb630da	-0.022240091
106	0xbbd07625	-0.00636174
107	0xbf10764f	-0.56430525
108	0x4020cfde	2.5126872
109	0x3c90a8ac	0.017658554
110	0xba633cd0	-0.00086684246
111	0x3d31a8a5	0.043373723
112	0xbf717bd5	-0.9432958
113	0x3d2275c0	0.039663076
114	0xbcaccf5a	-0.021094967
115	0xbfe33371	-1.7750074
116	0x3cdd7906	0.027035248
117	0x40615333	3.520703
118	0x3feb7f94	1.8398309
119	0xbf252514	-0.645097
120	0x3d063330	0.03276366
121	0x3f0f362c	0.55942035
122	0x3dac8ca1	0.0842526
123	0x3aa312b7	0.001244149
124	0xbf1d7ebe	-0.6152152
125	0xbfa38e4c	-1.27778
126	0x3f1344ec	0.5752704
127	0xbcb7db5e	-0.02244347
128	0x3ce533fd	0.027978892
129	0xbf0d7319	-0.5525375
130	0x3fe8a2be	1.8174665
131	0xbcfc0276	-0.030762892
132	0x3e089bc4	0.1334067
133	0xbcb1847d	-0.02166962
134	0xbf9f216c	-1.2432075
135	0xbd892fba	-0.06698556
136	0x3c8c200b	0.017105123
137	0x3d66bd3f	0.056332823
138	0x3fc4d6b2	1.537802
139	0xbd59c5b3	-0.053167056
140	0xbe3a677f	-0.18203543
141	0xbd333d9d	-0.04375993
142	0xbf0a77e9	-0.5408922
143	0x3f6a45cb	0.91512746
144	0xbcfa5e23	-0.030562466
145	0x3c4c5152	0.01247056
146	0xbfa5a710	-1.2941608
147	0xbd4db24b	-0.05021886
148	0x3f927ed0	1.144495
149	0xbe760049	-0.24023546
150	0xbe65bb6c	-0.22434777
151	0xc0088fb1	-2.1337702
152	0xbd058215	-0.03259476
153	0x3fd13009	1.6342784
154	0x3d51830d	0.05115037
155	0x3fbfabaa	1.4974263
156	0x3c7973f7	0.015225402
157	0x3d544c3e	0.051830523
158	0x3cd229c3	0.02565468
159	0x3fec6fa2	1.8471568
160	0x3d85ef4c	0.06539783
161	0xbfc6a058	-1.5517683
162	0xbfaaca41	-1.3342973
163	0xbe53a722	-0.20669225
164	0xbf2d4fde	-0.6769999
165	0xbdd78e74	-0.10525218
166	0xbcbdaf71	-0.023154946
167	0x3e28df1d	0.16491361
168	0xbb48761a	-0.0030587972
169	0xbfddbc86	-1.7323158
170	0x3eabd914	0.33564055
171	0xbaf4bf51	-0.0018672739
172	0x3ca1d35c	0.019754104
173	0x401796a0	2.3685684
174	0x3c8cd6e9	0.01719232
175	0xc056942b	-3.3527935
176	0x3f6c78cf	0.9237184
177	0x3f0ac241	0.5420266
178	0xbfc994d7	-1.5748547
179	0xbc0855bf	-0.008321225
180	0x3fc9d7aa	1.576894
181	0x3d7e86c7	0.062140252
182	0x3d2d942c	0.042377636
183	0xbd0ccea3	-0.03437675
184	0xbd4159f9	-0.047204945
185	0xc059cac8	-3.4030018
186	0x3c35a84f	0.011087491
187	0x3e5ebae6	0.21750984
188	0x40444158	3.0664883
189	0xc075b10c	-3.838931
190	0xbcf7efe0	-0.030265749
191	0x3dba4ac9	0.090962954
192	0xbece0a1a	-0.40242082
193	0x3d2d4fba	0.04231236
194	0x3f291c59	0.6605888
195	0x3d56c44e	0.052433304
196	0xc05ba894	-3.4321642
197	0xbce1f789	-0.027583854
198	0xbc8efdad	-0.017454946
199	0x3c23a778	0.009988658
200	0xbb1831e3	-0.0023223094
201	0x3bad4583	0.0052878275
202	0x3e0f5471	0.13997056
203	0x3c886fdd	0.016654903
204	0x3b153134	0.0022764923
205	0x40228830	2.5395622
206	0x3b18ac9e	0.0023296247
207	0xbd6b6328	-0.05746761
208	0x3aeb1f87	0.0017938473
209	0x3c856066	0.016281318
210	0x3f343ede	0.7040843
211	0xbe3777e0	-0.17916822
212	0x3fac4eb9	1.3461524
213	0x3e0085c4	0.12551028
214	0xbf8ab4c7	-1.0836419
215	0xbf306f70	-0.6892004
216	0x396eee56	0.00022786236
217	0xbcd854cc	-0.026407622
218	0xbd024573	-0.031804513
219	0x3b5cf250	0.0033713765
220	0x3d7f33c7	0.062305238
221	0x3cc3295e	0.023823436
222	0x3da9ce81	0.082913406
223	0xbfd00fd4	-1.625483
224	0x3da04519	0.07825679
225	0x4060c47e	3.511993
226	0xbc59130c	-0.01324917
227	0xbc89c381	-0.016816856
228	0x3d0861a4	0.033296242
229	0xc005c5ac	-2.09019
230	0x3cdee670	0.02720949
231	0xbdfa4ff5	-0.12222282
232	0x3cae96e6	0.021312188
233	0xbe32cd5e	-0.17461154
234	0x3d0e1dac	0.034696266
235	0xc019df7e	-2.4042659
236	0xc013ed83	-2.3113716
237	0x3efba148	0.49146485
238	0x3f4a8a43	0.7911722
239	0x3d3ef13c	0.046616778
240	0xbcc3aaae	-0.023885097
241	0xbca94a63	-0.020665353
242	0x3f13d057	0.57739776
243	0x3d376650	0.044775307
244	0xc03413d1	-2.8137095
245	0xc016c24c	-2.355609
246	0xbd058697	-0.032599058
247	0xc00ab9fe	-2.167602
248	0xbf01a409	-0.5064092
249	0xbd545d6d	-0.05184691
250	0xbd16b1e4	-0.036790743
251	0x3f07cb0f	0.5304422
252	0x3cb58249	0.022156851
253	0x403cc224	2.9493494
254	0xc016abb1	-2.3542292
255	0x401ae1f5	2.4200413

bias f4 [2]
0	0x3f7d79a1	0.99013716
1	0x3fcdc51b	1.6075777

weight f4 [256, 10]
0	0x3d974ad3	0.073873185
1	0x3d80d9e2	0.06291558
2	0x3e1128ec	0.14175767
3	0xbd59754d	-0.053090382
4	0xbd7bb7d7	-0.06145462
5	0x3e5b41dd	0.21411844
6	0x3e283ef1	0.1643026
7	0x3d24df69	0.040252123
8	0x3ddeab0b	0.108724676
9	0x3cc433fe	0.023950573
10	0x4018132b	2.37617
11	0xbf38e931	-0.7223082
12	0xbf29f3a0	-0.6638737
13	0x3e5ad5fa	0.21370688
14	0x3ed3cee0	0.4136877
15	0x3cd44468	0.025911525
16	0xbe97781d	-0.29583827
17	0xbe335971	-0.17514588
18	0x3fae12ac	1.3599448
19	0xbe903dd4	-0.2817217
20	0xbc962f45	-0.018333087
21	0x3d3378d0	0.043816388
22	0xbd50429b	-0.05084477
23	0xbd1cceef	-0.038283285
24	0x3dd4bfcb	0.10388144
25	0xbe1e19bb	-0.15439503
26	0xbd427af7	-0.04748055
27	0x3d5a6e96	0.05332812
28	0xbd5ea6ea	-0.0543584
29	0xbe4b512f	-0.19855188
30	0xbf3bd785	-0.7337573
31	0xbfbbbe31	-1.4667417
32	0x3f244fd3	0.641843
33	0x3ed7c935	0.42145696
34	0xbe1406ad	-0.14455672
35	0x3e752abd	0.23942085
36	0xbdc2d735	-0.09513704
37	0x3d2d1048	0.042251855
38	0x3d2a66c8	0.041601926
39	0xbeb7f52f	-0.35929248
40	0xbf3a8860	-0.7286434
41	0xbf4ac8d7	-0.7921271
42	0xbfa1c833	-1.2639221
43	0x3bde6b43	0.006787689
44	0xbdfe90b3	-0.12429943
45	0x3e80fdef	0.25193736
46	0x3dd3ec21	0.103477724
47	0x3d92faee	0.07176767
48	0x3f0b8af9	0.5450893
49	0xbdb26119	-0.08709926
50	0x3f8fc60e	1.1232316
51	0x400852d4	2.1300554
52	0xbdcb9d23	-0.09942081
53	0xbf734002	-0.95019543
54	0xbe224976	-0.15848336
55	0xbebeb852	-0.3725
56	0x3e05a2db	0.13050406
57	0xbd679280	-0.056536198
58	0xbc9bf862	-0.019039337
59	0x3d4ea4e2	0.050450213
60	0x3ef913ad	0.48647824
61	0x3ef4152f	0.47672412
62	0xbf261f21	-0.6489125
63	0x3f8a217c	1.0791469
64	0x3f18e8a8	0.59730005
65	0xbeca1b26	-0.39473838
66	0xbe313184	-0.17304045
67	0xbdc4ff60	-0.096190214
68	0x3dbb045e	0.09131692
69	0x3da8321c	0.082126826
70	0xbd39583f	-0.045250174
71	0x3f351bbb	0.7074544
72	0x3fd610b4	1.6723847
73	0x3d963ccf	0.07335817
74	0xbea3f161	-0.32020095
75	0xbf3bb62c	-0.7332485
76	0xbede9ce8	-0.43479085
77	0x3e414e3c	0.188775
78	0x3c6024ef	0.013680681
79	0x3e43999f	0.1910157
80	0xbf9d1cca	-1.2274411
81	0xbfc58a33	-1.54328
82	0xbd9f17ad	-0.07768188
83	0x3f0c483a	0.5479771
84	0x3ef5349b	0.47891697
85	0x3e14d322	0.14533666
86	0xbda93d9a	-0.08263703
87	0x3daad161	0.08340717
88	0xbc19eaf0	-0.009394392
89	0xbd7ad009	-0.061233554
90	0x3f0dba01	0.55361944
91	0x3e68f295	0.22748788
92	0x3f47e0fa	0.7807766
93	0x3d9d8186	0.0769072
94	0xbeb5cb1a	-0.35506517
95	0xbd7a707e	-0.061142437
96	0xbe1f6821	-0.15567066
97	0xbd70efbc	-0.05882238
98	0x3d54a444	0.05191447
99	0x3de45eb6	0.11150877
100	0xbff4421d	-1.9082676
101	0xbf8cd574	-1.1002641
102	0xbf9c1bc4	-1.2195973
103	0x3e2960a6	0.16540775
104	0x3de01507	0.10941511
105	0xbe3fdcd8	-0.18736589
106	0xbd204326	-0.039126538
107	0xbdd20383	-0.10254576
108	0x3eb1528f	0.346333
109	0xbaa323e0	-0.0012446605
110	0xbeafb08a	-0.34314376
111	0xbf051e8c	-0.51999736
112	0xbedff4ba	-0.437414
113	0xbcbdd270	-0.023171633
114	0xbc9f659c	-0.01945763
115	0x3dff7e4c	0.12475261
116	0x3d1b282d	0.03788011
117	0xbcd0e5d5	-0.025500217
118	0x3aec5b90	0.0018032659
119	0xbd986734	-0.074415594
120	0x3f98efd9	1.1948196
121	0x3d833ab5	0.06407682
122	0xbcd790e5	-0.026314208
123	0x3d86043c	0.065437764
124	0x3dc0b4df	0.094094984
125	0xbe2c286e	-0.16812298
126	0xbe718ad5	-0.23588116
127	0xbda4850c	-0.08033189
128	0x3ca0b24b	0.019616267
129	0x3c609e59	0.013709628
130	0x3f327c4d	0.6972092
131	0x3e2cdc03	0.16880803
132	0x40109c71	2.2595484
133	0xbe9ca635	-0.30595556
134	0x3ec5f5db	0.38664135
135	0xbf2ba556	-0.6704916
136	0xbd1d6b89	-0.03843263
137	0x3ede3f06	0.43407458
138	0x3f10395e	0.56337535
139	0xbcbf58f4	-0.023357846
140	0xbfc34c5c	-1.5257678
141	0xbfb889c5	-1.4417044
142	0xbed31361	-0.41225722
143	0x3d26feaf	0.04077023
144	0x3d66ae5b	0.056318622
145	0xbe868dfa	-0.26280195
146	0xbe6cd8b3	-0.23129539
147	0xbc033f4e	-0.0080106985
148	0xbd09fcd9	-0.0336884
149	0x3d82dc3c	0.063896626
150	0x3f639612	0.88900864
151	0x3f97f0f9	1.1870414
152	0x3f143568	0.5789399
153	0xbe93a04e	-0.2883324
154	0xbe0f86d1	-0.14016272
155	0x3f18f1ac	0.5974376
156	0x3ee92b8c	0.45541036
157	0x3e495acf	0.19663547
158	0x3b94fd1e	0.0045467755
159	0x3e4960a4	0.19665772
160	0x3ff7bb4f	1.9354037
161	0xbee74869	-0.45172432
162	0xbe6071fc	-0.21918482
163	0x3e4f6388	0.20252812
164	0x3e6c5ff2	0.23083475
165	0x3dbf2406	0.09333043
166	0xbf386738	-0.720325
167	0xbe1f97ac	-0.15585202
168	0xbe4a5651	-0.1975949
169	0xbd5abd74	-0.053403333
170	0x3ea28ae1	0.3174658
171	0xc02e8f49	-2.7274954
172	0xbf4c208a	-0.7973715
173	0xbe9f53a2	-0.31118494
174	0xbdb4db36	-0.08830874
175	0x3e0e37ef	0.13888524
176	0xbf2afdec	-0.66793704
177	0xbe8ac01a	-0.27099687
178	0xbed60f29	-0.4180844
179	0xbdc5725e	-0.096409544
180	0x3cf71592	0.030161653
181	0xbfd51484	-1.6646886
182	0xbf8ecedc	-1.1156878
183	0x3eec4017	0.46142647
184	0x3f4cdc8b	0.8002402
185	0xbe0d3e76	-0.13793358
186	0xbddb5d4b	-0.107111536
187	0x3ec2c8bf	0.38043782
188	0xbebd80f8	-0.37012458
189	0x3e848f6a	0.25890666
190	0xbfe751d1	-1.8071843
191	0xc01d2159	-2.4551604
192	0x3f4410e4	0.76588273
193	0xbed6073c	-0.41802394
194	0x3db691a2	0.08914496
195	0xbe9d0b2c	-0.30672586
196	0x3d27cf84	0.040969387
197	0x3d3f1529	0.04665104
198	0xbe5a7f13	-0.21337537
199	0x3da42b95	0.08016125
200	0xbeedfea9	-0.46483353
201	0x3baf4adc	0.0053495
202	0x3d5e8c78	0.05433318
203	0x3d5a6ddb	0.053327423
204	0x3c9d9a11	0.019238504
205	0x3daa449b	0.08313867
206	0x3decf812	0.11570753
207	0x3d9f4867	0.077774815
208	0x3cee1556	0.029062908
209	0xbc942b84	-0.018087156
210	0x3f2b99d3	0.6703159
211	0xbed0448d	-0.406773
212	0xbe1cbdb7	-0.15306745
213	0x3f07d5ee	0.53060806
214	0x3e88e503	0.26737222
215	0x3e635cf3	0.22203426
216	0xbdf9579d	-0.12174914
217	0x3d050345	0.03247382
218	0x3c8d4e20	0.017249167
219	0xbd930c2b	-0.07180055
220	0x3d7623e0	0.060092807
221	0x3e91f21d	0.2850503
222	0xbe1e1f2b	-0.15441577
223	0x3d74b8cb	0.059746545
224	0xbdc1ab1d	-0.094564654
225	0xbd81164a	-0.063030794
226	0xbd655295	-0.05598696
227	0xbc42614b	-0.011864017
228	0x3d1c1d1e	0.038113706
229	0xbd368644	-0.04456164
230	0x3f06f34b	0.52714986
231	0x3eab5d85	0.33469787
232	0x3eab8e78	0.33507133
233	0x3de5e610	0.112255216
234	0xbe825e86	-0.2546274
235	0x3eb4732a	0.35244113
236	0x3de2c274	0.11072245
237	0xba87e786	-0.0010368682
238	0x3d816d38	0.0631966
239	0xbda4cc65	-0.08046798
240	0x3f664eaa	0.8996378
241	0x3e786546	0.24257383
242	0xc01eb635	-2.479871
243	0x3f04d1b2	0.5188247
244	0xbf515737	-0.81773704
245	0x3de00272	0.109379664
246	0xbf13f848	-0.5780072
247	0xbed047fa	-0.40679914
248	0xbdf4ba62	-0.11949612
249	0xbe3b7439	-0.18306054
250	0x3f6a5da1	0.91549116
251	0xbea56a37	-0.32307598
252	0xbddaee3d	-0.106899716
253	0xbe4dd8a7	-0.20102178
254	0x3e23de74	0.16002828
255	0x3df53d9b	0.11974641

bias f4 [256]
0	0xbf01efa2	-0.50756276
1	0xc012af99	-2.2919676
2	0xbf637a1b	-0.88858193
3	0x3fe6ed4f	1.8041171
4	0xc049357e	-3.14389
5	0xbf3994fd	-0.72492963
6	0x3ff8ced5	1.943812
7	0xc048db51	-3.138386
8	0xc03b4434	-2.9260378
9	0xc04eb2dd	-3.229667
10	0xc0171fa5	-2.3613064
11	0xbfca1ed8	-1.5790663
12	0xc073a916	-3.8071952
13	0xc0122c98	-2.2839718
14	0xc031c356	-2.7775474
15	0xc05bd4d9	-3.4348662
16	0xc02af213	-2.671025
17	0xbfdfd587	-1.7487038
18	0xc05befd6	-3.4365134
19	0xc06a68c1	-3.6626437
20	0xc005c232	-2.0899777
21	0x402e99ce	2.7281375
22	0xbf8cf987	-1.101365
23	0xc0076eba	-2.1161332
24	0xc023d408	-2.5598164
25	0x4046eb6e	3.1081195
26	0x3f2125a3	0.62948054
27	0xc033f2d1	-2.8116953
28	0x3fc503bb	1.5391763
29	0x3f4cd658	0.8001456
30	0x3fadfd3d	1.3592907
31	0x3fa83d4e	1.3143709
32	0x3cf7b175	0.030235985
33	0xc03e6301	-2.9747927
34	0xbfb189c1	-1.3870164
35	0xc0227188	-2.5381794
36	0xc070b7f8	-3.7612286
37	0xc02c2973	-2.6900299
38	0x3f31fab3	0.6952316
39	0x4016de42	2.3573155
40	0xc061a516	-3.525701
41	0x40099854	2.1499224
42	0xbfee0a3e	-1.8596876
43	0xc02505c2	-2.5784764
44	0xc002a059	-2.0410368
45	0xbf55cc22	-0.83514607
46	0xbedfd0b0	-0.43713903
47	0xc0383383	-2.878144
48	0xc035b3f6	-2.839109
49	0xbfa2d98a	-1.2722638
50	0xc058fdbe	-3.3904872
51	0xbf7bb8c8	-0.9832883
52	0xbd916638	-0.07099575
53	0xbf8ba574	-1.0909867
54	0xbd98fc2a	-0.074699715
55	0xc07eedac	-3.9832563
56	0xbfefec01	-1.8743898
57	0xbefa2194	-0.48853743
58	0xc011e709	-2.2797263
59	0xc0275835	-2.6147587
60	0x3efd7d80	0.4950981
61	0xbfb1340a	-1.3844006
62	0xbfb5d7df	-1.4206504
63	0x400b9da4	2.1814966
64	0xbfc311e5	-1.5239836
65	0xc056af21	-3.354439
66	0xc0756645	-3.834367
67	0x40104401	2.2541506
68	0xbfda7a7b	-1.7068628
69	0xbfc8a307	-1.5674752
70	0xc073e076	-3.810575
71	0xc04baeba	-3.1825395
72	0xc03b4c63	-2.9265373
73	0xc0424ff4	-3.03613
74	0x40047721	2.069771
75	0xbfa9d454	-1.3267922
76	0xc027d38a	-2.6222863
77	0xc047d1fe	-3.122192
78	0xc017d924	-2.3726282
79	0xbfd24176	-1.6426227
80	0xc02414cf	-2.56377
81	0xc056ac0d	-3.3542511
82	0xc00c344e	-2.1906924
83	0xc07f3b73	-3.9880035
84	0xc00fa3e5	-2.2443783
85	0xc01ba66b	-2.4320323
86	0xbf9a51b3	-1.2056183
87	0x3f4e9d8b	0.8070914
88	0xc04ae1d1	-3.1700327
89	0xc04130dd	-3.0186074
90	0xbf8bec67	-1.0931519
91	0xc03e4736	-2.9730964
92	0xbf18ff04	-0.5976412
93	0xc0419f9b	-3.0253665
94	0x3e097547	0.13423644
95	0xbfba66e8	-1.4562654
96	0xc00b4a7c	-2.1764212
97	0xc02709ae	-2.6099658
98	0xc0131b57	-2.2985437
99	0xc021292c	-2.518138
100	0x3f8cf054	1.1010842
101	0xc02697c1	-2.6030123
102	0xbf3537cf	-0.7078828
103	0xc0557f38	-3.3358898
104	0xc02f3410	-2.7375526
105	0xc0870e4d	-4.2204957
106	0xc0384f93	-2.8798568
107	0xbfe912aa	-1.8208821
108	0xbf2b9cea	-0.67036307
109	0xc05cc4dd	-3.4495156
110	0xc05e5152	-3.4737134
111	0xc03b96ef	-2.9310873
112	0xc06e6240	-3.7247467
113	0xc0204093	-2.5039413
114	0xbfe8a1f9	-1.817443
115	0xbf99aea6	-1.2006423
116	0xc0719246	-3.7745528
117	0xbfafbbc9	-1.3729182
118	0xc02a7118	-2.6631527
119	0x3fca7e1d	1.5819737
120	0xbed08932	-0.40729672
121	0xc01ad8e3	-2.4194877
122	0xc00c5565	-2.192712
123	0xc074dfb8	-3.8261547
124	0xc04af295	-3.171056
125	0xc02cecaa	-2.7019448
126	0xc01f4c82	-2.4890447
127	0xc00486f9	-2.070738
128	0xc04c3d14	-3.191228
129	0xc00f5e23	-2.2401206
130	0xbeba2933	-0.36359558
131	0xc06d53ad	-3.7082322
132	0xc031efff	-2.7802732
133	0x3fafa3e8	1.3721895
134	0xbf9354bf	-1.1510237
135	0xbf0c7e4f	-0.5488023
136	0x3fdd98e6	1.7312286
137	0xc0034916	-2.0513358
138	0x3ee87b9c	0.45406806
139	0xbfaea4c9	-1.3644038
140	0xbfcb2501	-1.5870668
141	0xbe2c7e4f	-0.16845058
142	0xc00ac2ea	-2.1681466
143	0xc0698736	-3.6488776
144	0xc01cb773	-2.4486969
145	0xbfca92c8	-1.5826044
146	0xbf58cf15	-0.8469098
147	0xc08095fb	-4.018308
148	0xbfc160fe	-1.5107725
149	0xc03712ac	-2.8605146
150	0xbff5b17f	-1.9194793
151	0xc00b2812	-2.1743207
152	0xbfe288df	-1.769802
153	0xbfa95dd1	-1.3231755
154	0x3f1cfa41	0.6131936
155	0xbf7606bd	-0.9610403
156	0xc021c74e	-2.5277896
157	0xc00073d5	-2.0070698
158	0xc00deff9	-2.2177718
159	0xc03f8606	-2.9925551
160	0xc02e15fd	-2.720092
161	0xc0399f86	-2.9003615
162	0xc01ec3c5	-2.4806988
163	0xbf949531	-1.160803
164	0xc02f11a7	-2.7354524
165	0xc0601431	-3.5012324
166	0x3fb761d7	1.4326733
167	0x403ff0f0	2.9990807
168	0xbf5afbac	-0.8554027
169	0xc05485f7	-3.3206766
170	0x40068c75	2.1023228
171	0xbece08a5	-0.4024097
172	0xbf8a0744	-1.0783467
173	0x402e0851	2.7192576
174	0x3fd368c1	1.6516343
175	0xbf90778a	-1.128648
176	0xbffa2b18	-1.9544401
177	0xbfc9de69	-1.5770999
178	0xbf4d17da	-0.8011452
179	0xbf840767	-1.0314759
180	0xc02e9cff	-2.7283323
181	0xc0320da9	-2.7820837
182	0xbf1bb2e7	-0.6081986
183	0xbff36594	-1.9015374
184	0xbf4caf28	-0.7995477
185	0xbf1cbdb7	-0.6122698
186	0xbf069133	-0.52565306
187	0x3f930682	1.1486361
188	0xbfb06134	-1.3779664
189	0xc000e2fa	-2.0138535
190	0x3f92b503	1.146149
191	0xbfac9efb	-1.3486017
192	0xc01fe0be	-2.4980922
193	0xc04158b4	-3.021039
194	0xbf9095c9	-1.1295711
195	0xc038a375	-2.8849766
196	0xbfff32b2	-1.9937346
197	0x3fe92450	1.8214207
198	0xbfdde6ac	-1.733602
199	0xbfea01e3	-1.8281826
200	0xc00b9048	-2.1806812
201	0xc06cbb5d	-3.6989357
202	0xbff3a6b3	-1.9035248
203	0xc0372668	-2.8617191
204	0xbec78d71	-0.389751
205	0xbf829e1d	-1.0204502
206	0xbbe7261b	-0.007054103
207	0xbeafd3f7	-0.34341404
208	0xc00b9052	-2.1806836
209	0xc02ac4dd	-2.6682656
210	0xbf5e632e	-0.86870086
211	0x3f75d3cf	0.9602632
212	0xc02db3a8	-2.7140903
213	0xc005e5d1	-2.0921519
214	0xc08468f8	-4.1378136
215	0x3eb813b7	0.3595254
216	0xc020b6dc	-2.5111609
217	0xbf4fabbb	-0.81121415
218	0xbf80d85b	-1.0066026
219	0x3f524d85	0.82149535
220	0xbfb18ec7	-1.3871697
221	0xbf68dafb	-0.9095914
222	0x40054c5e	2.082786
223	0x3fe3bc3b	1.7791818
224	0xc03f267b	-2.9867237
225	0xc00852fc	-2.130065
226	0x3ff82e65	1.9389158
227	0xc0558184	-3.33603
228	0x3d07cf3a	0.03315661
229	0xc0018ef3	-2.02435
230	0xbff17007	-1.8862313
231	0xc035ed68	-2.8426151
232	0xc0386d11	-2.881657
233	0xc035eb7d	-2.842498
234	0xc000206f	-2.0019796
235	0xbf69efd3	-0.9138157
236	0xc0455771	-3.083462
237	0xc07bee8f	-3.9364355
238	0xbf6d0b5b	-0.9259545
239	0xc08d9048	-4.4238625
240	0xbfaa8d53	-1.3324379
241	0xbf989f9f	-1.1923712
242	0xbf5877a2	-0.84557545
243	0xbfa66566	-1.2999694
244	0x3dc551f5	0.09634773
245	0xc035f55a	-2.8431
246	0xbfc27451	-1.5191747
247	0xc056c9f8	-3.3560772
248	0xbfdd98b9	-1.7312232
249	0xbf9647ad	-1.1740624
250	0xbf9cd4c5	-1.2252432
251	0x3ee76360	0.45193005
252	0xc0397729	-2.897898
253	0xc017fd8a	-2.3748498
254	0xc0577277	-3.3663614
255	0xbfb1372f	-1.3844966
