log/mujoco_ddpg_walker2d_v2_2/mujoco_ddpg_walker2d_v2_2_s2/pyt_save/model.pt (torch_old, 581120 bytes, 11 tensors)

weight f4 [256, 17]
-1.2815459 -3.9563773 -0.07760159 -0.8244277 -0.85866135 5.6378975 -1.5064534 -1.9351825
-2.0426743 2.4583938 -0.47077557 -0.73636687 -0.21558608 -0.11442391 0.6593512 0.27612832
0.20171797 -3.0467713 8.16678 -3.9701157 0.34382662 -1.9830633 -1.3972672 -1.655443
-1.4404219 0.49247432 -1.8321712 0.8430292 -1.1316192 -0.051856056 -0.16840169 0.20050937
0.19730492 -0.030479366 -3.9612756 2.4715278 1.1402743 0.6197692 2.238842 1.3451174
0.8539699 -1.220144 -1.2401749 1.5930389 -0.22150598 -0.6947943 0.6306602 0.14128725
-0.32766306 0.49193856 0.2313803 -0.37002745 -1.6030087 -0.77266115 -1.2589792 -2.0060203
6.4846997 6.5853868 1.5858845 -2.0420036 -2.2111187 0.22972916 -0.99779284 1.2070624
0.06908248 0.33065823 0.9032037 -0.4118701 -4.718635 -5.0686364 -4.040221 2.6994343
-0.95739037 -0.797691 0.8057598 -1.5339898 -1.4479234 -2.1170082 1.6802597 -0.66129726
-0.15628578 -0.022973105 -0.09538456 -0.14407505 -0.19951884 -0.08664339 -2.9279609 8.521096
6.6104674 -2.0102563 -4.137754 0.3590788 0.8482404 -1.7192726 0.2842937 -0.34638488
0.19345844 -0.5612601 -0.35977805 -1.0302266 -0.38063362 -0.1901526 -1.3069023 2.403089
1.3199635 2.785214 1.5017353 1.1155721 6.9152365 -3.2711787 -1.791451 -2.5664885
-0.49955714 0.5504434 -0.7349543 -0.037131265 -0.5365176 0.9546837 -0.25063154 -4.9233994
-2.0684874 -3.812354 -0.7991234 1.2007722 0.5582404 -0.10472399 1.5867392 1.1427891
-0.29482666 -0.23130788 -0.9515511 0.24430977 0.33448708 0.66298866 -0.053661235 -0.047141906
4.600716 -3.0075467 4.5330377 2.2780704 0.7356537 -1.5182129 -0.4667281 0.5565643
1.7992423 -1.0498711 -0.35692465 0.7789811 0.11225503 0.13942091 -0.1780746 0.22588956
-0.08662086 -6.316321 3.1436758 -1.5562431 -0.6395597 -0.1277334 4.517543 -1.233229
0.6718137 0.81356174 -1.7037228 -1.7862595 -0.31916004 -0.15099819 -0.26079863 0.30912238
-0.054971028 -0.057243794 -0.83340883 -12.641677 -3.9827716 -0.8099411 -0.22618245 -2.6506283
-1.5328704 0.5325913 0.7301425 -0.5483088 -2.488438 -0.2641842 -0.065500915 0.07986383
0.00790038 0.453396 -0.15952203 -1.0063512 -3.0933173 0.050221 0.90974694 -0.51455694
9.74304 -1.6249951 -0.9552595 -0.38299716 0.3957807 0.45076737 0.066534616 0.6078524
-0.23239991 -0.06322072 0.671536 0.3677566 -2.639214 -3.3658087 -0.9743267 0.98354644
-1.8674601 7.64967 -2.7133412 2.7051446 0.016397674 -1.1453247 -1.368648 0.17149217
0.15288669 0.10866324 1.086824 0.4628816 0.06935056 -0.2805039 1.2381946 2.4731088
5.866829 -2.3510349 -1.5254257 2.7287068 4.387458 -1.5798304 -0.5575721 0.36953858
0.6490336 0.58928394 0.22319748 0.039346196 1.136985 0.030644452 -1.8132457 1.5684776
-2.4363089 6.396749 -2.627788 3.367426 0.84657407 0.98807913 0.56123424 1.4799246
-0.23387183 0.17051488 -0.2400805 0.19876076 -1.0246769 0.35589412 0.19627276 -1.1197398
00000000: b209 a4bf 4935 7dc0 95ed 9ebd b20d 53bf
00000010: 3bd1 5bbf a869 b440 77d3 c0bf 0fb4 f7bf
00000020: 2dbb 02c0 5356 1d40 7f09 f1be 8a82 3cbf
00000030: 99c2 5cbe 1557 eabd 3ecb 283f b160 8d3e
00000040: 288f 4e3e 4dfe 42c0 22ab 0241 6016 7ec0
00000050: 0b0a b03e 05d5 fdbf a7d9 b2bf 8ee5 d3bf
00000060: bf5f b8bf 9825 fc3e 9684 eabf c3d0 573f
00000070: e6d8 90bf 0467 54bd 7e71 2cbe 5452 4d3e
00000080: 4d0a 4a3e ddaf f9bc 8a85 7dc0 832d 1e40
00000090: 82f4 913f 32a9 1e3f 3049 0f40 cf2c ac3f
000000a0: c59d 5a3f ae2d 9cbf 0dbe 9ebf b3e8 cb3f
000000b0: 77d2 62be 0ade 31bf f272 213f 9bad 103e
000000c0: 74c3 a7be 5fdf fb3e f5ee 6c3e 3d74 bdbe
000000d0: 642f cdbf 1fcd 45bf 3b26 a1bf a362 00c0
000000e0: a982 cf40 7dbb d240 43fe ca3f 30b0 02c0
000000f0: f882 0dc0 1f3e 6b3e 5a6f 7fbf 0581 9a3f
00000100: 1e7b 8d3d 094c a93e 5c38 673f a3e0 d2be
00000110: 0fff 96c0 4532 a2c0 7e49 81c0 88c3 2c40
00000120: 8917 75bf 7a35 4cbf 4646 4e3f c759 c4bf
00000130: 8e55 b9bf 107d 07c0 c012 d73f c74a 29bf
00000140: 6109 20be 1832 bcbc fb58 c3bd 6988 13be
00000150: ab4e 4cbe 1772 b1bd b663 3bc0 6956 0841
00000160: f388 d340 0aa8 00c0 7b68 84c0 2dd9 b73e
00000170: 4826 593f 2011 dcbf f28e 913e 5c59 b1be
00000180: f819 463e beae 0fbf d434 b8be 77de 83bf
00000190: 69e2 c2be 5db7 42be 9348 a7bf 36cc 1940
000001a0: 90f4 a83f f240 3240 dd38 c03f 11cb 8e3f
000001b0: 9e49 dd40 fe5a 51c0 444e e5bf 5941 24c0
000001c0: f4c5 ffbe dce9 0c3f f725 3cbf f416 18bd
000001d0: 3859 09bf 2766 743f c752 80be 7d8c 9dc0
000001e0: 1962 04c0 9cfd 73c0 5a93 4cbf e7b2 993f
000001f0: d8e8 0e3f 8879 d6bd 451a cb3f ea46 923f
00000200: 85f3 96be f9db 6cbe da98 73bf 572c 7a3e
00000210: e441 ab3e a0b9 293f e2cb 5bbd df17 41bd
00000220: 1139 9340 a57b 40c0 a50e 9140 e8cb 1140
00000230: cd53 3c3f cd54 c2bf fcf6 eebe ff7a 0e3f
00000240: 924d e63f 2d62 86bf d4be b6be 4e6b 473f
00000250: f7e5 e53d 5bc4 0e3e 3059 36be 984f 673e
00000260: 4766 b1bd 4d1f cac0 fc31 4940 f932 c7bf
00000270: 2fba 23bf 8bcc 02be b68f 9040 73da 9dbf
00000280: fcfb 2b3f 9545 503f 9713 dabf 27a4 e4bf
00000290: f268 a3be 459f 1abe 6687 85be 4a45 9e3e
000002a0: 4d29 61bd 7878 6abd 485a 55bf 4f44 4ac1
000002b0: bbe5 7ec0 4d58 4fbf 5f9c 67be e5a3 29c0
000002c0: 1935 c4bf e757 083f 9eea 3a3f f75d 0cbf
000002d0: 9142 1fc0 2743 87be 5825 86bd a68f a33d
000002e0: 9870 013c 8523 e83e be59 23be 1ed0 80bf
000002f0: e9f8 45c0 89b4 4d3d 2de5 683f 01ba 03bf
00000300: 7ee3 1b41 d7ff cfbf e38b 74bf 3418 c4be
00000310: c5a3 ca3e fbca e63e 4d43 883d 379c 1b3f
00000320: 3efa 6dbe dd79 81bd c9e9 2b3f 984a bc3e
00000330: e2e8 28c0 6969 57c0 7a6d 79bf b3c9 7b3f
00000340: ef08 efbf 19ca f440 62a7 2dc0 1721 2d40
00000350: 6a54 863c 009a 92bf dc2f afbf a59b 2f3e
00000360: 548e 1c3e d58a de3d 0d1d 8b3f d1fe ec3e
00000370: ab07 8e3d 359e 8fbe 297d 9e3f 6a47 1e40
00000380: 10bd bb40 5b77 16c0 2641 c3bf 22a3 2e40
00000390: 0e66 8c40 e237 cabf 0cbd 0ebf 2934 bd3e
000003a0: 1127 263f 50db 163f e18d 643e 7a29 213d
000003b0: b988 913f 130a fb3c 6f18 e8bf e0c3 c83f
000003c0: 7cec 1bc0 2bb2 cc40 ae2d 28c0 e883 5740
000003d0: 14b9 583f c1f2 7c3f 0cad 0f3f 2b6e bd3f
000003e0: 197c 6fbe 749b 2e3e aad7 75be f187 4b3e
000003f0: 9d28 83bf c137 b63e bafb 483e a253 8fbf

bias f4 [256]
0.4748038 -2.695655 -5.2755413 -1.6177912 -2.5338874 -1.1459574 -1.1391969 -2.9834306
-1.5004951 -0.7849274 -2.9917786 -1.405551 -1.5961388 -0.98617303 -2.911511 -2.0442288
-2.638913 -2.60258 -4.493136 0.41403106 3.0542138 -2.9201572 -2.5291855 0.15770185
-1.683157 -2.761846 0.3180703 -1.8308005 -3.0168521 -2.979912 -3.2170906 0.941591
-0.47573933 -2.2034287 -1.2263881 -0.6350288 -0.6961115 -1.2682108 -3.0788536 -0.46106642
-2.0492473 -2.6808314 0.044675678 -0.24642748 -2.924603 -3.0099075 -1.055735 0.49409875
-1.2506909 -0.08308653 -4.986293 -0.7563373 4.214523 -3.8462477 -0.54420227 -3.124855
-1.1166773 -2.1748343 -3.2568727 1.0446258 -2.5942419 -2.5916903 -2.3624237 -3.37803
-1.8968492 1.1668335 -1.361009 -2.616072 -2.2164242 -2.1916687 -2.1526773 -2.4334004
-1.7610003 3.5653973 -1.4303051 -1.4745867 -0.4298493 -3.5213978 0.09325608 -2.4545622
-0.67582023 -0.20720585 1.6614581 -2.0115683 -1.2225168 -0.21357216 0.39668223 -3.0336316
-1.4460161 -1.1314441 -1.6012865 -2.103563 -2.434564 -1.3601398 -1.7065438 4.194507
-0.017301278 1.9971241 -0.7576161 -2.0517132 5.2984767 2.5278947 -3.7565086 -2.4450371
-5.1215553 -2.2023072 -3.7073476 -2.7125401 -0.49604213 -2.9800503 0.07182745 -3.9867165
1.1608728 -2.427777 -2.993409 -0.39173806 4.337933 2.8592212 -3.2646887 -3.8131263
1.6186029 -2.4246104 -1.2278243 -2.7326736 -2.1048293 -2.8237522 -2.2966797 -0.6845012
-2.3044825 0.20187938 1.3811831 0.35981706 -4.0203605 -2.9013698 -0.7955877 -1.9491379
-0.2806506 0.4153437 2.3603718 -3.3560803 -1.5261167 6.45169 -3.005305 -2.178718
-2.2172189 -2.1166685 -2.0725572 -2.4340456 -1.0086976 -2.205318 -1.6568586 -2.2684731
0.4837689 -3.3308225 -1.8903853 -3.9400897 -3.5771434 -2.6002367 -4.4235344 2.7587466
-0.30896282 -2.44761 -2.0176492 -2.744856 -4.6461654 -3.3053393 0.84386533 -1.149418
-4.3261385 -1.6427692 5.7218456 -2.5096385 -1.4469982 -2.201531 3.525074 1.872405
-0.2586129 -4.232957 -3.5864098 1.6485695 -3.89833 -1.0995029 -2.071666 -3.0351567
-2.7960174 -1.5993652 -3.4708202 -0.19574058 3.185359 -0.63329893 -2.5686414 -1.5262629
1.2075392 -0.75507766 -2.0087917 -4.330904 -2.7775557 -1.2179278 -2.0707552 -0.040188085
-2.158148 0.10697627 -2.09204 0.4981389 -2.318979 1.8195355 -2.125115 -4.4901795
-3.4114437 2.2300699 -3.7906032 -1.6020396 3.9546185 -2.2986112 -1.1468543 -0.6151466
-1.9502546 2.9639747 -2.5656238 -2.764617 -0.008797625 1.1093183 -1.2895212 -0.9985058
-4.5868225 -2.7246504 2.0131664 -2.2340622 0.030799584 -1.8343849 -3.2216854 -3.5864246
-0.94789636 -3.2530918 -2.8749108 -3.7747703 -4.475004 -2.282489 -1.625424 -3.43548
-2.81815 2.2149308 -0.7285311 0.185645 -1.1690811 -3.1967301 1.0070086 -2.6024365
-3.1921585 -0.86024165 -3.6147878 -1.1343344 -1.6551143 -3.016598 -3.328484 -1.8967372
00000000: 7c19 f33e 9d85 2cc0 3cd1 a8c0 c813 cfbf
00000010: 362b 22c0 bbae 92bf 34d1 91bf 87f0 3ec0
00000020: 3910 c0bf 01f1 48bf 4d79 3fc0 18e9 b3bf
00000030: 474e ccbf d675 7cbf 3256 3ac0 a5d4 02c0
00000040: f3e3 28c0 ac90 26c0 c5c7 8fc0 e1fb d33e
00000050: 3d78 4340 dbe3 3ac0 2dde 21c0 987c 213e
00000060: b071 d7bf 16c2 30c0 1cda a23e ac57 eabf
00000070: 1b14 41c0 e1b6 3ec0 d0e4 4dc0 1c0c 713f
00000080: 1b94 f3be fa04 0dc0 49fa 9cbf 3f91 22bf
00000090: 5d34 32bf bb54 a2bf f00b 45c0 e610 ecbe
000000a0: de26 03c0 be92 2bc0 d8fd 363d 7c57 7cbe
000000b0: b22c 3bc0 53a2 40c0 5322 87bf 83fa fc3e
000000c0: a416 a0bf 4529 aabd b68f 9fc0 529f 41bf
000000d0: 5fdd 8640 ec28 76c0 d750 0bbf a0fd 47c0
000000e0: 48ef 8ebf 7c30 0bc0 9a70 50c0 4cb6 853f
000000f0: 0f08 26c0 41de 25c0 f331 17c0 a531 58c0
00000100: f4cb f2bf cd5a 953f 8b35 aebf b96d 27c0
00000110: e5d9 0dc0 4d44 0cc0 77c5 09c0 d5bc 1bc0
00000120: 7568 e1bf 782f 6440 3d14 b7bf 42bf bcbf
00000130: 3515 dcbe 955e 61c0 0bfd be3d 8c17 1dc0
00000140: 8e02 2dbf c52d 54be a9aa d43f 89bd 00c0
00000150: 6e7b 9cbf a9b2 5abe ef19 cb3e 0527 42c0
00000160: 0e17 b9bf 29d3 90bf f5f6 ccbf c7a0 06c0
00000170: e6cf 1bc0 1019 aebf 0770 dabf 6739 8640
00000180: 69bb 8dbc c3a1 ff3f 21f3 41bf 454f 03c0
00000190: 1f8d a940 07c9 2140 a36a 70c0 7d7b 1cc0
000001a0: c8e3 a3c0 9af2 0cc0 2f45 6dc0 429a 2dc0
000001b0: 3cf9 fdbe 25b9 3ec0 451a 933d 5d26 7fc0
000001c0: 7b97 943f b360 1bc0 0394 3fc0 e491 c8be
000001d0: 59d0 8a40 7bfd 3640 a9f0 50c0 430a 74c0
000001e0: 612e cf3f d12c 1bc0 5929 9dbf 20e4 2ec0
000001f0: 86b5 06c0 5bb8 34c0 cdfc 12c0 783b 2fbf
00000200: a47c 13c0 78b9 4e3e 9cca b03f f139 b83e
00000210: cba6 80c0 0bb0 39c0 a3ab 4bbf 5a7d f9bf
00000220: 6fb1 8fbe eea7 d43e 5510 1740 05ca 56c0
00000230: cb57 c3bf 3f74 ce40 eb56 40c0 1e70 0bc0
00000240: eae6 0dc0 7f77 07c0 c7a4 04c0 67c7 1bc0
00000250: 011d 81bf ee23 0dc0 f113 d4bf aa2e 11c0
00000260: 8fb0 f73e 322c 55c0 25f8 f1bf 6e2a 7cc0
00000270: ebef 64c0 476a 26c0 988d 8dc0 4e8f 3040
00000280: 6030 9ebe a4a5 1cc0 2a21 01c0 b9ab 2fc0
00000290: 63ad 94c0 ae8a 53c0 8f07 583f 2120 93bf
000002a0: ba6f 8ac0 4346 d2bf 5c19 b740 eb9d 20c0
000002b0: 3d37 b9bf e2e5 0cc0 d09a 6140 f8aa ef3f
000002c0: e968 84be 6274 87c0 bd87 65c0 5304 d33f
000002d0: 3d7e 79c0 83bc 8cbf 2d96 04c0 0240 42c0
000002e0: f3f1 32c0 00b8 ccbf eb21 5ec0 3870 48be
000002f0: ecdc 4b40 e11f 22bf 9f64 24c0 955c c3bf
00000300: a590 9a3f c54c 41bf 0b90 00c0 c496 8ac0
00000310: 79c3 31c0 0fe5 9bbf 4187 04c0 439c 24bd
00000320: 191f 0ac0 6016 db3d fce3 05c0 100c ff3e
00000330: 276a 14c0 8ae6 e83f e201 08c0 8daf 8fc0
00000340: 1855 5ac0 77b9 0e40 3e99 72c0 a20f cdbf
00000350: 7818 7d40 721c 13c0 1fcc 92bf 3f7a 1dbf
00000360: f1a1 f9bf c3b1 3d40 2e33 24c0 7cef 30c0
00000370: ea23 10bc 24fe 8d3f 080f a5bf 139e 7fbf
00000380: 40c7 92c0 ac60 2ec0 b8d7 0040 e0fa 0ec0
00000390: 694f fc3c 20cd eabf 1830 4ec0 fb87 65c0
000003a0: 56a9 72bf a832 50c0 8afe 37c0 d695 71c0
000003b0: 3c33 8fc0 4d14 12c0 e50d d0bf e8de 5bc0
000003c0: 925c 34c0 6dc1 0d40 0481 3abf b919 3e3e
000003d0: 73a4 95bf 3a97 4cc0 a8e5 803f 528e 26c0
000003e0: 534c 4cc0 cc38 5cbf af58 67c0 df31 91bf
000003f0: c9da d3bf f10f 41c0 e205 55c0 49c8 f2bf

weight f4 [256, 256]
-0.53357714 -0.3688553 0.0811313 -0.2842124 -0.14226851 -0.12494474 0.1917412 -0.1274974
-0.30096015 0.03345223 -0.52698934 0.06325844 -0.1994169 -0.06705518 -0.94387203 0.12626523
-0.26075417 -0.1478598 0.026518922 -0.1060991 -0.4536884 -0.23024927 0.055709425 0.07913581
-0.4585949 -0.22545776 0.1581059 0.04713732 -0.27625185 -0.2227022 0.21667989 -0.8912814
0.12494235 -0.20816626 -0.161808 0.0866821 -0.34666228 -0.4171238 -0.16527595 0.08281772
0.04429094 0.33967498 -0.4527259 0.30245066 0.16137269 0.24443416 0.090002365 -0.25250039
-0.08637395 0.49892643 -0.29075322 -0.13632295 0.24394603 -0.2433748 -0.3931086 -0.07629618
-0.47417784 -0.2731066 -0.26810163 -0.72498524 -0.14100759 0.1174484 0.10872536 0.02613558
-0.62375486 0.0757957 0.18591371 -0.37903884 -0.084372394 -0.2464321 0.27220386 0.05585013
-0.28904122 -0.17028111 0.0833582 -0.3891671 -0.3435799 -0.41285488 -0.084681146 0.13630706
-0.2537347 0.15080576 -0.066054 0.08572661 -0.2826356 -0.5084204 0.05357122 0.40264136
-0.09810337 -0.4447399 0.038441766 -0.060306966 0.076115884 -0.4221127 -0.33045554 -0.22732699
-0.0873699 -0.2658457 -0.20964696 -0.6698825 -0.38420686 -0.14809048 -0.17082095 -0.3255369
-0.10095633 -0.027955994 -0.12870267 -0.5393663 -0.28113312 -0.21959007 -0.07179563 0.07436393
0.35149375 0.16225225 -0.08112154 -0.4869243 -0.34818107 -0.07720863 -0.18199193 -0.276552
-0.24303888 -0.1366875 0.14060454 -0.03874219 0.1877611 0.20962447 -0.18792178 0.2831074
0.04496114 -0.19765826 0.15961617 -0.25484115 -0.63371706 -0.117145486 -0.14537944 0.08859781
-0.8155229 0.23707256 -0.6765208 -0.109886065 -0.05266094 -0.21587019 0.18098417 0.1204724
-0.23886786 -0.47706136 -0.14434563 -0.58921325 -0.109457545 -0.33829972 -0.002494038 -0.16552137
-0.25196245 -0.5726147 -0.20222323 0.030986292 -0.06105009 -0.20376354 0.11592529 0.011100696
0.5772445 -0.44292158 0.24504417 -0.39173034 0.1199538 -0.22468331 0.19245166 -0.33467004
-0.3455642 -0.0027994795 0.331605 -0.3410447 0.095919624 -0.24725929 -0.07634335 -0.30376482
-0.19766688 -0.21886478 -0.70952654 -0.46892476 0.23731005 -0.2676448 -0.045575038 -0.097803764
0.0639428 -0.020191045 -0.19752583 0.15030365 -0.04424231 -0.049058206 0.17741011 -0.037268173
0.02282915 -0.43255264 -0.47965276 -0.41619438 0.05657844 0.21617456 -0.53361404 -0.13302982
0.12918231 -0.03873856 -0.40918073 0.12949468 -0.31386068 -0.1380492 0.10214525 -0.0695472
0.39925525 -0.065619715 -0.48646975 -0.33639944 -0.31603855 -0.5050075 -0.5283 -0.4568307
0.058173 -0.1677887 -0.32948932 -0.32732472 0.03429369 -0.4474496 -0.07009439 -0.13061722
-0.2542054 -0.21315454 -0.064118385 -0.19386671 -0.16329779 0.20570683 -0.327718 -0.038176857
-0.32446414 -0.11189052 -0.6413369 -0.29677123 -0.2071634 -0.46995917 0.078895845 0.039904963
-0.04986944 -0.29497206 -0.34858677 0.51274073 -0.17336968 0.4169822 -0.14395365 -0.8197109
-0.25175408 -0.16647607 -0.04065529 -0.15241425 -0.25406355 -0.3605276 0.051286973 -0.0113705965
00000000: 8398 08bf 9ada bcbe 2b28 a63d 4a84 91be
00000010: d6ae 11be 07e3 ffbd ce57 443e ae8e 02be
00000020: 7317 9abe 3505 093d c6e8 06bf a48d 813d
00000030: f233 4cbe 3a54 89bd 99a1 71bf ac4b 013e
00000040: 9281 85be 8f68 17be 363e d93c 7c4a d9bd
00000050: d949 e8be 77c6 6bbe 912f 643d f511 a23d
00000060: f3cc eabe 66de 66be 83e6 213e 1013 413d
00000070: e270 8dbe 0c0c 64be 55e1 5d3e 052b 64bf
00000080: c6e1 ff3d 8929 55be ffb0 25be 6386 b13d
00000090: b87d b1be 4091 d5be 193e 29be 569c a93d
000000a0: 6b6a 353d e1e9 ad3e b0cb e7be d0da 9a3e
000000b0: e23e 253e f34c 7a3e 2953 b83d bb47 81be
000000c0: d3e4 b0bd 4973 ff3e 9bdd 94be 3e98 0bbe
000000d0: fdcc 793e 3e37 79be 8845 c9be 2c41 9cbd
000000e0: 70c7 f2be a1d4 8bbe 9e44 89be a298 39bf
000000f0: 4b64 10be c988 f03d 67ab de3d 491a d63c
00000100: 66ae 1fbf c73a 9b3d 2a60 3e3e 6111 c2be
00000110: 6fcb acbd b258 7cbe 4e5e 8b3e 1bc3 643d
00000120: 36fd 93be 2c5e 2ebe b4b7 aa3d e940 c7be
00000130: b4e9 afbe b761 d3be 4f6d adbd 1494 0b3e
00000140: 84e9 81be d36c 1a3e 5247 87bd 6f91 af3d
00000150: 9db5 90be d727 02bf 7f6d 5b3d 0227 ce3e
00000160: 6bea c8bd f3b4 e3be 1d75 1d3d 7004 77bd
00000170: a5e2 9b3d 281f d8be 7831 a9be 68c8 68be
00000180: fdee b2bd ed1c 88be b1ad 56be 6b7d 2bbf
00000190: c3b6 c4be 08a5 17be b0eb 2ebe c6ac a6be
000001a0: 31c2 cebd f803 e5bc a2ca 03be e913 0abf
000001b0: aef0 8fbe 38dc 60be 9609 93bd 1e4c 983d
000001c0: fdf6 b33e 7425 263e 0d23 a6bd 244e f9be
000001d0: ca44 b2be 8f1f 9ebd 185c 3abe 3998 8dbe
000001e0: 2fdf 78be cff7 0bbe a3fa 0f3e 21b0 1ebd
000001f0: 7244 403e cca7 563e 916e 40be 74f3 903e
00000200: 2c29 383d ed66 4abe 6c72 233e 8a7a 82be
00000210: 483b 22bf f9e9 efbd 59de 14be c572 b53d
00000220: 1cc6 50bf 26c3 723e 7830 2dbf f20b e1bd
00000230: ffb2 57bd 130d 5dbe ea53 393e 3cba f63d
00000240: c799 74be 6341 f4be 57cf 13be aed6 16bf
00000250: 472b e0bd 9f35 adbe 0473 23bb 6f7e 29be
00000260: 3901 81be e196 12bf 9b13 4fbe f7d6 fd3c
00000270: a90f 7abd 64a7 50be 3d6a ed3d b2df 353c
00000280: 4cc6 133f 9ec6 e2be dcec 7a3e e190 c8be
00000290: 57aa f53d 6213 66be 0c12 453e df59 abbe
000002a0: caed b0be 7977 37bb 21c8 a93e 699d aebe
000002b0: 8271 c43d 8a31 7dbe e759 9cbd 1087 9bbe
000002c0: 3069 4abe 171e 60be 88a3 35bf e816 f0be
000002d0: 6801 733e bd08 89be e4ac 3abd 574d c8bd
000002e0: 71f4 823d b167 a5bc 3644 4abe 33e9 193e
000002f0: 6d37 35bd 42f1 48bd ffaa 353e 83a6 18bd
00000300: 3304 bb3c 8a77 ddbe 0c95 f5be 6e17 d5be
00000310: cbbe 673d dd5c 5d3e ee9a 08bf f838 08be
00000320: 5e48 043e 53ac 1ebd 2380 d1be 419a 043e
00000330: 59b2 a0be c55c 0dbe 8731 d13d c36e 8ebd
00000340: 2f6b cc3e a163 86bd 9012 f9be 8c3c acbe
00000350: cecf a1be 2c48 01bf ab3e 07bf b7e5 e9be
00000360: d046 6e3d cdd0 2bbe d3b2 a8be 1b97 a7be
00000370: 8a77 0c3d 1d18 e5be a68d 8fbd 85c0 05be
00000380: 3627 82be 2f45 5abe 8050 83bd ff84 46be
00000390: 8937 27be d0a4 523e a7ca a7be 565f 1cbd
000003a0: 2a20 a6be db26 e5bd a82e 24bf 66f2 97be
000003b0: a422 54be 7d9e f0be 2594 a13d 6373 233d
000003c0: e643 4cbd 9406 97be f779 b2be fa42 033f
000003d0: d287 31be b17e d53e 9668 13be 93d8 51bf
000003e0: e9e5 80be b478 2abe 2986 26bd 7b12 1cbe
000003f0: 9e14 82be 1397 b8be 4a12 523d bd4b 3abc

bias f4 [256]
-0.39661026 -0.6462532 -0.29481107 -0.07133017 2.1681402 -0.14900067 -0.64239895 -0.09131682
-0.061696 -0.12213386 1.3651646 2.6160383 -0.07819389 0.15388462 -0.072089 -0.052447792
0.55969757 -2.9183786 -1.6441483 -0.9532141 0.7913456 1.6949831 -0.08993711 -0.08565255
-0.07523294 -0.4071313 -0.21358678 -0.048632305 -0.65084195 -0.90946186 -0.06896631 -0.91322273
0.21614768 0.9660633 -0.15931968 -0.16872272 -0.09890595 2.5410712 1.7449508 -0.18179953
-1.7010388 3.1474254 -0.5445284 -0.032034278 -1.0639702 -0.14674585 -1.8098145 -1.3664082
4.779499 0.7411783 -0.038848657 -2.9560895 -0.70412385 -2.205368 1.8574975 -2.107133
0.20672637 -0.22032844 -0.12006957 -1.6712127 -0.06959863 -0.35070074 -0.10779393 -1.9710633
-0.35227054 -0.10456741 -0.5139614 0.45101994 -0.12122806 -4.526843 -0.08171044 -0.10537948
-0.029705223 -1.1907156 -0.32799986 -1.2430923 -0.18907742 -0.93763465 1.6176174 0.5320228
-1.2230326 -0.14375629 -0.09319555 -0.13630149 -0.1062479 -0.08159654 2.6283684 -1.7948424
-0.17967746 -2.1095262 2.1618602 -0.28789544 -0.13472967 -1.992618 -0.7641402 -0.020502808
2.8981466 -0.13997084 0.33869234 -0.5847826 -0.10754376 -0.21326716 0.20280391 -0.13302042
3.2668009 0.09605677 -0.029124605 -0.16465372 -0.10989969 -0.16880623 -0.08472799 -0.13513465
-0.99865794 -1.4221905 1.1615138 -0.30817398 0.024154674 0.34398094 -0.83494425 0.30795464
-0.18694653 1.3414037 -0.27948496 -0.1330552 -3.0089455 -0.09383497 0.53805125 -0.12738721
-0.019151311 -3.555774 0.004187358 -0.091444254 -0.041448176 -2.326143 -2.7795925 -1.3286119
-0.7254026 0.1653258 -1.7947824 -0.08768045 -0.12762725 -0.1033856 -2.8083615 0.33193752
-1.4378737 -1.632452 -2.4107876 -0.039446905 2.990454 -0.16628703 1.3013833 -0.5797493
0.7606377 -2.855279 0.24612205 -0.040219773 -0.059543576 0.2222643 -1.4683783 -0.040874902
-0.7288235 -0.04611023 0.52168363 -1.37062 0.3110721 -0.91431814 0.18880486 -1.330929
-0.11942779 -0.12021632 -0.5471514 -0.09724751 -2.1443734 -0.13453536 -1.7293961 -0.07285942
-0.083696485 1.5663165 0.0062514944 -0.33839116 -0.10945826 -0.12545969 -0.0846547 -0.14871554
-0.06348509 -0.115623966 -0.10362978 0.3649255 -2.5132196 -0.70172316 -3.247916 -0.059620455
-0.11705696 -0.18632191 -1.9542066 -0.11346574 -3.1705232 1.5838705 -0.056564845 0.84701914
-0.10650928 -0.10050565 -0.5994757 -0.20769896 -0.51814264 0.535232 -0.9108854 -0.3856811
-0.78859425 0.61217445 -1.1492528 -0.58321863 -2.654408 -0.5930961 -0.7366121 -0.09526779
0.77769333 -0.041468553 0.15248448 0.2601145 -0.061158523 -0.40957433 -1.3009202 -1.1949914
-0.22458939 -0.56185526 2.143531 -2.1324167 -0.9985827 -0.07410936 -0.09985949 -1.0217199
-0.07522077 -0.060867615 -0.10475588 -0.23684208 -0.11336919 0.22866912 -0.13246888 -0.13124578
-0.1554291 1.0639006 -0.09117158 -0.00040654885 -0.08088557 -1.3115807 0.561283 -1.3463067
-0.16470136 -2.4430182 -0.28144976 -0.8331075 -0.071357295 -4.998337 -0.40360126 -6.134759
00000000: 8010 cbbe da70 25bf 7af1 96be 8d15 92bd
00000010: cfc2 0a40 a293 18be 4274 24bf 5004 bbbd
00000020: f2b4 7cbd 5121 fabd b7bd ae3f 2c6d 2740
00000030: 1e24 a0bd ee93 1d3e 66a3 93bd 7fd3 56bd
00000040: 5748 0f3f b7c6 3ac0 7473 d2bf d705 74bf
00000050: a095 4a3f 35f5 d83f f330 b8bd 9b6a afbd
00000060: ba13 9abd 8473 d0be 7eb6 5abe ab32 47bd
00000070: 949d 26bf 7ed2 68bf 353e 8dbd f7c8 69bf
00000080: d155 5d3e ed4f 773f b324 23be a6c5 2cbe
00000090: 348f cabd e9a0 2240 8c5a df3f a829 3abe
000000a0: a4bb d9bf 6b6f 4940 3766 0bbf 6036 03bd
000000b0: 2d30 88bf 8b44 16be 00a8 e7bf 77e6 aebf
000000c0: a8f1 9840 dcbd 3d3f c51f 1fbd 9230 3dc0
000000d0: 7641 34bf c024 0dc0 7ac2 ed3f 44db 06c0
000000e0: 14b0 533e c79d 61be 09e7 f5bd 4cea d5bf
000000f0: ba89 8ebd 0c8f b3be 10c3 dcbd cd4b fcbf
00000100: ce5c b4be 7027 d6bd f992 03bf 16ec e63e
00000110: 6b46 f8bd e6db 90c0 ce57 a7bd 32d1 d7bd
00000120: 5e58 f3bc 5e69 98bf 99ef a7be a61d 9fbf
00000130: 839d 41be d308 70bf 160e cf3f a532 083f
00000140: 558c 9cbf d934 13be 4fdd bebd 9e92 0bbe
00000150: 8098 d9bd 161c a7bd 3037 2840 65bd e5bf
00000160: 5efd 37be 7a02 07c0 eb5b 0a40 0867 93be
00000170: 93f6 09be 1b0e ffbf b19e 43bf 81f5 a7bc
00000180: 3c7b 3940 8454 0fbe 1569 ad3e 50b4 15bf
00000190: e73f dcbd b562 5abe d4ab 4f3e 8136 08be
000001a0: 4413 5140 69b9 c43d b996 eebc fc9a 28be
000001b0: 1713 e1bd 8adb 2cbe de85 adbd bd60 0abe
000001c0: 0ca8 7fbf 570a b6bf 7cac 943f fbc8 9dbe
000001d0: 06e0 c53c 451e b03e e8be 55bf 3bac 9d3e
000001e0: e96e 3fbe 1eb3 ab3f a718 8fbe 9f3f 08be
000001f0: 9092 40c0 8c2c c0bd babd 093f cb71 02be
00000200: 36e3 9cbc cd91 63c0 1b36 893b 2047 bbbd
00000210: 90c5 29bd 87df 14c0 d8e4 31c0 f40f aabf
00000220: fcb3 39bf 2b4b 293e 6ebb e5bf cf91 b3bd
00000230: b8b0 02be d4bb d3bd 32bc 33c0 b7f3 a93e
00000240: 3f0c b8bf 30f4 d0bf 584a 1ac0 1493 21bd
00000250: 9963 3f40 2647 2abe ba93 a63f 736a 14bf
00000260: 27b9 423f e4bc 36c0 6b07 7c3e 7dbd 24bd
00000270: f7e3 73bd 4199 633e d2f3 bbbf 716c 27bd
00000280: 2d94 3abf 15de 3cbd 0f8d 053f 7a70 afbf
00000290: d844 9f3e c110 6abf 1056 413e e25b aabf
000002a0: 8f96 f4bd f933 f6bd 1d12 0cbf b429 c7bd
000002b0: 6a3d 09c0 a3c3 09be da5c ddbf 5237 95bd
000002c0: 1069 abbd 0f7d c83f 56d9 cc3b 9b41 adbe
000002d0: a72b e0bd 8178 00be 715f adbd e348 18be
000002e0: 7904 82bd 42cc ecbd da3b d4bd 84d7 ba3e
000002f0: 97d8 20c0 21a4 33bf dbdd 4fc0 9434 74bd
00000300: 8fbb efbd 2ccb 3ebe 7123 fabf ba60 e8bd
00000310: dae9 4ac0 45bc ca3f 8ab0 67bd 3fd6 583f
00000320: 8a21 dabd e8d5 cdbd 3d77 19bf 09af 54be
00000330: ffa4 04bf f704 093f c92f 69bf fe77 c5be
00000340: 50e1 49bf 77b7 1c3f b71a 93bf d14d 15bf
00000350: d2e1 29c0 25d5 17bf 9c92 3cbf c21b c3bd
00000360: e916 473f eeda 29bd e424 1c3e ba2d 853e
00000370: 5c81 7abd bab3 d1be 8e84 a6bf 7af5 98bf
00000380: c3fa 65be bfd5 0fbf 9d2f 0940 8479 08c0
00000390: 1ea3 7fbf a6c6 97bd 2283 ccbd b8c7 82bf
000003a0: 590d 9abd 5250 79bd 408a d6bd bb86 72be
000003b0: 1b2e e8bd 3d28 6a3e eca5 07be 4b65 06be
000003c0: ce28 1fbe e52d 883f 2ab8 babd 1026 d5b9
000003d0: 55a7 a5bd e0e1 a7bf 3eb0 0f3f c753 acbf
000003e0: 79a7 28be 695a 1cc0 2f1a 90be 8846 55bf
000003f0: c623 92bd 60f2 9fc0 d3a4 cebe f24f c4c0

weight f4 [6, 256]
-0.15803345 -0.025484199 -0.36655498 0.04075674 0.52320695 -0.0016376567 0.065879226 0.06118463
-0.042010598 -0.05295439 0.40710357 -0.10082174 0.03186465 0.34049937 0.049245227 -0.06137354
0.3052748 0.013365458 -2.5519857 0.36972478 -0.006853488 0.7803415 -0.015307521 -0.040843815
0.08550874 2.004956 0.184662 -0.03479894 0.1426846 0.65074176 -0.04038926 -0.022302981
0.0621001 -0.14218526 -0.00050906825 -8.2804254e-05 0.035038833 -0.012681491 0.054255318 0.33329555
0.2656034 0.02204794 -1.244704 0.0406906 -0.82759756 0.03659511 0.023961514 0.6514173
0.20832458 1.0525889 0.030704308 -0.5390774 0.12934856 -1.0101113 0.029489972 -0.49192205
-0.46044117 -0.11940953 0.054002207 0.00337832 -0.059408937 0.5567124 0.30190474 -1.7402678
0.31827286 0.039084964 -0.15061241 1.2265977 0.019007755 -0.99080265 0.00023136618 0.030090207
0.07908994 0.12578982 -0.114396036 0.0026269753 0.20017354 -0.9988758 -0.6497075 0.0044907606
-1.1547472 -0.048798185 -0.0479754 0.0786321 0.0060571404 -0.01216896 -0.0064697186 -0.20447017
0.023854975 0.11269407 0.3387932 1.1578512 0.05085598 0.5971386 -1.5870701 0.022879012
0.5700896 0.0046623833 0.30026338 -0.42147824 0.03721677 -0.03579501 -0.2618005 -0.0071421564
0.11338178 0.40577525 -0.053207163 0.033275157 -0.0028392365 0.15725876 -0.033678204 0.019220892
1.2264366 -1.5021919 -0.04432472 -0.45208532 -1.1687156 0.3897906 1.112281 0.96161157
0.059870914 0.60659707 0.004080628 0.017177587 0.57471097 0.040588558 0.041683488 -0.002778002
0.15400739 -0.3945802 0.04206921 -0.026815925 0.03604017 0.07836098 -0.040091712 -0.33461416
0.16475148 0.07258283 0.21254496 -0.0139662875 -0.0014580374 0.04080267 -0.7445848 -0.12268747
0.43910778 1.5943584 0.204459 0.019150278 0.46303454 0.037975606 0.49538493 -0.38496277
-0.06014486 0.19367674 0.7868316 0.029278299 -0.044486307 0.16456057 -0.75005287 -0.022317316
-1.3923957 0.007922256 -1.3588543 0.689064 0.109977804 1.8416082 -1.1121259 -0.100263104
0.012998654 -0.0022661467 0.52940655 0.027415952 1.0280483 0.045366716 -0.07203548 0.018794311
-0.033205826 -0.47462976 0.02749392 0.2759758 -0.0002051966 -0.03653321 0.016668145 0.02682142
-0.37428644 -0.004621815 -0.0045373924 1.4714738 -0.8304948 0.034361545 -1.134869 -0.051331412
0.018799936 0.07300024 -0.25769362 -0.0022063276 -0.8997132 0.077510275 -0.0010851473 1.0462228
-0.008329446 -0.01820108 -0.21096082 -1.1196271 1.2541109 -1.0185882 -0.21134965 -0.16543813
-0.29423055 1.0155246 -0.8792446 0.10187462 0.080314234 -0.6591191 0.65421414 0.09424452
0.37650323 -0.3945552 0.13965926 0.08165122 0.071056485 -1.0860181 0.6642373 -0.55713725
-0.6820223 -0.094404235 0.17808598 -0.51812726 -0.2503926 -0.0005695847 0.0062295515 -0.06876566
-0.016622337 0.019594276 0.044485074 -0.07387174 0.0067594647 0.25667584 -0.011995373 -0.003091363
0.0035234066 -0.40402424 0.09579314 -0.32226473 0.05793335 -0.017662155 0.06832539 -0.11153232
-0.0038988725 -1.6295158 0.17650282 0.7769976 -0.017207818 -0.0010062377 0.18318328 1.9385959
00000000: 85d3 21be 3dc4 d0bc 18ad bbbe 8af0 263d
00000010: e4f0 053f a4a6 d6ba b0eb 863d bc9c 7a3d
00000020: 4e13 2cbd b4e6 58bd e16f d03e a17b cebd
00000030: 8284 023d ef55 ae3e 5db5 493d d262 7bbd
00000040: fb4c 9c3e cbfa 5a3c bc53 23c0 914c bd3e
00000050: 3993 e0bb 76c4 473f 66cc 7abc d84b 27bd
00000060: 351f af3d 3351 0040 0918 3d3e 5589 0ebd
00000070: e91b 123e 0397 263f 356f 25bd beb4 b6bc
00000080: ad5c 7e3d 0399 11be fe72 05ba 32a7 adb8
00000090: e184 0f3d 07c6 4fbc d33a 5e3d b7a5 aa3e
000000a0: 2bfd 873e e29d b43c 7652 9fbf 30ab 263d
000000b0: 6fdd 53bf c1e4 153d f04a c43c 49c3 263f
000000c0: 0a53 553e 3cbb 863f 9a87 fb3c fa00 0abf
000000d0: f373 043e 544b 81bf f494 f13c 35dd fbbe
000000e0: f2be ebbe fc8c f4bd 6b31 5d3d ce66 5d3b
000000f0: c956 73bd b484 0e3f 4293 9a3e 18c1 debf
00000100: a9f4 a23e 8e17 203d 243a 1abe 2701 9d3f
00000110: 27b6 9b3c 3ea5 7dbf e39a 7239 bd7f f63c
00000120: e8f9 a13d 0ccf 003e 7848 eabd 5529 2c3b
00000130: 4bfa 4c3e 53b6 7fbf 3b53 26bf 3b27 933b
00000140: c2ce 93bf 9be0 47bd da81 44bd de09 a13d
00000150: fa7a c63b 5160 47bc efff d3bb a160 51be
00000160: 826b c33c 26cc e63d 4d76 ad3e 7834 943f
00000170: 5c4e 503d 13de 183f 1d25 cbbf c46c bb3c
00000180: 64f1 113f e8c6 983b 1fbc 993e ffcb d7be
00000190: 9d70 183d ca9d 12bd b70a 86be c008 eabb
000001a0: b534 e83d c6c1 cf3e c1ef 59bd 884b 083d
000001b0: 7c12 3abb 7108 213e 28f2 09bd 2275 9d3c
000001c0: e0fb 9c3f d347 c0bf d68d 35bd ba77 e7be
000001d0: 7998 95bf a292 c73e 395f 8e3f 2d2c 763f
000001e0: 343b 753d f249 1b3f cab6 853b 03b8 8c3c
000001f0: 4220 133f 3040 263d 4ebc 2a3d 240f 36bb
00000200: 1db4 1d3e 6a06 cabe c450 2c3d 12ad dbbc
00000210: db9e 133d b97b a03d 3537 24bd 8c52 abbe
00000220: 9db4 283e 4fa6 943d 63a5 593e dbd2 64bc
00000230: 9e1b bfba b320 273d 1c9d 3ebf 9143 fbbd
00000240: bcd2 e03e f013 cc3f b35d 513e 0be1 9c3c
00000250: dd12 ed3e 4f8c 1b3d 18a3 fd3e d719 c5be
00000260: 755a 76bd 3253 463e cc6d 493f 0bd9 ef3c
00000270: 4637 36bd 9182 283e 7703 40bf ced2 b6bc
00000280: 063a b2bf 5acc 013c f0ee adbf 8066 303f
00000290: 0b3c e13d d1b9 eb3f 245a 8ebf be56 cdbd
000002a0: 4ef8 543c a283 14bb 3087 073f 6b97 e03c
000002b0: 1697 833f 73d2 393d 5687 93bd 87f6 993c
000002c0: d502 08bd ac02 f3be ee3a e13c b34c 8d3e
000002d0: 0b2a 57b9 d9a3 15bd a28b 883c 98b8 db3c
000002e0: 79a2 bfbe 9872 97bb 68ae 94bb 4159 bc3f
000002f0: 4f9b 54bf b1be 0c3d 6343 91bf e340 52bd
00000300: 5302 9a3c 2681 953d 6bf0 83be 0998 10bb
00000310: 9b53 66bf b5bd 9e3d 803b 8eba a1ea 853f
00000320: 3b78 08bc 6e1a 95bc 1d06 58be f14f 8fbf
00000330: b586 a03f 1961 82bf 0b6c 58be 9d68 29be
00000340: 63a5 96be b6fc 813f 2d16 61bf a4a3 d03d
00000350: ca7b a43d 08bc 28bf 947a 273f 4503 c13d
00000360: 08c5 c03e 2403 cabe d602 0f3e c138 a73d
00000370: 1086 913d a402 8bbf 750b 2a3f 8ca0 0ebf
00000380: 0399 2ebf 0257 c1bd 2c5c 363e fda3 04bf
00000390: 7533 80be 2f50 15ba 4421 cc3b 03d5 8cbd
000003a0: 912b 88bc 2d84 a03c fb35 363d 114a 97bd
000003b0: 807e dd3b 046b 833e 3e88 44bc 7798 4abb
000003c0: f4e8 663b 44dc cebe 322f c43d e2ff a4be
000003d0: 854b 6d3d 39b0 90bc 2fee 8b3d 0f6b e4bd
000003e0: 3a84 7fbb f993 d0bf 28bd 343e 51e9 463f
000003f0: 69f7 8cbc bce3 83ba 6694 3b3e e923 f83f

bias f4 [6]
1.1697571 -0.35492605 -6.2700343 -0.6261926 0.5903463 0.36090466
00000000: 9aba 953f deb8 b5be 1fa4 c8c0 294e 20bf
00000010: ef20 173f 7fc8 b83e

weight f4 [256, 23]
-7.0347805 -1.5319834 2.152967 -0.6276923 -0.51926357 1.0571916 -1.9808834 1.0844132
0.03884249 -1.611539 -1.5663962 -0.09539069 0.0025702144 0.003955798 0.016332868 -0.17943339
-0.17451507 -4.3632007 -0.28916058 0.29950792 -4.1006265 0.531006 -0.73028874 0.92285657
-2.9466193 3.5595713 1.034163 -0.74614537 -1.8806925 -1.616351 -1.1907517 -5.0902047
1.3172313 -0.6474483 -0.15815984 0.036912497 0.011391666 0.21441333 0.39519504 -0.3390228
-1.226652 0.54371333 0.2776364 -0.7788991 -0.9734858 0.28038335 -1.4046978 9.630992
-5.828938 -3.5878813 -0.22853892 -0.95997655 -0.7175768 0.019642195 0.5289539 0.30775186
0.18502095 -0.19712824 -0.16306621 -0.060866214 0.06476728 -0.07240601 0.020147316 0.059490226
-0.29294392 -0.23797427 0.24644022 -0.11125396 0.09229231 3.1549304 9.629414 -3.4908867
-0.011662272 0.19226296 -2.9939275 -1.5387161 0.9357763 -0.171352 0.36101186 -0.52558786
0.16890237 -0.012879739 -0.09846683 -0.32023883 -0.22339596 -0.016344221 0.09063363 -0.10225098
-0.31596056 -0.29926282 -0.32231793 0.17933807 -0.53128195 7.7817698 -0.8320427 -1.3787053
0.34886137 1.1152848 -1.7676235 -0.51029444 0.34244123 1.113335 0.031614177 -0.18468131
-0.15515701 0.02055076 0.0603816 -0.031206718 -0.08841154 0.25019503 -0.18054314 0.14894432
0.28638485 1.176564 0.0676465 0.41155013 4.2667985 1.3310626 0.16787921 0.63686895
-1.54395 -0.06885382 -0.22235402 -0.6601411 0.3915428 2.0619502 -0.5029461 0.24820781
0.24658982 -0.3453614 -0.42346328 -0.2364275 1.9380064 0.6743895 1.7749337 -1.6105071
0.87566394 -0.78813183 -0.46851116 3.7962587 -1.3645853 1.3756715 -1.2462912 -0.07815051
-0.803836 -2.981296 0.13520354 1.3976557 -0.17307009 -0.014183148 -0.04303786 0.093428686
0.7738226 -0.71904933 0.23567481 -1.6760492 -0.28346306 0.27094972 -0.32652384 0.40303934
4.269275 -1.6396536 -3.2501047 -2.4071207 4.994345 -3.540868 3.3351898 -3.4842908
-4.0703187 -0.8698056 -0.8060961 0.46506515 -0.45694235 0.11233833 -0.018568458 1.0387189
0.52909887 0.04505138 -0.45648503 0.23366229 0.3563165 0.47794968 -0.91025394 0.64495564
0.7914358 0.837313 7.741041 4.51975 -1.8309082 -4.443754 0.16379856 1.6239414
0.40492445 0.71750736 0.13559006 0.1037012 0.058252998 -0.018424783 -0.3546086 0.12805332
0.11819632 0.9198575 0.39977965 -0.29072598 -0.29858705 1.0401058 0.15006648 -3.385561
-4.5642796 -0.8508411 -1.0635462 -0.990968 1.4413534 -0.48478281 -0.20392424 1.1387234
1.3916184 0.38554442 -0.4535554 -0.16003211 0.106519 0.2530399 -0.3379842 -0.21873844
-0.9096327 0.08512644 1.3327181 -0.33693808 -0.3288998 -0.5984802 0.5736296 -6.6345434
-0.53076136 1.2415221 0.6481097 -0.016554218 1.6600226 0.65718096 0.29936415 0.39175415
-0.22540486 -0.72908777 0.08877915 -0.09811358 -0.37217367 -0.28550524 0.01752088 -0.9321592
0.47141436 0.6235502 -0.81535536 -0.338552 -0.060461864 -3.286235 -5.784435 -0.25755492
00000000: ec1c e1c0 0818 c4bf 36ca 0940 71b0 20bf
00000010: 75ee 04bf 0e52 873f 968d fdbf 0dce 8a3f
00000020: 4e19 1f3d e946 cebf ac7f c8bf 325c c3bd
00000030: 0b71 283b a49f 813b 82cc 853c 63bd 37be
00000040: 14b4 32be 579f 8bc0 db0c 94be 1a59 993e
00000050: 5538 83c0 02f0 073f 34f4 3abf 5440 6c3f
00000060: 6995 3cc0 04d0 6340 745f 843f 6203 3fbf
00000070: 88ba f0bf 97e4 cebf 8d6a 98bf f5e2 a2c0
00000080: 099b a83f 2cbf 25bf a7f4 21be 8f31 173d
00000090: 1ca4 3a3c 2b8f 5b3e 0157 ca3e 6594 adbe
000000a0: ef02 9dbf cc30 0b3f 5c26 8e3e ee65 47bf
000000b0: 5e36 79bf 688e 8f3e 23cd b3bf 8b18 1a41
000000c0: a986 bac0 d99f 65c0 1b06 6abe 06c1 75bf
000000d0: 1db3 37bf abe8 a03c 8669 073f a791 9d3e
000000e0: 2276 3d3e fcdb 49be d4fa 26be da4e 79bd
000000f0: b5a4 843d 9a49 94bd fc0b a53c 06ac 733d
00000100: bffc 95be 87af 73be d35a 7c3e 1ed9 e3bd
00000110: c003 bd3d 61ea 4940 1412 1a41 b06a 5fc0
00000120: 1d13 3fbc 95e0 443e 829c 3fc0 a6f4 c4bf
00000130: 098f 6f3f e676 2fbe 8cd6 b83e ed8c 06bf
00000140: bef4 2c3e 8a05 53bc faa8 c9bd 58f6 a3be
00000150: e9c1 64be 51e4 85bc 209e b93d f668 d1bd
00000160: 95c5 a1be fa38 99be db06 a5be 66a4 373e
00000170: 1802 08bf 4204 f940 c000 55bf 6a79 b0bf
00000180: f59d b23e a7c1 8e3f 7d41 e2bf a8a2 02bf
00000190: 7554 af3e c381 8e3f de7d 013d 191d 3dbe
000001a0: 7be1 1ebe 115a a83c b252 773d 3ba5 ffbc
000001b0: 1c11 b5bd 9019 803e 4de0 38be dc84 183e
000001c0: 09a1 923e a699 963f 408a 8a3d b3b6 d23e
000001d0: 9d89 8840 4260 aa3f 87e8 2b3e d809 233f
000001e0: 27a0 c5bf 3b03 8dbd c6b0 63be 02ff 28bf
000001f0: 4c78 c83e fef6 0340 13c1 00bf 302a 7e3e
00000200: 0b82 7c3e 36d3 b0be 2ed0 d8be 0d1a 72be
00000210: 9810 f83f caa4 2c3f 0731 e33f 1925 cebf
00000220: 832b 603f 02c3 49bf b2e0 efbe e7f5 7240
00000230: bbaa aebf 0116 b03f 7886 9fbf 600d a0bd
00000240: 32c8 4dbf 8ecd 3ec0 cc72 0a3e 62e6 b23f
00000250: 4939 31be 6f60 68bc 7848 30bd 8a57 bf3d
00000260: 3d19 463f 9e13 38bf bd54 713e c888 d6bf
00000270: 1222 91be ecb9 8a3e 222e a7be 2c5b ce3e
00000280: e79d 8840 2be0 d1bf b701 50c0 440e 1ac0
00000290: add1 9f40 959d 62c0 c073 5540 9ffe 5ec0
000002a0: 0d40 82c0 94ab 5ebf 505c 4ebf 051d ee3e
000002b0: 59f4 e9be a311 e63d e11c 98bc bef4 843f
000002c0: 0673 073f cc87 383d 68b8 e9be 2b45 6f3e
000002d0: 1e6f b63e d2b5 f43e 6706 69bf d01b 253f
000002e0: 899b 4a3f 255a 563f 9cb6 f740 cba1 9040
000002f0: 335b eabf 3c33 8ec0 cfba 273e 50dd cf3f
00000300: 4252 cf3e 90ae 373f 1fd8 0a3e 4b61 d43d
00000310: b29a 6e3d 92ef 96bc 428f b5be 6920 033e
00000320: ea10 f23d c87b 6b3f ebaf cc3e 09da 94be
00000330: 67e0 98be 3022 853f 07ab 193e 08ad 58c0
00000340: 940e 92c0 b9d0 59bf 4822 88bf 14b0 7dbf
00000350: 457e b83f 7435 f8be 84d1 50be b0c1 913f
00000360: 8d20 b23f 1466 c53e 6a38 e8be 75df 23be
00000370: a226 da3d 728e 813e 440c adbe f8fc 5fbe
00000380: b0dd 68bf c556 ae3d 8296 aa3f 2683 acbe
00000390: 8e65 a8be 0036 19bf 64d9 123f 2e4e d4c0
000003a0: fadf 07bf 32ea 9e3f 84ea 253f b69c 87bc
000003b0: 9f7b d43f 033d 283f 4246 993e 0094 c83e
000003c0: 88d0 66be 7fa5 3abf d8d1 b53d c6ef c8bd
000003d0: 8c8d bebe be2d 92be f387 8f3c fca1 6ebf
000003e0: 395d f13e fca0 1f3f 21bb 50bf b056 adbe
000003f0: dca6 77bd ad51 52c0 171a b9c0 3dde 83be

bias f4 [256]
-2.4182742 -2.0175457 0.6418952 4.1274858 6.019039 4.638469 -0.35686263 -2.567748
-0.4057223 -5.184818 -3.3026798 -1.248387 0.97667694 0.11246941 -4.166587 8.10931
-2.9781003 2.7903037 -0.5271793 6.0831394 0.32217583 -0.14725909 -2.1522515 -4.233391
-4.9382167 6.055647 -0.83332217 -2.8942778 0.54994655 0.5774097 -3.5446796 -4.0320725
-5.0162516 2.5258365 -2.9985538 4.614206 0.93976796 2.4683466 -5.011444 -1.9919956
-2.1893976 -2.7281897 -1.9860198 -0.7535642 0.9159229 -0.21506062 -4.3883605 -4.4520464
0.5054839 -2.4041674 -8.08966 -3.3459578 7.0373473 -0.9519047 -0.056886774 -1.1028754
-0.14518994 -0.3429395 -3.2714145 7.918094 -0.6107802 -2.1451712 0.19695723 -3.0612032
2.0920227 1.2476945 -6.346239 0.15158585 -1.1231469 7.8265476 -0.9380412 -3.753699
-5.937846 -2.2412589 1.4139844 -5.10788 -2.003724 -0.50440925 -5.2504754 -1.0030608
-2.9332778 7.3852496 -1.1223246 -0.32618243 -0.83362514 9.53909 -3.0311167 -1.2144706
-3.2139258 0.5441675 0.50526273 -1.0468686 -2.4581172 -3.4750557 2.7909899 2.4522958
-2.0097463 2.8100045 -3.3831308 -3.4294612 -0.5492485 5.3906775 -2.7535903 2.0345683
-1.414628 -1.6676508 9.553727 -0.61460865 -1.4543746 -5.9790797 -0.5466281 -0.67556036
-0.5372596 -5.6567073 1.1645396 -1.2000955 -7.295742 0.38237372 -5.281643 -6.118496
-1.6475855 0.89917576 2.7916744 -5.160444 -3.0605702 -3.4196608 -4.306045 -3.0493903
1.0725703 8.582827 -4.394486 1.6712912 -1.4550142 1.1549622 -3.429593 0.4692634
-0.07735361 1.4444077 -2.0016932 -3.6391616 -0.91713196 -6.0583415 9.128173 1.3014464
-5.2714305 -6.229881 -5.027463 -1.7874514 -5.0940623 -2.5688803 -0.7996286 -2.228066
-7.888964 8.43777 -0.056806594 0.17318633 -0.34229255 -1.0441201 0.42344385 -3.550449
-3.8436015 -4.824315 -0.8190596 -3.3534656 -2.5372527 -4.9593945 -2.1325188 3.1588216
9.648874 -5.4229794 -0.5758026 -1.8884233 5.9785013 0.6473353 1.2771362 -4.169815
3.3136575 10.439396 1.104236 -1.6495105 -0.15867384 7.8048363 -0.64040774 -3.5790653
-0.6911431 0.50486535 -2.4671545 -5.9781737 -3.4290085 -9.555907 -4.2723064 2.7464347
-2.9141111 -1.5898302 -2.232111 -5.3888083 -4.616164 -6.762256 -0.7527216 -0.40110385
-0.64625716 2.2122066 9.474848 -0.57189584 -5.6166925 9.773667 -6.614478 5.7247257
3.4662924 5.362961 -2.9027843 -0.93476707 -2.5503025 0.45819288 0.053561866 -3.4570358
-0.9774758 0.15070403 -3.2758646 -5.2434144 1.1484426 0.020490257 -0.19609208 -0.19002262
0.16067706 0.22896326 0.083643 -0.30227804 -2.593933 -0.3009263 -1.8853887 1.6537789
-0.16453937 0.37712762 0.19925371 -4.718155 -1.5273353 3.0474365 2.5165133 -3.0808547
-0.83716094 -0.2754829 -4.1359177 -3.757793 -3.1252337 -5.3005314 -0.09189215 1.0494419
-1.2048689 2.5882573 0.9643663 1.4226831 -4.4803624 -4.0492997 1.9046993 -2.9966698
00000000: 01c5 1ac0 781f 01c0 3e53 243f 5d14 8440
00000010: f89b c040 576e 9440 b3b6 b6be fc55 24c0
00000020: d5ba cfbe 07ea a5c0 1b5f 53c0 25cb 9fbf
00000030: 8007 7a3f 5d56 e63d ae54 85c0 bcbf 0141
00000040: 3299 3ec0 5694 3240 39f5 06bf 14a9 c240
00000050: 3bf4 a43e 16cb 16be 7dbe 09c0 f077 87c0
00000060: df05 9ec0 dcc7 c140 9a54 55bf d93b 39c0
00000070: 4cc9 0c3f 1fd1 133f 08dc 62c0 bd06 81c0
00000080: 2285 a0c0 4ea7 2140 4ee8 3fc0 93a7 9340
00000090: a294 703f 64f9 1d40 c05d a0c0 b6f9 febf
000000a0: 171f 0cc0 a99a 2ec0 e635 febf 95e9 40bf
000000b0: ec79 6a3f da38 5cbe 736d 8cc0 2a77 8ec0
000000c0: 6567 013f e1dd 19c0 3f6f 01c1 2c24 56c0
000000d0: f331 e140 07b0 73bf 1b02 69bd 052b 8dbf
000000e0: acac 14be c495 afbe db5e 51c0 0761 fd40
000000f0: 175c 1cbf 7c4a 09c0 28af 493e c1ea 43c0
00000100: b3e3 0540 74b4 9f3f 6414 cbc0 5239 1b3e
00000110: 47c3 8fbf 1473 fa40 7823 70bf 9b3c 70c0
00000120: d602 bec0 c970 0fc0 71fd b43f c173 a3c0
00000130: 043d 00c0 f720 01bf e503 a8c0 4c64 80bf
00000140: d3ba 3bc0 f753 ec40 55a8 8fbf 6201 a7be
00000150: 7568 55bf 1da0 1841 d1fd 41c0 c673 9bbf
00000160: f6b0 4dc0 904e 0b3f e658 013f caff 85bf
00000170: cb51 1dc0 5067 5ec0 949f 3240 6af2 1c40
00000180: af9f 00c0 1dd7 3340 3785 58c0 4b7c 5bc0
00000190: 8d9b 0cbf 6e80 ac40 d33a 30c0 5e36 0240
000001a0: 8812 b5bf 9575 d5bf 11dc 1841 fe56 1dbf
000001b0: f228 babf 9f54 bfc0 d2ef 0bbf 86f1 2cbf
000001c0: d889 09bf bf03 b5c0 a20f 953f bb9c 99bf
000001d0: b876 e9c0 7dc6 c33e 3803 a9c0 b8ca c3c0
000001e0: 15e4 d2bf 6230 663f cbaa 3240 5b22 a5c0
000001f0: 62e0 43c0 b9db 5ac0 1fcb 89c0 3629 43c0
00000200: fc49 893f 4253 0941 a19f 8cc0 dfec d53f
00000210: e83d babf cdd5 933f 747e 5bc0 4b43 f03e
00000220: 926b 9ebd 5ae2 b83f be1b 00c0 06e8 68c0
00000230: 29c9 6abf efdd c1c0 ff0c 1241 cc95 a63f
00000240: 8faf a8c0 2f5b c7c0 fae0 a0c0 35cb e4bf
00000250: 8f02 a3c0 8968 24c0 76b4 4cbf a298 0ec0
00000260: 6572 fcc0 1b01 0741 08ae 68bd c257 313e
00000270: f840 afbe baa5 85bf a2cd d83e 8e3a 63c0
00000280: 91fd 75c0 ca60 9ac0 e4ad 51bf 2e9f 56c0
00000290: 5962 22c0 5cb3 9ec0 307b 08c0 222a 4a40
000002a0: ca61 1a41 0c89 adc0 cd67 13bf dbb7 f1bf
000002b0: e24f bf40 c4b7 253f 3379 a33f 206f 85c0
000002c0: f712 5440 c407 2741 9b57 8d3f 2923 d3bf
000002d0: 657b 22be 38c1 f940 c3f1 23bf 680f 65c0
000002e0: c1ee 30bf db3e 013f dce5 1dc0 334d bfc0
000002f0: e074 5bc0 ffe4 18c1 bcb6 88c0 96c5 2f40
00000300: cc80 3ac0 8e7f cbbf e8da 0ec0 1e71 acc0
00000310: 9eb7 93c0 6764 d8c0 5db2 40bf 7c5d cdbe
00000320: 1c71 25bf cb94 0d40 fa98 1741 c467 12bf
00000330: f2bb b3c0 f160 1c41 cea9 d3c0 f430 b740
00000340: bcd7 5d40 609d ab40 38c7 39c0 e54c 6fbf
00000350: 2838 23c0 4298 ea3e b063 5b3d 1340 5dc0
00000360: db3b 7abf 2852 1a3e c4a7 51c0 0dca a7c0
00000370: 2b00 933f 2fdb a73c 5dcc 48be 4a95 42be
00000380: 8788 243e 5875 6a3e 054d ab3d 30c4 9abe
00000390: 0003 26c0 0313 9abe 6b54 f1bf 07af d33f
000003a0: 027d 28be df16 c13e 2a09 4c3e 20fb 96c0
000003b0: b97f c3bf 3309 4340 8e0e 2140 b92c 45c0
000003c0: 2e50 56bf 180c 8dbe 7059 84c0 ae7f 70c0
000003d0: d403 48c0 f49d a9c0 f431 bcbd 1d54 863f
000003e0: 2539 9abf 02a6 2540 b6e0 763f 7b1a b63f
000003f0: 215f 8fc0 dd93 81c0 30cd f33f 70c9 3fc0

weight f4 [256, 256]
-1.6556561 1.1751548 -0.2918748 -2.831088 -1.7697648 -1.5162868 -3.0164251 -1.622553
-1.148583 -1.3680844 -0.6609813 -0.79587454 0.7394748 -2.8350015 -1.2765849 -0.24988869
-2.454227 -1.9114184 0.37559694 -1.5625563 2.0229137 0.14912416 1.0615089 0.20591137
0.052751128 0.79785067 -2.22857 -3.6293242 -0.11765746 -2.8955567 -0.48405254 -6.239459
1.0023937 -1.2828056 -0.47646585 -0.89079636 -0.20766895 -3.053691 1.4974471 -3.6524565
-2.5025542 -0.6605882 0.7807567 1.8304092 -7.4322257 -2.7857404 -2.279007 1.1188055
-1.1462008 -2.0856807 -2.3870828 -4.247905 1.161663 -1.5781467 -0.34617323 -3.0820217
-2.0467298 -3.0272233 1.8641876 -0.5079911 0.78470564 -1.6194291 -1.8963162 -9.311892
-0.27592072 -3.8180091 1.9079136 -3.0814517 -3.3841946 -1.8932877 -2.4792717 0.6634419
0.39879063 -0.5659316 -1.099684 0.20595025 -2.163612 1.1238353 1.5070504 -1.8622953
2.1866894 0.55805904 -3.3737473 -0.30409813 -3.018765 -1.4675319 -1.322437 -2.2451894
-5.8847733 -0.96526515 -3.518178 -3.2487829 -1.0225657 -1.028811 -2.7024043 -1.9729478
-4.636896 -1.7539679 -0.29207727 -0.9476171 -3.8271275 -3.8625531 -0.23144826 -6.54335
-1.1938009 -2.6160004 -0.47423685 0.60774934 -3.1183286 1.1761217 -1.7717512 -1.682386
-2.155246 0.2830928 1.5450765 0.99133205 -0.60606784 -2.0591552 -0.18131155 -0.61850876
-0.83113474 -1.5137184 0.4436423 -2.6787534 0.20195468 -1.6596335 0.44927967 0.19291347
-1.5810407 -4.8707314 0.35140792 -2.679324 -3.4225967 -2.4346468 -1.7333504 0.3623192
-2.102494 -5.605194 1.3416663 -2.3627188 -2.1207826 0.74270946 -1.396481 -1.1063892
0.58718973 0.20182851 0.5853081 -1.1007364 -0.47225758 -3.3205447 -5.952995 -3.4613254
4.8395305 -0.09026467 0.65314806 -2.7684846 -4.1481056 -2.718468 -3.6429489 -0.816006
1.5420259 -1.7234536 -0.5456884 -1.7974688 -0.0015632578 -0.13530616 -0.7635776 -0.99082375
-0.066369295 0.96326196 -8.139912 2.18097 -2.3950365 -1.6193045 -0.26890317 -1.0743335
-2.0602505 -1.9615899 -1.0148997 -3.1520917 -0.42613736 -0.04774455 0.41463646 1.0182884
0.087289944 -4.887661 -4.2199407 -2.641699 1.0941508 -1.6287953 0.1926164 -2.7959392
0.46718556 1.7503579 -0.07372511 -0.83121777 -1.7568557 -3.035144 -5.965754 -1.4265248
-1.5235057 -0.9164829 -0.19283335 -1.0817455 -0.8552143 -1.2472701 -0.25357768 -2.3060791
1.1957642 -3.4248831 -1.0987755 0.06405892 0.013831287 1.4416438 -5.30718 -4.1377997
-1.9136696 -1.4495589 0.4695622 0.846958 0.80037177 -2.4220064 -1.2984549 0.042104002
-0.6845656 -1.2968044 -3.519466 -2.1597743 -1.1501815 -1.7460947 -3.1614451 -1.4098608
-0.97993934 0.5693458 -0.8757318 0.56542337 1.24051 -2.4051893 -2.5057075 -0.32997906
-1.1142845 -1.4025192 -3.1522055 1.9599186 1.0386962 -0.57757527 -0.25593042 -2.206655
0.29801494 -0.77434087 -0.048867922 -1.6213738 -1.1964095 2.2328618 -4.251079 -0.25859264
00000000: 8aec d3bf 796b 963f 9d70 95be 8c30 35c0
00000010: a787 e2bf b015 c2bf 1c0d 41c0 d1af cfbf
00000020: c504 93bf 641d afbf 1236 29bf 6fbe 4bbf
00000030: 384e 3d3f aa70 35c0 2267 a3bf d2e2 7fbe
00000040: 0e12 1dc0 5ca9 f4bf 3e4e c03e d801 c8bf
00000050: 6b77 0140 01b4 183e 86df 873f 6eda 523e
00000060: 9111 583d f13f 4c3f e4a0 0ec0 d946 68c0
00000070: 65f6 f0bd cd50 39c0 bcd5 f7be a6a9 c7c0
00000080: 704e 803f f932 a4bf 55f3 f3be 3b0b 64bf
00000090: 2ba7 54be ac6f 43c0 59ac bf3f d9c1 69c0
000000a0: d929 20c0 4f1c 29bf acdf 473f d94a ea3f
000000b0: cbd4 edc0 9249 32c0 40db 11c0 0535 8f3f
000000c0: b5b6 92bf cb7b 05c0 f7c5 18c0 d6ee 87c0
000000d0: 60b1 943f b600 cabf 9e3d b1be d83f 45c0
000000e0: 9ffd 02c0 07be 41c0 b39d ee3f b40b 02bf
000000f0: 78e2 483f 7449 cfbf 7dba f2bf 82fd 14c1
00000100: 7b45 8dbe 435a 74c0 8336 f43f 8136 45c0
00000110: a596 58c0 4057 f2bf 63ac 1ec0 54d7 293f
00000120: 492e cc3e e5e0 10bf 72c2 8cbf 9fe4 523e
00000130: 9e78 0ac0 d6d9 8f3f 07e7 c03f b15f eebf
00000140: b8f2 0b40 f5dc 0e3f 7aeb 57c0 c0b2 9bbe
00000150: 7233 41c0 16d8 bbbf 9e45 a9bf 2fb1 0fc0
00000160: 1050 bcc0 9e1b 77bf d429 61c0 0fec 4fc0
00000170: 6fe3 82bf 14b0 83bf 31f4 2cc0 8e89 fcbf
00000180: 7461 94c0 0582 e0bf 278b 95be 0997 72bf
00000190: a8ef 74c0 1234 77c0 c600 6dbe 2063 d1c0
000001a0: 78ce 98bf 8d6c 27c0 2ccf f2be 7695 1b3f
000001b0: b292 47c0 288b 963f bec8 e2bf 6d58 d7bf
000001c0: 8def 09c0 8af1 903e 11c5 c53f f0c7 7d3f
000001d0: 4327 1bbf 33c9 03c0 bca9 39be 9756 1ebf
000001e0: 3fc5 54bf 86c1 c1bf 1525 e33e b270 2bc0
000001f0: 35cd 4e3e df6e d4bf fc07 e63e 1c8b 453e
00000200: 8b5f cabf 08dd 9bc0 bdeb b33e 0b7a 2bc0
00000210: d30b 5bc0 41d1 1bc0 6dde ddbf e781 b93e
00000220: 438f 06c0 c05d b3c0 b9bb ab3f c936 17c0
00000230: e7ba 07c0 3522 3e3f e4bf b2bf 299e 8dbf
00000240: 1152 163f 22ac 4e3e c0d6 153f eee4 8cbf
00000250: bfcb f1be ce83 54c0 ef7e bec0 5b86 5dc0
00000260: 6fdd 9a40 afdc b8bd b634 273f da2e 31c0
00000270: 48bd 84c0 61fb 2dc0 1326 69c0 c5e5 50bf
00000280: 1b61 c53f 219a dcbf 3cb2 0bbf 7513 e6bf
00000290: 3ae6 ccba b38d 0abe d279 43bf a0a6 7dbf
000002a0: a0ec 87bd 5698 763f 143d 02c1 0395 0b40
000002b0: 4748 19c0 5f45 cfbf adad 89be c383 89bf
000002c0: 25db 03c0 6115 fbbf 3ce8 81bf dfbb 49c0
000002d0: ad2e dabe ca8f 43bd 3b4b d43e 4657 823f
000002e0: 12c5 b23d b867 9cc0 c109 87c0 9911 29c0
000002f0: 220d 8c3f 5d7c d0bf 3c3d 453e abf0 32c0
00000300: f232 ef3e ba0b e03f 31fd 96bd b0ca 54bf
00000310: a6e0 e0bf cd3f 42c0 75e7 bec0 5d98 b6bf
00000320: 3c02 c3bf a09e 6abf 1b76 45be a376 8abf
00000330: 53ef 5abf 8ca6 9fbf efd4 81be cd96 13c0
00000340: cd0e 993f 4931 5bc0 ada4 8cbf 5331 833d
00000350: 9f9c 623c c987 b83f 6bd4 a9c0 db68 84c0
00000360: 20f3 f4bf 258b b9bf 756a f03e 3dd2 583f
00000370: 2ae5 4c3f 2702 1bc0 c533 a6bf 3f75 2c3d
00000380: b13f 2fbf b0fd a5bf ee3e 61c0 be39 0ac0
00000390: 2639 93bf 0880 dfbf 1e55 4ac0 5276 b4bf
000003a0: 4edd 7abf a5c0 113f f62f 60bf 96bf 103f
000003b0: 08c9 9e3f 9fee 19c0 835d 20c0 04f3 a8be
000003c0: e0a0 8ebf c085 b3bf bcbd 49c0 9dde fa3f
000003d0: fff3 843f f9db 13bf 5009 83be d639 0dc0
000003e0: 6a95 983e 343b 46bf bb29 48bd 2d89 cfbf
000003f0: f223 99bf 35e7 0e40 d708 88c0 4166 84be
