log/mujoco_td3_halfcheetah_v3_0/mujoco_td3_halfcheetah_v3_0_s0/pyt_save/model.pt (torch_old, 871757 bytes, 16 tensors)

weight f4 [256, 17]
0	0x40c37d7a	6.109067
1	0xc0e92dca	-7.2868395
2	0xbc3a660e	-0.011376871
3	0x4018dfc9	2.3886588
4	0x3fa10da0	1.2582283
5	0xc0d20110	-6.5626297
6	0x40473c2f	3.1130483
7	0x40120069	2.281275
8	0xbf2d748a	-0.6775595
9	0x3fde6122	1.7373393
10	0xbf8e3189	-1.1108867
11	0x3d60b935	0.054864127
12	0xbbe71e4e	-0.007053173
13	0xbe615010	-0.22003198
14	0xbe9da10b	-0.3078693
15	0xbdd9523e	-0.106113896
16	0x3da7df99	0.08196945
17	0x413ae6ae	11.681318
18	0xc16ee4a9	-14.930825
19	0x3e367cca	0.17821041
20	0xbfb461dd	-1.4092366
21	0x3fd07b9d	1.6287724
22	0xbf786866	-0.970343
23	0xc0066c2d	-2.1003525
24	0x3e1a3401	0.150589
25	0xbe987105	-0.29773727
26	0x3f1b6c49	0.60712105
27	0xbfb601ac	-1.421926
28	0xbdd78e10	-0.10525143
29	0xbd8833b6	-0.06650488
30	0x3ced97cb	0.029003045
31	0xbd8ddf3a	-0.06927343
32	0xbde97840	-0.11399889
33	0xbc43306b	-0.011913399
34	0xc109748f	-8.590957
35	0xc002df52	-2.0448804
36	0xbf217a3b	-0.63077134
37	0x40a287f3	5.0790954
38	0xbf1d9b83	-0.6156542
39	0x404320ad	3.0488694
40	0x3fa82ff9	1.313964
41	0x3ff46afb	1.9095148
42	0xbf3fd3ac	-0.7493236
43	0xc0473827	-3.1128023
44	0xbfc327d8	-1.5246534
45	0x3eca8d78	0.39561057
46	0xbeb1394f	-0.34614035
47	0xbec37364	-0.38173974
48	0xbd2168a8	-0.03940645
49	0x3beacbaa	0.007165392
50	0x3e238429	0.15968384
51	0x3edf5ddc	0.43626297
52	0xc018e535	-2.3889897
53	0xbfae5eec	-1.3622718
54	0x3f82e3ae	1.0225732
55	0xbea8f058	-0.32995868
56	0x3f3465d0	0.70467854
57	0xbff4dc84	-1.9129796
58	0xbf962183	-1.1728977
59	0xc01934ca	-2.393847
60	0x3f7e789d	0.9940279
61	0xc020d404	-2.5129404
62	0x3e3e7327	0.18598615
63	0xbe4f0ddb	-0.20220129
64	0xbde4d709	-0.11173827
65	0xbd520fd5	-0.05128463
66	0x3d36d7b6	0.04463931
67	0x3db7b589	0.08970172
68	0xbf333300	-0.69999695
69	0xc00c08ba	-2.1880326
70	0xbf81ee3f	-1.0150832
71	0xbfc39065	-1.5278441
72	0x3f41b079	0.756599
73	0x40bfbb81	5.9916387
74	0x403a2817	2.908697
75	0x4000276b	2.002406
76	0xbe36be33	-0.17845993
77	0xc08b9c10	-4.3628006
78	0x3f168153	0.58791083
79	0xbdcad1ed	-0.099033214
80	0xbe3afd11	-0.182606
81	0x3c8a7651	0.01690212
82	0xbe04245a	-0.12904492
83	0x3e249f7d	0.16076465
84	0xbd60b5c9	-0.054860864
85	0x40c043cc	6.008276
86	0xbf4988dd	-0.7872446
87	0x406718a9	3.6108801
88	0x3f439b95	0.76409274
89	0xbeaa77de	-0.33294576
90	0x40f9e9b9	7.8097806
91	0x400353e7	2.051996
92	0x3ed30038	0.41211104
93	0xbd198178	-0.037476987
94	0x3fa283df	1.2696494
95	0xbe91b554	-0.28458655
96	0x3d3ed85e	0.046593063
97	0xbe0df6c2	-0.13863662
98	0xbc99ede8	-0.0187902
99	0xbb22c180	-0.0024834573
100	0x3c9db9d6	0.019253653
101	0xbdd82fc7	-0.10555988
102	0x40f6cb94	7.712351
103	0xbecdec81	-0.402195
104	0xbfcb3857	-1.5876569
105	0xbf282b19	-0.6569076
106	0x3ed7f57e	0.42179483
107	0xc05e7df9	-3.4764388
108	0x405c1e7e	3.439361
109	0x40259a31	2.587536
110	0xbf99a8d1	-1.2004644
111	0x4036b260	2.8546371
112	0x3ed5846d	0.41702595
113	0x3cba9dad	0.022780264
114	0x3e9434ce	0.28946537
115	0x3eb2b78c	0.3490566
116	0xbee49ba9	-0.4465001
117	0xbdb8d074	-0.09024134
118	0xbe92d24d	-0.28676072
119	0x3f5f431e	0.8721179
120	0xbf253c6f	-0.6454534
121	0x3e5e9da2	0.2173982
122	0xbfbe3308	-1.4859324
123	0x3fb73637	1.431342
124	0xbfa978bf	-1.3239974
125	0xbfb901f7	-1.4453725
126	0x3fcc6eda	1.5971329
127	0xc0417751	-3.0229075
128	0xbfbf90c5	-1.4966055
129	0xbe579f31	-0.2105682
130	0x3e620329	0.22071518
131	0xbf07e845	-0.5308879
132	0xbf0aee40	-0.5426979
133	0x3c3ab19c	0.011394884
134	0xbdf4a437	-0.11945384
135	0xbe24588c	-0.16049403
136	0x3e7de54c	0.24794501
137	0xbf4b6fa7	-0.7946724
138	0xbfa2e3bd	-1.272575
139	0x3f29ef2b	0.66380566
140	0x3f90ef40	1.1323013
141	0x3eae495b	0.3404034
142	0x3f708a35	0.9396089
143	0xbe31da05	-0.17368324
144	0xbfb61baf	-1.4227198
145	0x3ea17ce2	0.3154059
146	0xbc88c485	-0.01669527
147	0xbdd446c8	-0.10365063
148	0xbcf118f1	-0.029430838
149	0x3e0ebf10	0.13940072
150	0xbded7c7c	-0.11596009
151	0xbdd1ec92	-0.102502
152	0xbc22e746	-0.009942835
153	0xc144af45	-12.29279
154	0xc1850a79	-16.630114
155	0xc0b6d7b1	-5.7138295
156	0xc0646a87	-3.569002
157	0xbf5d9845	-0.8656047
158	0x3f0f59fe	0.5599669
159	0x3eb1514c	0.34632337
160	0x3f24bad6	0.6434759
161	0xbeea050d	-0.45706978
162	0xbfba04a7	-1.453267
163	0xbfbfe364	-1.4991269
164	0x3e235dae	0.15953705
165	0xbe13d414	-0.1443637
166	0x3dc8335d	0.09775422
167	0xbbf5fba1	-0.007506803
168	0xbe4b3a04	-0.1984635
169	0xbd5a6238	-0.053316325
170	0xbf772556	-0.96541345
171	0x400fcf4b	2.2470272
172	0x3f095f06	0.5366062
173	0x40b042e6	5.5081663
174	0xbfdf8d91	-1.7465078
175	0x3f60fa14	0.8788159
176	0x40070530	2.1096916
177	0x4008f6c4	2.1400614
178	0xbed1555e	-0.40885442
179	0xc0481299	-3.126135
180	0xbf9eb148	-1.2397852
181	0x3ea72c8b	0.3265117
182	0x3e2b23a5	0.16712816
183	0x3d847f17	0.06469553
184	0xbe515c20	-0.20445299
185	0xbde265aa	-0.11054547
186	0xbdd1a354	-0.102362305
187	0xc09b6bb4	-4.8568974
188	0xc006e3d8	-2.1076565
189	0x3fcc173f	1.5944594
190	0xbe41895b	-0.18900053
191	0xbe508418	-0.2036289
192	0xbfe5ac7b	-1.7943262
193	0xbfc3f9f5	-1.5310656
194	0xbfbf9206	-1.4966438
195	0xbfa8fc77	-1.3202046
196	0xbcb1f08b	-0.021721145
197	0xbf2ad949	-0.667378
198	0x3e8eace9	0.27866295
199	0xbdad7032	-0.08468665
200	0x3e9f1401	0.3106995
201	0x3e4cd272	0.20002154
202	0xbc6b2793	-0.014352697
203	0x3da73a3e	0.08165406
204	0x411087bd	9.033139
205	0x404bfed3	3.1874282
206	0xc0bd9afc	-5.925169
207	0x401a7419	2.413336
208	0xc0794a89	-3.8951743
209	0x3f8817b9	1.063224
210	0x3f97d28d	1.186113
211	0x3fd0897d	1.6291958
212	0xbebc6012	-0.36792046
213	0xbf39c117	-0.72560257
214	0xbf600a91	-0.87516123
215	0x3e9167f4	0.28399622
216	0xbe26eb4d	-0.16300698
217	0xbe99ae4a	-0.30015785
218	0xbe236319	-0.15955772
219	0xbe3d5346	-0.18488798
220	0xbd338773	-0.043830346
221	0x414545fa	12.329584
222	0xbecaa5da	-0.3957966
223	0x405c42c4	3.441575
224	0x3e7c4123	0.24634223
225	0x40270589	2.6097128
226	0xc017afe6	-2.370111
227	0xbfaa271c	-1.3293185
228	0x3e24b177	0.16083322
229	0xbe3c6a8d	-0.18400021
230	0x4074518e	3.8174777
231	0x3f86a639	1.0519477
232	0x3ed3e9ba	0.41389257
233	0x3e9c2451	0.30496457
234	0x3e05a52d	0.13051291
235	0xbd8ef104	-0.06979564
236	0xbddb5de6	-0.10711269
237	0xbd9558a8	-0.072923005
238	0x4186aee4	16.835396
239	0xc14956da	-12.583704
240	0x3f0ad0e1	0.54224974
241	0xbda0860d	-0.07838068
242	0x3fa426c2	1.2824328
243	0x4005300a	2.081057
244	0x3fc5f37d	1.5464932
245	0x3f88bd36	1.0682743
246	0xbec5f389	-0.38662365
247	0xc01abdf2	-2.4178433
248	0xbfb7f672	-1.4372084
249	0xbea725c4	-0.32646
250	0xbddad925	-0.10685948
251	0xbdc98eb9	-0.09841675
252	0x3e2b76e6	0.16744575
253	0x3e7debc5	0.2479697
254	0x3e8727c9	0.2639754
255	0x417df440	15.872131

bias f4 [256]
0	0xbf9dc30f	-1.2325152
1	0x3fffbd32	1.9979613
2	0xbe43ef9c	-0.19134372
3	0xc062f169	-3.5459845
4	0xc0970d1d	-4.7203507
5	0xbfc196f9	-1.5124198
6	0xbfc4b8ec	-1.5368934
7	0xc03939bb	-2.8941486
8	0xc0733a81	-3.8004458
9	0x3f989d5e	1.1923025
10	0xbe316651	-0.17324187
11	0x406ae567	3.6702516
12	0x3f2360b0	0.6381941
13	0xc083acbe	-4.1148367
14	0xbf9df6e2	-1.2340968
15	0xbfa6ed67	-1.30412
16	0xc03ba565	-2.93197
17	0xbeec4e4e	-0.46153492
18	0xc096c42b	-4.7114463
19	0xc0493f1f	-3.1444776
20	0x3f83f30c	1.0308547
21	0xbf93a0f1	-1.153349
22	0xbf9a35b0	-1.2047634
23	0xc01c1025	-2.4384854
24	0xc052fdd3	-3.2967422
25	0xbfef88c7	-1.8713616
26	0x3f5cd026	0.8625511
27	0xc010b6c9	-2.2611563
28	0xbfb998ee	-1.4499795
29	0xc04b1960	-3.1734238
30	0xbfcfa848	-1.622323
31	0x40185da5	2.3807156
32	0xbe2ae167	-0.16687547
33	0xc05fddd1	-3.4979136
34	0xc064fea3	-3.5780418
35	0xc021045b	-2.5158908
36	0xc009e49e	-2.1545787
37	0xc082b944	-4.0851154
38	0xc07755eb	-3.864619
39	0xc0624fca	-3.53612
40	0xbfba5119	-1.4555999
41	0xc03a9985	-2.91562
42	0xbfea4513	-1.830233
43	0xc07f6062	-3.9902577
44	0xc051b78f	-3.2768285
45	0xc06b5bd4	-3.6774797
46	0xc03dbe76	-2.9647498
47	0xc00c966a	-2.1966805
48	0xc082c64e	-4.086707
49	0x3fabb66c	1.3415046
50	0xc08afa88	-4.3430824
51	0xc074cba0	-3.8249283
52	0xc00b3fae	-2.1757617
53	0xc02140ed	-2.5195878
54	0xc08681d1	-4.2033467
55	0xbf583692	-0.8445827
56	0xc01e3fb6	-2.4726386
57	0xc08fbbfe	-4.4916983
58	0x3e73dbcb	0.23814313
59	0xbedfc4c7	-0.43704817
60	0xc00d3b39	-2.2067397
61	0xbff646d3	-1.9240364
62	0xc05d01ac	-3.453227
63	0xbfe75968	-1.807416
64	0x3fade065	1.3584105
65	0x40a2fc57	5.093303
66	0xc01af071	-2.4209254
67	0xc064e234	-3.5763063
68	0xc0ab3530	-5.3502426
69	0xc02fbdff	-2.7459714
70	0xc0405767	-3.0053346
71	0xc02ba7c8	-2.6821156
72	0xc0605864	-3.505395
73	0xc01d1825	-2.4545987
74	0xc0067832	-2.1010861
75	0xbfc16f29	-1.5112048
76	0xc030fb40	-2.765335
77	0xc0198e5c	-2.399314
78	0xbfa55b98	-1.2918577
79	0x3e87a18c	0.26490438
80	0xc07978ed	-3.8980057
81	0xbedb9bb0	-0.42892218
82	0xbfce2a50	-1.6106663
83	0xbfc21550	-1.5162754
84	0xbe935d45	-0.28782097
85	0x3f4a1ebb	0.7895314
86	0xc0101a9f	-2.2516248
87	0xc035f899	-2.8432982
88	0xc00476ce	-2.0697513
89	0xbfa9ecd6	-1.3275402
90	0xc03a80aa	-2.914103
91	0xbfd96929	-1.6985217
92	0xbfbb5d7d	-1.4637905
93	0xbfbd57b7	-1.4792393
94	0xc0236354	-2.5529375
95	0xc064177f	-3.563934
96	0xc035fef4	-2.843686
97	0xbff587c7	-1.9182061
98	0xc05c2739	-3.439894
99	0xc01022c1	-2.2521212
100	0xbfc25da7	-1.518483
101	0xc03f8fff	-2.9931638
102	0xc028125f	-2.6261213
103	0xbfc8d1ae	-1.5688989
104	0xc0507b56	-3.2575278
105	0x400c6813	2.1938522
106	0xc0a0c16d	-5.0236115
107	0xbdbf1007	-0.09329229
108	0xc084f996	-4.155467
109	0xc00c236d	-2.1896622
110	0xbf3cdbb0	-0.73772717
111	0xc043a807	-3.0571306
112	0xc04d178a	-3.2045617
113	0xc002da89	-2.0445883
114	0x40146a25	2.3189785
115	0xc024a375	-2.5724766
116	0xbfe61c4b	-1.7977384
117	0x405b537a	3.42697
118	0xc05fb8b8	-3.4956493
119	0xc04e218d	-3.2207978
120	0xc05841d1	-3.379017
121	0xc010201b	-2.2519596
122	0xbfb67a9e	-1.425617
123	0xc08d3c20	-4.4135895
124	0x3e8ced76	0.27524918
125	0xc08592aa	-4.1741533
126	0xc0419d09	-3.0252097
127	0xc0334f71	-2.8017237
128	0xc02c5be4	-2.6931086
129	0xc0876b00	-4.2318115
130	0xc037185c	-2.8608618
131	0xc07949e6	-3.8951354
132	0xbef5cb21	-0.48006538
133	0xc06954b4	-3.6457949
134	0xc037c466	-2.8713622
135	0xc0872fe4	-4.224596
136	0xc051230d	-3.2677643
137	0xc049bccc	-3.1521482
138	0xc0226ba9	-2.537821
139	0xbf1c9610	-0.6116648
140	0xc0034a27	-2.051401
141	0x40493b22	3.1442342
142	0xc00f8291	-2.2423441
143	0xc04eda64	-3.2320795
144	0xc05f0fc1	-3.4853365
145	0xbe60ecb7	-0.219653
146	0x3f64f2ab	0.8943278
147	0xc0862c49	-4.192906
148	0xbf066a25	-0.52505714
149	0xc030c3c6	-2.761949
150	0x3ce54a25	0.027989456
151	0xc070d431	-3.7629511
152	0xc079e700	-3.9047241
153	0xc04a3291	-3.1593363
154	0xc016c603	-2.3558357
155	0xbe592b20	-0.21207857
156	0x3f798b15	0.9747785
157	0xc020a038	-2.509779
158	0xbfb6472e	-1.4240472
159	0xc0572140	-3.3614044
160	0xc0822248	-4.0666847
161	0xbfed2b21	-1.8528787
162	0xbcf904fd	-0.030397886
163	0xc08b5d4b	-4.3551383
164	0xbfeafb41	-1.8357927
165	0x3f7e57ff	0.9935302
166	0xc048a74c	-3.135211
167	0x3d49f942	0.049309976
168	0xc0469408	-3.102785
169	0xc052c842	-3.2934728
170	0xc043384b	-3.0503109
171	0xbee5e120	-0.4489832
172	0x40640ff6	3.5634742
173	0xc02af80c	-2.6713896
174	0xc04a3ce2	-3.159966
175	0xc006eaa9	-2.1080725
176	0xc0a7a3e5	-5.2387567
177	0xc0527723	-3.2885215
178	0xc02d193e	-2.7046657
179	0xbed8267d	-0.42216864
180	0xc099a4c1	-4.8013616
181	0xbf951750	-1.164774
182	0xbf87602c	-1.0576224
183	0x3f2ccc2d	0.6749905
184	0xbfbabec3	-1.4589466
185	0xc05fcd93	-3.4969223
186	0xc07f53a3	-3.9894798
187	0xc0781b5e	-3.8766704
188	0xbf71a822	-0.94397175
189	0xbfc74365	-1.5567442
190	0x4005029f	2.078285
191	0x404d3513	3.2063644
192	0x3f5d7fe9	0.865233
193	0xbf853646	-1.0407188
194	0xc04eb869	-3.2300055
195	0xbf7b6652	-0.98203003
196	0x3f4505ea	0.7696215
197	0xc05239d1	-3.2847788
198	0xbf7150e8	-0.9426408
199	0xc09dd26b	-4.931936
200	0xbeea05cd	-0.4570755
201	0xc041b65e	-3.0267558
202	0xc05b142e	-3.4231067
203	0xc067e22d	-3.6231797
204	0xc0209d71	-2.5096095
205	0xbffd5418	-1.9791288
206	0xbfe848e2	-1.8147242
207	0xc088a4ee	-4.270133
208	0xc0476d9c	-3.116065
209	0xbee102cd	-0.4394745
210	0x40a5335c	5.1625195
211	0xc090df43	-4.5272536
212	0xbf92b7fb	-1.1462396
213	0x3e95c1ca	0.29249412
214	0xc051e8be	-3.2798305
215	0xc08b6977	-4.356624
216	0xc08a0daa	-4.314168
217	0xbfa827b8	-1.3137121
218	0xc0839a3d	-4.112578
219	0xc0175a70	-2.3648949
220	0x3e16550d	0.14680882
221	0xc056bc87	-3.3552568
222	0xbffc150b	-1.9693922
223	0xc02e81bf	-2.726669
224	0xc06c7ff5	-3.6953099
225	0xc032fc5b	-2.7966526
226	0xc07a614a	-3.912188
227	0x3f8025c8	1.001153
228	0xc00e2876	-2.2212195
229	0xc08d882a	-4.4228716
230	0xc04bd3bf	-3.184799
231	0xc0886ca9	-4.263264
232	0x4009914e	2.1494937
233	0xc0042563	-2.064782
234	0xbf731de0	-0.9496746
235	0xc02df66f	-2.718166
236	0xc00b1606	-2.1732192
237	0xbfb0a183	-1.379929
238	0x40090f41	2.141556
239	0xbff1fa5f	-1.8904532
240	0xc0c48cb1	-6.1421742
241	0x3fb3ac70	1.4036999
242	0xbf8868c4	-1.0656972
243	0xbfa9186d	-1.3210579
244	0xbfffe835	-1.9992739
245	0x3e267ffd	0.16259761
246	0xc04b4a39	-3.1764052
247	0xc0951e72	-4.6599665
248	0xbf2900fb	-0.6601712
249	0xc0065ee4	-2.0995417
250	0xc00e6409	-2.2248557
251	0xc009d3a2	-2.153542
252	0xbfcb572b	-1.5885977
253	0xbf39cc17	-0.7257704
254	0xc07ed8b1	-3.9819758
255	0x3fa35ab2	1.2762053

weight f4 [256, 256]
0	0x3c8a0b54	0.016851105
1	0xbdb3dd7a	-0.08782478
2	0xbe92a665	-0.28642574
3	0x3e365e69	0.17809452
4	0xbe99769d	-0.29973307
5	0xbf258126	-0.6465019
6	0xbc78d659	-0.015187823
7	0x3e41a97a	0.18912306
8	0xbf1735d9	-0.5906654
9	0xc002c2f1	-2.0431483
10	0xbeeb11b3	-0.4591194
11	0xbea8c1bb	-0.32960305
12	0xbdde993a	-0.108690694
13	0xbe42e302	-0.19031909
14	0xbc45dddf	-0.012076824
15	0xbf5e6190	-0.8686762
16	0xbef29bfa	-0.47384626
17	0xbfba4873	-1.455336
18	0x3efa5df8	0.48899817
19	0xbf2a795e	-0.6659144
20	0x3d95a135	0.073061384
21	0x3eb11d83	0.34592828
22	0xbfec7406	-1.8472908
23	0x3e9f77a2	0.3114596
24	0xbf18d05f	-0.5969295
25	0xbf440e12	-0.7658397
26	0xbf24ccc8	-0.6437497
27	0xbd925f9b	-0.071471415
28	0x3da150c9	0.07876737
29	0x3d461ffb	0.048370343
30	0xbf96e882	-1.1789706
31	0xbf89f4fd	-1.077789
32	0xbe7a5e7e	-0.24450108
33	0xbf47f96b	-0.78114957
34	0x3ea04492	0.31302315
35	0xbf5629a0	-0.83657265
36	0xbef375b6	-0.47550744
37	0x3e86efc5	0.26354805
38	0x3ecf8e77	0.4053838
39	0xbe387fdb	-0.18017523
40	0xbf0bee1d	-0.5466021
41	0x3e078743	0.13235192
42	0xbed17802	-0.4091187
43	0x3e336dc9	0.17522348
44	0x3e472290	0.19446778
45	0xbf87cfd3	-1.0610298
46	0xbc3b96e7	-0.011449552
47	0xbe0a0184	-0.1347714
48	0xbfb11dc3	-1.3837208
49	0xbcb9e838	-0.022693738
50	0xbeb5540c	-0.35415685
51	0x3d0b1a0d	0.03396039
52	0xbeb98fba	-0.36242467
53	0x3f1d30ea	0.6140276
54	0xbe4fe24e	-0.20301172
55	0xbd84e414	-0.06488815
56	0xbe01b5d6	-0.12667021
57	0xbf092adc	-0.53581023
58	0xbee0a53e	-0.4387607
59	0x3dc5fb7b	0.09667107
60	0xbe8c6ccb	-0.27426752
61	0x3df61fad	0.120177604
62	0x3d008b9f	0.031383153
63	0x3f46a0a3	0.7758886
64	0xbf44a138	-0.768085
65	0xbf8ca3a8	-1.0987444
66	0xbd3a2fd7	-0.04545578
67	0xbf7bb7fa	-0.983276
68	0x3cd692a3	0.026192969
69	0xbf074c84	-0.5285113
70	0xbf5c828b	-0.8613669
71	0xbe9d7fad	-0.3076147
72	0xbda3109d	-0.07962153
73	0x3edc4ace	0.4302582
74	0xbf6b0049	-0.9179731
75	0xbf60c2f9	-0.87797505
76	0xbf471bf4	-0.7777703
77	0xbdbadf4c	-0.09124622
78	0xbe8d8034	-0.27636874
79	0x3e506b3f	0.20353411
80	0x3ed6f4cf	0.4198365
81	0x3e3ac909	0.18240751
82	0xbf100a09	-0.5626531
83	0x3f020e00	0.5080261
84	0xbda0ceb9	-0.07851929
85	0xbe11d792	-0.1424239
86	0xbf624dbb	-0.8839986
87	0x3f2bad6e	0.6706151
88	0x3f67d9d4	0.90566754
89	0xbe14e44a	-0.1454021
90	0xbeec18f5	-0.4611279
91	0xbf25f3b5	-0.6482499
92	0x3e504457	0.2033857
93	0xbc6f091c	-0.014589574
94	0xbf2da2f9	-0.678268
95	0x3e027570	0.12740111
96	0x3e952ca6	0.29135627
97	0x3e299cb0	0.16563678
98	0x3e7969f1	0.2435682
99	0xbe992e86	-0.29918307
100	0xbf8338e3	-1.0251735
101	0x3f26b021	0.651125
102	0xbf01626e	-0.50540817
103	0xbf7d5f90	-0.9897394
104	0xbf2d170b	-0.67613286
105	0xbea28f9a	-0.31750184
106	0xbed1ed42	-0.41001326
107	0xbf8f4bf7	-1.1195058
108	0xbea6ff15	-0.32616487
109	0xbe199c94	-0.15001136
110	0xbf901e8c	-1.1259322
111	0xbf38fe72	-0.7226325
112	0xbcd3013c	-0.025757425
113	0x3dfab90a	0.12242325
114	0x3c758d79	0.014987343
115	0xbf97f745	-1.1872336
116	0xbe45079b	-0.19241183
117	0xbd841630	-0.064495444
118	0x3ecaeb68	0.39632726
119	0xbe81a045	-0.25317588
120	0x3e2e9edc	0.17052788
121	0xbdc37146	-0.095430896
122	0xbe3ec85a	-0.18631116
123	0xbe827f74	-0.25487864
124	0xbf206903	-0.62660235
125	0xbe9c07fe	-0.30474848
126	0xbf665897	-0.8997893
127	0xbf933c44	-1.1502767
128	0xbdfb6dbc	-0.122767895
129	0xbfb3a68e	-1.4035203
130	0xbef8c396	-0.4858672
131	0xbf95834f	-1.1680697
132	0x3dafca7d	0.085835434
133	0x3f172d77	0.5905375
134	0x3e86f10f	0.26355788
135	0x3f369557	0.71321625
136	0x3e870154	0.263682
137	0xbf22b221	-0.63553053
138	0xbf2e22dd	-0.6802195
139	0x3d139709	0.03603271
140	0xbf15031e	-0.5820788
141	0xbfb7db24	-1.4363751
142	0xbf5d0ada	-0.86344683
143	0xbecaad57	-0.39585373
144	0xbef9f0c8	-0.48816514
145	0xbf422729	-0.75841004
146	0xbf511261	-0.8166867
147	0xbe252b00	-0.16129684
148	0x3ebe0482	0.37112814
149	0x3f31c8f8	0.6944728
150	0x3dc6f765	0.097151555
151	0xbdb0f356	-0.08640163
152	0xbf86480e	-1.0490739
153	0xbea9b986	-0.33149356
154	0x3ed04d00	0.40683746
155	0x3eae903c	0.34094417
156	0x3da9d886	0.08293252
157	0x3ecf04f0	0.40433455
158	0xbebf2466	-0.37332457
159	0x3efdfc35	0.4960648
160	0xbefc8b77	-0.49325153
161	0xbe5ea755	-0.2174352
162	0x3e46c5c4	0.19411379
163	0xbe7a3628	-0.24434721
164	0xbee4f759	-0.4471996
165	0xbeb31bf4	-0.34982264
166	0xbe98e10b	-0.29859194
167	0xbf30c68b	-0.6905295
168	0x3f0c98a8	0.54920435
169	0xbdcb3ca9	-0.099236794
170	0xbebf55e3	-0.37370214
171	0xbf7a0498	-0.9766326
172	0xbebaea32	-0.36506802
173	0x3eff4fc4	0.49865544
174	0xbf05be02	-0.52243054
175	0x3ee351d7	0.44398376
176	0xbf95a777	-1.1691731
177	0xbebe3846	-0.37152308
178	0xbe9d3728	-0.30706143
179	0xbe921439	-0.28531054
180	0xbe88a5ef	-0.26689097
181	0xbea2a1ad	-0.31763974
182	0x3e6a4e1c	0.22881359
183	0x3e36a281	0.17835428
184	0x3f1a7a50	0.60342884
185	0xbe0a6a7d	-0.13517185
186	0xbea1f71f	-0.3163385
187	0xbf2a6cff	-0.66572565
188	0xbe886695	-0.26640764
189	0x3ee55a03	0.44795236
190	0xbdd72276	-0.1050462
191	0xbf3ee74c	-0.7457168
192	0xbc0c6d46	-0.008570975
193	0xbf34aace	-0.7057313
194	0xbe42841b	-0.18995707
195	0xbe9b68b0	-0.30353308
196	0x3e690609	0.22756208
197	0x3e2808f9	0.16409673
198	0x3f72ed65	0.94893485
199	0xbe946b03	-0.28987893
200	0x3eb8956a	0.36051494
201	0x3d591c7a	0.053005673
202	0x3ebd5267	0.3697693
203	0x3ed5a3cc	0.4172653
204	0xbf0fce8a	-0.5617453
205	0xbf049d8c	-0.518029
206	0xbf2a4dc3	-0.66524905
207	0xbe9e01d3	-0.30860767
208	0x3e05c22c	0.13062352
209	0xbf8bc056	-1.0918071
210	0xbefc27a6	-0.49249
211	0xbf318d7f	-0.6935653
212	0x3e15e888	0.14639485
213	0xbf39c9a5	-0.7257331
214	0xbf055cda	-0.52094805
215	0xbf69521b	-0.9114091
216	0xbf47e725	-0.78087074
217	0xbf62ceb2	-0.8859664
218	0xbec663c1	-0.3874798
219	0x3e8928a0	0.26788807
220	0xbefa0645	-0.48832908
221	0x3dc7472f	0.09730374
222	0x3f436c2d	0.7633694
223	0xbf6b2f55	-0.918691
224	0xbee1a2ea	-0.44069606
225	0x3ea97f90	0.33105135
226	0xbe2cfcf2	-0.16893366
227	0x3e72b06b	0.2370011
228	0xbe415655	-0.1888059
229	0x3e21dd0a	0.15806976
230	0xbf894ef9	-1.0727226
231	0x3d4fb6d9	0.050711486
232	0xbfb78d1f	-1.4339942
233	0x3e91c126	0.28467673
234	0xbec721c8	-0.3889296
235	0x3bad37f3	0.0052862107
236	0x3f2af772	0.6678382
237	0x3e750298	0.2392677
238	0xbee7095c	-0.45124328
239	0x3d24b0ac	0.04020755
240	0xbe34b9b3	-0.17648964
241	0x3ea84ed5	0.32872644
242	0xbf5e3b36	-0.868091
243	0x3edfe112	0.43726403
244	0xbe351ce4	-0.17686802
245	0xbe669681	-0.2251835
246	0xbf59625b	-0.84915704
247	0xbfbcea43	-1.4758991
248	0xbdfb9dfd	-0.12285993
249	0xbf52d383	-0.8235399
250	0x3e6320cc	0.2218048
251	0xbeccc178	-0.39991355
252	0x3d43fc9d	0.047848333
253	0xbed883b2	-0.42287976
254	0xbf62b5a7	-0.8855843
255	0xbf0421ca	-0.5161406

bias f4 [256]
0	0xbe87f4a2	-0.26553828
1	0xbd6fb6d8	-0.058523983
2	0xc0235eba	-2.5526567
3	0xbfbcd1ed	-1.4751564
4	0xbf9103fb	-1.132934
5	0xbd081487	-0.0332227
6	0xbfb1e63a	-1.3898385
7	0xbf5740b6	-0.84083116
8	0xc0257bc0	-2.585678
9	0xc0214595	-2.519872
10	0xbf3c2249	-0.73489815
11	0xbdbf7650	-0.09348738
12	0x3eb12c5f	0.34604165
13	0x3c054411	0.008133904
14	0xbf2949bc	-0.66128135
15	0x3bdad2c5	0.0066779577
16	0x3f859f53	1.0439247
17	0xbfa94ddf	-1.3226889
18	0xbddb2ca8	-0.10701877
19	0xbf350e6b	-0.70725125
20	0xbf7c2f0e	-0.985093
21	0xc01b93eb	-2.4309032
22	0xbeb82c9c	-0.35971534
23	0xbdab21aa	-0.0835603
24	0xbf46d31e	-0.7766589
25	0x3c37fd88	0.01122988
26	0xbd811293	-0.06302371
27	0xbfb84705	-1.4396673
28	0xbdbf860d	-0.0935174
29	0xc01e2df9	-2.471556
30	0xbe08156b	-0.1328942
31	0xbe182265	-0.1485687
32	0xbde3585c	-0.111008376
33	0xbf9cf129	-1.2261096
34	0xbcdb8c78	-0.02680038
35	0xbd4cda50	-0.050012887
36	0x3f7e1c35	0.9926179
37	0xc01aba0b	-2.4176052
38	0xbfd4f554	-1.6637368
39	0xc04b6e08	-3.1785908
40	0xbc855a29	-0.016278343
41	0x3e94c556	0.29056805
42	0xbda3163a	-0.07963224
43	0x4065f43f	3.5930326
44	0xbeddb7a9	-0.43304184
45	0xbfbc3ff2	-1.4707015
46	0xbd4ddbd4	-0.050258473
47	0xbec50e72	-0.38487583
48	0xbf79bf48	-0.975575
49	0x3ec3a8f8	0.3821485
50	0xbef8ff37	-0.48632213
51	0xbdb9258a	-0.09040363
52	0x3ddb5370	0.10709274
53	0xbfb793d8	-1.4341993
54	0xbd0733d3	-0.033008408
55	0xbfdae4c7	-1.7101067
56	0xbd6cd430	-0.057819545
57	0x3f166913	0.5875408
58	0xbfc100a9	-1.5078326
59	0xbdbccbc3	-0.09218552
60	0xbcc2d5eb	-0.023783645
61	0xbe54f851	-0.2079785
62	0xc04ba277	-3.181791
63	0xbe2f602c	-0.1712653
64	0xbd9c0808	-0.07618719
65	0x3ee1150e	0.43961376
66	0xbdc60f26	-0.09670858
67	0xbdc81477	-0.09769528
68	0xbedac3e1	-0.4272757
69	0xbe079dc9	-0.13243784
70	0xc0280685	-2.625398
71	0xbc8b2fee	-0.016990628
72	0xbfffb6e5	-1.997769
73	0x3fe47e1c	1.7850986
74	0xbdbfae17	-0.09359377
75	0xbf1b0d96	-0.60567605
76	0xbfe3bab1	-1.7791349
77	0xbf9ae80e	-1.2102067
78	0x3e413aae	0.18870041
79	0xbf8b1a4d	-1.0867401
80	0x3ec08cc1	0.37607387
81	0xbfaacc7b	-1.3343652
82	0xbfa2642a	-1.2686818
83	0xbd3b4a24	-0.045725003
84	0xbe06217b	-0.1309871
85	0xbe0050f2	-0.12530878
86	0xbf8ee170	-1.1162548
87	0xbdd9157f	-0.10599803
88	0xbf98a54a	-1.1925442
89	0xbfafcbe1	-1.3734094
90	0xbfa3ccb6	-1.2796848
91	0xbd78e70e	-0.060767226
92	0xbe160aa9	-0.14652504
93	0xbdeca888	-0.11555582
94	0xbf6dc022	-0.92871296
95	0xbd5c7a3d	-0.053827513
96	0xbf31cea5	-0.6945594
97	0xbe2c9380	-0.16853142
98	0xbd4cba0b	-0.049982112
99	0xc06596fa	-3.5873399
100	0xbf35d18d	-0.71022874
101	0x3e2cff82	0.16894343
102	0x3bfae8e0	0.0076571554
103	0xbf817199	-1.0112792
104	0xbffda74d	-1.9816681
105	0xbff8fc54	-1.9452004
106	0x40066093	2.0996444
107	0xbd882537	-0.06647723
108	0xbda1e71c	-0.07905409
109	0xbd860f82	-0.06545927
110	0xbf13070a	-0.57432616
111	0xbf23c4f4	-0.639724
112	0xbec612e6	-0.38686293
113	0xbf246db3	-0.6422989
114	0xbdc88c8e	-0.09792434
115	0xc01e3f07	-2.472597
116	0xbfa3e7be	-1.2805097
117	0xbdc15ba2	-0.09441306
118	0xbf471a07	-0.7777409
119	0xbfaf1f8c	-1.3681502
120	0xbd96f5ac	-0.07371077
121	0x3ec319b8	0.3810556
122	0xbd8157b5	-0.06315557
123	0x3d6f30a3	0.058395993
124	0xbfecf49c	-1.8512149
125	0xbfa27f99	-1.269519
126	0xc047ce10	-3.121952
127	0xbf312321	-0.6919423
128	0xbd31f421	-0.04344571
129	0xbf624e93	-0.88401145
130	0xbd525b92	-0.05135686
131	0xbc0eccab	-0.008715789
132	0xc01324da	-2.2991242
133	0xc0167600	-2.3509521
134	0xbd8e2741	-0.06941081
135	0xc02b4deb	-2.6766307
136	0xbdb386c9	-0.087659426
137	0xbf3c31ef	-0.7351369
138	0xbdace3b8	-0.084418714
139	0xbf062b18	-0.52409506
140	0xbcc91345	-0.024545321
141	0xbee25c73	-0.44211158
142	0xbda9fadb	-0.082998
143	0xbec70ed5	-0.38878503
144	0xbdf4348e	-0.119240865
145	0xbf834d7a	-1.0258019
146	0xbfda91b5	-1.7075716
147	0xbdd8dfa5	-0.10589532
148	0xbd1b2174	-0.0378737
149	0xbda93b28	-0.08263236
150	0x3ff24ed4	1.8930306
151	0xbdcfe9a5	-0.10151986
152	0xbef63d6d	-0.4809374
153	0xbd1e854f	-0.03870135
154	0xbd69bf40	-0.057067156
155	0xbd7ef414	-0.06224449
156	0xc0806783	-4.0126357
157	0xbd81dc52	-0.06340851
158	0xbce1ea02	-0.027577404
159	0xc0257a21	-2.5855792
160	0xbf715f29	-0.9428583
161	0xbf3f7eb5	-0.74802715
162	0xbf042449	-0.51617867
163	0xbdaf95b7	-0.08573478
164	0xc02b72ad	-2.6788743
165	0xbf223ed9	-0.6337715
166	0xbd051a15	-0.032495577
167	0xbdc5f963	-0.09666707
168	0xbec45ba1	-0.38351157
169	0xbe0ff3d1	-0.14057852
170	0xc024ac7b	-2.5730274
171	0xbcceab0e	-0.02522805
172	0x3e5ad03c	0.21368498
173	0xbfa2c025	-1.2714888
174	0xbef9e52e	-0.48807663
175	0x3f0b5321	0.5442372
176	0xbd9522ac	-0.07282004
177	0xc0385ced	-2.8806717
178	0xbd913150	-0.07089484
179	0xc0120d17	-2.282049
180	0xbf01ce07	-0.50705
181	0x3ea81fca	0.32836753
182	0x3f9652ea	1.1744053
183	0xbf8dbb40	-1.1072769
184	0xbdb5df8a	-0.08880527
185	0xc0244ee2	-2.5673146
186	0xbde832d4	-0.1133782
187	0xbda8dc1a	-0.08245106
188	0xbe480de3	-0.19536547
189	0x3cb588b4	0.022159912
190	0xbdf63992	-0.120226994
191	0xc003a369	-2.0568488
192	0xbd6c8e71	-0.05775303
193	0xbc024280	-0.007950425
194	0xbf421dc3	-0.7582666
195	0xbd771eb7	-0.060332026
196	0xbe62f4cd	-0.22163697
197	0x3a9ad356	0.0011812251
198	0xbfc852b9	-1.5650245
199	0xbf708853	-0.93958014
200	0xbe8ec924	-0.27887833
201	0xbd95651f	-0.07294678
202	0xbd9ef508	-0.0776158
203	0xbf8a0768	-1.078351
204	0xbd387430	-0.04503268
205	0xbf5da29d	-0.86576253
206	0xbef6617a	-0.48121244
207	0xbd1961dc	-0.03744684
208	0xbc549597	-0.012975118
209	0xbfb99101	-1.4497377
210	0x4021d62f	2.5286977
211	0xbfa048af	-1.2522181
212	0xbd794d73	-0.060864877
213	0x3ebc23ab	0.36745963
214	0x3ca9f789	0.020747917
215	0xbd4e9378	-0.050433606
216	0xbd53ae9b	-0.05168019
217	0xbed6b8bf	-0.41937825
218	0xbefb895c	-0.49128234
219	0xbd9dfbe3	-0.07714059
220	0xbfa06cb2	-1.2533171
221	0xbaba8eb2	-0.00142332
222	0xbbcacaf9	-0.006188747
223	0xbf589abd	-0.8461111
224	0xbf42d089	-0.7609945
225	0xbe15a219	-0.14612617
226	0xbf47c0e7	-0.7802872
227	0xbff95ce5	-1.9481474
228	0xbdb70340	-0.08936167
229	0xbd11c43d	-0.035587538
230	0xc0135fc2	-2.3027196
231	0xbd7edcb3	-0.062222194
232	0xc053548d	-3.3020356
233	0xc005a446	-2.0881515
234	0xbf67d370	-0.90557003
235	0x3eece357	0.46267197
236	0xbfafa759	-1.3722945
237	0xbf1da663	-0.6158201
238	0xbe45ccd8	-0.19316423
239	0x3fbdcdf4	1.4828477
240	0xbe44301d	-0.19158979
241	0xc0224a60	-2.5357895
242	0xbfce2368	-1.6104555
243	0xbd430e15	-0.04762085
244	0xbe0330f9	-0.1281165
245	0xbd243eae	-0.04009884
246	0x3fd76fef	1.6831034
247	0xbd810b00	-0.06300926
248	0xc0055dc1	-2.0838473
249	0xbfa345eb	-1.2755712
250	0xbe8f09be	-0.2793712
251	0xbe3761f3	-0.17908458
252	0x3f098507	0.5371861
253	0xbe07e819	-0.13272132
254	0xbf7026c7	-0.9380917
255	0xbf1470d0	-0.5798464

weight f4 [6, 256]
0	0xbeb38185	-0.35059753
1	0x3dde1f32	0.10845794
2	0x3d329128	0.043595463
3	0x3fbdfb0b	1.4842237
4	0x4003e46e	2.0608172
5	0xbcb363ca	-0.02189817
6	0xbdedbf3a	-0.11608739
7	0x3e948d48	0.2901404
8	0x3fe6e47f	1.8038481
9	0x3f5ca1c1	0.86184317
10	0x3dc3b1bd	0.09555385
11	0xbcd8b495	-0.026453296
12	0xbf15cd7f	-0.5851669
13	0xbdb94f22	-0.090482965
14	0xbf057889	-0.5213705
15	0xbd631d0c	-0.055447623
16	0xbf109b67	-0.56487125
17	0x3e16abd9	0.14713992
18	0xbcaa0476	-0.02075408
19	0x3f2e1eb8	0.68015623
20	0xbe1d84f0	-0.15382743
21	0xbb680573	-0.0035403639
22	0xbd5840e3	-0.052796256
23	0xbd91c8cd	-0.07118378
24	0x3f0ae657	0.5425772
25	0xc0274c99	-2.6140501
26	0xbd225c2a	-0.039638676
27	0x3eef3778	0.46722007
28	0x3cabacc8	0.020956412
29	0xbd9eea36	-0.07759516
30	0x3b2c26e2	0.0026268293
31	0x3d809cf5	0.06279937
32	0x3b986613	0.00465084
33	0x40105005	2.254884
34	0xbd582735	-0.052771766
35	0xbc374278	-0.011185281
36	0x3fd40d45	1.656655
37	0x3f83106b	1.0239385
38	0xbf418c01	-0.75604254
39	0x401b13f6	2.4230933
40	0xbd2f274c	-0.042762086
41	0xbede6b9b	-0.4344147
42	0xbc633fac	-0.013870161
43	0x3dff31ee	0.12460695
44	0xbecb03a8	-0.39651227
45	0x3edf0092	0.43555123
46	0xbb65aad2	-0.0035044444
47	0x3eca797a	0.39545804
48	0xbbfb15dd	-0.0076625184
49	0x4046ff79	3.1093428
50	0x3fa66cc3	1.3001941
51	0xbd6ea733	-0.058264922
52	0xbd39df75	-0.04537912
53	0xbd9da04f	-0.07696592
54	0xbc7a5f57	-0.01528152
55	0x3f23de37	0.6401095
56	0x3c8f4294	0.017487802
57	0xbf981caa	-1.1883748
58	0xbfa00015	-1.2500025
59	0xbcfb4226	-0.03067119
60	0x3fa07a81	1.2537385
61	0xbf096ce0	-0.53681755
62	0x3f92ff53	1.1484169
63	0x3d4d064e	0.05005484
64	0x3cc7b732	0.024379347
65	0xbdf1f88e	-0.11814986
66	0x3dd8e118	0.10589808
67	0xbc8d28e3	-0.01723141
68	0x3e68d627	0.22737943
69	0x3eefbbb1	0.46822885
70	0x3e760bb7	0.24027906
71	0x3d9dfdc2	0.07714416
72	0xc025c331	-2.5900385
73	0x3e14ac93	0.14518957
74	0x3c992c06	0.01869775
75	0xbf99babb	-1.2010111
76	0xbf04ffc9	-0.519528
77	0xbf9c89d5	-1.2229563
78	0x3c1d81f8	0.0096135065
79	0xbf09e23d	-0.5386084
80	0x3f192416	0.5982069
81	0xbdaf6cc7	-0.085656695
82	0x3ede50c8	0.43421006
83	0x3d0885ed	0.033330847
84	0xbd2519ed	-0.040307928
85	0xbcbc5a85	-0.022992382
86	0xbdcdbd25	-0.10045842
87	0x3c653a3a	0.013990933
88	0xbf3afdea	-0.7304369
89	0xbeee6ac0	-0.4656582
90	0x3eb1fdcf	0.34763953
91	0xbd6852dd	-0.05671965
92	0x3f4b3eb0	0.7939253
93	0xbcf04689	-0.029330509
94	0xbe6c312a	-0.2306563
95	0xbcfaa722	-0.030597273
96	0x3e4bb0fd	0.19891734
97	0xbd602c77	-0.054729905
98	0xbbe34cc8	-0.0069366433
99	0x3d29fadd	0.041499007
100	0x3e2c9191	0.16852404
101	0xbfb21e7e	-1.3915555
102	0xbc61564c	-0.013753485
103	0xbe303ff9	-0.17211904
104	0x3c19f8b6	0.009397676
105	0xbf8397cf	-1.0280703
106	0x3ebc3ee9	0.36766747
107	0x3e185d15	0.14879258
108	0xbc8c1abc	-0.017102592
109	0xbdcf793a	-0.10130544
110	0x3f56dc22	0.83929646
111	0x3e1895df	0.14900921
112	0xbf55174f	-0.8323869
113	0x3e3acc6a	0.1824204
114	0xbca4cfcc	-0.020118617
115	0x399e1f0c	0.0003015924
116	0xbf866291	-1.049883
117	0xbd7a7a7c	-0.061151966
118	0x4011085c	2.2661352
119	0x3f969ed2	1.1767218
120	0xbd380a20	-0.04493153
121	0x409969b4	4.794153
122	0xbcecdf45	-0.028915057
123	0x3e072164	0.13196331
124	0x3f565ad4	0.8373234
125	0xbdcf3ed4	-0.101194054
126	0x3f81f811	1.0153829
127	0xbe73b287	-0.23798572
128	0xbbb91296	-0.0056479676
129	0x3f16c124	0.5888846
130	0xbd095dc1	-0.033536676
131	0xbd10c85d	-0.03534733
132	0xbfa7e677	-1.3117207
133	0xbf23e59a	-0.6402222
134	0x3d049594	0.03236921
135	0x3f43c20e	0.7646798
136	0xbde7db7f	-0.113211624
137	0xbefa79d4	-0.48921072
138	0x3b8e1e4e	0.0043371087
139	0xbeb64519	-0.35599592
140	0x3d91eab1	0.07124842
141	0xbf4936c9	-0.7859922
142	0xbca46a1b	-0.020070126
143	0xbe6ddfac	-0.23229855
144	0xbc978cd0	-0.018499762
145	0x3c920574	0.017824866
146	0x3ee4a00d	0.4465336
147	0xbc16872d	-0.009187502
148	0xbab7267b	-0.001397326
149	0x3c99a5bb	0.018755784
150	0x3f3b320b	0.73123235
151	0xbd3902a3	-0.04516853
152	0x3ef9614b	0.4870704
153	0x3d3b4f4f	0.04572993
154	0xbbbe8980	-0.005814731
155	0xbdbe1466	-0.092812344
156	0xbd3b2620	-0.045690656
157	0x3b220742	0.0024723564
158	0xbd23fb2e	-0.040034465
159	0xbeb25b5f	-0.34835336
160	0x40fdc6af	7.9305034
161	0x3f592675	0.84824306
162	0xbf412945	-0.754536
163	0x3acd6c55	0.0015672544
164	0xbf3daefb	-0.74095124
165	0xbe8524de	-0.2600469
166	0xbd56ef3a	-0.052474238
167	0xbc703ad4	-0.014662463
168	0xbe6463b6	-0.22303662
169	0xbfce0069	-1.6093875
170	0xbdac677b	-0.08418175
171	0x3d8e9465	0.06961898
172	0x3fb5110f	1.4145831
173	0xbe98ee26	-0.29869193
174	0x3ea4ccb3	0.32187423
175	0xbe8629b1	-0.26203683
176	0x3d8f16ae	0.06986748
177	0xbf577e36	-0.8417696
178	0x3ced6b0e	0.028981712
179	0xbe9a4fbf	-0.30138966
180	0x3f4dd90e	0.80409324
181	0x3f92acbd	1.1458966
182	0x3f6ab14b	0.9167678
183	0x3f13b10f	0.57692045
184	0x3f7664a8	0.9624734
185	0xbfca7e40	-1.5819778
186	0x3d02188b	0.031761687
187	0xbd7bd584	-0.06148292
188	0x3eefedd3	0.46861133
189	0x3ce9fab9	0.028561937
190	0xbc5d008e	-0.013488902
191	0x3e9e6b1a	0.30941087
192	0x3ce43c6f	0.027860848
193	0x3d3bb73d	0.045829047
194	0x3e2ce857	0.16885506
195	0x3bcc2c6a	0.0062308805
196	0xbdee7885	-0.11644081
197	0xbb60dd84	-0.003431172
198	0x3e4d6689	0.20058645
199	0x401d7b32	2.4606442
200	0xbf3ab15a	-0.72926867
201	0x3d9000cc	0.07031402
202	0x3c1661e6	0.009178614
203	0xbe99e5b5	-0.30058065
204	0xbae85128	-0.0017724382
205	0x3f6451ef	0.8918752
206	0x3e855af9	0.2604597
207	0x3dfcf8fc	0.123521775
208	0xbcb6b8be	-0.022304889
209	0x3f212990	0.62954044
210	0x3f856c8b	1.042375
211	0x3f358b67	0.70915836
212	0xbc123094	-0.008922715
213	0xbf1b58fe	-0.60682666
214	0xbfdf6722	-1.7453349
215	0xbd25bc12	-0.04046256
216	0xbc2eef94	-0.010677237
217	0x3eed8cba	0.46396428
218	0xbfba1b8c	-1.4539657
219	0x3c943eca	0.018096346
220	0x3f3dc5e4	0.7413008
221	0xbe931a4a	-0.28730994
222	0xbcc69ee4	-0.024245687
223	0xbf4db1fa	-0.80349696
224	0x3fc3388a	1.5251629
225	0xbc829381	-0.015939476
226	0xbed98f88	-0.42492318
227	0x3fe3a876	1.7785785
228	0x3cffa712	0.031207595
229	0x3cf9289e	0.030414876
230	0x3ece5684	0.4030038
231	0xbd49e0d5	-0.049286682
232	0x3da4f180	0.08053875
233	0xbea36a9c	-0.31917274
234	0xbf1a1218	-0.6018386
235	0xbf4744b2	-0.77839196
236	0xbf823d41	-1.0174943
237	0x3d258f03	0.04041959
238	0x3ead328c	0.33827627
239	0x3c581e89	0.013190874
240	0x3e3a8474	0.1821459
241	0x3fa2c3a1	1.2715951
242	0x3ea1f624	0.31633103
243	0xbcffa617	-0.031207127
244	0xbd582f95	-0.052779753
245	0xba818bce	-0.0009883584
246	0xc08079c1	-4.0148625
247	0x3d9d616f	0.076845996
248	0x3fdebe51	1.740183
249	0xbf758384	-0.959038
250	0xbed6093b	-0.41803917
251	0x3c47181b	0.012151743
252	0x3e8729a3	0.26398954
253	0xb8c294a2	-9.278326e-05
254	0x3e2cad8d	0.1686308
255	0x3dfbbfd6	0.12292449

bias f4 [6]
0	0x3fac970f	1.34836
1	0xbf2ffac6	-0.68742025
2	0x3d0aeba5	0.033916134
3	0x3df93127	0.12167578
4	0xbfb15b91	-1.3856069
5	0x3e828601	0.25492862

weight f4 [256, 23]
0	0x40327f0f	2.789005
1	0xc03b1b39	-2.9235365
2	0xbf1d14ba	-0.6135975
3	0xc01866fd	-2.381286
4	0xbef7b10b	-0.4837726
5	0x409f959e	4.987014
6	0x3fc40ec5	1.5317007
7	0xc0cde00e	-6.4336004
8	0xbfc1ad43	-1.5131
9	0x4048d487	3.1379716
10	0x40077dc7	2.1170518
11	0xbe86918a	-0.26282912
12	0x3f05c635	0.52255565
13	0x3d8f0389	0.06983096
14	0x3f0664a7	0.52497333
15	0xbd6b7b8a	-0.057490863
16	0xbe38ebeb	-0.18058746
17	0xbf460b32	-0.7736083
18	0x40006360	2.0060654
19	0xbf5f620c	-0.8725898
20	0x3efc9e21	0.49339393
21	0xbe828bbe	-0.2549724
22	0x3e2c6eac	0.16839093
23	0xc03d753f	-2.9602811
24	0xc02f9813	-2.7436569
25	0xc05bcefe	-3.4345088
26	0xbfe00bd1	-1.7503606
27	0x3f281261	0.65653044
28	0xbf4bfafb	-0.7967984
29	0xbf811412	-1.008425
30	0x3f2fb05a	0.68628466
31	0xbdf9f0e0	-0.122041464
32	0x3edb0321	0.42775825
33	0x3f05e419	0.52301174
34	0x3e117f42	0.14208701
35	0xbe189477	-0.14900385
36	0x3e00a937	0.1256455
37	0xbdbbc257	-0.09167927
38	0x3d2fd1d8	0.042924732
39	0xbaa2a112	-0.0012407622
40	0x3fa4cf5d	1.2875782
41	0x3fa259f9	1.2683707
42	0xbe2e882c	-0.17044133
43	0xbe8794f1	-0.2648082
44	0x3fbca354	1.4737344
45	0x3f4690e2	0.77564824
46	0x40bd45dd	5.914778
47	0xc0907a26	-4.5149107
48	0xbfbeedbf	-1.4916304
49	0xc0021e5a	-2.0331025
50	0xbf9cbf56	-1.2245891
51	0xc0aa8ca1	-5.3296666
52	0x3ec6550d	0.38736764
53	0xc06d8e27	-3.7118013
54	0xbe29daa3	-0.1658731
55	0x3f4fe4fb	0.8120877
56	0x3fa8e43a	1.3194649
57	0x3d9e377a	0.07725425
58	0xbc92b303	-0.017907625
59	0xbdf05e65	-0.11736754
60	0x3cb4ae3d	0.02205574
61	0x3e8eac86	0.27866
62	0x3cd057db	0.025432518
63	0xbe582ef6	-0.21111664
64	0xbed35323	-0.41274366
65	0x3ea9ae8e	0.33140987
66	0xbf54a650	-0.8306627
67	0x4055a92e	3.338451
68	0x3d870427	0.06592589
69	0x4101f77f	8.122924
70	0xbe1e4c02	-0.15458682
71	0xbf32b0dd	-0.6980112
72	0x407f6ebc	3.9911337
73	0x402a9e14	2.6658983
74	0xc0926c3c	-4.575712
75	0x3f5ebbde	0.8700541
76	0xc0901ee9	-4.503773
77	0xbf8de0ca	-1.1084225
78	0x3fc582d9	1.5430557
79	0x40212c27	2.5183198
80	0xbe394cc2	-0.18095687
81	0x3dd7440f	0.10511028
82	0xbb0dcd4c	-0.002163726
83	0x3e4afac6	0.19822225
84	0x3e2c4c0c	0.16825885
85	0xbdc9b953	-0.09849801
86	0xc02e5ca9	-2.7244055
87	0x3fb6dd2d	1.4286247
88	0x3e9e0cea	0.30869228
89	0xbd83a0df	-0.06427168
90	0xbefef6de	-0.4979772
91	0xbf9a49d5	-1.2053782
92	0x4092ccbe	4.587493
93	0xc06ebdc3	-3.7303321
94	0x3e7eb805	0.24874885
95	0xc000311c	-2.0029974
96	0x3ecb105b	0.39660916
97	0x3f07b54a	0.53011
98	0x3d8db7ef	0.06919848
99	0xbf24a097	-0.6430754
100	0xbfcce2d0	-1.6006718
101	0x403e89e5	2.9771664
102	0xbf889032	-1.0669005
103	0x3e0e2475	0.13881095
104	0x3cb3dd4b	0.021956107
105	0xbd1793f2	-0.037006326
106	0x3dbc97e7	0.092086606
107	0xbd9059f3	-0.070484065
108	0x3d149628	0.036276013
109	0x3ff23e09	1.8925182
110	0xbf890cf9	-1.0707084
111	0xbf7e5de1	-0.99362
112	0x3f9a6ee0	1.2065086
113	0x3fa8ae0e	1.3178117
114	0x3cc1be22	0.023650233
115	0x40b82c82	5.755433
116	0xc00453dd	-2.0676186
117	0xbf053103	-0.5202791
118	0x3f09bb29	0.5380121
119	0xc030d552	-2.76302
120	0x40b62a22	5.692643
121	0xbfb7eb0c	-1.4368606
122	0xbe6cfb72	-0.23142794
123	0xc04313a5	-3.048074
124	0xbf163524	-0.58674836
125	0x3f28cd41	0.6593819
126	0x3f096a09	0.5367742
127	0x3dbbaa9e	0.09163402
128	0xbc77954f	-0.015111282
129	0x3e7e86ee	0.24856159
130	0x3f0c8d05	0.5490268
131	0x3e841c8a	0.25803024
132	0xbfc1ba10	-1.5134907
133	0x40136158	2.3028164
134	0x3f9e989a	1.239032
135	0xbf6886f8	-0.90830946
136	0x3f716f37	0.94310325
137	0xbfdfb9c2	-1.7478564
138	0x4141a432	12.102587
139	0xbf46e877	-0.77698463
140	0x3f84a20a	1.036195
141	0xc0552514	-3.330388
142	0x407f1163	3.9854362
143	0x40aeded6	5.4647017
144	0x40197321	2.397652
145	0xbe30f78b	-0.1728193
146	0xc0002099	-2.0019896
147	0x3f59ad6b	0.8503024
148	0xbdddb34e	-0.10825215
149	0x3e9659cb	0.29365382
150	0xbec279ca	-0.37983543
151	0xbde1c568	-0.110239804
152	0x3e1c346f	0.15254377
153	0xbdad84f7	-0.08472627
154	0x3ef2b3de	0.47402853
155	0x3f6dab4f	0.9283952
156	0xbf118dfa	-0.56857264
157	0xbe1d2288	-0.15345204
158	0xc01aa4b5	-2.416303
159	0x3f4b13d7	0.7932715
160	0x3fe88af9	1.8167411
161	0x4120721d	10.02786
162	0x4010a302	2.2599492
163	0xc087bd09	-4.2418256
164	0xc0ff5f2b	-7.980367
165	0xbdc2d0af	-0.095124595
166	0xc029fbca	-2.655993
167	0x405875f1	3.3821986
168	0x3f48db9d	0.78460103
169	0xbd87d1e2	-0.06631829
170	0xbf184cfd	-0.59492475
171	0x3f00292e	0.50062835
172	0x3ebd53b0	0.3697791
173	0x3ebd35ea	0.36955196
174	0x3e5d8daa	0.21636072
175	0xbda68037	-0.08129924
176	0x3d8b19ce	0.06792031
177	0xbbf80f1e	-0.0075701615
178	0xbd05d8cc	-0.032677457
179	0x3fab63a4	1.3389783
180	0x3fbeb978	1.490035
181	0xbfab5f2d	-1.338842
182	0x3fd7a2d5	1.6846567
183	0x3edfbd42	0.4369908
184	0xc0ab01bb	-5.3439612
185	0x40d3bb2c	6.616598
186	0xbf3ea272	-0.7446662
187	0x3e5fb3ea	0.21845976
188	0xbea0518f	-0.31312224
189	0xc04455e4	-3.0677423
190	0x3fdc4503	1.7208561
191	0x3fa537ef	1.2907695
192	0xbf55fa9d	-0.8358553
193	0x3f7386dd	0.9512766
194	0x3f420270	0.7578497
195	0x3c6c0656	0.0144058075
196	0x3de5fdae	0.11230026
197	0x3cadb8f5	0.021206358
198	0x3e314159	0.17310084
199	0xbdbc3064	-0.09188917
200	0x3d2c7a3f	0.04210877
201	0x3d2ed293	0.042681288
202	0xbf573c14	-0.84076047
203	0x3f55a9ea	0.83462393
204	0xbf27d1fd	-0.6555479
205	0x3df35f89	0.11883456
206	0x3f04c472	0.5186225
207	0x4093b18d	4.6154237
208	0x3f8224d8	1.0167494
209	0xc058c538	-3.3870373
210	0xc007257f	-2.1116636
211	0xbf0ba7de	-0.5455302
212	0x400712d0	2.1105232
213	0x4024c2e6	2.5743957
214	0x3dd0dc6e	0.101982936
215	0xbf8fd1c0	-1.1235886
216	0xc0838180	-4.109558
217	0xbe183e20	-0.14867449
218	0xbf0554e1	-0.5208264
219	0xbe8b875a	-0.27251703
220	0x3e82dd07	0.25559255
221	0xbe656358	-0.22401178
222	0xbef1294b	-0.47101817
223	0x3e5419a4	0.20712906
224	0x40156ec5	2.3348858
225	0xbf9649e0	-1.1741295
226	0x3fc5374b	1.5407499
227	0xc02e0f3f	-2.7196805
228	0x3fc2e3ed	1.5225807
229	0x404a98a4	3.1655664
230	0xbf4d1eb7	-0.8012499
231	0xbe8923a1	-0.26784995
232	0x3ed102b4	0.40822375
233	0x3ef7b958	0.48383594
234	0xbeee2541	-0.46512797
235	0xbea3a4b5	-0.319616
236	0x3e5fc020	0.21850634
237	0xbe6ca3ae	-0.23109314
238	0x3f0c16f2	0.5472251
239	0xbe1bdf99	-0.15222014
240	0xbedd2890	-0.4319501
241	0x3e46eae9	0.19425549
242	0xbd65dfcc	-0.056121632
243	0x3dd4acb5	0.10384504
244	0xbdf711b1	-0.12063921
245	0x3db7b9dc	0.08970997
246	0xbd94bd64	-0.07262686
247	0x3e61ddc0	0.22057247
248	0x3ec61426	0.38687247
249	0x3d81f9a3	0.063464426
250	0xbee801b8	-0.4531381
251	0x3e5b5c21	0.21421863
252	0x3ec7e837	0.39044353
253	0x41022565	8.13413
254	0xc0313188	-2.7686481
255	0xbfc41aba	-1.5320656

bias f4 [256]
0	0xc05e17bb	-3.4701984
1	0x405d8c16	3.4616752
2	0xbfb36cc8	-1.4017572
3	0xc08934e3	-4.287706
4	0x40df62d2	6.980813
5	0xc0a4eee6	-5.1541624
6	0xc09c0ae8	-4.8763313
7	0xc07a2143	-3.9082801
8	0xc0db124a	-6.8459826
9	0xc08b3ea0	-4.3513947
10	0x40ea9d5f	7.3317103
11	0xc0b01af2	-5.503289
12	0x408f7a09	4.483647
13	0xc0b54003	-5.664064
14	0xc039de10	-2.9041786
15	0x40746940	3.818924
16	0xc006582a	-2.099131
17	0xc0eabb58	-7.335369
18	0xc0ba0648	-5.8132668
19	0xc0b17827	-5.545917
20	0xc0992a76	-4.786433
21	0xc0e0f53c	-7.029936
22	0xc04f8b37	-3.242872
23	0xc0237fa3	-2.5546653
24	0xbf8de60e	-1.1085832
25	0xc028358f	-2.628269
26	0x4083d947	4.120273
27	0xc08c7cfe	-4.390258
28	0x3ee171cd	0.44032136
29	0xc0b89d52	-5.769204
30	0xbf5e10bd	-0.8674429
31	0xbef5f504	-0.48038495
32	0xc082da27	-4.08913
33	0xbff8b734	-1.9430909
34	0x4074d377	3.8254068
35	0x40cb94f4	6.3619328
36	0x3f7082cf	0.939496
37	0x404915c6	3.141954
38	0xc0ab7ecd	-5.3592286
39	0xc0f8e656	-7.778117
40	0x4013137c	2.2980642
41	0xc038fa0a	-2.8902612
42	0xc073b8af	-3.8081472
43	0x407d1d62	3.9549184
44	0xbed437aa	-0.41448718
45	0xc0948d7d	-4.6422715
46	0xc0933908	-4.600712
47	0xc08d4dbf	-4.4157405
48	0xc0b7f530	-5.74868
49	0xc014ef51	-2.3271067
50	0xc11bc2db	-9.735072
51	0xbf3c5c7c	-0.7357862
52	0xc0167720	-2.3510208
53	0xc08625ae	-4.1920996
54	0xc0c1256f	-6.0358195
55	0xc09ba2da	-4.8636293
56	0xbef0fbf9	-0.4706724
57	0xc0832960	-4.0988007
58	0xbf435b56	-0.7631124
59	0x40f30dce	7.595435
60	0xc06b926c	-3.680812
61	0xc0acf978	-5.4054527
62	0xc0b2b9f2	-5.5851984
63	0xc099b360	-4.8031464
64	0xc0951824	-4.659197
65	0xc08d08be	-4.407317
66	0xbdad6e14	-0.08468261
67	0xc0b19816	-5.549815
68	0xc04a3013	-3.1591842
69	0xc0367ee9	-2.851496
70	0x409b05f5	4.844477
71	0x3ff418b5	1.907004
72	0xc0a7461a	-5.2273073
73	0xbf2b6ca0	-0.66962624
74	0xbfac547c	-1.3463283
75	0xbf98e974	-1.1946244
76	0xc07173a7	-3.7726839
77	0xc0b1db28	-5.5580025
78	0x406a3fb2	3.6601377
79	0xc0a4a418	-5.145031
80	0xc0a03c4a	-5.0073595
81	0x40dd82a6	6.9221983
82	0xc00ce613	-2.2015426
83	0xc09207ae	-4.5634375
84	0x407c01f4	3.9376192
85	0x40ce987e	6.456115
86	0xc0527438	-3.2883434
87	0x40a473f5	5.139155
88	0xbfe54e30	-1.7914486
89	0xc03c7bd8	-2.9450588
90	0xc0726b4d	-3.7877991
91	0xc0b1b132	-5.5528803
92	0xc0cf4db9	-6.4782376
93	0xc08636ae	-4.194175
94	0xc0a884a7	-5.266193
95	0x3fd638e2	1.6736109
96	0x40e3e3bd	7.12155
97	0xbfc176a8	-1.5114336
98	0xc0d73043	-6.7246413
99	0xbf1e6a45	-0.61880904
100	0xc0c42b23	-6.1302657
101	0x40192a15	2.3931935
102	0xc0609080	-3.5088196
103	0xc04ef6ce	-3.2338138
104	0xc06e0358	-3.718954
105	0xc0822572	-4.067071
106	0xc087ce83	-4.243959
107	0xc0478ed5	-3.1180928
108	0x40e701d2	7.218972
109	0xbfe69a43	-1.8015827
110	0xbfbd3cc8	-1.4784174
111	0xbff05dca	-1.8778622
112	0xc088c754	-4.274332
113	0xc0cbab30	-6.364647
114	0xc05e6d3d	-3.4754174
115	0x40061981	2.0953066
116	0xc05a5939	-3.4116957
117	0xbffe4843	-1.9865803
118	0xc067b9b0	-3.6207085
119	0xc077aa21	-3.8697588
120	0xbf562f06	-0.836655
121	0xbee007c6	-0.4375593
122	0xc0d6c82a	-6.711934
123	0xc06fb7d7	-3.7455957
124	0xc02cf1e9	-2.702265
125	0xc073335c	-3.8000097
126	0xc06ee9a3	-3.73301
127	0xc02ad965	-2.6695187
128	0x3f14d026	0.5813011
129	0xc0888db2	-4.267297
130	0xc0b87d78	-5.765316
131	0xc0cf395c	-6.475752
132	0xc0a6fd7d	-5.2184434
133	0xc097aba7	-4.7397037
134	0xc08278ff	-4.07727
135	0xc086cc86	-4.2124662
136	0xc08f9c82	-4.487855
137	0xc0a0991e	-5.018691
138	0xc08c209e	-4.3789816
139	0xc07f992c	-3.9937239
140	0x403000b0	2.750042
141	0xbf73764e	-0.95102394
142	0x40880163	4.2501693
143	0xbff3d5a5	-1.9049574
144	0xbfda0967	-1.7034119
145	0xc0d2cb45	-6.587313
146	0xc069503a	-3.6455216
147	0xc03a6742	-2.9125524
148	0xc015c7c0	-2.3403168
149	0xbf6dea78	-0.92935896
150	0xbffd8433	-1.9805969
151	0xc091cf9d	-4.5565934
152	0x40f345d0	7.602272
153	0xc0a26f90	-5.0761185
154	0xc0ec583b	-7.3857703
155	0x40bf4705	5.9774194
156	0xc02c991a	-2.6968446
157	0x3eaa200f	0.33227584
158	0xc090e452	-4.527871
159	0x3e8eb3f5	0.2787167
160	0xc0809af4	-4.018915
161	0xbf9e30c1	-1.2358629
162	0xc0adf8b8	-5.436611
163	0xc067e2bc	-3.6232138
164	0xc11261c0	-9.148865
165	0xbf8915d8	-1.0709791
166	0xc06018fa	-3.5015244
167	0x3f8c36ec	1.0954261
168	0xc001619e	-2.021583
169	0xc03a6a51	-2.912739
170	0xc0cf565e	-6.479293
171	0xbfa8d080	-1.3188629
172	0xbfc04d7f	-1.502365
173	0xc00f504f	-2.2392766
174	0xbf293f9b	-0.6611268
175	0xc0ad333f	-5.4125056
176	0xc0963ec6	-4.695163
177	0xc05b5afe	-3.4274287
178	0xc03184bc	-2.7737265
179	0x40c95d73	6.2926574
180	0xc0c260ca	-6.074315
181	0xc03eab19	-2.979193
182	0xc0c5d305	-6.182009
183	0xc037e1f1	-2.8731654
184	0xc0bb165d	-5.84648
185	0x3fa126a4	1.2589917
186	0x3f9025b6	1.1261508
187	0x40a337bb	5.100553
188	0xc09ede4a	-4.964635
189	0xc0963e87	-4.6951327
190	0xc0b6501f	-5.6972804
191	0xc0bc8021	-5.8906407
192	0xc0ab3bdd	-5.3510575
193	0xc0ec2e48	-7.3806496
194	0xbf13391a	-0.57509005
195	0xbffb9ac9	-1.9656612
196	0xc091206a	-4.535207
197	0xc080edab	-4.029012
198	0xc0a3bff7	-5.117183
199	0xc0fad55b	-7.8385444
200	0xc096781a	-4.702161
201	0xc07c7b4a	-3.945025
202	0xc007267c	-2.111724
203	0xc062bb2b	-3.5426738
204	0xc0b9b390	-5.8031693
205	0xc0a76e71	-5.2322316
206	0xc09c2c7b	-4.8804297
207	0xc0e074f2	-7.0142756
208	0x4012976b	2.2904918
209	0xbf1859fd	-0.5951231
210	0xbf65ecf7	-0.89814705
211	0xc03dd04b	-2.9658382
212	0xc0a2496b	-5.071462
213	0xc06e48e5	-3.7231991
214	0xc0808d0a	-4.0172167
215	0xc06e07d7	-3.7192285
216	0xc0af589b	-5.479566
217	0xc02f42e2	-2.7384572
218	0xc0730d51	-3.7976878
219	0xc0c3c032	-6.1172113
220	0xc0d37d63	-6.609056
221	0xc0cd41a1	-6.4142613
222	0x40e84a99	7.259106
223	0xc06f5217	-3.7393854
224	0xc01bd579	-2.4349043
225	0xbfff9aca	-1.9969113
226	0xc01806f2	-2.375424
227	0xc093057f	-4.594421
228	0xc0988cc1	-4.767182
229	0x40e045de	7.0085287
230	0xc07d6590	-3.959324
231	0xc0f448de	-7.633895
232	0xc092dc1b	-4.5893683
233	0xc0282b2c	-2.627635
234	0xc0c0b371	-6.0219045
235	0xc0a6e241	-5.215119
236	0xc0f196ee	-7.549674
237	0xc09d7bc5	-4.9213586
238	0xc0a95aa2	-5.2923136
239	0xc04b5b26	-3.1774383
240	0xc07a31ff	-3.9093015
241	0xbf96b248	-1.1773157
242	0xc09edf57	-4.964763
243	0xc097ffd2	-4.749978
244	0x40ea6f78	7.326107
245	0xbf43943e	-0.76398075
246	0xc0a8f79b	-5.2802253
247	0xc002ead3	-2.0455825
248	0xc0b18faa	-5.548787
249	0xc082cf9c	-4.087843
250	0xbf7c53d4	-0.9856541
251	0xc0640f56	-3.563436
252	0xc0a8577a	-5.2606783
253	0xc03fa4f4	-2.994443
254	0xc0b4ad65	-5.6461663
255	0xc0366fd7	-2.8505762
