log/mujoco_sac_hopper_v2_0/mujoco_sac_hopper_v2_0_s0/pyt_save/model.pt (torch_old, 847474 bytes, 18 tensors)

weight f4 [256, 11]
0	0xc008fac9	-2.1403067
1	0x40f47315	7.639048
2	0xbe9f6759	-0.31133536
3	0xbe617809	-0.22018446
4	0xc054712f	-3.3194082
5	0xbeef2b14	-0.46712554
6	0xbfab5915	-1.3386561
7	0x3f1c23d8	0.60992193
8	0xbe0f5c17	-0.13999973
9	0xbeae5cc6	-0.34055156
10	0x3ecae006	0.3962404
11	0xbff941af	-1.947317
12	0xc12c9896	-10.787252
13	0xbf2bfe5d	-0.67185
14	0xbfb04caa	-1.3773396
15	0x3eeec3a6	0.46633643
16	0x3e7aa950	0.2447865
17	0x3f28238f	0.6567926
18	0xbe881a76	-0.26582688
19	0xbecc17c0	-0.3986187
20	0xbe6a743a	-0.228959
21	0x3e876133	0.26441345
22	0xbfba8bc5	-1.4573904
23	0xc10e0ab0	-8.877609
24	0xbf50edc1	-0.81612784
25	0x40de6e4c	6.950964
26	0x3fa3c197	1.2793454
27	0x3f2b9766	0.6702789
28	0xbd9ccffd	-0.07656858
29	0x3de60a06	0.112323806
30	0xbed15905	-0.4088823
31	0xbe2b075e	-0.16702029
32	0xbd9ddfc6	-0.07708697
33	0xbfde9c80	-1.739151
34	0xbef6ef74	-0.48229563
35	0xc00a10d2	-2.1572766
36	0xbf43e03b	-0.76514024
37	0xc03ea505	-2.978822
38	0xbfd17f56	-1.6366985
39	0xbfa28edd	-1.2699848
40	0xbf362d89	-0.7116323
41	0x3ec1639f	0.37771317
42	0x3f35ea22	0.71060383
43	0xbebd2a4b	-0.3694633
44	0xbfa1f1f3	-1.2651962
45	0x3fa5d99f	1.2957038
46	0xc046d75e	-3.106895
47	0x3ef9b491	0.48770574
48	0x40ab88fa	5.360471
49	0xbfe52cab	-1.7904257
50	0x3fff9d66	1.9969909
51	0x3f99ef65	1.2026182
52	0xbf5d22fd	-0.8638151
53	0xbf20cb88	-0.62810564
54	0xbd9dbacf	-0.077016465
55	0xc0157fe3	-2.3359306
56	0x4025526e	2.583156
57	0xbffea2ec	-1.989347
58	0xbe2719ac	-0.16318387
59	0x3f19b9a8	0.60048914
60	0x3ff351df	1.900936
61	0x3f309656	0.68979394
62	0xbece5638	-0.40300155
63	0x3e6440d1	0.2229035
64	0x3d972842	0.073807254
65	0x3defd654	0.11710802
66	0xbfb8d4ff	-1.4440001
67	0xbf16e364	-0.5894072
68	0x401b422c	2.4259138
69	0x406a4787	3.6606157
70	0xc0a49f2f	-5.1444316
71	0xbf0558fa	-0.5208889
72	0xbf298b50	-0.662282
73	0x3f85b829	1.0446826
74	0xbe8f3db9	-0.27976778
75	0xbe7bb31c	-0.24580044
76	0xbe15e9bb	-0.14639942
77	0xc0b08906	-5.5167265
78	0x403f2f74	2.9872713
79	0xc01be1eb	-2.435664
80	0xbfcb1fdf	-1.5869101
81	0x3e284c31	0.16435315
82	0x3f9b5107	1.2134103
83	0xbf0fada0	-0.56124306
84	0xbf2d8cc5	-0.6779292
85	0x3f07cdbc	0.530483
86	0x3e60529a	0.2190651
87	0x3dd5eb8e	0.10445319
88	0xbf9769b2	-1.1829131
89	0xbf0ca388	-0.5493703
90	0x3f199751	0.59996516
91	0x3fe3c2c4	1.7793813
92	0x400410c2	2.0635228
93	0xbfb9d7cf	-1.4518985
94	0xbfcdc243	-1.6074909
95	0xbf58cc4e	-0.84686744
96	0x3f51b205	0.8191226
97	0x3f0f1f9b	0.559076
98	0x3bd173a1	0.006391958
99	0xbfd55ba1	-1.6668588
100	0xbeb8b8e2	-0.36078554
101	0x40683ece	3.6288333
102	0xbda29a9b	-0.07939645
103	0xbfd77495	-1.6832453
104	0xc002c673	-2.0433624
105	0xbeb6c625	-0.35698047
106	0xbf3087e5	-0.6895736
107	0x3dc00ee1	0.09377838
108	0x3f148484	0.580147
109	0xbeb40910	-0.35163164
110	0xbe29197b	-0.16513626
111	0xbe4aa231	-0.19788434
112	0x40174f92	2.3642316
113	0x3fe89fe2	1.8173792
114	0xbfeae2a3	-1.8350414
115	0xbdd1a582	-0.10236646
116	0xbeb2a5b0	-0.34892035
117	0xc01b9131	-2.4307368
118	0x4008e512	2.1389813
119	0x3f9879e2	1.1912196
120	0x3e814c9a	0.25253755
121	0xbf769ba9	-0.9633127
122	0xbcf37e05	-0.029723177
123	0xc04ad028	-3.1689548
124	0xc08d2f27	-4.412006
125	0xc04cbc04	-3.1989756
126	0xbee8767a	-0.4540289
127	0xbf8faa14	-1.1223779
128	0x3e7e42f3	0.24830227
129	0xbe590fca	-0.2119743
130	0xbe64d893	-0.22348242
131	0xbd9de905	-0.077104606
132	0xbfcb71b2	-1.5894072
133	0xbf3e2f29	-0.7429071
134	0x40be7d0f	5.952766
135	0x3ed572ad	0.41689053
136	0x3f004868	0.50110483
137	0xbfc1f0e6	-1.5151641
138	0xbe08b434	-0.13349992
139	0xbea66c83	-0.32504663
140	0x3ee8a90b	0.4544147
141	0xbdffe745	-0.12495283
142	0x3da9431a	0.08264752
143	0xbfe85d37	-1.8153447
144	0xc0520a7a	-3.2818894
145	0x40715ea8	3.7714024
146	0x40b3364e	5.600379
147	0xbf5cbe43	-0.86227816
148	0xbf154e37	-0.5832247
149	0x3c87e5c0	0.016589046
150	0xbf8787c2	-1.0588305
151	0x3f5e1c3a	0.8676182
152	0xbd1d9bd2	-0.03847868
153	0xbd90e01b	-0.07073995
154	0xbfa059e3	-1.2527431
155	0xc17d9297	-15.848289
156	0x3e502ef2	0.20330408
157	0x3e67c0a2	0.22632077
158	0xbdb3557f	-0.087565415
159	0x3cdae3c8	0.026719943
160	0x3d7bb953	0.061456036
161	0xbed136e4	-0.4086219
162	0x3df3e099	0.11908073
163	0x3e0ad1e2	0.13556626
164	0x3c99439d	0.018708998
165	0xbf80b502	-1.0055239
166	0x409382d1	4.609719
167	0xbff6f799	-1.9294311
168	0xbf85fd20	-1.0467873
169	0x3ff5cbab	1.920278
170	0xbedf61d7	-0.43629333
171	0xbe978473	-0.29593238
172	0x3f96c1df	1.1777915
173	0xbf73a37a	-0.9517132
174	0xbf1bbcf6	-0.60835207
175	0x3e41ee5c	0.18938583
176	0x3e73e128	0.23816359
177	0xc0877a12	-4.233651
178	0x4055f677	3.343168
179	0xbd90ccb6	-0.070702955
180	0xbd85b4ee	-0.0652865
181	0xbf505d8b	-0.81392735
182	0x3f4912f2	0.78544533
183	0xc013db26	-2.3102508
184	0x3ffe8d6e	1.9886911
185	0x3f957e78	1.167922
186	0x3e91d8d3	0.28485736
187	0xbf8236c2	-1.0172961
188	0xc09db877	-4.9287677
189	0x401d4651	2.4574168
190	0x4047750e	3.1165195
191	0x40081e9a	2.1268678
192	0xbf827d19	-1.0194427
193	0x3ecc327d	0.3988227
194	0x3e1374cb	0.14400022
195	0x3e4e54fe	0.2014961
196	0x3e68c339	0.22730722
197	0x3d8ec634	0.06971398
198	0xbfcb7442	-1.5894854
199	0x3f361498	0.71125174
200	0x3f20b251	0.6277209
201	0xbfd9208e	-1.696306
202	0xc0972bb9	-4.724087
203	0xbe826099	-0.25464323
204	0xbfb04207	-1.377015
205	0x3f937f30	1.152319
206	0xbf606ff4	-0.87670827
207	0xbf290e58	-0.6603751
208	0xbda70dc1	-0.0815692
209	0x3f49c1de	0.7881144
210	0xc0d680fe	-6.703246
211	0x40043cad	2.0662034
212	0x40eb7f0f	7.35926
213	0x3fe9ef0b	1.8276075
214	0x3f891111	1.0708333
215	0x3f8dcd1a	1.1078217
216	0xbf136305	-0.57572967
217	0x3e8696ad	0.26286831
218	0x3ec5b8d3	0.38617572
219	0x3d254934	0.040353015
220	0xbfaf6a56	-1.3704326
221	0x3fe2f176	1.7729938
222	0x3fa65447	1.299447
223	0x3f37475e	0.7159327
224	0xbfa7ae24	-1.3100019
225	0xbfa50c46	-1.289437
226	0x3df678b8	0.12034744
227	0x3d881143	0.066439174
228	0xbe16ac08	-0.14714062
229	0xbe20a705	-0.15688713
230	0x3e00fbf1	0.12596108
231	0xbe3f5f46	-0.18688688
232	0x3e559e21	0.20861103
233	0x4005764d	2.0853455
234	0xc0591db2	-3.3924375
235	0xc000027f	-2.0001523
236	0xbf18a941	-0.5963326
237	0xbf2b8e77	-0.6701426
238	0xbfea6c09	-1.831422
239	0x3fb5ea2c	1.4212089
240	0x3e9f1644	0.31071675
241	0x3eaa570c	0.33269536
242	0xc011312d	-2.2686265
243	0xbf8d3da3	-1.1034435
244	0x3fe6a17e	1.8018034
245	0x3a7476b9	0.00093255524
246	0xbee092d1	-0.43862012
247	0xbfc459a4	-1.5339856
248	0x3e8694b9	0.2628534
249	0xbf1f251a	-0.6216599
250	0x3e50bcc9	0.20384516
251	0x3f276966	0.653952
252	0x3e2d4b10	0.16923165
253	0xbffd1fc9	-1.9775325
254	0x40c137b1	6.0380483
255	0x3f7cef64	0.9880278

bias f4 [256]
0	0xc006a7e1	-2.1039965
1	0xc00228f9	-2.0337508
2	0xbfbde9ca	-1.4836972
3	0xbfefcfe1	-1.8735315
4	0xbf5d5743	-0.86461276
5	0xc0579f8d	-3.3691132
6	0xbfe23d85	-1.7675024
7	0x3fcea156	1.6142986
8	0x3c4c880b	0.012483607
9	0xbfddcfde	-1.7329061
10	0xbf24a298	-0.643106
11	0xbf9e6d01	-1.2377015
12	0xbfb33c1f	-1.4002723
13	0xc0073fde	-2.1132731
14	0xbf857087	-1.0424966
15	0xbeb1a738	-0.3469789
16	0xbf6f3ccd	-0.9345215
17	0xbf44a344	-0.76811624
18	0xbfc2bc40	-1.5213699
19	0xc0119b41	-2.275101
20	0xbfa98c4f	-1.3245944
21	0xbf86eef9	-1.0541679
22	0xc015313a	-2.3311296
23	0xbfb1fe5c	-1.3905749
24	0x3eee253a	0.46512777
25	0xbf17bfa0	-0.5927677
26	0xc0034287	-2.0509355
27	0xc00f4af9	-2.238951
28	0x3fae39e5	1.3611418
29	0xc035bb25	-2.8395474
30	0xc0265020	-2.5986404
31	0xbfc2fe5f	-1.5233878
32	0xc008729c	-2.1319952
33	0xbf9bd841	-1.217537
34	0xbfdd3559	-1.7281905
35	0xc01cf238	-2.4522839
36	0xbf9ffafc	-1.2498469
37	0xbf6cbc79	-0.92475086
38	0xc013f0cb	-2.3115718
39	0xbed160d7	-0.40894195
40	0xbee9b564	-0.45646203
41	0xc0043b8f	-2.0661352
42	0xbf805f41	-1.0029069
43	0xbf97b7ad	-1.1852928
44	0xbfaccae2	-1.3499415
45	0xbefa1ab5	-0.488485
46	0xbf170457	-0.58991
47	0xbee6d630	-0.45085287
48	0xbed394f9	-0.41324595
49	0xbf9df02d	-1.2338921
50	0xbfc120bf	-1.5088118
51	0xc00b94aa	-2.1809487
52	0xbe207e32	-0.1567314
53	0xc00382f8	-2.0548687
54	0xbf5e8cce	-0.869336
55	0xbef0412a	-0.46924716
56	0xbf6c73d8	-0.92364264
57	0xbf254a44	-0.64566445
58	0xbfcab1ae	-1.5835474
59	0xc0029d72	-2.0408597
60	0xbfe43a85	-1.7830359
61	0x3f3dc985	0.7413562
62	0xbff51ce1	-1.9149438
63	0xc02536e3	-2.581475
64	0xc021e7a7	-2.529764
65	0xbfcef3b3	-1.6168121
66	0xbfad5e2d	-1.3544365
67	0x3faef8f7	1.3669728
68	0xbfda846e	-1.7071664
69	0xbfa74053	-1.3066505
70	0xc0074ab3	-2.1139343
71	0xbd16a615	-0.036779482
72	0xbfaef824	-1.3669477
73	0xc00510a8	-2.0791416
74	0xc00768f5	-2.115781
75	0x3f66fe11	0.90231425
76	0xbf89b6f5	-1.0758959
77	0x3f121fcf	0.57079786
78	0xbf078383	-0.52935046
79	0xbf87cff0	-1.0610332
80	0xc042eaef	-3.0455892
81	0xbfbdeeb9	-1.4838477
82	0xbf91a901	-1.1379701
83	0xc0396bfc	-2.8972158
84	0xbfa239b6	-1.2673862
85	0xbf4b2c00	-0.79364014
86	0xbf83e879	-1.030532
87	0xc0363d04	-2.847474
88	0xbff16e7f	-1.8861846
89	0xc09792b9	-4.7366605
90	0xbefc2743	-0.49248704
91	0xc0438047	-3.0547044
92	0xbf85a662	-1.0441401
93	0x3eaff955	0.34369913
94	0xbfc2d171	-1.5220166
95	0xbf8eb181	-1.114792
96	0x3e6614ba	0.22468844
97	0x4000fc7e	2.015411
98	0xbf46462a	-0.7745081
99	0xbfc6f344	-1.5542989
100	0xbf997197	-1.198779
101	0xbfdd9d62	-1.7313654
102	0xbfd78a4d	-1.6839081
103	0xbeb8361c	-0.35978782
104	0xbf8c7eb3	-1.0976166
105	0xbfba2258	-1.4541731
106	0xbbdfbfcb	-0.0068282834
107	0xbff18e32	-1.887152
108	0xbf69691f	-0.9117603
109	0xbfd28a4c	-1.6448455
110	0xbf0d1172	-0.55104744
111	0xbfbb7d33	-1.4647583
112	0x3ebcde2c	0.36888254
113	0xbf7b3918	-0.98133993
114	0xbee78c2e	-0.45224136
115	0xbfce50c8	-1.6118402
116	0xbdbeef9a	-0.09323044
117	0xc0250116	-2.5781913
118	0xbfa18566	-1.2618835
119	0xc03076fd	-2.7572625
120	0xc01b61ca	-2.4278436
121	0xbf56156e	-0.8362645
122	0xbf1a6cd3	-0.603223
123	0xbf16c4f6	-0.5889429
124	0xbe98f537	-0.29874584
125	0xbfa0801a	-1.2539093
126	0xc00ed771	-2.2318995
127	0xbeda0a42	-0.4258595
128	0xbff8c1a5	-1.9434096
129	0xc008461f	-2.1292799
130	0xbfbd1bda	-1.4774125
131	0xbf804937	-1.0022343
132	0xbf8d6416	-1.1046169
133	0xbfc3efad	-1.5307518
134	0xbf133526	-0.57502973
135	0x3e9c022f	0.30470416
136	0xbfc5818a	-1.5430157
137	0xbf2025c5	-0.6255763
138	0xbf2638d5	-0.6493047
139	0xc00cbb45	-2.19893
140	0xbf9e1348	-1.2349634
141	0xbf19c469	-0.60065323
142	0xbfcc5447	-1.596322
143	0xc017d868	-2.3725834
144	0xbf2ea6e2	-0.6822339
145	0xbf589e6d	-0.8461674
146	0xbf8034c7	-1.0016106
147	0xbf807e8b	-1.0038618
148	0xbf376e73	-0.7165291
149	0xc03514a9	-2.829386
150	0xbf6b15f2	-0.9183036
151	0xbd4b2c86	-0.049603008
152	0xbf33e7d4	-0.70275617
153	0xbfc32558	-1.5245771
154	0xc0307f5a	-2.757773
155	0xbfe025ff	-1.7511595
156	0xbf3b4ea2	-0.7316686
157	0xbf43fff1	-0.7656241
158	0xc03be531	-2.9358637
159	0xc0086549	-2.131182
160	0xbfd817cf	-1.6882266
161	0xc01ef0db	-2.4834507
162	0xbf5ccbd7	-0.86248535
163	0xbf97933a	-1.1841805
164	0x3f7e98c4	0.9945185
165	0xbeaef2d1	-0.3416963
166	0xbfb3cc32	-1.404669
167	0xbfdba225	-1.7158858
168	0xc0105f7c	-2.255828
169	0xbfb723aa	-1.4307759
170	0xc008e080	-2.1387024
171	0xbfbfcb17	-1.4983853
172	0xbfe0e03d	-1.7568432
173	0x3e52ef1c	0.20599025
174	0xbffdbd07	-1.9823312
175	0xbeb9d589	-0.36295727
176	0xc01d016a	-2.4532113
177	0xc04cbd60	-3.1990585
178	0xbf574b38	-0.8409915
179	0xbfd04560	-1.6271172
180	0xbfa78d7b	-1.3090051
181	0xbf030f32	-0.5119506
182	0xbf745d8a	-0.9545523
183	0xc0398a93	-2.899083
184	0x3ec6f0f1	0.388557
185	0xbf41d5b0	-0.75716686
186	0xc00812a9	-2.126139
187	0x3ee59aa1	0.44844535
188	0xbf285db4	-0.6576798
189	0xc01b4fa4	-2.4267359
190	0xbfb38ab1	-1.40267
191	0x4004d013	2.0751998
192	0xbfc840d2	-1.5644782
193	0xbfaece21	-1.3656656
194	0xbf9790ca	-1.1841061
195	0xbcf8f351	-0.03038946
196	0xbf725eb5	-0.9467576
197	0xbf641efc	-0.8910978
198	0xbfa4b2ee	-1.2867105
199	0x3e8db3b4	0.27676165
200	0x3f171aa0	0.59025
201	0xbefd1c91	-0.49435857
202	0xbfb80887	-1.4377602
203	0xbddf0205	-0.10889057
204	0xbf6af947	-0.9178662
205	0xbfa27c60	-1.2694206
206	0xbe21eb7c	-0.15812486
207	0xbebaa669	-0.36455086
208	0xbf637dbf	-0.8886375
209	0xbfb51523	-1.4147075
210	0x3e810efe	0.2520675
211	0xbf5448ac	-0.8292339
212	0xbff69d15	-1.9266688
213	0xbfa87fc1	-1.3163987
214	0x3e39c1eb	0.1814038
215	0xbdea38eb	-0.114366375
216	0xbf0ad890	-0.542367
217	0xbfbadac0	-1.4598007
218	0xbf9cf27f	-1.2261504
219	0xbf348ff0	-0.7053213
220	0xc0a4f505	-5.1549096
221	0xc01571ff	-2.3350828
222	0xbf9cc78f	-1.22484
223	0xc0166d9d	-2.3504403
224	0xbf928a25	-1.1448408
225	0xbf8d61db	-1.1045488
226	0xbf5164fe	-0.81794727
227	0xbfe7a303	-1.8096622
228	0xbfe1590c	-1.76053
229	0xc011e3dd	-2.2795327
230	0xbfee1507	-1.8600167
231	0xc05acf81	-3.418915
232	0xbff3bf34	-1.9042726
233	0xbf032be7	-0.51238865
234	0xbf9a4a28	-1.2053881
235	0xbfc1bd36	-1.5135868
236	0xbfaa9669	-1.3327152
237	0xbfcd93ae	-1.6060693
238	0xbe9b0737	-0.30278942
239	0xbd88990c	-0.066698164
240	0xbe865374	-0.26235545
241	0xbf568b53	-0.8380634
242	0xbf835e52	-1.0263159
243	0xbfb8fa9c	-1.445148
244	0xbfc66517	-1.54996
245	0xbfcd27d9	-1.6027786
246	0xbf71d676	-0.94467866
247	0xbf2db682	-0.6785661
248	0xbfc60185	-1.5469214
249	0xbfafc252	-1.3731177
250	0xbfb8be33	-1.4433044
251	0xc01c0523	-2.4378135
252	0xbfdf7fd8	-1.746089
253	0xbf8c4ccf	-1.096094
254	0xbfdd83d1	-1.7305852
255	0x3f2b0199	0.6679931

weight f4 [256, 256]
0	0x3ccbb582	0.024866823
1	0x3c8d692a	0.01726206
2	0xbdca0159	-0.09863538
3	0xbd624556	-0.055241905
4	0xbcdafb6f	-0.026731221
5	0xbd730f99	-0.059341047
6	0xbc8ccc4b	-0.017187258
7	0xbd40197d	-0.046899308
8	0xbd42ccb9	-0.04755852
9	0xbc447324	-0.011990342
10	0xbcb67d4f	-0.022276549
11	0x3b317d46	0.0027082725
12	0xbd596f45	-0.05308463
13	0xbc10de28	-0.008842029
14	0xbd7fb5c1	-0.062429193
15	0xbd22bed0	-0.039732754
16	0xbdba71df	-0.091037504
17	0x3ce7c190	0.02829054
18	0xbd85a4b9	-0.06525559
19	0xbcec0ff7	-0.028816206
20	0x3b202cae	0.0024440694
21	0xbd53f00b	-0.051742595
22	0xbd8c991e	-0.06865142
23	0xbca23239	-0.019799339
24	0xbdaad5ce	-0.08341561
25	0xbcffe73a	-0.031238187
26	0xbcbed9bd	-0.023297185
27	0x3d1e74c7	0.038685586
28	0xbd7b0041	-0.06127954
29	0xbd2cdaca	-0.04220084
30	0x3bc4dd31	0.0060078134
31	0xbcb910d6	-0.022591036
32	0x3bbd9fdc	0.005786879
33	0xbd6e8dbc	-0.058240637
34	0x3b2e586b	0.0026602994
35	0xbcf64847	-0.030063761
36	0xbc47e291	-0.012200014
37	0xbd7698dd	-0.060204376
38	0xbce31bef	-0.02772328
39	0xbd9f6704	-0.077833205
40	0xbd2c673a	-0.042090632
41	0xbc8bc08d	-0.017059589
42	0xbce53b4b	-0.027982375
43	0xbdd5297f	-0.104083054
44	0xbda04910	-0.078264356
45	0xbd295b9b	-0.041347127
46	0x3b515d59	0.0031946509
47	0xbdba7928	-0.0910514
48	0x3d24a817	0.040199365
49	0xbd51ede6	-0.05125227
50	0xbd5dcde9	-0.05415145
51	0xbd934bb0	-0.071921706
52	0x3d42cab0	0.04755658
53	0xbdad47f9	-0.08460993
54	0x3be66cc4	0.007032009
55	0xbdd484ef	-0.103769176
56	0x3c5fadab	0.0136522455
57	0xbd75fd18	-0.060055822
58	0xbd9f726c	-0.07785496
59	0xbcccd10d	-0.025002027
60	0xbd1b5435	-0.037922103
61	0xbd87fe68	-0.06640321
62	0xbccb0a82	-0.024785284
63	0x3cfb1035	0.030647377
64	0xbc514998	-0.012773894
65	0xbd927c01	-0.07152558
66	0xbd7cf8b1	-0.061760608
67	0xbca3c85f	-0.019993005
68	0xbd12513d	-0.035722006
69	0x3c96c20f	0.018403081
70	0x3d06cb20	0.03290856
71	0xbcb7a8b8	-0.022419319
72	0xbd8ac507	-0.06775861
73	0xbd8ff895	-0.07029835
74	0xbdc853c4	-0.09781602
75	0x3d34a433	0.044101905
76	0xbd91f9bc	-0.07127711
77	0xbdf7e8bb	-0.12104937
78	0xbd47748f	-0.048695143
79	0xbbca0d97	-0.006166171
80	0xbd8dab3f	-0.06917428
81	0xbde89401	-0.113563545
82	0xbd80de2c	-0.06292376
83	0xbd18322c	-0.037157223
84	0x3d2825cb	0.041051667
85	0x3b370280	0.0027925074
86	0xbce43a6b	-0.027859887
87	0xbdd02e2b	-0.10165056
88	0xbcd8e113	-0.026474511
89	0xbd5526da	-0.052039005
90	0xbdc42641	-0.09577609
91	0x3d03d252	0.032183
92	0xbd44f3e9	-0.048084173
93	0x3cf651de	0.030068334
94	0xbd281570	-0.04103607
95	0xbdcb6a6c	-0.09932408
96	0xbdba856e	-0.09107481
97	0x3cfa964a	0.030589242
98	0xbde03e6a	-0.109494045
99	0xbcc18ab2	-0.023625705
100	0xbcc428a1	-0.023945155
101	0xbd8add12	-0.06780447
102	0x3d4bb31f	0.04973137
103	0xbd90a98d	-0.07063589
104	0xbce28dd1	-0.027655514
105	0x3d11068e	0.03540664
106	0xbd5515f3	-0.052022886
107	0xbdba0edb	-0.09084865
108	0xbd762d2b	-0.06010167
109	0xbd112983	-0.03543998
110	0xbd3ff20c	-0.046861693
111	0xbc93a8eb	-0.018024882
112	0xbce088e1	-0.027409019
113	0x3ce1eee2	0.027579729
114	0xbd8a30c3	-0.06747582
115	0xbd8e320c	-0.069431394
116	0xbdb255af	-0.08707749
117	0xbd7d64cc	-0.061863706
118	0xbd20f0e9	-0.03929225
119	0xbd4666aa	-0.04843775
120	0x3bcacf86	0.0061892895
121	0xbd2d234e	-0.042269997
122	0xbc1a1133	-0.009403515
123	0xbc84202e	-0.016128626
124	0xbdb5bac6	-0.08873515
125	0xbc6b3cf7	-0.014357797
126	0xbceabe93	-0.028655326
127	0xbd353d79	-0.044248078
128	0xbcc0cbe5	-0.023534724
129	0xbd3c4f14	-0.045973852
130	0xbd7da2d7	-0.061922874
131	0xbdd14d77	-0.10219853
132	0xbda857c2	-0.082198635
133	0xbd1eb3b2	-0.03874559
134	0xbc7f6b5c	-0.015589561
135	0xbdecf9f0	-0.11571109
136	0xbc390c6e	-0.011294467
137	0x3c45f028	0.0120811835
138	0x3b7d644e	0.0038664523
139	0xbbb61eee	-0.0055578863
140	0xbddc17c6	-0.10746722
141	0xbda65b40	-0.08122873
142	0xbd516b70	-0.05112785
143	0xbd207be2	-0.039180644
144	0x3c09b139	0.00840407
145	0xbcb61e40	-0.022231221
146	0x3ce45816	0.027874034
147	0xbd707406	-0.0587044
148	0xbdb058f6	-0.08610718
149	0x3d086922	0.033303387
150	0xbba33618	-0.0049808137
151	0x3c8461f5	0.01615999
152	0xbdc2c797	-0.09510725
153	0xbc877451	-0.016534956
154	0xbd1b659a	-0.03793869
155	0x3d07f4e3	0.033192527
156	0x3d0fdaa4	0.03512062
157	0x3d97dd2a	0.074152306
158	0xbcee067f	-0.029055832
159	0xbd0d7e6f	-0.034544405
160	0xbbf8e9a9	-0.007596214
161	0xbd7aad09	-0.061200175
162	0xbc2df57d	-0.010617611
163	0xbe0b68b9	-0.13614167
164	0xbcfa384f	-0.030544428
165	0x3b95f7f3	0.004576677
166	0xbc81f0cb	-0.01586189
167	0xbcd356cb	-0.025798222
168	0xbcda987e	-0.026684042
169	0xbdc200fa	-0.094728425
170	0xbc887901	-0.016659262
171	0xbbbe8948	-0.005814705
172	0xbcfa8884	-0.030582674
173	0xbdc41ea2	-0.09576155
174	0xbd7d7ecf	-0.061888512
175	0x3b643891	0.0034823755
176	0xbd56fe25	-0.052488465
177	0xbd1388f6	-0.036019288
178	0x3c5a012c	0.013305943
179	0xbd4c0ba0	-0.049815774
180	0xbd7a2e57	-0.06107935
181	0xbd88189b	-0.06645318
182	0xbd03f9db	-0.032220703
183	0x3bd9d01f	0.0066471244
184	0xbde4eb04	-0.11177638
185	0xbdf2f0c0	-0.11862326
186	0xbdb99fdc	-0.09063694
187	0xbd0f91ab	-0.03505103
188	0x3b4729af	0.0030389836
189	0xbd40bd02	-0.047055252
190	0xbd5b7098	-0.053574175
191	0xbe51c813	-0.20486479
192	0x3ba1f403	0.0049424185
193	0xbcc83b04	-0.024442203
194	0xbde0e5ad	-0.10981307
195	0xbd3c16b9	-0.045920108
196	0xbda26493	-0.07929339
197	0xbc593c23	-0.013258967
198	0xbdb14146	-0.08655028
199	0xbc90486c	-0.017612658
200	0xbd81ee71	-0.06344307
201	0xbdd3a2cb	-0.10333785
202	0xbdaa6e93	-0.083218716
203	0xbdafe85b	-0.0858924
204	0xbde50564	-0.11182669
205	0x3c0bfdbf	0.0085443845
206	0xbd0fcb43	-0.035105955
207	0xbd1673a9	-0.036731396
208	0xbc65fb74	-0.014037002
209	0x3d02f2ed	0.031969953
210	0xbd706aee	-0.058695726
211	0xba650e39	-0.0008737776
212	0xbd57f316	-0.05272206
213	0xbe03f762	-0.12887338
214	0xbc431987	-0.011907942
215	0xbdc7d82d	-0.09758029
216	0xbd0285d9	-0.03186593
217	0xbd59d6b5	-0.053183276
218	0x3c8f6975	0.01750634
219	0x3aa28b9b	0.0012401225
220	0x3cc458d6	0.023968142
221	0xbd06058d	-0.032720137
222	0x3d2acf3e	0.041701548
223	0x3d2acb51	0.041697804
224	0xbe0cec66	-0.13762054
225	0x3ac987e9	0.0015375587
226	0xbdf76157	-0.12079113
227	0x3c285834	0.0102749355
228	0xbd396b2c	-0.045268223
229	0x3cc2276e	0.023700442
230	0xbd6e7d9e	-0.058225267
231	0xbcf781b8	-0.030213222
232	0xbd0e597a	-0.0347533
233	0x3d655ef3	0.055998754
234	0xbda62348	-0.08112198
235	0xbc81f40b	-0.015863439
236	0x3d4344bb	0.04767297
237	0x3c15e524	0.00914887
238	0xbda15459	-0.07877416
239	0xbbb1fcf3	-0.005431765
240	0xbd2e9697	-0.042624082
241	0xbca70a92	-0.020390783
242	0xbd696d50	-0.056989014
243	0xbdb75386	-0.08951478
244	0xbca2cfba	-0.019874442
245	0x3cb273e8	0.021783784
246	0xbbd3133e	-0.006441503
247	0xbcdb40af	-0.026764242
248	0xbc00f9b1	-0.007872031
249	0xbdad6c4c	-0.084679216
250	0xbd11138b	-0.03541903
251	0x3d83f318	0.06442851
252	0xbc6da4ec	-0.0145046525
253	0xbd1ae617	-0.037817087
254	0x3cffda44	0.031232007
255	0xbd6db833	-0.058036994

bias f4 [256]
0	0xbddcb042	-0.10775806
1	0xbdf59699	-0.11991615
2	0x3e97a897	0.2962081
3	0x3f288174	0.6582253
4	0xbe13ee2f	-0.14446329
5	0xbe1ee29b	-0.1551613
6	0x3f4f81b7	0.81057304
7	0x3f14b626	0.58090436
8	0xbdf5c82f	-0.120010726
9	0xbe979582	-0.29606253
10	0xbf5af35e	-0.855276
11	0xbeadcc33	-0.33944854
12	0xc010aebf	-2.2606657
13	0xbfb5a2cf	-1.419031
14	0xbfda28da	-1.7043717
15	0x3f106b11	0.5641337
16	0x3ebc40a6	0.36768073
17	0xbd900369	-0.070319004
18	0xbdf5f9e8	-0.120105565
19	0xbe140747	-0.14455901
20	0xbecb0bad	-0.39657345
21	0x3ff5f47b	1.9215235
22	0xbdb42b5b	-0.08797332
23	0xbda3a349	-0.079901285
24	0xbf8a009d	-1.0781437
25	0x3f0524e4	0.52009416
26	0xbddeb653	-0.10874619
27	0xbdb5a863	-0.08870008
28	0xbf3aca17	-0.72964615
29	0x3e2fa78f	0.17153762
30	0xc00c2dad	-2.1902878
31	0xbd12d6cc	-0.035849378
32	0xbde46c5a	-0.11153479
33	0xbfe38e70	-1.7777843
34	0xbf787348	-0.97050905
35	0xbe03d507	-0.12874232
36	0xbe21da09	-0.1580583
37	0xbd738fa3	-0.059463155
38	0xbe0c04a4	-0.13673645
39	0xbe04f290	-0.12983155
40	0x3ee70d37	0.4512727
41	0xbfa5104f	-1.2895602
42	0xbe496f02	-0.19671252
43	0xbe2503c8	-0.16114724
44	0xbdfdd759	-0.1239459
45	0xbeb08b8e	-0.34481472
46	0xbe0a583c	-0.13510221
47	0xbf348076	-0.70508516
48	0xbd2c8d7a	-0.04212711
49	0xc066e207	-3.6075456
50	0xbd05a64e	-0.032629304
51	0xbe3b1be1	-0.18272354
52	0x3f3f85b7	0.7481341
53	0xbe2bf408	-0.1679231
54	0xbf16a53f	-0.58845896
55	0x3ee27f59	0.44237784
56	0xbdd56166	-0.10418968
57	0xbe06028c	-0.13086909
58	0xbc836b52	-0.016042385
59	0xbe3948c5	-0.18094166
60	0xbc20b4c8	-0.009808727
61	0xbd5944df	-0.053044196
62	0xbf03747f	-0.51349634
63	0xbedfad7a	-0.4368704
64	0xbd7d24c7	-0.06180265
65	0xbdb04f16	-0.086088344
66	0xbdace701	-0.08442498
67	0xbfed3819	-1.8532745
68	0xbda22de3	-0.079189084
69	0xbde2091c	-0.11036894
70	0xbdf2a407	-0.11847692
71	0xbe0def77	-0.1386088
72	0xbe2257b2	-0.15853766
73	0x3d07acc7	0.033123758
74	0x3e5f20b3	0.21789818
75	0xbebb4cab	-0.3658193
76	0xbe0b12d3	-0.135814
77	0xbe5ff6e0	-0.21871519
78	0xbfc2ea55	-1.5227762
79	0x3d4b68ed	0.049660612
80	0xbda8c43f	-0.08240556
81	0xbdd6e1cf	-0.10492288
82	0x3f543d4a	0.8290602
83	0xbe199354	-0.14997607
84	0xbdc6381d	-0.096786715
85	0xbefb4b6a	-0.49080974
86	0xbe168317	-0.14698444
87	0xbf200d59	-0.62520367
88	0xbe0d1826	-0.13778743
89	0xbe1caf2d	-0.153012
90	0x3fcd29b3	1.602835
91	0xbe83d7db	-0.25750622
92	0xbe35b1c7	-0.17743598
93	0xbe119219	-0.14215888
94	0xbdc8873f	-0.09791421
95	0xbfe453b0	-1.7838039
96	0xbe1640ea	-0.146732
97	0x3f3b4e21	0.7316609
98	0xbdfbc74c	-0.12293872
99	0xbdb85d43	-0.09002163
100	0xbfb58a27	-1.4182786
101	0xbf8a5100	-1.0805969
102	0xbdf9db89	-0.12200076
103	0xbdc2eb7d	-0.09517572
104	0xbd40802a	-0.046997227
105	0xbd8a9b9c	-0.067679614
106	0xbde78810	-0.11305249
107	0xbce27ba2	-0.027646843
108	0xbd6e6f1e	-0.05821144
109	0xbd6e41de	-0.058168285
110	0xbe037339	-0.12836923
111	0xbdcb68e1	-0.099321134
112	0x3fba8e7d	1.4574734
113	0xbe36fa50	-0.17868924
114	0xbdab5798	-0.083663166
115	0xbdaf891f	-0.08571076
116	0xbf0ebcce	-0.55756843
117	0x3ebe5eb3	0.37181625
118	0xbd8fee8c	-0.07027921
119	0x3efab7ff	0.48968503
120	0xbe05108e	-0.12994596
121	0xbf6692aa	-0.9006754
122	0xbd12d25e	-0.035845153
123	0xbe066bbc	-0.13127035
124	0x3f3e1609	0.7425237
125	0xc01647d8	-2.348135
126	0xbdb60721	-0.088880785
127	0xbe05a48a	-0.13051048
128	0xbdf49958	-0.119433105
129	0xbf9448d9	-1.1584731
130	0xbdcba088	-0.09942728
131	0xbe125a35	-0.14292224
132	0xbdfc2244	-0.12311223
133	0x3f7b4160	0.9814663
134	0xbdad9b1f	-0.084768526
135	0xbd72f666	-0.059317015
136	0xbf9e571e	-1.2370336
137	0xbe14501e	-0.14483687
138	0xbd863d31	-0.0655464
139	0x3de5f531	0.11228407
140	0xbe4ad895	-0.19809182
141	0xbd53977c	-0.05165814
142	0x3e884849	0.2661765
143	0xbdfe1142	-0.124056354
144	0x3f8244e6	1.0177276
145	0xbdc32f31	-0.095304854
146	0x3e70f150	0.23529553
147	0xbfcb8196	-1.5898921
148	0xbe533b83	-0.2062817
149	0xbd97dab1	-0.07414759
150	0xbe2c5427	-0.16828977
151	0xbe4e3377	-0.2013682
152	0xbdb86450	-0.09003508
153	0xbdb37bad	-0.08763824
154	0xbe31af19	-0.1735195
155	0x3fd0e650	1.6320286
156	0x3ef00183	0.46876153
157	0xbd3dd713	-0.04634769
158	0xbdd7152c	-0.10502085
159	0xbdcf7564	-0.10129812
160	0xbded2a50	-0.11580336
161	0xbbace4b6	-0.005276288
162	0xbdd36de9	-0.10323698
163	0xbefec4fc	-0.49759662
164	0xbd57839d	-0.05261575
165	0xbdfa7e6e	-0.12231146
166	0xbe0ef410	-0.1396029
167	0xbe049834	-0.12948686
168	0xbf3182b7	-0.6934008
169	0xbf133445	-0.5750163
170	0xc02d1381	-2.7043154
171	0xc028e761	-2.6391222
172	0xc0029996	-2.0406241
173	0xbece22c7	-0.40260908
174	0xbf77203c	-0.9653356
175	0xbee91c0a	-0.45529205
176	0x3e6330a0	0.22186518
177	0xbe163a50	-0.14670682
178	0xbe915fc2	-0.2839337
179	0xc00e8f7c	-2.2275076
180	0xbfbfa412	-1.4971945
181	0xbd189420	-0.037250638
182	0x3e75dddb	0.24010412
183	0xbfb18b8d	-1.3870713
184	0xbe534faa	-0.20635858
185	0xbff2fcf4	-1.8983445
186	0xbe0b4454	-0.13600284
187	0x3e9593cc	0.29214323
188	0xbf8666ce	-1.0500124
189	0xbd92d979	-0.07170386
190	0x3f5298a2	0.8226415
191	0xc0705f73	-3.7558258
192	0xbdbe28f7	-0.09285157
193	0xbd8f5273	-0.06998148
194	0xbdf7f673	-0.12107553
195	0xbde96b97	-0.11397474
196	0xbf43dd20	-0.76509285
197	0xbe3f9f2c	-0.18713063
198	0xbe1954c8	-0.14973748
199	0xbe12e609	-0.14345564
200	0xbe05f0fe	-0.13080212
201	0xbd9b6184	-0.07586959
202	0xbdc01974	-0.09379855
203	0xbf4e8f8c	-0.80687785
204	0xbdcb4364	-0.09924963
205	0xbe92a73a	-0.2864321
206	0xbf9dba5c	-1.2322497
207	0xbe065552	-0.13118485
208	0xbd9b83cf	-0.075935
209	0xbea2b9cb	-0.31782374
210	0xbde82b92	-0.113364354
211	0x3f4c5591	0.79818064
212	0xbd708ae4	-0.058726206
213	0x3d8b7256	0.06808917
214	0x3fc86d75	1.5658404
215	0xbf94933e	-1.1607435
216	0xbd886cf9	-0.0666141
217	0x3d883825	0.06651334
218	0xbb09ba9d	-0.0021015771
219	0xbdb951e5	-0.09048823
220	0xbd995140	-0.074862
221	0xbdc9f6b7	-0.0986151
222	0xbfb00c21	-1.3753701
223	0xbde7d8d8	-0.113206565
224	0xbe259a48	-0.16172135
225	0x3db96c34	0.09053841
226	0xbffa7b32	-1.9568846
227	0x3f297503	0.6619417
228	0xbd6d44a1	-0.057926778
229	0xbe98130d	-0.29702035
230	0x3f62697d	0.8844221
231	0xbeb468f6	-0.3523633
232	0xbe07d6c4	-0.1326552
233	0xbd6a2677	-0.05716559
234	0xbdb6e29a	-0.089299396
235	0xbe1c539f	-0.15266274
236	0xbdbec2e5	-0.09314517
237	0xbfa3cd69	-1.2797061
238	0xc041371b	-3.0189884
239	0xbe2195ea	-0.15779844
240	0xbdcda615	-0.10041443
241	0x3f225eb2	0.63425744
242	0xbe3b72c4	-0.18305498
243	0x3c4b8fc3	0.012424412
244	0xbd9c9a58	-0.07646626
245	0xbf6f750b	-0.9353797
246	0xbdbe8403	-0.09302523
247	0xbe9ad618	-0.30241466
248	0xbf7b8fe9	-0.98266464
249	0xbe3046bb	-0.17214482
250	0x3f92b903	1.1462711
251	0xbf8744e6	-1.0567901
252	0xbfb3b09f	-1.4038275
253	0xbce868fb	-0.028370371
254	0xbe14f665	-0.14547117
255	0x3f04fdef	0.5194997

weight f4 [3, 256]
0	0x3c90a2f2	0.017655823
1	0x3b00bcb6	0.001964373
2	0xbe2d748e	-0.16938993
3	0xbd5274d3	-0.051380944
4	0xbd26f5ef	-0.040761884
5	0x3a382f1a	0.00070260616
6	0x3e1f6d42	0.15569022
7	0xbcac3282	-0.021020178
8	0xbcc7074a	-0.024295468
9	0xbbf1e8d4	-0.0073824916
10	0xbd188228	-0.0372335
11	0x3c82ce8c	0.01596763
12	0x3d8ba928	0.06819373
13	0x3e132931	0.14371182
14	0x3e0b8b6f	0.13627408
15	0xbdd8c835	-0.105850615
16	0xbd6f4b64	-0.058421507
17	0xbe28962b	-0.16463535
18	0xbb4cc7bb	-0.0031246978
19	0x3c93d18e	0.01804426
20	0x3d529c39	0.051418517
21	0xbda5e070	-0.08099449
22	0x3d0bc69f	0.034124967
23	0xbd197c14	-0.037471846
24	0xbc7910fb	-0.015201802
25	0xbd0ba0f0	-0.03408903
26	0x3d779650	0.060446084
27	0xbdba2e0d	-0.09090815
28	0xbf2a4754	-0.6651509
29	0x3d4c58c6	0.04988935
30	0xbba96969	-0.0051700366
31	0xbce08447	-0.027406825
32	0x3cb977f0	0.022640198
33	0xbc22f479	-0.009945982
34	0xbdc59d48	-0.0964914
35	0x3bb36910	0.005475171
36	0x3dc3b968	0.09556848
37	0xbbc55a96	-0.0060227616
38	0xbc1d61e5	-0.009605859
39	0xbc07d354	-0.008290131
40	0x3cf87a49	0.030331748
41	0x3cd6106f	0.026130883
42	0xbd3d1564	-0.046162978
43	0x3d8146a6	0.06312303
44	0xbde0684a	-0.109573916
45	0xbeb0c310	-0.3452382
46	0xbd34f95c	-0.04418312
47	0xbf84f2c4	-1.0386586
48	0x3d012301	0.031527523
49	0xbdd100b3	-0.102052115
50	0xbdce5e1c	-0.10076544
51	0xbc40da4f	-0.011770799
52	0x3e826582	0.2546807
53	0x3ca661c5	0.020310292
54	0xbd722f61	-0.059127215
55	0xbdd37994	-0.103259236
56	0xbdb76d9d	-0.08956454
57	0xbc106fc6	-0.008815711
58	0xbb439739	-0.0029844774
59	0x3c9f1eab	0.019423803
60	0x3b26370c	0.00253624
61	0x3b90fec5	0.004424902
62	0xbe8e8267	-0.27833864
63	0x3efdb122	0.49549204
64	0x3de4a7a3	0.11164787
65	0xbd1ac38d	-0.037784148
66	0x3c91ed24	0.017813273
67	0x3f87ece7	1.0619172
68	0xbcd8065d	-0.026370222
69	0x3c8f54c4	0.017496474
70	0x3d75bc6e	0.059994154
71	0xbcbdeee3	-0.0231852
72	0xbca04c44	-0.019567616
73	0x3dd0cfd3	0.10195889
74	0x3db510a6	0.08841066
75	0x3db1071f	0.08643936
76	0x3d140260	0.036135077
77	0xbd3ebb5c	-0.0465654
78	0xbe262bd5	-0.16227658
79	0xbdcf0bb2	-0.101096526
80	0x3d0a28f1	0.03373045
81	0xbd3ae47f	-0.045628067
82	0x3c4b353d	0.01240283
83	0xbca2c4c5	-0.019869218
84	0xbcac7fb8	-0.021056995
85	0x3d1ee667	0.038793948
86	0xbdb16efd	-0.086637475
87	0x3c2dccd6	0.010607919
88	0xbc2e9827	-0.010656393
89	0x3d4e7615	0.05040558
90	0xbe30b4b0	-0.17256427
91	0xbd43a037	-0.047760215
92	0xbdb81aba	-0.08989473
93	0x3d17d234	0.0370657
94	0xbe33b487	-0.17549334
95	0x3ca08b17	0.019597573
96	0x392cfc53	0.00016497196
97	0x3d6ce589	0.05783609
98	0x3db78384	0.089606315
99	0xbd27c0a0	-0.040955186
100	0x3cbd2f64	0.023093887
101	0x3d1027f5	0.035194356
102	0xbc632f05	-0.013866191
103	0xbd6be4f9	-0.057591412
104	0xbc7de13f	-0.015495597
105	0xbcd34965	-0.025791833
106	0xbd710e3f	-0.058851477
107	0x3c0da73f	0.008645832
108	0x3cba6674	0.022753932
109	0xbd4cbf4b	-0.04998712
110	0xbc225959	-0.009908997
111	0x3d7e88b6	0.062142096
112	0xbd6e7243	-0.058214437
113	0xbd3d8b49	-0.04627541
114	0xbd7f7256	-0.0623649
115	0xbba5acb7	-0.0050559896
116	0xbf24e241	-0.64407736
117	0xbde1c15b	-0.11023208
118	0x3c523683	0.012830379
119	0x3d83c9f8	0.06435007
120	0x3c93dd3a	0.018049825
121	0x3d7464ae	0.059666328
122	0xbd141f80	-0.036162853
123	0x3da015da	0.07816668
124	0xbdb1e3f8	-0.0868606
125	0x3d1675f6	0.03673359
126	0x3d1465fc	0.036230072
127	0x3d02b219	0.03190813
128	0x3c8a9b02	0.016919617
129	0xbd5c4f6d	-0.053786684
130	0x3d1071e5	0.03526487
131	0xbd2b3110	-0.041794837
132	0x3d7410e8	0.059586436
133	0x3e4d12ff	0.20026778
134	0x3dd03dda	0.10168047
135	0xbe72c80d	-0.23709126
136	0xbeab5fec	-0.3347162
137	0xbd9db947	-0.077013545
138	0xbd09de3e	-0.033659212
139	0x3a6f5aa8	0.00091306353
140	0xbbc05dc9	-0.005870555
141	0xbcee5ab3	-0.029095983
142	0xbc796b16	-0.015223285
143	0xbd132501	-0.03592396
144	0xbd6387c4	-0.055549398
145	0xbdfce51b	-0.12348386
146	0x3d67f9e1	0.056634787
147	0x3e191f8c	0.1495344
148	0xbe8c61e6	-0.2741844
149	0x3bd9d092	0.006647178
150	0xbd495423	-0.049152505
151	0x3bc776e5	0.0060871714
152	0xbcd8c346	-0.026460301
153	0x3d541705	0.051779766
154	0x3d74731a	0.059680082
155	0x3cb999e3	0.022656387
156	0xbca111ec	-0.019661866
157	0x3c88e3ec	0.016710244
158	0xbd9c9ec7	-0.07647472
159	0xbd024104	-0.031800285
160	0xba165e8b	-0.0005736134
161	0xbd10b4b7	-0.035328593
162	0xbd5511f5	-0.05201908
163	0x3e0ed021	0.13946582
164	0xbd5d2994	-0.05399473
165	0x3ad0ca65	0.0015929459
166	0x3dd62f11	0.10458196
167	0xbcf04d91	-0.029333862
168	0x3bd38d93	0.006456086
169	0x3db3761f	0.08762764
170	0xbc0c47c7	-0.008562035
171	0xbda8df6f	-0.082457416
172	0xbed00142	-0.4062596
173	0x3c96cab4	0.018407203
174	0xbed1a768	-0.40948033
175	0xbec4595a	-0.3834942
176	0xbefc6d73	-0.49302253
177	0x3ca90378	0.020631537
178	0xbe16209e	-0.1466088
179	0xbe41ed53	-0.18938188
180	0xbeb567a2	-0.35430628
181	0xbb00586d	-0.0019583956
182	0x3d87adbf	0.06624936
183	0x3e11ccf1	0.14238335
184	0xba143002	-0.00056529057
185	0x3e0946ff	0.13405989
186	0xbd51c143	-0.0512097
187	0x3d049213	0.03236587
188	0x3e2da126	0.16956005
189	0xbda86ca2	-0.08223845
190	0x3dc2c0a1	0.09509397
191	0xbd166bca	-0.03672389
192	0xbd2b6b5b	-0.04185043
193	0xbd031588	-0.032002956
194	0xbbc7a372	-0.0060924822
195	0xbcad4a05	-0.02115346
196	0x3c58ee53	0.013240415
197	0x3c420644	0.011842314
198	0x3d96e016	0.0736696
199	0xbbce7bc5	-0.0063013756
200	0x3cb99a0a	0.02265646
201	0xbd0d5d6d	-0.034512926
202	0x3db92cf8	0.0904178
203	0xbb96db4a	-0.004603778
204	0xbd4a7aee	-0.04943364
205	0x3d8a608c	0.06756696
206	0x3e83942e	0.2569899
207	0x3c98a99b	0.018635562
208	0xbcad9d43	-0.021193152
209	0x3dd30854	0.10304323
210	0x3d971fe9	0.07379133
211	0x3d0e606c	0.034759924
212	0xbd01a4d2	-0.031651326
213	0xbe429534	-0.19002229
214	0xbd15f951	-0.03661472
215	0x3d5ce03d	0.053924788
216	0x3a32c96a	0.0006820174
217	0x3d5d3b16	0.054011427
218	0x3c401b29	0.0117252255
219	0x3d7cbb04	0.06170179
220	0x3a4c2f7f	0.000778906
221	0xbd1f96e7	-0.03896227
222	0x3ded0c9e	0.11574672
223	0x3d13b288	0.036058933
224	0x3d8977ac	0.06712279
225	0xbe163915	-0.14670213
226	0xbd7a62d1	-0.061129395
227	0x3cac597a	0.02103876
228	0xbcaf8b82	-0.021428827
229	0xbf75fcb9	-0.9608875
230	0xbc3794ae	-0.011204882
231	0x3e46bcbd	0.19407935
232	0x3d2805db	0.04102121
233	0xbc15f4c3	-0.009152594
234	0x3d83c93a	0.06434865
235	0xbd991614	-0.07474914
236	0x3cc4341b	0.023950627
237	0xbcb74276	-0.022370558
238	0xbf2a0771	-0.66417605
239	0xbd6e00f3	-0.058106374
240	0x3cd85103	0.026405817
241	0xbdbd9ecd	-0.092588045
242	0xbcf0c874	-0.029392458
243	0xbe26b596	-0.16280207
244	0x3a81dd62	0.0009907896
245	0xbbce8b43	-0.0063032224
246	0xbd0befde	-0.034164302
247	0xbdf0bd0a	-0.11754806
248	0xbec5ba7d	-0.38618842
249	0x3cd267be	0.025684234
250	0x3d177c09	0.036983524
251	0x3dec4ef6	0.11538498
252	0xbb7c93a3	-0.0038540147
253	0x3da12357	0.07868069
254	0x3c7520b0	0.014961407
255	0xbe498f55	-0.19683583

bias f4 [3]
0	0x3dc2f734	0.095198065
1	0x3de3745e	0.1110618
2	0xbe39bdaa	-0.18138757

weight f4 [3, 256]
0	0xbd1c26ea	-0.03812305
1	0x3d4882c5	0.048952837
2	0x3cbe1784	0.023204572
3	0xbce72572	-0.028216098
4	0x3c059ae7	0.008154607
5	0x3df19ef7	0.11797898
6	0xbd1135de	-0.035451762
7	0x3d102079	0.03518722
8	0xbb674089	-0.0035286269
9	0x3dfdd060	0.1239326
10	0xbcecb41d	-0.028894478
11	0x3b9c7ab8	0.0047753714
12	0x3d07d023	0.03315748
13	0xbd81a1c9	-0.06329686
14	0xbc90d971	-0.01768181
15	0x3cee3b93	0.029081142
16	0xbcfae399	-0.030626105
17	0x3cc5c62d	0.02414235
18	0x3d083003	0.033248913
19	0x3d589cd1	0.052883927
20	0xbbd98224	-0.0066378284
21	0xbd665bef	-0.05624002
22	0x3c4ef3af	0.012631341
23	0x3df157ac	0.117843
24	0xbbebf4e2	-0.007200823
25	0xbc9af58a	-0.01891591
26	0x3c999908	0.018749729
27	0x3d99653f	0.07490014
28	0x3f9ee6e1	1.2414209
29	0x3cdcba56	0.02694432
30	0x3c9f8790	0.01947382
31	0xbd7119db	-0.05886255
32	0xbd2aa07f	-0.041656967
33	0xbc0b2564	-0.008492801
34	0x3c2c60b3	0.010521102
35	0xbc809b58	-0.015699074
36	0x3e2414a8	0.16023505
37	0x3e1ae6f1	0.1512716
38	0x3bd86a82	0.0066044936
39	0xbd1d8545	-0.038457174
40	0x3d12911a	0.03578291
41	0xbd16c35e	-0.03680741
42	0x3ae3afa5	0.0017371072
43	0x3c0bea1d	0.008539704
44	0x3e012a22	0.12613729
45	0x3e715e29	0.23571075
46	0x3d6166be	0.055029623
47	0x3f850697	1.0392636
48	0x3de5a760	0.11213565
49	0xbd3c8280	-0.046022892
50	0x3e03f3ed	0.12886019
51	0x3d55ce31	0.052198593
52	0xbb8fe965	-0.0043918365
53	0xbc1193ac	-0.008885305
54	0x3e20280e	0.1564028
55	0x3b1486ff	0.0022663472
56	0xbddd0676	-0.10792248
57	0xbe14023c	-0.14453977
58	0xbd9f5489	-0.07779796
59	0xbc557155	-0.013027509
60	0x3d86269a	0.065503314
61	0xbc17444b	-0.009232591
62	0x3f2a50df	0.6652965
63	0x3eb174f2	0.34659535
64	0xbd39e8e1	-0.045388106
65	0xbc3c71a7	-0.011501706
66	0xbd53b889	-0.05168966
67	0x3ed1a40b	0.40945467
68	0x3dce2469	0.100655384
69	0xbcfcae1d	-0.030844742
70	0xbd75aabf	-0.05997729
71	0x3d51a0c7	0.05117872
72	0xbcf4411a	-0.0298162
73	0x3b4fc9df	0.0031706018
74	0x3f7a9fc8	0.97900057
75	0xbc2f94bd	-0.010716614
76	0x3d496f0a	0.04917816
77	0x3d72379e	0.059135072
78	0xbc63c787	-0.0139025515
79	0xbcd3250f	-0.025774507
80	0xbdae2153	-0.0850245
81	0x3d4f471a	0.050604917
82	0x3cde4f26	0.02713735
83	0x3d6cde23	0.057829034
84	0xbc960be6	-0.01831622
85	0xbd6c241a	-0.057651617
86	0x3d498934	0.049203113
87	0x3e02d995	0.12778313
88	0x3c86e7d1	0.01646796
89	0xbc44fe43	-0.012023511
90	0x3cec9049	0.028877394
91	0xbbd5e7b9	-0.0065278676
92	0xbd14a79e	-0.036292665
93	0x3c1cee1a	0.009578252
94	0x3d4f879b	0.050666433
95	0xbd15bacb	-0.036555093
96	0x3cd2a5eb	0.025713881
97	0x3b5cb2fb	0.0033676017
98	0x3d361e08	0.044462234
99	0x3d257f27	0.040404465
100	0xbdaf8152	-0.08569588
101	0xbd2aeffb	-0.04173277
102	0x3d875a88	0.06609064
103	0x3cc7057f	0.024294613
104	0x3da62a73	0.08113565
105	0x3d49068f	0.04907852
106	0x3d51e2b2	0.051241584
107	0xbd288e8a	-0.04115156
108	0x3d10e238	0.03537199
109	0xbc7aa2f1	-0.015297637
110	0x3de2720b	0.11056908
111	0x3d0d3052	0.03446991
112	0x3c1c16f9	0.0095269615
113	0x3d5e8f1d	0.054335702
114	0xbca926cc	-0.020648383
115	0xbce9d9db	-0.028546264
116	0x3e91db06	0.28487414
117	0xbb6c8b49	-0.0036093763
118	0xbc02e933	-0.007990169
119	0xbcdb1946	-0.02674545
120	0xbd6eff6a	-0.05834905
121	0x3dea5d2d	0.11443553
122	0xbc92e96b	-0.017933568
123	0x3dd712c2	0.10501625
124	0xbdf15625	-0.11784009
125	0x3d8dc992	0.06923212
126	0x3dbc3844	0.09190419
127	0x3dd986d7	0.10621422
128	0x3e80cef8	0.25157905
129	0x3cb4eda7	0.022085978
130	0xbc76e950	-0.0150702745
131	0x3de864cd	0.11347351
132	0x3ca8a40f	0.020586042
133	0xbcab8163	-0.02093572
134	0xbdd92286	-0.10602288
135	0x3e1fabdb	0.15592901
136	0x3f2a0b51	0.6642352
137	0xbc84e1d1	-0.016220959
138	0x3e2cdb67	0.1688057
139	0xbbe5cc43	-0.0070128753
140	0x3c615efe	0.013755558
141	0x3bd8b67f	0.006613552
142	0x3c8098ee	0.015697923
143	0x3d754e0e	0.059888892
144	0x3ce2b64c	0.027674817
145	0x3d1e6f0d	0.038680125
146	0xbba6b739	-0.00508776
147	0xbba7fb4e	-0.0051263934
148	0x3d5dceaf	0.054152187
149	0xbc3d663d	-0.01156002
150	0x3cc6a0f8	0.024246678
151	0x3d444a73	0.047922563
152	0xbb91142e	-0.0044274544
153	0xbd80b4dd	-0.06284497
154	0xbcaece56	-0.021338623
155	0xbca6d32b	-0.020364365
156	0x3cd757df	0.026287017
157	0xbd221d75	-0.039578874
158	0x3d89a478	0.06720823
159	0x3d74338d	0.059619475
160	0xbc121955	-0.008917172
161	0xbcf54daa	-0.02994426
162	0x3e337001	0.17523195
163	0xbd04ab73	-0.03239007
164	0x3dc506c9	0.09620435
165	0x3d0cb0a0	0.03434813
166	0xbd5b41a5	-0.0535294
167	0x3dcdf02d	0.100555755
168	0x3ef3400f	0.4750981
169	0xbdaeeadb	-0.08540889
170	0xbc84d4d3	-0.016214764
171	0x3dd87a48	0.10570198
172	0x3eeb1794	0.45916426
173	0xbd14a10c	-0.0362864
174	0x3e837e1c	0.2568215
175	0x3fa63f5f	1.2988089
176	0x3f33dbd9	0.70257336
177	0xbd122e08	-0.03568843
178	0x3bbdf2f6	0.0057967855
179	0xbc423e4f	-0.011855676
180	0x3efb982f	0.49139544
181	0x3e0167d9	0.12637271
182	0x3d4d0b65	0.050059695
183	0x3ee8cec5	0.45470253
184	0x3cb06ded	0.021536792
185	0x3d945ef9	0.07244677
186	0xbc3bdd0e	-0.011466278
187	0xbd4db218	-0.05021867
188	0x3c44f482	0.012021186
189	0x3d962eae	0.07333122
190	0xbbbff752	-0.0058583403
191	0xbcdcbf66	-0.026946735
192	0xbd34b78b	-0.044120353
193	0x3baeff03	0.0053404584
194	0xbd2990bd	-0.0413978
195	0x3dad8e20	0.08474374
196	0x3e792a2e	0.24332497
197	0x3f182ea7	0.59446186
198	0xbd917c37	-0.0710377
199	0x3bfad88a	0.007655208
200	0xbd12e8ca	-0.035866536
201	0x3cc8d5a6	0.024515938
202	0x3c610e30	0.013736293
203	0xbb599ef3	-0.0033206313
204	0xbce4867f	-0.027896164
205	0xba377d8a	-0.0006999603
206	0xbd34b7d0	-0.04412061
207	0x3e4d8315	0.20069535
208	0x3d868699	0.06568641
209	0x3e89b7ba	0.26897985
210	0x3dbfa821	0.0935824
211	0x3c40a603	0.01175833
212	0x3d096f17	0.03355321
213	0xbd55497f	-0.052072044
214	0xbc55dd14	-0.013053197
215	0x3d76bf20	0.060240865
216	0xbcd78a06	-0.026310932
217	0x3b5262f1	0.003210243
218	0x3ca1549c	0.019693665
219	0x3e5a70ae	0.21332046
220	0x3d91b390	0.07114327
221	0x3c89a820	0.016803801
222	0x3bbecc21	0.005822674
223	0xbc7fbea4	-0.015609417
224	0x3dab57f4	0.08366385
225	0x3c81c21e	0.015839633
226	0x3e6d2ab3	0.2316082
227	0xbc8e1aa4	-0.017346688
228	0x3d5cb646	0.053884767
229	0x3f2428f6	0.64125
230	0x3c992b81	0.018697502
231	0x3dab513b	0.08365103
232	0xbd359deb	-0.044340055
233	0xbcb2b77a	-0.021816004
234	0x3c977aa7	0.018491102
235	0x3da32878	0.07966703
236	0x3cd8bf0c	0.026458286
237	0x3c04b597	0.008099935
238	0x3f3cbdd3	0.7372715
239	0xbd8d7ff9	-0.069091745
240	0x3cfa620f	0.030564336
241	0x3bfe9492	0.007769176
242	0x3b9a055e	0.004700347
243	0xbd081412	-0.033222266
244	0x3d87ee59	0.06637258
245	0xbc74c807	-0.014940268
246	0x3ccc8226	0.024964403
247	0x3c37eac6	0.011225408
248	0x3e7dc1ac	0.24780911
249	0x3d066fc1	0.03282142
250	0x3c594705	0.013261561
251	0xbc155980	-0.009115577
252	0xbca75a0e	-0.020428684
253	0x3d0bac9a	0.034100153
254	0x3d7b27cb	0.061317246
255	0xbc9e48a7	-0.019321753

bias f4 [3]
0	0xbe645a47	-0.22300063
1	0xbe83f5b0	-0.25773382
2	0xbeb27d92	-0.34861428

weight f4 [256, 14]
0	0xc015ef8a	-2.3427453
1	0x40435cae	3.0525317
2	0x3f0a6d11	0.5407267
3	0x4046877b	3.102019
4	0x3fbc29c2	1.4700243
5	0x3f9820ff	1.188507
6	0xbeaa979f	-0.33318803
7	0xbea02848	-0.31280732
8	0x3dfefe4e	0.124508485
9	0xbf49e0fd	-0.7885893
10	0x3da24469	0.079232045
11	0x3dfad819	0.122482486
12	0xbf9504f8	-1.1642141
13	0xbe85ae66	-0.26109618
14	0xbff3f729	-1.9059802
15	0xc07e8c4c	-3.977313
16	0x4099734c	4.7953243
17	0x3fa1ef33	1.2651123
18	0x4014244d	2.3147156
19	0xbeaa1e82	-0.332264
20	0xbf0074c7	-0.5017819
21	0xbd8d518f	-0.06900322
22	0x3ed3f8e4	0.41400826
23	0xbf5d9a7b	-0.86563843
24	0x3b9299ed	0.004473916
25	0x3ef22456	0.47293347
26	0xbfb117c5	-1.3835379
27	0x3ea896f8	0.3292768
28	0xbf849871	-1.0359021
29	0xc0d483da	-6.641095
30	0xbed66aca	-0.4187835
31	0xbf4574e6	-0.771315
32	0x3c3c94a7	0.011510051
33	0xbf2d2fa1	-0.676508
34	0x3d9859e8	0.07439023
35	0xbef0edad	-0.47056332
36	0xbf051048	-0.5197797
37	0xbc020143	-0.007934871
38	0xbab392a5	-0.001370032
39	0xbfc529a0	-1.5403328
40	0xbd7ae6d7	-0.061255302
41	0x3b2efdba	0.0026701526
42	0xbfb89491	-1.4420339
43	0x3ef6b082	0.4818154
44	0x3dc9bdb7	0.09850638
45	0x40a6f434	5.21731
46	0xbfa40041	-1.2812577
47	0xbfca45d2	-1.5802557
48	0xbd6d6ba0	-0.057963967
49	0xbf25c0de	-0.64747417
50	0x3ef45703	0.47722635
51	0x3f5086ea	0.8145586
52	0x3e85ca01	0.2613068
53	0xbf227ab8	-0.63468504
54	0x3d6ec46b	0.058292788
55	0x3ef1b709	0.47209957
56	0xbfa2558e	-1.2682359
57	0xc0269035	-2.6025517
58	0x3f37126a	0.7151247
59	0x4078aa47	3.885393
60	0x3eb029af	0.34406802
61	0xbea1532d	-0.3150877
62	0x3e00942e	0.12556526
63	0x3cbb0017	0.022827191
64	0x3ea4428a	0.32082015
65	0x3ddf6a7e	0.10908984
66	0x3d301b64	0.04299487
67	0x3f8a89f4	1.082335
68	0x3d914320	0.07092881
69	0xbe29bc07	-0.16575633
70	0x3edf0d64	0.43564904
71	0xc0b93719	-5.787976
72	0x40c9dfe2	6.3085794
73	0x4085f3df	4.1860194
74	0x3f846808	1.0344248
75	0x3f062660	0.52402306
76	0x3e7c4f40	0.24639606
77	0x3fab5eb4	1.3388276
78	0xbf98c63e	-1.1935499
79	0xbf443a8f	-0.76651853
80	0xbe74ba3d	-0.2389917
81	0x3d17c975	0.03705736
82	0xbbb16682	-0.005413831
83	0xbe281828	-0.16415465
84	0xbf698c3f	-0.91229624
85	0x3f73ce37	0.95236534
86	0x40e39a1f	7.1125636
87	0xc044e404	-3.076417
88	0xbe897b96	-0.268521
89	0xbfc75a5f	-1.5574454
90	0x3e85944f	0.26089713
91	0x3df6ed41	0.12056971
92	0x3ef1dd19	0.47238997
93	0x3ef75b06	0.48311633
94	0xbcca770d	-0.024714971
95	0x3e9cda78	0.30635428
96	0xbd6cc9f2	-0.057809778
97	0xbd57c67d	-0.052679528
98	0xbf4ac535	-0.79207164
99	0x406b4e65	3.6766598
100	0x403a285f	2.908714
101	0x40098991	2.1490214
102	0xbf2d1b7a	-0.6762005
103	0xbf85a8cf	-1.0442141
104	0xbe14f523	-0.14546637
105	0x3f68ff95	0.9101499
106	0xbea3997d	-0.3195304
107	0xbe1297ac	-0.1431567
108	0x3da06719	0.07832164
109	0x3d99eb77	0.075156145
110	0x3cb7ee8b	0.022452613
111	0xbe2bdbeb	-0.16783111
112	0xbee65c9a	-0.44992524
113	0x40bc52d7	5.8851123
114	0xbfa21101	-1.2661439
115	0xc014359f	-2.3157728
116	0xbf5f8ca8	-0.87324
117	0xbfda24dd	-1.70425
118	0xbeaead6d	-0.34116688
119	0x3f3f10ff	0.7463531
120	0xbe785a7e	-0.2425327
121	0xbf088762	-0.5333158
122	0x3e91580b	0.28387484
123	0x3e33677e	0.17519948
124	0xbe686968	-0.2269646
125	0x3e56d688	0.20980275
126	0xc001a625	-2.0257657
127	0xc091d971	-4.557793
128	0x407dc4db	3.96514
129	0x3ed83b74	0.4223286
130	0xc0768f09	-3.8524802
131	0x3e264be8	0.16239893
132	0xbf39af70	-0.7253332
133	0x3fd04eb6	1.6274021
134	0xbfba65a2	-1.4562266
135	0xbf6182fc	-0.8809049
136	0xbecdccfa	-0.40195447
137	0xbd4d8a4e	-0.050180726
138	0xbe0b690e	-0.13614294
139	0xbe289b63	-0.16465525
140	0xbf5049ee	-0.8136281
141	0xc0f76b70	-7.731865
142	0x40cdd83c	6.432646
143	0x4089f98d	4.3117127
144	0xbe4c0afb	-0.19926064
145	0x3fbe2f05	1.4858099
146	0xbf297e13	-0.66208
147	0xbe76f599	-0.24117126
148	0x3e14b460	0.14521933
149	0xbda543cb	-0.08069571
150	0x3c895f47	0.016769065
151	0x3cda9f27	0.026687218
152	0x3ced8ffd	0.028999323
153	0x3dfbf33a	0.12302251
154	0xc035d70c	-2.8412504
155	0x41052c57	8.323325
156	0xc00c8cbc	-2.1960897
157	0xc00b610c	-2.1777983
158	0xbd8472fd	-0.06467245
159	0xbf853543	-1.0406879
160	0xbfab232a	-1.3370106
161	0xbef12f04	-0.47106183
162	0x3ec7175b	0.38885006
163	0xbeed3469	-0.46329048
164	0x3d7263c9	0.059177194
165	0xbd16b008	-0.03678897
166	0xbfb8737e	-1.4410245
167	0x3da77965	0.08177451
168	0x3ee9e08f	0.45679137
169	0x3fa99a43	1.3250202
170	0xbee50478	-0.44729972
171	0xbffdec63	-1.9837765
172	0x3f8059f8	1.0027456
173	0xbfe4cefe	-1.7875669
174	0x3f870766	1.0549133
175	0xbefef9e4	-0.49800026
176	0x3f0582e8	0.5215287
177	0x3e8cd083	0.27502832
178	0x3e03fc9a	0.12889329
179	0xbc48be76	-0.012252441
180	0xbdacea13	-0.084430836
181	0xbc3ed49a	-0.011647368
182	0xbf5e3f86	-0.8681568
183	0x40145410	2.3176308
184	0x40b7a7de	5.7392416
185	0xc00093cd	-2.009021
186	0x3f9fdf1e	1.2489965
187	0xbfe8a8e4	-1.8176541
188	0x3f647fcf	0.8925752
189	0x3f25999c	0.64687514
190	0xbec02694	-0.37529433
191	0x3d164da5	0.03669514
192	0xbd4771b4	-0.04869242
193	0x3f08252e	0.5318173
194	0x3ef5d9b9	0.48017672
195	0x3ddcb4c3	0.10776665
196	0xbefd007f	-0.4941444
197	0x4081e4cc	4.0591793
198	0xc08a530d	-4.322638
199	0xbeaafbf0	-0.33395338
200	0x3f2d20d4	0.67628217
201	0xbff84d8a	-1.9398663
202	0xbf9892e6	-1.191983
203	0x4004e2ef	2.076351
204	0xbfc7f8e7	-1.5622834
205	0xbf2c4db5	-0.6730607
206	0x3ed38429	0.41311768
207	0xbdc55a0c	-0.09636316
208	0xbd5a1aa4	-0.053248063
209	0x3e5f7a25	0.21823938
210	0xbf2702ac	-0.6523845
211	0xbc8e59c9	-0.017376797
212	0x3f4b7dd7	0.7948889
213	0xbfa8eadb	-1.3196672
214	0xc07cbaab	-3.9488933
215	0x3f14a8ff	0.5807037
216	0xbd976463	-0.07392194
217	0xbe5098a3	-0.20370726
218	0x3dafd051	0.08584655
219	0x3dbd0bba	0.09230752
220	0xbeaabad5	-0.33345667
221	0xbe03fbe3	-0.12889056
222	0x3d9d4ace	0.076802835
223	0xbed113d7	-0.4083545
224	0xbfab89b4	-1.3401399
225	0x40d07fef	6.515617
226	0xc06dfd44	-3.718583
227	0xc08ace1d	-4.3376603
228	0x3ff6434e	1.923929
229	0xbf4f5372	-0.809867
230	0x3eed83bf	0.46389577
231	0xbf54c22e	-0.83108795
232	0x3f23958f	0.63900083
233	0x3edba85d	0.42901888
234	0xbec3ff12	-0.3828054
235	0xbd51fcae	-0.051266365
236	0xbdfe4aa8	-0.12416583
237	0x3e4c7392	0.19965962
238	0xc0251b1b	-2.5797794
239	0x405336ad	3.3002121
240	0x3e62e51f	0.22157715
241	0xbf7e6cb3	-0.9938461
242	0x3f93db4d	1.15513
243	0xbfe2a18d	-1.7705551
244	0xbf361c06	-0.7113651
245	0x3f4ad6be	0.7923392
246	0xbf9957cd	-1.197992
247	0xbf4a1a80	-0.78946686
248	0x3e22889b	0.15872423
249	0x4025d8cc	2.5913572
250	0x3fadeead	1.3588463
251	0xbde52f37	-0.11190646
252	0xbfe9f8b6	-1.8279026
253	0x410f2b09	8.948007
254	0x40023563	2.0345085
255	0x3f047afc	0.5175016
