log/mujoco_td3_halfcheetah_v2_2/mujoco_td3_halfcheetah_v2_2_s2/pyt_save/model.pt (torch_old, 871757 bytes, 16 tensors)

weight f4 [256, 17]
000000 f8 7d 3a 40 10 b6 9b 3e aa dd 54 bf f0 03 03 40
       2.9139385 0.3041234 -0.8315073 2.0471153
000010 b5 7c 91 3f 86 70 c0 40 44 2c 42 40 70 9b 72 3f
       1.1366183 6.013736 3.0339518 0.9476843
000020 d4 e9 50 bf 12 4f 17 c0 95 6d dd 3f f0 f3 8b bd
       -0.81606793 -2.364201 1.7299067 -0.06833637
000030 78 5c 95 3b f0 d9 4e bd 6a eb b1 3e ca e8 b7 3e
       0.0045581423 -0.05050081 0.3474992 0.3591979
000040 11 06 69 be b9 b1 b4 bf d4 b2 3d c1 af f3 19 c0
       -0.2275622 -1.4116737 -11.856159 -2.4054983
000050 60 17 f1 bf 64 09 d2 bf 3e c4 5e 40 e2 3d ad 3f
       -1.8835258 -1.6409116 3.4807277 1.353451
000060 9b 34 14 bf 5f bc ac bd 02 99 ee 3f 9d b7 0a c0
       -0.5789277 -0.084343664 1.8640444 -2.1674569
000070 0f 65 49 be a7 07 55 be 81 f7 85 3d 46 9e f4 3b
       -0.19667457 -0.208037 0.06541348 0.0074651567
000080 44 37 f5 bd 07 f2 6b 3c 76 3c 11 c0 ad ef 2f bf
       -0.11973432 0.0144009655 -2.2693152 -0.6872509
000090 de 5c b4 bf 62 fc 91 3d 32 24 9a 3f ab ed 3b c0
       -1.4090841 0.07128216 1.2042296 -2.936381
0000a0 cd 98 dc 3f f4 0e 28 40 e1 85 b0 bf bb 0e 75 bf
       1.7234131 2.6259127 -1.3790857 -0.957256
0000b0 f0 a1 29 3f 4b 0b 74 be 6f 87 4f 3e 18 11 c7 3e
       0.6626272 -0.23832433 0.20266508 0.3888023
0000c0 6c bb d8 3e eb 6a f0 bd 34 57 1c 3f 90 b1 91 40
       0.42330492 -0.11739143 0.6107056 4.552925
0000d0 fb 20 55 bc 7c b4 76 bf c3 c7 78 bf 1e 35 0f 40
       -0.013008351 -0.9636915 -0.9717981 2.237617
0000e0 2f 65 cd 40 a6 56 86 40 f0 7b ef 3f d3 b1 1e bf
       6.4186015 4.198077 1.8709698 -0.6199009
0000f0 1b 88 2b 40 e9 3c 5d bf d9 dd 71 be 85 3d f6 bd
       2.6801822 -0.86421067 -0.23619784 -0.12023453
000100 b1 80 c9 3d c6 7e 04 3f d1 21 7c 3e 43 4a 0e 3e
       0.09838999 0.5175594 0.24622275 0.13895516
000110 b1 60 de 40 c1 7b 17 3f a6 de 1f bf 01 0a 2c 40
       6.949303 0.5917321 -0.6244911 2.6881106
000120 28 39 cb 3f 81 e9 0e bf 05 04 22 3f 37 bb c8 3f
       1.5876818 -0.5582505 0.63287383 1.5682133
000130 52 b2 48 bf 9a e6 86 40 79 05 4b 3f 5d 47 32 be
       -0.78397095 4.2156496 0.79305226 -0.17410035
000140 7a bb a9 3e 2b a6 83 3d 2a 50 40 3e b9 85 d8 bd
       0.33150846 0.064281784 0.1878058 -0.105723806
000150 92 be f1 3b 7e bb 78 c1 22 f5 8c c1 5d 1d 2a bf
       0.007377454 -15.545774 -17.619694 -0.66451055
000160 fa cb 96 c0 b9 b7 1d 40 b7 1f 6b 3f 23 7f 2f be
       -4.7123995 2.4643385 0.9184527 -0.17138343
000170 f3 d3 eb bd e2 8a 6a 3d 01 73 f5 3f b2 d3 ba 3e
       -0.115150355 0.057261355 1.9175721 0.36489636
000180 e5 5d 86 3e f9 a6 b5 3d 5f 65 be 3d 70 e1 47 3e
       0.2624351 0.08869738 0.09296679 0.19519591
000190 f9 44 bf 3d 4c 1e 8e 3c 1a 5b 36 c2 39 1e 01 41
       0.09339327 0.017348431 -45.588966 8.069879
0001a0 8b 3e d0 3e 45 01 13 bf fc 2b c8 3d 35 1f 05 c0
       0.40672716 -0.5742381 0.09774014 -2.0800297
0001b0 33 37 32 3f 0a 43 af 3f 0f 38 54 3d 0d 07 d9 be
       0.6961548 1.3692334 0.051811274 -0.42388192
0001c0 33 06 d2 3e a2 37 72 3c b8 18 d1 3c fc ff 00 bb
       0.41020355 0.014783772 0.025524482 -0.0019683829
0001d0 df 70 f6 bb 28 d8 3d 3c 39 31 80 3d 47 2a 19 bf
       -0.0075207795 0.01158718 0.062593885 -0.59830135
0001e0 d8 3b 5f c1 ec 27 40 40 6c a9 34 3f a6 b8 3a 40
       -13.95211 3.0024366 0.7057102 2.91752
0001f0 72 55 c6 3f 85 d5 0f 3f a1 b2 c6 3e 57 5c 0b 3e
       1.5494826 0.5618518 0.38808158 0.13609444
000200 d4 cb 4b bf 8e af ed bf 96 d1 f9 be f7 ad b1 be
       -0.7960789 -1.85692 -0.48792714 -0.34703037
000210 f8 76 4a bd 68 1c b9 bd dc f3 b4 bc 41 c5 54 3c
       -0.049429864 -0.09038621 -0.022088937 0.012986482
000220 65 b4 cf bf d0 5c 4e be 6e 68 7f bf 4d 53 e0 40
       -1.6226927 -0.20152593 -0.9976872 7.0101686
000230 48 a4 9f bf 7f c9 9f be 87 ec 48 c0 e5 79 80 bf
       -1.247201 -0.31208417 -3.1394365 -1.0037199
000240 14 18 93 bf 7a ff 36 3f 6b ec 6f 3c 42 6d 10 3f
       -1.1491723 0.71483576 0.014643769 0.56416714
000250 3c 3c 76 be b3 7e a0 3e 50 32 6b 3e 8f f4 f5 bd
       -0.24046415 0.31346664 0.22968411 -0.120095365
000260 8f 3c 80 3e ff 45 13 3e 3a 52 97 bf e8 27 42 c0
       0.25046203 0.1438217 -1.1821969 -3.0336857
000270 68 bd 54 3f 62 3d 2c bf d3 2c 28 40 8a 09 de 3f
       0.8310151 -0.6728116 2.6277359 1.7346661
000280 a1 ee 3c 40 f9 d0 ba bf 3e 3b 29 bf 6b e5 98 3f
       2.9520648 -1.4595023 -0.6610602 1.1945013
000290 e0 f5 52 3e 61 5e ab 3d ac d5 90 be d4 16 21 be
       0.20601606 0.08367611 -0.2828802 -0.15731364
0002a0 9f 1f 8b bc 20 4a 48 3e 15 1a 2e 3f 89 4c a5 be
       -0.016982852 0.19559526 0.6800855 -0.32284954
0002b0 e1 8c 7a 40 0d f8 b3 40 b9 4c 0c c0 c8 c3 de 3f
       3.9148486 5.6240296 -2.1921828 1.7403498
0002c0 d5 2b 98 3e ae a7 53 c0 f9 0b 8e bd fd 0e 8a 3e
       0.2972094 -3.3071094 -0.06935877 0.2696456
0002d0 d7 77 97 bf 38 23 8d 3e 29 a8 02 3e 14 2b 19 3e
       -1.1833447 0.27565932 0.1275946 0.14957839
0002e0 f6 10 4e 3d 1c 10 7f bb 27 16 ce 3c 89 c9 90 40
       0.050309144 -0.0038919514 0.025157047 4.5246015
0002f0 21 8a d0 3e e4 99 a1 bf 65 be f8 be 6a bf 7c 3c
       0.40730384 -1.2625089 -0.4858276 0.015426496
000300 e4 12 2f c0 4f d1 97 3f 03 20 92 3f 67 e7 18 c0
       -2.735528 1.1860751 1.1416019 -2.3891237
000310 92 04 88 3f 96 2c a7 be 04 12 9d ba 21 ee 5c be
       1.0626395 -0.32651204 -0.0011983518 -0.21575214
000320 6e d2 41 3d 14 fa d3 3d 0f 8b 8b be a5 6f 34 3e
       0.047319822 0.10350433 -0.2725453 0.17620714
000330 cc a5 8f c1 c7 51 ef 40 82 8f 26 40 2d 37 0d 3f
       -17.955956 7.4787326 2.602509 0.55162317
000340 20 73 04 3f 2c f1 82 c0 4e 12 85 bf ad 05 81 be
       0.51738167 -4.09194 -1.0396211 -0.25199643
000350 ee 58 10 bd 94 24 25 c0 bb 2a 97 3f 99 88 81 3c
       -0.03524106 -2.5803576 1.1809915 0.015812205
000360 c4 c5 3e bc 54 3c 71 3d c0 85 d7 bd ea 54 fb 3d
       -0.011643831 0.058895424 -0.10523558 0.122720554
000370 74 3c f5 bc 52 93 47 c1 f8 ae 15 41 dc 07 8b 3c
       -0.029936053 -12.473467 9.355217 0.016971521
000380 e5 12 22 3f 4a 7c 76 bf 26 4a 02 c0 74 21 e2 be
       0.6331008 -0.962834 -2.0357757 -0.44166148
000390 0c 89 7d 3e 47 15 52 be 69 de e8 bf 82 87 ff 3f
       0.2475931 -0.20515929 -1.8192874 1.9963229
0003a0 13 e5 51 be df 98 06 be fd 09 6a bd f6 3c c1 3e
       -0.20497541 -0.13144253 -0.05713843 0.37741822
0003b0 45 d3 4a 3e f5 ae d7 3c 0c f4 a0 40 9b 53 43 c1
       0.19807155 0.026328543 5.029791 -12.2079115
0003c0 68 ce b3 c0 a5 ea 21 be 3f 62 65 c0 3f 66 3d c0
       -5.618946 -0.15812166 -3.5841215 -2.9593656
0003d0 a9 15 fc 3f 18 a2 0b c0 ae 94 15 bf 07 e0 4e 3f
       1.969411 -2.1817684 -0.5842999 0.8081059
0003e0 3b 64 b2 bf b1 78 9d 3e b4 2e 3e be da 08 7f 3a
       -1.3936838 0.30756143 -0.18572503 0.0009728797
0003f0 8c ad 92 be e0 52 e7 bd 5c 7b fa bd 2f 43 c6 bf
       -0.2864803 -0.11295104 -0.1223056 -1.5489253

bias f4 [256]
000000 80 3f 8c c0 6e d2 23 c0 c1 8c 0d c0 44 26 61 c0
       -4.3827515 -2.5597186 -2.211716 -3.5179605
000010 8d 46 62 c0 99 fc 73 c0 88 0f 27 3e 81 e7 4b c0
       -3.535556 -3.8122923 0.16314518 -3.1860049
000020 d0 cf 1c c0 85 06 3a c0 45 e5 8c bf f3 26 57 c0
       -2.4501839 -2.906648 -1.1007468 -3.3617523
000030 ab 9b b8 bf 26 cc 24 c0 28 17 71 be 51 b6 0f c0
       -1.4422506 -2.5749602 -0.2354399 -2.2455027
000040 db 9b cb bf e7 0d 30 3f f6 e5 7f 3e c6 2a c6 bf
       -1.5906938 0.68771213 0.24990067 -1.5481803
000050 d7 96 a5 bf b3 85 19 c0 e2 9b e1 be 64 50 70 c0
       -1.2936658 -2.3987854 -0.44064242 -3.7549067
000060 1e 49 5b c0 92 db 09 40 72 96 b4 c0 10 b9 62 c0
       -3.4263377 2.1540265 -5.643365 -3.5425453
000070 2d 18 20 c0 85 b2 5e bf 3e 7a 84 40 17 fa c8 bf
       -2.5014756 -0.8699115 4.139922 -1.5701321
000080 9d 75 9c bf 8e 4c 88 c0 f2 3c c7 be 6d d0 90 c0
       -1.2223393 -4.259345 -0.38913685 -4.5254426
000090 85 0c 28 c0 42 5b 97 bf a2 ea 06 c0 bd d9 fc 3f
       -2.6257641 -1.1824725 -2.1080709 1.9753948
0000a0 d2 ed 61 c0 a2 18 e4 3f ba 1c 16 c0 b3 7a ff bd
       -3.5301404 1.7820017 -2.3455033 -0.12474575
0000b0 26 a9 0a c0 59 5b 4a c0 6a 76 aa bf fb d6 3a c0
       -2.166574 -3.1618254 -1.3317387 -2.9193714
0000c0 77 5d 15 c0 5d e3 c7 bf 57 ce 12 be e8 f8 4f c0
       -2.3338296 -1.5616261 -0.14336525 -3.249567
0000d0 35 be 6f c0 0f fa 3d bf c4 6a 83 bf e6 98 2b c0
       -3.7459843 -0.74209684 -1.0266957 -2.6812072
0000e0 1a 73 11 c0 21 c9 00 3f d6 7f 64 bf 1e 9e 6b c0
       -2.2726502 0.503069 -0.8925756 -3.6815257
0000f0 3e dd 5e c0 79 5f 32 40 b9 28 bb 3f a2 0d 79 c0
       -3.4822536 2.7870772 1.4621803 -3.891457
000100 02 90 78 3f f4 62 11 c0 e6 b5 26 c0 ba e7 19 c0
       0.9709474 -2.2716646 -2.6048522 -2.4047685
000110 4e 7c 7e c0 1a 44 4d c0 af 27 a5 bf 43 45 94 c0
       -3.976337 -3.2072816 -1.2902735 -4.633455
000120 06 19 ef 3f be ac 89 40 71 33 da 3f ca 9c 2f c0
       1.8679512 4.3023367 1.7046949 -2.7439446
000130 d9 a2 b2 c0 78 c8 58 bf 25 66 ac bf fb 1c 37 c0
       -5.582379 -0.8468089 -1.3468672 -2.8611438
000140 88 10 65 be 1e 8c d2 bf 41 0f 3a c0 66 cf e1 bf
       -0.22369587 -1.644901 -2.907181 -1.7641418
000150 c9 59 a5 3f e5 0c 4f c0 54 68 e0 bf e0 04 84 c0
       1.2918025 -3.235162 -1.7531838 -4.125595
000160 b8 1b 81 3d 65 ad c2 3e 08 28 23 c0 df 90 7b c0
       0.06304115 0.38022915 -2.5493183 -3.9307172
000170 d1 02 f8 bf 81 69 71 c0 87 2b c0 bf 55 4e 83 40
       -1.937586 -3.7720644 -1.5013283 4.103312
000180 d4 ec 20 c0 10 f4 57 c0 66 f2 15 c0 a6 db 52 c0
       -2.5144548 -3.3742714 -2.3429198 -3.2946563
000190 21 3f 7e bf bc 81 35 c0 91 18 77 c0 81 df d6 3f
       -0.9931508 -2.8360434 -3.8608744 1.6786958
0001a0 12 10 1c c0 43 86 59 40 65 9a dc bf 59 fa 83 bf
       -2.4384809 3.3988197 -1.7234617 -1.0310775
0001b0 12 30 42 c0 7c f9 4d c0 3d d8 41 bf e7 f6 67 c0
       -3.034184 -3.2183523 -0.7572058 -3.6244447
0001c0 bf d1 86 bf 9c 08 e3 3f 23 df 86 c0 53 37 31 c0
       -1.053276 1.7737002 -4.2147384 -2.7690017
0001d0 2a 18 68 3e fd ee 3f 3f f1 50 0b bd 01 5b 46 40
       0.22665468 0.7497404 -0.03401274 3.0993044
0001e0 52 09 b8 bf 40 02 8a c0 19 dd 5a 3f 40 ee b7 bf
       -1.4377844 -4.3127747 0.8549362 -1.4369583
0001f0 b9 6b 53 bf 63 51 60 c0 93 89 0d 40 64 f5 12 be
       -0.82586247 -3.5049675 2.2115219 -0.14351422
000200 e7 94 6c c0 7a 06 b7 c0 53 c7 89 3f a7 38 0f c0
       -3.6965883 -5.7195406 1.0763954 -2.2378328
000210 5f 9e 6d c0 e5 52 5d c0 d7 ba fb be 7d 3a 2c c0
       -3.7127912 -3.4581845 -0.49165985 -2.6910698
000220 b4 f7 65 c0 1c 8a 4f c0 fa d7 a7 c0 c4 fa 24 bd
       -3.5932436 -3.2428045 -5.2451143 -0.04027821
000230 83 1b 71 c0 ee 2f 24 c0 cc 7a 58 c0 88 1d a7 c0
       -3.7673042 -2.5654254 -3.382495 -5.222355
000240 38 b6 3b 3f 41 f6 06 c0 a6 38 49 40 3e 35 69 c0
       0.7332492 -2.1087801 3.1440825 -3.6438746
000250 56 bb 80 c0 d5 7b 5a c0 d5 c0 67 40 c1 36 e7 3f
       -4.022868 -3.413808 3.6211445 1.8063585
000260 78 fc 63 3f 02 ab 69 c0 79 5d a1 bf 33 0a 25 c0
       0.8905711 -3.6510625 -1.260665 -2.5787475
000270 45 d4 ca be 1b bf 02 c0 20 1d 59 bf de 88 7f bf
       -0.39615074 -2.0429142 -0.84810066 -0.9981822
000280 e5 64 de bf 9f 0c 2c c0 65 76 46 c0 e6 0b 8f 3f
       -1.737454 -2.6882703 -3.1009762 1.1175506
000290 42 87 3b c0 bd b5 2c c0 11 34 9b bf d1 f9 17 c0
       -2.9301305 -2.6985924 -1.2125264 -2.3746226
0002a0 b9 c3 e4 bf 4e f7 7f c0 7e 5c 53 c0 f8 a4 5f c0
       -1.787223 -3.9994693 -3.3025203 -3.494444
0002b0 57 59 94 3f 78 ac 7f bf 70 16 88 3e 62 72 28 c0
       1.1589764 -0.9987254 0.26579618 -2.6319814
0002c0 88 3e f1 bf 4e 9d 0e c0 b6 bd 06 c0 7c 50 3e c0
       -1.8847208 -2.228351 -2.105329 -2.9736624
0002d0 3c 82 c0 bf b8 9b 5c c0 ed 05 46 c0 87 6e 24 c0
       -1.5039744 -3.4470043 -3.0941117 -2.569246
0002e0 86 31 46 c0 51 ee 47 c0 38 99 45 c0 e1 fb 0a bf
       -3.0967727 -3.1239207 -3.0874767 -0.54290587
0002f0 fa 88 85 bf b4 cf 0d c0 cb cc 6e c0 77 8e 65 c0
       -1.0432427 -2.2158022 -3.7312496 -3.5868204
000300 ad 0d 99 c0 9f 69 1b c0 bb 8a 0c c0 a8 63 27 c0
       -4.7829194 -2.4283216 -2.1959674 -2.6154575
000310 78 b9 80 c0 41 6c f1 be 5f 68 22 c0 59 60 2d c0
       -4.02264 -0.47152904 -2.5376203 -2.7090056
000320 c4 a3 02 c0 e4 b8 46 c0 ad 78 05 c0 ad 20 b0 3f
       -2.0412455 -3.1050348 -2.0854905 1.3759972
000330 38 71 8d bd ec e1 3f c0 c5 18 57 c0 c3 f6 1f c0
       -0.069063604 -2.9981642 -3.3608868 -2.4994361
000340 38 27 44 c0 32 74 7a 3f 80 85 6d bf 8e 4e 85 c0
       -3.0648937 0.9783355 -0.9278183 -4.165839
000350 e1 41 bc 3e 73 df c0 bf 0c 8d 5f c0 ce 54 6a c0
       0.36769012 -1.5068191 -3.4929838 -3.661426
000360 45 cc 19 c0 e5 a7 8a 3f 80 3e e4 bc 46 b7 2b c0
       -2.4030926 1.0832487 -0.027861834 -2.6830611
000370 ac 56 a0 bf 0a 5a 35 c0 e6 d2 6a c0 a3 eb 52 c0
       -1.252645 -2.8336205 -3.6691222 -3.2956321
000380 7d 40 37 c0 e2 57 9a bf bc 82 73 c0 a5 f9 ea 3f
       -2.863311 -1.205807 -3.8048544 1.8357435
000390 e8 8b f9 bf 2a 84 a6 c0 19 5e 2e c0 2f 89 7d c0
       -1.9495821 -5.2036333 -2.7244933 -3.961498
0003a0 bc 9b a5 3f 94 8e fb bf f5 88 98 be 4c b8 dc bf
       1.2938151 -1.9652886 -0.2979199 -1.7243743
0003b0 ae 23 89 c0 17 1f 8c bf 9b 56 d1 bf 59 22 a3 bf
       -4.2856054 -1.0946988 -1.6354555 -1.2744857
0003c0 b4 d4 29 c0 01 67 9c 3f 90 0b 2a 40 a1 90 48 c0
       -2.6536074 1.2218934 2.6569557 -3.1338274
0003d0 e9 a6 46 bf 83 3d 56 c0 52 98 d0 bf ac ed 90 c0
       -0.77598435 -3.3475044 -1.6296484 -4.5290127
0003e0 32 49 40 c0 05 5e 0a be 60 aa 08 c0 03 f7 7e 40
       -3.0044675 -0.13512428 -2.1353989 3.9838264
0003f0 11 bb 65 c0 78 47 bf bf 7a 4e 52 c0 14 76 c5 bf
       -3.5895426 -1.4943686 -3.2860398 -1.542666

weight f4 [256, 256]
000000 ca 3d 5f bd ac 60 1f bd ae 1b 24 bd 9d 34 3a bb
       -0.054502286 -0.038910553 -0.04006546 -0.0028412708
000010 b6 40 da bc 2c b2 c3 3b e6 03 23 bd 33 fb e8 3c
       -0.026642185 0.0059721675 -0.03979864 0.028440094
000020 12 bd 09 bc e6 b1 84 bd e2 e3 58 bc 4d f8 74 bd
       -0.008406894 -0.06479244 -0.013237925 -0.05980711
000030 2e ca 5b bd e7 46 6c bd 1e 7f 70 bd 1f 28 d1 bb
       -0.05365961 -0.057684805 -0.05871498 -0.0063829566
000040 63 6c cb bc 10 25 c6 bc ee d7 b3 bb af d1 2b bd
       -0.024831956 -0.024187595 -0.0054883873 -0.041948017
000050 bd 0c aa 3c 68 72 29 bd 97 bf e2 ba 08 9e 69 3c
       0.020758027 -0.041368872 -0.001729953 0.014258869
000060 6e 83 01 bd db a8 a8 bc 33 ee 83 3d 89 de 1c bd
       -0.03161948 -0.020588329 0.06441917 -0.038298164
000070 26 55 2b 3c e7 fa a0 3c 53 bd 75 3b 03 c8 cf bd
       0.010457313 0.01965089 0.003749688 -0.10145571
000080 11 18 3c 3c 80 dc 6a bd 92 c5 c6 bd 89 40 b1 bd
       0.011480347 -0.05733919 -0.09705652 -0.08654887
000090 7e d2 12 bd 0f ba a2 bc 57 e8 80 bc f3 8e 6f 3c
       -0.035845272 -0.01986411 -0.015735788 0.014621484
0000a0 b9 46 9c 3c 33 67 8b 3b 55 28 1a bd d1 47 0e 3d
       0.019076692 0.0042542457 -0.03763612 0.03473646
0000b0 9c a1 72 bd 46 cb 8c bb 5d 81 1f 3d 13 0a c5 bd
       -0.059236154 -0.004296693 0.03894173 -0.09621062
0000c0 f3 d9 12 3d 81 ce 06 bd 32 a1 8f bd 14 29 a0 bd
       0.035852384 -0.03291178 -0.070131674 -0.07820335
0000d0 a6 41 a9 bd 8b 90 06 3d cc e7 8c bc f9 fa 54 bd
       -0.082644746 0.03285269 -0.017200373 -0.05199716
0000e0 84 eb a0 bd 26 69 a9 ba 25 e7 87 bd 36 ea c2 bd
       -0.07857421 -0.0012925013 -0.06635884 -0.095173284
0000f0 0c e9 f3 bc 48 b7 33 3d ef 93 b5 bd ea 82 e2 bc
       -0.029774211 0.043875962 -0.08866107 -0.027650315
000100 67 33 d6 bd f7 6c 86 3c b1 32 b9 bd 21 35 fd bc
       -0.10459023 0.01640938 -0.09042872 -0.030909123
000110 6d 33 01 bd 36 9b f9 3b 11 a3 e6 bc 4b e7 94 bc
       -0.031543184 0.0076173795 -0.028153928 -0.018176695
000120 0b 30 ff bc aa 20 d0 3c 01 4d 70 3b 69 86 54 bd
       -0.031150838 0.0254062 0.0036666992 -0.051885996
000130 69 11 58 3b 91 8e 2f bd 2c 97 bb 3c 74 13 e5 bd
       0.0032969362 -0.04286057 0.022899233 -0.11185351
000140 c8 a0 9d bd 00 6c ce bd 70 b0 72 bd d6 6b 99 bc
       -0.07696682 -0.10079193 -0.059250295 -0.018728178
000150 7d 7c 50 bd ed d5 a2 bd 16 7c d9 bb 72 f5 cc bc
       -0.05089997 -0.07950959 -0.0066371066 -0.025019381
000160 87 6e 0b bc 83 a8 2e bd 09 25 d0 bc ff 69 b6 bd
       -0.0085102385 -0.042641174 -0.025408285 -0.08906936
000170 68 01 6f 3d 9d f6 f3 bc 57 8a 84 bc 17 28 f8 bc
       0.05835095 -0.02978068 -0.016179247 -0.030292554
000180 bc 8e 6d bb e7 15 8e bd 7e f5 67 bd dd bd 32 bd
       -0.0036248406 -0.06937771 -0.056630604 -0.0436381
000190 63 b5 ae bc ea 0c ad bd b9 8c de 3c a4 59 31 bc
       -0.021326726 -0.08449729 0.027166711 -0.010824595
0001a0 32 b8 82 bd 1f 27 3c bc 02 ac 3b bd c3 b3 b1 bd
       -0.06382789 -0.011483937 -0.045818336 -0.08676865
0001b0 e9 09 f8 bc 50 05 24 bd 69 64 c9 bc bf 97 e6 3c
       -0.030278163 -0.04004413 -0.024584012 0.02814853
0001c0 c9 98 1a bd 02 54 5c bb 93 1a 49 bc c7 b2 89 bd
       -0.037743364 -0.0033619408 -0.012274402 -0.06723552
0001d0 d9 4b 4a bd 3d c6 08 3d 14 83 77 bd 3f 75 bd bd
       -0.04938874 0.03339218 -0.06042774 -0.092508785
0001e0 0e 7c 81 bd ed 17 6b bd 9b 76 b1 3b d0 02 8b bd
       -0.0632249 -0.057395864 0.00541575 -0.06787646
0001f0 f9 6a 87 bd 5d 72 a4 bd c0 74 9c 3c d5 01 8e bd
       -0.066122 -0.080296256 0.01909864 -0.06933943
000200 15 79 f8 3b 70 30 ea 3a 75 fd a5 bd d4 23 af bd
       0.0075827935 0.0017867219 -0.08104984 -0.085517555
000210 79 26 ad bd 12 39 6c bd 06 df 65 bd c6 c1 e6 3b
       -0.08454604 -0.057671614 -0.056120895 0.0070421426
000220 59 73 2e bd f8 2a 5a 3d 2c 38 a6 bd d1 7d 96 3a
       -0.042590473 0.053263634 -0.08116183 0.0011481588
000230 f4 66 5f 3b c6 4b 80 bd 0e a7 ac bb 1a dd 97 3c
       0.0034088464 -0.06264453 -0.005268938 0.018538047
000240 dd e9 b7 bd b5 06 d3 3b f3 97 1e be 5e 1c c3 bd
       -0.08980153 0.0064400085 -0.15487652 -0.09526895
000250 38 8f cc bd fb 96 cc bc 6b 71 a1 bc b2 89 b0 3c
       -0.09988254 -0.024974337 -0.019707402 0.021550033
000260 d3 f0 a8 bd 63 5f a3 bd d7 be bd bd 8f cf a1 bb
       -0.082490586 -0.07977178 -0.092649154 -0.004938073
000270 b6 b6 87 bc ef a4 8d 3c 3c cf d3 bc 5e 23 85 3b
       -0.016566616 0.01729056 -0.025855653 0.004063054
000280 16 0c 79 bd 6f e5 d3 bc 28 1d 97 bc 38 d0 8b 3c
       -0.06080254 -0.025866238 -0.01844652 0.01706706
000290 39 c6 44 bd c8 6c 1a bd b7 54 d5 b9 d1 93 89 bc
       -0.048040602 -0.037701398 -0.00040689643 -0.016794117
0002a0 b2 d2 15 3c 3b 6d 80 3c 92 1b 92 bd f1 bb ea bc
       0.009144472 0.015677085 -0.07134165 -0.02865407
0002b0 95 2b 70 bd aa 49 2b bd 61 c2 b5 bd 61 a6 bf bd
       -0.058635313 -0.0418183 -0.088749655 -0.09357906
0002c0 67 69 af bd 33 ac 99 bb 07 15 19 bd 50 a4 88 bd
       -0.08565026 -0.004689717 -0.03737357 -0.06671965
0002d0 61 d2 00 be e3 6d 31 bd 24 88 21 bd 59 23 79 bd
       -0.12580253 -0.043317687 -0.039436474 -0.060824726
0002e0 fe 3e c2 ba 4c 3c 21 bd be dd b0 bd 70 b2 00 bd
       -0.0014819799 -0.039364144 -0.08636044 -0.03142017
0002f0 bc 6e 9f bd 6c db 2d bc b5 31 0b 3b cb 24 d8 bd
       -0.07784793 -0.010611396 0.0021239344 -0.10553893
000300 cb 4d fe bc 80 6f a9 bd 8a 35 83 bc 51 29 8e bd
       -0.031042954 -0.0827322 -0.01601674 -0.06941474
000310 51 ed 9f bc a2 70 96 bd 9f 17 d7 bc 3d 90 e9 3c
       -0.019522341 -0.07345702 -0.02625638 0.028511161
000320 17 cd 9e bd 39 85 a4 3b 41 ba 08 bd e9 c4 21 3c
       -0.077539615 0.005020764 -0.03338075 0.009873607
000330 bc 9c a4 bd 27 01 fa bc 7d 72 9a bd 51 fe 91 bd
       -0.08037707 -0.030518128 -0.07541368 -0.07128585
000340 b0 13 d0 ba e4 b1 11 3d 1d 7b ac 3b a4 f7 9f bd
       -0.0015875008 0.03557004 0.0052636997 -0.078109056
000350 59 ea 4e bb 9f 52 f7 3c cb f2 72 bd a4 63 93 bd
       -0.0031572788 0.030190764 -0.059313577 -0.07196739
000360 88 a0 a9 bd d2 38 35 bd f2 30 f8 3c 12 3d 20 bd
       -0.08282572 -0.04424364 0.030296776 -0.03912074
000370 a5 91 89 bd 04 ef ab bd ce 01 21 bd af 11 a7 bc
       -0.067172326 -0.08395198 -0.03930836 -0.020394174
000380 38 6f 63 bd e3 f0 55 3c 86 5a cf bd c2 17 0c bc
       -0.05552599 0.01305792 -0.10124688 -0.008550586
000390 28 b8 db bd c8 cc c0 bd 8a 37 8e bd 1e b3 f6 bc
       -0.107284844 -0.09414059 -0.06944187 -0.030114707
0003a0 38 8c d0 bd f4 6c b3 bd 54 5f 7d bd af dc 2f 3d
       -0.101829946 -0.087610155 -0.06185849 0.04293507
0003b0 9b 71 c9 bd 12 21 c0 ba 60 d7 27 bd 34 0f bd bd
       -0.09836122 -0.0014658293 -0.040976882 -0.092314154
0003c0 30 06 28 3b a8 2e 3e bd cd aa 27 bd 31 3a 06 bd
       0.0025638454 -0.046431214 -0.040934373 -0.03277034
0003d0 80 bc 60 bd 1b 2a 38 bd f5 fe 97 3b 86 45 ad bd
       -0.054867268 -0.04496203 0.0046385475 -0.08460526
0003e0 26 52 be bd 37 9f b5 bd 2b 45 72 3c 1e 12 a4 bc
       -0.09293012 -0.088682584 0.014786999 -0.02002817
0003f0 79 e5 70 bd ca af 41 bd 84 9b fe 3a 9d 91 83 39
       -0.058812592 -0.047286786 0.0019425009 0.00025094757

bias f4 [256]
000000 4f aa 14 bd 0d ee ba bd 99 52 10 3c 11 a5 bc bd
       -0.03629523 -0.09127436 0.008808755 -0.092111714
000010 52 3b cd be b6 a3 fe bd 40 e7 ea bf ae f7 94 bd
       -0.4008432 -0.12433569 -1.8351822 -0.07273804
000020 a0 81 a3 bf ce 75 84 bf f6 eb 1d 3e ae f3 d4 bd
       -1.2773933 -1.0348451 0.15422043 -0.10398041
000030 a2 73 48 bf c9 18 1f bf a5 07 b1 bf b9 25 47 bd
       -0.7830144 -0.62147194 -1.3830458 -0.04861996
000040 67 f0 07 40 a5 d5 f3 bd 17 20 13 be ec f3 65 bd
       2.124048 -0.11905984 -0.1436771 -0.056140825
000050 3b c4 f9 bf 44 d6 97 be e5 07 3e be d9 91 59 c0
       -1.951301 -0.2965566 -0.18557699 -3.3995268
000060 d1 16 d4 be b3 5f 17 bf 63 df b8 bd d9 c8 43 bd
       -0.41423658 -0.591304 -0.09026983 -0.047798965
000070 28 04 d5 3f 8f 77 e5 bc d9 e1 65 bf d6 6e fd bf
       1.6641893 -0.028011112 -0.8979774 -1.979945
000080 2d 4a 83 bd ad 26 eb bd 3a 65 ad bd 7a 5b 30 bd
       -0.06410632 -0.11481986 -0.08466573 -0.04305599
000090 6f f3 30 c0 cd 8a 27 be 00 3d 7a bd 51 b3 8c bf
       -2.764858 -0.16361542 -0.06109333 -1.0992223
0000a0 e3 ba 03 be 20 0d e0 bd f7 51 91 3f e0 0e 4f c0
       -0.1286426 -0.109400034 1.1353139 -3.235283
0000b0 a0 86 57 bd 53 e9 e0 be 82 78 5a bf 4d c4 31 bf
       -0.052618623 -0.43928012 -0.8534013 -0.69440156
0000c0 ba a7 f6 bf 27 14 9a bf 0e d6 9d bf 1c f8 1b bf
       -1.9269936 -1.20374 -1.2330949 -0.6092546
0000d0 6e 78 01 c0 8f 0e a2 c0 9d c0 25 c0 96 72 06 be
       -2.0229754 -5.064277 -2.5898812 -0.13129649
0000e0 f7 0b 39 bc a1 83 de be 07 4f 36 be 9d 69 1d 3f
       -0.011294357 -0.434598 -0.17803584 0.6148928
0000f0 84 70 58 bd 16 49 fd be b5 c2 25 3d 8f 54 9c 3f
       -0.05284168 -0.49469823 0.04046889 1.2213305
000100 8f 4d 02 3e ab e1 a7 3e ab 7a 18 c0 07 f4 05 bd
       0.12724899 0.32789358 -2.382487 -0.032703426
000110 49 50 8b 3e 23 58 34 bf ca a1 9c bd d2 b0 0c be
       0.2720969 -0.70446986 -0.07648046 -0.13739327
000120 2b 8d 2a be 0d 4f 06 bd 6a 80 5c bd a5 f0 3f be
       -0.16655414 -0.032790232 -0.053833403 -0.18744142
000130 02 c6 23 3e eb 66 10 c0 cc e5 d6 be 02 51 0d be
       0.15993503 -2.2562816 -0.41972196 -0.13800433
000140 7d 7c 5a 3f 14 f5 ca bd d9 0c bf 3f a6 c8 cc bd
       0.85346204 -0.09910026 1.4925796 -0.09999208
000150 de 5e a4 bd f3 ef c9 bd 9b 3d b8 bd 85 d3 ee 3e
       -0.08025907 -0.0986022 -0.08996125 0.46645752
000160 72 06 1d bd fe f2 d9 bf dd 1a ed bf 5d 88 59 bf
       -0.038336225 -1.702728 -1.8523823 -0.849737
000170 4c 58 af bf fd d0 fd bf e1 41 da bd 68 39 cc bc
       -1.3698821 -1.9829403 -0.10657097 -0.024929717
000180 23 5f 91 be 78 e0 2a c0 12 fd 07 bd df 39 9b bd
       -0.28392896 -2.6699505 -0.03320033 -0.075793974
000190 c9 50 09 bd d9 73 f6 bd c5 7d 9e bf 0a 4e aa bf
       -0.03352431 -0.12033815 -1.2382132 -1.3305066
0001a0 59 9d 31 bf 2c 6f ee be b2 3e 81 bc 83 94 e0 be
       -0.6938072 -0.46569192 -0.015776966 -0.43863305
0001b0 e2 bf 9a bf 38 95 56 bd 3a d7 05 be 0a 66 c2 bf
       -1.2089808 -0.0523884 -0.13070384 -1.518739
0001c0 82 15 92 bc 5b cd d6 bd c3 35 92 bb 03 d8 c3 bf
       -0.017832521 -0.10488387 -0.0044619753 -1.5300297
0001d0 cb 6d 74 bf 73 5e ee 3a 8f 3b b6 bd ae 11 1b bd
       -0.9548003 0.0018186107 -0.08898079 -0.037858658
0001e0 85 07 8e bd bc 07 b5 bd c0 29 31 c0 3d 5f ff bf
       -0.06935028 -0.08839366 -2.7681732 -1.995094
0001f0 5a bb db bd 20 5d f0 3e 6b 2f 98 bf 13 8a 19 bd
       -0.10729094 0.4694605 -1.1889471 -0.037485193
000200 9d 21 02 bf 37 f8 ae bd a3 af ea be 5b 8a c1 be
       -0.5083254 -0.08543437 -0.45837125 -0.3780087
000210 48 42 95 bd 10 c7 a8 bf 5b e6 e6 bd bf 0e 87 bd
       -0.07288033 -1.3185749 -0.112744056 -0.065946095
000220 4f e7 a1 bd 59 87 08 bf 1f e9 df 3c fc 33 65 c0
       -0.07905447 -0.53331524 0.02733284 -3.5812979
000230 7b 0b 1e bd b7 e4 be bd 58 2d 20 bf c2 39 c8 3e
       -0.038585167 -0.09320968 -0.6256919 0.39106566
000240 ff f5 d7 bd 9f ef 10 bf fe e8 8d be 5b fd 84 bd
       -0.10544967 -0.5661563 -0.2771682 -0.06493636
000250 6b 31 3c bf f4 d9 d8 bf 8c ed 64 c0 1e 81 28 bd
       -0.73512906 -1.6941514 -3.5769987 -0.04113876
000260 8f 09 94 bd c8 25 4b 3e 7c 14 ca bf 14 47 01 3f
       -0.07228386 0.19838631 -1.5787501 0.5049908
000270 ba bd 5f bd 9f 7a 68 bd f8 c2 eb be b1 5e 4c bf
       -0.054624297 -0.056757566 -0.46047187 -0.7983199
000280 15 c6 55 be 4b f3 d2 bf d1 ea ad bf 9e a7 ef bd
       -0.20876344 -1.6480497 -1.3587285 -0.11701892
000290 57 8b 29 3d 15 0a 1d bf ee c2 73 bc 35 7c 7b bf
       0.04139265 -0.6134351 -0.014878018 -0.982364
0002a0 65 d9 d4 be 06 04 33 c0 1e dc b8 3e 34 32 b5 bf
       -0.4157211 -2.7971206 0.36105436 -1.4155946
0002b0 eb b9 9a bf 97 e9 39 be bd 1c a5 be f8 e2 67 c0
       -1.2087988 -0.18155514 -0.32248488 -3.623228
0002c0 fe 8c 83 bf ee cc 46 c0 7c 7d db bd 94 10 13 be
       -1.0277402 -3.106258 -0.107172936 -0.14361793
0002d0 cb e5 ac bf d8 e3 c6 bd d4 06 53 bd 2f 63 6c bf
       -1.3507627 -0.097114265 -0.051520184 -0.9233884
0002e0 35 7a 32 bf ff 32 f0 bd eb f9 02 3f 8e 38 9a bb
       -0.69717723 -0.11728477 0.51162595 -0.004706449
0002f0 ae 5b f8 bd 12 5f 00 3f fd 0c 07 c0 0a c7 e8 bf
       -0.121268615 0.50145066 -2.1101677 -1.8185742
000300 22 17 74 3f 0a e3 03 be e4 b7 db bf 83 14 40 be
       0.953478 -0.12879577 -1.7165494 -0.18757825
000310 8f 42 7e 3f 33 0d a6 bd 66 c8 c7 bf 1c ad 4c bf
       0.9932031 -0.08107986 -1.5608032 -0.79951644
000320 43 d4 fb bd 85 9b 29 be 7a 11 e6 39 3e 9d 7d bf
       -0.12296345 -0.16563232 0.0004388204 -0.9906806
000330 16 ce f2 be b2 15 0c bf 06 c5 c1 3c f3 8b 96 bd
       -0.47422856 -0.54720604 0.023653518 -0.07350912
000340 b4 3c 17 c0 b6 71 af bd e6 83 57 bd 95 24 83 3e
       -2.36308 -0.085666105 -0.052616023 0.25613847
000350 98 fa 5f bd a0 47 a2 bd f5 5f a5 3f 8e 65 be be
       -0.054682344 -0.07923818 1.2919909 -0.37186855
000360 9b 11 0f 3e a9 60 87 bf ba d2 c3 bb 4c 84 70 bf
       0.1397156 -1.0576373 -0.0059760483 -0.9395187
000370 f4 c2 25 c0 4f a2 ee bd 4f 6a 77 3e 02 a0 5a bd
       -2.590024 -0.11652052 0.24161647 -0.05337525
000380 ed 69 13 bf a4 7a fa bf 46 6b 24 c0 33 01 10 bd
       -0.57583505 -1.9568677 -2.5690475 -0.035157394
000390 d2 f5 74 3f de e6 26 bf cf b5 b3 3e 6d 02 2e bf
       0.9568759 -0.65196025 0.35099646 -0.6797245
0003a0 57 5a 49 c0 a0 76 92 bf 42 31 40 3f a3 90 af bd
       -3.146139 -1.1442451 0.7507516 -0.08572509
0003b0 cf 97 8a 3e fb 47 61 bd d2 81 97 bf 25 43 b5 bd
       0.27068946 -0.055000287 -1.1836493 -0.088506974
0003c0 fb c0 02 bf 91 d2 bd 3c a0 28 b4 bd ea a9 94 bc
       -0.51075715 0.023171695 -0.08796811 -0.018147428
0003d0 13 98 21 3f f2 aa ac bc 60 6a d7 bd 67 8b 83 be
       0.6312267 -0.021077607 -0.10518336 -0.25692293
0003e0 67 0b 29 c0 38 3d 89 3f 67 87 ed bd df 51 3f bd
       -2.641321 1.0721807 -0.115980916 -0.046708938
0003f0 f4 e8 cc bf 24 1c b8 bf e2 4e 88 bd 1f 52 bd bd
       -1.6008592 -1.4383588 -0.06655671 -0.09244179

weight f4 [6, 256]
000000 99 54 13 bb 7d 5c 8f bd 4d 42 4d 3c 2c 4e 88 3e
       -0.0022480844 -0.070000626 0.012528014 0.2662214
000010 0f d1 96 bd be a8 31 bd fe 98 89 c0 5e fe 90 3c
       -0.073640935 -0.043373816 -4.299926 0.017699417
000020 a0 98 77 bf ee 8b b6 3f 9d 68 bf 3e 35 57 8c bc
       -0.9671726 1.4261453 0.373845 -0.017131427
000030 12 f1 37 3f d2 92 a1 bf 92 92 31 40 42 f4 1f bd
       0.7185222 -1.2622931 2.774571 -0.0390513
000040 0d 47 30 c0 37 e1 0b 3d 94 bb 25 3d 50 0e 05 bd
       -2.7543366 0.03415033 0.04046209 -0.032484353
000050 5b 1a bb be dc 5d 5b 3f 3a 46 cd bc 8e 02 cd 3f
       -0.36543545 0.85690093 -0.0250579 1.6016405
000060 85 59 55 bf 05 43 3a be 15 c6 77 3d 2c 92 87 bd
       -0.8333972 -0.18189628 0.06049164 -0.06619677
000070 ff b8 d8 3f da 90 25 bb 88 5d 33 3f 52 9c 65 be
       1.6931456 -0.002526334 0.7006459 -0.22422913
000080 2c a7 b9 3d 1f 3d 61 3d 72 a9 e8 bb a3 c4 9c bf
       0.09065089 0.05498993 -0.0071002776 -1.2247509
000090 2b 38 bb 3f 80 eb 3d bd e6 f2 2d 3d a2 4a dc 3e
       1.4626516 -0.04636717 0.042467974 0.4302569
0000a0 46 09 05 3c 2a 02 70 bc 16 b5 b7 bf 5d 5e 3d 3d
       0.008119887 -0.014648953 -1.4352138 0.04623257
0000b0 e5 86 8e bc d4 a4 11 be 3b 2f 66 40 a6 35 90 3d
       -0.017398307 -0.14223033 3.5966327 0.070414826
0000c0 9d 76 31 3f 59 36 a1 3f 71 fe 36 3f f4 f8 e9 3e
       0.69321615 1.259471 0.71481997 0.4569775
0000d0 2c 9c 99 3f 72 7a 95 3f 97 46 df 3e c3 08 95 bd
       1.2000785 1.1677992 0.43608543 -0.07277062
0000e0 93 41 47 bc f1 84 b0 3f ae 10 c7 bd 5d e5 ee be
       -0.01216163 1.379057 -0.09719978 -0.46659365
0000f0 c3 85 68 bd 13 d1 a6 bf c1 3e 1c 3e 32 59 95 be
       -0.05676819 -1.3032554 0.15258314 -0.29169613
000100 c9 14 70 bf 95 a8 36 c0 43 39 64 3f db 87 82 bc
       -0.93781716 -2.8540394 0.89149874 -0.015933922
000110 f0 59 27 3f 69 77 68 3f a8 31 0c 3c c1 e7 81 3d
       0.6537161 0.90807205 0.008556761 0.06343032
000120 fd bb 40 40 b7 c4 83 bc b6 fc 4b 3d 14 11 44 be
       3.011474 -0.016085012 0.04980155 -0.1914714
000130 ee be 16 3e 16 fa bd 3f 5c cf d7 be 69 7f 9b 3d
       0.14721271 1.4841945 -0.4215039 0.07592661
000140 31 5c ea bc 82 d4 8e bd 1b c1 a2 be 9f e4 4b bc
       -0.028608413 -0.069741264 -0.31787953 -0.012444644
000150 6f dc 56 3c b8 91 a7 bd 73 49 90 bd 80 0a 8a bf
       0.013114079 -0.081820905 -0.07045259 -1.0784454
000160 5b f3 c0 bc ff e2 9e 3e 73 aa 41 bf 51 25 42 be
       -0.02355354 0.3103256 -0.7565071 -0.18959548
000170 07 03 4d be 92 d8 b1 3e 3d 78 78 3b 7f c3 71 bc
       -0.20020686 0.34735543 0.0037913464 -0.014756083
000180 2b c1 fd be 01 8a 84 3f 5a 91 4a bc a7 af e0 bc
       -0.49561438 1.0354615 -0.012363756 -0.027427508
000190 ff b1 92 3b 4c 3d 22 bd cd 99 b7 3e bd ba c4 be
       0.004476785 -0.03960924 0.35859528 -0.3842372
0001a0 f2 71 7b 3f 7f 87 77 3f 55 1f eb bb 71 8c 1b 3f
       0.9822074 0.96691126 -0.007175366 0.6076117
0001b0 4a e6 f7 c0 1f 14 55 3c 3b 8c 9d 3c 93 3f 0b bf
       -7.7468615 0.0130052855 0.019231906 -0.5439388
0001c0 00 50 b7 3a 55 22 03 3d 3b fb b4 3c 2c 14 26 40
       0.0013985634 0.032015163 0.022092452 2.5949812
0001d0 d5 3e 80 3f a5 99 17 3d ca d3 af bc 2e 9c 4d 3d
       1.0019175 0.03701176 -0.021463294 0.050197773
0001e0 b7 54 fe bc 93 89 84 3d 6b b8 20 3f 1a cc 12 be
       -0.031046255 0.06471553 0.627814 -0.14335671
0001f0 40 7e 02 bf 4b 49 61 3f 81 dc d6 3e de c1 45 3d
       -0.5097389 0.8800246 0.41965106 0.04828059
000200 fa cd f7 3f 48 0c 74 bd 2f c7 69 3f 89 d3 d0 be
       1.9359734 -0.059582025 0.91319555 -0.4078639
000210 af 9b 57 3d 3d 2c bd 3d 22 59 6a bc 95 55 45 bd
       0.052638706 0.092369534 -0.0143034775 -0.04817732
000220 f4 69 34 3b da a9 01 be 57 2d 2d bf dd 72 90 bf
       0.0027528973 -0.1266245 -0.6764731 -1.1285053
000230 fa f5 87 bd 82 23 a6 bc e3 f5 30 3f 22 97 1d bd
       -0.06638713 -0.020280603 0.69125193 -0.03847421
000240 e1 9e e4 bc 60 d4 e0 3e 1b 3c 24 bd 66 e9 e3 3c
       -0.02790779 0.4391203 -0.040096384 0.027821254
000250 9d a5 83 3e 07 19 02 40 82 da 4c bf 7f 60 aa 3c
       0.2571229 2.0327775 -0.80020916 0.020797966
000260 2d f5 8b bb 48 09 f8 3e ca 28 f5 bf 06 32 55 bf
       -0.0042711706 0.4844458 -1.9153073 -0.83279455
000270 7a dc 47 3c 53 2b 4b 3d 4a f1 33 3f bd 05 35 3f
       0.012198562 0.049601864 0.7029005 0.7071188
000280 54 70 89 bc 3f b9 a1 3f f9 06 14 3f 4d cb 90 3d
       -0.016777195 1.2634658 0.5782314 0.070700265
000290 9a a8 01 3f d3 31 33 3f 95 f6 2b bc 42 e9 8d bf
       0.5064789 0.699979 -0.010495801 -1.108681
0002a0 39 21 d7 bd 39 8f 3f 3f c7 4b 8b bf 34 db 22 bf
       -0.105043836 0.74827915 -1.08825 -0.6361573
0002b0 bc 95 b3 bf 2d f9 42 3d a7 f5 1b 3d 75 f4 69 bf
       -1.403007 0.047600914 0.03807607 -0.91388637
0002c0 2c 53 d4 be 31 3a 09 3f 39 dd d9 3c de 9e 04 3d
       -0.41469705 0.5360442 0.026594745 0.03237807
0002d0 dd 31 b7 3d a1 0c 88 3d 18 01 0a 3d 99 7c ae 3f
       0.089450575 0.06643034 0.03369245 1.3631774
0002e0 63 bc 2b bf e9 e0 a9 bd b3 1c 6d 40 e9 aa c6 bc
       -0.6708433 -0.08294851 3.7048767 -0.024251418
0002f0 93 a8 91 3c 57 57 1e 40 60 03 cf 3d c7 ae ce 3e
       0.017780578 2.4740808 0.101080656 0.4036772
000300 58 97 33 c0 65 0c 08 bd 10 37 90 bd c3 15 aa bd
       -2.8061123 -0.033214945 -0.07041752 -0.08304932
000310 8d 00 2d be 5c 52 3d bd 8b 3c 8a bf e9 cf 55 3f
       -0.16894741 -0.046221122 -1.0799726 0.8352037
000320 47 b0 47 3d 96 62 0c 3f bb 59 e7 3c ae c4 b6 3e
       0.048752096 0.5483793 0.028241029 0.3569693
000330 bb 1a 3a 3f f6 4d a0 bf 64 24 29 bf b6 1a 2c bc
       0.7269704 -1.2523792 -0.6607115 -0.010504415
000340 96 7d dc bd 06 5a 0b 3d f8 ea 0e bd ea 65 2f 3f
       -0.10766141 0.0340214 -0.034892052 0.68514884
000350 f4 cc dd 3c c6 c2 0c bd dc 00 13 bc ef f1 21 bf
       0.027075268 -0.034365438 -0.008972373 -0.63259786
000360 fe 8c fe bf dd d4 9c be 5a 09 48 3d 86 0d b1 bf
       -1.9886777 -0.30631152 0.048837043 -1.3832252
000370 3e 45 01 bd a6 a9 43 bc 2a e3 a3 bf 07 7f d1 bb
       -0.031560175 -0.011942303 -1.28037 -0.0063933167
000380 d7 e8 3c 40 1c 61 bb 3f 46 0a 0d c0 10 47 50 bc
       2.9517114 1.463901 -2.203752 -0.012712255
000390 e9 8e f7 3c 1a e1 32 bf 85 a9 99 3f 6f bc e4 3e
       0.030219512 -0.6987473 1.2004858 0.44675013
0003a0 29 92 20 40 1e 55 ce 3e a6 38 11 3e 97 71 68 3c
       2.508921 0.40299314 0.14181766 0.014187238
0003b0 dc 37 69 bf 95 48 38 bc 1f 23 4c bf e6 dd b2 bc
       -0.9110086 -0.011247774 -0.7974109 -0.021834325
0003c0 57 47 82 3f 60 af 3e bc f4 11 55 3d 0d d7 4f 3d
       1.0178021 -0.011638492 0.052019075 0.050742198
0003d0 9a 29 80 bf 0e b1 5c 3c 74 93 4b 3d 8f 60 b0 3d
       -1.0012696 0.0134699475 0.04970117 0.08612167
0003e0 41 f4 3f bf 2b 8e 88 3e 1e a6 28 bc 7f 6d 11 3c
       -0.74982077 0.26670966 -0.010293512 0.008876204
0003f0 6d eb 19 40 60 ff 46 3f 0e 6f 02 bd cc 6c c5 bc
       2.4049942 0.7773342 -0.03184419 -0.02409973

bias f4 [6]
000000 1e 4c de be f9 84 64 bf b5 a1 e8 3d dd 18 fd 3e
       -0.43417448 -0.892654 0.11358968 0.49433032
000010 09 c6 8b 3f 2a 60 46 be
       1.091981 -0.19372621

weight f4 [256, 23]
000000 2a 96 ab c0 23 da 68 bf 61 95 82 be 09 83 36 40
       -5.3620806 -0.9095785 -0.25504592 2.8517478
000010 31 33 df 3f 34 6d 7f 40 d5 78 21 be 2c b0 25 40
       1.7437497 3.9910402 -0.1576875 2.5888777
000020 0b 17 3a bf c1 12 2f c0 a3 6d 1b be 2e 0b b0 be
       -0.7269141 -2.7355196 -0.15178542 -0.3438353
000030 bb 2e 95 3e 7e 86 bd be 27 a2 87 be da f6 48 3e
       0.29137215 -0.37016672 -0.264909 0.19625416
000040 f5 8c 5b bd d4 16 13 be ec 55 52 40 b4 d2 0a 3f
       -0.053601224 -0.14364177 3.2864943 0.5422776
000050 43 13 64 3f 0a 0f 25 40 78 aa 63 3e d8 37 26 3f
       0.8909189 2.579043 0.22232997 0.6492896
000060 f0 96 9f bd 5d fd 3a 40 6a 26 42 bf 14 a1 5b 40
       -0.07792461 2.921714 -0.75839865 3.4317064
000070 7c 37 ad bf 5a a0 2b 3e 27 23 3a 40 37 39 da bf
       -1.3532557 0.16760388 2.9083955 -1.704871
000080 4e a8 0c 40 f7 ca 2b bf c9 7f 9a 3e c6 8d 58 3e
       2.1977725 -0.67106575 0.30175617 0.21147832
000090 34 65 93 3d cb 8a 0c 3f 09 40 3c be 71 e2 8c bd
       0.07197037 0.5489928 -0.18383802 -0.06879128
0000a0 c5 30 27 c0 a7 f0 3b 40 31 26 8f be 61 79 44 c0
       -2.6123517 2.9365633 -0.27958825 -3.0699084
0000b0 c3 80 31 3f 53 9b d9 3d 52 5d 27 c0 f9 2e 74 c0
       0.693371 0.10625329 -2.6150708 -3.815367
0000c0 7b ab a9 bf 6d c9 58 be 07 3a df be 49 f3 37 bf
       -1.3255457 -0.21170588 -0.4359896 -0.718556
0000d0 0d cb 0a bf 11 93 80 be 71 24 bc 3e 6d 4b 89 be
       -0.5421608 -0.25112203 0.36746553 -0.26815358
0000e0 ef 6d 99 bf 01 ae 60 be 64 12 02 be 84 08 ab 3c
       -1.1986674 -0.21941377 -0.12702328 0.020878084
0000f0 a6 e2 ea bd 66 36 6b bd 48 cb 6c bc ff c1 33 be
       -0.11469011 -0.057424925 -0.014452763 -0.17554472
000100 cf 06 71 be 93 24 7a be fe 9f 19 3f f8 7f bd 3e
       -0.23537754 -0.24428014 0.60009754 0.37011695
000110 ea 21 4e bd 67 d0 1c c0 24 66 7f 3f 5c ab 3c c0
       -0.05032531 -2.4502199 0.9976523 -2.947959
000120 ea b5 43 c0 e4 f6 2d c0 a6 da 81 c0 6f 3f ae bf
       -3.0579782 -2.718194 -4.0579405 -1.3613108
000130 77 96 b8 3e 30 e6 ca ba fb 7e 8d bf 46 31 6b 3f
       0.36052296 -0.0015479978 -1.1054376 0.9187206
000140 39 0f 5c 3d 8e 4e 3e 3d 99 d7 b7 bc 89 ac 13 bc
       0.053725455 0.046461634 -0.022441672 -0.009013304
000150 ca 4c 41 3e 21 19 b5 3c ff 28 37 40 09 46 72 bf
       0.18876949 0.022106709 2.8618772 -0.94638115
000160 3c 37 fe bc c0 d2 bd bf 1f 8a d9 3f 46 eb 94 be
       -0.031032197 -1.4829941 1.6995276 -0.2908575
000170 5d 9a 9e c1 71 a0 2d c0 e4 81 30 c0 6d 12 7e c0
       -19.825373 -2.7129176 -2.757928 -3.9698746
000180 b4 09 60 bf 0a ae c4 bf 7d 32 86 be a4 c1 68 bf
       -0.87514806 -1.5365613 -0.26210395 -0.9092047
000190 4f 46 51 3f c4 97 dd 3f 7d ef c4 be f8 ab f8 bc
       0.8174791 1.731194 -0.38463965 -0.030355439
0001a0 96 8d 80 bd 2e ec 63 ba 0c 63 35 be d9 ef 2f 3d
       -0.062770054 -0.00086945563 -0.17713565 0.042953346
0001b0 83 28 6d 3d 58 49 01 be 59 61 0a bf b9 f8 b1 3f
       0.057899963 -0.12625635 -0.5405479 1.3904029
0001c0 40 d0 22 c0 c8 c6 e6 3f 92 0c 0a 3f 4e b8 45 40
       -2.5439606 1.8029413 0.5392543 3.089374
0001d0 26 87 c6 c0 a4 38 cd be 0d 0b 08 3f d3 ed b8 bf
       -6.2039976 -0.40082276 0.5314186 -1.4447578
0001e0 e3 93 13 c1 8d 2f aa 3f 73 eb 97 3f 7d c6 8f be
       -9.223605 1.3295761 1.1868728 -0.28081122
0001f0 02 42 ab 3f 93 ec 39 bf ef d5 8d bd 58 f8 9a 3e
       1.3379519 -0.7262661 -0.0692557 0.30267596
000200 f1 40 10 be 4b 3d 13 bf b5 9b 2d be 1d 28 39 3d
       -0.14087273 -0.575154 -0.16953929 0.04520427
000210 ce d4 36 3f c0 5b 07 40 51 05 07 3f c8 5e 45 40
       0.71418464 2.114975 0.5274249 3.08391
000220 d2 a1 cc be 65 68 da 3e 11 ce 82 41 31 64 c2 c0
       -0.3996721 0.42657772 16.350618 -6.0747304
000230 42 db 48 40 91 3e db 3f 47 7a 27 bf 5f 07 10 41
       3.1383824 1.7128469 -0.65420955 9.0018
000240 09 91 cf be 8f e0 94 bf 37 6d 72 be cc da 9b bf
       -0.4054034 -1.163103 -0.23674475 -1.2176147
000250 92 4e dc 3e 08 6e 39 bd d2 08 31 3c 2f 08 ad bc
       0.43028694 -0.04527095 0.010805326 -0.021122066
000260 b2 c8 3a 3e 16 3f e6 3c 98 1d aa 3d 16 e7 a2 bd
       0.18240622 0.028106254 0.08306426 -0.079542324
000270 8c 95 5d bf 13 c3 78 be a8 58 cc 3f 02 1e 91 3e
       -0.86556315 -0.24293165 1.5964556 0.28343207
000280 f0 33 d2 3f 3e 9e 3e 40 c9 73 01 3f 36 84 76 bf
       1.64221 2.9784083 0.505673 -0.9629549
000290 27 d6 9c 3f 1d 93 0b be 91 53 87 3f fd 87 9f 40
       1.2252854 -0.13630338 1.0572377 4.98535
0002a0 67 50 e1 3f 78 b2 cf bf f8 d8 8b bf b4 ab 62 3f
       1.7602662 -1.6226339 -1.0925589 0.8854325
0002b0 06 ee 6b bc e3 2b 3a bd 0a c7 9d 3e 4d 6f 1f 3f
       -0.014400011 -0.04545201 0.30815917 0.62279207
0002c0 ff 85 0e 3f cb 18 52 3d 29 1b 1c bf 3a df 23 3d
       0.5567321 0.051293176 -0.60978943 0.040007807
0002d0 45 6c 15 be 92 2c 39 40 33 c3 1d bf 15 de e3 3f
       -0.14592083 2.8933454 -0.61625975 1.7802149
0002e0 1e ba 13 41 1d 2e 95 c0 dc 35 bb 3f fc 15 66 3e
       9.232939 -4.661879 1.4625812 0.22469324
0002f0 f1 37 d8 bc e9 51 23 c1 5a c8 69 40 ce ea 22 40
       -0.026393862 -10.207498 3.6528535 2.5455813
000300 6e 1f dd bd 6b 68 ba 3f 1e fa 23 bf 3a 25 bc bd
       -0.1079701 1.4563116 -0.64053524 -0.09186788
000310 64 ec ba bd 60 22 5a bd 42 44 00 bf 08 17 9c bc
       -0.09127119 -0.05325544 -0.50104153 -0.01905395
000320 a8 25 9f 3c 3d 7c e7 bf d6 58 f1 be ac 2a df be
       0.019427136 -1.808479 -0.4713809 -0.43587244
000330 2e a4 00 3f 00 09 e9 bf b4 60 29 3f b0 72 06 40
       0.5025052 -1.8205872 0.6616318 2.10075
000340 96 dd 46 40 66 1b 79 c0 7a 9e 1d 40 8d 42 0d c0
       3.1072745 -3.8922973 2.4627976 -2.207187
000350 81 ee 9d c0 bf ec 18 c0 12 ee 2a bf 97 4f 0c bf
       -4.9353642 -2.3894498 -0.66769516 -0.54808944
000360 71 6e de 3f 38 8d 39 3f e1 b1 e0 bd 41 bd 4c 3e
       1.7377454 0.7248111 -0.10971428 0.1999407
000370 b8 75 99 be 86 24 8c 3e 28 03 3f 3d ef 6d 0e bf
       -0.29972625 0.27371615 0.04663387 -0.55636495
000380 5a fc af 3e 74 c1 8e bf fa 5d 15 40 09 11 78 c0
       0.34372216 -1.1152787 2.3338609 -3.8760397
000390 53 36 95 3f e7 2f e5 bd d2 aa 40 40 b5 77 8c bf
       1.1657203 -0.11190777 3.010426 -1.0974032
0003a0 c9 1d 5e 3f e7 be ef 3f 18 1c 86 be 8a 11 ab 40
       0.867642 1.8730134 -0.2619331 5.345891
0003b0 f6 81 9a 40 09 5c 27 40 8f 67 52 bf 11 54 8c bf
       4.8283644 2.6149924 -0.8218927 -1.0963155
0003c0 26 96 66 bf 2a f5 8d bf 39 a7 96 bd 71 59 99 be
       -0.9007286 -1.1090443 -0.07356114 -0.2995105
0003d0 98 d9 c0 be 4a af 56 be 4a 0f ea 3e 69 87 f3 3f
       -0.3766601 -0.20965305 0.4571479 1.9025699
0003e0 8e 0b 8a 3f 45 0f e1 be f1 3a 15 be 27 e5 36 bf
       1.0784776 -0.43956962 -0.14573266 -0.7144341
0003f0 69 1f c9 3f 12 54 f7 40 3b 8f c6 40 1a eb 90 3e
       1.5712711 7.7290125 6.204984 0.28304368

bias f4 [256]
000000 7f 37 95 c0 a1 e2 75 c0 81 8b fd 40 36 14 a9 c0
       -4.6630244 -3.8419573 7.9232793 -5.283717
000010 66 fe d0 c0 95 53 06 c0 63 84 3d 3f 75 0b 9b c0
       -6.5310545 -2.0988514 0.7403013 -4.8451486
000020 f3 1c 37 c0 8a 3f 72 c0 17 ce 29 c0 8d a0 93 c0
       -2.861142 -3.785128 -2.6532037 -4.6133485
000030 b0 17 01 b9 85 e3 38 c0 f9 b0 81 c0 96 3a 28 40
       -0.00012311223 -2.8888867 -4.052853 2.6285758
000040 ff bf f3 c0 9b a3 15 c1 bc 12 df bf 2a 83 4d 40
       -7.617187 -9.352443 -1.7427592 3.2111306
000050 38 27 90 bf cd e3 84 c0 95 7e 70 c0 b4 53 c0 c0
       -1.1261969 -4.1528077 -3.757726 -6.0102177
000060 30 6b 09 c0 8b a7 9a be 9c c0 f0 be 14 0b 22 c0
       -2.1471672 -0.3020595 -0.4702195 -2.5319262
000070 1b 83 3f 3f 54 51 ba c0 f1 cf 23 40 2e fd 11 c1
       0.74809426 -5.8224277 2.5595667 -9.124311
000080 20 08 42 c0 eb c0 7d c0 ea da bc c0 6b 8c b8 bf
       -3.031746 -3.9648998 -5.901723 -1.4417852
000090 d1 b3 f4 bf 7c e4 75 c0 88 d2 32 c0 6c b4 23 c0
       -1.9117376 -3.8420706 -2.7940998 -2.557887
0000a0 97 0c ac c0 f8 84 a2 c0 6b 70 22 3e 50 01 47 c0
       -5.376537 -5.0787315 0.15863197 -3.109455
0000b0 c7 a5 90 bf d4 5f 8e bf a4 94 1d c0 94 dc 5a c0
       -1.1300591 -1.1122994 -2.4621973 -3.419713
0000c0 2a a1 46 3f da 7b 5e c0 6e 97 a8 c0 0c 6f 8b c0
       0.77589667 -3.4763093 -5.268485 -4.3573055
0000d0 39 88 d6 40 89 e0 8d c0 42 67 0e bd 9e 1e b6 bf
       6.7041287 -4.433659 -0.034766443 -1.4228094
0000e0 d6 36 e8 40 34 ab 06 c1 82 fc a1 c0 61 c8 91 40
       7.256694 -8.416798 -5.0620737 4.5557103
0000f0 d6 f8 7c be cd f1 2f c0 90 dd c7 c0 39 70 a9 40
       -0.24704298 -2.7491333 -6.245796 5.294949
000100 f0 97 4c c0 ee 7d 00 c1 76 74 cd c0 3c 89 0f c1
       -3.1967735 -8.030745 -6.4204664 -8.9710045
000110 1d 75 53 c0 e8 79 2e c0 de 97 97 c0 f2 1d 7a c0
       -3.304023 -2.7261906 -4.7372885 -3.9080777
000120 84 1f 92 c0 49 86 8a c0 19 8e ca be da 3d 88 c0
       -4.566347 -4.328892 -0.39561537 -4.2575502
000130 e1 4b c3 c0 7d 8c 6e 40 8b e2 4d c0 8d 06 87 40
       -6.1030126 3.7273247 -3.216952 4.2195497
000140 9d 91 64 c0 bb af d0 3f 2e dd 00 40 1c 60 26 c0
       -3.5713875 1.6303629 2.0134997 -2.599616
000150 ff ff a7 c0 b4 dc 9c c0 1e 63 d5 bf 65 17 2f c0
       -5.2499995 -4.9019413 -1.6670873 -2.735803
000160 3b d5 84 40 d1 58 e4 c0 f2 e7 83 c0 d9 09 07 c1
       4.151029 -7.135842 -4.1220636 -8.439904
000170 68 b9 6f c0 bd b7 0c c0 6d 51 b4 c0 fa a1 bb bd
       -3.7456913 -2.1987145 -5.6349397 -0.09161754
000180 77 3c 65 c0 c0 12 b4 c0 24 71 6c bf 3d 2b 53 c0
       -3.5818155 -5.627289 -0.9236014 -3.299514
000190 59 40 a9 c0 cf c7 e9 3f 58 a0 8c c0 76 7f 5b c0
       -5.289105 1.8264102 -4.394573 -3.4296546
0001a0 a8 d8 59 c0 8f 29 02 c0 ab 99 91 3e 17 7a 69 c0
       -3.4038486 -2.0337865 0.28437552 -3.6480768
0001b0 36 d2 5e c0 03 2b 81 c0 cd da c9 bf 4b 49 11 c0
       -3.4815803 -4.0365005 -1.5769898 -2.2700984
0001c0 03 53 a2 c0 bb 2a 93 c0 a4 d6 6d c0 9d 17 53 c0
       -5.0726333 -4.598966 -3.7162256 -3.2983162
0001d0 f9 3a 15 c0 4d c3 41 c0 c5 2b 4e c0 3c 2a 28 c0
       -2.3317244 -3.0275452 -3.2214215 -2.6275778
0001e0 29 c7 92 c0 a0 cc 50 3e 4d 58 c4 bf 75 b4 39 c0
       -4.5868115 0.20390558 -1.5339447 -2.9016392
0001f0 b7 18 ec bf 0a 1d 4b c0 04 d6 be c0 15 6d a6 bf
       -1.8445042 -3.1736474 -5.963625 -1.3002039
000200 b5 eb a8 bf 39 a8 2e be 7e 84 40 c0 39 e4 b7 c0
       -1.3196932 -0.1705636 -3.0080867 -5.746609
000210 09 44 d5 c0 69 db ab bf ec 1f ef c0 3c 36 34 c0
       -6.664555 -1.3426334 -7.4726467 -2.8158102
000220 da 1a b3 c0 57 11 84 c0 6a 42 c9 bf 26 9a e2 c0
       -5.597028 -4.1271167 -1.5723393 -7.081317
000230 ea 25 ad c0 fb 1b 60 c0 31 80 6d c0 5e 3c ee bf
       -5.410878 -3.5017078 -3.7109492 -1.8612173
000240 25 fa 71 3f 8a f2 4d 3f ab 23 9f c0 57 72 c4 c0
       0.94522315 0.8044821 -4.973104 -6.1389575
000250 84 e2 ba 40 49 48 7b c0 44 6d 6a c0 49 9c a5 c0
       5.840151 -3.926287 -3.662919 -5.175328
000260 09 e8 70 c0 67 4e f9 40 96 f1 99 c0 96 1a 5d c0
       -3.7641623 7.7908206 -4.8107405 -3.4547477
000270 9e 20 5b c0 a2 20 8f 3f ce 41 89 c0 48 49 7b c0
       -3.4238658 1.1181834 -4.289283 -3.9263477
000280 f4 c7 00 bf 81 aa 1d c0 24 df 8f c0 1e 83 d3 be
       -0.50305104 -2.4635317 -4.495989 -0.41310972
000290 2c 53 3d c0 a2 9a a8 c0 55 40 37 40 f8 68 cd c0
       -2.9582014 -5.268876 2.8633015 -6.4190636
0002a0 5b 00 03 41 6a aa 47 c0 e8 8e 38 3f ca b3 eb 40
       8.187587 -3.1197762 0.7209306 7.365697
0002b0 6d b3 9b c0 2e 3f a1 c0 df 24 69 c0 c7 13 90 c0
       -4.8656526 -5.0389624 -3.6428754 -4.502414
0002c0 09 e2 19 c0 3b e2 2c 40 eb db 54 40 d3 01 87 c0
       -2.404421 2.701308 3.3259227 -4.2189727
0002d0 01 66 51 c0 df 02 19 40 68 e6 96 c0 22 97 cd c0
       -3.2718508 2.3908002 -4.715626 -6.424699
0002e0 66 29 13 40 61 7e 33 c0 6a 2f 79 c0 97 c9 a3 bf
       2.2994018 -2.8045886 -3.893519 -1.2795895
0002f0 ee 1a 24 c0 c9 a0 97 c0 a8 d7 60 c0 1f ea 64 40
       -2.5641437 -4.738377 -3.5131626 3.5767896
000300 32 c5 c1 c0 c1 d1 75 c0 8a 4e ad c0 80 da ab c0
       -6.0553217 -3.8409274 -5.4158373 -5.3704224
000310 27 8e ae c0 92 4c ba c0 46 93 a9 40 35 48 47 c0
       -5.4548526 -5.821847 5.2992277 -3.1137822
000320 90 c0 9a bf 1f 30 9c c0 43 12 b8 be 0d ce 8b 40
       -1.2090015 -4.880874 -0.35951433 4.3689027
000330 be 87 42 c0 b8 fb c2 c0 79 3b 62 3f 98 26 4b c0
       -3.039535 -6.0932274 0.88372 -3.1742306
000340 30 48 0d 40 bb 6e 58 c0 0c 99 6c 3f e7 ad de 3f
       2.207531 -3.3817585 0.9242103 1.7396821
000350 01 5d e0 40 3e 53 7e bd 0f 14 0b c0 90 dc d6 c0
       7.011353 -0.062091105 -2.1730993 -6.714424
000360 38 2a 06 c1 54 d0 84 c0 7b ff 84 c0 68 53 36 bf
       -8.385307 -4.1504307 -4.1561866 -0.7122102
000370 05 89 60 c0 d9 f8 03 c1 af cc d1 c0 58 71 bb c0
       -3.508363 -8.248254 -6.556236 -5.857586
000380 4a 0f 7a c0 71 7e 4b 3f dd 6e ca 40 e0 5d 1e 40
       -3.9071832 0.7948981 6.326033 2.4744797
000390 d7 e9 7e c0 75 7c df bf 4c 84 71 c0 53 be 9e be
       -3.9830225 -1.7459856 -3.7736998 -0.3100458
0003a0 06 7f 6d c0 21 de 89 c0 55 09 c3 c0 94 c9 24 c0
       -3.710878 -4.3083653 -6.094889 -2.5748034
0003b0 83 95 89 bf 9a 5f 7b 40 61 70 3f c0 68 e0 20 c0
       -1.0748752 3.92771 -2.991234 -2.5136967
0003c0 8b da 68 c0 f1 25 91 c0 51 a2 fa c0 5a 59 f5 bf
       -3.6383388 -4.5358815 -7.832314 -1.9167893
0003d0 db d8 a9 c0 77 b7 a1 c0 ad 4a 46 40 5f 87 5e be
       -5.3077216 -5.0536456 3.0983078 -0.21731327
0003e0 35 c5 b0 bf ff ba e2 3e a3 4c 40 c0 4a 1c fc 40
       -1.3810183 0.44283292 -3.0046775 7.8784533
0003f0 df 6a a9 3f d6 58 94 bf 18 12 cf bf 97 70 c2 bf
       1.323574 -1.158961 -1.6177397 -1.519061
