log/mujoco_sac_swimmer_v3_1/mujoco_sac_swimmer_v3_1_s1/pyt_save/model.pt (torch_old, 834154 bytes, 18 tensors)

weight f4 [256, 8]
1.3757802 -0.1734313 0.41074684 -0.06168715 0.63292557 1.2578553 1.2097644 0.34011582
-0.033023123 -0.051095646 -0.012113397 -0.21252123 -0.03294284 -0.17837499 -0.15291624 -0.22096083
0.031469494 0.04661399 0.051544968 -0.022645984 -0.10678528 -0.18732727 -0.12627904 -0.06380814
-0.026323682 -0.012821377 -0.0016068548 -0.029188214 -0.13026102 0.2578764 0.19907275 0.08207811
-0.15535137 -0.120740026 -0.15560934 0.018857487 0.013773243 -0.116938524 -0.055748228 0.054176275
0.20484552 -1.6477978 0.35934892 -0.62777185 0.20271948 -0.8744867 -1.4974523 -0.7326316
-0.4276415 -0.7349568 -0.38907287 -0.21555072 -0.042359293 0.31338757 0.221243 0.26253673
-0.074562825 -0.1501815 -0.21927296 0.28100315 -0.059676893 0.2528979 0.23420535 0.14620127
-0.36361408 -0.63056064 -0.59454894 -0.38688245 -0.010850815 -0.18608397 -0.15387732 0.09850578
0.15053633 0.23595597 0.050110657 -0.14641513 0.20332648 -0.021245552 -0.09536167 -0.078691654
-1.0757191 -1.6201059 -0.74398166 -0.4607992 0.6245578 -0.0012913332 -0.12631364 -0.0002301302
-0.27247623 -1.1160486 0.56933165 0.21347335 -0.3868035 0.04455778 0.0084687965 -0.15298565
1.0176127 -0.2183134 -0.5281197 -0.94708204 0.22386031 -0.0071673123 -0.34627706 0.023541443
-0.2436885 -0.31458995 -0.0469654 0.58702546 0.006653576 0.2964918 0.3236957 0.21832089
0.39838618 0.51114607 0.28012142 -0.026020572 0.23780002 -0.11505157 -0.026764162 0.05015598
-0.044658933 -0.18114573 -0.10689565 0.000862519 0.07921399 -0.3090575 -0.22486411 -0.11888772
0.2977053 1.4872485 -1.2662069 -0.041241933 0.5092706 0.38892066 0.4687208 -0.14405923
0.1483236 0.12904488 -0.21928011 -0.33580723 0.3863619 -0.07101621 -0.029841037 0.072713114
0.04050555 0.07359596 0.0147218555 -0.055451162 0.24518663 0.20668022 0.12043321 0.058066085
-0.15239595 -0.31541792 -0.25665358 0.11508197 -0.14027704 -0.02992356 -0.07859116 -0.06379809
0.25156617 -0.92953426 1.2760135 -0.62457454 -0.1628467 0.18900953 0.14974971 0.46760345
-0.119526654 -0.29804063 -0.045117635 0.15408398 -0.099874035 0.23703542 0.31533685 0.23822153
0.26894656 0.3231843 0.27488446 -0.020803902 -0.020089095 -0.20311862 -0.14495116 -0.08612217
0.32388282 -0.1719139 0.712234 -0.04635008 1.3122684 0.06860162 0.30890518 0.20170583
-0.16815679 -0.15121983 0.12927628 -0.37055093 -0.1133822 0.2804209 0.39878 0.28398845
-0.035419308 -0.16616946 -0.07917902 -0.16221294 0.21109216 -0.089474484 -0.06860971 0.05350641
0.24464338 1.5032129 -0.6388022 -0.23520145 -0.44203225 1.5896988 1.6960424 0.9538453
0.042880464 0.08375262 0.07435086 0.009275314 -0.058605753 -0.07567601 -0.07995335 -0.049061906
0.13848786 0.11935862 0.10825412 -0.13234854 0.1379004 0.07499831 0.036114164 0.021656087
0.13556953 0.1460399 0.10415077 0.0645032 -0.08824814 0.15384929 0.16508166 0.056709934
-0.08953795 -0.15256904 -0.08171206 0.071787104 0.0009842729 -0.2598441 -0.16356611 -0.038692724
-0.3079411 -0.12528881 -0.17452301 -0.5225918 -0.19561394 -0.07735494 0.019880237 -0.12501852
00000000: 9119 b03f fa97 31be 694d d23e aaab 7cbd
00000010: 6907 223f 6701 a13f 8fd9 9a3f a923 ae3e
00000020: 4143 07bd ab49 51bd 4577 46bc 2a9f 59be
00000030: 12ef 06bd efa7 36be 1396 1cbe 8e43 62be
00000040: 28e6 003d 50ee 3e3d d120 533d 1284 b9bc
00000050: 3eb2 dabd b8d2 3fbe 4b4f 01be d8ad 82bd
00000060: c3a4 d7bc c110 52bc 1a9d d2ba 1f1c efbc
00000070: 2563 05be 6008 843e bad9 4b3e 9118 a83d
00000080: 6e14 1fbe 8c46 f7bd 0e58 1fbe 047b 9a3c
00000090: 2ba9 613c 777d efbd 4158 64bd f1e7 5d3d
000000a0: 06c3 513e 0aeb d2bf 95fc b73e a8b5 20bf
000000b0: b295 4f3e 5cde 5fbf 84ac bfbf bf8d 3bbf
000000c0: d4f3 dabe 2126 3cbf 8f34 c7be 54b9 5cbe
000000d0: f080 2dbd 5674 a03e 868d 623e 376b 863e
000000e0: 65b4 98bd 2ec9 19be 1789 60be a5df 8f3e
000000f0: c26f 74bd d57b 813e 87d3 6f3e c9b5 153e
00000100: a02b babe 6c6c 21bf 5c34 18bf 7515 c6be
00000110: 9ec7 31bc cc8c 3ebe 0492 1dbe 66bd c93d
00000120: 3226 1a3e 719e 713e d540 4d3d d9ed 15be
00000130: d134 503e 270b aebc fb4c c3bd 1729 a1bd
00000140: 2ab1 89bf a15f cfbf 9575 3ebf dfed ebbe
00000150: 05e3 1f3f f441 a9ba 5d58 01be 1b4f 71b9
00000160: 0182 8bbe aeda 8ebf b8bf 113f c298 5a3e
00000170: 1c0b c6be 3882 363d b5c0 0a3c 45a8 1cbe
00000180: 2241 823f 8c8d 5fbe da32 07bf f873 72bf
00000190: a33b 653e c6db eabb 3a4b b1be fcd9 c03c
000001a0: 7a89 79be ef11 a1be cb5e 40bd 4d47 163f
000001b0: 3e06 da3b c6cd 973e 71bb a53e 838f 5f3e
000001c0: 46f9 cb3e 78da 023f 136c 8f3e 1829 d5bc
000001d0: d981 733e 28a0 ebbd 8440 dbbc 5b70 4d3d
000001e0: 49ec 36bd 447e 39be 1bec dabd ac1a 623a
000001f0: f23a a23d c93c 9ebe c742 66be 687b f3bd
00000200: d46c 983e 295e be3f 1113 a2bf 4ded 28bd
00000210: 8f5f 023f 9c20 c73e 2cfc ef3e 4384 13be
00000220: 24e2 173e 5724 043e f78a 60be edee abbe
00000230: 3ad1 c53e f270 91bd 3175 f4bc 9dea 943d
00000240: 26e9 253d 7bb9 963d f033 713c c220 63bd
00000250: 3412 7b3e fba3 533e b0a5 f63d b4d6 6d3d
00000260: af0d 1cbe 757e a1be 1968 83be 19b0 eb3d
00000270: c9a4 0fbe 4122 f5bc 67f4 a0bd 93a8 82bd
00000280: 48cd 803e f5f5 6dbf 6954 a33f 1ee4 1fbf
00000290: 49c1 26be b78b 413e fd57 193e b869 ef3e
000002a0: 64ca f4bd c898 98be 45cd 38bd 31c8 1d3e
000002b0: c28a ccbd 6ab9 723e d573 a13e 58f0 733e
000002c0: 5db3 893e 6a78 a53e a8bd 8c3e f26c aabc
000002d0: e391 a4bc 54fe 4fbe 146e 14be d260 b0bd
000002e0: f8d3 a53e 330a 30be f854 363f 95d9 3dbd
000002f0: 69f8 a73f 027f 8c3d d228 9e3e f98b 4e3e
00000300: 4b31 2cbe 5fd9 1abe 0061 043e dab8 bdbe
00000310: ed34 e8bd 5493 8f3e e42c cc3e ef66 913e
00000320: d613 11bd 5428 2abe 9c28 a2bd 261b 26be
00000330: 8b28 583e 663e b7bd 3f83 8cbd 8a29 5b3d
00000340: cb83 7a3e 4869 c03f 8a88 23bf a6d8 70be
00000350: 0d52 e2be 407b cb3f eb17 d93f 352f 743f
00000360: 6da3 2f3d 7e86 ab3d 4445 983d 7df7 173c
00000370: 960c 70bd 06fc 9abd 95be a3bd 23f5 48bd
00000380: c3cf 0d3e 4b72 f43d 56b4 dd3d 6086 07be
00000390: c335 0d3e b798 993d 72ec 133d 1b68 b13c
000003a0: bdd2 0a3e 7c8b 153e 004d d53d 411a 843d
000003b0: 71bb b4bd ab8a 1d3e 2b0b 293e ad48 683d
000003c0: ac5f b7bd 0f3b 1cbe a758 a7bd 1e05 933d
000003d0: b802 813a 490a 85be e07d 27be 437c 1ebd
000003e0: 75aa 9dbe b64b 00be 29b6 32be 94c8 05bf
000003f0: 054f 48be 446c 9ebd e1db a23c db04 00be

bias f4 [256]
-3.018669 -1.1634473 -0.32515937 -0.42461175 -1.0654159 -2.6737585 -2.1095197 -1.3081368
-2.3640769 -0.8521644 -1.1381798 -1.3320632 -3.1233296 -2.06937 -1.3682088 -0.6468175
0.6064484 -1.659686 -0.6459054 -1.1363646 -1.0161052 -1.0847571 -0.67696077 -1.0735464
-1.778675 -0.9733031 -1.5989605 -0.29956207 -0.62399995 -0.51346326 -0.48499596 -1.936198
-1.5583637 -0.99154687 -1.8779871 -1.1539067 -1.512691 -0.8133826 -1.2233219 -1.4979812
-1.2366518 -2.7856975 -2.7962682 -2.3844633 -1.1683594 -1.2928843 -1.0577698 -2.104331
-2.3049984 -1.6294383 -3.30486 -0.8354616 -1.4699082 -0.6167709 -0.3676747 -0.66044486
-1.0702682 -1.3492603 -0.66549015 -2.3610275 -0.9723529 -0.9072131 -0.883748 -1.5246551
-1.6100916 -2.652793 -2.2782233 -2.067747 -0.6255885 -0.9109748 -0.83858085 -1.2595059
-2.4925618 -0.8793786 -0.78636515 -0.6809614 -2.6318293 -0.7489842 -1.43341 -1.0782245
-1.5079184 -1.3472555 -1.2051531 -1.5066507 0.07112558 -0.6185178 -1.2139565 -2.3693042
-0.6255397 -1.6139495 -0.94171697 -2.641228 -1.0073062 -1.1722451 -1.9955173 -2.5283473
-3.3297439 -0.8174134 -2.1365235 -0.43843263 -0.42577213 -1.754855 -1.3680874 -1.1202635
-1.0216044 -2.083191 -0.295129 -1.482339 -0.7253802 -0.6323232 -0.8139326 -1.1464205
-2.3775265 -2.197473 -0.9296395 -1.1366448 -1.0492218 -0.62490445 -0.9404866 -0.4459003
-3.1662214 -0.8224201 -0.5032828 -1.2769237 -1.4218158 -2.9921873 -1.1481181 -0.57982963
-0.59059995 -0.06147738 -1.7650613 -2.7953234 -0.9766211 -1.8536843 -1.3164462 -0.7968621
-1.3713274 -1.9810964 -1.130258 -1.2350508 -0.80288965 -0.6313023 -2.0744138 -2.024257
-1.1105405 -0.81548756 -1.8582199 -2.4602678 -0.9232106 -0.5209446 -0.351376 -2.5509508
-1.0141487 -1.0965977 -0.62689316 -1.2017362 -0.65247935 -1.2270108 -1.786701 -1.1800175
-0.36965376 -0.49595934 -1.5688764 -1.5384295 -0.26199362 -0.81111634 -0.6486792 -1.0703422
-0.84091717 -0.5282076 -0.774356 -0.49297288 -0.6582507 -3.0502841 -1.6602612 -1.0322106
-0.79374856 -1.6869166 -0.9244897 -1.0395912 -0.7125262 -0.80873907 -0.7129301 -2.7652392
-1.1368631 -0.3152985 -1.0501899 -0.5756713 -0.58304507 -1.5132871 -1.5308915 -0.96016264
-0.7690836 -0.7230679 -1.4537845 -1.0028586 -0.9822243 -2.0272105 -0.68074816 -0.47244117
-0.99430233 -1.6036255 -0.6672626 -0.5354247 -1.2774651 -0.81481445 -1.936878 -0.62505335
-2.166309 -2.379775 -1.295438 -2.2090063 -1.2435864 -1.429262 -1.0288881 -1.1978556
-1.4395821 -0.42519072 -1.1879011 -0.8542292 -2.590285 -1.3634635 -1.4812825 -1.6667248
-1.382169 -0.45917794 -1.5234696 -2.8436055 -0.76123834 -0.3595343 -3.1326368 -1.7893534
-0.7028354 -1.1830707 -1.0836899 -1.7751133 -2.9634519 -1.2435931 -2.563347 -0.884125
-1.2741283 -1.1999205 -0.71362007 -1.4496791 -2.5262508 -0.819093 -0.7640517 -0.9404263
-2.5750165 -1.1339948 -0.5852563 -2.2255356 -1.928996 -2.3989928 -0.9201998 -2.4968374
00000000: df31 41c0 d7eb 94bf 4a7b a6be b666 d9be
00000010: 8c5f 88bf dc1e 2bc0 5f02 07c0 0771 a7bf
00000020: 094d 17c0 7227 5abf e0af 91bf 0c81 aabf
00000030: a2e4 47c0 8f70 04c0 7721 afbf d595 25bf
00000040: 3440 1b3f 9770 d4bf 0e5a 25bf 6574 91bf
00000050: bc0f 82bf 52d9 8abf 4d4d 2dbf f869 89bf
00000060: 9fab e3bf 642a 79bf bdaa ccbf 3360 99be
00000070: 76be 1fbf 5472 03bf 6451 f8be 56d5 f7bf
00000080: 7678 c7bf 04d6 7dbf e261 f0bf 37b3 93bf
00000090: dc9f c1bf d839 50bf d095 9cbf d9bd bfbf
000000a0: 9b4a 9ebf de48 32c0 0ff6 32c0 0c9b 18c0
000000b0: cd8c 95bf 3c7d a5bf 0065 87bf 5cad 06c0
000000c0: 1885 13c0 6f91 d0bf d482 53c0 d0e0 55bf
000000d0: f425 bcbf b3e4 1dbf dc3f bcbe ea12 29bf
000000e0: 8cfe 88bf 90b4 acbf 905d 2abf 131b 17c0
000000f0: 1fec 78bf 1e3f 68bf 4f3d 62bf e627 c3bf
00000100: 7b17 cebf 5cc7 29c0 69ce 11c0 f855 04c0
00000110: 9126 20bf a535 69bf 3cad 56bf 7d37 a1bf
00000120: 2286 1fc0 f51e 61bf 3a4f 49bf 7c53 2ebf
00000130: e46f 28c0 6ebd 3fbf fb79 b7bf 4303 8abf
00000140: 7803 c1bf de72 acbf 7542 9abf eed9 c0bf
00000150: 4aaa 913d 2f57 1ebf ed62 9bbf aea2 17c0
00000160: 5f23 20bf e695 cebf 5d14 71bf e109 29c0
00000170: 69ef 80bf 210c 96bf 1c6d ffbf 71d0 21c0
00000180: 861a 55c0 0142 51bf cdbc 08c0 3e7a e0be
00000190: cefe d9be 179f e0bf 7d1d afbf cb64 8fbf
000001a0: efc3 82bf 0053 05c0 261b 97be 49bd bdbf
000001b0: 84b2 39bf efdf 21bf e35d 50bf e8bd 92bf
000001c0: 6529 18c0 66a3 0cc0 dbfc 6dbf 947d 91bf
000001d0: e64c 86bf bdf9 1fbf bbc3 70bf 0b4d e4be
000001e0: 5fa3 4ac0 208a 52bf 24d7 00bf 3c72 a3bf
000001f0: 0ffe b5bf ff7f 3fc0 89f5 92bf b76f 14bf
00000200: 8f31 17bf b5cf 7bbd 87ed e1bf 94e6 32c0
00000210: d703 7abf 8745 edbf 4f81 a8bf 28ff 4bbf
00000220: a887 afbf 9194 fdbf 4bac 90bf 2516 9ebf
00000230: 2d8a 4dbf 079d 21bf 32c3 04c0 6d8d 01c0
00000240: 3126 8ebf cbc3 50bf 26da edbf 0775 1dc0
00000250: 8857 6cbf a05c 05bf 8ee7 b3be c742 23c0
00000260: a0cf 81bf 505d 8cbf 127c 20bf 7ed2 99bf
00000270: e308 27bf b10e 9dbf 9eb2 e4bf d00a 97bf
00000280: 4243 bdbe 62ee fdbe f1d0 c8bf 42eb c4bf
00000290: 0724 86be 52a5 4fbf d70f 26bf f900 89bf
000002a0: 5946 57bf 9d38 07bf 323c 46bf f166 fcbe
000002b0: 1e83 28bf db37 43c0 7083 d4bf 7a1f 84bf
000002c0: 1b33 4bbf e2ec d7bf 5bab 6cbf 5311 85bf
000002d0: 1e68 36bf 8609 4fbf 9682 36bf aef9 30c0
000002e0: bb84 91bf ce6e a1be 9f6c 86bf 325f 13bf
000002f0: 7142 15bf 64b3 c1bf 41f4 c3bf 38cd 75bf
00000300: aae2 44bf fa1a 39bf 9c15 babf ac5d 80bf
00000310: 0d73 7bbf d1bd 01c0 8345 2ebf cfe3 f1be
00000320: 998a 7ebf 9a43 cdbf b9d1 2abf 9811 09bf
00000330: fa83 a3bf ae97 50bf 9eeb f7bf 7f03 20bf
00000340: cfa4 0ac0 3c4e 18c0 ead0 a5bf 5c60 0dc0
00000350: d72d 9fbf 0ff2 b6bf 9bb2 83bf 5553 99bf
00000360: 3a44 b8bf 99b2 d9be 250d 98bf c4ae 5abf
00000370: 3bc7 25c0 f985 aebf aa9a bdbf 3d57 d5bf
00000380: eaea b0bf 5f19 ebbe 0d01 c3bf a2fd 35c0
00000390: 84e0 42bf e114 b8be 1f7d 48c0 8809 e5bf
000003a0: 05ed 33bf dc6e 97bf 5ab6 8abf ea36 e3bf
000003b0: 32a9 3dc0 0f2e 9fbf e10d 24c0 0456 62bf
000003c0: a316 a3bf ff96 99bf ceaf 36bf 168f b9bf
000003d0: 18ae 21c0 14b0 51bf e498 43bf c7bf 70bf
000003e0: 12cd 24c0 be26 91bf 5bd3 15bf 2d6f 0ec0
000003f0: 57e9 f6bf 1989 19c0 3792 6bbf 2fcc 1fc0

weight f4 [256, 256]
-0.19045185 0.21663114 0.057478614 0.06934859 -0.033343628 0.041916355 0.1300147 -0.29566112
-0.29954484 0.18472224 -0.4208693 0.19827698 -0.047046944 -0.44795012 -0.24509679 -0.078653656
-0.18796702 -0.038928077 -0.2165548 -0.3523799 -0.37383455 0.081838414 0.0069242152 -0.08806505
-0.3139096 -0.05575054 -0.33511245 0.10183852 0.038294833 0.13761507 0.0020226561 -0.16050035
0.05050952 0.27642372 -0.24179631 0.30005956 -0.33901533 0.13188492 0.010996277 -0.34879583
-0.0053750924 -0.21873687 -0.07096033 -0.19994164 0.19502811 -0.21502475 -0.062555656 -0.2048353
-0.06858646 0.34108594 0.03362329 -0.22103938 -0.10041013 -0.17882188 -0.059263904 0.011840333
-0.124043114 -0.01691329 0.17887019 -0.18777946 -0.36730447 -0.07194888 -0.30596867 -0.2832068
0.049695183 -0.25011572 0.29198724 -0.11373596 0.14136963 -0.4390015 -0.006709276 0.031456646
-0.28031245 -0.37317875 0.12611094 -0.20331569 -0.071125835 -0.2473705 0.16570659 -0.1868056
-0.39873314 -0.1256684 -0.1731197 0.057129644 -0.79664785 -0.057488438 -0.011364441 -0.19507982
-0.08207535 -0.27109298 0.034298245 -0.018610198 0.12795153 -0.2503471 -0.27973863 -0.22679473
-0.20795846 0.3599834 0.00028219688 0.025681289 0.1849746 -0.30439082 0.4871095 0.04748447
0.029227514 -0.5909358 -0.27780515 -0.14828248 0.01753292 -0.14982067 0.117678575 0.020724144
-0.26125285 -0.012288532 -0.18349098 -0.098626204 -0.045961097 -0.25330332 -0.9433076 -0.017969292
-0.14352763 -0.020651966 -0.04431949 -0.23031388 -0.4033351 -0.1899715 -0.024455205 -0.11329888
0.059283152 -1.753797 -0.7351142 0.12926678 -0.08855442 -0.099513285 -0.20768543 0.0065775244
-0.36549148 0.013727013 -0.1494531 0.37709644 -0.1948975 -0.07336532 -1.1663914 0.061194036
-0.6175726 -0.21659409 0.036847346 -0.06337213 0.01300729 0.01719851 0.038820002 -0.350009
0.19940682 -0.19206168 -0.52984947 -0.212378 -0.066634715 -0.4437626 -0.40056723 -0.2521152
0.0056839 -0.030175334 -0.45924097 -0.08074864 0.099905714 -0.3007909 0.080663696 -0.11146163
-0.05066703 -0.13206871 -0.19776039 -0.101772755 -0.19626074 -0.31298938 -0.07887544 -0.04551875
-0.060763475 -0.51292366 0.19677973 0.17180113 -0.42688224 -0.038278755 0.06769403 -0.51656127
-0.1856235 -0.09697772 0.163936 -0.03112444 -0.09790616 0.23084849 -0.12121175 -0.55781585
0.075623706 -0.118510075 -0.1079821 -0.11165271 0.29085833 0.42631245 0.020805098 -0.10361839
-0.0717652 -0.294482 0.27830052 0.05222438 -0.12544233 -0.5155701 0.018411333 0.144726
-0.32382426 -0.962046 0.10176261 -0.7755308 -0.51767623 -0.21940704 0.11212429 -0.30413234
-0.44771945 -0.17853618 0.02916143 -0.09731068 -0.273322 0.13771924 -0.13257824 -0.3227818
-0.08290918 -0.117386736 -0.13597427 -0.45248112 0.14254335 -0.22169536 0.15472892 -0.49216586
-0.029422956 -0.079814374 0.24630317 -0.0047047357 -0.06099252 -0.31897688 0.041768406 -0.03083307
0.010462055 -0.16848727 -0.020491939 -0.8167119 -0.18668649 -0.22170536 0.06598542 -0.14721537
-0.19043027 -0.66552013 -0.1590251 -0.37684062 -0.108239874 -0.2849879 0.32939076 -0.23909564
00000000: cf05 43be 8ed4 5d3e b26e 6b3d a206 8e3d
00000010: 5493 08bd 7cb0 2b3d 9322 053e e560 97be
00000020: f15d 99be d427 3d3e 2e7c d7be 1f09 4b3e
00000030: 4cb4 40bd b859 e5be a7fa 7abe 2b15 a1bd
00000040: 6d7a 40be 0c73 1fbd 8bc0 5dbe 236b b4be
00000050: 3e67 bfbe e69a a73d 87e4 e23b 735b b4bd
00000060: c2b8 a0be ae5a 64bd dc93 abbe b790 d03d
00000070: 0bdb 1c3d f7ea 0c3e 8a8e 043b 345a 24be
00000080: 12e3 4e3d 6987 8d3e 7499 77be 68a1 993e
00000090: 6b93 adbe d70c 073e bb29 343c 5e95 b2be
000000a0: 8b21 b0bb 8ffc 5fbe a653 91bd 80bd 4cbe
000000b0: 73b5 473e 732f 5cbe 2e1d 80bd 58c0 51be
000000c0: 0f77 8cbd d1a2 ae3e 93b8 093d 2658 62be
000000d0: d4a3 cdbd 151d 37be b5be 72bd f5fd 413c
000000e0: 510a febd bd8d 8abc bf29 373e 4249 40be
000000f0: 550f bcbe ef59 93bd eda7 9cbe 7b00 91be
00000100: 2d8d 4b3d 2b0f 80be 5a7f 953e 66ee e8bd
00000110: 33c3 103e cec4 e0be 7cd9 dbbb afd8 003d
00000120: 1d85 8fbe 4911 bfbe 3a23 013e fd31 50be
00000130: 6caa 91bd b14e 7dbe fdae 293e f849 3fbe
00000140: c026 ccbe 38af 00be 4a46 31be c600 6a3d
00000150: 1df1 4bbf ff78 6bbd ec31 3abc 01c3 47be
00000160: 1f17 a8bd b3cc 8abe 517c 0c3d 6a74 98bc
00000170: ba05 033e 7f2d 80be e739 8fbe e13c 68be
00000180: 10f3 54be bf4f b83e d3f3 9339 9161 d23c
00000190: fb69 3d3e 1dd9 9bbe 6b66 f93e 137f 423d
000001a0: 8a6e ef3c 9247 17bf 7a3c 8ebe 5dd7 17be
000001b0: 33a1 8f3c 976a 19be 7701 f13d aec5 a93c
000001c0: efc2 85be d755 49bc 0fe5 3bbe 89fc c9bd
000001d0: b441 3cbd f9b0 81be 9b7c 71bf 5634 93bc
000001e0: e8f8 12be 502e a9bc 5b88 35bd 67d7 6bbe
000001f0: f081 cebe e487 42be 4856 c8bc 3e09 e8bd
00000200: e4d2 723d 6c7c e0bf 7230 3cbf 835e 043e
00000210: 055c b5bd 9fcd cbbd 7dab 54be 4688 d73b
00000220: b321 bbbe 44e7 603c 3c0a 19be c912 c13e
00000230: 3693 47be 8f40 96bd 504c 95bf 99a6 7a3d
00000240: 3d19 1ebf d7ca 5dbe 3eed 163d 3fc9 81bd
00000250: 871c 553c e4e3 8c3c b901 1f3d 6134 b3be
00000260: 4d31 4c3e d1ab 44be 37a4 07bf 9e79 59be
00000270: c877 88bd da34 e3be 2617 cdbe 3e15 81be
00000280: 0240 ba3b 4332 f7bc a221 ebbe 8b5f a5bd
00000290: 5e9b cc3d 4401 9abe 0233 a53d ff45 e4bd
000002a0: 3b88 4fbd 053d 07be b381 4abe 3c6e d0bd
000002b0: 93f8 48be 2540 a0be 7289 a1bd de71 3abd
000002c0: 1fe3 78bd f74e 03bf a080 493e a3ec 2f3e
000002d0: 4f90 dabe 2fca 1cbd 2ba3 8a3d 5c3d 04bf
000002e0: 1614 3ebe 419c c6bd d7de 273e aef8 febc
000002f0: 0683 c8bd 8c63 6c3e de3d f8bd 05cd 0ebf
00000300: 9ae0 9a3d 69b5 f2bd b825 ddbd 2daa e4bd
00000310: 62eb 943e a045 da3e 746f aa3c e135 d4bd
00000320: a2f9 92bd 58c6 96be 687d 8e3e 3be9 553d
00000330: f473 00be 67fc 03bf 5dd3 963c 0d33 143e
00000340: 4bcc a5be a648 76bf ea68 d03d 3089 46bf
00000350: 6e86 04bf 3dac 60be 6ba1 e53d 3cb7 9bbe
00000360: 7c3b e5be 30d2 36be f4e3 ee3c d24a c7bd
00000370: dcf0 8bbe 4606 0d3e 97c2 07be a843 a5be
00000380: 4acc a9bd 7568 f0bd d73c 0bbe 9bab e7be
00000390: e2f6 113e 1c04 63be 4271 1e3e 2afd fbbe
000003a0: 6908 f1bc b875 a3bd e636 7c3e 2f2a 9abb
000003b0: 4bd3 79bd f050 a3be 5915 2b3d a295 fcbc
000003c0: 0a69 2b3c ed87 2cbe b6de a7bc 0814 51bf
000003d0: be2a 3fbe bb06 63be 5d23 873d a0bf 16be
000003e0: 2700 43be 875f 2abf 7ad7 22be 41f1 c0be
000003f0: deac ddbd efe9 91be e8a5 a83e 7dd5 74be

bias f4 [256]
-0.2701914 -0.061257154 -2.010835 -0.47560075 -0.12610872 -0.3579756 -0.2060776 1.5997107
-0.19894312 -0.1825561 -1.8645941 -0.37373576 -0.10218379 -0.1183179 -0.16687022 -0.023794709
-0.07400683 0.41239947 -0.18922208 -0.18137778 -0.120082535 -0.023700124 -0.0158991 -0.12387057
-0.0706437 -0.14190222 -0.15180941 -0.0640173 -2.4122298 -0.07118716 -0.111971565 -0.1972643
-0.30144152 -0.062545784 -1.3798614 -0.49692702 -0.054698925 -0.3659734 -0.09713422 0.61831456
-0.066907085 -0.10265972 -0.16330194 -0.16287664 -0.068457395 -0.6562692 -0.15598315 0.14119388
-0.4018755 -1.6656919 -1.2366872 -0.25108144 -0.029980259 0.83169717 -0.052983057 -0.27700186
-0.09447325 -0.04213315 -0.050708696 -0.31410444 -0.17447013 -0.073222086 -0.09586133 0.63119924
-2.071125 -0.8660284 -0.09597357 -0.18545364 -0.08659308 -0.28610966 -0.2180009 -0.22668885
-0.11652192 -0.06045745 -1.4953774 -0.123562515 -0.10062591 -0.11095267 -0.5731158 -0.046364915
-0.123185806 -0.124446586 -1.1094748 -0.046009734 -1.612542 -0.16319236 0.5426115 -0.03999516
-0.08184162 -0.17013222 -0.12699334 -0.15281071 -0.39542893 -0.07869214 -0.087184094 -0.12941697
-0.18965992 -0.16241558 -0.14929481 -0.20604157 -0.1533576 -0.14357382 -0.05951035 -0.12513416
-0.058717802 -0.045530908 -0.17287725 -0.20252113 -0.12920697 -0.276168 -0.9191167 -0.1903967
-0.8473866 -0.02375774 -1.6572013 -0.09600276 -2.2352843 -0.12161935 -0.35318476 -0.85975915
-0.032847397 -0.13019934 -0.27731913 -0.070134215 -0.080180064 0.3388758 -0.03080154 -0.16803405
-0.18373692 -0.110491 0.35092652 -0.11995604 -0.65137637 -0.05881644 -0.08758724 -0.07107012
-1.7122247 0.5865783 -0.20605096 1.2141573 -0.14173648 -0.1674961 -0.17038207 -0.04802733
0.5116963 -0.25585997 -0.106934816 -0.11786939 -0.15517479 -0.46728364 0.52274185 -0.23235711
-0.14086403 0.89730674 -1.0051132 -0.09132131 -0.089542545 -1.4839424 -0.1432358 -0.28322563
-0.15061831 -0.08201791 -0.13762935 -0.30860412 -0.02925409 -0.03248458 -0.08095589 -0.1813116
-0.18184032 -1.782145 -1.2537354 -0.08959983 -0.28183755 0.04715388 -0.09829971 -0.04012579
-0.3882379 -0.042313598 -0.36700818 -0.43119457 -0.735507 -0.099732846 -0.3775651 -0.11284453
-0.22355598 -0.8464475 -0.16870888 -0.08217363 -0.1282239 -0.1308954 -0.1543942 -0.7390321
-0.42501664 -0.070437126 -0.06220995 -0.11658353 -0.206365 -0.7227069 1.9352257 0.4648641
-0.034658246 -0.058858484 -0.067675754 2.3831577 -0.16573226 -0.05673351 -0.04605285 -0.13547182
-0.34689406 -0.08852201 -1.4062151 0.35930678 -0.08913052 -0.042859722 -0.05588508 -0.12803474
-0.19046155 -0.1282164 -0.07695096 -0.11601305 -0.0025966214 -0.06954449 -0.11120615 -0.17620707
-0.042924654 -0.08891157 -0.09665981 -0.23398761 -0.100986496 -0.13164179 -0.09769308 -0.06689992
-0.910628 -0.11954083 -0.15772355 -0.15369114 -0.116835065 -0.06629922 -0.07858304 -0.08822063
-0.07597669 -0.12932214 -0.09855106 -0.17762025 -0.09324797 -0.11030136 -0.5991498 -0.10641713
-0.045874387 -0.12172567 -0.06659837 -0.3180987 1.3858461 -0.13352367 -0.10813407 -0.17050442
00000000: 8756 8abe c8e8 7abd 85b1 00c0 f181 f3be
00000010: a522 01be 9448 b7be 0206 53be 52c3 cc3f
00000020: bfb7 4bbe fcef 3abe 05ab eebf 4b5a bfbe
00000030: bc45 d1bd a850 f2bd 07e0 2abe 1fed c2bc
00000040: e590 97bd 0626 d33e 6fc3 41be 19bb 39be
00000050: d5ed f5bd c326 c2bc d43e 82bc daaf fdbd
00000060: a5ad 90bd d14e 11be ed73 1bbe 811b 83bd
00000070: f961 1ac0 93ca 91bd 5951 e5bd a7ff 49be
00000080: 8b56 9abe 0118 80bd 4c9f b0bf 386d febe
00000090: fb0b 60bd de60 bbbe 4eee c6bd dd49 1e3f
000000a0: 9506 89bd 423f d2bd a038 27be 22c9 26be
000000b0: 6433 8cbd 4201 28bf 0cba 1fbe 2195 103e
000000c0: a0c2 cdbe 6435 d5bf c44b 9ebf bf8d 80be
000000d0: 2999 f5bc 1bea 543f c304 59bd 30d3 8dbe
000000e0: 317b c1bd cf93 2cbd ecb3 4fbd 4cd2 a0be
000000f0: 4ca8 32be 76f5 95bd f252 c4bd 4696 213f
00000100: 508d 04c0 0ab4 5dbf cb8d c4bd 8fe7 3dbe
00000110: b657 b1bd f77c 92be a13b 5fbe 1f21 68be
00000120: 0ba3 eebd 3ba2 77bd 8768 bfbf 580e fdbd
00000130: f514 cebd 273b e3bd b8b7 12bf 23e9 3dbd
00000140: d748 fcbd dadd febd 4503 8ebf b474 3cbd
00000150: c767 cebf e61b 27be 96e8 0a3f f7d1 23bd
00000160: 949c a7bd 2437 2ebe 8b0a 02be 697a 1cbe
00000170: a975 cabe 5829 a1bd 938d b2bd e285 04be
00000180: 3636 42be 4550 26be bde0 18be 90fc 52be
00000190: c609 1dbe 0405 13be 20c1 73bd 2b23 00be
000001a0: 1482 70bd 9e7e 3abd bc06 31be b361 4fbe
000001b0: d54e 04be e465 8dbe 3b4b 6bbf 5af7 42be
000001c0: 54ee 58bf 989f c2bc 2c1f d4bf 189d c4bd
000001d0: e60e 0fc0 9113 f9bd a2d4 b4be 2d19 5cbf
000001e0: fe8a 06bd fa52 05be c6fc 8dbe 87a2 8fbd
000001f0: 7235 a4bd 2181 ad3e 8353 fcbc 1e11 2cbe
00000200: 8825 3cbe 1b49 e2bd a4ac b33e 83ab f5bd
00000210: 9ac0 26bf 82e9 70bd f060 b3bd 368d 91bd
00000220: 2e2a dbbf ff29 163f 06ff 52be 8269 9b3f
00000230: 5e23 11be 1984 2bbe a378 2ebe 4eb8 44bd
00000240: 87fe 023f 1400 83be a400 dbbd 8265 f1bd
00000250: 24e6 1ebe cd3f efbe 69d2 053f 06ef 6dbe
00000260: a93e 10be e5b5 653f 8da7 80bf ab06 bbbd
00000270: 1562 b7bd d3f1 bdbf 68ac 12be f302 91be
00000280: b03b 1abe 02f9 a7bd b5ee 0cbe 5c01 9ebe
00000290: 46a6 efbc 8d0e 05bd 34cc a5bd c0a9 39be
000002a0: 5934 3abe 541d e4bf 677a a0bf 1e80 b7bd
000002b0: 034d 90be 6d24 413d 5c51 c9bd f15a 24bd
000002c0: 1ec7 c6be 0651 2dbd 7fe8 bbbe 89c5 dcbe
000002d0: 304a 3cbf bc40 ccbd 3650 c1be 081b e7bd
000002e0: dceb 64be c9b0 58bf 05c2 2cbe a64a a8bd
000002f0: 204d 03be 7209 06be 8319 1ebe 3531 3dbf
00000300: c89b d9be 5741 90bd dccf 7ebd 59c3 eebd
00000310: 5951 53be 5203 39bf 7ab5 f73f ab02 ee3e
00000320: cef5 0dbd 9815 71bd 9699 8abd a885 1840
00000330: b8b5 29be 6661 68bd eaa1 3cbd 20b9 0abe
00000340: 199c b1be 074b b5bd dbfe b3bf 0ff7 b73e
00000350: 108a b6bd ad8d 2fbd c1e7 64bd 8a1b 03be
00000360: 5a08 43be 294b 03be 7798 9dbd 4098 edbd
00000370: 142c 2abb 576d 8ebd 0dc0 e3bd a06f 34be
00000380: c3d1 2fbd 4517 b6bd 94f5 c5bd 739a 6fbe
00000390: 02d2 cebd 1bcd 06be 4f13 c8bd d302 89bd
000003a0: eb1e 69bf d3d1 f4bd 4882 21be 3661 1dbe
000003b0: 3947 efbd e3c7 87bd 25f0 a0bd 05ad b4bd
000003c0: ab99 9bbd 066d 04be 23d5 c9bd 15e2 35be
000003d0: cbf8 bebd aee5 e1bd e261 19bf 39f1 d9bd
000003e0: c8e6 3bbd 4f4b f9bd ba64 88bd d5dd a2be
000003f0: 6863 b13f 6eba 08be 6575 ddbd b698 2ebe

weight f4 [2, 256]
0.06631947 0.048297632 0.19003674 -0.053953078 -0.0013607757 0.30543 0.015104914 0.058705956
0.14772792 -0.02696836 -0.14670181 0.048800707 0.009755785 -0.01281439 -0.015765192 0.18004118
0.017892595 -0.090062805 0.00727787 -0.013452088 0.05264202 -0.03598411 -0.06533361 -0.021475377
-0.0347517 -0.113270834 -0.026790464 0.00033499938 0.043631762 -0.030265478 0.026952153 0.011443201
0.0814916 0.10340525 0.5582177 -0.028342988 0.020764861 -0.08357203 -0.0047564637 -0.12482546
0.010940272 0.0219778 0.079212636 -0.02963161 -0.022551386 0.020885902 0.047843646 0.4128824
-0.026934164 -0.1125486 0.00866767 0.07969955 -0.090840995 0.017288834 0.046740465 0.084937
-0.009074236 0.029298158 -0.0058196527 -0.07598457 -0.018454615 0.08218077 0.011885091 -0.850158
-0.33115315 0.35323912 0.01749269 -0.04043866 -0.0438741 -0.0053877207 0.00945744 -0.34696242
-0.043379627 -0.014162866 -0.10700387 -0.051924165 0.014192214 0.0046306183 -0.059022076 -0.24091156
-0.007868507 0.062377848 0.045627084 0.039056692 -0.26480806 0.03239387 0.11576109 0.00294753
0.039699346 0.0093653705 -0.10002396 0.021673357 0.11378892 -0.0054800017 0.023556938 0.03774088
-0.020157414 0.017338939 0.12834011 0.12439726 -0.01440844 0.016408836 -0.039745864 0.031454656
-0.0026313982 -0.01614372 0.012558668 -0.007525541 0.0333444 0.1774954 -0.0915316 0.023531705
0.2411791 0.38912228 -0.34023833 -0.067181125 0.01897169 -0.04621651 -0.36454487 -0.19830361
0.37049058 0.028806264 0.31163096 0.16331121 -0.0153928455 0.06130598 -0.026727786 -0.0077813407
-0.0945854 0.010597225 -1.0017198 -0.057462674 -0.31756213 0.02044319 -0.010188632 -0.093349636
-0.12635876 -0.088730045 -0.019061185 0.09559752 -0.050202042 0.10111004 0.11326715 -0.016213506
0.24604234 0.06539059 -0.003091074 0.007685685 0.023868514 -0.06729932 0.017318254 0.023141224
0.014680633 -0.11755992 -0.1584955 -0.07792193 -0.037980326 0.10567946 0.07294985 -0.012374753
-0.020845162 0.07217944 -0.07438804 0.06459432 0.07926104 0.0010418362 -0.017178902 -0.12843335
0.16577142 0.16868222 0.30585676 0.037792355 -0.00049737806 0.06811408 -0.05590115 -0.004674015
0.05984119 -0.03380962 0.109224096 -0.05505122 0.35524124 0.00944955 0.3576157 -0.015543721
-0.22134562 0.13307723 -0.02836648 0.011127094 -0.0537066 0.06644464 -0.026261704 -0.21428788
0.1257529 0.027872032 -0.033328835 -0.041478306 -0.05383343 0.0028493344 -0.30124882 0.06531345
-0.060996104 0.066417165 -0.02303336 0.3068535 0.0022975781 0.026105842 0.032354914 -0.034782223
0.099271156 -0.052526925 -0.009388121 -0.6995478 0.43969125 0.022121454 -0.0018884215 0.028707078
-0.13788608 -0.04106587 -0.04751572 -0.024274008 -0.19445537 -0.036449518 -0.051877346 0.14147735
0.02735427 -0.027874364 -0.033293135 -0.10739724 -0.038293876 0.031500302 -0.0033715128 -0.022257172
-0.20431225 0.048767492 0.09139946 -0.009449013 -0.012839132 0.016950166 -0.052814897 0.053995125
-0.018740922 0.046279076 0.007065429 0.04291312 -0.008935532 -0.025600694 0.36608535 0.0016271913
-0.031759802 0.066839084 0.010692555 0.10326874 -0.14027472 -0.004559577 0.024262711 -0.0537905
00000000: 81d2 873d bdd3 453d fe98 423e e7fd 5cbd
00000010: 0e5c b2ba 5261 9c3e 9a7a 773c a875 703d
00000020: fd45 173e c0ec dcbc 0039 16be 40e3 473d
00000030: bad6 1f3c 72f3 51bc 0126 81bc b75c 383e
00000040: 7e93 923c d972 b8bd 337b ee3b 2666 5cbc
00000050: 299f 573d 1364 13bd a1cd 85bd 21ed afbc
00000060: cc57 0ebd 8afa e7bd ad77 dbbc dba2 af39
00000070: 38b7 323d 4fef f7bc c3ca dc3c 447c 3b3c
00000080: 11e5 a63d 22c6 d33d 5be7 0e3f 8e2f e8bc
00000090: 121b aa3c d027 abbd 1cdc 9bbb 7ea4 ffbd
000000a0: d43e 333c ca0a b43c 3c3a a23d fdbd f2bc
000000b0: afbd b8bc e918 ab3c b3f7 433d 5265 d33e
000000c0: 09a5 dcbc e17f e6bd d802 0e3c 8539 a33d
000000d0: d80a babd 50a1 8d3c ee72 3f3d 73f3 ad3d
000000e0: 1bac 14bc b102 f03c c9b2 bebb cc9d 9bbd
000000f0: 222e 97bc 644e a83d afb9 423c f4a3 59bf
00000100: e88c a9be c2db b43e d44c 8f3c 02a3 25bd
00000110: 54b5 33bd 7a8b b0bb 61f3 1a3c 0fa5 b1be
00000120: d6ae 31bd 5e0b 68bc d824 dbbd 6fae 54bd
00000130: 7686 683c 71bc 973b 22c1 71bd 85b1 76be
00000140: e9ea 00bc ea7f 7f3d 77e3 3a3d e9f9 1f3d
00000150: ec94 87be 6faf 043d 2614 ed3d 592b 413b
00000160: c89b 223d 3671 193c 5dd9 ccbd 538c b13c
00000170: 2a0a e93d 9691 b3bb 7bfa c03c 2e96 1a3d
00000180: 2921 a5bc 640a 8e3c 976b 033e fec3 fe3d
00000190: 6111 6cbc d36b 863c 8fcc 22bd 99d6 003d
000001a0: 8973 2cbb d63f 84bc dfc2 4d3c d098 f6bb
000001b0: 2394 083d 5bc1 353e eb74 bbbd 90c5 c03c
000001c0: a7f7 763e 093b c73e b833 aebe 4296 89bd
000001d0: 856a 9b3c 864d 3dbd a0a5 babe 1a10 4bbe
000001e0: f1b0 bd3e 1dfb eb3c 188e 9f3e 0e3b 273e
000001f0: 4632 7cbc fb1b 7b3d 3bf4 dabc 9efa febb
00000200: fdb5 c1bd fc9f 2d3c 5b38 80bf fb5d 6bbd
00000210: 8197 a2be 7a78 a73c 38ee 26bc 182e bfbd
00000220: 3164 01be 19b8 b5bd 3426 9cbc a2c8 c33d
00000230: a8a0 4dbd c812 cf3d 9cf8 e73d 30d2 84bc
00000240: 86f2 7b3e 80eb 853d 9e93 4abb 33d8 fb3b
00000250: e787 c33c 3ad4 89bd 03df 8d3c aa92 bd3c
00000260: 0a87 703c 41c3 f0bd a54c 22be 8895 9fbd
00000270: 4291 1bbd 796e d83d bb66 953d 7abf 4abc
00000280: 79c3 aabc d0d2 933d c258 98bd 074a 843d
00000290: 9d53 a23d 398e 883a c5ba 8cbc 0884 03be
000002a0: fcbf 293e 08bb 2c3e 4299 9c3e 28cc 1a3d
000002b0: 7a62 02ba 657f 8b3d 9bf8 64bd 7b28 99bb
000002c0: 091c 753d f57b 0abd e2b0 df3d 637d 61bd
000002d0: 2ee2 b53e 49d2 1a3c 6819 b73e 17ab 7ebc
000002e0: 6da8 62be 6645 083e d260 e8bc 6a4e 363c
000002f0: 74fb 5bbd 2114 883d c922 d7bc 486e 5bbe
00000300: 5ec5 003e e353 e43c d183 08bd 28e5 29bd
00000310: 7180 5cbd e6bb 3a3b 493d 9abe 0fc3 853d
00000320: 0dd7 79bd b905 883d 75b0 bcbc e71b 9d3e
00000330: f792 163b ebdb d53c 9686 043d ce77 0ebd
00000340: ad4e cb3d 7926 57bd a2d0 19bc 9115 33bf
00000350: 361f e13e 0d38 b53c e984 f7ba 1b2b eb3c
00000360: 0232 0dbe b034 28bd d89f 42bd 49da c6bc
00000370: 4f1f 47be 174c 15bd 577d 54bd 70df 103e
00000380: 1016 e03c c758 e4bc 625e 08bd 16f3 dbbd
00000390: 0ada 1cbd 7606 013d 99f4 5cbb ac54 b6bc
000003a0: 3b37 51be 6cc0 473d a42f bb3d 08d0 1abc
000003b0: 395b 52bc 13db 8a3c 6f54 58bd fe29 5d3d
000003c0: 9086 99bc 218f 3d3d 1d85 e73b abc5 2f3d
000003d0: 5666 12bc 8cb8 d1bc 8a6f bb3e 7b47 d53a
000003e0: 9116 02bd eee2 883d d42f 2f3c 907e d33d
000003f0: 2da4 0fbe 8168 95bb 98c2 c63c 6d53 5cbd

bias f4 [2]
0.015136606 0.013117146
00000000: 87ff 773c 4ce9 563c

weight f4 [2, 256]
-0.06540043 0.01636737 0.09630583 0.5903235 0.034176156 0.040517617 0.13669388 -0.06965863
0.03770234 0.10924654 0.105708264 0.38038605 -0.026938364 -0.012659233 0.03653335 -0.1310914
-0.005611572 -0.013995113 -0.07770479 0.046994172 -0.014442454 -0.099881925 0.66485876 0.05224968
-0.005220572 -0.06297688 -0.059171204 -0.014349284 0.13449636 0.03915637 0.006050115 0.043784156
0.09556844 0.0081877755 0.30011982 -0.0052093654 -0.013561943 0.024769917 0.031513795 0.02856037
-0.024991326 -0.022778245 0.23670143 -0.053020034 0.040201515 0.16266362 0.53216565 0.51447254
0.19354534 0.044539068 0.04817526 0.2764754 0.11683523 -0.0077835214 0.038135123 0.02478867
0.014962356 -0.03374842 -0.0036393425 0.17483622 -0.0066251047 0.13188179 0.02014727 0.3357724
0.23802187 0.12982062 0.036602464 0.056771237 -0.0392864 0.13475734 -0.013518381 0.5635567
0.029193325 -0.009393848 -0.0093963975 -0.0037141838 0.06746163 0.022351108 0.17077267 -0.0727633
0.04579194 -0.029269066 0.104294315 -0.00351388 0.24473238 0.14097552 -0.90919065 -0.069756374
-0.009248135 -0.027120883 0.5674746 0.055092573 0.10208704 -0.07507645 -0.006295471 -0.1096098
-0.03013782 0.07594042 0.016200727 0.2010334 0.02099497 -0.062884256 0.038848933 -0.027876737
-0.0018937164 0.009804883 0.056983404 -0.01918984 0.063952595 0.09707637 0.20026779 -0.023411218
0.23482476 0.05375976 0.04825428 0.037002187 0.13658088 -0.005667853 0.2298069 0.009930286
0.16637078 0.16146655 0.14930248 -0.030596618 0.0670221 -0.03665712 -0.028741548 0.089867294
0.13360919 -0.016377818 1.3433594 0.029430244 0.28225982 0.026437769 -0.0026671384 0.035295982
0.059295315 -0.09445818 0.06934754 0.07326854 0.052096266 0.034882683 0.056870487 -0.041220486
-0.26508638 -0.12861611 -0.055950712 0.04292725 0.0675711 0.18994373 -0.09266719 0.04688016
0.057767596 -0.08135059 0.0946822 0.0064075636 -0.019868135 -0.089119256 0.29542074 -0.003953954
-0.031078525 0.096143134 -0.0074777757 -0.034263518 0.035710152 -0.030114241 0.04696913 0.027501388
0.004864123 -0.12254815 0.15609701 -0.033601526 0.11896439 0.3534641 0.0106244655 -0.019547747
0.24834399 0.04579079 0.15208967 -0.08969649 0.57808787 0.056273784 0.5997564 0.025878415
0.17019178 0.074034646 0.06912001 -0.01596897 0.03929358 0.024304679 0.015210617 0.83807963
-0.013671917 0.020521218 0.08194133 0.068412885 0.17333817 0.13519934 -0.053700186 0.0096959
-0.0204889 -0.07160724 0.04195356 -0.07346108 0.04205425 0.009898308 -0.0016238287 0.0053468025
-0.006900281 0.0028440517 0.11535645 0.47671115 1.1168916 0.0057572443 -0.012603009 -0.026593914
0.1988688 0.027127247 0.023630673 -0.039550982 0.15887488 -0.028186971 0.07229223 0.08867537
0.01214042 0.075446285 -0.01620934 0.14863122 -0.01692956 0.011643803 -0.04609548 0.05646573
-0.027762985 0.037748866 0.06340226 0.19194269 -0.026850386 0.010866943 -0.0035543882 -0.022332579
0.015776385 -0.00011195357 -0.0045278845 0.121525854 0.046839025 -0.015597925 0.4261277 0.024771245
0.01564664 -0.010699246 -0.028161561 0.13351774 -0.018807141 0.0039955955 0.12833117 0.05313287
00000000: a9f0 85bd dd14 863c fe3b c53d 711f 173f
00000010: 4cfc 0b3d cdf5 253d 7bf9 0b3e 2fa9 8ebd
00000020: c56d 1a3d a6bc df3d 937d d83d f6c1 c23e
00000030: d8ad dcbc ac68 4fbc fea3 153d d33c 06be
00000040: 47e1 b7bb c24b 65bc b023 9fbd f67c 403d
00000050: 0ba0 6cbc e58e ccbd 2f34 2a3f c303 563d
00000060: 5511 abbb 06fa 80bd 815d 72bd 4219 6bbc
00000070: 6ab9 093e 6e62 203d 0b40 c63b 0457 333d
00000080: 63b9 c33d 0526 063c 4ea9 993e 53b3 aabb
00000090: e932 5ebc 48ea ca3c 9c14 013d 70f7 e93c
000000a0: 9cba ccbc 7199 babc dc61 723e 892b 59bd
000000b0: 58aa 243d 4b91 263e 023c 083f 79b4 033f
000000c0: c030 463e 996e 363d 6c53 453d 2f8e 8d3e
000000d0: 4f47 ef3d e90c ffbb 9333 1c3d 9c11 cb3c
000000e0: ab24 753c c93b 0abd 0982 6ebb 4408 333e
000000f0: 6817 d9bb 050c 073e e30b a53c 5cea ab3e
00000100: 01bc 733e b2ef 043e 77ec 153d f588 683d
00000110: c7ea 20bd d4fd 093e 337c 5dbc 4045 103f
00000120: d726 ef3c a7e8 19bc 59f3 19bc aa69 73bb
00000130: 5329 8a3d ac19 b73c 08df 2e3e ed04 95bd
00000140: 5490 3b3d aec5 efbc 4298 d53d 2049 66bb
00000150: 209b 7a3e e35b 103e b8c0 68bf 6edc 8ebd
00000160: 7d85 17bc 9d2c debc 0446 113f c0a8 613d
00000170: 0313 d13d afc1 99bd 3d4a cebb 1a7b e0bd
00000180: 97e3 f6bc a786 9b3d 63b7 843c b3db 4d3e
00000190: a5fd ab3c 76c9 80bd 0f20 1f3d c15d e4bc
000001a0: 9436 f8ba a9a4 203c 6e67 693d 0334 9dbc
000001b0: 94f9 823d facf c63d 0013 4d3e e2c8 bfbc
000001c0: e775 703e 3233 5c3d 48a6 453d 9b8f 173d
000001d0: dcdb 0b3e 66b9 b9bb 8052 6b3e a3b2 223c
000001e0: 1a5d 2a3e 7d57 253e c0e2 183e c2a5 fabc
000001f0: e242 893d c725 16bd 6573 ebbc 580c b83d
00000200: d9d0 083e c62a 86bc 33f3 ab3f b217 f13c
00000210: 5c84 903e 0594 d83c 28cb 2ebb 8592 103d
00000220: a5df 723d 4a73 c1bd 1506 8e3d d10d 963d
00000230: e562 553d 25e1 0e3d 07f1 683d d0d6 28bd
00000240: 67b9 87be f1b3 03be 932c 65bd 7cd4 2f3d
00000250: b862 8a3d 9c80 423e 4cc8 bdbd 6905 403d
00000260: b79d 6c3d 239b a6bd bee8 c13d 8af6 d13b
00000270: 80c2 a2bc 2884 b6bd 6341 973e 2c90 81bb
00000280: 6498 febc b1e6 c43d 2108 f5bb e757 0cbd
00000290: cf44 123d 24b2 f6bc b462 403d 974a e13c
000002a0: 3963 9f3b 86fa fabd e5d7 1f3e c1a1 09bd
000002b0: 9aa3 f33d 3ff9 b43e 3d12 2e3c 9922 a0bc
000002c0: e34d 7e3e 208f 3b3d 65bd 1b3e cbb2 b7bd
000002d0: 91fd 133f 577f 663d a389 193f f8fe d33c
000002e0: c146 2e3e 7a9f 973d cb8e 8d3d 5bd1 82bc
000002f0: 4ef2 203d 9b1a c73c f435 793c 638c 563f
00000300: 2d00 60bc 1d1c a83c dbd0 a73d 0e1c 8c3d
00000310: 907f 313e b271 0a3e baf4 5bbd 8ddb 1e3c
00000320: 56d8 a7bc d1a6 92bd 7fd7 2b3d c372 96bd
00000330: 1441 2c3d 832c 223c a6d6 d4ba 3b34 af3b
00000340: c11b e2bb 4563 3a3b 0140 ec3d 7c13 f43e
00000350: 4ef6 8e3f 44a7 bc3b da7c 4ebc 7bdb d9bc
00000360: 43a4 4b3e f639 de3c 1d95 c13c 3600 22bd
00000370: 19b0 223e 5de8 e6bc f30d 943d 6f9b b53d
00000380: 9de8 463c 9583 9a3d 73c9 84bc c832 183e
00000390: dcaf 8abc a6c5 3e3c 9dce 3cbd 9c48 673d
000003a0: 336f e3bc 8e9e 1a3d 0bd9 813d a08c 443e
000003b0: 57f5 dbbc 430b 323c bdf0 68bb d0f2 b6bc
000003c0: 7a3d 813c 9dc8 eab8 a65e 94bb 8ce2 f83d
000003d0: 47da 3f3d 708e 7fbc 692d da3e 11ed ca3c
000003e0: 622d 803c e44b 2fbc 13b3 e6bc e0b8 083e
000003f0: 6f11 9abc 7ced 823b 3f69 033e daa1 593d

bias f4 [2]
-0.15617152 -0.1539292
00000000: 6deb 1fbe 9e9f 1dbe

weight f4 [256, 10]
-1.4018395 -0.65818584 -0.19655347 1.0606394 1.1534083 -0.15289576 -0.7490402 -0.3063967
-0.04869258 -0.107305825 -0.24699667 -1.4993293 1.6947554 -0.15026689 0.85506356 -0.8716994
-0.4144035 0.22394824 -0.059254862 -0.27504945 -0.7133118 -1.3584886 -0.037338097 1.1724756
-0.13600604 0.57819134 0.9216937 0.06930462 -0.024797712 -0.036505923 -0.30410308 -0.035245556
0.16559178 -0.7342776 0.061947845 1.0055275 0.45795363 -0.24196179 -0.51666886 -0.07839973
-0.8089128 -0.873516 0.16915205 0.5314591 0.41959435 -0.19600293 -0.3409021 0.12458502
0.27871454 -0.15879689 0.043342493 0.037031338 0.026144398 -0.014037742 0.045699637 -0.16173579
-0.12993504 -0.055649556 0.051573522 0.019592967 0.04054142 0.036982995 0.049921 -0.00018125295
-0.036775164 0.15303707 0.12771542 0.02848983 0.064044856 0.0016549042 0.032646473 0.029922383
0.03692408 -0.07899879 0.009672134 0.0137468 0.0028990232 -0.025349641 0.1373328 -0.013765153
0.13912155 0.10414261 0.07611525 -0.07815 0.11901056 0.0719554 0.025004592 0.01328106
0.03407192 -0.01913596 -1.0626329 -0.7084808 -1.4324319 0.18166952 -0.07203015 -0.083042055
-0.12629871 -0.0048637274 -0.299486 0.1872751 -0.058489863 -0.062037483 -0.08076736 0.058119867
0.095919915 -0.109950356 -0.044984873 0.036706638 -0.029075386 0.13433999 0.0005183983 0.24357855
-2.056263 -0.19529778 0.08228161 -0.2915054 -0.33213103 -0.26781288 0.12877253 -0.16174431
-0.14348646 -0.10215544 -0.13314383 0.07574884 0.0767999 -0.09795799 0.018103456 0.010558114
-0.11417874 -0.25553793 -0.04358399 -0.28684703 0.058000993 -0.013525415 0.015765162 -0.2793559
-0.12860757 0.0072959587 -0.021810234 -0.16973953 -0.07679311 -0.11385536 -0.12241487 0.0041339574
-0.054576024 -0.38013414 -0.34127575 -0.124969654 0.10493959 0.039087158 -1.0002817 -0.056228604
-0.15558906 1.8819666 0.8810808 0.07438865 -0.8819839 -0.16298431 -0.10714883 -0.09838319
0.028690042 -1.5076817 0.25039357 -0.09313181 0.6551943 0.497763 0.27012852 -0.12707587
-0.028006833 -0.14750715 -1.2985084 -0.06543866 -0.17277691 0.7532156 0.44742146 0.47141433
0.20244418 -0.060864083 -0.099846326 0.021320697 0.10520324 0.16844483 0.123789325 0.06792609
0.06543129 -0.0020499115 -0.07794951 -0.07237299 -0.117707364 0.009608163 0.36033347 -1.1109265
1.0695873 -0.44914916 0.49565348 -0.3878661 -0.78428376 -0.4037568 -0.25992084 0.49321502
-0.0191132 -0.09931457 -0.3341943 -0.065838605 0.055006597 -0.36151052 -0.3486961 -0.122546144
-0.0060254377 0.0020143029 -0.051138725 0.56715447 -0.19514024 0.5579807 -0.08854744 -0.04110378
0.37035853 -0.0037867795 -0.08367048 0.069590084 -0.2819762 -0.2930257 -0.5796722 0.074438766
-0.003165872 -0.04781905 -0.18456325 -0.09059052 -0.15843333 -0.1186439 0.28568548 -0.5675937
-0.29384753 0.5865158 -0.62500113 -1.1625079 -0.45435157 0.12474701 0.12971532 0.18352763
0.7417881 0.3149147 0.4735131 -0.5381087 0.94332385 -0.2819628 -0.29117167 -0.025825212
-0.14626485 0.058583967 1.8633176 1.4678603 0.61637634 -0.48421937 -0.42226544 0.28686562
00000000: 7a6f b3bf de7e 28bf 5045 49be 08c3 873f
00000010: e2a2 933f b590 1cbe 19c1 3fbf 07e0 9cbe
00000020: df71 47bd 28c3 dbbd b2ec 7cbe 06ea bfbf
00000030: bfed d83f 90df 19be 72e5 5a3f b127 5fbf
00000040: b22c d4be b052 653e 3ab5 72bd 48d3 8cbe
00000050: 9a9b 36bf f4e2 adbf d5ef 18bd ae13 963f
00000060: 2b45 0bbe 5904 143f 1ef4 6b3f 95ef 8d3d
00000070: 9224 cbbc 3c87 15bd 66b3 9bbe a55d 10bd
00000080: e490 293e 9ef9 3bbf 06bd 7d3d 20b5 803f
00000090: e678 ea3e d5c4 77be 6944 04bf 0a90 a0bd
000000a0: e914 4fbf bf9e 5fbf 3236 2d3e b40d 083f
000000b0: 12d5 d63e feb4 48be b88a aebe 6e26 ff3d
000000c0: acb3 8e3e a79b 22be e687 313d 2cae 173d
000000d0: c72c d63c 8ffe 65bc 8b2f 3b3d 119e 25be
000000e0: b10d 05be caf0 63bd c23e 533d 6e81 a03c
000000f0: c30e 263d 7b7b 173d f679 4c3d b80e 3eb9
00000100: 8ea1 16bd c0b5 1c3e d5c7 023e 8163 e93c
00000110: f329 833d 5fe9 d83a 4fb8 053d c91f f53c
00000120: b43d 173d 1eca a1bd df77 1e3c 423a 613c
00000130: 8afd 3d3b 0daa cfbc f8a0 0c3e 3c87 61bc
00000140: e175 0e3e b948 d53d 50e2 9b3d 1b0d a0bd
00000150: cfbb f33d 5a5d 933d 6ed6 cc3c ce98 593c
00000160: ff8e 0b3d 04c3 9cbc 5b04 88bf ff5e 35bf
00000170: ee59 b7bf 9307 3a3e 8b84 93bd f411 aabd
00000180: 7354 01be e75f 9fbb 3b56 99be 0bc5 3f3e
00000190: 1193 6fbd 041b 7ebd 5c69 a5bd 190f 6e3d
000001a0: a971 c43d a72d e1bd 0f42 38bd b359 163d
000001b0: 812f eebc 6c90 093e 1fe5 073a a86c 793e
000001c0: d099 03c0 24fc 47be 4383 a83d 3240 95be
000001d0: 140d aabe c51e 89be f2dc 033e 4da0 25be
000001e0: 1dee 12be df36 d1bd db56 08be 3522 9b3d
000001f0: 4449 9d3d 339e c8bd b34d 943c f1fb 2c3c
00000200: 8bd6 e9bd ded5 82be 2085 32bd 9ddd 92be
00000210: 7392 6d3d b499 5dbc f125 813c bd07 8fbe
00000220: b4b1 03be f012 ef3b 60ab b2bc 33d0 2dbe
00000230: b545 9dbd 002d e9bd a6b4 fabd 2676 873b
00000240: 1c8b 5fbd f1a0 c2be b2bb aebe 17f0 ffbd
00000250: 91ea d63d db19 203d 3b09 80bf f74f 66bd
00000260: bd52 1fbe 48e4 f03f 838e 613f 1459 983d
00000270: b2c9 61bf 5ce5 26be d970 dbbd 207d c9bd
00000280: 6107 eb3c b7fb c0bf 9633 803e e4bb bebd
00000290: d0ba 273f cbda fe3e 494e 8a3e 2d20 02be
000002a0: 966e e5bc 1d0c 17be 8635 a6bf b404 86bd
000002b0: 6eec 30be bdd2 403f 6d14 e53e 385d f13e
000002c0: 874d 4f3e 9e4c 79bd 3b7c ccbd bea8 ae3c
000002d0: cc74 d73d cd7c 2c3e 4285 fd3d d51c 8b3d
000002e0: d700 863d cf57 06bb fea3 9fbd 4a38 94bd
000002f0: 8f10 f1bd 8e6b 1d3c a17d b83e d732 8ebf
00000300: 3de8 883f e1f6 e5be 4bc6 fd3e 6396 c6be
00000310: d2c6 48bf 36b9 cebe 5814 85be ae86 fc3e
00000320: 4993 9cbc 7065 cbbd 841b abbe 64d6 86bd
00000330: 994e 613d e817 b9be 4c88 b2be 79f9 fabd
00000340: 0971 c5bb 6502 043b d776 51bd 0931 113f
00000350: d8d2 47be d3d7 0e3f 5c58 b5bd 705c 28bd
00000360: a29f bd3e 9e2b 78bb 6e5b abbd 3f85 8e3d
00000370: 2f5f 90be 7707 96be 6665 14bf 5a73 983d
00000380: 857a 4fbb e8dd 43bd 26fe 3cbe 8687 b9bd
00000390: 593c 22be 93fb f2bd 5e45 923e d24d 11bf
000003a0: 2f73 96be e625 163f 1300 20bf 0fcd 94bf
000003b0: c5a0 e8be 5c7b ff3d 18d4 043e abee 3b3e
000003c0: d3e5 3d3f 803c a13e 4f70 f23e 7ec1 09bf
000003d0: ac7d 713f 6e5d 90be 7414 95be 658f d3bc
000003e0: 74c6 15be bef5 6f3d 3181 ee3f d9e2 bb3f
000003f0: d7ca 1d3f 9aeb f7be 2d33 d8be 0de0 923e

bias f4 [256]
-2.0796933 -1.2067852 -0.84788704 -1.384457 0.5227852 -0.2670127 -0.24057308 -0.3658102
-0.6723532 -1.5368757 -0.6431552 -3.175254 -0.9050113 -1.2632855 -0.6784701 -2.4652276
-2.6275356 -2.15334 -0.6249241 -2.0021753 -0.8508783 1.9502383 -1.601946 -2.3891969
-1.847402 0.3362561 0.292476 -0.79694515 -2.680873 -0.59326684 0.13810875 -0.5718914
-1.3947937 -0.33453897 -2.2562451 -0.43482772 -0.48394242 -0.5548689 -2.410212 1.5678883
-0.22931491 -1.38449 -2.22576 -2.0840118 -1.4512984 -1.3171414 -2.82738 0.35170847
-0.5529577 -0.591224 -0.4959509 -1.1972346 -0.5655936 -2.060964 -0.73822427 1.8213695
0.20369637 -0.34885505 -0.80758494 -1.9657186 -2.6029408 -0.51700693 -1.7616686 -3.128188
-2.181975 -1.1372213 -0.78566456 -0.7377826 -1.6943058 -2.0724561 -1.4105501 -2.0496116
-2.3662603 1.9062127 -1.960625 -0.55796075 1.2503004 -2.2313626 -0.57856584 -0.9206374
-1.9662409 -1.214793 0.38006505 1.6199267 -1.6277695 -1.9937698 -1.9039298 -1.9074616
-0.737586 -2.3466182 -0.98790616 -1.0908229 0.015900867 -0.42069048 -0.74185044 -0.4340445
-1.403536 -1.632242 -1.0408353 -1.4133236 -1.724812 1.6243942 -1.4105285 -0.8130562
1.4430947 -0.883958 -2.3646743 -2.3693652 -0.6087424 -0.086644284 -2.0733273 -3.0780475
-2.3944023 -0.6514124 -2.9890885 -1.3483527 -0.5480093 -2.0935588 -1.5441756 -0.64749354
-1.1706982 -1.0330833 1.9104819 -0.19618836 -1.9033294 -1.0993098 -1.0467535 -2.601389
-2.304376 -0.83120537 -0.89081854 0.14054309 -0.8794494 1.0624404 -1.4203777 -1.3885098
-0.72849613 -1.0488803 -0.5560849 -0.5611205 0.00045230697 -1.7126998 -0.94314784 -1.0694526
-0.63557076 -0.70212764 -1.9436274 -1.0141777 -1.6632357 -0.60926455 -0.8237359 -0.60451084
-0.8927642 -0.017074788 0.79135525 -0.14680642 -2.4423609 1.1211421 -0.24496946 1.3684477
-1.6297007 -1.4784774 -1.4997987 -0.59930086 1.900801 -0.94749135 -1.6122613 -2.3737936
-0.29697892 -0.29223317 1.5152566 -1.8312112 -1.554066 0.57485044 -0.48318782 -1.0783668
-1.0220653 -1.1407228 -0.022315014 -1.9733627 -0.81488186 -0.7591105 1.3120528 -1.9456266
0.9849592 0.020044304 -1.5321908 -0.83713204 -1.1930445 -2.1524231 -0.290028 0.2531134
-2.1069586 -0.47108498 -0.48877713 -0.74957025 0.593729 -2.0964446 -0.81391996 -1.6955723
-1.3122189 -0.9517262 -1.2070483 -1.1296887 -2.315912 0.099398874 0.15429649 -1.0072017
-1.0698283 -0.3524389 0.44992903 -0.583247 -0.85096395 -2.3101838 1.6543978 -1.1778322
-2.3485808 0.72070473 -1.6109704 -1.661992 -1.4733036 -0.31630903 -0.96749634 -1.2304128
-0.32741216 -1.0581348 -2.5095756 -1.1174301 -0.5846772 -0.7677369 -1.4145526 -0.5560245
-1.5055814 -0.44924712 -0.41215628 -1.869365 -0.9051372 -1.3476166 2.0167196 0.37561706
-2.3614519 -2.5554173 -0.51924616 -1.777691 1.9169166 -0.8056745 -1.6208705 0.08780161
-1.3365679 -1.7953143 -1.5588685 -2.670094 -0.394653 -1.72824 -2.7095068 -1.4460583
00000000: b219 05c0 f077 9abf 200f 59bf e335 b1bf
00000010: 40d5 053f e3b5 88be ca58 76be 794b bbbe
00000020: 571f 2cbf 58b8 c4bf d2a5 24bf 5d37 4bc0
00000030: d2ae 67bf 57b3 a1bf 37b0 2dbf 4ac6 1dc0
00000040: 8b29 28c0 53d0 09c0 07fb 1fbf a423 00c0
00000050: 29d3 59bf 69a1 f93f 910c cdbf 9ae8 18c0
00000060: ab77 ecbf c229 ac3e 6abf 953e 9904 4cbf
00000070: 6c93 2bc0 56e0 17bf 616c 0d3e 7a67 12bf
00000080: 9a88 b2bf b148 abbe 5266 10c0 bda1 debe
00000090: 4dc7 f7be e30b 0ebf ea40 1ac0 90b0 c83f
000000a0: 87d1 6abe f836 b1bf da72 0ec0 7360 05c0
000000b0: 25c4 b9bf 1798 a8bf cbf3 34c0 2213 b43e
000000c0: a38e 0dbf 755a 17bf 47ed fdbe fc3e 99bf
000000d0: beca 10bf d6e6 03c0 44fc 3cbf a322 e93f
000000e0: c895 503e 219d b2be e3bd 4ebf ab9c fbbf
000000f0: 9596 26c0 915a 04bf 5b7e e1bf 3b34 48c0
00000100: 7aa5 0bc0 7890 91bf 5021 49bf 52df 3cbf
00000110: 03df d8bf 1fa3 04c0 e88c b4bf d62c 03c0
00000120: cf70 17c0 c7fe f33f c3f5 fabf 84d6 0ebf
00000130: d809 a03f a5ce 0ec0 e41c 14bf e5ae 6bbf
00000140: c8ad fbbf 567e 9bbf e397 c23e c259 cf3f
00000150: c05a d0bf d933 ffbf f9b3 f3bf b427 f4bf
00000160: 70d2 3cbf fe2e 16c0 6be7 7cbf 16a0 8bbf
00000170: 8942 823c be64 d7be e9e9 3dbf 153b debe
00000180: 11a7 b3bf 4eed d0bf 173a 85bf cae7 b4bf
00000190: a4c6 dcbf 26ec cf3f 338c b4bf 7324 50bf
000001a0: 54b7 b83f 124b 62bf d356 17c0 aea3 17c0
000001b0: 8bd6 1bbf 8f72 b1bd 65b1 04c0 bbfe 44c0
000001c0: e33d 19c0 f7c2 26bf 3a4d 3fc0 d296 acbf
000001d0: 564a 0cbf defc 05c0 8ca7 c5bf 23c2 25bf
000001e0: 70d9 95bf 133c 84bf ac8a f43f 9ae5 48be
000001f0: 4ca0 f3bf 2fb6 8cbf 05fc 85bf 287d 26c0
00000200: e57a 13c0 e0c9 54bf af0c 64bf 87ea 0f3e
00000210: 9923 61bf 0cfe 873f f0ce b5bf b0ba b1bf
00000220: b97e 3abf b641 86bf 945b 0ebf 98a5 0fbf
00000230: 9d23 ed39 bf39 dbbf 2372 71bf d3e3 88bf
00000240: c4b4 22bf a3be 33bf c8c8 f8bf 93d0 81bf
00000250: e8e4 d4bf c3f8 1bbf 5be0 52bf 39c1 1abf
00000260: 328c 64bf 6de0 8bbc 4296 4a3f 6c54 16be
00000270: a44f 1cc0 9681 8f3f 46d9 7abe 4b29 af3f
00000280: 089a d0bf bf3e bdbf 67f9 bfbf c86b 19bf
00000290: 724d f33f cb8e 72bf 945e cebf 3cec 17c0
000002a0: 9f0d 98be 969f 95be eef3 c13f 2165 eabf
000002b0: a2eb c6bf 6629 133f 6564 f7be ec07 8abf
000002c0: 09d3 82bf 3403 92bf facd b6bc 2697 fcbf
000002d0: 199c 50bf 1155 42bf 59f1 a73f 4b0a f9bf
000002e0: 4926 7c3f f433 a43c d41e c4bf 494e 56bf
000002f0: afb5 98bf 4dc1 09c0 8d7e 94be 1498 813e
00000300: 69d8 06c0 0d32 f1be ff40 fabe d6e3 3fbf
00000310: a0fe 173f 262c 06c0 0f5d 50bf 8308 d9bf
00000320: caf6 a7bf 54a4 73bf 8f80 9abf a499 90bf
00000330: e737 14c0 a391 cb3d e6ff 1d3e fceb 80bf
00000340: 22f0 88bf df72 b4be 195d e63e ad4f 15bf
00000350: c6d8 59bf 0dda 13c0 4fc3 d33f 35c3 96bf
00000360: 264f 16c0 1b80 383f 4734 cebf 27bc d4bf
00000370: 3695 bcbf 42f3 a1be d7ad 77bf 2b7e 9dbf
00000380: 91a2 a7be f670 87bf e39c 20c0 f307 8fbf
00000390: 68ad 15bf 688a 44bf 0f10 b5bf 9f57 0ebf
000003a0: e4b6 c0bf b803 e6be 2606 d3be 5a47 efbf
000003b0: 12b7 67bf b37e acbf ef11 0140 e150 c03e
000003c0: 0722 17c0 f58b 23c0 51ed 04bf 618b e3bf
000003d0: 865d f53f af40 4ebf af78 cfbf 55d1 b33d
000003e0: a814 abbf dccc e5bf 0189 c7bf d2e2 2ac0
000003f0: f50f cabe f836 ddbf 8f68 2dc0 7018 b9bf
