log/mujoco_td3_swimmer_v3_0/mujoco_td3_swimmer_v3_0_s0/pyt_save/model.pt (torch_old, 831805 bytes, 16 tensors)

weight f4 [256, 8]
-0.33000496 1.0896494 -4.260991 -2.0387626 -0.10320185 -0.02748118 0.5755337 -0.14215331
1.2136517 0.4090579 -0.33554405 -6.6297684 -2.2201018 -1.2786528 0.64873445 -0.47933516
0.6289649 1.8664805 -1.7882992 -0.75618285 1.7537258 0.28208962 0.6316655 0.35919937
0.28098744 -0.8229766 0.1129064 -2.3434865 -1.0034944 -0.79173946 0.84619325 0.78057957
-1.5440109 -1.9727776 0.06898983 -0.86803555 -0.41785872 0.4122144 -0.17389801 -0.11304123
0.4881656 -0.18298894 0.32475054 -2.2764266 -1.2056867 -0.49650812 0.5915707 0.8600001
-0.567661 -1.8545005 0.48789692 -0.3565626 0.8852394 -0.2712129 0.620601 -0.28634256
-0.5826567 0.25789234 -3.5545287 -3.8731325 1.1516804 0.022460125 0.37392756 0.6232344
1.6088848 1.0464993 1.35974 1.1014142 0.67004865 0.7419578 0.2879394 0.58434826
0.8444916 0.44024462 0.09505198 1.116339 -1.5859529 -0.9741684 0.69779974 -0.051141042
-0.30477837 -0.33113113 -2.6416075 -2.1265807 0.35621724 0.15210384 -0.89349496 0.2884224
0.24226011 0.13378488 0.89661634 0.94481057 2.9416916 1.097702 -1.4371805 0.8130314
1.2794116 1.0620009 0.56756973 -2.8370404 0.3483887 -0.2682883 -0.47219437 -0.02966657
-1.5172163 -1.5677315 -1.9295661 -1.8864751 -1.2470769 -0.3591359 -0.8367379 -0.19825317
0.5992239 -1.0764078 0.3976378 0.8614333 0.7035968 0.67333895 -0.5091074 0.66072005
2.167504 1.5046142 1.4041765 0.0064142374 -0.63735473 -0.08678206 0.4598801 -0.3284009
-1.292713 -1.3630308 -0.66295844 -1.9614601 0.8451446 1.1788483 0.53884643 0.06911128
-1.0078222 -1.1443155 -1.9979799 0.99842197 -0.26061845 -0.1340042 0.0088748615 0.39344352
0.7599004 -1.9140295 2.6717186 -2.4133515 -0.62746936 -0.8031815 -0.91504294 -0.7999915
-0.90408015 0.0011423664 0.43179992 -1.0892624 2.0487092 0.96770257 0.51228184 -0.8230998
0.22486372 -0.108641446 0.43975633 -2.0288815 -1.3173522 -0.4137073 -0.5745588 0.02932504
-1.0790144 -0.70046836 -2.4715414 -0.4832673 0.26181996 -0.62846315 -0.2710693 0.41479224
-0.1051981 -0.077176556 1.6363595 -2.257528 -0.89733964 -1.2582765 0.9478087 0.6339707
2.2113116 1.073895 0.2729544 -0.30889305 -0.7341912 1.1694865 0.4777577 0.1462025
-0.8373895 -0.8342666 -0.99192363 -2.1741672 -0.70057255 -0.36349848 -0.16381069 -1.0086985
0.102327116 0.08626542 0.07514892 -0.024131007 -0.07189809 0.14736061 0.05690443 -0.035236288
1.1439561 0.47435382 0.27224886 -0.57135457 2.0043285 1.3532504 -0.70109737 -0.12930408
-1.1123068 -0.9899384 0.59020835 -0.7851871 -2.5132203 -0.17967834 0.99171513 -0.2498136
-0.33156466 -0.83061534 -1.4868449 -0.21488617 -0.8585189 -0.4943812 -0.26901242 0.3574942
0.38755888 0.08327006 0.6254098 -0.3362244 0.19995087 0.0070366734 0.010476439 -0.13502957
0.36073917 0.3099367 0.28945494 -0.13589177 -0.08771124 0.01376514 0.043227293 -0.020529056
1.0625765 -0.5340452 0.4582619 1.0053976 1.1664497 0.8008546 -0.20516224 0.18311855
00000000: 69f6 a8be a279 8b3f 0a5a 88c0 167b 02c0
00000010: 7e5b d3bd 3620 e1bc 2d56 133f a390 11be
00000020: f058 9b3f 0970 d13e 6ecc abbe 1027 d4c0
00000030: 2616 0ec0 e5aa a3bf 7613 263f 6b6b f5be
00000040: d803 213f d5e8 ee3f fde6 e4bf 3395 41bf
00000050: 167a e03f 0d6e 903e d5b4 213f fbe8 b73e
00000060: 96dd 8f3e 98ae 52bf 783b e73d affb 15c0
00000070: 8172 80bf 70af 4abf 1fa0 583f 10d4 473f
00000080: 26a2 c5bf fa83 fcbf 8a4a 8d3d 9437 5ebf
00000090: 94f1 d5be c40d d33e 5212 32be 2982 e7bd
000000a0: d7f0 f93e 7461 3bbe b445 a63e f9b0 11c0
000000b0: f153 9abf 5036 febe 2d71 173f f728 5c3f
000000c0: 3b52 11bf 4660 edbf a0cd f93e 608f b6be
000000d0: 0d9f 623f 6bdc 8abe b5df 1e3f 7e9b 92be
000000e0: fd28 15bf 770a 843e 667d 63c0 67e1 77c0
000000f0: 436a 933f 4cfe b73c 6f73 bf3e 4a8c 1f3f
00000100: f0ef cd3f b0f3 853f f60b ae3f 24fb 8c3f
00000110: 4f88 2b3f f2f0 3d3f cb6c 933e d997 153f
00000120: 9a30 583f be67 e13e 9daa c23d 32e4 8e3f
00000130: 8100 cbbf 1a63 79bf 01a3 323f 4579 51bd
00000140: e90b 9cbe 058a a9be 1910 29c0 e619 08c0
00000150: 1b62 b63e 1cc1 1b3e 16bc 64bf 1aac 933e
00000160: 0913 783e e7fe 083e a688 653f 1bdf 713f
00000170: ad44 3c40 8081 8c3f 88f5 b7bf d322 503f
00000180: c2c3 a33f a5ef 873f 404c 113f 1292 35c0
00000190: 0160 b23e 165d 89be 76c3 f1be 4e07 f3bc
000001a0: 2534 c2bf 6dab c8bf 06fc f6bf 0478 f1bf
000001b0: 37a0 9fbf a9e0 b7be 7434 56bf e102 4bbe
000001c0: bd66 193f bbc7 89bf 2f97 cb3e e586 5c3f
000001d0: eb1e 343f f15f 2c3f dd54 02bf f324 293f
000001e0: 63b8 0a40 3397 c03f 0ebc b33f 862e d23b
000001f0: ae29 23bf cbba b1bd 6875 eb3e 2a24 a8be
00000200: 9f77 a5bf cb77 aebf a5b7 29bf 2011 fbbf
00000210: 665b 583f 80e4 963f d7f1 093f 378a 8d3d
00000220: 5100 81bf ee78 92bf cebd ffbf 9598 7f3f
00000230: c86f 85be 6638 09be de67 113c 6e71 c93e
00000240: d588 423f ebfe f4bf 70fd 2a40 5a74 1ac0
00000250: d5a1 20bf 4e9d 4dbf 4140 6abf 3ecc 4cbf
00000260: cc71 67bf 75bb 953a e114 dd3e f36c 8bbf
00000270: 0d1e 0340 5bbb 773f e724 033f abb6 52bf
00000280: ad42 663e 687f debd be27 e13e 32d9 01c0
00000290: ff9e a8bf 71d1 d3be 4916 13bf 113b f03c
000002a0: 251d 8abf e551 33bf bc2d 1ec0 d06e f7be
000002b0: 440d 863e f6e2 20bf 98c9 8abe a65f d43e
000002c0: 1a72 d7bd be0e 9ebd 3a74 d13f 577b 10c0
000002d0: 0db8 65bf 340f a1bf 97a3 723f e74b 223f
000002e0: 2186 0d40 6475 893f aec0 8b3e 3b27 9ebe
000002f0: f4f3 3bbf bcb1 953f a89c f43e 1cb6 153e
00000300: 295f 56bf 7f92 55bf b5ee 7dbf 8e25 0bc0
00000310: b958 33bf 791c babe fdbd 27be 081d 81bf
00000320: e190 d13d edab b03d ade7 993d 64ae c5bc
00000330: 4e3f 93bd b3e5 163e 9f14 693d ed53 10bd
00000340: 276d 923f 81de f23e 3464 8b3e 4b44 12bf
00000350: eb46 0040 4f37 ad3f 1e7b 33bf 4a68 04be
00000360: 1260 8ebf 9a6c 7dbf e517 173f 0602 49bf
00000370: 9ad8 20c0 99fd 37be 0be1 7d3f 23cf 7fbe
00000380: d8c2 a9be 35a3 54bf ef50 bebf 1f0b 5cbe
00000390: e5c7 5bbf 881f fdbe ffbb 89be 7b09 b73e
000003a0: 1e6e c63e 7e89 aa3d db1a 203f 9b25 acbe
000003b0: ecbf 4c3e e593 e63b 5fa5 2b3c 3145 0abe
000003c0: ceb2 b83e 06b0 9e3e 7033 943e 3627 0bbe
000003d0: f3a1 b3bd 2f87 613c 1a0f 313d 8d2c a8bc
000003e0: 8202 883f 30b7 08bf 4ea1 ea3e deb0 803f
000003f0: 394e 953f cf04 4d3f 0d16 52be 6e83 3b3e

bias f4 [256]
-1.0562999 -2.291698 -0.025421219 -1.6157714 -0.72072506 -2.4832022 -0.46593782 -1.0018587
-0.23253298 -1.0578915 -2.2342148 -0.8617793 -0.65174246 -0.5565132 -1.5689768 -0.026545217
-1.4926288 -0.31166175 -1.031716 -1.9290199 -2.0945542 -2.524386 -1.3788718 -0.18824421
-2.0350702 -0.5092773 2.0068011 -1.7190665 -1.3745656 -1.7083321 -0.81558824 -1.2793964
-2.0137043 -1.6736716 -2.258227 -0.9960378 -1.2695744 -2.0482678 -1.2458029 1.0187176
-1.6613889 -1.6032052 -0.94274694 -1.5257006 -0.9221611 -2.1402109 -1.9694703 -1.9389619
-1.485377 0.44934306 -2.1096551 -0.76462865 -1.0009196 -1.4347359 -1.3571662 -0.49178067
-2.2784348 -1.6804055 -1.0115916 -1.7453458 -1.4312232 -0.88957196 0.23851721 -1.5388699
0.8289898 0.77794373 -1.4325726 -0.9063036 -1.7621964 -1.0293535 1.0483774 -1.6681349
-2.002768 -1.4473025 -2.374858 -2.2434077 -1.5204737 -0.035712086 -0.6964046 -1.2891873
-1.7410479 -2.0137053 -1.5212315 -0.9813319 -1.2161114 -1.1445296 -1.054785 -0.050200894
1.2367858 -1.741816 -0.50362056 -2.043026 -2.0033681 -1.198056 -1.6280801 -1.6228738
-1.7501402 -0.042418607 -0.34215394 1.1544712 -1.440612 -0.66719633 -2.4578264 -0.39286655
-2.2329566 -1.9102403 -1.9641823 -1.8079221 0.11680674 -1.5780166 -1.1980178 -0.053064004
1.5978261 -1.4736958 -2.1212416 -1.3772123 -0.64233696 -2.460598 -1.1755581 0.36336067
-1.9040211 -1.491583 -1.7821424 -1.121653 0.4768764 -1.6838742 -2.049883 -0.48901546
-0.6940571 -2.61096 -1.5324222 -2.2397482 -0.63589305 -1.6815865 -1.5565978 -1.501472
-2.3168244 -1.8157563 -0.15652528 -1.3182833 -1.6581035 -1.6035681 -2.304337 -1.8176674
-2.7180545 -0.75686115 -1.9392664 -1.9906921 -1.1765522 -1.3391691 -1.457635 -2.1286974
-0.5232087 -2.0314837 -1.1716372 -0.37309057 -1.8812107 -1.6025743 -0.2698759 0.5780191
-1.8611068 -1.0589544 -1.3786738 -1.0817695 -0.934491 -1.776336 -0.3278329 -0.5363789
-0.59841424 -2.0301094 -1.917952 -2.36032 -1.0524775 0.3622225 -1.5944157 -1.5907177
-1.0221249 -1.6182679 0.58199996 -1.8673656 0.58778846 -1.9057856 -1.2696348 -0.40787768
0.32315865 -0.28155106 -0.52314574 -1.5656725 -0.34514883 -0.31933054 -1.4470047 -1.2405542
-2.0312927 -2.4958997 -0.6522886 -1.2170045 -1.837974 -2.2135406 -1.7537405 -1.6464723
-1.641839 -2.1409893 -1.3565403 1.1994715 -1.0212448 -0.81632185 -1.79929 -1.2502011
-0.6053331 -1.1865119 -2.304376 -1.3660055 -0.09574678 -1.2782549 -2.1949575 -0.530231
-1.7249388 -1.2737576 -1.3040991 -1.8642254 -1.1824638 -2.9288168 -0.09662343 -0.6855265
-0.032639198 -1.6829269 -1.4491705 -0.12304433 -1.3454903 -1.7939004 0.8211976 -1.179569
-0.19372827 -1.4298784 -2.1592655 -1.8357215 1.0710067 -1.4456108 -2.6449544 -1.4278026
-2.3837228 -1.8662126 -2.3160303 -0.2907264 -0.2572839 -1.102777 -2.158872 -1.3064555
-1.9193276 -1.2456225 -0.7629852 -2.0435638 -1.5107352 -1.7841744 -1.4964409 0.6132011
00000000: d634 87bf 2eab 12c0 2940 d0bc 99d1 cebf
00000010: 7081 38bf c9ec 1ec0 678f eebe e83c 80bf
00000020: 201d 6ebe fd68 87bf 60fd 0ec0 919d 5cbf
00000030: 98d8 26bf a677 0ebf 3bd4 c8bf 5b75 d9bc
00000040: 760e bfbf 2192 9fbe 450f 84bf 20ea f6bf
00000050: 2d0d 06c0 8a8f 21c0 df7e b0bf 17c3 40be
00000060: 973e 02c0 ff5f 02bf 6e6f 0040 5f0a dcbf
00000070: c4f1 afbf a0aa dabf 64ca 50bf 43c3 a3bf
00000080: 88e0 00c0 df3a d6bf cb86 10c0 55fc 7ebf
00000090: 6a81 a2bf d216 03c0 7876 9fbf 5765 823f
000000a0: 64a8 d4bf d435 cdbf dd57 71bf 284a c3bf
000000b0: c012 6cbf 37f9 08c0 9a17 fcbf e72f f8bf
000000c0: d520 bebf 4b10 e63e 9704 07c0 b4be 43bf
000000d0: 221e 80bf 6da5 b7bf 9fb7 adbf adca fbbe
000000e0: e0d1 11c0 8717 d7bf d57b 81bf 7e67 dfbf
000000f0: 5232 b7bf fdba 63bf db3d 743e b0f9 c4bf
00000100: ad38 543f 5227 473f 8a5e b7bf 8303 68bf
00000110: a78f e1bf dbc1 83bf 3b31 863f 7285 d5bf
00000120: 5a2d 00c0 3541 b9bf acfd 17c0 fe93 0fc0
00000130: e29e c2bf d646 12bd 9247 32bf 1704 a5bf
00000140: a8da debf 8ce0 00c0 b7b7 c2bf 9138 7bbf
00000150: 8aa9 9bbf f27f 92bf 3203 87bf 749f 4dbd
00000160: ff4e 9e3f d4f3 debf 47ed 00bf f0c0 02c0
00000170: 2f37 00c0 e659 99bf ee64 d0bf 54ba cfbf
00000180: 9804 e0bf 22bf 2dbd cd2e afbe b6c5 933f
00000190: f965 b8bf 61cd 2abf 074d 1dc0 ce25 c9be
000001a0: c3e8 0ec0 c182 f4bf 536a fbbf fe69 e7bf
000001b0: 5f38 ef3d 73fc c9bf a658 99bf a459 59bd
000001c0: 9185 cc3f 10a2 bcbf 6cc2 07c0 7e48 b0bf
000001d0: 3270 24bf 707a 1dc0 b078 96bf 690a ba3e
000001e0: f7b6 f3bf 31ec bebf 3e1d e4bf 5392 8fbf
000001f0: 2529 f43e 3189 d7bf 4831 03c0 3c60 fabe
00000200: baad 31bf f819 27c0 6926 c4bf 0958 0fc0
00000210: e3c9 22bf 3a3e d7bf 993e c7bf 3c30 c0bf
00000220: da46 14c0 b46a e8bf 2a48 20be 82bd a8bf
00000230: bc3c d4bf b841 cdbf 427a 13c0 53a9 e8bf
00000240: 9bf4 2dc0 a7c1 41bf e239 f8bf 00cf febf
00000250: 4399 96bf e569 abbf c993 babf 943c 08c0
00000260: 01f1 05bf d403 02c0 35f8 95bf ba05 bfbe
00000270: 83cb f0bf 2821 cdbf 2d2d 8abe 0ff9 133f
00000280: bf38 eebf d18b 87bf 6278 b0bf 6c77 8abf
00000290: cd3a 6fbf fa5e e3bf b7d9 a7be 2150 09bf
000002a0: ad31 19bf 50ed 01c0 737f f5bf 7c0f 17c0
000002b0: 95b7 86bf 3a75 b93e d015 ccbf a39c cbbf
000002c0: fdd4 82bf 6723 cfbf f3fd 143f d605 efbf
000002d0: 4e79 163f c8f0 f3bf 6583 a2bf 58d5 d0be
000002e0: 0d75 a53e 7627 90be e1ec 05bf f567 c8bf
000002f0: 59b7 b0be 4b7f a3be 7337 b9bf 7bca 9ebf
00000300: b300 02c0 d2bc 1fc0 63fc 26bf cec6 9bbf
00000310: bb42 ebbf a6aa 0dc0 927a e0bf 9bbf d2bf
00000320: c827 d2bf f805 09c0 1da3 adbf 4888 993f
00000330: 26b8 82bf 78fa 50bf 224f e6bf 9706 a0bf
00000340: 1cf7 1abf 9fdf 97bf e57a 13c0 45d9 aebf
00000350: e316 c4bd db9d a3bf 2f7a 0cc0 38bd 07bf
00000360: cbca dcbf 7d0a a3bf b8ec a6bf f09e eebf
00000370: f95a 97bf bc71 3bc0 81e2 c5bd aa7e 2fbf
00000380: aeb0 05bd 266a d7bf 6b7e b9bf aafe fbbd
00000390: 0739 acbf 879e e5bf 023a 523f 1efc 96bf
000003a0: b460 46be 4106 b7bf 6831 0ac0 ecf8 eabf
000003b0: bf16 893f c609 b9bf ef46 29c0 3cc2 b6bf
000003c0: ea8e 18c0 0ee0 eebf d739 14c0 17da 94be
000003d0: b7ba 83be cc27 8dbf f52a 0ac0 ef39 a7bf
000003e0: 87ac f5bf 8f70 9fbf 0053 43bf c0c9 02c0
000003f0: c55f c1bf d45f e4bf 608b bfbf bffa 1c3f

weight f4 [256, 256]
-0.14511496 -0.101562865 -0.011090982 -0.090538815 -0.12420532 -0.0745972 -0.043720268 -0.0005223026
-0.024684051 -0.08479425 -0.21933874 -0.045552775 0.008549971 -0.13789947 -0.2240848 0.025657466
-0.20649925 -0.038090475 -0.09895798 -0.15922159 -0.10044974 -0.049789384 -0.040948473 0.1041017
-0.12995502 0.059966255 -0.06530447 -0.065181896 -0.19334942 -0.083083354 -0.08459642 -0.037774708
-0.058207065 -0.07618925 -0.045305017 -0.08274462 -0.027943647 -0.05680601 -0.14622918 -0.01750458
-0.05935307 -0.04861784 -0.11992876 -0.1984809 0.050438005 -0.12272232 0.117703505 -0.059908833
-0.024825597 -0.20704265 -0.05075497 -0.12853922 -0.05531538 -0.032034446 0.050100267 -0.043397374
-0.052476283 0.073372446 -0.012116388 -0.10482537 -0.19813623 -0.0038788293 -0.14495663 -0.1557868
-0.12154231 -0.07532241 -0.11884682 -0.08747107 0.117570445 -0.0870771 -0.13435246 -0.027636522
-0.09499436 -0.12389741 -0.18091786 -0.087869056 -0.013346467 0.039180614 -0.13750458 -0.029758252
-0.049352977 0.02730705 -0.017529195 -0.07010196 -0.17241424 -0.059218004 0.00014651225 -0.08579761
-0.21254236 -0.08502893 0.088339075 -0.011529117 0.011868604 0.028283596 -0.11002504 -0.2180787
-0.04904134 -0.0700656 -0.16299078 0.016054573 -0.038234703 -0.0098258 -0.068326615 -0.16448748
-0.046147533 -0.10735149 -0.09164561 -0.07434032 -0.011253867 -0.12123403 -0.055714417 -0.11303354
-0.23054913 -0.096827365 -0.20501933 -0.067782104 -0.08128463 -0.1264162 -0.14308403 -0.13979924
-0.052928977 -0.019900322 0.056923643 -0.122276306 -0.036895856 -0.16326866 0.012531961 -0.003780662
-0.015548294 -0.022151902 -0.042402904 0.05120036 0.015152005 -0.12876539 -0.0059564374 -0.08968546
0.01078564 0.04031659 -0.08719347 -0.09049275 -0.025893165 -0.03846842 -0.08813729 -0.08951461
-0.02406731 -0.11010271 -0.0880175 0.0034580796 -0.17302196 -0.0029881943 0.08747086 -0.061813053
-0.06512276 -0.076193355 -0.011731686 -0.13497987 -0.05081905 -0.12191458 -0.04386341 -0.21044572
0.016655538 -0.004626517 -0.017777674 0.075262085 -0.12123597 0.03708347 -0.10015463 -0.058734864
-0.19484887 0.05118862 0.04214587 0.07681412 0.022610217 -0.06990632 -0.06339409 -0.011876396
-0.062315557 -0.106122315 -0.1650764 -0.27714044 -0.15521204 -0.11597336 -0.057548728 -0.07240482
-0.010203911 0.04442483 -0.16399984 0.015301159 -0.07783777 -0.056873206 0.021209897 -0.08681974
0.040713355 -0.112954386 -0.043245714 -0.070749104 0.026283553 -0.018357161 -0.071535654 -0.1005534
-0.14962943 -0.05236181 0.03126238 -0.015522904 -0.09647964 -0.033028267 -0.046669252 -0.07404262
-0.017137008 -0.095334865 -0.06530636 -0.23585756 -0.0028835882 -0.074589446 -0.082977146 0.005125808
-0.03229886 -0.14358757 -0.102162644 0.0037424306 -0.013807805 -0.16411099 -0.13174732 -0.046847202
0.039399523 -0.015305285 -0.00903196 0.019699669 -0.057784192 0.0062605585 -0.050338555 -0.05809163
0.0054505575 -0.11519764 -0.037279185 -0.13834578 -0.23659351 -0.1388687 -0.046514843 -0.15004532
-0.09757219 -0.008027552 -0.037447684 -0.025234653 -0.024424866 0.017853733 -0.08872418 -0.0088775745
-0.04885286 -0.037964452 0.090558805 -0.07065419 -0.060753856 0.033912543 -0.018052647 -0.04018836
00000000: 0499 14be 3100 d0bd f3b6 35bc 6a6c b9bd
00000010: 5c5f febd 6bc6 98bd 0614 33bd 22eb 08ba
00000020: 3536 cabc 9ca8 adbd 569a 60be 8c95 3abd
00000030: 2d15 0c3c 8535 0dbe 7c76 65be 9b2f d23c
00000040: 8a74 53be c204 1cbd 7baa cabd fc0a 23be
00000050: 98b8 cdbd f4ef 4bbd 96b9 27bd 4633 d53d
00000060: ee12 05be 2d9f 753d 5abe 85bd 167e 85bd
00000070: 64fd 45be 9b27 aabd e340 adbd a7b9 1abd
00000080: 886a 6ebd 1c09 9cbd c191 39bd 0376 a9bd
00000090: 13ea e4bc 6bad 68bd 1abd 15be c465 8fbc
000000a0: 341c 73bd 8023 47bd 369d f5bd 943e 4bbe
000000b0: 1598 4e3d d755 fbbd 890e f13d f762 75bd
000000c0: 0d5f cbbc fd02 54be 72e4 4fbd c99f 03be
000000d0: 6192 62bd 8d36 03bd f035 4d3d 72c1 31bd
000000e0: 5ff1 56bd 4b44 963d d183 46bc afae d6bd
000000f0: 39e4 4abe f533 7ebb 836f 14be 9386 1fbe
00000100: 2deb f8bd a342 9abd f665 f3bd 0824 b3bd
00000110: c6c8 f03d 7b55 b2bd b193 09be fd65 e2bc
00000120: 678c c2bd edbd fdbd 8842 39be b1f4 b3bd
00000130: 24ab 5abc da7b 203d 00ce 0cbe 94c7 f3bc
00000140: 5926 4abd 09b3 df3c 6399 8fbc 9e91 8fbd
00000150: 5c8d 30be 948e 72bd 15a1 1939 a8b6 afbd
00000160: b4a4 59be a623 aebd 1eeb b43d 9fe4 3cbc
00000170: 8974 423c 00b3 e73c cf54 e1bd 0650 5fbe
00000180: 92df 48bd 8e7e 8fbd 0ee7 26be e184 833c
00000190: fe9b 1cbd 64fc 20bc d3ee 8bbd 686f 28be
000001a0: 3205 3dbd 19db dbbd b2b0 bbbd bd3f 98bd
000001b0: 2462 38bc 8c49 f8bd cd34 64bd 217e e7bd
000001c0: 1215 6cbe 6d4d c6bd 96f0 51be 58d1 8abd
000001d0: 8e78 a6bd 4073 01be 9f84 12be 8827 0fbe
000001e0: 0ecc 58bd 0006 a3bc c428 693d 006c fabd
000001f0: 1c20 17bd e62f 27be db52 4d3c fcc4 77bb
00000200: 46be 7ebc e877 b5bc abae 2dbd 78b7 513d
00000210: 1d40 783c 13db 03be 382e c3bb 03ad b7bd
00000220: 41b6 303c 0223 253d 7d92 b2bd 4354 b9bd
00000230: e71d d4bc 1091 1dbd 5381 b4bd 7053 b7bd
00000240: cf28 c5bc 887d e1bd 8542 b4bd f3a0 623b
00000250: ab2c 31be 95d5 43bb ec23 b33d af2f 7dbd
00000260: 155f 85bd 430b 9cbd 4236 40bc 2a38 0abe
00000270: a327 50bd 5aae f9bd 1eaa 33bd 157f 57be
00000280: 3271 883c 0a9a 97bb 7ca2 91bc 0223 9a3d
00000290: 904a f8bd d6e4 173d df1d cdbd f893 70bd
000002a0: 7686 47be 29ab 513d 26a1 2c3d b950 9d3d
000002b0: 1039 b93c 0b2b 8fbd c3d4 81bd 3795 42bc
000002c0: 993e 7fbd a856 d9bd ca09 29be 5ae5 8dbe
000002d0: e8ef 1ebe 7183 edbd 37b8 6bbd fa48 94bd
000002e0: 4e2e 27bc cff6 353d 93ef 27be b6b1 7a3c
000002f0: 6969 9fbd e1f3 68bd 61c0 ad3c 8cce b1bd
00000300: 0cc3 263d a154 e7bd 6b22 31bd e8e4 90bd
00000310: 9b50 d73c c261 96bc 4981 92bd f1ee cdbd
00000320: 7538 19be 5679 56bd fb0c 003d c753 7ebc
00000330: 1e97 c5bd a648 07bd 4228 3fbd a8a3 97bd
00000340: e962 8cbc ed3e c3bd 57bf 85bd a584 71be
00000350: 95fa 3cbb 5ac2 98bd ecef a9bd 65f6 a73b
00000360: cf4b 04bd 9f08 13be a63a d1bd 9143 753b
00000370: 223a 62bc b60c 28be c5e8 06be dae2 3fbd
00000380: 6561 213d 05c3 7abc c9fa 13bc 3361 a13c
00000390: 1eaf 6cbd 5f25 cd3b cd2f 4ebd 7df1 6dbd
000003a0: 979a b23b beec ebbd 0fb2 18bd 84aa 0dbe
000003b0: 9245 72be 9933 0ebe 5986 3ebd 7ba5 19be
000003c0: eed3 c7bd fe85 03bc be62 19bd e7b8 cebc
000003d0: a816 c8bc fe41 923c 06b5 b5bd 3f73 11bc
000003e0: f019 48bd 9d80 1bbd e576 b93d 25b3 90bd
000003f0: 09d9 78bd e1e7 0a3d 25e3 93bc 8d9c 24bd

bias f4 [256]
-0.053516738 -0.06408637 -1.1474519 -2.4412036 -0.1950886 -0.892101 -0.12082764 -0.085595995
-0.09870435 -0.5978915 -0.31860465 -0.11284843 -0.13967094 -0.13270098 -0.038346823 -0.45747766
-0.8389282 -0.02447731 1.2672086 -0.6080054 -0.03394511 -0.5059542 -0.4835258 -0.015644023
-0.73584914 -0.2818321 0.003970011 -0.12030969 -0.66307265 -1.2693219 0.010301881 -0.046235804
-0.19443738 -0.024550013 0.021896858 -0.025048526 -0.035271063 -0.896946 -0.14343359 -0.17328766
-0.4472747 -0.5798515 -0.095192425 -0.414295 -1.2174408 -0.10681009 -1.5569457 -0.04987495
-0.49743465 -0.11420069 0.66832817 -1.6126785 -0.068476416 -0.5823176 -0.78438395 -0.10412087
-0.013603865 -0.111199126 0.02519841 -0.55505747 -0.8823664 -0.4944508 -1.136041 -2.7303536
-0.06939524 -0.52364045 -0.057514183 -0.08604731 -0.06936335 -0.55253965 -0.062571205 -0.08672488
-1.5886163 -0.45497382 -0.14257367 -0.113710076 -0.35798022 0.49877858 -1.0591671 -0.19303896
-0.023414074 -0.38130757 -0.024660794 0.5919831 -1.0658509 -0.5500843 -1.4725442 -1.8339362
-0.23101038 0.18721299 -0.05899008 -0.7525301 -0.097717926 -0.459711 -0.6451416 -0.044643085
-0.045360494 0.47692093 -0.06387469 -0.986317 -0.74797916 -1.6704826 -0.43212926 -0.88688064
0.5807908 -1.7278785 0.39338967 -0.80970615 -0.23660189 -0.05694551 -0.06163785 -0.079673626
-0.13011378 -0.9040381 -0.03386203 -0.06450956 -1.1179988 -1.0265343 -0.15089305 -0.054642558
-0.065959215 -0.22364447 -0.078967944 -0.3655371 -0.20842683 -0.109814234 -0.07603541 -0.46202415
-0.041340373 -0.2740469 -0.2509102 -0.4008021 -0.16179936 -0.0633419 0.009428721 0.55276984
-0.025451813 -0.061706338 -0.9195489 -0.11343866 -1.6002384 -0.030309172 -0.79659325 -0.08543774
-0.45387095 -0.96297145 -1.0261643 -0.028602928 -0.054067638 -0.048131768 -0.39926168 -0.40149662
-0.08370891 -0.7003577 -0.27522498 -0.71325946 -0.08462724 -0.743192 -0.103033565 -1.9776537
0.14783247 0.07121535 -0.6339235 -0.26823294 -0.5093941 -0.18146235 0.021500709 -0.68615973
0.0011695024 -1.8442261 -0.562442 -0.23364086 -0.032330375 -0.040763274 0.0041524814 -0.054525662
-0.08811562 -0.46443453 -0.08043578 0.010680838 -0.29250342 -2.3389711 -0.16423672 0.37967026
-0.10358297 -0.15662286 -0.75775844 0.20765784 -0.6321553 -0.71635175 -0.039237164 -0.08193913
-0.046131242 -0.064805664 -0.008441405 -0.7345941 -0.57276034 -0.110127404 -0.08044165 -0.08173004
-0.062058605 -0.019312562 0.750826 -0.0029096252 -1.012293 1.309761 -0.7389226 -0.28260353
-0.8697577 -0.05248561 -0.19332488 0.27826864 0.8048079 -0.112519965 -1.3744481 -0.07502235
0.41498807 -0.07668812 -0.09006324 -0.06232013 -0.49815044 -1.7365998 -0.31073236 -0.6585151
0.14099585 1.3397348 -0.6287701 -1.5408866 -0.0797687 -0.0038347542 -0.07875432 -0.75856394
-0.6926425 -1.7734333 -0.05060335 -0.9961219 -0.07601822 -0.055978313 -0.022027895 -0.03462782
-0.6947649 -1.6666859 -0.052204713 -0.029046778 -0.22441481 0.119987 -0.017986307 -0.35744727
-0.23685865 0.4807323 -0.05729302 -0.0962048 -1.4186842 -0.38755846 -0.069209635 -0.105161406
00000000: 5e34 5bbd b73f 83bd b4df 92bf ae3c 1cc0
00000010: 4ec5 47be bb60 64bf 7b74 f7bd f44c afbd
00000020: 8225 cabd 6b0f 19bf 2620 a3be 141d e7bd
00000030: e605 0fbe c4e2 07be 8f11 1dbd 833a eabe
00000040: 00c4 56bf a484 c8bc e433 a23f 3ea6 1bbf
00000050: 070a 0bbd 3786 01bf b290 f7be e527 80bc
00000060: 9c60 3cbf 4c4c 90be de16 823b ed64 f6bd
00000070: 21bf 29bf 2479 a2bf 38c9 283c c161 3dbd
00000080: 981a 47be 1c1d c9bc 0a61 b33c 9132 cdbc
00000090: 6478 10bd 419e 65bf 41e0 12be 5272 31be
000000a0: 3101 e5be 2671 14bf 3ff4 c2bd 791e d4be
000000b0: 1ad5 9bbf 40bf dabd ff49 c7bf ad49 4cbd
000000c0: c1af febe 0de2 e9bd 8e17 2b3f 406c cebf
000000d0: 5d3d 8cbd c412 15bf 63cd 48bf 533d d5bd
000000e0: bfe2 5ebc 5ebc e3bd e56c ce3c 3f18 0ebf
000000f0: c4e2 61bf a828 fdbe cb69 91bf 1dbe 2ec0
00000100: 171f 8ebd 4d0d 06bf fe93 6bbd 9239 b0bd
00000110: 5f0e 8ebd 3d73 0dbf 5525 80bd d09c b1bd
00000120: c757 cbbf 54f2 e8be d5fe 11be d4e0 e8bd
00000130: 2f49 b7be e85f ff3e ca92 87bf 01ac 45be
00000140: dfce bfbc bf3a c3be 6f05 cabc 348c 173f
00000150: cd6d 88bf 53d2 0cbf 547c bcbf 6cbe eabf
00000160: fc8d 6cbe c3b4 3f3e 959f 71bd d0a5 40bf
00000170: 5620 c8bd 3d5f ebbe 0028 25bf abdb 36bd
00000180: edcb 39bd fb2e f43e bcd0 82bd 457f 7cbf
00000190: 907b 3fbf 60d2 d5bf 0c40 ddbe 9c0a 63bf
000001a0: b5ae 143f 1f2b ddbf 5f6a c93e e748 4fbf
000001b0: c447 72be b23f 69bd f877 7cbd ed2b a3bd
000001c0: 8c3c 05be 0a6f 67bf e9b2 0abd 971d 84bd
000001d0: 961a 8fbf 7a65 83bf b583 1abe e0d0 5fbd
000001e0: a015 87bd 0e03 65be f2b9 a1bd ae27 bbbe
000001f0: d86d 55be 49e6 e0bd 74b8 9bbd 6e8e ecbe
00000200: 8654 29bd e04f 8cbe 4d77 80be ef35 cdbe
00000210: bbae 25be 66b9 81bd ec7a 1a3c 5382 0d3f
00000220: 5280 d0bc c9bf 7cbd 8f67 6bbf 8752 e8bd
00000230: 9dd4 ccbf f14a f8bc 89ed 4bbf fbf9 aebd
00000240: c661 e8be 4c85 76bf 5a59 83bf b050 eabc
00000250: 0776 5dbd d125 45bd 076c ccbe f790 cdbe
00000260: 946f abbd a44a 33bf 4aea 8cbe 2c98 36bf
00000270: 0c51 adbd d541 3ebf 4303 d3bd c223 fdbf
00000280: 6561 173e 5ad9 913d cf48 22bf d455 89be
00000290: a767 02bf 44d1 39be 4122 b03c 2aa8 2fbf
000002a0: fd49 993a 9a0f ecbf 33fc 0fbf 8d3f 6fbe
000002b0: db6c 04bd 64f7 26bd 8a11 883b 4d56 5fbd
000002c0: f675 b4bd 5dca edbe 84bb a4bd aefe 2e3c
000002d0: 02c3 95be b4b1 15c0 ac2d 28be 2464 c23e
000002e0: 4f23 d4bd be61 20be 75fc 41bf 42a4 543e
000002f0: eed4 21bf d462 37bf 26b7 20bd b4cf a7bd
00000300: 1df4 3cbd d5b8 84bd d24d 0abc 5c0e 3cbf
00000310: 6ca0 12bf 7a8a e1bd 97be a4bd 1462 a7bd
00000320: 2a31 7ebd 6135 9ebc 2236 403f 69af 3ebb
00000330: d192 81bf 40a6 a73f 082a 3dbf 69b1 90be
00000340: 71a8 5ebf 27fb 56bd f5f6 45be 3a79 8e3e
00000350: e407 4e3f de70 e6bd eaed afbf 51a5 99bd
00000360: 5179 d43e a90e 9dbd 1373 b8bd 6543 7fbd
00000370: 930d ffbe e748 debf 5018 9fbe 7294 28bf
00000380: 3761 103e 6e7c ab3f 14f7 20bf c63b c5bf
00000390: c65d a3bd 8050 7bbb f249 a1bd 3f31 42bf
000003a0: 0551 31bf ddff e2bf 7545 4fbd d801 7fbf
000003b0: 71af 9bbd 8449 65bd d873 b4bc e7d5 0dbd
000003c0: 1ddc 31bf f755 d5bf 9cd4 55bd 82f3 edbc
000003d0: ffcc 65be bfbb f53d 0558 93bc 5403 b7be
000003e0: 138b 72be 8b22 f63e 16ac 6abd 0607 c5bd
000003f0: 7297 b5bf 106e c6be c8bd 8dbd dd5e d7bd

weight f4 [2, 256]
-0.064743325 0.005726622 0.047978483 -2.6140592 -0.019045092 -1.2896973 -0.01018719 -0.0009116328
-0.02994193 2.6527002 0.5799733 -0.046490636 -0.20406109 -0.047525365 -0.030269925 -0.35628945
-0.46072823 0.0010072282 0.1042564 -0.056779347 0.015865587 0.31773984 0.37600064 -0.018285366
0.9099339 0.4199077 0.010151758 -0.05425867 0.056704875 -1.0943207 0.06747571 -0.047732126
-0.065859005 0.001701207 0.5324746 0.02169405 -0.0033935732 0.6825779 -0.070600316 13.166378
0.1956886 -0.76385075 0.0056538708 0.97502756 0.7819117 -0.013622469 -0.8885541 -0.010346688
0.8600428 0.007882351 0.61076134 -0.54720426 0.016540773 0.15704939 2.1863296 0.050771654
-0.024023324 -0.0059414045 -1.9690351 1.9714131 -0.056328118 -0.53145516 0.4222366 0.4021553
0.05798934 1.129312 0.073281325 0.016767144 -0.06697627 4.270373 0.023579368 0.014157929
-2.0152228 0.3807116 4.4132833 0.007409968 0.016514963 0.27136782 -0.6463977 0.20993657
-0.008916586 -0.5926793 -0.0014589044 0.3424478 0.7664581 -0.62546986 -0.9653136 -19.477528
0.0129665695 11.342265 -0.0079928385 1.2325892 -0.050949585 22.040594 0.33482897 0.025043003
0.012026967 -0.09775593 -0.45149714 -1.1550883 -0.13111724 -1.4350542 -1.0553006 -0.81208473
22.94441 -1.7783536 -0.04311059 -0.90002465 0.08708431 0.061785072 -0.0248926 0.03571396
-0.26338205 0.5765588 -0.01230232 0.010577113 0.7653006 1.4874393 -0.11490173 0.004784613
0.0294248 0.22171739 -0.039376754 0.3771623 -0.2096563 -0.005254061 0.0050871265 0.6600052
0.044126734 0.0078042326 -0.028326666 -0.31788418 2.0726905 -0.008552438 0.010430146 8.419142
-0.12296319 0.0061744987 -0.89736235 5.7592626 -0.32651165 -0.020644816 0.6700841 -0.052950867
0.19331945 -0.5737255 17.159887 0.022564657 -0.0078050145 0.02646568 -6.819185 -0.46402672
-0.026380157 -0.5334539 -0.040874995 1.1436962 -0.0406406 1.1273013 0.007375008 -3.247083
1.3583914 0.9773741 0.4599668 -0.15232411 -1.8243365 0.105646655 0.023157915 0.17390811
-0.011484698 -1.5322169 -0.99412745 0.029875074 -0.014697525 -0.008212636 0.036908668 -0.011533342
-0.016922858 -0.874559 0.05090839 0.04189623 -8.818233 -2.7627335 -0.114030465 0.37540305
-0.06903963 0.083790354 -0.33727688 0.5394989 -0.9380902 -1.1320887 -0.019211857 -0.00361673
0.071548104 0.016290938 1.6472212 -1.0718827 0.47349986 -0.01678506 -0.00983253 -0.054410726
0.00029713116 0.005929855 4.8940797 -0.025816703 -1.3052816 2.989787 -0.84259546 0.081480004
0.12731266 -0.015347413 1.1855108 -1.8748426 2.0755332 0.0066735605 1.0763792 0.029444825
2.1978087 0.036534872 0.0076682135 0.025831588 0.11184074 -1.8881456 -0.45326677 3.856814
0.635291 2.01854 -0.6069322 -0.2834899 -0.026997572 -0.055365436 -0.035482865 -0.45044273
4.448541 0.5680681 0.042387042 -0.5648005 -0.028852513 -0.011726123 -0.020845558 0.0049193297
-0.6867807 1.0001628 0.050535318 0.07601655 -0.110485174 5.7762623 0.029773971 0.9972141
0.08976856 1.3114151 1.1529641 0.013078952 -1.6506974 -0.05787099 -0.007944409 -0.008019646
00000000: 2698 84bd 63a6 bb3b 1685 443d bf4c 27c0
00000010: 7404 9cbc cd14 a5bf 2ce8 26bc a4fa 6eba
00000020: c748 f5bc d7c5 2940 2179 143f f76c 3ebd
00000030: 64f5 50be f5a9 42bd a2f8 f7bc 926b b6be
00000040: 92e4 ebbe f804 843a 6184 d53d 7691 68bd
00000050: 8cf8 813c ccae a23e 2883 c03e 31cb 95bc
00000060: 6ef1 683f 24fe d63e 8f53 263c 573e 5ebd
00000070: 5f43 683d b312 8cbf b430 8a3d c382 43bd
00000080: 16e1 86bd 09fb de3a 4150 083f b8b7 b13c
00000090: b666 5ebb 6dbd 2e3f e696 90bd 7ca9 5241
000000a0: 9862 483e b98b 43bf 1b44 b93b 689b 793f
000000b0: 5d2b 483f c730 5fbc 4878 63bf 2885 29bc
000000c0: c42b 5c3f fa24 013c db5a 1c3f 9415 0cbf
000000d0: 8480 873c 8ed1 203e d3ec 0b40 f0f5 4f3d
000000e0: 90cc c4bc 1db0 c2bb 5809 fcbf 4457 fc3f
000000f0: 50b8 66bd 720d 08bf 652f d83e 4de7 cd3e
00000100: 3b86 6d3d 4c8d 903f 8514 963d 405b 893c
00000110: db2a 89bd e5a6 8840 8529 c13c a9f6 673c
00000120: 69f9 00c0 a1ec c23e 9e39 8d40 51cf f23b
00000130: 634a 873c b9f0 8a3e 527a 25bf 9df9 563e
00000140: df16 12bc d5b9 17bf b538 bfba 5155 af3e
00000150: 9936 443f cb1e 20bf cb1e 77bf fad1 9bc1
00000160: bc71 543c eb79 3541 65f4 02bc 7cc5 9d3f
00000170: 83b0 50bd 2353 b041 b46e ab3e fc26 cd3c
00000180: c10c 453c 4334 c8bd a22a e7be efd9 93bf
00000190: 9943 06be dbaf b7bf 1714 87bf c9e4 4fbf
000001a0: 278e b741 17a1 e3bf bb94 30bd 0468 66bf
000001b0: 4259 b23d 5812 7d3d 91eb cbbc cd48 123d
000001c0: 03da 86be 5c99 133f ac8f 49bc a14b 2d3c
000001d0: bdea 433f 6964 be3f 9951 ebbd 3ec8 9c3b
000001e0: 470c f13c e209 633e 8549 21bd 6b1b c13e
000001f0: 24b0 56be 422a acbb e9b1 a63b 1af6 283f
00000200: 3cbe 343d a6ba ff3b 530d e8bc b7c1 a2be
00000210: f6a6 0440 861f 0cbc 34e3 2a3c ceb4 0641
00000220: 20d4 fbbd 7353 ca3b 8ab9 65bf e14b b840
00000230: 892c a7be 511f a9bc a28a 2b3f 02e3 58bd
00000240: 89f5 453e addf 12bf 7347 8941 84d9 b83c
00000250: 35c1 ffbb 8ece d83c c336 dac0 e994 edbe
00000260: 331b d8bc 6f90 08bf 8a6c 27bd a364 923f
00000270: c276 26bd 694b 903f 0daa f13b 35d0 4fc0
00000280: c5df ad3f 3035 7a3f c580 eb3e dafa 1bbe
00000290: dc83 e9bf 465d d83d abb5 bd3c f814 323e
000002a0: 512a 3cbc af1f c4bf 237f 7ebf 92bc f43c
000002b0: e3cd 70bc 4b8e 06bc 8b2d 173d 58f6 3cbc
000002c0: cea1 8abc 19e3 5fbf 5185 503d 629b 2b3d
000002d0: 7b17 0dc1 a0d0 30c0 ce88 e9bd d434 c03e
000002e0: a664 8dbd 479a ab3d 8eaf acbe 9a1c 0a3f
000002f0: ae26 70bf 48e8 90bf 2f62 9dbc a906 6dbb
00000300: d087 923d 9374 853c 25d8 d23f 7433 89bf
00000310: 936e f23e d280 89bc 9f18 21bc c8dd 5ebd
00000320: 45c8 9b39 3b4f c23b 4d9c 9c40 8d7d d3bc
00000330: 7813 a7bf ac58 3f40 56b4 57bf fdde a63d
00000340: 405e 023e b773 7bbc d1be 973f d8fa efbf
00000350: 89d5 0440 e2ad da3b cbc6 893f 4636 f13c
00000360: e6a8 0c40 97a5 153d a345 fb3b c49c d33c
00000370: c20c e53d c1ae f1bf 9512 e8be 0ad6 7640
00000380: 6ea2 223f c22f 0140 e95f 1bbf 9725 91be
00000390: 032a ddbc dec6 62bd 7b56 11bd 6ea0 e6be
000003a0: 735a 8e40 e96c 113f 099e 2d3d c496 10bf
000003b0: 1b5c ecbc ed1e 40bc 4ec4 aabc 5432 a13b
000003c0: dcd0 2fbf 5605 803f 1ffe 4e3d 91ae 9b3d
000003d0: 0d46 e2bd 24d7 b840 8be8 f33c 6c49 7f3f
000003e0: 94d8 b73d 73dc a73f 5494 933f 1a49 563c
000003f0: 0d4a d3bf 220a 6dbd 4429 02bc d564 03bc

bias f4 [2]
0.06284547 -0.32101667
00000000: 20b5 803d 4c5c a4be

weight f4 [256, 10]
-0.009673949 0.012484636 0.005046425 0.02552643 -0.012525424 -0.092985116 -0.049622666 -0.013087599
-0.030210325 0.08133371 0.71500933 0.57087684 0.21365084 -0.25132504 -0.14030027 0.33619827
0.18917528 0.07434883 0.19605081 -0.4966085 0.12189145 -0.013902816 0.085627764 -0.16945115
-0.15299971 0.28698912 0.2192483 0.06057211 0.11349829 0.023874601 1.7893895 0.518399
-1.6582756 -5.8356433 0.57266957 -2.5455248 -1.9284219 0.35309017 -0.0059755016 -0.0055014305
-1.1264728 -1.7987837 0.43077168 -0.996296 -1.4804814 1.0320731 1.1645908 0.38963214
0.008267741 0.0010432806 0.7658167 0.4959864 2.8802383 -0.2808466 -0.9913653 0.39104012
0.39509746 0.020201927 -0.086251915 0.2165996 -0.013170858 -0.012033002 -0.14238574 0.007928885
-0.01753297 -0.6279526 -0.47430187 -0.18722379 0.10364506 -0.16066763 -0.36455905 0.6998468
0.1701778 -2.7434142 -2.9430823 -0.71741164 1.1393242 0.0015921481 0.26348788 0.09104326
-0.079566784 -0.1053534 -0.08915134 0.054640222 0.065200344 -0.7132392 -0.58291733 -0.22224644
0.0050398903 -0.09061318 0.21264407 0.8346834 -2.142776 -0.51945555 -1.1635011 -0.54510146
-0.22250338 0.030980129 -0.16737953 0.104025275 -1.5856414 -1.9576887 -0.35853252 0.044005368
0.13471656 0.18651189 0.08686347 -0.08980301 0.009473284 -0.09672722 1.5553628 -0.2858078
0.57657915 0.32865304 -1.3699267 1.1554912 -0.60469306 0.09674882 -0.99418163 -0.14520761
0.6720757 0.71381515 0.094103344 -0.1987649 0.01493278 -0.4835728 -0.40745243 -0.11649538
0.3261013 -0.22753607 -0.87002254 -1.6848204 1.4745457 -0.8301535 0.4449935 -0.40874082
0.01170127 0.36151192 0.27059895 0.9916361 1.0304126 1.1539288 -1.8597466 0.5537367
-1.4368517 0.96203965 0.8982472 -0.2824575 -0.015840227 0.056700185 1.548387 0.52925944
-1.8983932 -1.2395288 0.4604163 -0.46323198 -1.2028092 0.046936024 0.123671584 -1.4124783
0.3168139 2.266941 -0.8693929 -0.503484 -0.3366378 0.5299833 0.6860173 0.29850233
-0.018562678 -0.027773421 -1.1332943 0.045040224 -1.0338786 -1.79883 -1.0335062 -2.1176665
-1.6047772 -0.68695414 0.0024971964 0.053753667 -0.22375764 -0.214587 -0.27240998 -0.108855344
-0.18251169 0.2383621 0.22319657 0.039642148 -0.22852348 -0.13624191 0.7422326 1.4547322
-2.7585866 0.3940876 -0.4061925 0.484584 0.5441123 -0.31735194 0.09209812 -0.093961425
-0.14918976 -0.17959993 -0.41248605 -0.050844576 -0.25972092 -0.025383022 0.041690357 0.046177335
0.004177243 -0.033018805 -0.43632236 -0.3018493 2.088006 -2.333686 -1.0096757 -0.18339501
0.86933196 0.1337784 0.012586911 -0.13521011 -0.30070403 -0.33255586 -0.25246546 -0.054573134
-0.032210477 0.18206204 0.1642422 0.07814506 -0.006675965 -0.019261472 0.021237772 -0.4552622
0.54874176 2.0726151 -2.0065765 0.9709478 -1.0494876 -0.15896659 -0.20650917 -0.12578195
-1.1473155 -1.6353549 -0.334888 0.40729353 0.13466235 0.10353808 0.013771656 0.036219873
0.4343973 -0.7480159 -0.591528 -0.31264347 0.7574991 0.6626174 -0.23434639 0.8944266
00000000: 7c7f 1ebc 5c8c 4c3c 7b5c a53b ce1c d13c
00000010: 7037 4dbc fb6e bebd 2341 4bbd 5e6d 56bc
00000020: a57b f7bc 4a92 a63d da0a 373f fc24 123f
00000030: 49c7 5a3e adad 80be e0aa 0fbe 2e22 ac3e
00000040: 2ab7 413e 3344 983d 8bc1 483e 7843 febe
00000050: 39a2 f93d a3c8 63bc 9c5d af3d 9a84 2dbe
00000060: f5ab 1cbe 3df0 923e a082 603e 761a 783d
00000070: cb71 e83d ab94 c33c b70a e53f ccb5 043f
00000080: 6042 d4bf 97bd bac0 799a 123f e1e9 22c0
00000090: 87d6 f6bf 3cc8 b43e 24ce c3bb 5845 b4bb
000000a0: 4330 90bf 8b3e e6bf 1b8e dc3e 410d 7fbf
000000b0: 6a80 bdbf f91a 843f 5011 953f dd7d c73e
000000c0: 6b75 073c b0be 883a 900c 443f eef1 fd3e
000000d0: d355 3840 20cb 8fbe 1eca 7dbf 6936 c83e
000000e0: 374a ca3e 837e a53c d8a4 b0bd 49cc 5d3e
000000f0: 95ca 57bc 1226 45bc 91cd 11be 27e8 013c
00000100: 4ea1 8fbc 80c1 20bf b2d7 f2be 98b7 3fbe
00000110: dc43 d43d 0e86 24be 7ca7 babe 2929 333f
00000120: 1743 2e3e 1994 2fc0 765b 3cc0 4aa8 37bf
00000130: 60d5 913f a0af d03a e2e7 863e e474 ba3d
00000140: e9f3 a2bd 86c3 d7bd fa94 b6bd 6dce 5f3d
00000150: c287 853d d896 36bf 123a 15bf 9294 63be
00000160: aa25 a53b 6793 b9bd 5ebf 593e d0ad 553f
00000170: 3e23 09c0 0afb 04bf 9bed 94bf c58b 0bbf
00000180: edd7 63be 0aca fd3c 8a65 2bbe 340b d53d
00000190: 4cf6 cabf 8b95 fabf 9391 b7be f93e 343d
000001a0: 23f3 093e f9fc 3e3e 7ae5 b13d a4ea b7bd
000001b0: d535 1b3c ec18 c6bd 2116 c73f 6655 92be
000001c0: b19a 133f 3645 a83e c259 afbf 23e7 933f
000001d0: 2acd 1abf 3f24 c63d b082 7ebf 4eb1 14be
000001e0: 270d 2c3f 97bc 363f 41b9 c03d 0789 4bbe
000001f0: 9ea8 743c db96 f7be 9b9d d0be 2195 eebd
00000200: c0f6 a63e 37ff 68be ccb9 5ebf 32a8 d7bf
00000210: eabd bc3f f184 54bf 30d6 e33e 7a46 d1be
00000220: afb6 3f3c 1718 b93e f28b 8a3e dddb 7d3f
00000230: 8fe4 833f f0b3 933f 2d0c eebf b0c1 0d3f
00000240: c2ea b7bf 3b48 763f 87f3 653f 459e 90be
00000250: 5dc3 81bc 743e 683d 8c31 c63f 8c7d 073f
00000260: 8cfe f2bf e1a8 9ebf afbb eb3e be2c edbe
00000270: a7f5 99bf fd3f 403d 8747 fd3d 17cc b4bf
00000280: 6e35 a23e 9015 1140 8890 5ebf 54e4 00bf
00000290: ca5b acbe fcac 073f d49e 2f3f 4cd5 983e
000002a0: c210 98bc 1685 e3bc ca0f 91bf 197c 383d
000002b0: 2256 84bf 1040 e6bf ee49 84bf d987 07c0
000002c0: 5769 cdbf 3adc 2fbf 01a8 233b ce2c 5c3d
000002d0: b920 65be b2bc 5bbe 5279 8bbe 8def debd
000002e0: 58e4 3abe 3215 743e a48d 643e ce5f 223d
000002f0: 0f02 6abe 0083 0bbe f502 3e3f aa34 ba3f
00000300: af8c 30c0 dac5 c93e 77f8 cfbe 651b f83e
00000310: f24a 0b3f f47b a2be f09d bc3d d96e c0bd
00000320: 33c5 18be 0be9 37be 5f31 d3be 6742 50bd
00000330: 24fa 84be 0ef0 cfbc 82c3 2a3d 7224 3d3d
00000340: 41e1 883b ba3e 07bd a565 dfbe fe8b 9abe
00000350: e4a1 0540 1d5b 15c0 0e3d 81bf e7cb 3bbe
00000360: 8a8c 5e3f 34fd 083e 5539 4e3c 8574 0abe
00000370: e1f5 99be c344 aabe 2743 81be 1488 5fbd
00000380: 22ef 03bd 796e 3a3e 1b2f 283e 840a a03d
00000390: 0ec2 dabb 3cca 9dbc d6fa ad3c 2118 e9be
000003a0: 577a 0c3f baa5 0440 c06b 00c0 0990 783f
000003b0: 9c55 86bf 23c8 22be 2477 53be fccc 00be
000003c0: 3cdb 92bf 4f53 d1bf 7176 abbe c788 d03e
000003d0: ede4 093e c60b d43d 83a2 613c 4a5b 143d
000003e0: 5369 de3e f87d 3fbf 616e 17bf ce12 a0be
000003f0: 76eb 413f 4ba1 293f 80f8 6fbe 24f9 643f

bias f4 [256]
-0.32199568 -1.7161045 -0.6766784 -2.8921738 -0.18749815 -1.8657053 -0.64073765 -1.2914963
-0.67880857 -3.2622063 -2.3828242 -1.9941523 -1.5735712 -2.3613305 -2.5243707 -2.166428
-2.3285584 -1.5898057 -0.989837 -1.7459689 -1.2057849 -2.8356524 -0.6891043 1.474089
-2.644764 -2.938101 -2.39023 1.790034 -1.9210612 -1.6447706 -0.8626175 -1.1365502
-0.8339163 -2.5973253 -1.7220207 -1.3179214 -0.7111929 -3.075802 -0.39649287 -2.241058
-0.82955104 -0.55402786 -0.5730636 -0.6971124 -1.8370246 -1.8047842 -3.4176393 -1.7067859
-0.56537867 -1.4697251 -1.685711 0.8246024 -0.9992292 -2.0033236 -2.9053226 -0.33106884
-0.7152673 -1.7219456 -3.013546 -1.931752 -1.8649815 -2.3194833 -3.0036044 -2.020925
-0.9483904 -1.0318444 -0.80074483 2.0468512 -0.33574378 -2.0408497 -2.113631 -2.6231503
-2.7831097 -1.5163566 -2.31137 -0.681761 -0.11235813 -0.44665605 -1.1137861 -2.6976678
-0.48830813 -0.7895948 -2.4443915 -0.9422677 -2.1809456 -1.7259429 -1.1730561 -0.77461183
-1.7726878 -0.6373249 2.6182823 -0.688274 -0.68428206 -0.6216795 -1.9490681 -1.2400283
-2.35429 -1.925129 -0.73364294 -1.4742644 -1.7041104 -2.3400407 -1.7228453 -1.3245794
-3.253933 -0.7269134 -2.623362 -1.1710762 -0.886049 -2.7331228 -2.5637145 -0.19714476
-1.6157045 -2.5799243 -0.6664018 -1.3841788 0.12512003 0.16693589 -1.8455157 0.19377677
-2.3481324 -2.210125 -2.4448547 -2.2346842 -1.7773445 -0.5379528 -1.0416166 -2.0667484
-1.438586 -2.0250313 1.7836359 -2.5672858 -1.0469099 -1.345029 -3.1683662 -0.8445229
-0.9643123 -3.0398788 -2.579679 -1.332561 0.2668948 -0.17643471 -1.3999788 -1.2103462
2.3530304 -0.9582763 -0.7370307 -2.2468596 0.4770917 -1.3651134 -0.65991056 -3.141667
-1.1431212 -1.5575017 -1.7237842 -0.77501076 -1.0773084 -0.33350867 -2.7881627 -2.5083456
-1.5641192 -1.8287416 -2.982005 1.4907314 -1.338274 -0.5003137 -0.5838594 -1.5397297
-2.021996 -0.3231076 -2.4508238 -2.4760191 -2.1427145 -0.32876176 -1.5647914 -2.9207723
-0.23815437 -0.55365735 2.6279237 -3.8580616 -1.9566165 -1.9776871 -2.7723777 -3.7580383
-0.7773962 0.05488794 -1.1313683 -1.1218086 -2.1081522 -2.467287 -2.627821 -2.4930935
-1.9599823 -0.32126585 -1.5665308 -1.999552 -1.4121705 -2.0536308 -2.1437888 -1.35738
-1.3847564 -1.5890034 -2.3212886 -1.9792985 -1.8915213 -1.3033873 0.4147819 -1.0335644
-1.718112 -0.5644302 -2.653023 1.5931408 -1.4257175 -2.4912205 -2.48008 -0.83874875
3.2129543 -0.802544 -2.9820807 -3.102952 -0.660741 -0.279079 -2.8795636 -3.5727704
-2.3818822 2.364736 -1.420609 -2.19734 -2.7718675 -1.7532741 -1.688915 -0.43321645
-0.44021112 -2.2777119 -0.8627445 0.62151533 0.9612193 -3.1918504 -1.0020031 -2.5435712
-1.178985 2.7998433 -1.859205 -1.9946043 -1.9660698 -2.5408435 -3.3644083 -0.6585283
2.4562604 0.69280577 -1.0666145 -0.6518696 -0.9198528 0.12139098 -0.99631584 -1.9444028
00000000: 9edc a4be 50a9 dbbf cc3a 2dbf 6019 39c0
00000010: 84ff 3fbe 6ecf eebf 6207 24bf c04f a5bf
00000020: 66c6 2dbf fdc7 50c0 3180 18c0 6240 ffbf
00000030: c86a c9bf 0a20 17c0 4a8f 21c0 c2a6 0ac0
00000040: 1a07 15c0 c17e cbbf f565 7dbf e97b dfbf
00000050: 2957 9abf 547b 35c0 2469 30bf f3ae bc3f
00000060: d043 29c0 d909 3cc0 87f9 18c0 d61f e53f
00000070: 55e5 f5bf d887 d2bf 80d4 5cbf 7a7a 91bf
00000080: 8a7b 55bf 943a 26c0 2d6b dcbf a6b1 a8bf
00000090: bd10 36bf f1d9 44c0 1d01 cbbe 7f6d 0fc0
000000a0: 755d 54bf c5d4 0dbf 4cb4 12bf f575 32bf
000000b0: 9f23 ebbf 2b03 e7bf 9aba 5ac0 f677 dabf
000000c0: a8bc 10bf f41f bcbf 61c5 d7bf 2519 533f
000000d0: 7ccd 7fbf 7436 00c0 cef0 39c0 db81 a9be
000000e0: c21b 37bf b768 dcbf f0dd 40c0 a643 f7bf
000000f0: b7b7 eebf 6a72 14c0 0e3b 40c0 d656 01c0
00000100: b7c9 72bf 7a13 84bf 9dfd 4cbf 9cff 0240
00000110: 9ce6 abbe 489d 02c0 bb45 07c0 b2e1 27c0
00000120: 781e 32c0 f917 c2bf 7ced 13c0 e487 2ebf
00000130: 051c e6bd 1ab0 e4be 8b90 8ebf 97a6 2cc0
00000140: 8603 fabe e322 4abf e970 1cc0 7538 71bf
00000150: 9d94 0bc0 b2eb dcbf b426 96bf f64c 46bf
00000160: 6fe7 e2bf ba27 23bf f091 2740 ba32 30bf
00000170: 1c2d 2fbf 6326 1fbf 107b f9bf 3fb9 9ebf
00000180: b0ac 16c0 a16a f6bf 06d0 3bbf b2b4 bcbf
00000190: 4a20 dabf 3ac3 15c0 3286 dcbf d18b a9bf
000001a0: 7040 50c0 ff16 3abf 2ae5 27c0 d3e5 95bf
000001b0: 1bd4 62bf 7ceb 2ec0 e613 24c0 51e0 49be
000001c0: 68cf cebf 7b1d 25c0 4f99 2abf c52c b1bf
000001d0: 771f 003e 3ef1 2a3e dc39 ecbf 6b6d 463e
000001e0: cd47 16c0 b072 0dc0 8078 1cc0 1105 0fc0
000001f0: 0680 e3bf 46b7 09bf b153 85bf 9b45 04c0
00000200: 9623 b8bf 1d9a 01c0 2e4e e43f 694e 24c0
00000210: 2501 86bf e929 acbf 83c6 4ac0 a732 58bf
00000220: 2cdd 76bf 608d 42c0 7619 25c0 5c91 aabf
00000230: 6fa6 883e 4dab 34be 8132 b3bf a0ec 9abf
00000240: 0d98 1640 9851 75bf 0bae 3cbf 8ccc 0fc0
00000250: 5d45 f43e 09bc aebf e6ef 28bf 1211 49c0
00000260: cc51 92bf 375c c7bf f6a4 dcbf 1b67 46bf
00000270: 3ee5 89bf a6c1 aabe 4271 32c0 bc88 20c0
00000280: 0f35 c8bf 3414 eabf 2bd9 3ec0 49d0 be3f
00000290: 904c abbf 8f14 00bf cf77 15bf dd15 c5bf
000002a0: 6268 01c0 5c6e a5be 4cda 1cc0 1977 1ec0
000002b0: 3c22 09c0 7653 a8be 164b c8bf efed 3ac0
000002c0: bdde 73be 7dbc 0dbf e72f 2840 7bea 76c0
000002d0: 6972 fabf da24 fdbf a36e 31c0 b383 70c0
000002e0: 7003 47bf 2dd2 603d add0 90bf 6d97 8fbf
000002f0: f7eb 06c0 08e8 1dc0 382e 28c0 d88e 1fc0
00000300: b3e0 fabf f57c a4be 1584 c8bf 52f1 ffbf
00000310: 01c2 b4bf b06e 03c0 d633 09c0 a1be adbf
00000320: b33f b1bf 7764 cbbf fe8f 14c0 a759 fdbf
00000330: 5f1d f2bf 65d5 a6bf 4b5e d43e d74b 84bf
00000340: 18eb dbbf 7f7e 10bf 21cb 29c0 0aec cb3f
00000350: e97d b6bf 2870 1fc0 a1b9 1ec0 3db8 56bf
00000360: 0ba1 4d40 8673 4dbf 69da 3ec0 c496 46c0
00000370: 5226 29bf 71e3 8ebe c54a 38c0 45a8 64c0
00000380: c270 18c0 d657 1740 84d6 b5bf 38a1 0cc0
00000390: 4766 31c0 496b e0bf 5e2e d8bf 8cce ddbe
000003a0: 5a63 e1be 08c6 11c0 d3dc 5cbf a11b 1f3f
000003b0: 7812 763f 4747 4cc0 a341 80bf dfc9 22c0
000003c0: fbe8 96bf a230 3340 6efa edbf 324f ffbf
000003d0: 2da8 fbbf 2e9d 22c0 7752 57c0 5095 28bf
000003e0: 5f33 1d40 b85b 313f d386 88bf ede0 26bf
000003f0: 797b 6bbf d69b f83d 8e0e 7fbf 31e2 f8bf

weight f4 [256, 256]
-0.5411706 0.08865606 0.6483554 -1.049375 -0.7051381 0.9843752 -0.007022509 -0.10618385
-0.86846244 -0.6921498 -1.6842709 0.29921776 0.28277576 -0.8519872 -2.3106773 -1.5682873
0.87231404 -1.502667 -0.38805968 -3.016912 -1.4902797 0.689379 -0.12163224 -1.9643431
-1.6551077 -2.347429 -1.3949249 -0.65814 -0.15150037 0.12326474 0.13971905 -0.2576894
-0.5368658 -1.4822322 -0.7082435 -1.5934343 -0.009421843 -1.4597818 -0.15781821 -1.0171528
-0.11086517 0.41201183 0.07516576 -0.21047553 -0.14017935 0.015412469 -1.52679 2.0766752
-0.18509553 -0.8876213 0.7851467 -0.31435037 -0.22745223 -0.2747086 -1.2644813 -1.4236633
0.088013984 -0.81259763 0.013244058 -0.27356786 0.056030802 -0.01384955 -0.19507101 -0.59812564
0.08981702 -0.11706434 -0.4868479 -0.6896239 -0.03898947 1.0521656 -0.8938875 0.18765786
0.35459653 -0.4151996 -0.56403166 -0.67641544 0.08926864 -0.034528144 0.0667367 -0.74682724
-0.1589539 0.093894035 0.04556015 0.8291211 -1.6796261 0.05437268 0.5173674 -0.18650705
-0.53680086 0.21707551 -0.19188412 -0.2056174 0.38522002 -0.35192278 -0.71573263 0.34593585
0.03512118 -0.27160966 0.29633558 -0.7650279 0.10859154 -0.18008502 -0.05123776 -0.6314479
-0.2620849 -0.1648914 0.67125857 -0.4552363 0.16208571 -1.2858691 -1.4769964 -1.5141299
1.3576716 0.20992748 0.20232263 0.83757603 -0.06037417 0.6072074 -1.1584874 -0.46898106
0.18643898 0.8574868 -0.28385583 -3.9947355 -1.1371243 -0.6343072 0.046039417 -0.001539906
0.45052597 -0.48630723 -0.35398474 0.22201586 0.09169294 0.08255827 -3.0544126 0.309713
-0.79689384 0.48022407 -0.1472236 -0.015897501 -0.8091482 1.2908745 0.17821494 -2.5844405
-0.76353973 -0.16156152 0.61115927 0.038486168 1.2607749 -0.030820442 0.24701782 -0.20145169
-0.35852933 -0.33677825 -1.2396873 0.18996106 0.21265668 -0.31914303 -0.36533153 0.2739427
0.11801056 0.049727228 0.3079247 -0.05338854 0.78021336 0.28784552 1.7218353 0.1778466
-1.0341067 0.05501331 -0.3202157 -1.9230713 0.3134129 -0.39132228 0.11867252 1.7196342
-0.07449997 -0.40676928 -0.09250082 -0.98598033 -3.1813555 -0.10503508 -0.4299188 -0.50901264
-0.28636593 -0.57144743 -0.25710198 0.24143468 0.24293984 -0.04122021 -0.103811964 -0.28579244
1.1896285 0.45309246 -0.31548622 -1.0070006 0.24295813 -0.8208567 -1.5849262 1.8188583
-1.8385147 0.25155783 -0.5777437 0.17804681 -0.71564066 -1.4217283 -0.30552992 -0.14515875
0.14667055 -0.04840494 -0.10596155 -0.30157176 -0.23432179 -0.51589185 -0.26390612 -1.4639295
-1.1853899 0.15232432 -0.29451922 0.3902203 -0.17070356 -0.23260638 1.4493428 1.1463518
-0.33714622 -0.7248216 0.3554223 0.26161823 0.82295305 0.9392565 0.53294754 0.58067673
-0.28690633 -0.23000234 -0.18663916 -0.38293394 -1.1294445 0.57794994 -0.21437156 -1.969908
0.41846684 -0.35297328 0.13359714 -0.016426202 1.56608 0.0049604094 -0.6838292 0.48268116
0.56461126 -2.8000474 -0.15174092 0.1301687 -0.37743476 -0.059189223 0.24361831 -0.15868017
00000000: 288a 0abf 4f91 b53d 9ffa 253f ec51 86bf
00000010: ee83 34bf 0300 7c3f 131d e6bb eb76 d9bd
00000020: 8e53 5ebf bb30 31bf 3096 d7bf 1233 993e
00000030: fcc7 903e d51b 5abf 23e2 13c0 a3bd c8bf
00000040: f94f 5f3f 6457 c0bf c2af c6be 1615 41c0
00000050: 7cc1 bebf 247b 303f 531a f9bd 986f fbbf
00000060: 92da d3bf 473c 16c0 e68c b2bf dd7b 28bf
00000070: ea22 1bbe 3972 fc3d 8312 0f3e ddef 83be
00000080: 0970 09bf c9b9 bdbf 724f 35bf a8f5 cbbf
00000090: 135e 1abc 21da babf 199b 21be 1032 82bf
000000a0: 470d e3bd 37f3 d23e 82f0 993d e686 57be
000000b0: 2d8b 0fbe 9584 7c3c db6d c3bf 3fe8 0440
000000c0: af89 3dbe 263b 63bf 60ff 483f 88f2 a0be
000000d0: 3de9 68be 9ba6 8cbe 86da a1bf 993a b6bf
000000e0: ad40 b43d 6606 50bf 9bfd 583c 1611 8cbe
000000f0: 8e80 653d 39e9 62bc b2c0 47be c31e 19bf
00000100: fcf1 b73d 6ebf efbd 2144 f9be 318b 30bf
00000110: 6cb3 1fbd 5dad 863f d0d5 64bf 6229 403e
00000120: ad8d b53e 0b95 d4be 6164 10bf 9029 2dbf
00000130: 7ad2 b63d 626d 0dbd 40ad 883d 1230 3fbf
00000140: d0c4 22be 844b c03d 489d 3a3d 4841 543f
00000150: fdfd d6bf e3b5 5e3d 3172 043f b4fb 3ebe
00000160: c86b 09bf 0b49 5e3e 457d 44be 5e8d 52be
00000170: 8f3b c53e 392f b4be 413a 37bf 811e b13e
00000180: 3adb 0f3d 6c10 8bbe 4cb9 973e ded8 43bf
00000190: 3e65 de3d 3568 38be afde 51bd 92a6 21bf
000001a0: fe2f 86be 4bd9 28be 9ad7 2b3f bb14 e9be
000001b0: ccf9 253e 5c97 a4bf 380e bdbf 02cf c1bf
000001c0: 2fc8 ad3f 3bf7 563e aa2d 4f3e 626b 563f
000001d0: e84a 77bd f271 1b3f 5149 94bf 491e f0be
000001e0: dce9 3e3e 4184 5b3f 8d55 91be bfa9 7fc0
000001f0: 4a8d 91bf f561 22bf d493 3c3d acd6 c9ba
00000200: 57ab e63e 43fd f8be 7d3d b5be 2058 633e
00000210: 82c9 bb3d 4f14 a93d 7f7b 43c0 b492 9e3e
00000220: 3c01 4cbf eedf f53e c9c1 16be 7a3b 82bc
00000230: 5624 4fbf 603b a53f fa7d 363e 7967 25c0
00000240: 5777 43bf 6270 25be ef74 1c3f aca3 1d3d
00000250: 1261 a13f 277b fcbc 3df2 7c3e 5a49 4ebe
00000260: 2891 b7be 336e acbe 13ae 9ebf 2785 423e
00000270: acc2 593e b766 a3be bc0c bbbe 3842 8c3e
00000280: 85af f13d c7ae 4b3d 4ea8 9d3e f1ad 5abd
00000290: 10bc 473f 7d60 933e 1965 dc3f 6b1d 363e
000002a0: 9c5d 84bf a355 613d 50f3 a3be 3327 f6bf
000002b0: a877 a03e 655b c8be 940a f33d f91c dc3f
000002c0: 7193 98bd 1044 d0be 1271 bdbd 3569 7cbf
000002d0: 549b 4bc0 a21c d7bd 511e dcbe a74e 02bf
000002e0: 8e9e 92be 614a 12bf dfa2 83be a73a 773e
000002f0: 39c5 783e 86d6 28bd 5e9b d4bd 6353 92be
00000300: bf45 983f bcfb e73e 6987 a1be 65e5 80bf
00000310: 04ca 783e aa23 52bf ddde cabf 59d0 e83f
00000320: 7354 ebbf 30cc 803e 03e7 13bf e751 363e
00000330: 3a34 37bf 31fb b5bf 6b6e 9cbe 7fa4 14be
00000340: ce30 163e 4244 46bd 5e02 d9bd 9d67 9abe
00000350: 0df2 6fbe 7d11 04bf b41e 87be 0b62 bbbf
00000360: dbba 97bf e8fa 1b3e 39cb 96be f5ca c73e
00000370: eacc 2ebe 5e30 6ebe 1184 b93f a8bb 923f
00000380: 6e9e acbe e98d 39bf e9f9 b53e d3f2 853e
00000390: 0dad 523f 1d73 703f 406f 083f 3ba7 143f
000003a0: 63e5 92be bc85 6bbe 561e 3fbe eb0f c4be
000003b0: a391 90bf 87f4 133f 3884 5bbe f225 fcbf
000003c0: 4941 d63e eab8 b4be b0cd 083e 3e90 86bc
000003d0: 4f75 c83f ee8a a23b 6e0f 2fbf fc21 f73e
000003e0: 5d8a 103f fa33 33c0 f961 1bbe f24a 053e
000003f0: 213f c1be 6670 72bd 1477 793e 0e7d 22be
