log/mujoco_td3_walker2d_v2_1/mujoco_td3_walker2d_v2_1_s1/pyt_save/model.pt (torch_old, 871757 bytes, 16 tensors)

weight f4 [256, 17]
0	0xbfc720e0	-1.5556908
1	0xbe04a86a	-0.1295487
2	0x40707b98	3.7575436
3	0xbe79a4d3	-0.24379282
4	0xc020f81b	-2.5151432
5	0x3fd8aa78	1.6927023
6	0xbf3fd901	-0.74940497
7	0xbeac89fc	-0.33699024
8	0xbebb3168	-0.3656113
9	0x3fe7ca07	1.8108529
10	0xbf803751	-1.0016881
11	0x3f10ce35	0.56564647
12	0x3eb49232	0.35267788
13	0xbe8ae50e	-0.2712788
14	0x3ef94403	0.486847
15	0x3f2c484b	0.6729781
16	0x3ee8cbe4	0.45468056
17	0xbff43aba	-1.9080422
18	0x40927e77	4.5779376
19	0x4000ec79	2.0144331
20	0x3f94682b	1.159429
21	0xbf02a6bd	-0.5103567
22	0x3ca03486	0.019556295
23	0x400d104b	2.2041194
24	0xbf0e987f	-0.5570144
25	0xbea483ee	-0.32131904
26	0x4037ef6f	2.8739889
27	0xbf349ee1	-0.7055493
28	0xbd999652	-0.074993744
29	0x3db094c4	0.08622125
30	0x3e1f998b	0.15585916
31	0xbe5df58f	-0.21675704
32	0x3f34e050	0.70654774
33	0x3e908a67	0.28230593
34	0xbfa8a24c	-1.3174529
35	0xbfcef956	-1.6169841
36	0x410502bb	8.313167
37	0xbfd8fcaa	-1.6952107
38	0x3f25cf77	0.6476969
39	0xbf9bda71	-1.2176038
40	0x3ed354d0	0.41275644
41	0x3fcb991c	1.59061
42	0xbf47f645	-0.7811015
43	0xbe2eaefe	-0.17058942
44	0x3c7db4f5	0.015485038
45	0x3f04d22a	0.51883185
46	0x3e167ddf	0.14696454
47	0xbcaa618a	-0.020798463
48	0xbe94b2f4	-0.2904278
49	0x3d07cd18	0.033154577
50	0x3d3a20be	0.04544138
51	0xc048a402	-3.1350102
52	0x3c1d55fd	0.009603021
53	0x401310e7	2.2979066
54	0x3fb3b8ac	1.4040732
55	0x3f2ee7a9	0.68322235
56	0xbf9090a2	-1.1294138
57	0x3f973168	1.1811953
58	0xbfcd9186	-1.6060035
59	0xbf9147e2	-1.1350062
60	0xbf7b27ec	-0.9810779
61	0x3f94efd4	1.163569
62	0x3e61d905	0.22055443
63	0xbee782f7	-0.45217106
64	0x3ca9d79e	0.020732697
65	0x3e6577d3	0.2240899
66	0x3dc4cab5	0.09608976
67	0x3ae8bd15	0.0017756546
68	0xc01bc166	-2.433679
69	0x407ab5f3	3.9173553
70	0xbfbd21cb	-1.4775938
71	0x3f106b84	0.56414056
72	0xc0981938	-4.7530785
73	0xbf2297c5	-0.6351283
74	0xbf25aa41	-0.6471291
75	0x3f2a65b2	0.66561425
76	0x3fa75637	1.3073186
77	0x3ecbaa6c	0.3977846
78	0x3d9531be	0.07284878
79	0xbeb146b8	-0.34624267
80	0xbc0186df	-0.007905691
81	0x3e93b8e6	0.28852004
82	0x3e231814	0.15927154
83	0x3de3fa72	0.11131753
84	0x3d8788d2	0.06617893
85	0xc016a587	-2.353853
86	0xbef07032	-0.46960598
87	0x3ff7316c	1.9311957
88	0x40cf264b	6.4734244
89	0x3cac37c0	0.021022677
90	0xbefd9b40	-0.4953251
91	0xbed3e903	-0.4138871
92	0x3f3c5f88	0.7358327
93	0x3e8a9da7	0.27073404
94	0xbfa1c978	-1.2639608
95	0x3e5cacfe	0.21550366
96	0xbeb11c1c	-0.34591758
97	0x3eb130d1	0.34607556
98	0xbe3a6129	-0.18201126
99	0xbf18cb0f	-0.5968484
100	0xbe266b85	-0.16251953
101	0xbd9ce854	-0.076615006
102	0xbff358af	-1.9011439
103	0x402855c4	2.6302347
104	0x3ebb4d15	0.36582246
105	0x3fbd7064	1.4799924
106	0x3d998527	0.074961
107	0xbf06c18b	-0.52639073
108	0x3eb41c09	0.3517764
109	0x3fad9a09	1.3562633
110	0xbf629b77	-0.8851847
111	0x3d90cc01	0.07070161
112	0xbe84b784	-0.2592126
113	0x3d2cc142	0.042176493
114	0x3e8929d8	0.26789737
115	0xbe913781	-0.2836266
116	0x3dc07aad	0.093983985
117	0x3b4aa257	0.0030919516
118	0xbd042027	-0.032257225
119	0xc0776c65	-3.8659909
120	0x409b33fa	4.850095
121	0x3f2b4073	0.66895217
122	0xbfa8bcbe	-1.31826
123	0x3ed7fb46	0.42183894
124	0xc017e63a	-2.373427
125	0xbf4255f7	-0.7591242
126	0xbe93607d	-0.28784552
127	0x3f028a04	0.50991845
128	0x3e5b7cdb	0.21434347
129	0x3f07fcef	0.5312032
130	0xbe434aee	-0.19071552
131	0xbe6d3daf	-0.23168062
132	0x3e0a6f2a	0.13518968
133	0xbea4cebf	-0.32188985
134	0xbde094a8	-0.10965854
135	0xbc225a7d	-0.009909269
136	0xbf6ac5f8	-0.91708326
137	0x400c0e14	2.1883593
138	0xc03221e1	-2.7833178
139	0xbf90ff10	-1.1327839
140	0xc0ad5fef	-5.4179606
141	0x3fb122d3	1.3838753
142	0xbf4b3b89	-0.7938772
143	0x3e489eaa	0.19591776
144	0xbdae8096	-0.085206196
145	0x3da5ed6c	0.08101925
146	0x3d92b3a7	0.07163172
147	0x3e8fc5f7	0.28080723
148	0x3e7bbc83	0.2458363
149	0xbdaadb88	-0.083426535
150	0xbd3227ab	-0.04349486
151	0x3d892b3c	0.066976994
152	0xbcaa197a	-0.020764101
153	0xbf0ef5a1	-0.5584355
154	0x404b2931	3.1743891
155	0xc0a13f82	-5.0390024
156	0xbf50ce2f	-0.8156461
157	0xbf03d8dc	-0.51502776
158	0x4066bff4	3.605466
159	0xbef35378	-0.4752462
160	0x3fd8d268	1.6939211
161	0x3ee3946c	0.44449174
162	0xbf4d7c49	-0.8026777
163	0x3e7903d3	0.24317865
164	0xbe13be69	-0.14428104
165	0xbe2a53aa	-0.16633478
166	0xbd9ab1c2	-0.07553436
167	0xbecf6332	-0.40505368
168	0x3d2dde25	0.04244818
169	0xbdf88db2	-0.12136401
170	0x40240730	2.5629387
171	0xc09111ac	-4.533407
172	0xbf72659b	-0.9468629
173	0x3e39ca9c	0.18143696
174	0x3e322780	0.1739788
175	0x40d4fb35	6.655665
176	0x4088aa08	4.270756
177	0x3f20a04c	0.62744594
178	0xbf6aa7ba	-0.9166218
179	0x3e5179c0	0.204566
180	0x3e64a94f	0.22330211
181	0xbc808c7c	-0.015691988
182	0xbd7e40d1	-0.062073532
183	0xbe670396	-0.22559962
184	0x3c875a82	0.01652265
185	0x3d5c10e5	0.05372705
186	0xbc0660c2	-0.00820178
187	0xbfa01733	-1.250708
188	0x3f92f401	1.1480714
189	0xbeff402d	-0.4985365
190	0x3f0d7fe2	0.5527326
191	0xbffbfc9c	-1.9686465
192	0xc0383d45	-2.8787396
193	0x40b7299b	5.723829
194	0x3f4ce156	0.80031335
195	0xbfc0644c	-1.5030608
196	0x3ecb61ee	0.39723152
197	0x3f8a2c45	1.079476
198	0xbec20d58	-0.37900805
199	0xbef6d3be	-0.4820842
200	0x3c157c00	0.009123802
201	0xbf0dfaf6	-0.5546106
202	0xbe7de3a1	-0.24793865
203	0xbdd8dbb0	-0.10588777
204	0xbf97a93a	-1.1848519
205	0xbd88be97	-0.06676977
206	0x40a4cf72	5.150323
207	0x3fc38221	1.5274087
208	0xbfc34964	-1.5256772
209	0x3fce2331	1.610449
210	0x3f32f7c6	0.6990932
211	0x3fa957d6	1.322993
212	0xbfdc0d6f	-1.71916
213	0x3fd70422	1.6798136
214	0x3f844cb8	1.0335913
215	0x3e9eca49	0.31013706
216	0x3d549a55	0.051904995
217	0xbe4880aa	-0.19580331
218	0x3dd2d8b3	0.10295238
219	0x3efdbfcb	0.4956039
220	0xbd87d44a	-0.06632288
221	0xbfba958c	-1.4576888
222	0xc03b63ea	-2.9279733
223	0xc020887f	-2.508331
224	0x4014a74e	2.3227115
225	0xbf16388d	-0.5868004
226	0x3f409408	0.7522588
227	0x40a7ea2f	5.247337
228	0x3fb1b36d	1.3882881
229	0xbee74811	-0.4517217
230	0xbf369eb3	-0.71335906
231	0xbf0ce4d6	-0.55036676
232	0x3e66525e	0.22492358
233	0x3da0d14c	0.0785242
234	0xbdb95742	-0.09049846
235	0xbf0a01af	-0.5390882
236	0x3e2c9f5c	0.16857666
237	0xbe56db69	-0.20982136
238	0xc03c75a3	-2.94468
239	0xbf98ca1f	-1.1936682
240	0xc05e588f	-3.4741552
241	0xbf78e3f0	-0.97222805
242	0xbf74730f	-0.95488065
243	0x40493d18	3.1443539
244	0xbe2047d2	-0.15652397
245	0xbf4bf27e	-0.7966689
246	0xbfd8078b	-1.6877302
247	0xbe9e70aa	-0.3094533
248	0xbeba0078	-0.36328483
249	0x3e272a23	0.16324668
250	0xbba7555c	-0.005106611
251	0x3ded1494	0.115761906
252	0x3f30afb1	0.69018084
253	0x3f0964f7	0.53669685
254	0x3e670c7f	0.2256336
255	0xc0340da7	-2.8133333

bias f4 [256]
0	0xbfd67502	-1.6754458
1	0xbfe7e428	-1.8116503
2	0xc0142d9b	-2.3152835
3	0xc0526a0f	-3.2877233
4	0xbfdbce2e	-1.7172296
5	0xbfb0ea11	-1.3821431
6	0xbffaf577	-1.960616
7	0x3fc71595	1.5553461
8	0xbf05ca65	-0.52261955
9	0xbf048ca5	-0.51777107
10	0x3fc37462	1.5269892
11	0xbfa97fc2	-1.3242114
12	0xbfcc712c	-1.5972037
13	0xbf532b47	-0.8248791
14	0xbffeacb7	-1.9896458
15	0xbf9de94a	-1.2336819
16	0x3fe3b3f5	1.7789294
17	0xc00dc808	-2.215334
18	0xbfbae606	-1.4601448
19	0xbfea715c	-1.8315845
20	0xbf8f891a	-1.1213715
21	0xbfaff9e6	-1.3748138
22	0xc0223696	-2.5345817
23	0xbf73accb	-0.95185536
24	0xbf2705b0	-0.65243053
25	0xbfaff0f8	-1.3745413
26	0xbff25327	-1.8931626
27	0xbfdb1042	-1.7114336
28	0xc0200895	-2.5005238
29	0xc0221b26	-2.532907
30	0xc01aa5f7	-2.4163797
31	0xc00626d5	-2.09612
32	0x3bf7c495	0.007561276
33	0xbf6ec870	-0.93274593
34	0xc0223dda	-2.5350251
35	0xc04f0e2d	-3.2352402
36	0x3f648bc1	0.8927575
37	0xbfc3262d	-1.5246025
38	0xc006bda5	-2.105325
39	0xc01039ad	-2.2535203
40	0xbff90a35	-1.945624
41	0xbed53ffb	-0.41650376
42	0xc06d904f	-3.711933
43	0xbfff859c	-1.9962649
44	0x3e4df713	0.20113783
45	0x3f585c42	0.84515774
46	0xbfae348b	-1.3609785
47	0xbec384ef	-0.38187358
48	0xbfc4b6ac	-1.5368247
49	0xbf87c80f	-1.0607928
50	0xc006650a	-2.099917
51	0xbff98ce8	-1.9496126
52	0xbfb0660d	-1.3781143
53	0xc00a3f1d	-2.1601021
54	0xc02df118	-2.7178402
55	0xbf288b3f	-0.6583747
56	0xbfb996d6	-1.4499156
57	0xc009c333	-2.152539
58	0x3f81530d	1.010347
59	0xbfe22f09	-1.7670604
60	0x3ec60029	0.38671997
61	0xc0111c86	-2.267366
62	0xbf86544e	-1.0494478
63	0xc001bee9	-2.0272772
64	0xc0185b82	-2.3805852
65	0xc00c2a2e	-2.1900744
66	0xc02ef3c2	-2.7336278
67	0xbffaa5e4	-1.9581876
68	0xbf4278af	-0.759654
69	0xbfaa5654	-1.3307595
70	0xbfc03466	-1.5015991
71	0xc0081262	-2.126122
72	0x3e9bf02a	0.30456668
73	0xbee1bff4	-0.4409176
74	0xbf9e40bb	-1.2363504
75	0xc01a2e9b	-2.4090946
76	0xc03d9a20	-2.962532
77	0xbf6c98a1	-0.92420393
78	0xbfc0889d	-1.5041691
79	0xc01b9407	-2.4309099
80	0xbe604272	-0.21900347
81	0x3f174f6d	0.5910557
82	0xc0277d0d	-2.6170075
83	0xbf50a85c	-0.81506896
84	0xc0891f61	-4.2850804
85	0xc02ff034	-2.7490358
86	0xc0074adb	-2.1139438
87	0xbff5e79e	-1.9211309
88	0xc035a358	-2.8380947
89	0x3fdbf7d0	1.7185001
90	0xbf31f25a	-0.69510424
91	0x3f450e31	0.7697478
92	0xc03a8c2b	-2.9148052
93	0xbf835645	-1.0260702
94	0xbfd901d2	-1.695368
95	0xc0287a78	-2.632475
96	0xbfa6d75c	-1.3034472
97	0xbf13e629	-0.5777307
98	0xc05c14e2	-3.4387746
99	0xbf6a9af5	-0.91642696
100	0xbfef9f8c	-1.8720565
101	0xbfbb3d43	-1.462807
102	0xbd9476d8	-0.0724923
103	0xbfd9da34	-1.7019715
104	0xbf78a602	-0.9712831
105	0xbfd82ac5	-1.6888052
106	0xc003d162	-2.0596547
107	0xbf9842cc	-1.1895385
108	0xbf5a9ffc	-0.85400367
109	0xbf141f7a	-0.5786053
110	0xc011515a	-2.2705903
111	0xc00aeced	-2.1707108
112	0xbff9676b	-1.9484686
113	0xc01b71d4	-2.4288225
114	0xbf3c4bff	-0.7355346
115	0xbeb9207d	-0.361576
116	0xbfe79f54	-1.8095498
117	0xc01e3070	-2.4717064
118	0xc0290d6a	-2.6414437
119	0xc0082991	-2.127537
120	0xc01b0329	-2.4220679
121	0xc000ebc0	-2.014389
122	0xc0403c53	-3.003682
123	0xbf81d9d2	-1.0144598
124	0xc00792c5	-2.118333
125	0xbfaedea8	-1.3661699
126	0xc013cb0c	-2.309268
127	0xc0086e74	-2.1317415
128	0xbfcf0851	-1.6174413
129	0xbfc70fb8	-1.5551672
130	0xbe11620f	-0.14197563
131	0xbf3f795a	-0.7479454
132	0xbf3bf403	-0.7341921
133	0xbf38dbbe	-0.722103
134	0xc02a5679	-2.6615279
135	0xbfe3ef84	-1.7807469
136	0xbfb4e869	-1.4133426
137	0x3f951c7c	1.1649318
138	0x404d4815	3.2075245
139	0xc01fabc5	-2.494859
140	0x3f12ebd7	0.57391113
141	0xc039514a	-2.8955865
142	0xc020af12	-2.5106854
143	0x3fac7fa5	1.3476454
144	0xbfd9e7f2	-1.7023909
145	0xbff8065f	-1.9376944
146	0xc0125fc3	-2.2870948
147	0xc01a3e23	-2.4100425
148	0xbfe0163d	-1.7506787
149	0xbe503a23	-0.20334677
150	0x3fbb99db	1.4656328
151	0xbff236ba	-1.8922951
152	0xbf2f085a	-0.6837212
153	0xc0301524	-2.7512903
154	0xbfc7e543	-1.561684
155	0xc014271c	-2.314887
156	0xbf87a250	-1.0596409
157	0xc005bbca	-2.0895867
158	0x3f962dba	1.1732705
159	0xbe1d7638	-0.15377128
160	0xbf91a69e	-1.1378973
161	0xc0194f4e	-2.3954654
162	0xc02855cd	-2.6302369
163	0x3f2c16d8	0.67222357
164	0xc00fb4ae	-2.2454028
165	0xc002fa29	-2.0465186
166	0xc001a7d0	-2.0258675
167	0xbfa89ae0	-1.3172264
168	0x3c949f6d	0.018142426
169	0xbfe12214	-1.7588525
170	0x3bb719a2	0.0055877725
171	0xbe5ab506	-0.21358117
172	0xc0080e8b	-2.1258876
173	0xbfd61115	-1.6723963
174	0xbfa2c62d	-1.2716728
175	0xbf8581bb	-1.0430216
176	0xbf7e749f	-0.993967
177	0xbef55d61	-0.47922805
178	0xbea81d1e	-0.32834715
179	0xc01becba	-2.4363236
180	0xbfd474f4	-1.6598191
181	0xc008198b	-2.126559
182	0xbf9ae955	-1.2102457
183	0xc00ff5ac	-2.2493696
184	0xc02960b8	-2.6465282
185	0xbf8fa07f	-1.1220855
186	0xc001bca5	-2.027139
187	0xc06ae7a4	-3.6703882
188	0xbfc9c0bf	-1.5761946
189	0xc038e03c	-2.8886862
190	0xbf34575d	-0.70445806
191	0xbfa10574	-1.2579789
192	0xc013f459	-2.3117888
193	0xbf0721b9	-0.5278583
194	0xbfd1f2e1	-1.6402246
195	0xc00523ea	-2.080317
196	0x3fa1032f	1.2579097
197	0xc00bfe48	-2.187395
198	0x3f9cb672	1.2243178
199	0xc009b0e5	-2.1514218
200	0xbfaec41a	-1.3653595
201	0xc01ce363	-2.4513786
202	0x3fe6bf3a	1.8027108
203	0xbfdf4d8b	-1.7445539
204	0x3dd4457c	0.103648156
205	0xc0427e28	-3.03895
206	0x3fd4cb9e	1.6624639
207	0xc00d7b38	-2.2106457
208	0xc0183717	-2.3783624
209	0xc01d0102	-2.4531865
210	0x3f4da98d	0.8033684
211	0xbdac5306	-0.08414273
212	0x3ce68567	0.028139783
213	0xc03d4db6	-2.957868
214	0xc005e570	-2.0921288
215	0xbfd6102f	-1.6723689
216	0x3ea47859	0.32123068
217	0xc04cd92e	-3.2007556
218	0xbf069c14	-0.52581906
219	0xbff70322	-1.9297831
220	0xc02095a4	-2.5091333
221	0xc0251e74	-2.5799837
222	0xbee53c13	-0.44772395
223	0xbefa847f	-0.48929211
224	0xc00ab1a4	-2.1670923
225	0xc00c9703	-2.196717
226	0xc01c4e43	-2.4422767
227	0xc021aede	-2.526298
228	0xbf9dd1fc	-1.2329707
229	0xbf977348	-1.1832056
230	0xc04f0f34	-3.235303
231	0xbfd1e749	-1.6398708
232	0xc0051f37	-2.0800302
233	0xbfd3f48e	-1.6559007
234	0xbffe1334	-1.984961
235	0xbfcfe6f1	-1.6242353
236	0xbf04d21c	-0.518831
237	0xbefffb04	-0.49996197
238	0x3ea7d81c	0.32782066
239	0xbfb35724	-1.4010968
240	0x3f9469cd	1.1594788
241	0xbfeb9fee	-1.8408182
242	0xbff1922b	-1.8872732
243	0xbd053909	-0.032525096
244	0xbfe2d0b1	-1.7719938
245	0xbedc4820	-0.43023777
246	0xbf71c191	-0.94435984
247	0xbf96e01f	-1.1787146
248	0xbeddf074	-0.43347514
249	0xc04450ef	-3.0674398
250	0xbf81504f	-1.0102633
251	0xc007d14a	-2.122149
252	0xbf8855f5	-1.0651232
253	0xbf8bcdd8	-1.0922194
254	0x3dca6c45	0.09883932
255	0xbf816cf4	-1.0111375

weight f4 [256, 256]
0	0x3fb96dec	1.448667
1	0xbfa87b28	-1.3162584
2	0x3e3c8ac3	0.18412308
3	0xbeb0417c	-0.3442496
4	0xbce7cc57	-0.028295679
5	0x3e96ede6	0.29478377
6	0x3e459468	0.19294894
7	0xbe4103d6	-0.1884912
8	0x3f6c51ca	0.923123
9	0x3ebd54bc	0.3697871
10	0x3f14883c	0.5802038
11	0xbfaa77cf	-1.3317813
12	0x3eaaf015	0.33386293
13	0xbf3cbc92	-0.73725235
14	0x3f84a1ac	1.0361838
15	0xbd154362	-0.036441214
16	0xbf1a7b52	-0.6034442
17	0x3f5efdd4	0.8710606
18	0x3f47e7c1	0.78088003
19	0xbeeaa1d3	-0.45826587
20	0x3ee2ee9a	0.44322664
21	0xbfd7ff5c	-1.6874804
22	0xbe3e2d7e	-0.18572041
23	0xbf729b8c	-0.94768596
24	0xbf99347c	-1.1969142
25	0x3f1b999c	0.60781264
26	0x3f5039da	0.81338274
27	0xbe8b5595	-0.2721373
28	0x3ed8a0c0	0.42310143
29	0x3f0db435	0.553531
30	0x3e0079b7	0.1254643
31	0x3ee2780f	0.44232222
32	0xbe938fac	-0.2882055
33	0xbe7df9e3	-0.24802355
34	0xbeaff646	-0.3436758
35	0xbefbedaa	-0.4920476
36	0xbc7096b3	-0.014684367
37	0xbf9b9277	-1.2154073
38	0xbe823a98	-0.25435328
39	0xbcd76f0f	-0.026298074
40	0x3f963cc4	1.1737294
41	0xbfb9fcf0	-1.4530315
42	0xbf483ded	-0.7821949
43	0xbfcd66a3	-1.6046947
44	0xbed32ee4	-0.41246712
45	0xc00c566f	-2.1927755
46	0x3e4eff5d	0.20214601
47	0xbf3291cd	-0.69753724
48	0xbebc3317	-0.36757728
49	0x3f80937d	1.004501
50	0x3fc77c2c	1.5584769
51	0x3c9ba800	0.019001007
52	0xbf0de33f	-0.55424875
53	0x3f9b46b2	1.213095
54	0xbe99fc75	-0.30075422
55	0x3f30c4b8	0.6905017
56	0x3fa8658c	1.315599
57	0x3efd5f0f	0.49486586
58	0xbf5fe45c	-0.87457824
59	0x3d61e95e	0.055154197
60	0xbeacb360	-0.33730602
61	0xbf501576	-0.81282747
62	0xbf530ff4	-0.8244622
63	0xbdb3547b	-0.08756348
64	0x3dc4df5c	0.09612915
65	0x3e8f6360	0.28005505
66	0xbbfd29b2	-0.0077259177
67	0xbe13f33e	-0.14448258
68	0x3c21bf14	0.009872217
69	0x3f72198b	0.94570225
70	0xbed058e6	-0.40692824
71	0x3f6badc3	0.92062014
72	0xbf224d82	-0.6339952
73	0xbf9a0230	-1.2031918
74	0xbf6c5cb5	-0.9232896
75	0x3edd984f	0.43280265
76	0x3ea39b75	0.31954542
77	0xbf65336c	-0.8953159
78	0xbe90a5c6	-0.28251475
79	0xbeebf193	-0.46082744
80	0xbfba4933	-1.4553589
81	0x3f4313cf	0.762021
82	0x3f047d8e	0.5175408
83	0xbd4f4c73	-0.050610017
84	0xbf1e6918	-0.6187911
85	0x3ea7d96f	0.32783076
86	0xbe8dbd64	-0.27683556
87	0xbfb725f6	-1.430846
88	0x3f3b5d57	0.731893
89	0xbf056d05	-0.52119476
90	0xbf59eea5	-0.8512977
91	0xbeec9810	-0.46209764
92	0xbf3b08f4	-0.73060536
93	0xbec34304	-0.38137066
94	0xbea58892	-0.32330757
95	0xbe24f1c4	-0.16107851
96	0x3f176456	0.59137475
97	0x3f8819e3	1.06329
98	0x3ec639b0	0.38715887
99	0x3f01aadd	0.5065134
100	0xbf0f8460	-0.56061363
101	0xc024e3cc	-2.5764036
102	0x3f82366d	1.017286
103	0x3ea9bdc9	0.33152607
104	0x3f1058d5	0.56385547
105	0xbed653dd	-0.41860858
106	0x3f04dc2e	0.5189847
107	0xbf789248	-0.9709821
108	0xbfa0911f	-1.2544287
109	0x3f24cf1b	0.6437852
110	0x3f0af4e3	0.5427992
111	0xbe84c569	-0.25931862
112	0x3ec67993	0.3876463
113	0xbf122022	-0.5708028
114	0xbe219e4c	-0.15783042
115	0x3f3b53ce	0.7317475
116	0xbf5315dc	-0.8245523
117	0x3f7f78ca	0.99793684
118	0x3c38cee5	0.011279796
119	0x3e389e9f	0.18029259
120	0x3f3a50a2	0.72779286
121	0xbf5cc9b7	-0.8624529
122	0x3e56e98a	0.20987526
123	0xbf879ce2	-1.0594752
124	0x3eebe2c4	0.46071446
125	0x3e2a3984	0.16623503
126	0x3eaf1424	0.34195054
127	0xbf46a55d	-0.77596074
128	0x3f1b2ac2	0.6061212
129	0x3da3db01	0.08000756
130	0xbff10d3f	-1.8832167
131	0xbfd1d54a	-1.6393216
132	0x3e53a455	0.20668156
133	0xbf545bdc	-0.82952666
134	0xbd3eca71	-0.046579782
135	0xbe4054a7	-0.18782292
136	0xbf690d99	-0.91036373
137	0xc00c556f	-2.1927145
138	0xbfb4a03b	-1.4111398
139	0x3e904cc7	0.28183576
140	0xbf586204	-0.8452456
141	0xbe8385dc	-0.25688064
142	0xbe986844	-0.29767048
143	0x3efe51ec	0.49671876
144	0x3bd023ee	0.0063519394
145	0x3eb183cf	0.34670874
146	0x3eb774e6	0.35831374
147	0x3f318b9b	0.69353646
148	0x3f7125c5	0.94198257
149	0xbf0649df	-0.5245647
150	0xbf53e696	-0.8277372
151	0x3f6f78d8	0.9354377
152	0x3c9a5da1	0.018843474
153	0x3f787fe1	0.9707013
154	0x3e20dc38	0.15709007
155	0x3f28a2ce	0.6587342
156	0xbfb82243	-1.4385456
157	0x3fb0c1f9	1.3809196
158	0xbf5329ce	-0.82485664
159	0x3f47440e	0.7783822
160	0x3f0d0240	0.5508156
161	0x3ca67561	0.020319642
162	0xbd277eef	-0.040892538
163	0x3e9c6321	0.3054438
164	0xbfc51b60	-1.5398979
165	0xbee38378	-0.4443624
166	0x3fda7b7e	1.7068937
167	0x3d24fcf4	0.040280297
168	0xbf65f4a0	-0.89826393
169	0xbf27f1f0	-0.6560354
170	0xbeb292e6	-0.348777
171	0xbf38287d	-0.7193678
172	0xbe2491cd	-0.16071244
173	0xbe762fd0	-0.24041677
174	0x3f53cb43	0.8273203
175	0x3e924c91	0.2857404
176	0x3df21952	0.11821236
177	0xbec3ebf7	-0.38265964
178	0xbe8d4603	-0.27592477
179	0xbd9679a7	-0.07347422
180	0x3f146624	0.57968354
181	0xbe1fefa9	-0.15618767
182	0xbf1749e1	-0.59097105
183	0x3f4a5882	0.790413
184	0xbedd9e57	-0.43284866
185	0x3eaa5985	0.33271423
186	0x3ed17fd4	0.40917838
187	0xbebb02a7	-0.3652546
188	0x3f9ac19c	1.2090335
189	0xbebad8ca	-0.36493522
190	0xbe8d1ca7	-0.27560923
191	0x3f8bf2d3	1.0933479
192	0xbfafdf6b	-1.3740057
193	0xbf3d4c74	-0.73944783
194	0x3f6bea80	0.92154694
195	0x3f7b508d	0.98169786
196	0xbfc9c661	-1.5763665
197	0x3e76d388	0.2410413
198	0xbeb273e7	-0.3485405
199	0xbf7ff869	-0.9998842
200	0x3f928044	1.1445394
201	0xbe82956d	-0.25504628
202	0xbf19bca8	-0.6005349
203	0x3e3fcd30	0.18730617
204	0xbe977f20	-0.29589176
205	0x3f8e62c5	1.1123892
206	0xbf504305	-0.81352264
207	0x3e70c746	0.23513517
208	0x3f3135f3	0.69222945
209	0x3ee69fec	0.45043886
210	0x3f84c486	1.0372474
211	0xbf0a1d20	-0.5395069
212	0xbe8a23aa	-0.26980335
213	0xbfa8796e	-1.3162057
214	0xbfd6cc0b	-1.6781019
215	0xbeb115fb	-0.34587082
216	0xbd6c97d4	-0.057761982
217	0xbe4ebe0a	-0.20189682
218	0x3df9f44d	0.122048
219	0x3fa102e8	1.2579012
220	0xbe4edb11	-0.20200755
221	0xbf18685d	-0.59534246
222	0xbf1ca91b	-0.61195534
223	0x3f8d9c7b	1.1063379
224	0xbdc135d2	-0.094340935
225	0xbe7cc7ab	-0.24685542
226	0xbe8c6302	-0.27419287
227	0x3f20cc14	0.628114
228	0x3f08d8bb	0.53455704
229	0xbeee6b3d	-0.4656619
230	0xbeebe602	-0.4607392
231	0xbff7c20e	-1.9356096
232	0x3f4522c1	0.77006155
233	0xbf91b390	-1.1382923
234	0xbec2ca1a	-0.38044816
235	0xbe6f927e	-0.23395726
236	0x3f8db775	1.1071612
237	0xbf5b1372	-0.85576546
238	0x3eccf09b	0.40027317
239	0xbd77104b	-0.060318273
240	0xbc6a57d3	-0.0143031655
241	0xbf7a3102	-0.9773103
242	0xbfd2f326	-1.6480453
243	0xbf85396a	-1.0408146
244	0xbce23cc0	-0.027616858
245	0xbdab7736	-0.08372347
246	0xbe357daa	-0.17723718
247	0xbf19a2a2	-0.6001378
248	0xbf8f6240	-1.1201859
249	0x3ea1bf7c	0.31591403
250	0xbf7e450f	-0.99324125
251	0xbeb4e296	-0.3532912
252	0x3c99e660	0.01878661
253	0xbed2d679	-0.41179255
254	0x3e203398	0.15644681
255	0xbd946551	-0.07245887

bias f4 [256]
0	0xbf69149e	-0.91047084
1	0xbe18ecdd	-0.14934106
2	0xbe8007a3	-0.25005826
3	0xbe8778e8	-0.26459432
4	0x3f2d37b3	0.67663115
5	0xbf3693a9	-0.7131906
6	0xbfa974dd	-1.3238789
7	0x3c672407	0.014107711
8	0xbeec75dd	-0.46183673
9	0xbd876579	-0.06611151
10	0xbfdeeac6	-1.7415397
11	0xbf4e0143	-0.80470675
12	0x3e96d2b6	0.29457635
13	0xbfbd1401	-1.477173
14	0x3f80f702	1.0075381
15	0xbdaa454d	-0.08313999
16	0xbd75f27a	-0.060045697
17	0xbfaa3833	-1.3298401
18	0xbf47d47b	-0.78058594
19	0xbd98d4b2	-0.074624434
20	0x3f113217	0.56717056
21	0xc009af29	-2.151316
22	0xbe2c3e79	-0.16820706
23	0xbd44283b	-0.04788993
24	0x3ebd7c96	0.37009114
25	0xbf114f38	-0.56761503
26	0xbfd53add	-1.6658589
27	0xbfd46220	-1.6592445
28	0xbfebfe57	-1.8436993
29	0x3e28719a	0.16449586
30	0xbdff6e1e	-0.12472175
31	0xc0069dd1	-2.1033823
32	0xbf999116	-1.1997402
33	0xbf60a50b	-0.87751836
34	0x3e3acbec	0.18241853
35	0xbda7683a	-0.081741765
36	0x3f5f4a53	0.87222785
37	0xbd73ee9d	-0.05955373
38	0x3e906d1e	0.2820825
39	0xbf32ca7a	-0.69840205
40	0xbfb46975	-1.4094683
41	0xbd867b28	-0.06566459
42	0xc02fcdd8	-2.7469387
43	0xb92efe45	-0.00016688656
44	0x3d8a2b39	0.06746525
45	0xbfe6f175	-1.8042437
46	0xc007894a	-2.1177545
47	0xbf869300	-1.0513611
48	0xbfcb8887	-1.590104
49	0xbd95c5ca	-0.07313116
50	0x3e04e3f7	0.12977587
51	0xbff07295	-1.8784968
52	0xbfd18ddc	-1.6371417
53	0xbef3a785	-0.47588745
54	0xbd41a958	-0.04728064
55	0xbfa09539	-1.2545539
56	0xbd901e5f	-0.07037043
57	0xbe632b04	-0.22184378
58	0xbf93e162	-1.1553156
59	0xbdb0aa20	-0.08626199
60	0x3e595549	0.2122394
61	0xbce9cd4f	-0.028540282
62	0xbdd71b9b	-0.10503312
63	0xbed54c50	-0.41659784
64	0xbeef1081	-0.4669228
65	0xc031a109	-2.7754538
66	0xbff690aa	-1.9262898
67	0xbe806373	-0.25075874
68	0xbf86bf6a	-1.0527165
69	0xbde72dcd	-0.11288033
70	0xbf8a3211	-1.0796529
71	0xbfab323f	-1.3374709
72	0xbe0cdb4f	-0.13755535
73	0xbd8fc434	-0.07019845
74	0xbfa48774	-1.2853837
75	0xbf90ae59	-1.1303207
76	0x3f525186	0.82155645
77	0xbfe174f7	-1.761382
78	0xbfa9f397	-1.3277463
79	0xbf4834df	-0.78205675
80	0xbf624f67	-0.8840241
81	0xbf3c3829	-0.73523194
82	0xbe9b7d61	-0.30369094
83	0xbf20811a	-0.62696993
84	0xbf2ceb7b	-0.67546815
85	0xbe259d34	-0.1617325
86	0xbf7d890b	-0.99037236
87	0xc01b126d	-2.4229996
88	0xbe755b2b	-0.23960559
89	0xbf7e35e8	-0.99301004
90	0xbfefe2ee	-1.8741128
91	0xbede799c	-0.43452156
92	0x3fd54e62	1.6664546
93	0x3f682cae	0.90693176
94	0xbd8f537e	-0.06998347
95	0xbdb444d7	-0.08802193
96	0xbd2de53c	-0.042454943
97	0xbea95832	-0.330751
98	0xbf8ecc15	-1.1156031
99	0x3ead9299	0.33900908
100	0xc00f0245	-2.2345135
101	0xbdcb54b2	-0.09928264
102	0xbf6dc54a	-0.92879164
103	0x3f0ad7c0	0.5423546
104	0xbeaa5c77	-0.3327367
105	0xbd6d25c3	-0.05789734
106	0xbd4ee198	-0.05050811
107	0xbf7c6917	-0.98597854
108	0xbfdb6279	-1.7139426
109	0xbd85a292	-0.065251485
110	0x3eb10418	0.34573436
111	0xbeaf3812	-0.34222466
112	0x3ef7ea15	0.48420778
113	0xbff4cd1f	-1.9125098
114	0xbf07fdc6	-0.531216
115	0xbdaade4b	-0.0834318
116	0xbe925881	-0.28583148
117	0xbf03765d	-0.51352483
118	0xbff90e9d	-1.9457585
119	0xbf9b686e	-1.2141244
120	0x3e8cb7fc	0.2748412
121	0x3e74e04e	0.2391369
122	0xbe34caec	-0.17655534
123	0xbf823119	-1.0171233
124	0xbfb92cdf	-1.4466819
125	0x3f4fd062	0.8117734
126	0xbe12de0a	-0.14342514
127	0xbec4fb9e	-0.3847322
128	0x3fbde97f	1.4836882
129	0xbfd73b39	-1.6814948
130	0xc01bc921	-2.434151
131	0xbcd13c48	-0.02554144
132	0xbdb2bc00	-0.087272644
133	0x3f24f85c	0.64441466
134	0xbdc709b9	-0.09718651
135	0x3f8f924d	1.1216522
136	0xbd24db86	-0.040248416
137	0x3ebddc15	0.37081972
138	0x3eda411f	0.42627808
139	0xbd1f0b8c	-0.03882937
140	0xbf47ee39	-0.78097874
141	0xbee36c6b	-0.44418654
142	0xbe84ed44	-0.2596227
143	0xbf420d43	-0.75801486
144	0x3c88ae86	0.016684782
145	0x3f451a7f	0.76993555
146	0x3f87eee3	1.0619777
147	0xbd8ba4db	-0.06818553
148	0x3eb5cefb	0.35509476
149	0xbf103bd9	-0.5634132
150	0x3df73a26	0.12071638
151	0xbdbdd28b	-0.092686735
152	0xbfce7c14	-1.6131616
153	0xbde0b985	-0.10972885
154	0xbf6716ff	-0.90269464
155	0xbe510b9a	-0.20414582
156	0xbe291173	-0.16510563
157	0xbd8f4c08	-0.06996924
158	0xbd53a8c3	-0.051674616
159	0xbfdac813	-1.7092308
160	0x3f1b4492	0.60651505
161	0xbf56d863	-0.8392393
162	0xbed0cc9d	-0.40781108
163	0xbe0f315b	-0.13983671
164	0x3eb836b6	0.3597924
165	0xbed16211	-0.4089513
166	0x3fe92f27	1.8217515
167	0x3f0b6dd2	0.5446445
168	0xbd920295	-0.07129399
169	0x3f87244e	1.0557954
170	0xbdbec369	-0.09314615
171	0xbf9539e9	-1.1658298
172	0x3cf37b10	0.029721767
173	0xbe2b0bad	-0.16703673
174	0xbcc12a0a	-0.023579616
175	0xbdf7bf57	-0.12097042
176	0xbe1b3222	-0.15155843
177	0xbf5fd948	-0.8744092
178	0xbe159774	-0.14608556
179	0xbfb51e1e	-1.4149816
180	0x3f618f6a	0.8810946
181	0xbce16cb5	-0.027517656
182	0xbe6ec4be	-0.23317239
183	0xbdd892a1	-0.10574842
184	0xbf037819	-0.5135513
185	0xbfca3ecf	-1.5800418
186	0xbef316af	-0.47478244
187	0xbeac0f46	-0.33605403
188	0xbf2370e0	-0.6384411
189	0xbc0bb7e4	-0.00852773
190	0xbfeb539e	-1.8384893
191	0xc0252bea	-2.5808053
192	0xbf2cabef	-0.6744985
193	0xbfb6b7ed	-1.427488
194	0xbf87c952	-1.0608313
195	0x3f38e2fd	0.72221357
196	0x3ff809dc	1.9378009
197	0xbe0b0fa5	-0.13580187
198	0xbff6d90c	-1.9284987
199	0xbe3795bd	-0.17928214
200	0xbe209c76	-0.15684685
201	0x3e29f992	0.1659911
202	0x3dc93920	0.09825349
203	0xbfb2d30e	-1.3970659
204	0xbffe9f9d	-1.989246
205	0xbf6abb2c	-0.9169185
206	0xbf81c6eb	-1.013883
207	0xbd6af3d5	-0.057361443
208	0xbf771bfa	-0.96527064
209	0xbe8d4fdc	-0.2759999
210	0xbdcc1e23	-0.099666856
211	0xbf977dc6	-1.1835258
212	0xbf1b9c1c	-0.6078508
213	0xbec0ed3c	-0.37680995
214	0xc00203f8	-2.0314922
215	0xbdddda0a	-0.10832603
216	0xbda5e15f	-0.08099627
217	0x3cfbf5d5	0.03075687
218	0xbcaf5150	-0.021401078
219	0x3f19eceb	0.60127133
220	0xbdb12926	-0.086504266
221	0xbf6bae1c	-0.92062545
222	0x3e2f76a7	0.17135106
223	0xbd08d2fe	-0.033404343
224	0xbe822f9b	-0.25426945
225	0xc01d988d	-2.462436
226	0xbe668a51	-0.22513701
227	0xbd98e93c	-0.07466361
228	0xbce361b3	-0.027756548
229	0xbf83a159	-1.0283614
230	0x3e2a69a3	0.1664186
231	0xbe001e10	-0.12511468
232	0xbdbad3a7	-0.09122401
233	0xbd94debe	-0.07269047
234	0xbf6a9ad6	-0.9164251
235	0xbeaa4257	-0.33253738
236	0xbdfe0301	-0.12402917
237	0xbd8cb005	-0.068695106
238	0x3e7d2e92	0.24724796
239	0x3f0c4a33	0.5480072
240	0xbe168ac8	-0.14701378
241	0xbfbac7ce	-1.4592226
242	0xbdd01509	-0.10160262
243	0x3e41a2af	0.18909715
244	0xbe066284	-0.13123518
245	0xbe890881	-0.267643
246	0xbcec6037	-0.028854473
247	0xbdce2922	-0.10066439
248	0x3f34e6c0	0.70664597
249	0xbdf4bd8c	-0.11950216
250	0x3e25bb57	0.16184746
251	0x3e9ea653	0.3098627
252	0xbe35aae7	-0.17740975
253	0xbdb3a6d4	-0.08772054
254	0xbf12a8d7	-0.5728888
255	0xbecd9608	-0.40153527

weight f4 [6, 256]
0	0x3f1cefb6	0.6130327
1	0x3c8c62ec	0.017137013
2	0xbcf6fa9b	-0.030148795
3	0x3cb73407	0.022363676
4	0xbda4e24c	-0.08050975
5	0xbf65f76c	-0.8983066
6	0x3c159191	0.009128944
7	0xbe2d60ab	-0.16931407
8	0xbd7751b4	-0.060380653
9	0xbd2848ce	-0.041085057
10	0x3dd03782	0.10166837
11	0xbdd2cd61	-0.10293079
12	0x3de9c243	0.114140056
13	0x3f2b676e	0.66954696
14	0x3e0a4135	0.13501437
15	0xbd159cf8	-0.03652665
16	0x3d43322d	0.047655273
17	0x3c92bf7d	0.017913574
18	0x3f4c461e	0.7979449
19	0xbc09d7ff	-0.008413314
20	0x3dd6ec81	0.10494328
21	0x3f004542	0.5010568
22	0x3d3115bc	0.04323362
23	0x3cc34a69	0.023839192
24	0x3ea5cbbc	0.32382
25	0xbdda1732	-0.106489554
26	0xbda150af	-0.07876717
27	0xbed95bc0	-0.42452812
28	0xbf58578f	-0.84508604
29	0xbe129094	-0.14312965
30	0x3cf39dd9	0.029738354
31	0x3ea2a4db	0.317664
32	0xbc21b1a7	-0.009869016
33	0x3e0e3e64	0.13890988
34	0x3f6fd4d3	0.9368412
35	0x3d1f5529	0.038899574
36	0xbbfa3caf	-0.0076366286
37	0x3e4afd99	0.19823302
38	0xbd6ad65e	-0.057333343
39	0xbe7e60e4	-0.24841648
40	0x3e5d4107	0.21606837
41	0x3d43ee68	0.047834784
42	0xbd5773ca	-0.05260066
43	0xbb42e635	-0.0029739265
44	0x3e9fd981	0.3122063
45	0x3e09e6c2	0.13466933
46	0x3d95527d	0.07291124
47	0x3dbab2b8	0.09116119
48	0x3e918138	0.284189
49	0xbcc4a256	-0.024003189
50	0x3c1fb927	0.009748734
51	0x3e31b457	0.1735395
52	0xbf3143ad	-0.6924389
53	0x3ea649a3	0.32478055
54	0x3c92df7a	0.017928828
55	0x3ecbd150	0.3980813
56	0xbd0c3c49	-0.03423718
57	0x3dfc455f	0.12317919
58	0x3f3e2a19	0.74282986
59	0xbcb708ad	-0.022343004
60	0xbdbc28ae	-0.091874465
61	0x3d165a34	0.03670712
62	0x3d0bde5c	0.034147605
63	0x3d39f598	0.045400232
64	0x3e943395	0.28945604
65	0xbce23e76	-0.027617674
66	0x3f3ab31c	0.7292955
67	0x3f9a343e	1.2047193
68	0xbe1b33ba	-0.15156451
69	0xbc86fdab	-0.01647838
70	0x3f805e85	1.0028845
71	0x3d595edc	0.05306898
72	0x3d0713d3	0.03297789
73	0x3cedbf1b	0.02902179
74	0xbcd48f9b	-0.025947383
75	0x40181814	2.3764696
76	0x3e71a49a	0.23597947
77	0x3d433c79	0.047665093
78	0x3c11b057	0.00889214
79	0x3d548b41	0.051890615
80	0xbef5411f	-0.47901246
81	0xbf03d4d4	-0.51496625
82	0x3e361d50	0.1778462
83	0xbf0f8611	-0.56063944
84	0x3ca90785	0.020633468
85	0x3ccffd07	0.025389208
86	0x3d27741c	0.040882215
87	0xbf051241	-0.5198098
88	0x3d266215	0.040620882
89	0x3eb298bc	0.34882152
90	0x3fbea2f7	1.4893483
91	0x3d852911	0.065019734
92	0xbc321525	-0.010869299
93	0x3ec83359	0.39101675
94	0xbcef1e6c	-0.029189311
95	0xbd87876f	-0.06617629
96	0xb9a543e7	-0.00031521844
97	0x3e555eba	0.20836917
98	0xbe5343b3	-0.20631294
99	0x3d7df4fe	0.06200122
100	0xbe8f6f8c	-0.2801479
101	0x3db93167	0.09042626
102	0xbe8bb458	-0.2728603
103	0x3a19c743	0.0005866179
104	0x3eb037a5	0.34417453
105	0x3c344643	0.01100308
106	0x3b55b5e9	0.0032609648
107	0x3dba6237	0.09100764
108	0x3f33aa63	0.70181865
109	0x3d34d914	0.044152334
110	0x3e250c8b	0.16118066
111	0xbd2aa2d0	-0.041659176
112	0x3e5e706c	0.21722573
113	0x3eee0480	0.46487808
114	0x3db5dd33	0.08880081
115	0xbccc8a13	-0.024968183
116	0xbdb1cd4f	-0.08681738
117	0x3f7edd15	0.99556094
118	0x3e2e6047	0.17028914
119	0xbdea4252	-0.11438431
120	0xbf5da28f	-0.8657617
121	0xbdec1a99	-0.115285106
122	0xbe4968a3	-0.19668822
123	0x3d959c82	0.07305242
124	0x3ca888f9	0.020573126
125	0x3de544e2	0.11194779
126	0x3d8a7e0c	0.06762323
127	0xbe1fcbfb	-0.15605156
128	0x3df69d86	0.12041764
129	0x3d05d3e7	0.03267279
130	0xbee7d9e0	-0.45283413
131	0xbd0d0216	-0.034425817
132	0xbc962904	-0.018330105
133	0x3e938c6a	0.28818065
134	0x3cbc4a80	0.022984743
135	0xbe05e286	-0.13074693
136	0x3bc35f96	0.0059623225
137	0x3ebadc74	0.36496317
138	0xbee7f959	-0.45307425
139	0xbda63cf7	-0.08117097
140	0x3ead7597	0.33878776
141	0xbf055400	-0.520813
142	0x3cdea81f	0.027179776
143	0x3d2798ef	0.040917333
144	0x3c9fdb53	0.019513762
145	0x3db83bd3	0.089957856
146	0xbe0328c2	-0.12808517
147	0xbd7c8854	-0.06165345
148	0x3eb8b7e7	0.36077806
149	0x3ee045f5	0.43803373
150	0xbeea5c1d	-0.45773402
151	0xbc2e1232	-0.010624455
152	0x3ef9ca3f	0.48787114
153	0xbb2e47f8	-0.002659319
154	0x3d33cc54	0.043896034
155	0x3c6943ae	0.0142373275
156	0xbbdb5275	-0.0066931793
157	0x3dd07c73	0.10179987
158	0xbd0206ce	-0.03174477
159	0xbddd1079	-0.107941575
160	0xbd967bc5	-0.07347826
161	0xbe96146b	-0.29312453
162	0x3d01b143	0.03166319
163	0x3dd88f75	0.10574237
164	0xb9e31171	-0.0004330981
165	0xbeebc479	-0.46048334
166	0x3d956289	0.07294185
167	0x3c6a2744	0.014291588
168	0xbda4e839	-0.080521055
169	0xbcb165d1	-0.021654995
170	0x3d5bf43e	0.053699724
171	0x3d75749e	0.059925668
172	0x3dc937f3	0.098251246
173	0xbf538f80	-0.8264084
174	0xbcd87801	-0.02642441
175	0xbd820b10	-0.06349766
176	0x3d0647c0	0.03278327
177	0x3d529a19	0.05141649
178	0x3d6788a7	0.056526806
179	0xbef29865	-0.47381893
180	0xbefd9197	-0.4952514
181	0x3c220409	0.009888657
182	0x3f36f917	0.7147383
183	0x3d0e61fe	0.03476142
184	0x3d3bc3ec	0.045841143
185	0xbe41e4f4	-0.18934995
186	0x3eec5556	0.46158856
187	0x3d52360d	0.051321078
188	0x3e55525b	0.20832197
189	0xbbdbb465	-0.0067048543
190	0x3e81fb9a	0.2538727
191	0xbe45408a	-0.19262901
192	0xbf13064c	-0.57431483
193	0xbf7709b8	-0.96499205
194	0xbdff72e3	-0.12473085
195	0xbc9fca4f	-0.019505648
196	0x3c4608be	0.012087045
197	0xbd42e3e8	-0.04758063
198	0x3e5a317c	0.2130794
199	0x3da0bce7	0.0784853
200	0x3c56e9ec	0.013117295
201	0x3c38716d	0.011257512
202	0xbe7786e8	-0.24172556
203	0x3e853ebd	0.26024428
204	0x3d292055	0.0412906
205	0xbc14353f	-0.009045898
206	0xbd273345	-0.04082038
207	0x3d417785	0.047233123
208	0x3f3fe5d1	0.74960047
209	0x3cd7f391	0.026361259
210	0xbc0c1f36	-0.008552363
211	0xbf22fe0e	-0.63668907
212	0x4013a1dc	2.306754
213	0xbeaa5e21	-0.3327494
214	0x3e90a052	0.28247315
215	0xbdcec1b0	-0.10095537
216	0xbc2c1df6	-0.01050519
217	0xbd5d7035	-0.054062087
218	0x3d4686d6	0.048468433
219	0x3d5550c2	0.05207897
220	0x3bb41584	0.005495729
221	0x3f97b5c2	1.1852343
222	0x3d8bbecc	0.06823501
223	0x3cb3a3fc	0.02192878
224	0x3f4664ea	0.7749773
225	0x3f0bb454	0.54572034
226	0x3d22638a	0.03964571
227	0xbd4333ad	-0.047656704
228	0xbc6af55e	-0.014340727
229	0x3d9d9276	0.07693951
230	0x3de154ff	0.1100254
231	0x3d6c876a	0.05774633
232	0xbc467ea7	-0.012115157
233	0xbcae5f28	-0.021285608
234	0xbeb33191	-0.34998754
235	0xbe4a983a	-0.19784632
236	0x3e9de4f6	0.30838746
237	0x3da12e29	0.078701325
238	0x3d2b99e3	0.041894805
239	0x3d99dd9c	0.07512972
240	0x3c981394	0.018564023
241	0x3f144696	0.57920206
242	0xbd45cb1b	-0.0482894
243	0x3e172086	0.147585
244	0xbd572341	-0.052523855
245	0x3e2c6d46	0.1683856
246	0xbd1bf333	-0.03807373
247	0x3def0a71	0.116719134
248	0x3d647e0a	0.055784263
249	0x3cbec0b8	0.023285255
250	0xbe572d9f	-0.21013497
251	0xbc55cdce	-0.013049556
252	0x3e63a932	0.22232512
253	0xbd02ab19	-0.031901453
254	0xbe53126c	-0.20612496
255	0x3d6ddc43	0.058071386

bias f4 [6]
0	0x3eb4cb48	0.3531134
1	0x3d2f14c6	0.04274442
2	0x3f23f563	0.64046305
3	0x3eeb45a8	0.4595158
4	0x3ee8a4ea	0.4543832
5	0xbf126a21	-0.5719319

weight f4 [256, 23]
0	0x3fce76be	1.6129987
1	0x406de51b	3.7171085
2	0x406184f7	3.5237405
3	0x4046fa07	3.1090105
4	0xbfc3a920	-1.5285988
5	0xbeea3565	-0.45743862
6	0xbfa2fb3d	-1.2732922
7	0xbfa7cb61	-1.3108941
8	0xbf5784db	-0.84187096
9	0x401c9527	2.4466035
10	0xbed4c60c	-0.41557348
11	0xbe0b5c2b	-0.13609378
12	0xbcd3a955	-0.02583758
13	0xbe30d659	-0.17269267
14	0x3f4eb4ee	0.80744827
15	0xbbb8690f	-0.0056277583
16	0xbe4f8c80	-0.2026844
17	0xbfdff233	-1.7495788
18	0x3f28cf49	0.6594129
19	0xbe3477f8	-0.1762389
20	0xbf383fa1	-0.7197209
21	0x3e97f6da	0.2968052
22	0xbf231aaf	-0.6371259
23	0xc044bb78	-3.0739422
24	0xc02420a4	-2.5644922
25	0xc04abf68	-3.1679325
26	0x40dcffcd	6.9062257
27	0x3ffe04bd	1.9845196
28	0x401429b1	2.3150446
29	0x3ff87538	1.9410772
30	0x40444597	3.0667474
31	0xbfe584be	-1.7931135
32	0x3f58c47f	0.8467483
33	0x3e1fcaab	0.15604655
34	0xbe1da552	-0.15395096
35	0x3e798cd7	0.24370132
36	0xbef78398	-0.48342586
37	0x3e6eee3b	0.23333065
38	0x3e2dd9ae	0.1697757
39	0x3f12eaff	0.57389826
40	0xbe87f690	-0.265553
41	0x3ffb4f4d	1.9633576
42	0x3ee1c3e0	0.44094753
43	0x3f3687d4	0.7130101
44	0xbd2e439a	-0.04254494
45	0x3f0360ef	0.51319784
46	0xbf303ec0	-0.6884575
47	0x404ae5d1	3.1702769
48	0xc035f399	-2.842993
49	0x40e1a32a	7.0511675
50	0xc06bacf2	-3.6824307
51	0x3feb5c9b	1.8387636
52	0x402e67cf	2.725086
53	0x3edb3e78	0.42821097
54	0x3f891518	1.0709562
55	0x3f62b5e2	0.8855878
56	0x3d9d1416	0.07669847
57	0x3ea1d2ba	0.31606084
58	0x3f29e184	0.66359735
59	0x3e800528	0.25003934
60	0xbf26483a	-0.6495396
61	0x3d7802e8	0.060549647
62	0xbebcd9d6	-0.36884946
63	0xbfed4d82	-1.8539279
64	0x3f8c9a3b	1.0984567
65	0x3f0a99ef	0.54141134
66	0xbedf384e	-0.43597645
67	0xbea3e4cf	-0.32010505
68	0x3f49486b	0.78626126
69	0x3fae748e	1.362932
70	0x3f9b3bb1	1.2127591
71	0x408f91e3	4.4865584
72	0xbf98d8d3	-1.194117
73	0xc022967d	-2.540435
74	0x3fa6e0fe	1.3037412
75	0xbb0cf01d	-0.0021505423
76	0x4038a197	2.8848627
77	0x3e4ed1b1	0.20197178
78	0xbeb7059a	-0.3574646
79	0x3f13daf0	0.5775595
80	0x3ea3ecd9	0.32016638
81	0x3e390081	0.18066598
82	0x3ebf3c56	0.3735072
83	0x3bb6271f	0.005558863
84	0x3de929e4	0.11384943
85	0x3e79c6c7	0.24392234
86	0x3f0deaa8	0.5543618
87	0xbe3513be	-0.17683312
88	0x3f5d25cf	0.86385816
89	0xbf0cdc3d	-0.55023557
90	0xbdf2ba06	-0.118518874
91	0x3e07b199	0.13251342
92	0xc00e7db7	-2.226423
93	0x3fc41928	1.5320177
94	0xbd815024	-0.06314114
95	0x3d4ddfa0	0.050262094
96	0xbdff80f0	-0.12475765
97	0xbf05829e	-0.5215243
98	0x3f8b8092	1.0898612
99	0x3e944069	0.2895539
100	0xbf1c465e	-0.6104487
101	0x3e3d5ea0	0.18493128
102	0xbd8d1c7b	-0.06890198
103	0xbd5b2c19	-0.05350885
104	0x3dd8690a	0.105669096
105	0xbea63d9c	-0.3246888
106	0xbec013e7	-0.37515184
107	0x3ed22803	0.41046152
108	0x3fcaa039	1.5830146
109	0xbe5706be	-0.20998666
110	0x3fdf48a5	1.7444044
111	0x3f3cb56a	0.73714316
112	0x3f728571	0.94734865
113	0xbf0f38e0	-0.5594616
114	0x3d1d98c4	0.038475767
115	0xc04e9417	-3.2277887
116	0x40f77602	7.7331553
117	0x3e2d1b8d	0.16905041
118	0xbef803b8	-0.48440337
119	0xbe1b6f0c	-0.1517908
120	0xc0d478ab	-6.63973
121	0xc0951e0e	-4.659919
122	0xbfb1780d	-1.3864762
123	0x3e1875c2	0.14888671
124	0xbf9e8a1a	-1.2385895
125	0x3e702b8b	0.2345411
126	0x3bdc5825	0.006724375
127	0x3d2d9c1a	0.0423852
128	0xbcc8b804	-0.024501808
129	0xbdb81786	-0.08988862
130	0xbe091bb1	-0.1338947
131	0xbd562324	-0.052279606
132	0xbb2ad41e	-0.0026066373
133	0x3dcd964f	0.10038435
134	0x3dc5ea14	0.096637875
135	0x3d782bbd	0.060588587
136	0xbda27d68	-0.079340756
137	0xbd212b05	-0.039347667
138	0xc0a0c31c	-5.023817
139	0xc0221ac1	-2.532883
140	0xbfd66e8e	-1.6752489
141	0xbfb333a3	-1.4000133
142	0x3f9c677e	1.2219083
143	0xc00d7151	-2.2100413
144	0x3fde697d	1.7375942
145	0x402704a3	2.609658
146	0x3f1fdaef	0.6244344
147	0x400a4b38	2.160841
148	0x3f389127	0.72096485
149	0xbf282077	-0.6567454
150	0xbe8f9d7c	-0.2804984
151	0xbdf3154f	-0.11869299
152	0x3da5e99d	0.08101199
153	0xbd8a729f	-0.067601435
154	0x3e17533a	0.14777842
155	0xbf1bb43e	-0.608219
156	0xbe9c463c	-0.30522335
157	0xbe5be788	-0.21475041
158	0x3fc08ba7	1.5042619
159	0x3d97ffba	0.07421823
160	0x3f835c85	1.026261
161	0xc0801d87	-4.0036044
162	0x3ffd7941	1.9802629
163	0xbea58ee5	-0.32335582
164	0xbf7dc005	-0.99121124
165	0x3fbe871b	1.4884981
166	0xbfd1328d	-1.6343552
167	0x3fbf1c36	1.4930484
168	0x3fe4961e	1.7858312
169	0x3fdd47b0	1.7287502
170	0xbf53ff88	-0.82811785
171	0x3d2ad4eb	0.04170696
172	0x3ec04ff6	0.37561005
173	0x3ec3018e	0.38087124
174	0xbde8c328	-0.11365348
175	0xbf0bf824	-0.5467551
176	0xbe75031c	-0.23926967
177	0xbba86773	-0.0051392852
178	0x3e7e9255	0.24860509
179	0x3dc64c77	0.09682553
180	0xbe8e720f	-0.27821395
181	0xbe5d5d55	-0.21617635
182	0x3ea4cb52	0.3218637
183	0xbf1a00eb	-0.6015765
184	0xbfb05c76	-1.3778217
185	0xbe9e4b0f	-0.3091664
186	0xc0059b1b	-2.087592
187	0x402eb68b	2.7298915
188	0xbf7bf39a	-0.9841858
189	0x408cd34c	4.400793
190	0x3f8c1ef8	1.0946951
191	0xbfc23ecf	-1.5175418
192	0xc0191b14	-2.3922777
193	0x400a4649	2.1605399
194	0xbdf677a2	-0.12034537
195	0x3f292539	0.6607242
196	0xbdee32d8	-0.116307914
197	0xbdb25d53	-0.087092064
198	0x3eb9c2bf	0.36281392
199	0x3d5c682a	0.053810276
200	0xbf02cc0e	-0.5109261
201	0xbe509f02	-0.20373157
202	0x3e96c1c4	0.29444706
203	0xbf318528	-0.69343805
204	0x3f4a39a0	0.7899418
205	0xbfd9d34c	-1.7017608
206	0xbfb0c08a	-1.3808758
207	0xbf6d4ee5	-0.9269851
208	0x3e92ce10	0.28672838
209	0x416c29fd	14.760251
210	0x3f687888	0.90808916
211	0xbf7883d1	-0.97076136
212	0x3f17f3d9	0.59356457
213	0x3f64020f	0.8906564
214	0xbe35094d	-0.17679329
215	0xc07100c8	-3.7656727
216	0x4008d849	2.138201
217	0x3f404692	0.7510768
218	0xbf19fd83	-0.60152453
219	0x3f05f82c	0.52331805
220	0x3e84a317	0.25905678
221	0x3efd9781	0.4952965
222	0x3f53ac0f	0.82684416
223	0x3e7c8e79	0.24663724
224	0x3f48ba17	0.7840895
225	0x3e8c0925	0.27350727
226	0xbf3e0653	-0.742284
227	0x3e6992ff	0.22809981
228	0xbdaf6b7a	-0.085654214
229	0xbdeb22be	-0.11481236
230	0x3f9e6db0	1.2377224
231	0xbf3baac2	-0.7330743
232	0x3f31db79	0.69475514
233	0xbe1f333e	-0.15546891
234	0x3ee623a1	0.44949058
235	0xbf817a08	-1.0115366
236	0xbf268efa	-0.65061915
237	0x3e2d10a2	0.16900876
238	0x3fdbc544	1.7169576
239	0xbf057c35	-0.5214265
240	0xbe01fa25	-0.12693079
241	0x3ead1bb2	0.33810192
242	0x3db11c27	0.08647948
243	0xbc5400e5	-0.012939666
244	0x3e0187be	0.12649438
245	0xbe0b507b	-0.1360492
246	0xbda1ca25	-0.07899884
247	0xbdbfdc74	-0.0936822
248	0x3e6b0589	0.2295133
249	0xbefca5bd	-0.49345198
250	0xbea4c7f9	-0.32183817
251	0x3e8c8632	0.27446133
252	0xbdb3886f	-0.08766257
253	0xc0e68e06	-7.204837
254	0x4143626e	12.211531
255	0xc0d1f21d	-6.560805

bias f4 [256]
0	0xc0054c64	-2.0827875
1	0xbf655101	-0.8957673
2	0xbd9f4e5b	-0.07778617
3	0xbea4ac82	-0.32162863
4	0xc0190462	-2.3908925
5	0xbfa10015	-1.257815
6	0xc0929f43	-4.581941
7	0xc08a49e9	-4.321522
8	0xbf3a23dc	-0.7271097
9	0xbfb4caf9	-1.4124442
10	0x40c9b237	6.3030047
11	0xbfa989db	-1.3245195
12	0xc062ec73	-3.5456817
13	0xc0380b31	-2.875683
14	0xc016ea58	-2.3580532
15	0xc025bcd6	-2.5896506
16	0x3d192eaf	0.037398037
17	0x3ff3a148	1.9033594
18	0x409cd7db	4.9013495
19	0xbf0bb755	-0.5457662
20	0xc03fcc8a	-2.996859
21	0xc05eb25f	-3.479637
22	0x40460593	3.0940902
23	0xbfcd85f0	-1.60565
24	0xbf92cc49	-1.1468593
25	0xbf50d15d	-0.81569463
26	0x3fcd5ac0	1.604332
27	0x40a7a702	5.2391367
28	0xc023ffbb	-2.5624835
29	0xbeefd191	-0.46839574
30	0xbfd81ebf	-1.6884383
31	0xc083624a	-4.105748
32	0xc09bd59c	-4.8698254
33	0xbf9c8c17	-1.2230252
34	0xc020ee75	-2.5145543
35	0xc0166662	-2.349999
36	0xc077df0e	-3.8729892
37	0xc0365458	-2.848898
38	0xc07c4d94	-3.942235
39	0xbf20f18f	-0.6286859
40	0xbf831bcd	-1.0242859
41	0xbf83814f	-1.0273837
42	0xc05bb0b5	-3.4326603
43	0xc051e92d	-3.279857
44	0xbf5b82de	-0.8574656
45	0xbfb3aa16	-1.4036281
46	0xc026c7ca	-2.6059442
47	0xbfdf9649	-1.7467738
48	0xbd346efc	-0.044051155
49	0xc042fcf0	-3.046688
50	0xc0794acf	-3.895191
51	0xbff13f57	-1.8847455
52	0xc045a6a6	-3.0882964
53	0xc07b9dd0	-3.931507
54	0xc097a5d4	-4.7389927
55	0xc03f5b68	-2.989954
56	0x40eb44d5	7.3521523
57	0xbfe30d96	-1.7738521
58	0xbf9b8963	-1.2151302
59	0x40301955	2.7515461
60	0xc0403914	-3.0034838
61	0xc04677fd	-3.1010735
62	0x3fac8a30	1.3479671
63	0x403e80cb	2.976611
64	0xc01a0d3b	-2.4070575
65	0xc02984b5	-2.6487248
66	0x40deae43	6.958772
67	0xc07aa7e6	-3.9164977
68	0xc03a08e1	-2.906792
69	0x3fce2f3b	1.6108164
70	0xc03f5327	-2.9894502
71	0xc0012035	-2.0175908
72	0xc0335cf5	-2.8025486
73	0x40942af3	4.630243
74	0xc02b8aaf	-2.6803396
75	0x3fa7b5c9	1.3102351
76	0xc012be1b	-2.292853
77	0xc08c081d	-4.3759904
78	0xbfdeadb3	-1.7396759
79	0xbf79785c	-0.9744928
80	0xc0ad66e4	-5.41881
81	0xc01e1e30	-2.4705925
82	0xc079e0fc	-3.904357
83	0xbe4125a9	-0.18862022
84	0xc029a8df	-2.650932
85	0xc078c18a	-3.8868127
86	0x3ce4bc60	0.027921855
87	0xc04cd02e	-3.2002063
88	0xc0b4ba8a	-5.647771
89	0x3fb40b9a	1.406604
90	0x3faa7e06	1.3319709
91	0xc09fa4e4	-4.9888783
92	0x40c7b43b	6.240751
93	0xc0805145	-4.0099206
94	0xc0157e9a	-2.3358521
95	0xc02dd7bb	-2.7162921
96	0xbe137851	-0.14401366
97	0xc087ced7	-4.243999
98	0xbf7b756c	-0.98226047
99	0xbfb7813b	-1.4336313
100	0xc04ba0c0	-3.1816864
101	0x3fa6a203	1.3018192
102	0xc0b12486	-5.5357084
103	0xc072748d	-3.7883637
104	0xc0b18f94	-5.5487766
105	0xc0c75cd3	-6.230081
106	0xbfd068fc	-1.6282039
107	0xc026431c	-2.597846
108	0xc00e786f	-2.2261007
109	0xc0763eb5	-3.8475773
110	0xbf754bcf	-0.958188
111	0xc08779f0	-4.233635
112	0x3f27ab65	0.654959
113	0x3facad62	1.3490412
114	0xbfc0350b	-1.5016187
115	0xc021a694	-2.5257921
116	0xc09dc76c	-4.9305935
117	0xbef23f98	-0.47314143
118	0xbf0693e4	-0.52569413
119	0xc053bab1	-3.3082697
120	0xc03b2a06	-2.92444
121	0xc0888583	-4.266298
122	0xbfa2f882	-1.2732089
123	0xbfa2733a	-1.2691414
124	0xc08822bb	-4.2542396
125	0xbfab12ba	-1.336509
126	0x40c7515f	6.228683
127	0xbddae853	-0.106888436
128	0xc0506c9b	-3.2566288
129	0x3e61a7ba	0.22036639
130	0x3f16155b	0.58626336
131	0xc02e4673	-2.7230499
132	0xc02867ac	-2.6313276
133	0xbf8d3339	-1.1031257
134	0xc0d72326	-6.7230406
135	0x3fe91587	1.8209695
136	0xc06c6b7a	-3.6940598
137	0xbffd06c2	-1.9767687
138	0xc08762e7	-4.230823
139	0x409eeaad	4.966147
140	0xc094b649	-4.6472516
141	0x40cac1dc	6.3361645
142	0xc01d8291	-2.4610941
143	0xc0aa0155	-5.3126626
144	0x40682c81	3.6277163
145	0xbe5b6dc9	-0.21428598
146	0xbfcc30a0	-1.5952339
147	0xc05ab5f3	-3.4173553
148	0xc02e81dc	-2.726676
149	0xc08b5c7c	-4.3550396
150	0x3f945fee	1.1591775
151	0x3eae9b8f	0.34103057
152	0xbf39deaa	-0.72605383
153	0xc037eb61	-2.8737414
154	0xbf4aeaef	-0.7926473
155	0xbfa42ba9	-1.2825824
156	0xc093e8b4	-4.622156
157	0xbff12969	-1.8840762
158	0xbe8dbab7	-0.27681515
159	0xc08e3ea1	-4.445145
160	0xbfd0f118	-1.6323576
161	0x40d9265f	6.785934
162	0x4036771d	2.85102
163	0xc021dac4	-2.5289774
164	0x3faacb5a	1.3343308
165	0xc08e4d0b	-4.4469047
166	0xc0480f3d	-3.12593
167	0xc08722ad	-4.222983
168	0x3f828462	1.019665
169	0xc1183767	-9.513526
170	0xbfa752df	-1.3072165
171	0xc07fd60d	-3.9974396
172	0xbf1c7f99	-0.611322
173	0xc032dc9e	-2.7947154
174	0xc046bc11	-3.1052287
175	0xc0095f96	-2.146459
176	0xc003e306	-2.0607314
177	0xc02c043d	-2.6877587
178	0x3fa046b3	1.2521576
179	0xc03c7161	-2.94442
180	0xbfd927d9	-1.6965286
181	0xbf9e83ec	-1.2384009
182	0xbf4e9447	-0.80695003
183	0xbf0ce794	-0.5504086
184	0xbff75dea	-1.9325535
185	0xbf7e635d	-0.99370366
186	0xc04a51d7	-3.161245
187	0xc028b492	-2.6360211
188	0xc0655208	-3.5831318
189	0xc0163b19	-2.347357
190	0xc077ced9	-3.872
191	0xbe932432	-0.28738552
192	0x3ea14a6f	0.315021
193	0xbf890619	-1.0704986
194	0xbfd31e26	-1.6493576
195	0xc0a01b54	-5.003336
196	0xbf25f798	-0.64830923
197	0xbf0716e7	-0.5276932
198	0xbfeb1b84	-1.8367772
199	0xc0477eaa	-3.117106
200	0xc04c7026	-3.194345
201	0x401df8b0	2.4683037
202	0xc0448213	-3.070439
203	0x4067990f	3.618717
204	0xbebbd374	-0.36684763
205	0xc040e9f7	-3.01428
206	0xc061eab2	-3.5299497
207	0xbff74240	-1.9317093
208	0x3ec00e0c	0.37510717
209	0xc02ed4b3	-2.7317321
210	0xc0292ab5	-2.6432316
211	0xc045cc9e	-3.0906138
212	0x40249c44	2.5720377
213	0xbfafaf48	-1.3725367
214	0xc00c920a	-2.1964135
215	0x3e087647	0.13326369
216	0x3e80e9ab	0.25178275
217	0xc09f9eec	-4.9881496
218	0xbfc6c541	-1.5528947
219	0xc091c525	-4.5553155
220	0xbfd75ee2	-1.6825831
221	0xc09fa28b	-4.9885917
222	0xc01e57c1	-2.474106
223	0xc06583dd	-3.5861733
224	0x3f07e309	0.53080803
225	0xc00e9129	-2.2276099
226	0xc067bc96	-3.6208854
227	0xc00d60ae	-2.2090259
228	0xc0a7748a	-5.232976
229	0xc0308196	-2.7579093
230	0xbff35d3f	-1.9012831
231	0xc01938f8	-2.394102
232	0x402ab461	2.6672595
233	0x401eac39	2.4792616
234	0x40d65267	6.697559
235	0xc0441dd8	-3.0643215
236	0xc08f0916	-4.469859
237	0xc0dc1236	-6.877223
238	0xc00c0965	-2.1880734
239	0xbf972cc2	-1.1810534
240	0xbffe25d2	-1.9855292
241	0xc066d1ff	-3.6065671
242	0xbe64e83d	-0.22354217
243	0x3f071b77	0.52776283
244	0xbfc1cca0	-1.5140572
245	0xbec2837c	-0.3799094
246	0xc09f4c8e	-4.978095
247	0xbf04181f	-0.51599306
248	0x3fb81c57	1.4383649
249	0xbf821b3e	-1.0164564
250	0xc04d838a	-3.2111535
251	0xc045fd49	-3.0935843
252	0xc045edfe	-3.092651
253	0xc046b01e	-3.1044993
254	0x40c9f63e	6.311309
255	0xc0ab42d8	-5.3519096
