log/mujoco_sac_swimmer_v2_0/mujoco_sac_swimmer_v2_0_s0/pyt_save/model.pt (torch_old, 834154 bytes, 18 tensors)

weight f4 [256, 8]
000000 80 80 8b 3d a1 99 43 3d c8 59 3d bf 27 22 84 3e
       0.06811619 0.047753934 -0.7396512 0.25807306
000010 45 98 55 3e 9b ef 08 3e 85 33 e6 3d 32 96 e7 bc
       0.20858867 0.13372652 0.11240295 -0.02826986
000020 aa b9 ea bd e7 13 13 3d 5e 7f d6 bd 5f 57 4b 3b
       -0.11461194 0.035907652 -0.10473512 0.003102742
000030 47 79 df be 30 cf 3d be 55 5d f4 bd 51 03 db bd
       -0.43647215 -0.18536067 -0.11931864 -0.10693992
000040 a6 ee cb 3e 42 6f 12 3f ae 8f ce 3d c7 fc 6a be
       0.39830512 0.57201016 0.100859985 -0.2294799
000050 66 23 e0 3d a4 53 25 3e af 46 a7 3d 76 29 bd 3d
       0.10944252 0.16145188 0.08167779 0.09236424
000060 c4 e4 fd 3d 06 d2 09 3e e6 4a 15 3e f8 39 5b bd
       0.12397149 0.13459024 0.14579353 -0.05352208
000070 bc 4c 1a bd 09 15 d4 bd b1 75 e1 bc 13 f3 1c 3d
       -0.037670836 -0.10355575 -0.02752194 0.03831775
000080 ff 8c d7 be 4e f3 fa be f7 fc c2 be 63 9b d5 bd
       -0.4209976 -0.49013752 -0.38083622 -0.10430028
000090 c5 87 30 be fc ce 27 3d 3e 78 b3 3d 9a 13 ea bb
       -0.17239292 0.04096888 0.08763169 -0.00714345
0000a0 c7 8d ab 3d df 50 ce 3e 6b b3 b6 bf 9a 51 bf bf
       0.08376651 0.40296075 -1.4273504 -1.4946778
0000b0 ac c1 a0 3f 18 a0 ce bc 7b 10 8f 3e 0b 75 58 3f
       1.2559104 -0.025222823 0.2794226 0.84553593
0000c0 27 ea ff bd c6 13 20 bf c2 5a 2d 3b 90 75 ac 3e
       -0.12495833 -0.6253017 0.00264518 0.33683443
0000d0 f5 b5 bc be 5e b7 18 bd 1f 66 6c 3e f7 29 9d 3d
       -0.36857572 -0.037284248 0.23085831 0.0767402
0000e0 88 1d 63 3f 2c e3 10 3f 59 59 15 3f 33 2d 14 bf
       0.88716936 0.56596637 0.5833946 -0.5788147
0000f0 9b c7 39 bd c5 d8 21 3f c1 5a 9b 3e cc e3 8e 3d
       -0.045356374 0.6322139 0.30342677 0.069770426
000100 81 f5 b4 3d 50 f2 ec 3d 65 cc 4d 3e b6 1c dc 3b
       0.08835889 0.11569655 0.20097502 0.00671729
000110 88 8e 34 3e 81 92 e9 3c 81 22 73 bd 7f c4 19 bc
       0.17632496 0.028512241 -0.059359077 -0.009385227
000120 2f 38 e2 3e 77 02 97 3e 80 3f af 3e c1 2e 7c 3e
       0.4418349 0.29494068 0.34228134 0.2462721
000130 c0 7d 45 bd 09 a0 d1 be 40 cd 09 be af ac f5 bc
       -0.048215628 -0.4094241 -0.13457203 -0.029989569
000140 e6 66 a6 be 8e 3e 9c bd 23 eb fa 3c 37 dd e5 be
       -0.3250038 -0.07629119 0.0306297 -0.44895336
000150 46 2f 05 be f3 56 a2 be 30 2e 40 3c 8e d9 fe 3c
       -0.13006315 -0.31706962 0.011729762 0.031109598
000160 ed 1b 6f bd 1f 52 50 be 12 a9 39 3c 9f c5 5f bd
       -0.05837624 -0.20343827 0.011331813 -0.054631826
000170 31 b1 f3 3d c5 6a 57 be c3 85 5b be 59 5d e0 bd
       0.11899031 -0.21036823 -0.21437745 -0.10955305
000180 58 35 7a 3e a8 11 20 3e c8 4a 90 3d 96 a8 5e be
       0.24434412 0.15631735 0.070455134 -0.21743998
000190 a1 75 72 3e 84 55 80 3e ba 1a 85 3d 39 94 7a bc
       0.23677684 0.25065243 0.06499238 -0.015294128
0001a0 f9 bc a5 be 5c 8d 04 bf 71 82 53 be 57 6b 3d 3c
       -0.32370737 -0.517782 -0.20655228 0.011561236
0001b0 49 c3 c1 3c db eb 89 be d4 17 3e be bb bf 6b bd
       0.02365269 -0.26937756 -0.18563777 -0.057555895
0001c0 35 8d cf bf 0f d5 04 be 11 67 24 bf c7 d9 1e bf
       -1.6214968 -0.129719 -0.64219767 -0.6205105
0001d0 e9 55 31 be 41 f6 f5 be 84 c8 5b bd 9b 8f 90 3d
       -0.17317928 -0.4803944 -0.053658023 0.070586406
0001e0 60 4c ad 3f ef 17 d3 3f 04 93 7c 3e 2b 48 7c be
       1.3538933 1.6491679 0.24665457 -0.24636905
0001f0 9b 32 a5 bd b3 c5 97 3e c8 81 92 3e a4 5a 08 3e
       -0.08066293 0.2964302 0.2861464 0.13315827
000200 4d d9 b7 be 9f e2 db be 8d 71 6a be 33 40 c6 bd
       -0.35907975 -0.42946336 -0.22894879 -0.09680214
000210 0a 44 ba be c9 20 a5 3d 95 fe d5 3d aa a5 11 3d
       -0.36380035 0.08062894 0.10448948 0.03555838
000220 5e 98 da bd 72 b8 43 bd 25 c6 b5 bd 4c eb 9b 3d
       -0.10673593 -0.047783323 -0.08875684 0.07613239
000230 c6 d0 4d 3e 1c c6 ac 3e 0f e6 56 3e 7a 0f b7 3d
       0.20099172 0.33744895 0.20986198 0.08938499
000240 01 19 17 bf dd c2 1d bf d1 95 33 3e e9 6e 15 3e
       -0.5902253 -0.6162546 0.17537619 0.1459309
000250 fd cd 60 3d e9 6c 3b bf 13 fa ff be 5d 19 a5 bd
       0.054883946 -0.7321306 -0.4999548 -0.08061478
000260 e6 1b 34 3e e0 19 46 3e 26 48 97 bc 75 79 9a be
       0.17588767 0.19345808 -0.01846702 -0.3017079
000270 d0 6b 0b 3e fa c2 73 be 96 8e 2e be 74 c6 82 bc
       0.13615346 -0.23804846 -0.1704658 -0.01596377
000280 21 69 0f bc 1e c7 2b be ae 7e d9 bd 5c 5b d0 be
       -0.008753092 -0.16775176 -0.10619865 -0.40694702
000290 bc c3 19 3e cf 5e 21 be b0 fa 30 be 4b 64 35 3b
       0.15016073 -0.15758823 -0.1728313 0.0027678187
0002a0 73 bf 42 bd 87 e1 1f bf 5a 17 6e 3f 38 02 98 be
       -0.04754586 -0.624535 0.9300438 -0.29689193
0002b0 71 33 98 3e 91 ba 10 bf 24 ec 17 bf 22 bd 0b bd
       0.29726747 -0.5653468 -0.59344697 -0.034115918
0002c0 f6 cc d3 bd 9a 41 09 be 17 84 a3 bc 47 12 d3 3b
       -0.103418276 -0.13403931 -0.019960446 0.006441388
0002d0 74 23 96 bd 69 a5 dd 3d 7c b6 e9 3d d3 e8 97 3d
       -0.07330981 0.10822565 0.11411759 0.074174546
0002e0 36 d2 d1 3e f2 2e 57 3e ef 59 15 3e 7a 0b 0b 3f
       0.4098069 0.21014002 0.14585088 0.54314387
0002f0 da 29 98 3d c5 f8 9f 3f 46 ff 1f 3f 6b 72 2b 3e
       0.074298576 1.2497793 0.6249889 0.16742866
000300 d2 c0 be be b7 b9 a5 bb 4e fd 14 c0 b9 ec 04 bf
       -0.37256485 -0.0050575393 -2.3279605 -0.5192371
000310 c0 e5 40 bf dd 1f e4 bc 18 f7 07 bf ba 5f 93 be
       -0.7535057 -0.027847225 -0.5311141 -0.2878397
000320 a9 b1 8e 3b df fa ba 3a 91 da 87 3c 06 8f c5 b9
       0.004354675 0.0014265439 0.016583713 -0.0003768133
000330 b7 3f 2d bd 87 ee d9 3d 26 cc 9f 3d 65 de a0 3c
       -0.04229709 0.106411986 0.0780261 0.019637296
000340 57 70 7f 3c 16 fd a0 3c 99 27 86 3c 33 fe 4e bb
       0.015590749 0.01965193 0.016376304 -0.003158462
000350 69 3f 4f 3c 43 f3 c2 bd 76 14 6a bd 5e 18 f3 bb
       0.0126493955 -0.09519055 -0.05714842 -0.0074186763
000360 0a 1b d1 be c0 54 c1 be 65 2f 18 be e9 3f 02 3d
       -0.40840942 -0.37759972 -0.1486183 0.03179923
000370 11 43 d5 bd 4e 43 17 3e 79 3e ec 3d 7f 98 25 3e
       -0.104131825 0.14771768 0.11535353 0.16171454
000380 be 68 fa be 7b 01 fb be 86 b5 e2 bd e3 93 ef bd
       -0.48908037 -0.49024567 -0.11069779 -0.11698129
000390 bf 4a 19 bd 04 8d a1 bd fc 89 12 3d 13 44 84 3d
       -0.0374248 -0.07888225 0.035776123 0.064582966
0003a0 76 cc a8 be 61 3f a3 be d3 4c a3 3c 40 c6 59 3e
       -0.3296849 -0.31884292 0.019934094 0.21267033
0003b0 ef 76 43 3e 0a 23 63 be e2 cf 2a be c1 2b 9c 3d
       0.19088338 -0.22181335 -0.16680863 0.07625533
0003c0 47 e6 e8 3e 35 df 5e 3f e3 0b 6f 3e d1 f5 0d bc
       0.45488188 0.87059337 0.23344378 -0.008664564
0003d0 e1 79 dc bd 60 74 24 be a0 aa 18 be 8b 34 09 bd
       -0.10765434 -0.16060019 -0.14908838 -0.033497375
0003e0 03 83 08 bd 69 27 a5 bd 95 c3 9d be 74 df 77 3d
       -0.033328068 -0.080641575 -0.3081328 0.060515836
0003f0 03 2f da 3d a2 b2 ad be ba 2f 91 be 52 c7 09 be
       0.10653498 -0.3392535 -0.28356725 -0.13454941

bias f4 [256]
000000 c7 86 05 c0 76 03 8e bf e0 a7 ac bf 8f 2e 0a bf
       -2.0863512 -1.1094806 -1.3488731 -0.5397729
000010 9e 5c ab bf 8b 88 f2 bf 30 d6 a6 bf 6f d6 15 c0
       -1.338764 -1.894792 -1.3034115 -2.341213
000020 41 ce 3f bf 2a 9f 89 bf d9 fb be bf 7f 80 14 bf
       -0.74924093 -1.0751698 -1.4920608 -0.5800857
000030 54 58 6b bf 2d 6d 4c bf e4 e7 44 c0 66 a4 f8 bf
       -0.91931653 -0.7985409 -3.0766535 -1.942517
000040 9a d3 81 bf 7b 2d 1a bf f6 fe d3 bf 27 b6 66 bf
       -1.0142701 -0.6022565 -1.6562183 -0.9012169
000050 2b c1 96 bf be c9 42 c0 b1 a7 db be 7c dc 1b c0
       -1.17777 -3.0435634 -0.42901376 -2.4353323
000060 d9 78 3c c0 e7 9f e4 bd 28 e4 79 be 55 05 7d bf
       -2.944876 -0.111633115 -0.24403441 -0.9883626
000070 fd a1 62 bf 59 6c 73 bf 5c 89 c9 bf cb 08 61 bf
       -0.88528425 -0.950872 -1.5745044 -0.8790404
000080 94 4a a7 bf 91 c7 81 bf 11 9b 05 c0 12 8e e3 be
       -1.3069634 -1.0139028 -2.0875895 -0.4444433
000090 9d 90 4a bf bb 8d c2 bf 30 ee 2e c0 78 5f a7 be
       -0.7912691 -1.5199503 -2.7332878 -0.32690024
0000a0 11 26 b8 bf 60 61 a0 bf b3 80 7d bf 12 86 ad bf
       -1.4386617 -1.2529716 -0.99024504 -1.355654
0000b0 1b 93 b0 be 7d dc 77 bf 82 55 a4 bf cb 61 c2 bf
       -0.34487233 -0.96820813 -1.2838595 -1.5186094
0000c0 27 9a 31 bf 22 26 7f bf c9 51 03 c0 3e 2b 91 be
       -0.6937584 -0.9966756 -2.0518668 -0.28353304
0000d0 c3 a0 89 bf c1 ef 07 bf 98 dd 29 c0 30 15 25 c0
       -1.0752186 -0.5310021 -2.65415 -2.5794182
0000e0 eb a7 aa bf 19 c7 40 bf 11 b9 5c bf 5d fb 48 c0
       -1.3332494 -0.753038 -0.8621989 -3.140342
0000f0 9b af e2 bf 28 0d 0f bf aa f4 89 bf cc 62 88 bf
       -1.770984 -0.5587945 -1.077779 -1.065515
000100 47 95 2d bf a0 17 e5 be 96 7e 22 bf 72 ee 88 bf
       -0.67805904 -0.44744587 -0.63474405 -1.0697768
000110 f6 58 33 c0 ce d1 3a c0 60 dc 00 bf 9f e7 c0 bf
       -2.8023047 -2.9190555 -0.50336266 -1.5070685
000120 46 b6 37 c0 b5 06 47 bf 69 cd 0c c0 21 42 02 c0
       -2.8705 -0.7774461 -2.2000372 -2.0352862
000130 a3 26 6d bf ee a2 41 bf 75 95 22 bf 38 ae 94 be
       -0.9263708 -0.75639236 -0.63509303 -0.29039168
000140 7c 9c bd be 10 bb 26 c0 94 ab 55 bf 2a 17 31 bf
       -0.3703345 -2.6051674 -0.8346493 -0.6917597
000150 d6 39 8a bf 81 b8 33 bf 0c b6 4e c0 58 50 e4 be
       -1.07989 -0.70203406 -3.2298613 -0.44592547
000160 f3 c3 e9 be d1 11 3b c0 1d 3b 85 be e1 e5 55 bf
       -0.4565731 -2.9229624 -0.26021662 -0.8355389
000170 30 06 66 bf 00 99 11 bf c3 bf f6 bf be 7c 68 bf
       -0.8985319 -0.56874084 -1.9277271 -0.9081534
000180 20 83 c2 bf 54 b7 2e bf b6 fb 8b bf bf 7e 15 3e
       -1.5196266 -0.68248487 -1.0936191 0.14599131
000190 7e 9c 9b bf 6b 4e 17 bf 95 23 b9 bf e9 89 ee be
       -1.2157133 -0.5910403 -1.4463984 -0.46589592
0001a0 06 f3 b6 be 29 19 37 bf c8 84 8b bf a4 d9 4f bf
       -0.35732287 -0.71522766 -1.0899897 -0.8119147
0001b0 3f 07 9c bf 59 2d 90 bf 0b f3 ad bf c7 ed 85 bf
       -1.2189711 -1.1263839 -1.3589796 -1.0463189
0001c0 ea b0 00 c0 ad b4 2e bf 5c 7a 1f c0 a7 b0 6b bf
       -2.010798 -0.6824444 -2.4918432 -0.92066425
0001d0 83 97 04 c0 d3 e4 54 bf 97 5c 50 bf 32 92 f3 bf
       -2.0717475 -0.8316166 -0.8139128 -1.902899
0001e0 ba f3 97 bf 36 68 8e bf 7e 0c 8b bf ab 35 39 bf
       -1.1871254 -1.1125553 -1.0863187 -0.72347516
0001f0 8c 4c 87 be 2c e5 2a c0 84 23 1c bf a9 7c 43 bf
       -0.26425588 -2.6702375 -0.6099169 -0.7636209
000200 d8 e9 13 bf 74 79 b8 bf 50 dc 8e bf 73 ba 8c bf
       -0.5777869 -1.4412065 -1.1160984 -1.09944
000210 51 0f 82 bf 90 c4 3b bf 45 0f 2e bf 4c 14 3f c0
       -1.0160924 -0.73346806 -0.6799205 -2.9856138
000220 bf fa 95 bf b6 53 e2 be af 77 24 bf be 4f 40 bf
       -1.1717147 -0.4420449 -0.6424512 -0.75121677
000230 5c 1b 35 c0 ee f5 80 bf 98 3b c9 bf 7e 22 4e bf
       -2.829795 -1.0075052 -1.5721312 -0.8052138
000240 dc d0 3e bf 53 5a 25 bd 66 5f df bf a8 26 60 bf
       -0.74537444 -0.040369343 -1.7450988 -0.87558985
000250 a1 b6 8f bf 72 c8 f1 bf a0 c0 54 bf 4a 03 be bf
       -1.1227609 -1.8889296 -0.8310642 -1.4844754
000260 6e a0 95 bf d7 47 a5 bf 6e 39 e2 be e6 1a a2 bf
       -1.1689584 -1.2912549 -0.4418444 -1.2664459
000270 69 18 ce bf b8 a2 9d bf 7b 6f cb bf 1c 56 09 c0
       -1.6101199 -1.2315283 -1.5893396 -2.1458807
000280 ef 75 4b bf ea 6d b0 bf 87 61 47 bf e1 49 19 c0
       -0.7947683 -1.3783543 -0.7788319 -2.3951342
000290 3a 22 19 c0 40 ae 1c c0 67 15 97 be 6a d3 c0 be
       -2.392714 -2.4481354 -0.29508516 -0.37661296
0002a0 2e 40 21 bf 1d 63 72 bf 32 cb 22 c0 74 88 48 c0
       -0.62988555 -0.94682485 -2.543652 -3.1333284
0002b0 68 16 ce bf b5 69 72 bf 91 63 85 bf d3 3a 52 bf
       -1.6100588 -0.94692546 -1.042101 -0.8212101
0002c0 95 2b e4 bf 9a a3 85 bf ab d9 1f 3f f9 80 a1 bf
       -1.78258 -1.0440552 0.6244151 -1.2617484
0002d0 58 61 2e bf 27 a0 3f bf 8e 78 8a bf 96 1b 91 bf
       -0.68117285 -0.7485375 -1.081804 -1.1336544
0002e0 5c 54 43 c0 37 90 f9 bf 9f 85 b1 bf 84 be 89 bf
       -3.052024 -1.9497136 -1.3868903 -1.0761266
0002f0 08 90 9b be bf 70 21 bf 2d 80 1d bf 01 09 6b bf
       -0.30383325 -0.6306266 -0.61523706 -0.91810614
000300 83 1a 58 bf f2 f8 68 bf 38 73 f3 bf 6c b2 39 c0
       -0.84415454 -0.9100486 -1.9019537 -2.901515
000310 e1 6f 41 bf 8f a8 0b bf 68 79 90 bf b8 32 86 bf
       -0.7556134 -0.54554075 -1.128705 -1.0484228
000320 bb 70 02 c0 81 76 19 bf 7e ce 96 bf d6 f1 26 bf
       -2.0381305 -0.5994645 -1.1781766 -0.6521276
000330 bb 9c 31 bf 2c 6e 79 bf 32 6a 47 bf ec aa 13 c0
       -0.69379777 -0.97433734 -0.77896416 -2.3073072
000340 70 57 cd be 43 d5 b7 bf 93 cb 41 c0 5b 90 10 bf
       -0.40105772 -1.4361957 -3.0280502 -0.5647027
000350 9e 17 a8 bf 91 99 9c bf 39 1e 2d bf 3e 01 da bf
       -1.3132207 -1.2234365 -0.6762424 -1.7031629
000360 bc 04 3b bf c2 d0 33 c0 e4 d5 88 bf e5 8e 6b be
       -0.730541 -2.8096166 -1.0690274 -0.23003729
000370 02 91 47 bf 28 02 d8 bf 1c 09 f1 be c9 be 65 bf
       -0.7795564 -1.6875658 -0.47077262 -0.8974424
000380 de 20 b6 bf 84 6c 20 bf 35 28 2d bf ef 08 71 bf
       -1.422878 -0.6266558 -0.67639476 -0.94154257
000390 8e 27 52 bf b3 49 f1 bf 04 0e 2f bf 55 65 88 bf
       -0.82091606 -1.8850616 -0.6838076 -1.0655924
0003a0 07 e0 89 bf b5 88 2f bf 3a 3e 95 bf 04 af 9c bf
       -1.0771493 -0.68567973 -1.1659615 -1.224091
0003b0 a3 8a 3c bf a5 77 84 bf c4 c0 60 bf 3a 2f db be
       -0.7364904 -1.0349013 -0.87794137 -0.42809469
0003c0 4b 55 0a c0 ac e8 89 bf 16 1f c7 bf ef c8 6e bf
       -2.1614559 -1.0774131 -1.5556362 -0.9327535
0003d0 b5 cb 2a c0 96 30 71 bf 30 79 39 bf c4 a6 4f bf
       -2.6686833 -0.9421476 -0.7245054 -0.8111384
0003e0 39 cb cb bf 53 0a ae bf 43 1e 80 be 02 2d 4c c0
       -1.5921394 -1.3596901 -0.25023088 -3.190247
0003f0 0e dc 83 bf 26 a9 21 c0 f2 bf 60 bf f8 32 bb be
       -1.030153 -2.525949 -0.87792885 -0.36562324

weight f4 [256, 256]
000000 07 fd be bd a2 d1 10 3e 72 18 fb bd b7 46 04 3e
       -0.09325605 0.14142469 -0.12260522 0.129176
000010 6e 85 b2 bd 0f fd 12 3e 9a ae 9d 3e c4 de 74 bd
       -0.08716856 0.14354347 0.30797273 -0.05978276
000020 0c 5b 69 be 53 48 85 3e 52 51 c2 be 0b 77 6b be
       -0.22788638 0.26031741 -0.37952667 -0.2299463
000030 7d 16 f1 3e 0c a4 7d 3d 4e 1b cd bd ef 8c ff bf
       0.4708747 0.061924025 -0.100149736 -1.9964885
000040 22 6f 86 bc 72 3c e5 bd b1 cd 6a 3d 89 0d f9 bd
       -0.016410414 -0.1119317 0.05732507 -0.12160785
000050 b8 ba b9 be 57 8b 0e be 67 5c d6 3d be 62 cd 3e
       -0.36275268 -0.13920341 0.10466843 0.40114397
000060 18 2e 86 bd 9a 4c b9 3b 42 ea 0d 3d 54 6b 82 bd
       -0.065517604 0.0056548836 0.034647234 -0.063681275
000070 8c 9e eb 3d 76 22 3c be 45 4f 86 3d 38 dd 9f 3d
       0.1150485 -0.18372521 0.06558088 0.07805866
000080 89 de 30 bf 8c 78 52 bc 19 a7 a5 bf e8 fd d8 bd
       -0.6908956 -0.012846123 -1.2941619 -0.10595304
000090 dc 4f 8a 3c b0 9f 78 3d 26 f6 ee 3e 93 0b 92 3d
       0.016883783 0.060699165 0.4667217 0.07131114
0000a0 9d 8c af bd 8a 26 a0 3c c4 bd 4c bf ea d4 0f bf
       -0.08571742 0.019549627 -0.7997706 -0.56184256
0000b0 f8 29 75 3d 58 c0 13 bf 21 6f 27 3e 6e 6a e1 3b
       0.059854478 -0.5771537 0.16350986 0.0068791425
0000c0 06 6f 12 be 23 c6 3b be 1f 34 2f be 1f af d5 3c
       -0.14300165 -0.18337302 -0.17109726 0.02608448
0000d0 ca de d8 be ad e3 82 be 09 85 27 3b c1 12 3c 3b
       -0.42357475 -0.25564328 0.0025561473 0.0028697702
0000e0 a9 b8 84 be 97 5f a3 be ab 10 8f 3e 47 ef fd bd
       -0.25922135 -0.31908867 0.27942404 -0.12399154
0000f0 2d 4a 3f bf 83 2e 2e be c0 2b 94 be e6 aa 5e be
       -0.7472256 -0.1700993 -0.2893963 -0.2174488
000100 b4 c5 69 3d 5c 21 b6 bd 2a 6b 14 bc 10 b4 04 be
       0.05707331 -0.088930815 -0.009058753 -0.12959313
000110 22 ca 43 3b ab cd e8 bc 9f 71 b1 3e 8d 05 72 3c
       0.002987512 -0.028418383 0.34657 0.014771831
000120 a2 43 a1 3e 81 27 29 3e 94 ee 15 be 29 6a 1f 3e
       0.31496912 0.16518976 -0.14641792 0.1556784
000130 80 8e a9 bd a2 e1 a0 bc 61 cd 0b be 3a 35 72 bb
       -0.08279133 -0.01963884 -0.13652565 -0.0036957995
000140 94 d8 07 be 24 bc e3 3e dd ee 69 3e ec 5a c6 bc
       -0.13266212 0.44479477 0.22845025 -0.024213277
000150 fc e7 ab bd ff 0d 8f be 2b b1 f2 3e 2e 14 f0 3b
       -0.08393857 -0.27940366 0.47400793 0.0073266244
000160 a6 50 4d be e6 f8 0b bf 3c 9f 71 be f1 d9 9e be
       -0.20050296 -0.54676664 -0.235959 -0.3102565
000170 11 87 84 3d 8e cb 79 3e 7f 65 22 3e 40 25 99 be
       0.064710744 0.24394056 0.1585903 -0.29911232
000180 23 7e ea bd 63 9f 02 3d d9 cd 97 3e ee 25 21 c0
       -0.1144984 0.031890284 0.29649237 -2.51794
000190 6b 75 ee 3c 64 1f 78 bd fa 99 ca bb fe 6c 63 be
       0.029108724 -0.06057681 -0.006182906 -0.22209546
0001a0 57 55 0d bf 7e 76 f0 bd f8 e5 92 bc be 17 e6 3c
       -0.55208343 -0.117413506 -0.017931923 0.028087493
0001b0 45 80 43 bf f9 9a dc be af 5e 5d be 08 c0 64 be
       -0.763676 -0.43086985 -0.2161815 -0.22338879
0001c0 05 f1 06 bf e0 14 7c be 28 d7 c6 3c a8 a4 25 bf
       -0.52711517 -0.24617338 0.024272516 -0.6470437
0001d0 c0 41 23 3d 8e 8f 94 be f1 8c 48 be f1 14 3e be
       0.039857626 -0.29015774 -0.19585015 -0.18562676
0001e0 50 a8 1b 3e bb f2 c4 3d 09 e8 cb 3d c7 76 30 be
       0.15200925 0.0961661 0.099563666 -0.1723281
0001f0 21 9c 09 3d db 68 69 3e b0 5a 14 be e2 5d 9e 3d
       0.03359616 0.22793905 -0.1448772 0.077327505
000200 f7 c2 fa bd 11 8f 0b 3d 1c 29 96 be 1b 28 3c be
       -0.12244218 0.034071986 -0.2932824 -0.18374674
000210 ab 2b fd bc 69 84 8d bd 24 c9 0c 3e 34 0d e9 3b
       -0.030904612 -0.06910021 0.13748604 0.0071121696
000220 0e ac 48 be 50 0b 9f 3d 73 8d b4 bd ac e2 96 be
       -0.19596884 0.077658296 -0.08816042 -0.29469812
000230 bf bd 6a 3e d6 76 61 be 1c 75 13 3f c7 6b 02 be
       0.22923945 -0.22017989 0.5760057 -0.12736426
000240 ee b9 d2 3d ce de ea be a6 d5 2d 3e bc f9 89 be
       0.102893695 -0.4587311 0.16976032 -0.26948345
000250 29 85 38 bf 02 4a 19 3e 04 d7 c3 3e eb bd db 3d
       -0.72078186 0.14969638 0.3824998 0.10729583
000260 3c 83 c4 be a6 c2 53 be 9d 0c b6 bd 24 92 8d 3e
       -0.38381374 -0.20679721 -0.088891245 0.2765056
000270 29 c8 fe bd 03 68 42 be ec c1 79 be 09 f2 c0 bc
       -0.12440521 -0.1898499 -0.24390382 -0.023552911
000280 76 3e 60 be 91 f7 e9 3e 32 32 1b 3e 88 4a d4 bd
       -0.21898827 0.4569669 0.15155867 -0.10365778
000290 03 c2 f1 bd 9f 8d 1f 3e 6e b8 f2 bd a7 93 50 bd
       -0.11804583 0.15581368 -0.118515834 -0.050922062
0002a0 3f f9 5e bd 0f 54 d7 3d 79 ac 08 bf de 4f a5 bf
       -0.05443692 0.1051408 -0.5338817 -1.2914999
0002b0 e8 ad 01 be 83 e3 ad bd 49 f4 c3 be 90 9d 9a 3c
       -0.12663996 -0.0849066 -0.38272312 0.01887396
0002c0 de 32 25 3e 0f 8a 9e be fd 4c 87 be 40 59 20 bb
       0.16132686 -0.30964705 -0.26425925 -0.002446726
0002d0 5c 07 88 3d 69 c6 de be 32 60 a3 3e 35 21 d5 bd
       0.06642029 -0.4351075 0.3190933 -0.10406724
0002e0 57 f2 35 3d 0e 87 5d 3e c1 0d 83 be 87 93 b0 3e
       0.044420566 0.2163355 -0.2559643 0.34487554
0002f0 04 f2 44 be 46 ae db be 66 c1 a0 bd 26 28 21 be
       -0.19232947 -0.42906398 -0.07849388 -0.15737972
000300 7c a1 95 3e dd 24 a9 be 89 5d 4a bc 08 75 c5 3d
       0.29224765 -0.33035937 -0.012351402 0.096414626
000310 ad e4 07 be 04 2a 50 3e 16 c9 29 be e2 d1 d9 3e
       -0.13270827 0.20328528 -0.16580614 0.4254294
000320 31 d7 58 be 38 34 6a bd 19 1c d9 be 54 e2 27 3d
       -0.21175839 -0.057178706 -0.4240425 0.040987328
000330 45 97 c8 bc 22 6c 86 be ef 11 04 bf d0 d3 cd bc
       -0.024486193 -0.26254374 -0.51589864 -0.025125414
000340 a3 73 57 be 5b 39 09 3e bc 02 e5 be 74 ab 1b bd
       -0.21040206 0.13400786 -0.4472865 -0.038005307
000350 88 05 d6 bd 7d b9 4b bd 96 28 96 3d a8 87 7b bd
       -0.10450274 -0.049737442 0.0733196 -0.06140867
000360 87 4c c4 be 92 ab c0 3e fa 9f 78 be 15 e7 c0 bd
       -0.38339636 0.37630898 -0.24279776 -0.094190754
000370 02 46 c3 bd ab 64 0c be 61 75 58 3d 19 01 8c 3e
       -0.09534837 -0.13710277 0.052846316 0.27344587
000380 b2 fa 80 be e3 7f af bd fc 6a 8d bd c2 45 fd bd
       -0.25191265 -0.08569314 -0.06905171 -0.12366821
000390 5e f4 57 3e 93 ba 3d 3d 96 6f 55 bd c2 90 8b bd
       0.21089312 0.04632051 -0.05210837 -0.0681472
0003a0 7b 8c 0b c0 5b 01 09 be 98 0d 67 3e 5f 62 39 bd
       -2.1804492 -0.13379423 0.2256378 -0.04525983
0003b0 e6 19 95 be ca 91 cd be 25 c5 6b be 18 10 25 bd
       -0.2912132 -0.4015029 -0.23024423 -0.04029855
0003c0 7d ee a5 be b3 b9 d8 be e7 a5 67 3e 1f 0f 24 be
       -0.32408515 -0.42329177 0.2262188 -0.16021393
0003d0 be f8 1f bf 92 0f 1f bf 39 5d fa 3d c6 e0 7a bd
       -0.62488925 -0.62133133 0.12224812 -0.061249517
0003e0 d9 10 1c 3e ef f0 91 3e d8 2b 82 bc 65 c2 b7 bf
       0.15240802 0.2850413 -0.015890047 -1.43562
0003f0 03 61 76 be 89 3b 9f bd c5 ac 95 be 8e 46 72 bc
       -0.24060445 -0.07775027 -0.29233375 -0.014787329

bias f4 [256]
000000 7f 5b 2a bf b6 0e 88 bd 07 48 1e 3f 27 56 40 bf
       -0.6654586 -0.06643431 0.61828655 -0.7513146
000010 4e c3 ee bd 7d ee 94 bd 98 15 a5 bd d3 05 d9 bd
       -0.11658345 -0.072720505 -0.08060759 -0.10596814
000020 5f bf 8e bd f5 62 5d be 62 69 95 bd ab 0d 56 be
       -0.06970095 -0.2161978 -0.07295491 -0.20903651
000030 69 0e 0f be 7c fe 90 bc 1f a4 a5 bd 8e 02 0b be
       -0.13970341 -0.017699473 -0.08087944 -0.13575193
000040 c4 17 45 bf 8c 8b 02 be 30 f6 02 be 74 12 82 bd
       -0.7698939 -0.12748545 -0.12789226 -0.06351176
000050 df 11 e0 bf 67 b5 af bd 3f cf 07 be 52 f2 8b be
       -1.7505454 -0.085795216 -0.13262652 -0.27333313
000060 f8 c3 03 be 16 2b f7 be 14 6d 9e bd 77 33 9e be
       -0.12867725 -0.4827506 -0.07735649 -0.3089864
000070 ce 30 1e be 1a cb 4d be 60 f2 b1 bd 09 68 33 be
       -0.15448305 -0.20097008 -0.086888075 -0.17520155
000080 19 3d e7 bd 06 09 98 be c1 42 d4 bd ee 82 76 be
       -0.1129095 -0.29694384 -0.10364295 -0.24073383
000090 32 2c 80 bd 65 d4 38 3f ce 94 3a 3f ba 72 cf bd
       -0.062584296 0.7219909 0.7288331 -0.10129304
0000a0 80 06 34 be 68 42 fe bd 50 d4 87 bd 37 13 ee be
       -0.17580605 -0.1241501 -0.06632292 -0.46499035
0000b0 89 1a 80 bf 3f a6 ec bd 91 c2 af bf e0 8e eb be
       -1.0008098 -0.115551464 -1.3731252 -0.46007442
0000c0 31 41 ae bd 71 22 fa 3c f5 60 40 3f f3 b2 25 40
       -0.08508528 0.030534001 0.75147945 2.5890472
0000d0 47 1c e1 bd 25 05 ec bd 3f 00 8d be 8a 2b dc 3e
       -0.109917216 -0.11524419 -0.2753925 0.43001968
0000e0 46 a0 8b be d3 43 d7 bd ac 3c da bd 0e 38 2c bf
       -0.27270716 -0.10510983 -0.106561035 -0.6727303
0000f0 59 3c 17 bd c6 79 ad be 3d 03 01 be 9a 03 b4 bd
       -0.036922786 -0.33881968 -0.12598892 -0.087897494
000100 a9 5f e4 bd 5d 3a 0f be cd 8a f7 be 31 17 03 be
       -0.11151058 -0.13987108 -0.48348084 -0.12801816
000110 ca 49 b4 be 42 d1 96 be 84 aa 0c bd 01 82 e7 bd
       -0.35212547 -0.29456526 -0.034342304 -0.11304093
000120 03 a8 9e 3e 13 b4 0c be 6f de 28 be c9 1c 26 be
       0.30987558 -0.13740568 -0.16491102 -0.16221918
000130 3c 91 17 be 5b 84 4f 3f 62 3f 28 be 1f 94 6d be
       -0.14801496 0.81061333 -0.16430429 -0.23201035
000140 ad 43 32 be 73 6e ff be 31 48 a8 be ef 26 db bd
       -0.17408629 -0.49888954 -0.32867578 -0.10700785
000150 f5 c9 76 bd 6e 90 19 be ff 28 ae be 0c 2c 38 be
       -0.060251195 -0.14996502 -0.34015653 -0.17985553
000160 a6 71 fa bd 67 5e 14 be 33 49 96 bf ae e8 8d be
       -0.12228708 -0.14489137 -1.1741089 -0.27716583
000170 ef fe b0 3f b7 15 06 be ae 35 f2 bd 91 50 1d be
       1.38278 -0.13094221 -0.11826645 -0.15362765
000180 68 b1 d4 3f 10 7e 46 be 42 d2 81 be df 24 9e 3b
       1.661664 -0.19384027 -0.25355726 0.0048261727
000190 aa f8 13 bf c5 0a ee bd 7a fb 00 c0 2c ca 9e bd
       -0.57801306 -0.11623148 -2.015349 -0.07753405
0001a0 bb ed 1e be 0d 44 90 be 59 64 85 bd 45 7a d9 bf
       -0.15520374 -0.2817692 -0.065132804 -1.6990439
0001b0 b7 67 c0 bd d4 bb 04 be 8d 68 17 bc 53 9a 01 bf
       -0.09394782 -0.12962276 -0.009241235 -0.50626105
0001c0 33 45 d6 bd 4c 52 e0 be 2e 27 ba bd a8 33 80 be
       -0.104624175 -0.43812788 -0.09089504 -0.2503941
0001d0 26 6d 2b be 2f 3b b9 bf 37 bf a9 be ce 43 ad bd
       -0.16740856 -1.4471186 -0.33153698 -0.08460198
0001e0 53 48 98 bd 94 d1 e5 bd 89 3d 26 be 6f 02 65 be
       -0.0743567 -0.112216145 -0.16234411 -0.2236421
0001f0 44 9f 39 be a3 b3 fd bd 07 3b 25 be 2f 39 c8 bd
       -0.18127161 -0.123877786 -0.16135798 -0.09776532
000200 3c 52 f9 3d ef e2 b8 bd 85 d0 1b be 2c c8 ca bd
       0.12173888 -0.09027659 -0.15216263 -0.09901461
000210 8d 7d a1 bd 09 dc 05 be 04 03 1d be 82 ae 58 be
       -0.07885275 -0.13072218 -0.15333182 -0.2116032
000220 9b 59 c2 bd b5 6b 01 be 44 72 cd bd a0 0a 2a bf
       -0.09489747 -0.12638743 -0.1003156 -0.6642246
000230 0f a0 b2 bd f3 4d ca bd e6 96 56 bf d2 6b fa bc
       -0.08721935 -0.09878149 -0.83824 -0.03056899
000240 1e 39 f5 bd 4e 4a 61 be d2 94 16 be 9e bb 33 be
       -0.11973785 -0.22001001 -0.14705208 -0.17552039
000250 f5 fe b9 bd 0b e5 ec be 5c b9 f0 bd 9b 3a 8d bd
       -0.09081832 -0.46268496 -0.117541045 -0.06895944
000260 c1 19 2e be 0c 07 2c bf 4a fb 93 be ad f1 a7 bf
       -0.17002012 -0.6719825 -0.28902656 -1.3120629
000270 50 d3 49 be 99 2b 23 be 70 5f 25 be 4a 46 f1 bd
       -0.19709516 -0.159346 -0.16149688 -0.11780985
000280 38 5d 82 be 1a cf 09 be e2 bf ea bd 0a 3d 8b bd
       -0.25461745 -0.13457909 -0.1146238 -0.06798752
000290 28 68 c3 bd 68 de 00 be a2 55 b1 bd 49 f9 ae be
       -0.095413506 -0.12584841 -0.08658911 -0.34174564
0002a0 bc d0 98 3f f3 1e bb bd d0 04 b8 bd 7c cd c2 bd
       1.1938701 -0.091367625 -0.08985293 -0.09511849
0002b0 f8 6b c4 bd b4 2f dd bd cf 63 98 bd b9 20 43 be
       -0.09590906 -0.10800114 -0.07440912 -0.19055451
0002c0 a0 03 fb bd 77 ae 1b be 3b a1 dc bf c5 52 73 be
       -0.12256551 -0.15203272 -1.7236704 -0.23762043
0002d0 b4 5b 89 be c0 ec 93 bd 46 0e 01 be 32 36 52 be
       -0.26827776 -0.07222891 -0.12603101 -0.20528486
0002e0 ee 44 19 be 21 61 be be d4 81 e7 bd 98 46 09 bf
       -0.14967701 -0.37183478 -0.113040596 -0.5362334
0002f0 90 aa 37 be 47 84 b8 3d e4 bf f2 bd f5 7d 4c be
       -0.17936158 0.09009605 -0.118530065 -0.19969924
000300 45 16 92 bd f1 c1 04 be 85 c6 af bf 1a f8 10 bf
       -0.07133154 -0.12964608 -1.3732458 -0.5662857
000310 d3 56 d9 bd bb 65 1a be 1e 86 e0 be bd d8 8a be
       -0.106122635 -0.1507787 -0.43852323 -0.27118483
000320 05 f2 36 be f6 42 90 bc 43 c0 89 bd 1d 38 00 be
       -0.1786576 -0.017610054 -0.06726124 -0.12521406
000330 05 37 c5 bd 31 6d 3d 3f 06 2f 23 be 66 c4 95 bd
       -0.09629635 0.7399474 -0.15935907 -0.07312851
000340 60 1f 4c be bb 39 72 bf e2 ca 05 be f3 68 df bd
       -0.19933844 -0.9461934 -0.13065675 -0.10908689
000350 5a e7 c6 bf 9d c7 1c be 56 f5 a6 bd 39 1a fd be
       -1.5539353 -0.15310521 -0.08152263 -0.4943407
000360 66 46 e2 bd 80 93 e0 bd bf 1e c8 bd 33 32 0b be
       -0.11048584 -0.109656334 -0.09771489 -0.13593368
000370 f5 e9 ae bc 99 1f b3 bd 44 ac 9c be 0f 90 55 bf
       -0.021351794 -0.08746261 -0.30600178 -0.8342294
000380 b2 f9 ee bd 8f c2 58 be c2 5c e2 bd fa 40 d1 bd
       -0.11668719 -0.21167968 -0.110528484 -0.102174714
000390 ee 97 e1 be aa fb 74 bd 35 b7 25 c0 37 3b 88 bd
       -0.44061226 -0.059810318 -2.589307 -0.06651919
0003a0 22 06 06 40 84 f4 73 bd f5 51 11 3e 32 bb a2 bd
       2.0941243 -0.05955936 0.1419142 -0.07945861
0003b0 4c 9a 20 be 9c 37 32 be 4e ad a2 bd a1 10 f0 bd
       -0.1568386 -0.17404026 -0.079432115 -0.11721922
0003c0 f9 53 12 bf a9 f9 3a bf 1d 81 b9 bd a2 55 c4 be
       -0.5715938 -0.730372 -0.090578295 -0.38346583
0003d0 3f e1 db bd 36 fc 12 be b4 b2 41 bd 64 d7 1c be
       -0.10736322 -0.14354023 -0.047289565 -0.1531654
0003e0 a5 9f 2a be 2e 80 b5 be 46 c3 78 3e 9e f8 17 be
       -0.16662462 -0.35449356 0.24293241 -0.14840934
0003f0 de 6f 1e bf 4a e8 fd bd d8 f3 1e be 43 5f 8f bd
       -0.61889446 -0.12397821 -0.15522707 -0.070005916

weight f4 [2, 256]
000000 4f 5d 17 be 22 8c 45 3d 50 ce 84 3f 79 e3 db 3c
       -0.14781688 0.048229344 1.0375462 0.026841866
000010 6a b1 a9 3b d7 c4 5c bd af 3e 42 bd 7f 4c 44 bc
       0.00517862 -0.05389866 -0.04742306 -0.011981129
000020 0f a8 95 bc 18 71 51 3d ae 3c cb 3c 3d 02 0c 3d
       -0.018268613 0.051133245 0.024809208 0.034181822
000030 6d ef 7d be b7 5b c9 bd e2 8f 13 bc 0f 29 f6 bc
       -0.24798365 -0.09831946 -0.009006472 -0.030048875
000040 12 2f 02 be bf 1a 32 3d 9e c3 05 3c d2 2d 80 bc
       -0.12713268 0.04348254 0.008164315 -0.015646849
000050 97 83 cb bd 8a 0d 7e bd ba 4f ec bc bf cc fd bd
       -0.09937208 -0.06202463 -0.02884661 -0.12392568
000060 3d 08 08 3e 4a 08 3d 3b ec 99 d0 3b 08 0f ff bd
       0.13284393 0.0028844052 0.006366005 -0.12454039
000070 c6 5c b1 3c 31 65 97 3c 08 f2 ed 3e 23 96 5a bc
       0.021650683 0.018480869 0.46473718 -0.013341459
000080 3b ce e2 39 45 09 30 3d fd 48 a8 bc 17 4a f1 3c
       0.00043259733 0.04297759 -0.020542616 0.029454274
000090 e2 aa 92 bd 25 67 0c bc 48 b7 13 3e 89 fb ab bd
       -0.071614996 -0.008569513 0.14425385 -0.08397586
0000a0 10 0c 05 be 4b 6d ca bc 67 17 01 bd 4d 67 29 bd
       -0.12992883 -0.024710318 -0.03151646 -0.04135828
0000b0 49 c6 7f be 5a 4f 98 bc c2 54 2f 3f 80 67 cb bd
       -0.24977984 -0.018592525 0.68488705 -0.099318504
0000c0 fb d4 49 3a fb ba 6a bb d7 ca b1 bb c6 76 8d be
       0.0007699278 -0.0035817015 -0.0054257917 -0.2762968
0000d0 ec 47 6f 3d 3e 8d e6 bc e3 18 d5 bd 18 00 4f bd
       0.0584182 -0.028143521 -0.104051374 -0.0505372
0000e0 6e f7 d7 3d 39 33 c6 3d ed 43 84 3d 16 fd a1 bd
       0.1054524 0.09677739 0.06458268 -0.079096004
0000f0 63 2e 29 bd 8d c1 cb 3d 5b b7 b1 bd 8d 4c 9b bd
       -0.041304003 0.09949026 -0.086775504 -0.0758296
000100 a5 e4 d5 bd 02 5d 3e 3d a9 a2 a3 bd 22 ce b7 bc
       -0.10444001 0.046475418 -0.07990009 -0.022437159
000110 5a ec c7 ba 50 9d 9d 3b 8e 24 8b bd c4 a3 07 3d
       -0.0015252933 0.004810013 -0.06794082 0.033115163
000120 a8 e0 23 3f f0 19 bd 3d f4 d6 e8 3e a0 7c a3 3c
       0.64014673 0.09233463 0.45476496 0.019956887
000130 62 11 c4 bd c4 cb 96 b8 1c e6 29 3c 57 fb bd 3d
       -0.09573628 -7.190512e-05 0.010369804 0.09276455
000140 6f 75 60 bd 01 d2 36 3e 99 2a db 3d 7b d0 32 bb
       -0.054799493 0.17853548 0.10701484 -0.0027284909
000150 b7 ef 83 bb a9 43 fe bc 9b b4 34 3d 58 f5 f9 bd
       -0.004026379 -0.031038122 0.04411755 -0.12204999
000160 bc fd f9 3c 05 c5 02 bb c8 43 e8 3d e7 03 1c 3d
       0.030516498 -0.0019953859 0.11341053 0.03808966
000170 eb 81 f1 bc 38 10 d3 bc f3 2a 9a 3c a3 ac 6e bc
       -0.029480895 -0.02576457 0.018819308 -0.014567527
000180 0b f7 f8 3d 37 20 c1 3c 71 57 0f 3e 8c e5 fb 3c
       0.12156495 0.023574932 0.139982 0.030749105
000190 5b 31 c5 3d 7a 52 24 bc 83 fc 96 bd 29 7f 41 3c
       0.096285544 -0.01002943 -0.073723815 0.0118101025
0001a0 e6 c6 35 bc 6c 36 10 3e 88 3f a2 bc 6b 10 d9 3d
       -0.011094784 0.1408326 -0.019805685 0.105988346
0001b0 6e df 0e 3c 05 6f 06 bd e6 66 47 3c 7f 44 d4 bd
       0.008720262 -0.03282072 0.012170529 -0.10364627
0001c0 14 4c 59 39 86 ab 36 be 35 c0 ee bc fc e4 e7 3d
       0.00020723074 -0.17838868 -0.029144386 0.11322972
0001d0 61 09 f0 3c ee 47 07 be 99 87 43 3e bb ea 1d 3c
       0.029301347 -0.13211033 0.19094695 0.009638484
0001e0 89 6c bb 3b 0a 8a 36 3d 15 9d 93 3d dc 79 1e bd
       0.0057197255 0.044565238 0.072076954 -0.038690433
0001f0 67 f4 e5 bd d5 2d 6a bd 4d 6a 0f 3e 07 5d 86 3d
       -0.11228257 -0.057172615 0.14005394 0.06560712
000200 90 7d e7 3d 98 1b 03 3f 15 92 2b bc f1 44 de 3c
       0.11303246 0.5121398 -0.01047184 0.027132483
000210 92 a5 88 3d ef 87 27 3d 2d d2 13 3c 72 73 42 3e
       0.06672205 0.04090112 0.009022278 0.18989351
000220 71 0c db bd f5 f7 ae 3b 3a 96 12 3c 94 84 f7 3d
       -0.106957324 0.0053396174 0.00894695 0.12085834
000230 42 26 29 38 62 8b 3d bd d8 e7 42 bd 2d ad 87 3d
       4.032837e-05 -0.046275504 -0.047584385 0.066248275
000240 c1 ff f8 bc b2 9e c8 3b 13 3c 0b 3d da 56 9a bc
       -0.03039539 0.0061224336 0.033992838 -0.018840242
000250 9b d1 d5 bc 46 d4 6f bb 69 46 62 3c 41 0f 57 3c
       -0.026100924 -0.003659503 0.013810732 0.013126195
000260 d5 08 9e 3c 19 cd c5 3d 8f 69 2e bc b3 5c 3a 3e
       0.01929132 0.0965826 -0.010645284 0.18199424
000270 53 6f c5 3c fa c3 56 bc 34 dc a2 bb 2c b2 ce 3e
       0.024100935 -0.013108248 -0.004970098 0.4037031
000280 25 1a 8a bb 6d 8d c1 3d e5 0b e0 bc 79 e1 a4 3b
       -0.0042145425 0.09450803 -0.027349422 0.0050317612
000290 d9 c0 ad 3a 4f 88 c3 3d 8c d2 7c bd 23 ae c3 3d
       0.0013256326 0.09547483 -0.06172423 0.09554698
0002a0 1b b1 98 be fb 1c 37 3d fa f0 58 bd 01 54 f0 bc
       -0.2982262 0.044705372 -0.05296419 -0.029336931
0002b0 69 be 04 3d 31 fa 5b 3c 75 dc 1c bd 02 bf 6c 3c
       0.03240815 0.0134263495 -0.03829618 0.014449837
0002c0 85 8c 10 bd 5a 1d 67 be e2 81 bc 3d 65 fd fa 3d
       -0.03529026 -0.2256979 0.09204461 0.122553624
0002d0 ed ba 70 bd 7b e9 cd 3e 15 45 07 3c 80 2a 6b 3b
       -0.058772016 0.40217194 0.0082562165 0.0035883486
0002e0 c9 99 93 3c f8 35 05 be cf 23 6d bc c0 00 32 3e
       0.018017666 -0.13008869 -0.014473869 0.17383099
0002f0 a4 40 ff bd 96 b9 ef bd c3 49 93 bd e9 74 31 3c
       -0.12463501 -0.117053196 -0.07191803 0.010831096
000300 57 f1 be 3d 33 34 c3 3b 1f a8 94 bb 47 17 42 bc
       0.09323376 0.0059571504 -0.004536643 -0.01184637
000310 bf 87 2d 3d 72 be 93 3c 1b 35 c8 3d 51 e0 bb 3c
       0.042365786 0.018035147 0.09775754 0.02293411
000320 7a 88 2e 3b 6a 1b 0d be 84 4a 27 3d 7a 7e 05 bd
       0.002663164 -0.13779989 0.040842548 -0.03259132
000330 c7 ec 16 3d 8a 19 9a 3d ba 25 06 bd 3a ec 42 3d
       0.036846902 0.075244024 -0.032750823 0.047588564
000340 f8 51 84 bb 62 40 8a 3c 56 23 ac 3d c8 eb 06 3d
       -0.0040380917 0.016876403 0.08405177 0.032939702
000350 ac 5a 68 be ae 1c 55 bc ce a4 cf bb bb af 01 3e
       -0.22690839 -0.013007326 -0.006336785 0.12664692
000360 ca 55 8e 3d 5a c9 9d bb b2 ec b2 bc c1 86 1c 3d
       0.06949957 -0.0048152627 -0.02184138 0.03821445
000370 8b d3 82 bd 24 c6 0d bc 0b 25 03 3d 45 c5 ba bb
       -0.06388005 -0.008653197 0.03201775 -0.005699786
000380 c4 cc d8 ba 09 b8 f9 3d 7d 99 59 bd 9c 08 81 3b
       -0.0016540517 0.12193305 -0.053124893 0.003937794
000390 78 df bc 3c 0a 5b 89 3c 12 77 25 be 15 17 f2 3c
       0.023055777 0.016767044 -0.16158703 0.029552022
0003a0 66 ba b7 3e d0 6d 31 bd 1f d8 23 bf 8e 29 18 3d
       0.35884398 -0.043317616 -0.6400165 0.037149005
0003b0 a0 ce db 3c ac 96 2c bc fa 7b 5a 3d 58 23 48 3d
       0.026831925 -0.01053397 0.05334089 0.04886183
0003c0 9a c6 68 3d 81 95 ea bd e1 58 b8 3b c6 cf 9e 3e
       0.056830026 -0.11454297 0.0056258296 0.31017894
0003d0 c5 ba 72 bc ad 00 32 bd 76 8e 2d 3d 35 44 df 3d
       -0.014815037 -0.043457676 0.04237219 0.10901681
0003e0 63 c1 9c 3b 2d 46 53 be 3d ba 72 be 50 03 75 3d
       0.0047837957 -0.20632239 -0.23703857 0.059817612
0003f0 c8 d5 ea 3d 68 eb 5b bd 0d ef 0d bd db 69 ef bd
       0.11466557 -0.053691298 -0.034651805 -0.11690112

bias f4 [2]
000000 64 5e 21 bd cf cd 20 bc
       -0.03939666 -0.009814694

weight f4 [2, 256]
000000 8d 09 83 3e 3d d8 19 3b 80 2c 4d 3f 92 63 a2 3d
       0.25593224 0.0023474835 0.80146027 0.07929148
000010 46 49 25 3c fd 31 d9 bb 68 ed d6 3c 4e c1 27 ba
       0.0100882705 -0.0066282735 0.026236251 -0.0006399349
000020 7f 43 96 bd af c7 4b 3d f0 b4 0a 3d 12 2e a9 bd
       -0.073370926 0.04975098 0.03386396 -0.0826074
000030 a1 31 5c bd 6c 68 93 3c d7 6f 63 3d 3f ea 00 3d
       -0.053758267 0.017994128 0.05552658 0.031473394
000040 70 a4 74 3d f1 3c d2 bc 2a fd 8c bc f6 2e 40 bb
       0.059727132 -0.025663825 -0.017210562 -0.0029324866
000050 1c e9 96 3e 53 17 8d 3c 84 53 c1 3c d7 0b c9 3d
       0.29474723 0.017223036 0.023599394 0.098167114
000060 fe d0 de 3d 51 f0 38 3e 1d 44 fc bb 4c 6b 5b bb
       0.10879706 0.18060423 -0.0076985494 -0.0033480702
000070 2f 81 4c 3d 41 19 34 bb db 5a 62 3e 9e 10 78 bc
       0.049927887 -0.0027480873 0.22104971 -0.015140681
000080 12 f7 46 3d 55 38 4e 3e cc 3c dd 3c 3e 12 df 3d
       0.04857547 0.20138676 0.02700653 0.10892151
000090 85 8c c4 bc f8 e9 cc bc 5e 94 b2 bc b3 e1 74 bd
       -0.023992786 -0.025013909 -0.021799263 -0.059785556
0000a0 de 03 65 bd 64 18 b2 bc 9e 55 7e 3c e2 a2 62 3e
       -0.05591189 -0.021740146 0.015523342 0.22132447
0000b0 99 97 49 3c 8d f6 32 bd 64 47 0b 3f 65 05 9e 3e
       0.01230421 -0.04369216 0.5440581 0.3086349
0000c0 fd e4 ae 3d ad f6 89 bc 0a 5c 36 bd 7d 13 f0 bc
       0.0853977 -0.016841257 -0.04452137 -0.029306168
0000d0 3e a8 e3 3c 6e a9 9f 3d e3 8b 5b ba 3e ad 78 bc
       0.027790185 0.07795988 -0.0008375032 -0.015178023
0000e0 be 99 50 3f e3 36 9a 3e 29 ae 13 3d 14 54 c2 3e
       0.8148459 0.3012 0.036054764 0.37954772
0000f0 67 15 ac 3c 40 b6 68 3e 8f df 98 bc 72 e9 b9 3d
       0.0210063 0.22725773 -0.018661289 0.09077729
000100 1b a5 fc 3c ca 5f 08 bd 4c 7b a1 3c f7 64 ca 3c
       0.030840447 -0.033294477 0.019712113 0.024706347
000110 9d 36 0f 3e ad 75 00 3e d7 40 9a 3d a8 cf 48 bd
       0.13985677 0.1254489 0.075318985 -0.04902616
000120 0e 27 bb 3f ce ef 90 3d ef 4a 9e 3e 6f 9f 57 3c
       1.4621294 0.07076989 0.30916545 0.0131605705
000130 ef 1b 51 bd 8d 10 a9 bc d0 de 62 3c 44 ea 8b 3e
       -0.05105203 -0.020637775 0.013847068 0.27327168
000140 3a 30 5a bd da 57 be 3e 25 19 29 3d 3a 21 b7 3c
       -0.05326865 0.371764 0.041283745 0.02235471
000150 fe d0 2d 3d 76 c9 e1 3d 08 a6 68 3e 48 13 4b 3c
       0.04243564 0.11024754 0.22719586 0.012394734
000160 4f 9b d0 bc fd 65 e8 3c b8 8b 2e 3e aa 15 c3 bd
       -0.025464682 0.028368944 0.17045486 -0.095256165
000170 96 c1 a2 bd bd 9f 00 3e 47 6b ab 3c 68 49 2c bd
       -0.0794708 0.12560935 0.020925177 -0.042062193
000180 63 dd 0d bd f8 db 1f 3d 2c af bc bd 7b 0a 9a 3d
       -0.03463496 0.039028138 -0.09213099 0.0752153
000190 d1 a8 5f 3e 04 8f 5e 3c 30 c1 68 3e c6 60 77 3d
       0.21841742 0.013583902 0.22729945 0.060395025
0001a0 a1 72 9e bc 14 fc 3a 3e 31 0f 52 3d 54 95 a0 3d
       -0.019341769 0.18260223 0.05128402 0.07840982
0001b0 5f 9e 4c bd d5 1e 05 3d 05 be 93 bd 36 65 2d 3e
       -0.049955722 0.032500107 -0.07213978 0.1693314
0001c0 9e b7 30 bd 5e 84 6f bd 86 c1 18 3d 85 6a d5 3d
       -0.04314386 -0.058475845 0.037293933 0.104207076
0001d0 31 9b 09 3d 80 72 20 3e e7 bd cb 3e 7a 97 cf bc
       0.033595268 0.15668678 0.39793321 -0.025340784
0001e0 d4 4e ed 3c ce 64 c3 3b 7e 28 4a 3d 40 b6 99 3c
       0.028968252 0.0059629446 0.049355023 0.018763661
0001f0 ea bf bd 3c 0e 69 00 3c f1 ce 99 bd 0b 7c e0 3d
       0.0231628 0.007837547 -0.07510174 0.10961159
000200 1f 95 31 bd 8a c9 db 3b 64 90 20 bc 21 74 e0 bd
       -0.043355104 0.006707375 -0.00980005 -0.1095965
000210 bc 05 53 3d dd 90 5a bd ce 9a 3b bc 7e 1f a0 3d
       0.05151914 -0.05336081 -0.0114504825 0.07818507
000220 c8 a2 43 3d 8f 7b 8e 3d 91 10 26 3c f7 e9 2e 3e
       0.047762662 0.06957161 0.010135786 0.17081438
000230 d7 e9 6d 3d 25 3d 1a 3d 20 a6 02 3a 97 b1 06 be
       0.058084335 0.03765597 0.0004983861 -0.13153683
000240 7f 6f 86 bd cf 2c 1f 3d d8 7c 9e 3d 17 a1 49 3d
       -0.06564235 0.038861092 0.07738656 0.049225893
000250 f2 85 0e bd 24 f7 96 3e 5b 9f ba 3d 6d 58 65 3c
       -0.03479571 0.29485428 0.09112426 0.013998133
000260 ab 08 cf 3c ca 1d 48 3e e0 bb 87 bd 95 4f fa 3d
       0.025272688 0.19542614 -0.06627631 0.1222221
000270 00 60 be 3c 2e 0b 77 3d 7d 51 c9 3d 4b 0b 42 3e
       0.023239136 0.060313396 0.09829996 0.1894962
000280 f8 d1 60 bc 5d 91 af 3e 7a 45 b0 3c 67 06 38 bc
       -0.013721935 0.3429059 0.021517504 -0.011231995
000290 5f 4c ad 3d 43 17 0c 3e 15 c1 0c 3d 87 67 f2 bd
       0.08461832 0.13680749 0.034363825 -0.118361525
0002a0 a8 bb 1c be 7f 14 9a bc 20 6f f8 3a 5b 8a ea bc
       -0.1530596 -0.018808601 0.0018954016 -0.028630426
0002b0 3f 50 ae 3d 00 3c 45 3d e0 93 33 3d 6b a9 94 3d
       0.085113995 0.048152924 0.043842196 0.072588764
0002c0 af fe 86 bc cb 42 c2 bd 6b a6 71 3d 4f 59 9e 3e
       -0.016478864 -0.09485396 0.0589966 0.30927512
0002d0 31 44 48 bc a1 da 2e 3d a8 7d 04 bd 84 67 36 bc
       -0.012223289 0.04268897 -0.032346398 -0.0111330785
0002e0 f6 15 15 3d b8 b8 50 3d 55 51 88 bd 45 00 77 3e
       0.036397897 0.05095741 -0.06656138 0.24121197
0002f0 fd 91 6a 3e d6 f3 6c bd 36 8d a7 3c 89 b3 bc 3d
       0.22907253 -0.057849728 0.020453077 0.09213931
000300 d0 e5 05 3d cb b1 53 3d e1 f9 86 3e a2 d7 50 3e
       0.03268987 0.05168323 0.26362517 0.20394757
000310 ac 0e 6f 3c f7 38 0a bc 9d 85 67 3e 13 5a b2 3c
       0.0145909 -0.008436433 0.22609563 0.021771466
000320 81 c1 c4 bc 5c de 67 3d 44 58 9b 3c c9 0f dc ba
       -0.024018051 0.056608543 0.018962987 -0.0016789372
000330 92 5e d5 bd 14 1b 5f bf cc f4 f6 3c 9a 03 e3 bb
       -0.104184285 -0.8715069 0.030146025 -0.0069279196
000340 8a 95 91 3d 35 d2 34 3e 74 11 cc 3d 11 75 50 bd
       0.071086004 0.17658313 0.099642664 -0.050892893
000350 dc 6e a0 3d 40 d0 8e 3d 95 70 af bc 9f 3e c5 3d
       0.07833645 0.06973314 -0.021415988 0.09631085
000360 ca 6d 07 3e 0d 90 38 3d 95 59 47 bc 87 23 0b 3d
       0.13225475 0.045059253 -0.012167354 0.03396943
000370 11 0c 1c bd d4 8c 67 3d b3 13 fd 3d f3 82 41 3e
       -0.038097445 0.05653079 0.12357273 0.1889761
000380 04 af 54 3d 3f 97 c6 bc 29 50 eb 3d cb ed 61 3d
       0.05192472 -0.024242042 0.11489899 0.055158418
000390 8a 44 50 3d cb e7 33 ba dc 1e 92 3e a7 60 45 3c
       0.050846614 -0.0006862848 0.2853917 0.0120469695
0003a0 6b b5 0e bd 49 fd 83 3d 2a 55 13 3f b3 19 14 3d
       -0.034840982 0.06444795 0.57551825 0.03615732
0003b0 8d da be 3c 2b fe b2 3d 0d 94 10 3c 54 8b 2e 3e
       0.023297573 0.08739885 0.008824361 0.17045337
0003c0 8c 79 56 3d b8 d7 cb 3e d6 be 5a 3d ad 68 89 3e
       0.05236201 0.39813018 0.05340465 0.26837674
0003d0 ad f7 0b bd c6 ce 86 3d 36 34 a2 38 8f a2 3d 3c
       -0.03417175 0.06582408 7.734487e-05 0.0115744015
0003e0 a8 1d e6 bc 0b 83 b2 3d 42 c6 48 3e 42 78 6f bd
       -0.028090313 0.08716401 0.1960688 -0.058464296
0003f0 68 c2 d1 3d 27 b6 a6 bc 4e 4a 6c 3d e2 9a 0a 3f
       0.10242158 -0.020350529 0.05768805 0.5414258

bias f4 [2]
000000 e4 48 10 be 98 6e 1a be
       -0.14090306 -0.1508125

weight f4 [256, 10]
000000 39 35 ae bd e6 3e ec bd e2 b5 65 bd 5a e2 54 bc
       -0.08506245 -0.115354344 -0.05608166 -0.01299342
000010 df c5 6b 3c e9 05 36 be 40 f0 10 be cf b5 66 bd
       0.014390438 -0.17775692 -0.14154148 -0.05632573
000020 c6 29 a3 3d 5c 9a e1 3d 42 ad 95 3e 42 06 69 3f
       0.07966952 0.1101577 0.29233748 0.91025174
000030 0d 01 36 be d4 50 2e 3f 89 af 91 bd 93 14 5e be
       -0.17773838 0.68092084 -0.07113559 -0.21687536
000040 42 4c b9 3e 6e da ba 3c 85 aa 3b bd bb 5d c0 3d
       0.36190993 0.022809234 -0.045816917 0.09392878
000050 d2 f3 99 3e 77 23 83 3e 27 6c 86 3e 83 26 7f bc
       0.30068833 0.25612995 0.2625439 -0.015573147
000060 a3 68 b8 bb 78 54 d0 be 6c f4 a6 be 03 57 14 be
       -0.005627708 -0.40689445 -0.32608354 -0.14486317
000070 de 3c 04 3e 34 08 42 bc 07 cc 8f 3f dc 3c 20 bf
       0.12913844 -0.011842776 1.1234139 -0.62592864
000080 00 37 c7 be a6 f2 48 3e 6e 0c 61 3e 18 6a a3 3e
       -0.3890915 0.19623813 0.21977398 0.3191688
000090 0b e6 ba be df d3 76 bc bc 0e d7 3d b8 c5 6a bc
       -0.36503634 -0.015065162 0.10500857 -0.014329366
0000a0 db 18 5c be 77 a0 91 3f 37 4d 0d be d5 7e d0 3d
       -0.21493857 1.1377095 -0.13798986 0.10180441
0000b0 d3 68 b5 3d f6 fa 05 bf 1f c0 7c bd cc 34 d9 bd
       0.08857884 -0.5233606 -0.06170666 -0.10605773
0000c0 30 a3 cb 3e 70 0d 5a be 2a 53 14 3f a4 fd c7 3f
       0.3977294 -0.21294188 0.579394 1.562428
0000d0 6e 95 39 3e ec ac 6f be 68 ef 9d be cb 6d ea 3e
       0.18123409 -0.23405808 -0.30846715 0.4578689
0000e0 2e 71 07 3f 8d c0 5d 3d af 10 b2 3d e0 8e d3 bd
       0.52907073 0.05413871 0.086945884 -0.103299856
0000f0 92 62 1a be dd 42 40 be 07 e6 49 bf b4 8a 98 3f
       -0.15076664 -0.18775506 -0.7886662 1.1917329
000100 ec c3 41 be 42 cf d3 3d 60 73 ad be a0 eb 73 bc
       -0.18922395 0.10342266 -0.33877087 -0.01488772
000110 8b 19 5b 3e 41 d8 39 bd 26 48 4b 3f 63 34 27 3f
       0.21396463 -0.04537225 0.79406965 0.6531431
000120 a4 c4 a6 be 08 93 ea be 9f ea 0c 3f 61 a5 90 be
       -0.325719 -0.458153 0.55045503 -0.28251174
000130 d0 b8 03 bb bc 4f 44 be e2 07 9c 3a a2 ad 8d 3d
       -0.002009917 -0.19171041 0.0011904205 0.069178835
000140 6f 8f 33 3f 42 85 3d bf 9d a1 1d be b3 50 11 bf
       0.7014074 -0.7403146 -0.15393682 -0.5676376
000150 29 7a f2 bd 62 98 a6 3e ad b5 d7 be 92 14 d5 3c
       -0.118397065 0.32538134 -0.42130795 0.026010785
000160 33 d5 3d be f2 5f 58 3d ff 4d 28 be 2b 2f de bc
       -0.1853836 0.052825876 -0.16436003 -0.0271221
000170 31 a1 84 be b7 8f a0 3e 61 48 93 3e 1d a1 ca 3d
       -0.2590423 0.31359646 0.28766158 0.09894011
000180 a0 27 29 be 8d 90 1a be 1b cc 12 bd 88 ce 4b 3e
       -0.16519022 -0.15094204 -0.03583918 0.19903004
000190 35 ad 20 3e 38 c9 e5 3d bd 18 05 3e dc 93 98 bd
       0.15691073 0.1122002 0.12997718 -0.07450077
0001a0 5c 75 f6 3d 31 be ac bf 5c 0c b8 bf a8 c2 42 bf
       0.12034103 -1.3495542 -1.4378772 -0.7607827
0001b0 1b 06 b5 bd b1 96 b3 be d6 4e 03 3f 52 9d 1f 3f
       -0.08839055 -0.35075906 0.5129217 0.62349427
0001c0 5a d1 ad 3e 55 43 8d 3e ef 1d 00 be d0 2b 11 3d
       0.33948785 0.27590433 -0.12511419 0.035442173
0001d0 57 54 98 bd ff 5f 96 bd 1b e9 75 be f8 ca 43 3e
       -0.074379615 -0.073425286 -0.24014704 0.19120395
0001e0 f6 f2 85 bf 53 de 85 bf f7 81 a6 be 8f fb ef 3d
       -1.0464771 -1.0458473 -0.3252103 0.11717903
0001f0 8f 4a 8d 3e 74 4e 9b bf 7e 58 87 bf ff b0 ae be
       0.27595946 -1.2133317 -1.0573881 -0.34119412
000200 a4 b7 8d 3a 9b dd 4f 3d 49 a6 c7 bc 21 a0 b6 3d
       0.0010812175 0.05074845 -0.024371283 0.08917261
000210 cd 6f 4f 3f be c1 1f bf 89 ac ae 3d c4 f0 86 bf
       0.8102997 -0.62405 0.08529002 -1.0542226
000220 fd ff 4c bf f4 99 6f bf 75 98 fc 3d 11 43 f4 be
       -0.8007811 -0.9359429 0.12333766 -0.47707418
000230 97 34 b0 3f 70 82 bf bb af e7 8d 3e c1 d5 ae 3f
       1.3766049 -0.005844407 0.27715823 1.3658983
000240 a5 7f e1 bd 79 35 8a 3f fb 39 bf 3f a7 af 2f 3e
       -0.110106744 1.0797569 1.4939569 0.1715685
000250 f5 e6 5c 3d f6 8c 41 bd 72 e3 ed bd aa 11 10 bd
       0.053931195 -0.04725357 -0.116156474 -0.035173096
000260 33 a8 30 ba 04 1e 82 be 38 5d 9a bd d3 4a b0 be
       -0.0006738931 -0.25413525 -0.07537311 -0.34432086
000270 ec 09 92 be 77 b2 0a be fa f8 2b 3d 97 dc 76 3e
       -0.28523195 -0.13544641 0.04198549 0.24107586
000280 c1 7b 8f be 65 7a 87 bf ea f1 09 40 3b c0 34 bf
       -0.28024104 -1.0584227 2.1553903 -0.7060582
000290 12 54 3e 3e 8f 5c 8a be f7 9d 81 3e 6e be 91 3e
       0.18586758 -0.27023742 0.2531583 0.284656
0002a0 8f 41 60 bd 8b de 47 3c 2b 29 61 be 7e 39 86 be
       -0.05475002 0.0121990545 -0.2198836 -0.26215738
0002b0 9c 7f f8 bd 6f 03 a7 bc f5 d9 95 bd 59 1c 28 be
       -0.121337146 -0.02038738 -0.07316963 -0.16417064
0002c0 ff fa b4 bd 21 0f 24 bd 9e e9 1d 3c eb 9c c1 3d
       -0.08836936 -0.04005349 0.009638218 0.09453758
0002d0 a6 62 5d be 15 b9 82 be 9f f3 ea bc 9c e7 6f 3d
       -0.21619663 -0.2553183 -0.02868062 0.05857049
0002e0 f8 38 bd 3d 67 db 59 3c 26 77 7e 3b 0d 8e 5a 3a
       0.092393816 0.0132969385 0.0038828342 0.0008337207
0002f0 39 d0 1d bd 7c 4c 89 3c bd 47 1d 3a dd 45 21 3f
       -0.038528655 0.016760103 0.00059997645 0.6299723
000300 52 c2 86 bf dd d7 91 3d fb 42 b4 be bd f0 25 bf
       -1.0528052 0.07121251 -0.35207352 -0.6482046
000310 68 70 05 bf 3d 1b 99 3e 86 4d 09 bd 12 50 17 be
       -0.52124643 0.29903594 -0.033521198 -0.14776638
000320 15 7a ed bb be 6c a9 bc 80 05 b4 bd 63 bd 2d be
       -0.0072472193 -0.020681735 -0.087901115 -0.16966777
000330 cf a3 0e 3e c7 8c e1 be 88 54 d0 be 36 7e 0c be
       0.13929676 -0.44052717 -0.40689492 -0.1372002
000340 93 c0 3f bd a7 74 0e 3e 87 da 38 bf 4a 6b ee be
       -0.046814512 0.13911687 -0.72208446 -0.4656623
000350 77 82 a7 bf a1 e8 5c bf b4 78 b8 be 21 43 96 bf
       -1.308669 -0.86292464 -0.3602959 -1.1739236
000360 9e 8a 99 bf db 91 b6 be 15 34 eb 3e d9 f5 bb be
       -1.1995428 -0.35658154 0.45938173 -0.36711004
000370 d7 d2 27 3f 8b 62 04 3d ea d0 86 3e 57 b2 9b 3f
       0.6555609 0.03232054 0.26331264 1.21638
000380 b8 dc f9 3e 66 d8 73 3f 0b ce 6c 3f ab 97 92 3e
       0.48801208 0.9525207 0.92501897 0.28631338
000390 18 0a f0 be 7f 87 d3 3e 56 8d 4a be 64 c1 a7 be
       -0.468827 0.41314313 -0.19780478 -0.32764733
0003a0 a9 db 43 3f 01 83 00 be 30 63 af be c7 c3 2d bf
       0.7650705 -0.12549974 -0.34255362 -0.6787686
0003b0 1c fd 45 bf 34 51 bd 3d 1a 04 03 bf 05 d0 ff 3e
       -0.7733934 0.09244004 -0.51178133 0.49963394
0003c0 b6 f7 ac bd 0f 9c 78 3d 64 7a d4 3c f5 e9 4a be
       -0.084456846 0.060695704 0.025937267 -0.1981581
0003d0 76 3b 72 3d b1 56 87 bd 5f 2b 65 3d 11 cb 09 3e
       0.059138738 -0.06608332 0.055949565 0.1345637
0003e0 ed 61 0b be 2c ff 1c be ab d2 89 bd e3 b4 a8 bb
       -0.13611574 -0.15331715 -0.06729635 -0.0051485165
0003f0 8f 26 26 bd 2b 7e 58 bd f3 6c 33 be 2c 7f 56 3e
       -0.040564116 -0.0528547 -0.1752203 0.2094695
